model/saved_models/fr/model_fr_pretrained_epoch_14.pt (torch_old, 231736 bytes, 23 tensors)

weight f4 [74, 20]
0	0x00000000	0.0
1	0x00000000	0.0
2	0x00000000	0.0
3	0x00000000	0.0
4	0x00000000	0.0
5	0x00000000	0.0
6	0x00000000	0.0
7	0x00000000	0.0
8	0x00000000	0.0
9	0x00000000	0.0
10	0x00000000	0.0
11	0x00000000	0.0
12	0x00000000	0.0
13	0x00000000	0.0
14	0x00000000	0.0
15	0x00000000	0.0
16	0x00000000	0.0
17	0x00000000	0.0
18	0x00000000	0.0
19	0x00000000	0.0
20	0xbd21b2bd	-0.0394771
21	0xbd988e92	-0.07449068
22	0x3d1f0ba3	0.038829457
23	0x3cfb7314	0.030694522
24	0xbb949549	-0.0045343977
25	0xbcd6c95c	-0.026219063
26	0xbd69c056	-0.05706819
27	0xbd016124	-0.03158678
28	0xbd3cebd6	-0.04612335
29	0x3bb9a56b	0.0056654713
30	0x3d0772e9	0.03306857
31	0x3f99a8b0	1.2004604
32	0xbe0475d3	-0.12935571
33	0xbd1f945d	-0.03895985
34	0xbcb1619f	-0.021652995
35	0x3d0e50d4	0.034745052
36	0x3cb17d5f	0.021666227
37	0xbd3ecf80	-0.046584606
38	0x3950432e	0.00019861452
39	0xbd7d2aed	-0.061808515
40	0x3e28ea61	0.16495658
41	0xbd702c34	-0.058635905
42	0x3f441b6f	0.7660436
43	0xbd98928b	-0.07449826
44	0xbdea6324	-0.11444691
45	0x3f08a756	0.53380334
46	0xbe8410d4	-0.2579409
47	0xbec8dc32	-0.39230496
48	0x3f39d3af	0.7258863
49	0x3d86ab23	0.065756105
50	0x3f6ade21	0.9174519
51	0xbe997e9e	-0.29979414
52	0xbf5fd7d1	-0.87438685
53	0x3e12472b	0.14284961
54	0x3f7a83e2	0.9785749
55	0xbecc0161	-0.39844802
56	0xbb6fcd02	-0.00365907
57	0xbd58c925	-0.0529262
58	0x3f81706b	1.0112432
59	0xbd269a30	-0.04067439
60	0x3c754217	0.01496937
61	0x3d6f5401	0.05842972
62	0x3c1ca6f7	0.009561292
63	0xbca0f482	-0.01964784
64	0x3a20c23b	0.0006132458
65	0x3d13f905	0.036126155
66	0x3d1cabdd	0.03824984
67	0x3c2f5cc5	0.01070327
68	0xbcd446c6	-0.025912654
69	0xbbca2d00	-0.006169915
70	0x3b5bb410	0.0033524074
71	0xbeb659cb	-0.35615382
72	0x3ed50700	0.41606903
73	0xbc894958	-0.016758606
74	0xbd8c189f	-0.068406336
75	0xbd1d1edf	-0.03835952
76	0xbd898832	-0.0671543
77	0xbd180bcb	-0.03712062
78	0x3d75620a	0.05990795
79	0x3cd1efff	0.025627134
80	0x3d838288	0.06421381
81	0x3c5376d7	0.012906752
82	0xbd3a07b9	-0.04541752
83	0xbdb19dd0	-0.086726785
84	0xbe116e5f	-0.1420226
85	0xbd72b37c	-0.0592532
86	0xbb1c56ba	-0.0023855404
87	0xbcfe7098	-0.031059548
88	0x3e50d8ad	0.20395155
89	0xbcab9ac2	-0.020947818
90	0xbc8c52fa	-0.01712941
91	0x3e027b53	0.12742357
92	0xbec7d802	-0.39031988
93	0x3ceee84e	0.029163506
94	0xbdac4c8f	-0.0841304
95	0xbca48d81	-0.020087006
96	0xbdc47c96	-0.095940754
97	0x3c700fcb	0.014652203
98	0x3c40388b	0.011732231
99	0x3ce84aae	0.028355923
100	0xbf94fbfe	-1.1639402
101	0xbed447c6	-0.4146101
102	0xbe8ad971	-0.2711902
103	0xbf3d8eac	-0.74045825
104	0x3efc551e	0.4928369
105	0xbf9278e9	-1.1443149
106	0x3ec76420	0.38943577
107	0x3ff901c4	1.9453664
108	0xbe5c7cc3	-0.21531968
109	0x3f7312e8	0.94950724
110	0xbf329330	-0.6975584
111	0xbf186953	-0.5953571
112	0x3f7349c1	0.95034415
113	0xbf3a0234	-0.7265961
114	0x3fdd68c5	1.7297598
115	0xbf0fa413	-0.5610973
116	0x3fcd5cea	1.604398
117	0xbed21917	-0.41034767
118	0x3e4e2dde	0.20134684
119	0x3d4af6c8	0.049551755
120	0x3d875fa3	0.06610038
121	0xbe2560c6	-0.16150197
122	0xbdac71b4	-0.08420125
123	0xbe958dc8	-0.29209733
124	0xbd8f3aa7	-0.06993609
125	0x3cadb318	0.021203563
126	0x3ba9f841	0.005187065
127	0xbc0918e7	-0.008367754
128	0xbf13960d	-0.57650834
129	0x3e993dce	0.29929966
130	0x3df9bdd8	0.12194413
131	0xbe0887dd	-0.13333078
132	0xbd7fac63	-0.06242026
133	0x3d475976	0.0486693
134	0xbec0d05e	-0.37658972
135	0xbe1ceec7	-0.15325461
136	0x3dc2bccf	0.09508669
137	0x3d6a481c	0.057197675
138	0x3dc859a6	0.09782724
139	0x3dc2e6ae	0.09516655
140	0x3fabc107	1.3418282
141	0x3e0e2d95	0.13884576
142	0xbeab6e83	-0.3348275
143	0x3f569a0f	0.83828825
144	0x3f853bf7	1.0408925
145	0x3ee04ac4	0.43807042
146	0xbf4ed037	-0.8078646
147	0x3f0f95ba	0.5608784
148	0x3e2820ea	0.16418806
149	0x3b4d008e	0.0031280848
150	0xbe776013	-0.24157743
151	0x3c2332ba	0.009960825
152	0xbf3330c5	-0.6999629
153	0xbe1ba1f2	-0.15198496
154	0x3f68d252	0.90945923
155	0xbf1bf9d8	-0.60928106
156	0xbd6e87ba	-0.058234908
157	0xbfd05e1d	-1.6278721
158	0x3e3f221d	0.18665357
159	0x3ec8ce6e	0.39219993
160	0xbebe3765	-0.37151638
161	0x3e890b84	0.26766598
162	0xbe8683c7	-0.26272413
163	0x3f8e4d9e	1.1117437
164	0xbf94d1cc	-1.1626525
165	0xbe73353a	-0.23750773
166	0xbccd3b02	-0.025052551
167	0x3e942a05	0.28938308
168	0x3f3368c5	0.7008174
169	0x3fa258ab	1.2683309
170	0xbe2645c3	-0.1623755
171	0x3d336d0c	0.043805167
172	0xbf0fec7b	-0.56220216
173	0xbd44c77c	-0.048041806
174	0xbf6a8baf	-0.9161939
175	0xbf02c435	-0.5108064
176	0xbec565b1	-0.38554147
177	0x3e2e09cc	0.16995925
178	0x3ebb608f	0.36597106
179	0xbe9a7679	-0.30168512
180	0x3f0a1838	0.53943205
181	0x3f71a580	0.9439316
182	0xbedbd11c	-0.42932975
183	0x3f318f3f	0.693592
184	0x3e14de11	0.14537837
185	0x3f21d6cc	0.6321838
186	0x3e386908	0.18008816
187	0x3e301aae	0.17197677
188	0xbe93ab13	-0.28841457
189	0x3e1fc178	0.15601146
190	0xbe6af2e7	-0.22944222
191	0xbea15eb6	-0.3151757
192	0x3d8110e4	0.0630205
193	0xbede07cc	-0.43365324
194	0x3fc1740d	1.5113541
195	0x3fb242ca	1.3926632
196	0xbe4e6118	-0.20154226
197	0x3e150345	0.14552028
198	0xbf053188	-0.52028704
199	0x3e70b904	0.23508078
200	0xbe512dbc	-0.20427603
201	0xc015dd01	-2.341614
202	0x3f2a54a1	0.66535383
203	0x3f51f4fa	0.8201443
204	0xbe44c78f	-0.1921675
205	0xbe37dfcf	-0.1795647
206	0xbf413c4e	-0.7548264
207	0xbeb49584	-0.3527032
208	0xbe6516f0	-0.22372031
209	0x3d961ba2	0.07329489
210	0xbe05ba1e	-0.1305928
211	0xbddec021	-0.108764894
212	0x3f243966	0.64150083
213	0xbe8aabf2	-0.2708431
214	0x3f28b975	0.65907985
215	0x3f412856	0.7545217
216	0x3f93af79	1.1537925
217	0xbe5d4bc7	-0.21610938
218	0xbdf9be62	-0.12194516
219	0xbeb0f890	-0.34564638
220	0xbe7a7493	-0.24458532
221	0xbe712c25	-0.23551996
222	0x3dffa242	0.1248212
223	0xbf017d07	-0.505814
224	0xbe50e8aa	-0.20401254
225	0x3dc36c2d	0.09542117
226	0x3e378b03	0.17924123
227	0xbe0e9d12	-0.13927105
228	0x3db16506	0.08661847
229	0x3e5f6c42	0.21818641
230	0x3e348423	0.17628531
231	0xbed6ad5f	-0.41929147
232	0xbe992793	-0.29913005
233	0xbed0c2e5	-0.40773693
234	0x3d0306ce	0.03198891
235	0xbeb157a8	-0.3463719
236	0xbd8775aa	-0.066142395
237	0x3d38a013	0.045074534
238	0xbd725cc9	-0.059170518
239	0xbe1da5a0	-0.15395212
240	0x3edb54f7	0.4283826
241	0xbede69e1	-0.43440154
242	0xbee66faa	-0.45007068
243	0x3e961953	0.29316196
244	0x3f792741	0.9732552
245	0x3f28d4cb	0.65949696
246	0xbe38e63b	-0.18056576
247	0xbf6062a9	-0.87650543
248	0x3ef802b7	0.4843957
249	0xbf9fbdfe	-1.2479856
250	0x3c796d22	0.015223773
251	0xbe95ec66	-0.2928192
252	0x3d7ba994	0.06144102
253	0xbfb01196	-1.3755367
254	0xbef926ce	-0.48662418
255	0x3de6f052	0.11276306

weight_ih_l0 f4 [200, 20]
0	0xbea48266	-0.32130736
1	0x3f8bfc7d	1.0936428
2	0x3eb10571	0.34574464
3	0x406741d0	3.6133919
4	0xbf8f7319	-1.1207
5	0xbe06233c	-0.13099378
6	0xbecd1ded	-0.40061894
7	0xbf49d4b8	-0.7884021
8	0xbfc359ae	-1.5261743
9	0xbf7ae629	-0.98007447
10	0xbdd86508	-0.10566145
11	0x3f3ed9be	0.74551
12	0x3f9fe75c	1.249248
13	0x3f09e5cd	0.53866273
14	0x3eee7759	0.4657543
15	0xbe162904	-0.14664084
16	0xbfa20777	-1.2658528
17	0xbf21db8a	-0.63225615
18	0x3e0f84a3	0.1401544
19	0x3f259214	0.6467602
20	0x3f36d9f6	0.7142633
21	0xbfc1cceb	-1.5140661
22	0x3eb1379d	0.34612742
23	0xbef3a1e3	-0.47584447
24	0x3f08e317	0.5347151
25	0xbed79911	-0.42108968
26	0xbea2ed04	-0.31821454
27	0xbf19e3c3	-0.6011316
28	0xbf03a0f3	-0.51417464
29	0xbf40d437	-0.75323814
30	0x3f240173	0.6406471
31	0x400272ea	2.0382638
32	0x3ef79c67	0.48361513
33	0x3f2d3cf8	0.67671156
34	0x3f827de0	1.0194664
35	0xbeab7e75	-0.33494917
36	0x3f11b327	0.5691399
37	0x3fdecfa7	1.740712
38	0xbe157d49	-0.14598574
39	0xbf4696d6	-0.7757391
40	0x3f3b2772	0.73107064
41	0xbe44f598	-0.19234312
42	0xbdef3362	-0.11679722
43	0x3eb63c9d	0.3559312
44	0x3f234ae7	0.63786167
45	0xbf068a56	-0.52554834
46	0xbde85fa0	-0.11346364
47	0x3f03d2b1	0.51493365
48	0x3f5e66dd	0.86875707
49	0xbd3d6066	-0.04623451
50	0x3ea72836	0.32647866
51	0x3f247d4e	0.642537
52	0x3f6f962b	0.93588513
53	0xbfa13789	-1.2595073
54	0x3e3a2458	0.18177927
55	0x3f972827	1.1809129
56	0xbd9f7a3e	-0.07786988
57	0xbfd20269	-1.6406986
58	0x3f79cf62	0.97582066
59	0xbc83ab52	-0.016072903
60	0x3f461b29	0.77385193
61	0x3f267a00	0.6502991
62	0x3f070b59	0.5275169
63	0xbef65591	-0.48112157
64	0x3f2674a4	0.6502173
65	0x3ed4ca2c	0.41560495
66	0xbe5f5672	-0.2181032
67	0x3e98a2d4	0.29811728
68	0xbe118603	-0.14211278
69	0x3f3c4f9a	0.7355896
70	0xbe58bab2	-0.21164969
71	0xbdb63418	-0.08896655
72	0x3e52b1d1	0.20575644
73	0x3ce2806a	0.027649123
74	0x3ee3b8cf	0.44476935
75	0x3ec2b55a	0.38028985
76	0x3ed46fda	0.41491586
77	0x3f3e4102	0.74317944
78	0xbeb48d8f	-0.3526425
79	0x3df18da6	0.117945954
80	0xbe48f687	-0.19625293
81	0x3e9ae4d8	0.3025272
82	0x3f03c739	0.51475865
83	0x3eefda5c	0.46846282
84	0xbe3e4ea2	-0.18584684
85	0xbec4adf2	-0.3841396
86	0xbd0e9675	-0.034811456
87	0x3e549e02	0.207634
88	0x3f144725	0.5792106
89	0x3e9e6da0	0.30943012
90	0xbf08786b	-0.53308743
91	0xbdedc8e0	-0.116105795
92	0xbdaf9a74	-0.085743815
93	0x3e4f0fd1	0.20220877
94	0xbf3fdd4e	-0.7494706
95	0x3eeb1314	0.45912993
96	0xbeba31b5	-0.36366048
97	0x3e80f921	0.2519007
98	0x3df93bf4	0.12169638
99	0xbdae646b	-0.08515247
100	0x3f1ed3ee	0.6204213
101	0x3e216438	0.15760887
102	0x3e7b3682	0.24532512
103	0x3f3dbabb	0.74113053
104	0xbe910238	-0.28322005
105	0x3f932fcc	1.1498961
106	0xbe9b57ce	-0.30340427
107	0xbf48bc2d	-0.78412133
108	0xbf5f0b14	-0.8712628
109	0xbf84ce86	-1.0375526
110	0x3da7151a	0.08158322
111	0x3f0282f3	0.5098106
112	0xbf669276	-0.9006723
113	0x3e8d4a2e	0.27595657
114	0xbe2bc956	-0.16776022
115	0xbd1568f2	-0.036477037
116	0xbe0c47a0	-0.13699198
117	0x3f243cd9	0.64155346
118	0x3eb2bd3c	0.3491
119	0x3f2b5a9a	0.6693512
120	0xbfb955fe	-1.4479368
121	0x3eb5c093	0.35498485
122	0x3d174c2b	0.036937874
123	0x3daf18f7	0.085496835
124	0xbf1f59ee	-0.62246597
125	0xbe912be5	-0.283538
126	0xbec03b66	-0.37545317
127	0xbf462aa2	-0.774088
128	0xbebabc8d	-0.36471978
129	0xbc990708	-0.01868011
130	0x3f362367	0.7114777
131	0x3dfa64c8	0.12226254
132	0x3e085a4c	0.13315696
133	0xbcba392f	-0.022732345
134	0xbf2d9c98	-0.6781707
135	0xbf22027b	-0.63285035
136	0xbf008abf	-0.5021171
137	0x3ec60c42	0.38681227
138	0xbbc3a815	-0.0059709647
139	0xbec93263	-0.39296255
140	0xbe92b8fd	-0.2865676
141	0xbf17ce7b	-0.5929944
142	0x3f81b7d5	1.0134226
143	0xbe9d3b56	-0.30709332
144	0xbf209248	-0.6272321
145	0xbea439bb	-0.32075295
146	0xbf751961	-0.9574185
147	0x3f4b55d5	0.79427844
148	0x3f092c35	0.5358308
149	0xbd20ba6c	-0.039240286
150	0xbe4e6ac2	-0.20157912
151	0x40286a2c	2.6314802
152	0xbed1e4a5	-0.40994754
153	0xbebd7ca2	-0.3700915
154	0x3ec57a65	0.38569942
155	0x3f960e57	1.1723126
156	0x3c935848	0.017986432
157	0x3ee0945b	0.43863186
158	0xbf0bcf49	-0.5461317
159	0xbe84d911	-0.2594686
160	0xbf2655ae	-0.64974487
161	0xbf9c5e8c	-1.2216353
162	0xbf2d2b0e	-0.6764382
163	0xbf91bc11	-1.1385518
164	0x3f31d599	0.6946655
165	0xbf954ddd	-1.1664387
166	0xbf354d71	-0.7082129
167	0x3f1b4ce5	0.60664207
168	0x3ff9e165	1.952191
169	0xbf56495c	-0.8370569
170	0x3f7572f6	0.9587854
171	0xbddf58c0	-0.109055996
172	0xbc0096c2	-0.007848443
173	0xbf04109b	-0.5158784
174	0x3fba4ca7	1.4554642
175	0x3f3352e7	0.70048374
176	0xbf4c59e9	-0.7982469
177	0xbdf58401	-0.11988068
178	0xbfa7d053	-1.311045
179	0xbec8101a	-0.39074785
180	0xbe9491e7	-0.29017565
181	0xbee2acf9	-0.44272593
182	0x3f2e6d5f	0.6813564
183	0x3e324010	0.1740725
184	0x3db8aeb6	0.090176985
185	0x3f00a3a3	0.5024969
186	0xbe8ebee2	-0.27880007
187	0x3e138629	0.14406647
188	0xbe96749c	-0.2938584
189	0x3e331f40	0.1749239
190	0xbefcc10e	-0.4936604
191	0x3e8728e5	0.26398388
192	0xbd4d933c	-0.05018924
193	0x3d317e08	0.043333083
194	0x3deb3f7d	0.11486719
195	0x3f48b834	0.7840607
196	0xbdd14c19	-0.102195926
197	0xbe557de1	-0.208488
198	0x3e4488e4	0.19192845
199	0xbe504704	-0.2033959
200	0xbdd24b07	-0.102682166
201	0xbf439c31	-0.76410204
202	0xbe2ae5e5	-0.1668926
203	0xbe182fbf	-0.14861964
204	0x3f9415bd	1.1569134
205	0x3e6b0bc7	0.22953711
206	0x3df26b1c	0.11836836
207	0x3df07d61	0.11742664
208	0xbf0de1a0	-0.554224
209	0xbee8aaeb	-0.454429
210	0xbf02de40	-0.51120377
211	0xbcab44d2	-0.02090684
212	0x3e394275	0.18091758
213	0xbef6de7b	-0.48216614
214	0x3e919078	0.28430533
215	0xbe361d92	-0.17784718
216	0x3e04762b	0.12935703
217	0xbe0a06b9	-0.13479127
218	0xbeb1de7c	-0.34740055
219	0x3e657443	0.22407632
220	0x3da1e100	0.079042435
221	0xbfea3230	-1.8296566
222	0x3f9015a0	1.12566
223	0x3ecf213e	0.4045505
224	0xbf26d14f	-0.6516313
225	0xbec267fa	-0.37969953
226	0xbf944500	-1.1583557
227	0xbea346eb	-0.31890044
228	0x406f4ec5	3.7391827
229	0x3e05654c	0.13026923
230	0x3ef77e46	0.48338526
231	0x3faa3368	1.3296938
232	0xbfb9040d	-1.4454361
233	0xbf4e78d4	-0.8065312
234	0xbc9f5ae7	-0.019452525
235	0x3f2a40cd	0.6650513
236	0xbeb67826	-0.3563854
237	0x3ee55362	0.4479018
238	0x3e76f885	0.2411824
239	0xbf609aac	-0.8773601
240	0xbf500ef4	-0.81272817
241	0xbee7e090	-0.45288515
242	0xbefd493c	-0.49469936
243	0xbf997f0d	-1.1991898
244	0x3eff05da	0.49809152
245	0x3e3841b9	0.17993821
246	0x3efa9bb2	0.4894691
247	0x3deb3e26	0.11486463
248	0xbeda2aea	-0.42610866
249	0xbea9bea7	-0.3315327
250	0x3f1cbc9e	0.61225307
251	0x3d272484	0.04080631
252	0x3f4f0e2a	0.8088099
253	0xbed7615b	-0.42066464
254	0x3f540a06	0.82827795
255	0xbe232e19	-0.15935554

weight_hh_l0 f4 [200, 50]
0	0xbfe1f7ca	-1.7653744
1	0xbfd33487	-1.6500405
2	0x3e5bc761	0.21462776
3	0x3ed1532a	0.40883762
4	0xc02364a8	-2.5530186
5	0xc0708669	-3.7582037
6	0xc006dfff	-2.1074216
7	0xbfd6bc96	-1.6776302
8	0x3e610b46	0.21976957
9	0x3f9455ff	1.1588744
10	0xbf8b0e98	-1.0863829
11	0xbf06a5f5	-0.5259698
12	0x3fd08389	1.6290141
13	0xc0faad61	-7.8336644
14	0x40110434	2.2658815
15	0x40755ddc	3.8338537
16	0xbfdf6f7c	-1.7455897
17	0x3f899cac	1.0750937
18	0x406475f6	3.5696998
19	0x3d4195e8	0.047262102
20	0x3f917a58	1.1365461
21	0x3fabdb25	1.3426253
22	0x3fbe1bfd	1.4852291
23	0xbf87e162	-1.0615656
24	0x402f14e0	2.735649
25	0xc093f3e5	-4.6235223
26	0xbe45d7c7	-0.19320594
27	0x3d157c40	0.036495447
28	0xbfa3f92f	-1.281042
29	0xbe0a055d	-0.13478608
30	0xbfd7dcc0	-1.6864243
31	0xc008add2	-2.1356091
32	0xbe55ddbb	-0.20885365
33	0xbf2274dc	-0.63459563
34	0x4093efe9	4.623036
35	0x40727e55	3.7889607
36	0x3f020247	0.50784725
37	0xbe375625	-0.17903955
38	0x3fbab11f	1.4585303
39	0x404815ad	3.126323
40	0x3efc2a4a	0.49251014
41	0x400caeef	2.198177
42	0x3f626430	0.88434124
43	0x3d050446	0.03247478
44	0x4049fa58	3.1559048
45	0xbf0283b1	-0.50982195
46	0xbe886ae8	-0.26644063
47	0x3f2a91e6	0.66628873
48	0xc08be1ab	-4.3712974
49	0x3f347e64	0.70505357
50	0xbf40909d	-0.7522066
51	0xbf6b0dda	-0.9181801
52	0x3f697bfd	0.91204816
53	0x3fceb455	1.6148783
54	0x3ebd42ae	0.36964935
55	0x3f8c08d9	1.09402
56	0x3e25d556	0.16194662
57	0xc039013e	-2.8907008
58	0x3ec7b7a4	0.39007294
59	0x3f898346	1.0743186
60	0x3f35a515	0.7095502
61	0xbeda54cc	-0.4264282
62	0x3e51bdba	0.20482531
63	0x3f874402	1.0567629
64	0x3fc8ee0d	1.5697647
65	0xbf23c5f9	-0.6397396
66	0xbfa43a36	-1.2830265
67	0x3fd77740	1.6833267
68	0x401454b4	2.3176699
69	0x3f7256b0	0.94663525
70	0x3ed5e0a0	0.41772938
71	0xbf05456c	-0.52059054
72	0xbf2a3525	-0.6648734
73	0xbed65cb4	-0.41867602
74	0x3f8aec26	1.0853317
75	0xbe7f1f13	-0.24914198
76	0xbfea9ef9	-1.8329765
77	0x3fc00211	1.5000631
78	0x3f3691c3	0.71316165
79	0x3eb82123	0.3596278
80	0xbef8683e	-0.4851703
81	0xbfd9eaea	-1.7024815
82	0x3fab4a17	1.3381985
83	0xbfba57f5	-1.4558092
84	0xbf4df5ba	-0.80453074
85	0xbef2b5db	-0.4740437
86	0x3fb19d07	1.3876046
87	0x3f27a70c	0.6548927
88	0xbcc8c18e	-0.024506357
89	0xbeaa2d9b	-0.3323792
90	0xbf2d60bd	-0.67725736
91	0x3f52b350	0.8230486
92	0xbe467a8b	-0.19382684
93	0xbefd0d02	-0.49423987
94	0x3fd54d69	1.6664249
95	0x3eefa0a3	0.46802244
96	0x3fa96c4c	1.3236175
97	0x400cc864	2.1997309
98	0xbf0c8f30	-0.54905987
99	0x400445fd	2.0667717
100	0xbf14913a	-0.580341
101	0xbdaf0875	-0.08546535
102	0xbc687975	-0.014189114
103	0xbea2113f	-0.31653783
104	0xc012a227	-2.291147
105	0x3ec278f8	0.37982917
106	0x3f5c20ac	0.85987353
107	0xc03bcfca	-2.9345574
108	0xbfc4e2fc	-1.538177
109	0x3f72e1c4	0.9487574
110	0xc00b7e68	-2.1795902
111	0x3dbbca37	0.09169429
112	0xbe66f232	-0.22553328
113	0x3faded44	1.3588033
114	0xbfc2df42	-1.5224383
115	0x3f6883b0	0.9082594
116	0xbd1b1e19	-0.0378705
117	0xbf7d99bc	-0.99062705
118	0x3f9b6cf4	1.2142625
119	0x3e143cf3	0.14476375
120	0x3eff5b32	0.49874264
121	0xbf38272b	-0.71934766
122	0x3fac7bca	1.3475277
123	0x3e3f5938	0.18686378
124	0xbca91b0e	-0.020642783
125	0x3f55b2cd	0.83475953
126	0xbe5f3ea1	-0.21801235
127	0xbf22d53f	-0.6360664
128	0x3ffb4ca6	1.9632766
129	0x3f1307cf	0.5743379
130	0x3ed8bce4	0.42331612
131	0x3f9af5bb	1.2106241
132	0x3f87c7e2	1.0607874
133	0xbf39cb02	-0.7257539
134	0x3ee607ec	0.4492792
135	0x4048bc43	3.1364906
136	0xbf5dc3f1	-0.8662711
137	0xc085b74d	-4.1786256
138	0x3f2a2754	0.6646626
139	0xbf5a758e	-0.85335624
140	0x3e76c314	0.24097854
141	0x3e15750f	0.14595436
142	0xbfa7075f	-1.3049124
143	0x3cc67bb0	0.0242289
144	0x407a4ade	3.9108195
145	0x4037d3e3	2.8723075
146	0x3f6f6773	0.93517226
147	0x40855f79	4.1679044
148	0xbfaaf882	-1.3357089
149	0xbe3da3ff	-0.18519591
150	0xbee163c8	-0.4402144
151	0xbf25daf5	-0.64787227
152	0xbf8c5955	-1.0964762
153	0x3f564ea4	0.83713746
154	0xbe48cb3a	-0.19608775
155	0xbe77728b	-0.24164788
156	0xc031ffbb	-2.7812335
157	0xbf48296f	-0.7818822
158	0xbe9db6a0	-0.30803394
159	0xbe72f984	-0.23727995
160	0xbf166cbe	-0.5875968
161	0xbde78981	-0.11305524
162	0xbfbd86b5	-1.4806734
163	0x402463c7	2.56859
164	0x3fa002b2	1.2500823
165	0xbe807429	-0.25088623
166	0xbf09385d	-0.5360163
167	0xbf094ea7	-0.5363564
168	0xbf3b9a35	-0.73282176
169	0xbe9df760	-0.30852795
170	0xc00ecc4c	-2.2312193
171	0x3f165466	0.5872253
172	0x3fae89eb	1.3635839
173	0x3beda51c	0.0072523486
174	0xbea22f42	-0.3167668
175	0xbf5a636a	-0.85307944
176	0xbdd8c055	-0.105835594
177	0xbf04024c	-0.51566005
178	0xbfc1354a	-1.5094388
179	0xbe5a962c	-0.21346349
180	0xbf1b4e9b	-0.6066682
181	0x3f0b6d22	0.544634
182	0x3fb6bd13	1.4276451
183	0x3ecc03c7	0.39846632
184	0xbe2e7b24	-0.17039162
185	0x3f8ca0df	1.0986594
186	0x3d5c5d14	0.053799704
187	0x40103d9a	2.2537599
188	0x3e98ff0b	0.29882082
189	0x3ebf916f	0.37415645
190	0x4050932d	3.258983
191	0xbf6741ef	-0.9033498
192	0x3e1118fb	0.14169686
193	0xbe29829e	-0.16553733
194	0x3ce47599	0.027888106
195	0xbd04f4a8	-0.032459885
196	0xbf03f761	-0.51549345
197	0x3ffc78fc	1.9724422
198	0x401eb203	2.479615
199	0xbf7cdb53	-0.9877216
200	0xbf74742c	-0.95489764
201	0xbfbfcb6e	-1.4983957
202	0x3e0d00d7	0.13769852
203	0x3e874d95	0.26426378
204	0x3ef75c20	0.48312473
205	0xbf15e3bb	-0.58550614
206	0xbce6a518	-0.028154895
207	0x3f3bcf56	0.73363245
208	0x3f1601c3	0.5859644
209	0x402afb69	2.6715949
210	0xbf092577	-0.5357279
211	0xbf0bb36d	-0.54570657
212	0xbfe26107	-1.768586
213	0xc109fa28	-8.623573
214	0xbe395036	-0.18097004
215	0xbfcb4e2e	-1.5883234
216	0xbfbb4079	-1.462905
217	0x3d5edb7d	0.05440854
218	0x3fe81303	1.8130802
219	0x400239e9	2.0347846
220	0x3f12fe1a	0.5741898
221	0xbed20770	-0.410213
222	0xbf02226a	-0.5083376
223	0x3e0056ca	0.12533107
224	0x40057100	2.085022
225	0xbfbedad5	-1.4910532
226	0xbf13d412	-0.5774547
227	0x3f0f86b5	0.5606492
228	0xbea67067	-0.3250763
229	0x3f8e4bb6	1.1116855
230	0x3db51fe8	0.08843976
231	0xbfa37378	-1.2769613
232	0x3fa1ee1d	1.2650791
233	0x3e51654c	0.20448798
234	0x4045e3cd	3.0920289
235	0xbf42abcc	-0.7604339
236	0x3f2cef08	0.6755223
237	0x3f273f99	0.6533142
238	0x3f466a96	0.7750639
239	0x3f31dbb3	0.6947586
240	0x3e721e4c	0.2364437
241	0x3d7a84c0	0.061161757
242	0x3df0b026	0.11752348
243	0x3de1849d	0.11011622
244	0x401c74e2	2.444634
245	0xbf91fae4	-1.1404691
246	0xbd3b0ee9	-0.045668516
247	0x3ed72e8e	0.42027706
248	0xbf22b188	-0.6355214
249	0x3eed9bec	0.4640802
250	0x3d195f82	0.0374446
251	0x3f03d2ce	0.5149354
252	0xbf608c18	-0.87713766
253	0x3fd5d31f	1.6705054
254	0x3e58bedf	0.21166562
255	0xbe13f431	-0.1444862

bias_ih_l0 f4 [200]
0	0x3e06cdbf	0.13164423
1	0xbddb0926	-0.10695104
2	0x3f83a851	1.0285741
3	0xbe7d00c2	-0.2470732
4	0x3fa1f796	1.2653682
5	0x3fdd9432	1.7310851
6	0x3d4cc732	0.049994655
7	0x3f02f86c	0.5116031
8	0x3ddd0ae3	0.10793092
9	0x3f13cc41	0.5773354
10	0x3fcd7725	1.6051985
11	0x3e927cc0	0.28610802
12	0xbe2dc6f9	-0.16970433
13	0x3ebe2e27	0.37144586
14	0x3d8c3ae6	0.068471715
15	0xbdf945ec	-0.1217154
16	0x3fadc410	1.3575459
17	0x3ef6938c	0.48159444
18	0x3f4d654f	0.8023271
19	0x3eec1dbb	0.46116433
20	0x3ef18047	0.4716818
21	0x3eb1739a	0.3465851
22	0x3f0db4df	0.5535411
23	0xbe5e93be	-0.21736047
24	0xbe10e225	-0.14148767
25	0x3f51ef63	0.820059
26	0xbe8c052f	-0.27347705
27	0x3f4b2bcf	0.7936372
28	0x3e8a2cb4	0.2698723
29	0x3ee912ad	0.4552206
30	0x3fb69878	1.426528
31	0x3f130380	0.57427216
32	0x3e914ef1	0.2838054
33	0x3f7554c0	0.95832443
34	0x3f1a1edb	0.6020333
35	0x3dc67272	0.096897975
36	0x3fadda9b	1.3582338
37	0x3f839331	1.0279294
38	0x3d8c9525	0.068643846
39	0x3fe60253	1.7969459
40	0xbe12e197	-0.14343868
41	0x3e99f950	0.30073023
42	0xbdda51fd	-0.10660169
43	0xbed89c0f	-0.42306563
44	0x3fb69214	1.426333
45	0x3db2d72e	0.087324485
46	0x3e59cc82	0.2126942
47	0x3dc78bd5	0.09743468
48	0x4020ac62	2.5105214
49	0x3dddc198	0.10827941
50	0xbeddf6b9	-0.43352297
51	0x3f31af78	0.6940837
52	0x3fb00b11	1.3753377
53	0xbe9ae633	-0.30253753
54	0x3f8456ee	1.0339029
55	0x3fb3ba00	1.4041138
56	0xbdf16a09	-0.11787803
57	0xbf10d91f	-0.565813
58	0x3e31bcbd	0.17357154
59	0xbc9c66d8	-0.019092008
60	0x3e8b6171	0.2722278
61	0x3ecbadb0	0.3978095
62	0xbe0681e0	-0.13135481
63	0x3fd55321	1.6665994
64	0xbe347f22	-0.17626622
65	0x3faa0095	1.3281428
66	0x3e1fcaf0	0.15604758
67	0x3f800b78	1.00035
68	0x3ea7f067	0.328006
69	0xbf84b630	-1.0368099
70	0x3f870c90	1.0550709
71	0x3e9de681	0.30839923
72	0x3ec87036	0.3914811
73	0xbe30ee8a	-0.17278495
74	0x3f6bb14c	0.9206741
75	0x3e52fded	0.20604677
76	0x3f9e0264	1.234448
77	0x3e8f408b	0.2797893
78	0xbd281194	-0.04103239
79	0x3ea1d90f	0.31610915
80	0xbf19d66f	-0.60092825
81	0x3f1cdf5c	0.6127832
82	0x3f401171	0.75026613
83	0xbf0db81e	-0.55359066
84	0xbefb79d1	-0.49116376
85	0xbf3c51b3	-0.73562163
86	0xbe4c8a5e	-0.19974658
87	0x3eadfa11	0.33979848
88	0x3eca4a2b	0.3950971
89	0xbffc84ed	-1.9728066
90	0x3f82322e	1.0171564
91	0x3e625d96	0.22106013
92	0x3f42d5e0	0.761076
93	0x3e217d9b	0.15770571
94	0x3e980a78	0.29695487
95	0xbe7ff008	-0.24993908
96	0xbe409ba9	-0.1880938
97	0xbea6d1fb	-0.32582077
98	0x3f4d89f1	0.80288607
99	0xbd8050a0	-0.06265378
100	0xbf07c9f6	-0.5304254
101	0xbf255aca	-0.6459166
102	0xbe0044d5	-0.12526257
103	0x3f847ffa	1.0351555
104	0x3e89a891	0.26886418
105	0xbf169682	-0.58823407
106	0xbf70ce25	-0.9406455
107	0xbd51133a	-0.051043727
108	0x3efff9c3	0.4999524
109	0x3e3bde83	0.183466
110	0xbd8fe100	-0.07025337
111	0xbf5f7919	-0.87294155
112	0xbf1a8b42	-0.6036874
113	0x3f022a20	0.5084553
114	0x3d864e92	0.06557955
115	0x3f43134e	0.7620133
116	0xbed1d44e	-0.40982288
117	0x3f2d08b1	0.6759139
118	0x3e935ccf	0.28781745
119	0x3e9ebfd3	0.31005725
120	0xbeb5acfe	-0.35483545
121	0xbf3c80a9	-0.7363382
122	0xbd1da78c	-0.038489863
123	0x3f0e301b	0.55542153
124	0x3fa2e290	1.2725391
125	0xbf29a5ed	-0.6626881
126	0xbe029c18	-0.12754858
127	0x3d5222fd	0.0513029
128	0xbe8b85c4	-0.27250493
129	0x3f231c29	0.63714844
130	0xbef91cf8	-0.48654914
131	0x3e2bb193	0.16766958
132	0x3d813fbe	0.06310986
133	0x3e56d1ff	0.20978545
134	0xbe1660e2	-0.14685395
135	0xbf0bf3f9	-0.5466915
136	0xbf1caf60	-0.612051
137	0x3ebeb69e	0.372487
138	0x3f59957f	0.8499374
139	0x3f0aaa29	0.54165894
140	0x3ea4ebcb	0.32211146
141	0xbf6162d0	-0.880414
142	0xbf33cc54	-0.70233655
143	0x3e8556e6	0.2604286
144	0xbee1d598	-0.44108272
145	0x3eefa44d	0.4680504
146	0x3eb3ddf9	0.3513029
147	0x3e91c16c	0.28467882
148	0x3f3600d1	0.71094996
149	0x3e3cc439	0.18434228
150	0xbefd46ac	-0.4946798
151	0x3f2b1f4b	0.66844624
152	0x3ef3fa90	0.47652102
153	0x3f31780a	0.6932379
154	0x3fb88040	1.4414139
155	0x3f2177f4	0.6307366
156	0x3e0823d1	0.13294913
157	0x3efcc5c8	0.49369645
158	0xbd64b412	-0.05583579
159	0x3ee4d949	0.44697025
160	0x3f9927c8	1.1965265
161	0x3ed0f38b	0.4081081
162	0xbef99dda	-0.48753244
163	0xbf15b97c	-0.5848615
164	0x3f283f70	0.657218
165	0x3f3968ba	0.72425425
166	0x3f2df673	0.67954177
167	0x3e9b099e	0.30280775
168	0x3ca93fff	0.020660399
169	0x3f84be54	1.0370584
170	0x3e8e577f	0.2780113
171	0x3f3d2e7d	0.7389906
172	0x3dcdfad4	0.10057607
173	0xbd901e71	-0.07037056
174	0xbf3687cd	-0.71300966
175	0xbece4eb4	-0.4029442
176	0xbf1bb3ba	-0.60821116
177	0x3efc7d37	0.4931428
178	0xbde96924	-0.11397007
179	0x3e667bf8	0.22508228
180	0x3f29f065	0.6638244
181	0x3f62569c	0.88413405
182	0x3ea9df97	0.33178398
183	0x3f81a5e1	1.0128747
184	0x3f1e3802	0.6180421
185	0xbda64d84	-0.08120254
186	0x3f3f0f5f	0.7463283
187	0x3e007c8f	0.12547515
188	0x3fd70f37	1.6801518
189	0x3fb6bdf0	1.4276714
190	0xbf3f57f8	-0.74743605
191	0xbf057982	-0.5213853
192	0xbe9fa672	-0.31181675
193	0x3f2cdfe7	0.6752915
194	0x3f181880	0.59412384
195	0xbf6d4e24	-0.9269736
196	0x3e3ed4aa	0.18635812
197	0xbec7b3f5	-0.39004484
198	0x3e30576b	0.17220847
199	0x3f066097	0.52491134

bias_hh_l0 f4 [200]
0	0x3e178cf0	0.14799857
1	0xbe58de2a	-0.21178499
2	0x3f9f5222	1.244694
3	0xbe95f702	-0.29290015
4	0x3faf4f25	1.3696028
5	0x3fdb8fc4	1.7153249
6	0x3cb5c8aa	0.02219041
7	0x3ee8f466	0.4549896
8	0x3ddc0e51	0.10744918
9	0x3f3e09ae	0.7423352
10	0x3fd1e6fe	1.6398618
11	0x3e2aeb1b	0.16691248
12	0xbe2c459a	-0.16823426
13	0x3e90413b	0.28174767
14	0x3e7f987d	0.24960513
15	0x3c18a561	0.009316773
16	0x3fbf684f	1.4953707
17	0x3f154146	0.58302724
18	0x3f5d550a	0.86457884
19	0x3f03db3f	0.5150642
20	0x3e852025	0.26001087
21	0x3ebe95d2	0.3722368
22	0x3f4691b1	0.7756606
23	0xbe4e62c0	-0.20154858
24	0xbe2df02c	-0.1698615
25	0x3f517ce5	0.818312
26	0xbe0d965b	-0.13826887
27	0x3f365c40	0.7123451
28	0x3dc66142	0.09686519
29	0x3f0ac2d7	0.5420355
30	0x3fbc7ce8	1.4725618
31	0x3ef55efd	0.47924033
32	0x3ea5191d	0.32245722
33	0x3f79fcb5	0.97651225
34	0x3f0ac498	0.5420623
35	0xbc86492e	-0.016392317
36	0x3fa2e211	1.272524
37	0x3f68d759	0.90953594
38	0x3dc37531	0.09543837
39	0x3fc4e474	1.5382218
40	0xbe1d5e5f	-0.15368031
41	0x3e14bfd4	0.14526302
42	0x3d39585f	0.045250293
43	0xbf07f359	-0.53105694
44	0x3faa7b72	1.3318923
45	0x3e79c647	0.24392043
46	0x3ed9eaf5	0.4256207
47	0x3de2a517	0.11066645
48	0x4020fdd8	2.5154934
49	0x3d037302	0.032092102
50	0xbec0de50	-0.3766961
51	0x3f1319c3	0.57461184
52	0x3fb4fe20	1.4140053
53	0xbe846839	-0.25860766
54	0x3f58e4ed	0.84724313
55	0x3fb25298	1.3931456
56	0xbb62752e	-0.0034554708
57	0xbf01670d	-0.5054787
58	0x3e7ed14b	0.24884526
59	0x3dbe1562	0.09281422
60	0x3d5e58a6	0.05428376
61	0x3ea4d898	0.32196498
62	0xbe4efb37	-0.20213018
63	0x3fc67c6c	1.550672
64	0xbe93730f	-0.2879872
65	0x3fb23068	1.3921022
66	0x3d9041bb	0.07043787
67	0x3f62c469	0.8858095
68	0x3e55d2c7	0.20881186
69	0xbf58f573	-0.84749526
70	0x3f61518e	0.8801507
71	0x3e6e86eb	0.23293655
72	0x3eced005	0.4039308
73	0xbd22d879	-0.039757226
74	0x3f46b002	0.77612317
75	0x3d26d896	0.040733896
76	0x3f962b3a	1.1731942
77	0x3e9f5219	0.31117323
78	0x3c538f2d	0.012912554
79	0x3edebe65	0.43504634
80	0xbf252dab	-0.6452281
81	0x3f0c6d0e	0.54853904
82	0x3f1a749f	0.603342
83	0xbee9bfc3	-0.45654115
84	0xbf3a1de7	-0.7270188
85	0xbf2ad41f	-0.6672992
86	0xbe5fcdf8	-0.21855915
87	0x3eb11644	0.345873
88	0x3e6e2fc3	0.23260407
89	0xbffb68b5	-1.9641329
90	0x3f586f40	0.84544754
91	0x3e7e3b2a	0.24827257
92	0x3f3fceb7	0.74924797
93	0x3ec970e1	0.39343932
94	0x3e8b92a3	0.27260312
95	0xbe8120d8	-0.2522037
96	0xbcd5f70c	-0.026118778
97	0xbe2ac645	-0.16677196
98	0x3f45992b	0.7718684
99	0xbe1a6e19	-0.15081061
100	0xbf1198b7	-0.5687365
101	0xbf2b23c8	-0.6685147
102	0xbd7aa9dd	-0.06119715
103	0x3f6b3426	0.9187645
104	0x3ebeab59	0.37240103
105	0xbf1c5e85	-0.61081725
106	0xbf7bcefb	-0.983627
107	0xbb41a915	-0.0029550244
108	0x3f12e86a	0.57385886
109	0x3e516e2e	0.20452186
110	0xbe5a259a	-0.21303406
111	0xbf4db2ec	-0.8035114
112	0xbf30e7f9	-0.6910396
113	0x3ed60ed7	0.41808197
114	0x3dacba58	0.0843398
115	0x3f40181e	0.750368
116	0xbf05e9b6	-0.5230974
117	0x3f345451	0.70441157
118	0x3e33c67d	0.17556186
119	0x3dffcddb	0.12490436
120	0xbeba42b4	-0.36379015
121	0xbf42cff8	-0.76098585
122	0xbe4b8475	-0.19874747
123	0x3f246597	0.64217514
124	0x3faa1476	1.3287494
125	0xbf482c30	-0.78192425
126	0xbdefd87b	-0.11711212
127	0xbd67a5a5	-0.056554455
128	0xbe684ac9	-0.22684778
129	0x3f51e31a	0.81987154
130	0xbee36dcf	-0.44419715
131	0x3e266727	0.16250287
132	0x3b84954e	0.004046119
133	0x3ea2c799	0.31792906
134	0xbe9f2651	-0.3108392
135	0xbeec00df	-0.46094415
136	0xbee3d540	-0.44498634
137	0x3eba1438	0.3634355
138	0x3f6d9ede	0.9282054
139	0x3eb5f816	0.35540837
140	0x3e92c235	0.28663793
141	0xbf4b9797	-0.7952818
142	0xbeffab5f	-0.49935433
143	0x3e028a3c	0.12748045
144	0xbeaf0c16	-0.34188908
145	0x3eea3cce	0.45749515
146	0x3eca150f	0.3946919
147	0x3efbc332	0.4917236
148	0x3f27f9eb	0.6561572
149	0x3d2a7967	0.041619685
150	0xbe926ae3	-0.28597173
151	0x3f344706	0.70420873
152	0x3ebaac17	0.3645942
153	0x3f2d2e7d	0.6764906
154	0x3fcb6c4d	1.5892426
155	0x3f1d60b7	0.614757
156	0x3dd62965	0.10457114
157	0x3ec8d588	0.3922541
158	0x3da9333b	0.082617246
159	0x3ef6396d	0.48090687
160	0x3f92a6a3	1.1457103
161	0x3eeda64b	0.46415934
162	0xbeb8361a	-0.35978776
163	0xbf488138	-0.7832217
164	0x3f17bcbc	0.5927236
165	0x3f1a83e0	0.60357475
166	0x3f174215	0.5908521
167	0x3e8c5c99	0.27414396
168	0x3e151519	0.1455883
169	0x3f927b72	1.1443923
170	0x3e994c72	0.29941136
171	0x3f0bbdc2	0.5458642
172	0xbe06e7e3	-0.13174395
173	0xbe4607c2	-0.19338897
174	0xbf4d2cf7	-0.80146736
175	0xbea8a173	-0.32935676
176	0xbef20dd6	-0.4727618
177	0x3ee13ad3	0.43990192
178	0xbe901b23	-0.28145704
179	0x3e868382	0.26272207
180	0x3f0fce8b	0.56174535
181	0x3f432eb4	0.7624314
182	0x3eacd0b4	0.33752978
183	0x3f6af38a	0.9177786
184	0x3f089747	0.5335583
185	0xbcf37707	-0.029719843
186	0x3f536011	0.8256846
187	0x3e089e06	0.13341531
188	0x3fcbdce2	1.5926783
189	0x3fa45942	1.2839739
190	0xbf320d6f	-0.6955175
191	0xbf017302	-0.50566113
192	0xbedb4268	-0.428241
193	0x3f081058	0.5314994
194	0x3f594d5b	0.8488366
195	0xbf4f47cb	-0.8096892
196	0x3d8d0afc	0.06886861
197	0xbee2a12d	-0.44263592
198	0x3e2bd6f7	0.16781221
199	0x3e9ed1ce	0.31019443

weight f4 [74, 50]
0	0xbefe3eca	-0.4965728
1	0x3f0022e6	0.5005325
2	0x3f4adb9f	0.79241365
3	0xbf3c5cb3	-0.7357895
4	0x3ed5c409	0.41751125
5	0xbef3e624	-0.4763652
6	0xbd8f2fc3	-0.06991532
7	0xbf6840d2	-0.9072391
8	0xbf294384	-0.66118646
9	0x3eaacb5e	0.33358282
10	0xbe90175b	-0.2814282
11	0x3f3d406f	0.7392644
12	0x3ee27f7c	0.44237888
13	0x3d168c20	0.036754727
14	0x3ea9ee4f	0.33189628
15	0xbf3bdeb7	-0.7338671
16	0x3f08e113	0.53468436
17	0xbe73fc00	-0.23826599
18	0xbed65da8	-0.4186833
19	0xbd38851a	-0.04504881
20	0x3e83d19e	0.25745863
21	0x3ee1b227	0.44081232
22	0xbf709b32	-0.9398681
23	0xbda01d9b	-0.07818147
24	0xbecb4660	-0.3970213
25	0xbe302b92	-0.17204121
26	0x3f5696af	0.83823675
27	0x3d1d6ccd	0.03843384
28	0xbdcb6fa3	-0.099334024
29	0xbf4551aa	-0.77077734
30	0x3db59efe	0.08868216
31	0xbf10dd1d	-0.5658739
32	0xbd7e5606	-0.062093757
33	0x3c566523	0.013085636
34	0x3e13f2b0	0.14448047
35	0x3fdecb25	1.7405745
36	0x3f207b37	0.6268801
37	0xbdaded5a	-0.08492537
38	0xbf5d80ee	-0.86524856
39	0x3e1662f6	0.14686188
40	0xbe6583ba	-0.22413531
41	0x3f111525	0.5667289
42	0x3f5e3843	0.868046
43	0x3e8619c8	0.26191545
44	0xbe36e4cb	-0.17860715
45	0xbefcdfbe	-0.49389452
46	0xbee9e2aa	-0.45680743
47	0xbef61336	-0.48061532
48	0xbe9fee8c	-0.31236684
49	0x3fe42d08	1.7826242
50	0xbea66280	-0.32497025
51	0x3ed2903d	0.4112567
52	0x3f038459	0.5137382
53	0xbf287a93	-0.65812033
54	0x3eb7aaab	0.35872397
55	0xbf00629e	-0.5015048
56	0xbe61c29f	-0.22046898
57	0xbf350160	-0.70705223
58	0xbf03fbfc	-0.5155637
59	0x3ea99940	0.33124733
60	0xbe6e007e	-0.23242375
61	0x3f0a0275	0.5391
62	0x3e9bda17	0.30439827
63	0x3df5b3cd	0.11997185
64	0x3eee8cbb	0.46591744
65	0xbf0384bd	-0.5137442
66	0x3f1154a4	0.56769776
67	0xbbd48577	-0.006485637
68	0xbee0bbb2	-0.438932
69	0x3d62109a	0.055191614
70	0x3ea21ba1	0.31661704
71	0x3e9e758e	0.30949062
72	0xbf3fa9b7	-0.7486834
73	0xbddcd8b5	-0.10783521
74	0xbee13d78	-0.4399221
75	0xbe0bf010	-0.13665795
76	0x3f3f868a	0.74814665
77	0xbd820adf	-0.0634973
78	0xbd0dd7fc	-0.034629807
79	0xbf33ecd8	-0.7028327
80	0x3e0d77d0	0.13815236
81	0xbede340a	-0.43399078
82	0x3bd2b049	0.0064297062
83	0x3c6e416f	0.014541968
84	0x3e396e55	0.18108495
85	0x3fd22b63	1.641949
86	0x3f06e6c5	0.52695876
87	0xbd39edd0	-0.04539281
88	0xbf3e40ce	-0.74317634
89	0x3e42f394	0.1903823
90	0xbe1d9369	-0.15388264
91	0x3ebb7ebd	0.3662013
92	0x3f853865	1.0407835
93	0x3e765f9a	0.24059907
94	0xbe749e40	-0.23888493
95	0xbf027b56	-0.50969446
96	0xbee38aef	-0.44441935
97	0xbe7ca027	-0.24670468
98	0xbec5189a	-0.38495332
99	0x3ff84097	1.9394711
100	0x3f8b17bd	1.0866619
101	0xbf0f96ab	-0.56089276
102	0xbd4daf3d	-0.05021595
103	0x3f59c022	0.85058796
104	0xbfef665d	-1.8703114
105	0x3f0dc9af	0.5538587
106	0xbf318def	-0.693572
107	0xbe85ed61	-0.26157668
108	0x3f3e6600	0.7437439
109	0xbd897aeb	-0.06712898
110	0x408839b5	4.2570443
111	0x3fcef9a1	1.6169931
112	0xc08e3cb0	-4.444908
113	0xbf0c700b	-0.54858464
114	0xbd83dea3	-0.06438949
115	0x3e9f828f	0.31154296
116	0xbfc57fc5	-1.5429617
117	0xbff71dd4	-1.9305978
118	0xbcdaa2f4	-0.02668903
119	0x3dff1484	0.12455085
120	0x3f755dea	0.95846426
121	0xbf0d0315	-0.5508283
122	0x3f6d3095	0.92652255
123	0x3e884c64	0.2662078
124	0xbff3cdcd	-1.904718
125	0x3ee6ef10	0.45104265
126	0x3dd3f8a2	0.10350157
127	0x3e11012a	0.141606
128	0xbf098361	-0.53716093
129	0x3f3ad26c	0.7297733
130	0x3f936b5f	1.1517142
131	0x3f2b5f28	0.6694207
132	0xbf52123d	-0.8205908
133	0xbf035f4e	-0.513173
134	0xbf912c03	-1.1341556
135	0x3f4a51ae	0.79030883
136	0x3f7ab791	0.9793635
137	0x3f7cb28a	0.9870993
138	0x3e39555c	0.18098968
139	0x3f6b5eb5	0.91941386
140	0x3f3a3823	0.7274191
141	0xbf855827	-1.0417527
142	0xbe1bc425	-0.15211542
143	0xbc4c2bee	-0.0124616455
144	0xbfc376f6	-1.5270679
145	0x40059b8e	2.0876193
146	0x3ec7abdb	0.38998303
147	0x3f57b6c8	0.8426328
148	0xbe6aecfb	-0.22941963
149	0xbe5b8284	-0.21436507
150	0xbd9a6a5e	-0.07539819
151	0xbfe14fc5	-1.7602469
152	0xbfdb7f9d	-1.714832
153	0xbfab737b	-1.3394617
154	0xbfd28084	-1.644547
155	0xbfdcd7b5	-1.7253329
156	0x401a31d7	2.409292
157	0xc1b4a197	-22.578901
158	0xbf3aadbc	-0.7292135
159	0x3f58cdfb	0.846893
160	0xbffed00d	-1.9907242
161	0x3d877c18	0.06615466
162	0x3f48e882	0.7847978
163	0x3fedb0aa	1.8569539
164	0x3e5c6891	0.21524264
165	0xc10d3086	-8.824347
166	0xbf83e4db	-1.0304216
167	0xc09377e1	-4.6083837
168	0x3f8fbf5b	1.1230272
169	0x3fb5b92b	1.4197134
170	0x41396479	11.587029
171	0xbfd01b2f	-1.6258296
172	0xc024cfa9	-2.5751746
173	0xbfa4b0eb	-1.2866491
174	0x402bbf9b	2.6835697
175	0x3d8fe3ce	0.07025872
176	0x3fadcb27	1.3577622
177	0x40146ef2	2.3192716
178	0x3edf6f21	0.43639472
179	0xbf0dede1	-0.554411
180	0xbfde8bcd	-1.7386414
181	0xc0eb7ea1	-7.3592076
182	0x3f8da18a	1.1064923
183	0x3fa81002	1.3129885
184	0x402d0be1	2.70385
185	0x3ef0ab28	0.47005582
186	0x40adf300	5.435913
187	0xbdbf16ae	-0.09330498
188	0x3f3ac5ac	0.72957873
189	0xbdebfb3f	-0.11522531
190	0xbfdce15a	-1.7256272
191	0x3ff1d574	1.8893266
192	0xbfaa4534	-1.3302369
193	0x411bddea	9.741678
194	0xc09fe8b9	-4.9971585
195	0xc0093e6d	-2.1444352
196	0xbf6f5ad6	-0.9349798
197	0x3f12d379	0.5735393
198	0xbfdec2fe	-1.7403257
199	0x4042cad8	3.0436306
200	0xbf1ee707	-0.6207127
201	0x3db7bea0	0.08971906
202	0xc0374c58	-2.8640347
203	0x3e98f005	0.2987062
204	0x3fcb7b8c	1.5897079
205	0x3f045dcf	0.5170564
206	0x3e04c7a8	0.12966788
207	0xbef41b8c	-0.47677267
208	0xbe07847a	-0.1323413
209	0x3f5ce410	0.86285496
210	0xc0014006	-2.0195327
211	0xbfa74670	-1.3068371
212	0x3f22d257	0.63602203
213	0x3e7002d2	0.23438576
214	0x3f21eeb2	0.63254845
215	0x3f3c7986	0.7362293
216	0xbedc2458	-0.42996478
217	0xbf920ef1	-1.141081
218	0x402c57c0	2.6928558
219	0xbd2a52ff	-0.041583057
220	0xbf7667cf	-0.9625215
221	0x3d0fb33a	0.035083033
222	0x3c98de49	0.018660681
223	0x3fefc5e4	1.8732266
224	0x3f4e3f4b	0.8056533
225	0xbe21161a	-0.15731087
226	0xbe1d32c4	-0.15351397
227	0x3ed7a063	0.42114553
228	0x3fa0d43a	1.2564766
229	0x3d79f49b	0.06102429
230	0xbe746a57	-0.2386869
231	0xbea9c8c5	-0.33160987
232	0x4009ec86	2.1550612
233	0xbfa8ded0	-1.3192997
234	0xc08b6498	-4.3560295
235	0xbec0bae5	-0.3764259
236	0x3da051c3	0.07828095
237	0xbea598b6	-0.32343072
238	0x3f41d654	0.75717664
239	0x4013f9d7	2.312124
240	0x3f524167	0.82131046
241	0x400e0c51	2.2195017
242	0xbf3a41db	-0.7275674
243	0xbe80de0a	-0.25169402
244	0x3fa21a3a	1.2664254
245	0xc04c1c01	-3.1892092
246	0x3f99ab31	1.2005368
247	0x3eba83bf	0.3642864
248	0xbf45399d	-0.77041036
249	0x4027deef	2.6229818
250	0xbf8f7953	-1.12089
251	0xbf0c8308	-0.5488744
252	0xc06251b8	-3.5362377
253	0x406cf658	3.7025356
254	0x3f0db849	0.5535932
255	0x3ffa122d	1.9536797

bias f4 [74]
0	0xbf1742f7	-0.59086555
1	0xbf1f0e12	-0.62130845
2	0x3f992398	1.1963987
3	0xbf227b15	-0.6346906
4	0x4035aa0a	2.8385034
5	0xc0473b0a	-3.1129785
6	0x40321b79	2.7829268
7	0xbed6466e	-0.4185061
8	0xbfff4781	-1.9943696
9	0x3c2c76c9	0.010526367
10	0xbfa51a64	-1.2898679
11	0xbdd4c133	-0.10388412
12	0xbf6c3e93	-0.9228298
13	0xbf80dab1	-1.0066739
14	0x3ffafeb8	1.9608984
15	0x3fcbde4b	1.5927213
16	0x3f5c4320	0.86039925
17	0x3ecabb33	0.39595947
18	0xbe0425a2	-0.12904981
19	0xbf40cca9	-0.75312287
20	0xbf14c180	-0.5810776
21	0xbf0b1591	-0.5432978
22	0xbf873f33	-1.0566162
23	0x3f3f649a	0.7476288
24	0xbe8ea9bd	-0.27863875
25	0x3e15917b	0.14606278
26	0xc0067e9b	-2.1014774
27	0x3eb40e29	0.35167053
28	0x3f43c4ea	0.7647234
29	0xbfdff686	-1.7497108
30	0xbee6f992	-0.45112282
31	0xc00e01cb	-2.2188594
32	0x3f0673e2	0.52520573
33	0x3e054b54	0.13017017
34	0xbe53ef98	-0.20696867
35	0xbe82141c	-0.25405967
36	0xc0624d11	-3.5359538
37	0xbf05a9d5	-0.5221227
38	0xbf22054b	-0.63289326
39	0xbefcfe9f	-0.4941301
40	0xbf1f6751	-0.62267023
41	0xbef11933	-0.47089538
42	0xbf1ceadb	-0.6129586
43	0xbf2d0847	-0.67590755
44	0xbf2ed0cf	-0.68287367
45	0xbefa1050	-0.4884057
46	0xbf25936f	-0.6467809
47	0xbf1e5cbf	-0.6186027
48	0xbee42986	-0.4456293
49	0xbf0758eb	-0.52870053
50	0xbf0bb461	-0.5457211
51	0xbef8d438	-0.4859941
52	0xbf3a7922	-0.72841084
53	0xbf2b4068	-0.6689515
54	0xbf123328	-0.5710931
55	0xbf1e99af	-0.6195325
56	0xbf0561ee	-0.52102554
57	0xbefbdb95	-0.49190965
58	0xbf116816	-0.5679945
59	0xbf1d17e5	-0.61364585
60	0xbf09d7eb	-0.5384509
61	0xbee7e89c	-0.45294654
62	0xbf1ae2aa	-0.6050211
63	0xbedeed19	-0.43540266
64	0xbf17033f	-0.5898933
65	0xbf33264d	-0.6998032
66	0xbf1d36b8	-0.6141162
67	0xbf0125b1	-0.5044814
68	0xbef59b12	-0.47969872
69	0xbf2efaac	-0.68351245
70	0xbf398828	-0.7247338
71	0xbf07d1b3	-0.5305435
72	0xbf1cd2a0	-0.6125889
73	0xbef05c9d	-0.46945658

weight f4 [50, 2]
0	0x3f092ba5	0.5358222
1	0x3f152367	0.58257145
2	0x3e94411a	0.2895592
3	0x3f2ac6f9	0.6670986
4	0xbd77ed90	-0.06052929
5	0xbe884520	-0.26615238
6	0x3e08ca78	0.13358486
7	0x3d1dbd90	0.03851086
8	0xbe4324f0	-0.1905706
9	0xbf2e2467	-0.68024296
10	0x3f2bdec7	0.67136806
11	0x3e550ab0	0.20804858
12	0xbe38514c	-0.17999762
13	0x3e164100	0.14673233
14	0x3f0ee773	0.55821913
15	0x3ef666c6	0.48125285
16	0xbe660900	-0.2246437
17	0x3d497c80	0.049190998
18	0xbf31c192	-0.6943599
19	0xbece04e5	-0.4023811
20	0x3ccb6640	0.02482903
21	0xbecc26e1	-0.39873412
22	0xbe1428e4	-0.14468724
23	0xbe800e4c	-0.25010908
24	0x3d674d50	0.056470215
25	0xbea6b4c1	-0.3255978
26	0xbec46a98	-0.38362575
27	0xbe9ad4e7	-0.30240557
28	0x3e144284	0.14478499
29	0x3de872f8	0.113500535
30	0xbe1a2140	-0.15051746
31	0xbdff12f0	-0.12454784
32	0x3f1b2a91	0.60611826
33	0xbf21b3ca	-0.6316496
34	0xbd83f700	-0.06443596
35	0xbf0d9aa7	-0.55314106
36	0xbe6fc25a	-0.23413983
37	0xbf231a7f	-0.63712305
38	0x3ef33d62	0.4750777
39	0x3f1ad0ad	0.60474664
40	0xbebaa469	-0.3645356
41	0xbf0e5591	-0.55599314
42	0x3ed5ee3e	0.41783327
43	0xbefd1d0b	-0.4943622
44	0xbf1971d5	-0.5993932
45	0xbeedb0c5	-0.46423927
46	0xbf0483ee	-0.5176381
47	0xbf07b262	-0.53006566
48	0xbe39d294	-0.18146735
49	0x3ea8bff6	0.32958955
50	0xbe6cff10	-0.23144174
51	0xbf11658e	-0.56795585
52	0x3ef7f5a2	0.4842959
53	0xbf23aace	-0.639325
54	0x3ee2dc0a	0.443085
55	0x3e233e40	0.15941715
56	0xbef97552	-0.4872232
57	0xbf07a280	-0.5298233
58	0x3f266f6f	0.65013784
59	0x3d324930	0.04352683
60	0x3e4e547c	0.20149416
61	0xbce1db60	-0.027570426
62	0xbd841eb0	-0.06451166
63	0x3f21f1a1	0.6325932
64	0xbee604c5	-0.44925514
65	0x3d7ffb60	0.06249559
66	0xbd8afae0	-0.06786132
67	0xbecbfd78	-0.3984182
68	0x3ebb9c4a	0.36642677
69	0xbf19ece1	-0.60127074
70	0x3e852b1a	0.26009446
71	0xbee2c24b	-0.4428886
72	0xbf0b5139	-0.5442081
73	0xbe44e390	-0.19227433
74	0x3cd988e0	0.026554525
75	0xbea83648	-0.32853913
76	0x3e8db4aa	0.27676898
77	0xbeb0e2e0	-0.34548092
78	0xbee4a471	-0.4465671
79	0xbeb2dc69	-0.34933785
80	0xbdea48b8	-0.11439651
81	0x3dd50e80	0.10403156
82	0x3eb3af66	0.35094756
83	0xbf11ad5e	-0.5690516
84	0xbf2a7f19	-0.66600186
85	0xbf253452	-0.6453296
86	0x3e4abd88	0.19798863
87	0xbe6f6004	-0.23376471
88	0xbe5e992e	-0.21738121
89	0xbf1e088d	-0.617318
90	0x3e6c973c	0.23104566
91	0x3f0f9505	0.5608676
92	0x3eef6aa2	0.46761042
93	0xbde84e98	-0.113431156
94	0xbf09625d	-0.53665715
95	0x3f1b98d7	0.6078009
96	0x3dd71e50	0.105038285
97	0xbe4eb724	-0.2018705
98	0xbf34111e	-0.7033862
99	0x3ed1d79a	0.40984803

bias f4 [50]
0	0x3f2d7dd9	0.67770153
1	0x3f01789b	0.50574654
2	0x3c020200	0.007935047
3	0x3ebde09a	0.3708542
4	0xbec885da	-0.3916462
5	0x3e7a3ed4	0.2443803
6	0x3f2ea179	0.6821514
7	0xbec4e9e8	-0.38459706
8	0x3ed128ce	0.40851444
9	0x3ea1f332	0.31630856
10	0xbf348354	-0.7051289
11	0x3f24f1e9	0.64431626
12	0x3f0e72cf	0.55643934
13	0xbee665da	-0.44999582
14	0x3eb3931a	0.35073167
15	0xbeb5e9d5	-0.35529962
16	0xbf23b9f8	-0.6395564
17	0xbd8d6c40	-0.06905413
18	0x3e9eefca	0.3104232
19	0xbd33e130	-0.043915927
20	0x3e4a71d4	0.19769984
21	0x3b372000	0.0027942657
22	0x3eda803a	0.42675954
23	0xbe8104bc	-0.25198925
24	0x3f03dfb5	0.51513225
25	0x3e04f5d8	0.12984407
26	0xbf1e6dfa	-0.6188656
27	0xbee15c55	-0.44015756
28	0x3db98750	0.09059012
29	0x3df98300	0.121831894
30	0xbf0ae566	-0.54256284
31	0xbedacd8a	-0.4273494
32	0x3caa2ec0	0.020774245
33	0xbf2b6734	-0.6695435
34	0x3dfd3ab8	0.12364715
35	0xbf250aa0	-0.6446934
36	0x3f082d8f	0.53194517
37	0x3eb94862	0.36188036
38	0x3f0c6d73	0.54854506
39	0xbee28c06	-0.44247454
40	0xbeed59da	-0.46357614
41	0x3f22dbbf	0.63616556
42	0xbf1f309d	-0.62183553
43	0x3e004b68	0.12528765
44	0x3e32a65c	0.17446274
45	0x3ef7e00e	0.48413128
46	0x3f30d16d	0.6906956
47	0x3ee7b162	0.4525252
48	0xbec095f5	-0.37614408
49	0x3f1b7fdd	0.6074198

weight_ih_l0 f4 [200, 20]
0	0xbdbcdfe8	-0.09222394
1	0xbd9e904c	-0.07742366
2	0xbdcd5be7	-0.100272946
3	0x3e741315	0.23835404
4	0x3cc38230	0.02386579
5	0xbcf32cf1	-0.029684516
6	0x3e006f9c	0.12542576
7	0xbdaa094c	-0.083025545
8	0xbd4d9c6e	-0.05019801
9	0xbc668b8d	-0.014071357
10	0xbf462214	-0.7739575
11	0x3d6a1a77	0.057154145
12	0xbe7f65d0	-0.24941182
13	0xbc56e748	-0.013116665
14	0xbdf6df9e	-0.1205437
15	0x3e05719b	0.13031618
16	0xbe2b2ef1	-0.16717125
17	0x3e32154a	0.17390934
18	0xbdf97cb7	-0.121819906
19	0xbe6c02d2	-0.23047951
20	0xbb34ad30	-0.0027569048
21	0xbebc6242	-0.36793715
22	0x3db7c945	0.08973936
23	0x3cf83101	0.030296804
24	0xbe358d82	-0.17729762
25	0xbe24a8e8	-0.16080058
26	0x3e288e0e	0.1646044
27	0xbe523bdc	-0.20530647
28	0xbd0a27f9	-0.033729527
29	0x3daa70dd	0.08322308
30	0x3ca9284b	0.020649096
31	0xbe9dbe00	-0.3080902
32	0xbd69a79b	-0.057044607
33	0x3ecf88e9	0.40534142
34	0x3c04442a	0.008072892
35	0xbdccc5b7	-0.099986486
36	0x3e937303	0.28798684
37	0x3dda4e45	0.1065946
38	0x3d11103b	0.03541587
39	0x3c21fb9d	0.009886649
40	0xbe067d73	-0.13133793
41	0xbef7cd47	-0.48398802
42	0x3eaa1e26	0.33226126
43	0x3e9fc11b	0.31202015
44	0xbea2e4d7	-0.31815216
45	0xbeb2c7b0	-0.34917974
46	0xbe2620a7	-0.16223393
47	0xbd8d58b6	-0.06901686
48	0x3d6965d2	0.05698187
49	0x3eaf835d	0.3427991
50	0x3caf45ff	0.021395681
51	0x3d8f6c01	0.07003022
52	0x3cfeaabb	0.03108727
53	0x3e0aeb05	0.13566215
54	0x3c1e3e49	0.009658405
55	0x3ceb0291	0.028687747
56	0x3db9073d	0.09034584
57	0x3e621b30	0.22080684
58	0x3e37fe2c	0.17968053
59	0x3ebb5cad	0.36594144
60	0x3e547e8c	0.20751399
61	0xbf8b3490	-1.0875416
62	0x3f3ef53e	0.7459296
63	0x3d885c83	0.0665827
64	0xbe97546f	-0.29556605
65	0xbf930f9b	-1.1489137
66	0x3eb8ad67	0.36069795
67	0x3e85f44a	0.2616294
68	0x3ddf88f8	0.109147966
69	0xbeb113d7	-0.3458545
70	0x3f198702	0.5997163
71	0x3d3d36d6	0.046194874
72	0x3e32c571	0.1745813
73	0x3f077485	0.5291217
74	0xbd9ad09b	-0.075593196
75	0xbe943d7a	-0.28953153
76	0x3b24c785	0.0025143337
77	0x3f239cb5	0.6391099
78	0x3e36b5c3	0.17842774
79	0x3f2dff49	0.6796766
80	0x3df95bdf	0.12175726
81	0xbefaf4aa	-0.4901479
82	0xbe512c4d	-0.20427056
83	0xbda51ac0	-0.08061743
84	0x3e260e78	0.16216457
85	0xbf1c59f8	-0.6107478
86	0x3e9b7419	0.30362013
87	0x3c184c79	0.009295576
88	0x3ec391e1	0.38197234
89	0xbca4cf96	-0.020118516
90	0xbd4b51cb	-0.04963855
91	0xbe2c1950	-0.16806531
92	0xbe849883	-0.25897607
93	0x3e64c827	0.22341977
94	0xbe13f3ca	-0.14448467
95	0xbe168912	-0.14700726
96	0xbe8aa40a	-0.27078277
97	0x3de006c4	0.109387904
98	0x3e2f2d6a	0.17107168
99	0x3d81124e	0.063023195
100	0x3db74496	0.089486286
101	0x3e3125fb	0.17299645
102	0xbed7db63	-0.42159566
103	0x3f129f99	0.57274777
104	0xbe08662c	-0.13320225
105	0xbe7190d0	-0.23590398
106	0x3e0dfe1a	0.13866463
107	0xbec2e61e	-0.3806619
108	0x3d00d625	0.031454224
109	0x3e9ed178	0.31019187
110	0xbe2994d7	-0.16560684
111	0x3e4aac62	0.19792321
112	0x3e956a3b	0.2918261
113	0x3e07f7a2	0.13278058
114	0xbd9bedac	-0.07613692
115	0x3d2c0bda	0.04200349
116	0x3e18bcf3	0.14915828
117	0x3ec9f149	0.39441898
118	0x3e1e788e	0.15475675
119	0x3db1d032	0.08682288
120	0xbe0b6f86	-0.13616762
121	0xbe69080f	-0.2275698
122	0x3e4de727	0.20107709
123	0x3c28858f	0.010285749
124	0xbe641e79	-0.2227725
125	0xbe8cf086	-0.27527255
126	0x3d70736d	0.05870383
127	0xbd9af5fe	-0.075664505
128	0xbdd93080	-0.10604954
129	0xbd52ed98	-0.05149612
130	0xbe9855da	-0.29753
131	0xbece20d4	-0.4025942
132	0xbe44f353	-0.19233446
133	0x3ea0dd21	0.31418708
134	0xbee0dc83	-0.43918237
135	0x3e60c443	0.21949868
136	0xbd6711a5	-0.05641331
137	0x3eac7f3e	0.33690828
138	0xbec44040	-0.3833027
139	0x3e0e4e0d	0.13896962
140	0x3e8153a1	0.25259116
141	0xbe92df92	-0.28686196
142	0xbeb7e58e	-0.35917324
143	0x3dbb0678	0.09132093
144	0xbe8d43b3	-0.27590713
145	0xbf0310f6	-0.51197755
146	0x3d93361e	0.071880564
147	0xbd140f32	-0.036147304
148	0xbe883f6f	-0.26610896
149	0x3e298f5a	0.1655859
150	0x3e8e8403	0.27835092
151	0x3f2a0ad4	0.6642277
152	0x3e8d54d6	0.27603787
153	0x3e2f2281	0.17103006
154	0xbe77a187	-0.24182712
155	0xbd985759	-0.07438535
156	0xbd7c914e	-0.06166201
157	0x3f0db43f	0.5535316
158	0xbe9feca3	-0.31235227
159	0x3de8ab99	0.11360855
160	0x3d1300fe	0.035889618
161	0xbefa3527	-0.48868677
162	0x3d0749dc	0.033029422
163	0xbe13774c	-0.14400977
164	0xbbce914a	-0.006303941
165	0xbe3e9c25	-0.18614252
166	0x3df425f5	0.11921302
167	0x3c59b146	0.013286894
168	0x3edddd7f	0.4333305
169	0xbde875d0	-0.11350596
170	0x3e6908b8	0.22757232
171	0x3e557184	0.20844084
172	0xbde2488d	-0.11048994
173	0x3e08173b	0.13290112
174	0x3e47f476	0.19526848
175	0xbd9f917d	-0.077914216
176	0x3e14eb69	0.14542927
177	0x3d7ea933	0.06217308
178	0x3e242b78	0.16032207
179	0x3d055055	0.032547314
180	0x3cf85a53	0.030316507
181	0xbee1c38f	-0.44094512
182	0x3e0d7eca	0.13817897
183	0xbe99c42d	-0.30032483
184	0xbe999a95	-0.3000075
185	0xbdc35dc0	-0.09539366
186	0x3e8a464d	0.2700676
187	0xbd046c0a	-0.032329597
188	0x3e9a9c9e	0.30197614
189	0xbd930a9d	-0.07179759
190	0x3e15a272	0.14612749
191	0x3e3b7ff4	0.18310529
192	0xbce3ae6d	-0.027793134
193	0x3e643ed6	0.22289595
194	0xbcef2022	-0.029190127
195	0xbe1d1537	-0.15340124
196	0xbca3f27d	-0.020013088
197	0x3e95f37b	0.29287323
198	0x3e389a25	0.18027551
199	0x3f1265bf	0.571865
200	0x3de0a219	0.10968418
201	0xbe6bad68	-0.23015368
202	0xbe14b0f0	-0.14520621
203	0xbe2e9e42	-0.17052558
204	0xbe90923d	-0.2823657
205	0xbea5837a	-0.3232687
206	0x3ecdb083	0.4017373
207	0xbe596f1e	-0.21233794
208	0x3e589246	0.21149549
209	0xbe187e96	-0.14892039
210	0xbe778c9d	-0.24174733
211	0xbdab8f99	-0.083769985
212	0xbd2c2375	-0.042026002
213	0x3eaa9d33	0.33323058
214	0x3d99f354	0.07517114
215	0xbd61f18f	-0.05516201
216	0x3c8c85b8	0.017153606
217	0x3de67bdc	0.11254093
218	0x3ca4bc69	0.020109372
219	0xbe386b92	-0.18009785
220	0xbc20226c	-0.009773832
221	0xbf54da4b	-0.8314559
222	0x3ea73841	0.32660106
223	0xbf267748	-0.6502576
224	0xbe6320da	-0.221805
225	0xbf1bc62e	-0.60849273
226	0xbdd6e08f	-0.1049205
227	0x3c9c60f7	0.019089205
228	0x3e6bc8e0	0.23025846
229	0xbeee9e02	-0.46604925
230	0x3e02f3a1	0.1278825
231	0x3e0591dd	0.13043924
232	0xbcb58326	-0.022157263
233	0x3eb5a148	0.3547461
234	0xbdb4d4b9	-0.08829636
235	0xbf028fd7	-0.5100073
236	0x3d8df3ad	0.06931243
237	0x3e888d23	0.2667018
238	0x3e58652a	0.21132341
239	0xbda5c49c	-0.08094141
240	0xbcfd5732	-0.030925367
241	0x3cd548b7	0.02603565
242	0xbdc7e60c	-0.09760675
243	0xbdc496ad	-0.095990516
244	0xbe00068e	-0.125025
245	0xbe9565d3	-0.29179248
246	0x3f0c480e	0.54797447
247	0xbe3f29c5	-0.18668278
248	0xbdf21981	-0.11821271
249	0x3eada1d6	0.33912534
250	0xbe04406a	-0.12915197
251	0x3e669ac3	0.22519974
252	0x3e22363a	0.15840998
253	0xbd2ae407	-0.04172137
254	0xbe8cd157	-0.27503464
255	0xbdb61043	-0.088898204
