model/saved_models/fr/model_fr_pretrained_epoch_9.pt (torch_old, 231736 bytes, 23 tensors)

weight f4 [74, 20]
000000 00 00 00 00 00 00 00 00 00 00 00 00 00 00 00 00
       0.0 0.0 0.0 0.0
000010 00 00 00 00 00 00 00 00 00 00 00 00 00 00 00 00
       0.0 0.0 0.0 0.0
000020 00 00 00 00 00 00 00 00 00 00 00 00 00 00 00 00
       0.0 0.0 0.0 0.0
000030 00 00 00 00 00 00 00 00 00 00 00 00 00 00 00 00
       0.0 0.0 0.0 0.0
000040 00 00 00 00 00 00 00 00 00 00 00 00 00 00 00 00
       0.0 0.0 0.0 0.0
000050 25 20 14 bd 94 8a 19 be 24 df 53 3d 90 57 a1 bd
       -0.036163468 -0.1499427 0.051726475 -0.07878029
000060 0e 18 92 3c 06 ce 27 bc 18 a6 77 bd 48 61 9b bc
       0.017833736 -0.010241991 -0.060461134 -0.018967286
000070 b7 5d fc 3c a7 39 5e 3d 3f 1a f6 3c 6a 8c ad 3f
       0.030806405 0.0542542 0.030041812 1.3558476
000080 56 32 58 be f5 ab 15 bc 38 ce 93 3c 1b 2a 86 3d
       -0.21112952 -0.009135236 0.018042669 0.06551
000090 58 eb 24 3d 70 d1 47 bc d9 9b b0 bd 1d f5 e6 bc
       0.040263504 -0.01219593 -0.086234756 -0.028193051
0000a0 fe e7 bd 3d 93 75 1e bd c2 1c 89 3f fc 8d db be
       0.092727646 -0.038686346 1.0711901 -0.42881763
0000b0 64 4c b3 be 5f 34 0a 3f 6b 86 e1 be ea 09 80 be
       -0.3501922 0.5398616 -0.44047865 -0.25007564
0000c0 76 76 82 3f 3e 6a 3a 3c 68 35 42 3f 45 b2 b2 be
       1.0192401 0.011377869 0.7586274 -0.34901634
0000d0 92 06 58 bf 33 e9 e9 3e b5 de 9a 3f f3 35 c1 be
       -0.84385026 0.4568573 1.2099215 -0.37736472
0000e0 d0 0b 04 39 10 62 cc bd 7d 75 7a 3f 5d 58 94 bd
       0.00012592901 -0.099796414 0.9783552 -0.072434165
0000f0 f8 ec 10 3c e5 cc 90 3c bf f1 ca 3c 67 79 0c 3d
       0.00884556 0.017675826 0.024773477 0.034295466
000100 ba 99 a9 bc 70 d9 07 3d 59 23 29 3c ec 34 15 3d
       -0.020703185 0.03316635 0.010323369 0.036427423
000110 47 c8 14 ba 5e 48 0f 3d 43 5e 0a bb a9 55 e9 be
       -0.00056755956 0.034981124 -0.0021113313 -0.45573166
000120 fb ce 02 3f 2a aa 54 bd 4e f0 39 be 7e 55 c5 bd
       0.5109708 -0.051920094 -0.18158075 -0.09635447
000130 ae b2 4b bd e5 4d 57 3c bd 64 a2 3d 6f e0 0f bc
       -0.04973095 0.01314113 0.079293706 -0.0087815365
000140 fa 4c d0 3d 2d ff 6e bd 65 c5 2d bd e4 99 4b be
       0.10170932 -0.058348823 -0.04242458 -0.19882923
000150 66 32 2b be fc 0b d1 bd da c9 bf bc b4 34 be bc
       -0.16718444 -0.10207364 -0.02341168 -0.02321849
000160 b4 4e 7a 3e be 63 5d bd f7 d7 12 3c f7 62 5f 3e
       0.24444085 -0.0540502 0.008962623 0.21815096
000170 95 02 c9 be 0b eb c7 3c ea 35 d3 3b 14 5b d5 bd
       -0.39259782 0.02440407 0.006445636 -0.104177624
000180 26 99 05 be c0 65 da 3c b5 fd be bd 14 d4 a3 bd
       -0.13046703 0.026659846 -0.093257345 -0.07999435
000190 c5 1a 81 bf 45 a0 b3 be 85 93 72 be b2 83 4f bf
       -1.0086294 -0.35083213 -0.23689087 -0.81060326
0001a0 1e cf fc 3e b5 45 97 bf da 99 a6 3e cc 59 e8 3f
       0.49376768 -1.1818148 0.32539254 1.8152404
0001b0 44 9e df bd 8c 16 87 3f 18 05 16 bf c6 b6 23 bf
       -0.10918859 1.0553756 -0.5860152 -0.63950765
0001c0 cd 00 62 3f 67 e6 33 bf 58 9f d4 3f 57 19 d9 be
       0.8828247 -0.7027344 1.6611128 -0.42402145
0001d0 74 4a b9 3f 5f eb ea be b7 95 34 3e 0f 18 68 3d
       1.4475846 -0.458827 0.17635237 0.05666357
0001e0 e8 b6 26 3e cc 73 47 be 99 cb b0 bd a2 fc 92 be
       0.1628071 -0.19477767 -0.08632583 -0.2870837
0001f0 a8 91 08 be eb ea 8b 3d 0d ff 81 bd 42 7c c4 bd
       -0.13336813 0.068319164 -0.06347475 -0.09594013
000200 ab 5b 23 bf 60 f7 97 3e 3d de 1d 3e 15 69 5f be
       -0.6381175 0.2968092 0.15416808 -0.2181743
000210 32 10 68 3e b9 c6 3a 3e f9 61 a7 be 43 02 6a be
       0.22662428 0.18239869 -0.32691935 -0.22852425
000220 72 54 9e 3d 1e 56 bb 3d 59 91 2f 3e 1d f4 ee 3d
       0.077309504 0.09147285 0.1714529 0.11667655
000230 7e 24 c7 3f 1d 4f a6 3e 9e b6 c4 bd 00 6d 6c 3f
       1.5558012 0.32482234 -0.09605144 0.9235382
000240 f1 ca 9c 3f 14 00 4a 3f 44 37 8f bf 96 95 3b 3f
       1.2249433 0.7890637 -1.1188741 0.73275125
000250 fc 0b 3b be 3e 27 7b 3e 14 09 57 be ea f8 66 3d
       -0.1826629 0.24526688 -0.20999557 0.056389727
000260 a3 a4 88 bf 8e fc de bd ba e9 94 3f 5f 05 38 bf
       -1.0675243 -0.10888015 1.1633828 -0.71883196
000270 12 29 53 3c 92 11 b2 bf 96 1f 0a 3e e4 7b 2f bd
       0.01288821 -1.3911612 0.13488612 -0.04284276
000280 cf 1c d2 be 29 ef 90 3e 83 48 72 be d6 07 80 3f
       -0.41037604 0.28307465 -0.23660474 1.0002391
000290 bc 31 9c bf 71 0e 55 be ca 0c 85 3d 83 4a 94 3e
       -1.2202678 -0.2080629 0.0649658 0.28963098
0002a0 db cf 2a 3f 59 a8 a4 3f db 6f 60 be 7b 05 3d bd
       0.6672341 1.2863876 -0.2191767 -0.046147805
0002b0 15 1c 2a bf 10 b2 6c be ed 24 75 bf 77 3d 00 bf
       -0.664491 -0.231148 -0.9575947 -0.5009379
0002c0 a4 42 88 be 5a 45 92 3d f7 02 1b 3f 0e 2f 41 be
       -0.26613343 0.07142134 0.605514 -0.18865606
0002d0 e0 1c f1 3e 39 55 7a 3f 18 da 04 bf c5 f8 45 3f
       0.47092342 0.9778629 -0.51895285 0.7733272
0002e0 9e d2 7f 3e e3 bf f8 3e 42 23 5a 3e 18 df 55 3d
       0.24982688 0.48583898 0.21302512 0.052214712
0002f0 77 cb 60 be 81 d9 1b 3e 30 64 8e be 43 f4 95 be
       -0.21952616 0.1521969 -0.27810812 -0.2928792
000300 f5 45 39 3e 49 b3 81 be ff 3f c3 3f 0c 77 b0 3f
       0.18093093 -0.25332096 1.5253905 1.378633
000310 a3 5f aa be 08 cb 75 bc 44 59 23 bf d4 50 7b 3e
       -0.3327609 -0.01500202 -0.63808084 0.24542552
000320 d2 a3 7d be db 04 06 c0 34 8a 3d 3f b9 64 57 3f
       -0.24769524 -2.0940464 0.74039006 0.84138066
000330 79 0a 1c be b3 8a 94 be af a2 35 bf 2e c8 99 be
       -0.1523837 -0.2901207 -0.7095136 -0.30035537
000340 b8 01 15 be 99 fb 7e bd f0 59 85 bd 43 fd 70 bd
       -0.14551437 -0.06225166 -0.06511295 -0.05883528
000350 20 ad 29 3f 70 4b 9d be cc ce 65 3f fd 2a 57 3f
       0.6627979 -0.30721617 0.8976867 0.8404997
000360 af b4 77 3f 8f 8f 78 be 28 ce bb bd bc c7 9e be
       0.96760076 -0.24273513 -0.091701806 -0.3101176
000370 ab 7b 6b be 8d 76 9f be c4 14 a7 3e 0f 64 1c bf
       -0.22996394 -0.31145135 0.3263303 -0.6109018
000380 a3 bf 50 be 58 0d 9e bd 89 84 b6 3e fc a5 5d be
       -0.20385604 -0.07717389 0.3564799 -0.2164535
000390 1e d0 3f 3d f9 bb 8b 3e 39 4c b9 3e 4a ee ac be
       0.046829335 0.2729185 0.36190966 -0.3377555
0003a0 85 82 95 be a1 01 0b bf 58 bc e3 3d fe e1 88 be
       -0.2920114 -0.5429936 0.11119908 -0.26734918
0003b0 9d a6 6d bc 7f f9 09 3d bd 2c ca bd e4 92 96 3c
       -0.014505056 0.033685204 -0.098718144 0.01838059
0003c0 c9 06 1b 3f 76 4a a7 be b9 c7 19 bf 53 46 ab 3d
       0.6055723 -0.32673997 -0.6007038 0.08363023
0003d0 fe d2 96 3f 18 aa ea 3e 89 65 79 be e2 56 77 bf
       1.178314 0.45832896 -0.24355139 -0.9661695
0003e0 46 7e d4 3e 06 c1 c2 bf 99 0e bd 3d 9b f8 c7 be
       0.4150259 -1.5215156 0.092313 -0.39056858
0003f0 16 03 6f 3d f5 d0 af bf 6a 25 4a bf ae c8 9b 3e
       0.058352552 -1.3735644 -0.7896334 0.30426544

weight_ih_l0 f4 [200, 20]
000000 62 4a 15 bf 0e 76 82 3f 91 11 45 3f 0d 54 4a 40
       -0.58316624 1.0192277 0.7697993 3.16138
000010 0e 74 7c bf 3a 10 a7 3e 29 f9 90 be e5 fb 36 bf
       -0.98614585 0.32629567 -0.28315094 -0.7147811
000020 fd 55 b9 bf f3 04 61 bf 10 62 71 3e 4e dd 59 3f
       -1.4479367 -0.87898177 0.23572564 0.8510331
000030 d5 eb 89 3f 7a 86 28 3e fb 69 c5 3e 4f 89 99 3e
       1.0775095 0.16457549 0.3855742 0.2998757
000040 9f b5 66 bf e2 96 12 bf be 10 a5 3c 76 77 bf 3e
       -0.9012088 -0.5726148 0.020149585 0.3739583
000050 18 5e 27 3f 74 14 c7 bf 01 52 b3 3e c6 5d fc be
       0.6537795 -1.5553117 0.35023502 -0.49290293
000060 07 53 e9 3e 46 1c dd be 61 1c da be be 7e 0b bf
       0.45571157 -0.43185633 -0.42599776 -0.5449027
000070 c1 85 e7 be 42 85 2f bf 50 6f 26 3f 20 3e 03 40
       -0.45219234 -0.6856271 0.650136 2.0506668
000080 37 90 05 3f 81 5c 29 3f 21 0e 88 3f ab 7a 98 be
       0.5217318 0.66156775 1.0629312 -0.29781088
000090 56 b2 2d 3f 70 39 e6 3f 2e 22 41 be b9 aa 4a bf
       0.67850244 1.7986279 -0.18860695 -0.7916675
0000a0 e4 f4 12 3f d0 6f dc be 67 c2 f5 3d 0c ae bd 3e
       0.57404923 -0.43054056 0.1199997 0.3704685
0000b0 d9 6c 34 3e 88 52 3a bf 35 7b d7 3e a0 42 af 3e
       0.17619647 -0.7278218 0.42086187 0.34230518
0000c0 e8 ba 87 3f 4a 9a f4 bd b8 1c 37 3f 22 6d 26 3f
       1.0603914 -0.11943491 0.71528196 0.65010273
0000d0 f9 b1 42 3f 5e 1f 88 bf 44 86 20 3e c7 5d 80 3f
       0.76052815 -1.0634573 0.15676218 1.0028619
0000e0 93 99 51 3b 7c c4 9d bf f8 de 24 3f 35 35 f3 bd
       0.0031982407 -1.2325587 0.64402723 -0.11875383
0000f0 52 75 37 3f 58 04 18 3f 8f 37 b7 3e 67 a9 12 bf
       0.7166339 0.5938163 0.35784575 -0.5728974
000100 41 5c 3b 3f c9 19 c4 3e ed d6 aa be 00 15 54 3e
       0.73187643 0.38300923 -0.333671 0.20711136
000110 6b 06 49 be 16 39 75 3f 55 60 94 bd 71 06 12 be
       -0.19631355 0.9579023 -0.072449364 -0.1426027
000120 9e 1e bc 3e 7a 29 55 bd 28 49 f1 3e f5 60 7a 3e
       0.3674211 -0.05204151 0.47126126 0.24451049
000130 41 a0 59 3e e6 82 3e 3f 17 d6 f0 be 90 33 d0 3d
       0.21252538 0.74418485 -0.47038338 0.10166085
000140 e8 b9 b9 be 05 e0 b9 3e 99 11 08 3f db f6 1c 3f
       -0.36274648 0.36303726 0.5315185 0.6131417
000150 24 79 55 be f9 c4 e9 be 20 e7 d3 be ea 7b 9e 3e
       -0.20846993 -0.4565809 -0.41387272 0.30953914
000160 6f cf 34 3f 9a 8d 0a 3f bd 9f 13 bf 54 eb 43 be
       0.7062902 0.54122317 -0.57665616 -0.1913274
000170 2b da f1 bd 9c 6d d2 bd f0 4e 67 bf 55 3e 0c 3f
       -0.1180919 -0.102748126 -0.90354824 0.5478261
000180 88 90 11 bf 7f d1 8a 3e c4 4e c7 3d de d7 25 be
       -0.5686116 0.27112958 0.0973182 -0.16195628
000190 e4 4c 20 3f 05 99 f2 3d 30 68 88 3e bf 73 31 3f
       0.62617326 0.118455924 0.2664199 0.6931724
0001a0 fe 6e d0 be 94 64 94 3f d9 98 f9 be 4d 19 59 bf
       -0.4070968 1.1593194 -0.48749426 -0.8480423
0001b0 66 52 fa be 16 78 3a bf 64 eb a8 3e af b4 21 3f
       -0.4889099 -0.72839487 0.3299209 0.63166326
0001c0 be e2 34 bf 84 56 1f bd 75 01 24 be 2f 8f d9 bc
       -0.7065848 -0.038900867 -0.16016181 -0.026557533
0001d0 59 e6 d4 3e d9 87 f1 3e df 85 0b bd f8 3c dd 3e
       0.4158199 0.47173956 -0.034063216 0.43210578
0001e0 ff 86 98 bf f9 58 3e 3e fa 62 c5 be ac d9 2f 3e
       -1.1916198 0.18588628 -0.38552076 0.17172879
0001f0 ac d7 45 bf 8d 5a 7d be a0 fd 01 bf 95 b0 14 bf
       -0.77282214 -0.24741574 -0.50777626 -0.5808194
000200 b5 07 04 bf 92 5e f1 3d 8d bb 17 3f 57 d1 ad 3e
       -0.5157426 0.11785616 0.59270555 0.33948776
000210 84 91 77 3e 83 93 6b bc c5 23 3e bf 0d e2 80 bf
       0.24176604 -0.014378431 -0.7427333 -1.0068985
000220 3f 74 05 bf cc 9c e7 3d 32 13 cd 3e 4c 4a 20 be
       -0.521305 0.113092035 0.40053707 -0.15653342
000230 64 d5 83 be 64 ba 1b bf 93 f4 90 3f 9d 07 c9 be
       -0.25748742 -0.60831285 1.1324638 -0.3926362
000240 8c 4d 1b bf 99 bb d9 be d4 50 79 bf 1b a0 12 3f
       -0.606652 -0.42525938 -0.9738896 0.5727555
000250 ef 65 9a 3e 3d 03 a6 bc 72 ea 9b 3e c9 bc 29 40
       0.30155894 -0.020265216 0.30452305 2.6521475
000260 19 d4 2b be 1c 98 e9 be 60 c0 8b 3e 14 95 b0 3f
       -0.16780128 -0.45623863 0.27295208 1.3795495
000270 41 86 03 3e 3e ac e0 3e bc 47 3b bf 30 da 44 bf
       0.12844183 0.4388141 -0.7315633 -0.7689543
000280 2c cc 23 bf e2 cb 7d bf cb 02 09 bf ca 6d ab bf
       -0.63983417 -0.99139225 -0.53519887 -1.339288
000290 3b fb 78 3f 4b 63 b1 bf d9 3c 06 bf 8a 64 15 3f
       0.9725835 -1.3858427 -0.52436596 0.58356535
0002a0 e9 e7 fd 3f cc 24 88 bf 7b 16 82 3f 95 6b a7 bd
       1.9836398 -1.063623 1.016311 -0.081748165
0002b0 ec 47 93 bc 95 0f 36 bf 9c 54 b3 3f bd 12 4a 3f
       -0.017978631 -0.71117526 1.4010196 0.7893484
0002c0 2d 21 57 bf 93 c9 cc be b7 a2 b7 bf e1 a6 05 3e
       -0.84035 -0.3999754 -1.4346532 0.1305194
0002d0 0a dd de be a9 28 73 bb 8c 41 25 3f 07 9b 69 3e
       -0.43528014 -0.0037103093 0.6455314 0.22813044
0002e0 b8 c5 77 be fc 29 54 3f 6c af a7 be 77 da ee 3d
       -0.24196517 0.82876563 -0.32751024 0.116627626
0002f0 58 af ab be 51 da d9 3d 31 0f 00 bc e3 fb 88 bc
       -0.33532214 0.10637344 -0.007816122 -0.016721671
000300 c7 fa a1 bd cc f1 55 3e 9c 7e bc 3e a4 e5 4a 3f
       -0.0790916 0.2089302 0.36815345 0.79256654
000310 61 0f d8 3d 79 d5 62 be dc bd 61 bd e8 67 45 bf
       0.10549808 -0.22151746 -0.055112705 -0.77111673
000320 bb e7 b7 3e 8c a0 bb be 7e 34 4d ba 3b ca 2a be
       0.35918984 -0.36645925 -0.00078279513 -0.16678707
000330 5f ee 20 3f 5b 88 03 3e fd 3b 90 be ff 4b f4 bd
       0.62863725 0.12844984 -0.28170767 -0.119285576
000340 d7 6b 2e be 30 ba ac be 94 21 c1 be b9 7d 2e 3e
       -0.17033325 -0.337358 -0.3772093 0.17040147
000350 68 68 29 3e d9 ff 6c bd 48 e5 01 3f f3 c2 a8 bd
       0.16543734 -0.057861183 0.5074048 -0.082403086
000360 6e ce e6 bd 95 a5 69 bd 2f df 01 bf 3a 2d 60 3e
       -0.11269842 -0.057042677 -0.50731176 0.21892253
000370 95 85 90 be 2f 84 d7 bf 92 14 3e 3f 41 25 5d 3f
       -0.28226915 -1.6837214 0.7425014 0.8638497
000380 eb a0 44 bf 01 ac 10 bf 21 42 5a bf 36 2a 9c 3e
       -0.7680804 -0.5651246 -0.85257155 0.30500954
000390 24 4d 4e 40 95 2c 87 3e 95 09 08 3f 8a 57 a4 3f
       3.2234583 0.264012 0.5313962 1.2839215
0003a0 0b f2 a6 bf 06 3b 18 bf 72 2b d3 3e ad 7f ea 3e
       -1.3042616 -0.5946506 0.41244084 0.45800534
0003b0 cc 38 5e bb f4 b9 9f 3e 83 83 c6 3e 2b 72 6d bf
       -0.0033908365 0.31196558 0.3877221 -0.9275233
0003c0 c6 48 27 bf 80 0a e5 be 13 24 4a bd 53 d4 0f bf
       -0.6534542 -0.44734573 -0.04935081 -0.56183356
0003d0 db d1 d8 3e 92 8b 0a bd b8 d7 8a 3e 88 e5 5b 3e
       0.42347607 -0.03382451 0.27117705 0.21474278
0003e0 d1 2c 0a 3f 87 0a 8c be 8f 75 1b 3f 91 f6 bc bd
       0.53974634 -0.27351782 0.60726255 -0.09226716
0003f0 89 50 05 3f f0 f1 3f bd 34 e1 42 3f dc fe d4 bd
       0.5207601 -0.04686159 0.7612488 -0.10400173

weight_hh_l0 f4 [200, 50]
000000 ab 7f b0 bf 70 a3 05 bf 84 e3 96 3c 75 b9 d2 3e
       -1.3788961 -0.5220251 0.018419035 0.41157117
000010 fd c2 e1 bf c6 25 3d c0 c9 86 06 c0 53 ba bd bf
       -1.7637631 -2.9554305 -2.1019766 -1.4822487
000020 3e 8e 48 bd 5d 06 a9 3e ca 57 ce bf 01 98 18 bf
       -0.048963778 0.33012667 -1.6120541 -0.5960694
000030 b0 94 05 40 0d dc d2 c0 8c 22 23 40 7e d0 56 40
       2.0872002 -6.5893617 2.5489836 3.3564754
000040 2c a3 c1 bf 7b 56 11 3f 2f 14 42 40 a4 8f ae 3e
       -1.5127921 0.56772584 3.032482 0.34093964
000050 ab f3 8b 3f 64 d0 95 3f 7e 67 c7 3f 22 1b 90 bf
       1.0933737 1.1704221 1.5578458 -1.125828
000060 84 4f db 3f 8f 4c 6d c0 12 a9 96 be 58 2e 44 be
       1.7133641 -3.7077978 -0.29425865 -0.19158304
000070 7e fc 3a bf 26 e5 6f be fd 34 9c bf ab 99 03 c0
       -0.7304152 -0.23427257 -1.2203671 -2.0562541
000080 90 ea b7 be 76 0c 33 bf 32 db 76 40 08 62 55 40
       -0.35921144 -0.6994089 3.8571286 3.3341084
000090 ba 60 0e 3f dc 45 99 bd c0 35 93 3f 81 a8 3c 40
       0.55616343 -0.07484028 1.1500778 2.9477847
0000a0 2e 5c d2 3e 2b a2 19 40 0f d2 45 3e 93 d1 9b 3f
       0.41085953 2.400523 0.19318412 1.2173332
0000b0 5b e4 3f 40 30 b0 61 bf 75 16 64 bd 0c 80 73 3f
       2.9983127 -0.88159466 -0.05568548 0.9511726
0000c0 11 c0 6e c0 94 26 3b 3e 08 b3 32 bf 2e 05 57 bf
       -3.7304728 0.18276435 -0.6980443 -0.8399228
0000d0 22 6c 53 3f a0 20 cf 3f d9 9c d6 3e ef b1 92 3f
       0.8258687 1.6181831 0.4191654 1.1460551
0000e0 2d 6c 2c 3e ba 00 35 c0 b9 99 c7 3e f7 5c 84 3f
       0.16838141 -2.8281693 0.3898447 1.0340871
0000f0 b3 96 49 3f 85 81 03 bf b0 bc f4 3e ce 8e 4b 3f
       0.78745574 -0.51369506 0.47800207 0.7951478
000100 0d 0e cf 3f c6 7f 2d bf 91 3c a3 bf ba 30 cd 3f
       1.6176163 -0.6777309 -1.2752858 1.6030495
000110 80 78 11 40 9e 3a 69 3f 00 08 eb 3e 10 19 d7 be
       2.2729797 0.9110507 0.4590454 -0.4201131
000120 a2 6a 36 bf ef c2 1e bf d3 a5 70 3f 2a c0 d8 be
       -0.7125646 -0.62016195 0.9400303 -0.4233411
000130 5b 8c e7 bf 7f 27 b9 3f af 30 25 3f 5f b5 c8 3e
       -1.8089708 1.4465178 0.6452741 0.39200875
000140 12 e7 04 bf 46 11 d0 bf cc f5 a6 3f 8c aa b4 bf
       -0.51915085 -1.6255271 1.3043761 -1.4114547
000150 51 c1 54 bf 79 bb e9 be df 0b b5 3f b3 a9 1b 3f
       -0.8310748 -0.45650843 1.4144248 0.60805815
000160 45 1d 23 3c e4 63 96 be 47 21 48 bf cd 33 75 3f
       0.009955709 -0.29373085 -0.7817578 0.95782167
000170 f8 d0 62 be 47 1b f6 be 6a 36 d9 3f 3f 69 e3 3e
       -0.22150028 -0.48067686 1.6969731 0.44416234
000180 1a 6e b4 3f ed fb 0a 40 42 71 09 bf 59 be 02 40
       1.40961 2.1716263 -0.5368844 2.042868
000190 a7 3e fa be 9b eb d5 be 33 76 81 be 19 92 a5 be
       -0.48875925 -0.41781315 -0.2528549 -0.32338026
0001a0 19 c3 10 c0 b0 85 d2 3e e5 19 eb 3e 2b b5 51 c0
       -2.2619078 0.4111762 0.45918193 -3.2766826
0001b0 d3 bf d1 bf 3d 42 5d 3f 9e ed 03 c0 a3 aa b5 3d
       -1.6386665 0.86429197 -2.061378 0.08870437
0001c0 fb 22 e1 bd 3d 19 7a 3f 3b 55 df be 60 74 60 3f
       -0.10993 0.9769476 -0.43619713 0.87677574
0001d0 18 90 bf be 1b c5 5d bf e9 02 92 3f 69 d3 1c 3e
       -0.37414622 -0.86628884 1.1407138 0.15315022
0001e0 1c 60 1e 3f 74 99 19 bf 19 16 47 3f b4 41 e8 bd
       0.618654 -0.59999776 0.77768093 -0.11340657
0001f0 74 46 08 be 3e 70 5a 3f 46 8a 25 be f7 ed 55 bf
       -0.13308126 0.8532752 -0.16166028 -0.8356623
000200 17 4c e4 3f a1 cb 2c 3f 0f d7 9a 3e 26 a0 8b 3f
       1.7835721 0.67498213 0.30242202 1.0908248
000210 12 45 4a 3f 5e 48 8d bf e3 f7 a7 3e 0e 9d 46 40
       0.7901164 -1.103771 0.3280631 3.1033359
000220 ae 03 72 bf c3 53 87 c0 a9 ca 25 3f ba 3e 1b bf
       -0.94536865 -4.228975 0.6476236 -0.6064259
000230 db d3 4b 3d 97 8a 08 3e 4b c2 a9 bf 0b 38 f5 bd
       0.049762588 0.13334118 -1.3262419 -0.1197358
000240 0a 3c 75 40 fc 88 21 40 c4 e0 67 3f 2a 22 85 40
       3.8317895 2.5239859 0.9057734 4.1604204
000250 3e 3b 9f bf 27 2f 43 be 86 9a ca be 07 d7 d8 be
       -1.2439954 -0.19060956 -0.39571017 -0.42351553
000260 e0 a4 94 bf fa c0 31 3f 4d 15 7e be 88 94 7d be
       -1.1612816 0.69435084 -0.24812813 -0.24763691
000270 66 c3 25 c0 0e 5b 16 bf b0 37 90 be 54 60 90 be
       -2.5900512 -0.5873269 -0.28167486 -0.28198493
000280 90 01 21 bf 50 dc c9 bd c1 d1 ce bf f6 1c 18 40
       -0.6289301 -0.098564744 -1.6157762 2.3767676
000290 3a 83 82 3f 5c e9 86 3d 4f 65 d4 be 25 fa 0f bf
       1.0196297 0.065874785 -0.41483542 -0.56241065
0002a0 6f 5b 73 bf b1 72 4b be 0b 0f 0f c0 27 ba 28 3f
       -0.9506139 -0.1986797 -2.2352931 0.65909046
0002b0 b5 15 a7 3f 5d 47 15 3e f0 e0 6d be be 9c 4d bf
       1.30535 0.14578004 -0.23230338 -0.80317295
0002c0 a5 f6 70 be 0f 67 0d bf b6 32 df bf 43 c2 a2 bd
       -0.23531587 -0.5523538 -1.7437351 -0.07947209
0002d0 b7 34 17 bf 3d 8b d9 3e db cb b3 3f 0b fd e1 3e
       -0.5906481 0.42489043 1.4046587 0.4413837
0002e0 1a 42 1a be ee 23 94 3f fb 94 2a 3d bb 76 11 40
       -0.15064278 1.1573465 0.041645985 2.2728717
0002f0 70 dc 82 3e 68 51 f1 3d b8 6a 54 40 82 61 51 bf
       0.25558805 0.11783105 3.3190136 -0.8178941
000300 0b 33 9d bd c8 cc 19 be 8d 9b 09 3e a3 cf 42 be
       -0.07675751 -0.15019524 0.13438244 -0.1902452
000310 fd 91 c2 be 5a ab 16 40 f1 a7 10 40 ef 6a 67 bf
       -0.38002005 2.3542085 2.2602503 -0.9039754
000320 12 ce 85 bf 46 9b b9 bf cf 03 a1 3d d0 13 4c 3e
       -1.0453513 -1.4500511 0.078620546 0.19929433
000330 9c 17 05 3f a0 a5 3f bf 29 5f 0a be 60 7d 36 3f
       0.5198915 -0.748621 -0.13512863 0.7128506
000340 a2 5e 0a 3f 7f e5 0a 40 fb e0 0e bf 8f d8 e3 be
       0.5405065 2.1702573 -0.5581204 -0.4450116
000350 71 31 d8 bf f3 5a 03 c1 75 35 49 be b2 e8 ae bf
       -1.6890088 -8.209704 -0.19649298 -1.3664763
000360 50 c5 9a bf 4f 9f 84 3d be dc 01 40 c7 7b f2 3f
       -1.2091465 0.06475698 2.029098 1.8944024
000370 83 90 50 3f 35 69 10 bf 75 72 3a be 8d 7a f9 bc
       0.8147051 -0.56410533 -0.18207724 -0.030453945
000380 ba b8 0a 40 57 4f 73 bf 75 c8 2c bf 1b ad 25 3f
       2.1675248 -0.9504294 -0.67493373 0.64717263
000390 52 74 50 be 21 78 8f 3f f9 dd 34 3e ce a7 a5 bf
       -0.20356873 1.1208535 0.17662801 -1.2941835
0003a0 ea b2 8d 3f ab a2 99 3d 57 28 49 40 25 7b 2b bf
       1.1070225 0.075017296 3.1430871 -0.6698478
0003b0 14 dc 3d 3f c5 6f 2b 3f ab 48 51 3f 51 2b 2b 3f
       0.7416394 0.6696742 0.8175151 0.6686297
0003c0 52 39 d2 3e e1 d6 33 3e 48 e9 0b be d9 93 fa 3d
       0.41059357 0.17562439 -0.13663208 0.12235231
0003d0 e7 cc 30 40 fc 0d 1c bf 0e 17 54 bc 21 f9 9b 3e
       2.7625062 -0.6095884 -0.01294495 0.30463508
0003e0 36 cb e4 be b9 7e 03 3f e5 62 82 3d 64 5d 09 3f
       -0.44686288 0.5136524 0.06366519 0.5365813
0003f0 e2 60 48 bf 29 a4 a6 3f 81 3d b6 3e 07 15 d3 bc
       -0.7827283 1.3018848 0.355938 -0.025766863

bias_ih_l0 f4 [200]
000000 67 86 52 3e ae 93 f4 bd 2f ea 68 3f 12 a3 88 be
       0.20559083 -0.1194223 0.90982336 -0.26686913
000010 0e db ac 3f 34 a2 ca 3f b7 fb 43 bd fe 4d d1 3e
       1.350435 1.583075 -0.047847476 0.40879816
000020 69 83 44 3d e7 d0 1c 3f 99 fe b3 3f ab f5 73 3e
       0.047976885 0.6125626 1.4062072 0.23824184
000030 95 44 07 be e4 0c b7 3e b4 0d 17 3d 4d 99 49 be
       -0.13209756 0.35752022 0.036878303 -0.19687386
000040 7e 3b ae 3f d8 90 08 3f 72 95 40 3f f5 14 f0 3e
       1.3611906 0.53346014 0.75228035 0.4689099
000050 14 40 d9 3e a9 8b a9 3e 94 ab 06 3f 9f e0 90 be
       0.424317 0.33114365 0.5260556 -0.28296372
000060 73 17 be bd f8 bd 2a 3f 98 87 85 be ee 53 3c 3f
       -0.09281816 0.6669612 -0.26080012 0.73565567
000070 eb 2e b1 3e 6e 86 c9 3e df 85 ab 3f 3e 98 d5 3e
       0.34606108 0.39360374 1.3400229 0.41717714
000080 41 9d bd 3e e1 c7 69 3f 41 d8 25 3f b0 78 9a 3c
       0.37034038 0.91320616 0.647831 0.018856376
000090 e6 27 ab 3f 44 99 80 3f 4a e9 53 3d 9d c7 d1 3f
       1.3371551 1.0046773 0.051736154 1.6389042
0000a0 46 52 ed bd 5f e4 93 3e 78 81 f0 3c ef 12 bf be
       -0.11587958 0.2888517 0.02935861 -0.37319133
0000b0 6a c2 ac 3f a2 40 d5 3b 77 28 15 3e b4 7b 00 3e
       1.349683 0.006507949 0.14566217 0.12547189
0000c0 6d 96 f0 3f 35 d6 05 3e 8c ed d0 be 8c c8 2d 3f
       1.8795906 0.13069995 -0.40806234 0.67884135
0000d0 63 67 b9 3f 1f b5 4d be 5e bb 70 3f 3e d8 b8 3f
       1.4484676 -0.20088623 0.940359 1.4440992
0000e0 c4 bf 9d be c4 90 14 bf e7 2d b8 3e 92 d2 07 bd
       -0.30810368 -0.58033395 0.3597252 -0.0331598
0000f0 67 a6 bc 3e 81 b4 cb 3e fa 97 24 bd 3b f3 b9 3f
       0.36845705 0.3978615 -0.040184 1.4527353
000100 e4 25 10 bd b3 f5 ac 3f cb 4f 44 3e 03 e6 44 3f
       -0.035192385 1.3512481 0.19171064 0.7691347
000110 03 9f 85 3e 9f 49 79 bf 70 3d 55 3f d6 25 64 3e
       0.2609788 -0.9737796 0.8329687 0.22280058
000120 b5 77 08 3f 18 2f 07 be b0 6a 50 3f c6 3d 96 3d
       0.5330766 -0.13201559 0.8141279 0.07336001
000130 f6 74 95 3f 9a 44 31 3e 10 b5 a8 bb 29 47 56 3e
       1.1676319 0.17311326 -0.0051485375 0.20925583
000140 ae 55 0f bf 61 4a be 3e c2 44 3f 3f 2f d4 07 bf
       -0.5599011 0.37166122 0.7471429 -0.5305814
000150 cb fe f4 be e4 de 38 bf 2f c7 6d be 1f aa ab 3e
       -0.47850642 -0.72215104 -0.23220514 0.3352823
000160 16 71 8e 3e ce 65 f1 bf 7c ec 62 3f c7 6f 59 3e
       0.27820653 -1.8859193 0.88642097 0.21234046
000170 76 6b 4d 3f df 2e 51 3e 2f 12 a8 3e 92 98 ae be
       0.802421 0.20428036 0.32826373 -0.34100777
000180 96 11 08 be 68 c9 b6 be f2 27 44 3f 2d a3 20 ba
       -0.13287959 -0.35700536 0.7662345 -0.0006127831
000190 91 43 c0 be a0 5c 24 bf 01 6c cb bd 03 eb 63 3f
       -0.3755155 -0.64203835 -0.099327095 0.89030474
0001a0 a9 15 90 3e 9e 2b 04 bf 66 ca 48 bf 59 47 84 bc
       0.28141525 -0.51629055 -0.78433836 -0.016147302
0001b0 ed 7b f9 3e c9 64 2d 3e 03 bd 07 bd 20 06 4b bf
       0.4872736 0.16932978 -0.03313924 -0.7930622
0001c0 58 86 c2 be e9 cc fe 3e b8 b2 08 3c 64 04 4b 3f
       -0.3799312 0.4976571 0.008343391 0.79303575
0001d0 73 0f d5 be 57 0d 04 3f f7 a1 91 3e cc 65 8c 3e
       -0.4161335 0.51582855 0.28443882 0.27421415
0001e0 a6 8d b6 be 96 36 40 bf e6 9b 60 bd ca d9 0b 3f
       -0.35654944 -0.7508329 -0.054836176 0.54629195
0001f0 d2 b8 93 3f 73 3b 14 bf bd 3b 69 bd 7d 67 3a 3b
       1.1540778 -0.5790321 -0.056941736 0.0028443031
000200 92 a3 a3 be 57 3e 00 3f 6a 11 17 bf 37 73 08 3e
       -0.31960732 0.50095123 -0.59010947 0.13325201
000210 6f 3a d3 3d 2c 0d 5f 3e 04 af 1f be f5 b8 04 bf
       0.1031388 0.21782368 -0.15594107 -0.5184472
000220 aa e1 23 bf f7 c4 af 3e 7c 0d 54 3f 26 f0 10 3f
       -0.6401621 0.3432996 0.82833076 0.5661644
000230 95 94 8d 3e bb fa 3c bf fe 0e 30 bf ef e0 84 3e
       0.27652422 -0.73820084 -0.68772876 0.2595286
000240 c3 5a 07 bf 93 fd d5 3e b1 82 a7 3e 2d 65 6d 3e
       -0.52872866 0.41795024 0.32716897 0.23183127
000250 57 b8 31 3f 1d a7 27 3e 09 a2 01 bf 69 29 2d 3f
       0.69421905 0.16372342 -0.5063787 0.6764131
000260 e6 74 dd 3e 5a 85 ee 3e 7d 09 b2 3f 49 75 1d 3f
       0.4325325 0.46586114 1.3909146 0.6150709
000270 33 ae 6f 3e 93 3b 13 3f 88 b1 0e be 40 b8 ea 3e
       0.23406295 0.5751278 -0.1393491 0.45843697
000280 5f 86 9c 3f 53 64 0b 3f b1 c4 0f bf f3 e9 00 bf
       1.2228507 0.5444996 -0.561595 -0.5035698
000290 f7 ec 39 3f 9e 4d 53 3f b9 71 2a 3f 45 ab dc 3e
       0.72627205 0.8254031 0.66579777 0.43099418
0002a0 3c f2 29 3e 93 5a 73 3f f2 b4 d2 3e fe 83 4f 3f
       0.16596311 0.9506008 0.41153675 0.8106078
0002b0 b5 6d 65 3c 35 84 ab bd e9 e4 29 bf 70 90 f1 be
       0.014003207 -0.08374826 -0.66364914 -0.4718051
0002c0 be 86 19 bf 4f fd 1b 3f 1b 10 11 be 24 22 27 3e
       -0.59971225 0.60933393 -0.141663 0.16321617
0002d0 50 ce 33 3f db 51 51 3f 8d 22 96 3e b3 45 5f 3f
       0.7023668 0.81765527 0.29323235 0.8721573
0002e0 de 6b 44 3f af 20 b5 3c 0e 2e 06 3f e6 32 d2 3d
       0.7672709 0.022110311 0.52414024 0.10263614
0002f0 01 50 ba 3f 1c 47 b4 3f f2 74 1a bf 11 26 02 bf
       1.4555665 1.4084201 -0.60334694 -0.50839335
000300 da e3 df be fd 76 44 3f b7 f0 31 3f 60 2a 8d bf
       -0.43728524 0.7674406 0.69507927 -1.1028557
000310 27 98 8e 3e 0c 22 f1 be 23 51 07 3e 84 98 04 3f
       0.27850458 -0.47096288 0.13214545 0.5179522

bias_hh_l0 f4 [200]
000000 a9 45 63 3e 5d a3 65 be f0 1e 90 3f 89 19 a0 be
       0.22194542 -0.224256 1.1259441 -0.31269482
000010 9d 32 ba 3f c6 9d c8 3f 74 ef 9a bd 86 51 b4 3e
       1.4546696 1.5673149 -0.07565203 0.35218447
000020 3c 8a 42 3d 54 0e 47 3f 72 6e b8 3f 45 ce f3 3d
       0.04749511 0.7775624 1.4408705 0.11904577
000030 39 c3 05 be fd 1f 89 3e 19 3e 5f 3e 04 d9 86 bd
       -0.13062753 0.26782218 0.21801032 -0.06584361
000040 bd df bf 3f 64 88 22 3f 2d 85 50 3f 8e d6 05 3f
       1.4990155 0.63489366 0.8145321 0.5228051
000050 38 be 59 3e e1 ad b6 3e 65 88 3f 3f 0d c8 88 be
       0.21263969 0.35679534 0.74817497 -0.26715127
000060 8d 33 f8 bd 7a 4b 2a 3f 31 9b 00 be 5f 84 27 3f
       -0.121192075 0.6652142 -0.12559201 0.6543636
000070 31 35 31 3e 54 f9 f5 3e 4f 6a b1 3f 6b f0 a4 3e
       0.17305447 0.48041785 1.3860568 0.32214674
000080 6d 67 d1 3e d6 6f 6e 3f fe 7d 16 3f b4 66 c1 bd
       0.4089922 0.931394 0.58786 -0.09443417
000090 5c 2f a0 3f 1f e3 62 3f 68 d4 a0 3d be a9 b0 3f
       1.2514453 0.8862781 0.07853013 1.3801801
0000a0 f7 25 01 be ec 96 08 3e 6f 8f 39 3e 67 5d f6 be
       -0.12612139 0.13338822 0.18121122 -0.48118135
0000b0 c8 ab a0 3f 77 04 27 3e c3 98 b7 3e 10 08 0e 3e
       1.2552423 0.16310297 0.35858735 0.13870263
0000c0 44 39 f1 3f cf 47 5f 3d 23 d5 b3 be d7 32 0f 3f
       1.8845601 0.05451184 -0.35123548 0.5593695
0000d0 72 5a be 3f 7c b9 20 be 9e f2 40 3f d6 70 b7 3f
       1.4871352 -0.15695757 0.75370204 1.433131
0000e0 88 53 46 be bc 1e 05 bf e0 b7 de 3e d4 45 a1 3d
       -0.19367802 -0.5200002 0.4349966 0.07874647
0000f0 49 1f 1a 3e 69 df a4 3e 2f 3e e3 bd 86 1c ab 3f
       0.15050997 0.32201698 -0.11095845 1.336808
000100 31 70 16 be 86 25 b5 3f d0 4b d9 3d a3 93 27 3f
       -0.14691235 1.4152076 0.10610163 0.6545965
000110 aa 2f 11 3e 87 d3 48 bf f6 75 28 3f 5b e0 16 3e
       0.14178339 -0.78447765 0.65804994 0.14734022
000120 8b a7 0b 3f 15 89 84 3a 6d 69 2b 3f f8 51 bc bd
       0.54552525 0.0010111654 0.6695774 -0.09195322
000130 cc 9d 8d 3f bb 67 51 3e 05 df 47 3d 32 09 a8 3e
       1.1063781 0.20449726 0.048796672 0.32819515
000140 ea ac 1a bf 4e 65 9d 3e f0 a7 19 3f 39 f8 dd be
       -0.60420096 0.30741352 0.6002188 -0.4335344
000150 94 e0 36 bf 50 61 27 bf d7 85 80 be 52 c6 ae 3e
       -0.7143643 -0.6538286 -0.25102112 0.3413568
000160 1b fb ec 3d 94 49 f0 bf 50 f7 36 3f 7c 4d 75 3e
       0.11571332 -1.8772454 0.7147112 0.23955339
000170 4d 64 4a 3f c9 49 e1 3e 5a 9a 9b 3e 71 c1 af be
       0.79059297 0.44001606 0.30391198 -0.34327272
000180 5e 57 ee 3c 96 b4 4a be 2c 37 3c 3f e2 cc b5 bd
       0.029094394 -0.1979545 0.73521686 -0.08876969
000190 a5 e1 d3 be 9e 25 2a bf 6f 6e 10 bd 91 1f 46 3f
       -0.4138309 -0.6646365 -0.035261568 0.77391917
0001a0 64 18 c5 3e 9f f3 09 bf 3c cb 53 bf e5 d4 02 3d
       0.3849517 -0.5388736 -0.82731986 0.031941313
0001b0 77 a9 0f 3f 74 f4 42 3e 91 24 34 be f3 3f 39 bf
       0.5611796 0.19038564 -0.17592074 -0.72363204
0001c0 e6 3f ef be 64 89 d0 3e 66 07 de 3c 34 09 48 3f
       -0.46728438 0.4072982 0.027103137 0.7813904
0001d0 52 87 07 bf f7 58 0b 3f db 50 30 3e cf 65 b6 3d
       -0.5294086 0.54432625 0.17218344 0.08906137
0001e0 64 23 bb be e5 85 46 bf 52 41 5c be 46 0f 22 3f
       -0.36550438 -0.77548057 -0.21509293 0.63304555
0001f0 b8 ea 9a 3f b6 c1 32 bf 67 7d 3e bd 70 11 d7 bd
       1.210288 -0.6982683 -0.04650631 -0.10501373
000200 74 43 8c be 23 05 2f 3f d4 39 0c bf cb 28 03 3e
       -0.27395213 0.68367213 -0.5477574 0.1280853
000210 82 88 34 3d 1b e5 a6 3e 4f cd a3 be 5d 8b dd be
       0.044075496 0.3259667 -0.31992576 -0.43270388
000220 84 3a f2 be 91 22 ab 3e db 16 68 3f 7f 84 c2 3e
       -0.4731027 0.3342481 0.90659875 0.37991711
000230 ca d6 76 3e 82 2f 27 bf 95 31 f8 be 00 9e 01 3e
       0.24105373 -0.65306866 -0.48475328 0.12657928
000240 07 ec db be 14 96 d0 3e c7 b9 bd 3e 43 b4 e0 3e
       -0.42953512 0.407395 0.370558 0.4388753
000250 71 b1 23 3f c4 0c ac 3c 01 68 98 be 24 51 36 3f
       0.6394263 0.02100218 -0.2976685 0.7121756
000260 a6 26 a4 3e 8a f2 e5 3e 8a f5 c4 3f 0c 5e 19 3f
       0.32060736 0.44911605 1.5387433 0.5990913
000270 fa 9e 52 3e 48 86 f2 3e 9f de 6a ba 35 18 fc 3e
       0.20568457 0.47368073 -0.0008959565 0.49237218
000280 3a 05 96 3f d5 bd 19 3f 16 22 de be b3 b1 33 bf
       1.1720345 0.60055286 -0.4338538 -0.7019302
000290 43 6a 29 3f c4 68 34 3f 5b bd 13 3f 40 fe cd 3e
       0.6617777 0.7047236 0.5771081 0.4023304
0002a0 1a ef 94 3e b4 69 87 3f e6 a9 dd 3e 43 13 1e 3f
       0.2908867 1.0579133 0.43293685 0.6174814
0002b0 77 8e 5f be c1 ba 53 be 13 8a 40 bf 27 e3 cb be
       -0.2183169 -0.2067671 -0.75210685 -0.3982174
0002c0 19 b3 ed be 17 5c 0e 3f e5 48 9e be e1 ac 4d 3e
       -0.46425703 0.5560927 -0.3091499 0.2008548
0002d0 76 ac 19 3f f3 29 32 3f aa 13 99 3e 2a ee 46 3f
       0.6002878 0.6959526 0.29897815 0.7770716
0002e0 23 cb 2e 3f 18 b8 96 3d c3 7e 1a 3f 4b 75 e2 3d
       0.6827871 0.07359332 0.60349673 0.11057528
0002f0 ac 1d af 3f 6e e2 a1 3f 6a 2a 0d bf 50 3f fc be
       1.368093 1.2647226 -0.55142844 -0.49267054
000300 d9 bf 0d bf 69 a7 1f 3f 92 25 73 3f ba 4e 7c bf
       -0.5537086 0.6236482 0.949792 -0.9855763
000310 ec e0 24 3e 91 07 06 bf af d0 02 3e f1 42 9b 3e
       0.16101426 -0.52355295 0.12774919 0.3032451

weight f4 [74, 50]
000000 cb 6d ef be cc 4a fa 3e da 29 4d 3f f1 c5 3a bf
       -0.46763453 0.4888519 0.80141985 -0.72958285
000010 36 f1 ea 3e a1 38 e7 be 58 13 88 bd 28 ff 66 bf
       0.45887154 -0.45160392 -0.066443145 -0.9023309
000020 35 e2 26 bf 0f e0 b8 3e 07 c7 9f be 50 15 38 3f
       -0.65188915 0.36108443 -0.31206533 0.7190752
000030 8b 40 de 3e de 73 a7 3c 69 23 a9 3e ae c7 38 bf
       0.43408617 0.020440992 0.33034828 -0.7217969
000040 d0 12 05 3f 29 38 75 be b2 cb ce be 1e 05 90 bd
       0.5198183 -0.23947205 -0.40389782 -0.07032226
000050 9b f6 7a 3e 90 52 db 3e 6d 7c 6b bf 90 c9 88 bd
       0.24508135 0.42836428 -0.91986734 -0.0667907
000060 ac cf c9 be a5 89 2a be ab 4e 59 3f 7e 40 24 3d
       -0.39416254 -0.1665407 0.8488566 0.040100567
000070 0f 3d fd bd 16 32 41 bf e7 62 d4 3d 7c ec 0c bf
       -0.12365162 -0.7546705 0.103704266 -0.55048347
000080 e0 c3 42 bd 12 d7 d0 bb d8 0f 19 3e 05 e5 dd 3f
       -0.047550082 -0.0063732946 0.1494745 1.7335516
000090 97 cd 1c 3f 3e c8 94 bd 01 58 56 bf 57 e1 ff 3d
       0.61251205 -0.07264756 -0.83728033 0.12494152
0000a0 19 1b 5e be 47 d2 0e 3f 95 eb 57 3f 07 52 82 3e
       -0.21690024 0.5578961 0.84343845 0.25453207
0000b0 6c 24 4e be 2f 75 f6 be 4a 9c e5 be b8 fd f2 be
       -0.20131081 -0.4813628 -0.44845802 -0.47459197
0000c0 ea 34 99 be 5e 46 de 3f 1b 57 9b be 31 7a ce 3e
       -0.29923183 1.7365224 -0.30339894 0.403276
0000d0 9d 48 05 3f 92 fb 26 bf 78 18 c5 3e 09 16 f1 be
       0.52063924 -0.65227616 0.3849523 -0.47087124
0000e0 a5 5e 60 be 96 ee 33 bf 4f 0e 02 bf 9f cb ba 3e
       -0.21911104 -0.7028593 -0.50803083 0.36483476
0000f0 43 c0 85 be ff 31 06 3f 78 25 98 3e f8 dc d0 3d
       -0.26123247 0.5242004 0.29716086 0.101983964
000100 e8 26 f0 3e 53 bf 00 bf 0b 15 0d 3f 95 cd d2 bb
       0.46904683 -0.5029194 0.55110234 -0.0064331987
000110 d9 19 d9 be 19 f5 31 3d e8 8f 9c 3e 56 77 99 3e
       -0.42402533 0.043446634 0.30578542 0.2997386
000120 d1 d5 3b bf 07 48 cc bd 56 6b df be 44 cb 03 be
       -0.7337313 -0.099746756 -0.43636578 -0.12870508
000130 1e 0e 42 3f 4b 6c 80 bd 68 49 55 bd a1 51 30 bf
       0.7580279 -0.06270655 -0.05207196 -0.68874556
000140 32 ab 27 3e 09 88 d7 be a0 b2 9a 3c 0d da 82 ba
       0.163739 -0.42095974 0.018884003 -0.0009983197
000150 8e a9 3d 3e b5 c9 d1 3f c8 2e 04 3f 17 41 0f bd
       0.18521711 1.6389681 0.5163388 -0.034974184
000160 21 ee 37 bf 27 10 2c 3e 8e 25 17 be 22 91 b7 3e
       -0.7184773 0.16803037 -0.1476042 0.35852915
000170 f3 20 82 3f af f2 6f 3e dc 1e 89 be 9b 35 00 bf
       1.0166305 0.2343242 -0.26781356 -0.50081795
000180 77 d2 df be a2 bf 73 be ea 91 bf be fc 68 f0 3f
       -0.4371526 -0.23803571 -0.3741601 1.8782039
000190 25 db fe 3e c6 3d 2d bf 78 7b 45 be 1c ba 36 3f
       0.4977657 -0.67672384 -0.19285381 0.7137773
0001a0 23 e5 f5 bf ba 02 00 3f 77 73 3d bf 75 d5 88 be
       -1.9210552 0.5000416 -0.7400431 -0.26725355
0001b0 dd f9 46 3f ac 16 4e be 4c 66 6f 40 cc 5c c1 3f
       0.7772501 -0.20125836 3.7406187 1.5106444
0001c0 c9 8b 80 c0 95 8b 25 bf 71 6a f6 be d4 b0 08 3f
       -4.0170636 -0.6466611 -0.48128083 0.5339482
0001d0 79 00 b8 bf d8 97 a7 bf 60 6a e1 3e c4 f1 78 3e
       -1.4375144 -1.3093214 0.4402647 0.24310976
0001e0 05 9a 9e 3f c9 40 00 bf f5 e3 5e 3f c4 26 cc 3d
       1.2390753 -0.50098854 0.87066585 0.099683315
0001f0 46 0d c8 bf 6b 75 22 3f 11 41 42 3d 32 2f 9d 3e
       -1.5629051 0.63460416 0.047425333 0.3070007
000200 2f aa be be f2 e2 7a 3e 2c 6b 8c 3f 2e 20 0c 3f
       -0.37239215 0.24500635 1.0970206 0.547366
000210 de e1 11 bf 68 c8 08 bf 99 03 2e bf 80 a7 47 3f
       -0.5698527 -0.53430796 -0.6797424 0.7798996
000220 bb 12 86 3f 29 67 53 3f 87 d5 c7 bd e4 39 55 3f
       1.0474466 0.82579285 -0.09757524 0.8329146
000230 9f 3a 1e 3f 28 0d 76 bf c5 39 f7 be 78 16 de bc
       0.618082 -0.96113825 -0.48286262 -0.027110323
000240 c1 14 94 bf 3e 53 df 3f 6b 60 7c 3e 36 01 5c 3f
       -1.1568834 1.7447278 0.24646156 0.8593935
000250 6c bb ca 3e d3 d3 3f bf 90 d6 94 be 71 0d a8 bf
       0.39596117 -0.74932593 -0.29069948 -1.3129102
000260 b6 3c 8e bf 62 89 90 bf ad cc 68 bf f3 2f 8a bf
       -1.1112278 -1.1291926 -0.9093731 -1.0795883
000270 0e 6b 03 40 72 97 98 c1 c0 dc 9a bf c3 58 34 3f
       2.053409 -19.073948 -1.2098618 0.7044794
000280 32 19 e6 bf 8f ad cd 3c 61 ba 09 3f 9b e6 af 3f
       -1.7976439 0.025107173 0.53800017 1.374225
000290 a7 ae d7 3e a4 c0 b3 c0 d2 94 5c bf c9 3b 85 c0
       0.42125437 -5.6172657 -0.8616458 -4.163548
0002a0 5e 35 61 3f cd de 4b 3f 4d 5d e8 40 68 00 ab bf
       0.87972057 0.7963684 7.2613893 -1.3359499
0002b0 a6 7c ce bf 24 d2 d6 bf d4 9e 21 40 40 a0 0f 3d
       -1.613179 -1.678288 2.525319 0.035064936
0002c0 5b 78 db 3e 86 61 f4 3f d5 74 35 3e e5 f0 ae be
       0.4286526 1.9092262 0.17720349 -0.34168163
0002d0 ea 67 b3 bf e6 23 f2 c0 46 79 7b 3f 8c 30 a2 3f
       -1.4016087 -7.566882 0.98231924 1.2671065
0002e0 87 1a 0d 40 5d 1b 41 3f c7 36 95 40 44 2a 06 3e
       2.204744 0.7543238 4.6629367 0.1310206
0002f0 c9 ff 55 3f 78 c4 60 be 1c 64 bf bf 22 77 d5 3f
       0.8359342 -0.21949947 -1.4952426 1.6676981
000300 32 56 a5 bf ce ee 15 41 d1 40 8f c0 e2 5e d0 bf
       -1.291693 9.370802 -4.476662 -1.6278956
000310 ad 70 51 be 0e e5 17 3f 72 b6 d0 bf 8f 3e 2c 40
       -0.20453139 0.59333885 -1.6305678 2.6913183
000320 23 8a c5 be cb eb 19 3e 05 c5 13 c0 a6 1b c6 3e
       -0.38581952 0.15031354 -2.3089 0.3869297
000330 ef cc 89 3f d4 26 d7 3e 40 60 27 3e e3 02 d9 3d
       1.0765666 0.4202181 0.1634531 0.10596254
000340 17 cd 1c 3e 07 b6 61 3f 75 71 d2 bf 05 b8 9a bf
       0.1531261 0.88168377 -1.6440874 -1.2087408
000350 b8 8e 0f 3f 7c 58 93 3e d7 2b 3a 3f 0d 78 ff 3e
       0.56077147 0.28778446 0.72723144 0.4989628
000360 17 b0 55 bf 45 fe 3d bf b6 ca 1a 40 99 bd 1d bd
       -0.83471817 -0.7421611 2.4186225 -0.038510893
000370 04 fa b4 be 8c b8 95 be 75 60 4d 3c 92 4f d2 3f
       -0.35346997 -0.2924236 0.012535204 1.6430533
000380 fd 4b 00 3f 8f 9d b2 be 65 02 f7 bd 81 97 b9 3e
       0.5011595 -0.34885833 -0.120610036 0.362484
000390 53 8e 2a 3f e2 ed 28 3e b4 8b 66 be 39 52 df 3c
       0.6662342 0.16496995 -0.2251423 0.027260887
0003a0 a3 8a f0 3f d0 64 af bf b0 87 76 c0 9c dd 2a bf
       1.8792309 -1.370264 -3.8520317 -0.667444
0003b0 55 fc db bd d7 2c b9 bc 6e 0d 4e 3f aa 58 dd 3f
       -0.10741488 -0.02260439 0.8048924 1.7292683
0003c0 e8 1a 3b 3f 2d ae d8 3f 94 7b 8f be 24 85 47 bf
       0.7308793 1.6928154 -0.2802397 -0.7793753
0003d0 96 cb 9d 3f 15 50 12 c0 98 1d 0a 3f 2f 76 8e 3e
       1.2327754 -2.2861378 0.53951406 0.27824542
0003e0 8e 00 35 bf 19 b2 17 40 f9 c1 e8 be 55 3e 3c 3d
       -0.7070397 2.3702452 -0.4546049 0.045957882
0003f0 ec 8e 57 c0 dc 50 3b 40 63 ea 4b 3f 9e 57 c4 3f
       -3.3680983 2.9268103 0.7965452 1.5339239

bias f4 [74]
000000 76 68 15 bf e6 ee 1c bf d5 2a 92 3f ee a0 24 bf
       -0.5836252 -0.6130203 1.1419321 -0.6430806
000010 8e 83 14 40 e8 5a 1e c0 67 3e 18 40 1c b9 bb be
       2.3205295 -2.4742985 2.3788087 -0.36664665
000020 97 50 ba bf 64 60 8d be 0f e0 91 bf 23 83 3f be
       -1.4555844 -0.27612603 -1.1396502 -0.18702368
000030 1f 1e b2 be 6d 53 9c bf c4 a5 f4 3f 03 f1 e1 3f
       -0.34788606 -1.221296 1.9113088 1.7651676
000040 f3 1a 1d 3f 8a 8e f3 3e 00 9a 48 be a2 0f 5e bf
       0.61369246 0.47569686 -0.19589996 -0.86742604
000050 b6 c2 38 bf 8e a9 a1 be 40 26 75 bf ca 3b f6 3e
       -0.72172105 -0.31574672 -0.9576149 0.4809249
000060 8b c7 85 3d bd 01 af 3e 4e 98 eb bf 6f fd 1a 3f
       0.065322004 0.34181014 -1.8405855 0.6054296
000070 03 31 2f 3f 2e 14 8c bf 5e f7 e3 bd 0e 11 29 c0
       0.6843416 -1.0943658 -0.11131166 -2.641666
000080 00 0b ac 3e 5a 10 a5 3e 6d 2b 4d 3b c4 3f b3 be
       0.33602142 0.32239038 0.0031306401 -0.35009587
000090 fb b3 44 c0 f6 e0 03 bf ed 01 20 bf aa 67 f9 be
       -3.0734851 -0.5151514 -0.6250294 -0.48711902
0000a0 57 71 1d bf 33 12 ed be db 0e 1b bf e1 04 2b bf
       -0.6150107 -0.46302947 -0.6056954 -0.6680432
0000b0 20 fb 2c bf f9 5a f6 be ae 90 23 bf 5c 97 1c bf
       -0.67570686 -0.48116282 -0.6389264 -0.61168456
0000c0 1a 6d e0 be 04 5d 05 bf 72 d1 09 bf 24 c8 f4 be
       -0.43833238 -0.52095056 -0.53835213 -0.47808945
0000d0 dd 60 38 bf 95 66 29 bf a3 2d 10 bf 70 a9 1c bf
       -0.720228 -0.6617215 -0.56319636 -0.6119604
0000e0 a5 7a 03 bf 31 f4 f7 be e8 65 0f bf ae fa 1a bf
       -0.51359016 -0.4842849 -0.5601487 -0.60538757
0000f0 6e ef 07 bf 85 44 e4 be 01 01 19 bf e0 44 db be
       -0.53099716 -0.44583526 -0.59767157 -0.42825985
000100 11 21 15 bf bb 29 31 bf 67 4a 1b bf da 6f fe be
       -0.5825358 -0.692043 -0.60660404 -0.4969471
000110 f3 f9 f1 be 1b 09 2d bf 24 94 37 bf 35 fd 05 bf
       -0.4726101 -0.6759202 -0.7171042 -0.5233949
000120 8c b0 1a bf 1e 96 ec be
       -0.6042564 -0.4620828

weight f4 [50, 2]
000000 a5 2b 09 3f 67 23 15 3f 1a 41 94 3e f9 c6 2a 3f
       0.5358222 0.58257145 0.2895592 0.6670986
000010 90 ed 77 bd 20 45 88 be 78 ca 08 3e 90 bd 1d 3d
       -0.06052929 -0.26615238 0.13358486 0.03851086
000020 f0 24 43 be 67 24 2e bf c7 de 2b 3f b0 0a 55 3e
       -0.1905706 -0.68024296 0.67136806 0.20804858
000030 4c 51 38 be 00 41 16 3e 73 e7 0e 3f c6 66 f6 3e
       -0.17999762 0.14673233 0.55821913 0.48125285
000040 00 09 66 be 80 7c 49 3d 92 c1 31 bf e5 04 ce be
       -0.2246437 0.049190998 -0.6943599 -0.4023811
000050 40 66 cb 3c e1 26 cc be e4 28 14 be 4c 0e 80 be
       0.02482903 -0.39873412 -0.14468724 -0.25010908
000060 50 4d 67 3d c1 b4 a6 be 98 6a c4 be e7 d4 9a be
       0.056470215 -0.3255978 -0.38362575 -0.30240557
000070 84 42 14 3e f8 72 e8 3d 40 21 1a be f0 12 ff bd
       0.14478499 0.113500535 -0.15051746 -0.12454784
000080 91 2a 1b 3f ca b3 21 bf 00 f7 83 bd a7 9a 0d bf
       0.60611826 -0.6316496 -0.06443596 -0.55314106
000090 5a c2 6f be 7f 1a 23 bf 62 3d f3 3e ad d0 1a 3f
       -0.23413983 -0.63712305 0.4750777 0.60474664
0000a0 69 a4 ba be 91 55 0e bf 3e ee d5 3e 0b 1d fd be
       -0.3645356 -0.55599314 0.41783327 -0.4943622
0000b0 d5 71 19 bf c5 b0 ed be ee 83 04 bf 62 b2 07 bf
       -0.5993932 -0.46423927 -0.5176381 -0.53006566
0000c0 94 d2 39 be f6 bf a8 3e 10 ff 6c be 8e 65 11 bf
       -0.18146735 0.32958955 -0.23144174 -0.56795585
0000d0 a2 f5 f7 3e ce aa 23 bf 0a dc e2 3e 40 3e 23 3e
       0.4842959 -0.639325 0.443085 0.15941715
0000e0 52 75 f9 be 80 a2 07 bf 6f 6f 26 3f 30 49 32 3d
       -0.4872232 -0.5298233 0.65013784 0.04352683
0000f0 7c 54 4e 3e 60 db e1 bc b0 1e 84 bd a1 f1 21 3f
       0.20149416 -0.027570426 -0.06451166 0.6325932
000100 c5 04 e6 be 60 fb 7f 3d e0 fa 8a bd 78 fd cb be
       -0.44925514 0.06249559 -0.06786132 -0.3984182
000110 4a 9c bb 3e e1 ec 19 bf 1a 2b 85 3e 4b c2 e2 be
       0.36642677 -0.60127074 0.26009446 -0.4428886
000120 39 51 0b bf 90 e3 44 be e0 88 d9 3c 48 36 a8 be
       -0.5442081 -0.19227433 0.026554525 -0.32853913
000130 aa b4 8d 3e e0 e2 b0 be 71 a4 e4 be 69 dc b2 be
       0.27676898 -0.34548092 -0.4465671 -0.34933785
000140 b8 48 ea bd 80 0e d5 3d 66 af b3 3e 5e ad 11 bf
       -0.11439651 0.10403156 0.35094756 -0.5690516
000150 19 7f 2a bf 52 34 25 bf 88 bd 4a 3e 04 60 6f be
       -0.66600186 -0.6453296 0.19798863 -0.23376471
000160 2e 99 5e be 8d 08 1e bf 3c 97 6c 3e 05 95 0f 3f
       -0.21738121 -0.617318 0.23104566 0.5608676
000170 a2 6a ef 3e 98 4e e8 bd 5d 62 09 bf d7 98 1b 3f
       0.46761042 -0.113431156 -0.53665715 0.6078009
000180 50 1e d7 3d 24 b7 4e be 1e 11 34 bf 9a d7 d1 3e
       0.105038285 -0.2018705 -0.7033862 0.40984803

bias f4 [50]
000000 d9 7d 2d 3f 9b 78 01 3f 00 02 02 3c 9a e0 bd 3e
       0.67770153 0.50574654 0.007935047 0.3708542
000010 da 85 c8 be d4 3e 7a 3e 79 a1 2e 3f e8 e9 c4 be
       -0.3916462 0.2443803 0.6821514 -0.38459706
000020 ce 28 d1 3e 32 f3 a1 3e 54 83 34 bf e9 f1 24 3f
       0.40851444 0.31630856 -0.7051289 0.64431626
000030 cf 72 0e 3f da 65 e6 be 1a 93 b3 3e d5 e9 b5 be
       0.55643934 -0.44999582 0.35073167 -0.35529962
000040 f8 b9 23 bf 40 6c 8d bd ca ef 9e 3e 30 e1 33 bd
       -0.6395564 -0.06905413 0.3104232 -0.043915927
000050 d4 71 4a 3e 00 20 37 3b 3a 80 da 3e bc 04 81 be
       0.19769984 0.0027942657 0.42675954 -0.25198925
000060 b5 df 03 3f d8 f5 04 3e fa 6d 1e bf 55 5c e1 be
       0.51513225 0.12984407 -0.6188656 -0.44015756
000070 50 87 b9 3d 00 83 f9 3d 66 e5 0a bf 8a cd da be
       0.09059012 0.121831894 -0.54256284 -0.4273494
000080 c0 2e aa 3c 34 67 2b bf b8 3a fd 3d a0 0a 25 bf
       0.020774245 -0.6695435 0.12364715 -0.6446934
000090 8f 2d 08 3f 62 48 b9 3e 73 6d 0c 3f 06 8c e2 be
       0.53194517 0.36188036 0.54854506 -0.44247454
0000a0 da 59 ed be bf db 22 3f 9d 30 1f bf 68 4b 00 3e
       -0.46357614 0.63616556 -0.62183553 0.12528765
0000b0 5c a6 32 3e 0e e0 f7 3e 6d d1 30 3f 62 b1 e7 3e
       0.17446274 0.48413128 0.6906956 0.4525252
0000c0 f5 95 c0 be dd 7f 1b 3f
       -0.37614408 0.6074198
