model/saved_models/fr/model_fr_pretrained_epoch_6.pt (torch_old, 231736 bytes, 23 tensors)

weight f4 [74, 20]
00000000: 0000 0000 0000 0000 0000 0000 0000 0000
00000010: 0000 0000 0000 0000 0000 0000 0000 0000
00000020: 0000 0000 0000 0000 0000 0000 0000 0000
00000030: 0000 0000 0000 0000 0000 0000 0000 0000
00000040: 0000 0000 0000 0000 0000 0000 0000 0000
00000050: 8ac3 b0bc f04d 93bd 667d 2c3c 4e81 f4bd
00000060: 40b3 fbbd 86e8 803d 7d68 e6bc 0e16 e73c
00000070: f685 aa3d f723 3a3e ab97 303d d697 a73f
00000080: 8eb7 03be f466 2a3e eebe 413d 4dbd 0a3d
00000090: 9327 f2bd f4a6 643d 3de6 8cbe fe7f 593e
000000a0: da5b 773e 7807 1fbd d8d9 203f 36c5 ebbe
000000b0: 68f3 1abf a947 1d3f f99e e1bd 1c83 57be
000000c0: c0ee 723f 341d 123e 30dd 693f 3f43 acbe
000000d0: bda8 34bf 185c 113f c7dc 963f a66d 85bf
000000e0: 866e 73be de95 2dbe cfd0 513f 11a7 c0be
000000f0: 7126 aa3d 2354 0d3d f21e 3cbd f0db 27bc
00000100: 72a9 f6bd 55aa 79bc b218 b03d 6ab1 da3d
00000110: c2f1 df3d fffe 433e 6ed7 97bc bc86 e4be
00000120: 003b 183f 2106 063d 91e1 edbd 89db 82be
00000130: 4e50 1dbe 0a80 dc3d 3332 a43d 5b1b 2b3c
00000140: d04d 343e eef4 dcbd 223a bdbd 9823 59be
00000150: 110d 9fbe d798 41be f447 a2bd 0c44 f7bb
00000160: a813 823e 574e 53be 05c8 933c 60c1 9b3e
00000170: a082 04bf 8b69 d33d a861 93bd e0ac c0bd
00000180: 86e0 78be 9bbb 073e 6ca9 22be e3e6 c5bb
00000190: de25 5cbf 94a3 b3be 4a80 a4be 86c3 5bbf
000001a0: 12bf 3d3f 53ca 95bf 55ce a93e 9616 d03f
000001b0: 2d3d 51bd 9747 863f 1fe8 00bf 5b93 40bf
000001c0: 00ff 603f 3d4a 36bf e051 cb3f b81b debe
000001d0: adeb a03f 2f47 06bf b0dc 853e 93fb 0e3e
000001e0: 2919 f73e a4c2 65bd 5057 0dbe 123d c2be
000001f0: fb8b 23be 2754 0f3e 42bf e9bd 8f48 bdbe
00000200: 719e 22bf f1cf e53e 2db9 2d3d d5e3 30be
00000210: 24e5 813e 162f b13d b496 adbe 2700 2dbe
00000220: 2a22 053e e6ff c03d 04e0 bb3e ebe7 ddbd
00000230: 270c d33f 021d b33e 2fc2 9fbe 3a5f 343f
00000240: a50b b43f c811 443f f454 74bf eda3 363f
00000250: 65a8 26be b887 903e e62d 54be f419 17bd
00000260: 6ba4 9dbf 12ea febd cffe b33f 4bf3 34bf
00000270: 8e0a 9abe 45eb c0bf c849 63be 38d3 803e
00000280: d280 1fbf 26ac 4d3e 057c 0ebe fec1 683f
00000290: 7078 89bf 6ac7 c6bd e303 0f3c 2ea1 113e
000002a0: e73f 263f 9a0e 943f fd0d b2bd 8dbe 4a3c
000002b0: 824c 47bf 22b2 8ebc 86e4 89bf 61b4 d6be
000002c0: 1ed1 1dbe afb6 22be fb0f d73e e260 c2bd
000002d0: 80dd bc3e c16a 863f c1e9 18be 570f 6c3f
000002e0: baf2 8f3e 6236 e03e 91a0 afbd 88da 043e
000002f0: 1b07 7abe 8a5f b83e 5fdf 99be 8879 cdbe
00000300: 8646 363e 0184 bebe cf9e 9a3f d112 b53f
00000310: de38 debd c428 0cbe ec96 1bbf a8d3 923e
00000320: e598 97be 33ca 02c0 65f8 533f 2c08 6d3f
00000330: b83b 33be 0f17 b7bc 2c0e 12bf 36f2 9cbe
00000340: ff59 4bbe 9b2f d3bd 1565 71bb f58c 37bd
00000350: de54 293f ce5c c1be 732e 6f3f 5748 543f
00000360: 2b54 423f 5334 d2be a884 2c3e 1d08 18be
00000370: c130 973c 9251 02bf 7333 74bd eb2b 3bbf
00000380: 1a99 e5bd c5e4 893c cd8b b23e 4257 863a
00000390: b5c7 f33e 9e07 df3e 5163 963e 5420 50be
000003a0: 7ac8 ffbe fd7f efbe e8b5 833e a29b 06bf
000003b0: 551e 11be bc2b 1cbd ad2d 83be e41b bcbc
000003c0: 6d35 ee3e f2e3 bcbe 7d9d 32bf 37b1 73bd
000003d0: c44f 4f3f 0ab2 7d3e 4386 adbe 36a0 83bf
000003e0: 64ac f33e ecd9 b0bf 16bf e43d ed3f 6abf
000003f0: b70c ccbb 6198 bdbf bc3a 84bf 5d01 ed3e
0.0 0.0 0.0 0.0 0.0 0.0 0.0 0.0
0.0 0.0 0.0 0.0 0.0 0.0 0.0 0.0
0.0 0.0 0.0 0.0 -0.021577615 -0.071926 0.010527944 -0.119387254
-0.122900486 0.0629435 -0.028125996 0.028208759 0.08326332 0.18177782 0.04311339 1.3093212
-0.1286299 0.16640836 0.047301225 0.033871938 -0.118239544 0.05582328 -0.27519408 0.21240231
0.24156132 -0.038825482 0.62832403 -0.46048898 -0.6052766 0.6143747 -0.1101665 -0.21046108
0.94895554 0.14268953 0.9135313 -0.33645055 -0.70569974 0.5678115 1.1786126 -1.0424087
-0.2377263 -0.16951701 0.8195924 -0.37627462 0.08308113 0.034504067 -0.04592795 -0.010245308
-0.12044038 -0.015238364 0.0859846 0.1067837 0.109347835 0.19140242 -0.018535342 -0.44634044
0.59465027 0.03272069 -0.11615289 -0.25558117 -0.15362665 0.10766609 0.08017387 0.010443534
0.17607808 -0.10788904 -0.092396036 -0.21204984 -0.31064656 -0.1890596 -0.0792388 -0.0075459536
0.25405622 -0.20635353 0.018039713 0.3042097 -0.5176182 0.10322865 -0.07196361 -0.09407973
-0.24304399 0.1325516 -0.15884942 -0.0060394867 -0.8599528 -0.35085738 -0.32129127 -0.8584522
0.74119675 -1.170237 0.3316523 1.6256893 -0.051083732 1.0490597 -0.5035419 -0.75224847
0.878891 -0.7120703 1.5884361 -0.43380523 1.2571923 -0.5245237 0.26144934 0.13963155
0.48261383 -0.056093827 -0.13802838 -0.37937218 -0.15971367 0.13996945 -0.11413433 -0.3696942
-0.6352301 0.4488521 0.042412926 -0.17274411 0.25370133 0.08651559 -0.3390404 -0.1689459
0.13001314 0.09423809 0.36694348 -0.108352505 1.6488084 0.3498307 -0.31202838 0.70457804
1.4066054 0.7658963 -0.9544213 0.7134388 -0.16275175 0.28228545 -0.20720634 -0.036889985
-1.2315801 -0.12446989 1.4062136 -0.70683736 -0.30086178 -1.5071799 -0.22196114 0.25161147
-0.6230594 0.200852 -0.13914497 0.9092101 -1.073988 -0.09706004 0.008728954 0.14221641
0.6494126 1.1566956 -0.08694074 0.012374532 -0.77851117 -0.017418925 -1.0772865 -0.41934493
-0.15411803 -0.15890001 0.4200438 -0.09491135 0.3688774 1.0501329 -0.1493292 0.92210907
0.28114873 0.4379149 -0.085755475 0.12973988 -0.24416773 0.3601039 -0.3005323 -0.40131783
0.1780034 -0.37210086 1.2079715 1.4146367 -0.1085069 -0.13687426 -0.60777164 0.28677106
-0.29608837 -2.0435913 0.82800895 0.92590594 -0.1750325 -0.022349862 -0.57052875 -0.30653542
-0.1985855 -0.103118144 -0.0036833931 -0.04481216 0.6614512 -0.37766117 0.9343025 0.8292288
0.7590968 -0.41055545 0.1684748 -0.14846845 0.018455865 -0.50905716 -0.05961938 -0.7311389
-0.112108424 0.016832719 0.34872285 0.0010249394 0.47613302 0.435605 0.29372647 -0.20324832
-0.4995764 -0.46777335 0.2572472 -0.52581227 -0.14171727 -0.038127646 -0.25620785 -0.022962518
0.46525136 -0.36892658 -0.6977156 -0.059495177 0.8098109 0.24774948 -0.33891496 -1.0283267
0.4759246 -1.3816504 0.11169259 -0.91503793 -0.0062271017 -1.4812127 -1.0330424 0.46290103

weight_ih_l0 f4 [200, 20]
00000000: 68e6 1ebf 7e87 823f 540e 333f 85c2 3540
00000010: 9e6b 54bf afc3 ad3e 26e2 9bbd 6760 3abf
00000020: a044 9ebf ae8d 7cbf 4a83 563e a39b 0e3f
00000030: e1fd 8d3f e0cd 2fbb 1561 b63e 1260 1b3f
00000040: b4e9 70bf 28b0 f9be efc6 88bd 227e f33e
00000050: 550a 153f f6dd cebf 0792 be3e 7201 e5be
00000060: 1020 d93e b298 f2be f096 cabe faf9 0fbf
00000070: 1560 fcbe 78af 32bf dd06 173f 1ca4 0340
00000080: 5f1d f93e 1ac8 1b3f 9640 913f fccc 57be
00000090: 198b 423f a196 dd3f 23c5 0fbe 9dca 52bf
000000a0: 8c7a 813e 25fb 77bf cf32 683e 14a9 2b3f
000000b0: 1af8 c5bc 440c 5cbf d3ca 283e 90a5 b83e
000000c0: 1f17 af3f 769c 28be 5049 263f fd4d 1f3f
000000d0: f8b5 e53e 9fa8 8cbf d6c1 2c3e e929 ad3f
000000e0: 190e 863e 861a 74bf 1068 e13e dfea 8bbe
000000f0: 6433 e23e 1b11 143f 3a95 e23e 2bca 12bf
00000100: 80bf 493f 08d9 803e 5d18 ffbe f642 e43d
00000110: 87da adbe 8225 613f 41a2 9b3c e8fa f0bd
00000120: 8924 cd3e b4ec fd3d 48b5 043f ae1e 283e
00000130: 24ee 353d e59e 4c3f 6c77 12bf 4be5 713e
00000140: 0383 a9be 8cac 003f efbf f83e 25a4 c83e
00000150: 493a 68be b0bc 81be eecb 83be 95f4 913e
00000160: 6e49 083f f82b ad3e eb9b 05be f58f fcbd
00000170: 2cd8 44be 074b c13d c1fb 70bf 7932 1d3f
00000180: 2777 33bf 2166 643e a398 06bd 08d1 7cbd
00000190: a746 013f 091c 3d3e 0951 0d3f ec3c 473f
000001a0: 1dc2 0abf 647e 673f 7bd5 9fbe 52b9 1dbf
000001b0: 191a 183d a9da 12bf debb 08be e103 2e3f
000001c0: 4a2d 38bf 5587 af3c 526f 5fbe b327 003e
000001d0: 9a37 8abe dd66 c83e fa96 b93e 3d45 293f
000001e0: b5b8 94bf 1cdb a03e c94f cbbe 5cfa 4d3e
000001f0: 6caf 32bf 1cf5 b9bc 1af9 e0be 44d8 14bf
00000200: a4f3 08bf aece 28bd 5b7e 063f f4fc 0d3e
00000210: 62b2 623e 6a74 4f3e cdd7 35bf 5412 62bf
00000220: 3806 aebe 8498 b5bd e467 653e fdce 173e
00000230: 809b 97ba d950 c0be 83cd a83f e8f8 753d
00000240: 5d87 f1be 550f adbe 5d12 0fbf a96d 4b3e
00000250: 5867 3c3e 5285 72be 9157 3f3e 44c4 2d40
00000260: 55d7 9f3d e551 8fbe 9e9c e7bc 2e21 9f3f
00000270: 72c0 08be 906b 963e f04d d2be 92b3 4cbf
00000280: b6b7 22bf 706e 83be 8ebd 62bf 123a 9dbf
00000290: 2b3f 623f d08c bfbf ec96 0fbf ff96 2c3f
000002a0: 8216 f73f 42e7 88bf f322 793f f837 16be
000002b0: 98f1 e1bd 0b60 edbe 7b1e 073f 0645 8f3e
000002c0: 8a5c 4ebf 6df9 98be 7ca8 98bf f8c8 cbbc
000002d0: f3e1 33bf 1197 cdbd 8ed8 813f fd77 b23e
000002e0: 7bc1 82be a4b2 4f3f d25b 2abe a1ae 2cbe
000002f0: d672 c5be 3cde bebd 6686 a3be fb1e 31be
00000300: 7868 5ebe 9915 8c3e e15c 573e 82d5 573f
00000310: 0c7d 8a3e 89e2 e2be 91ad 1e3e c788 1bbf
00000320: 0dc4 5b3f d1c9 55be 2aad 6c3e 8c8a 683d
00000330: 6cf0 a73e 49dd b53e e94a 0dbe 0b3d abbe
00000340: 9a6d a8bd ea10 bebe 0fb4 c4bc 4fbc 2c3e
00000350: 2e83 133e a660 413e 8c9f b13e 385c aebd
00000360: 01a7 bfbe 0e1c 23be 176a 07bd 244c f63d
00000370: 7f3e 56be 3cff c3bf bec2 0f3f 8412 ac3f
00000380: 207b 44bf 99fc f0be 4602 75bf 4bad be3e
00000390: c34f 2440 4f1d b23e 142b 153f fa84 a03f
000003a0: 6b3c 8dbf 4a43 15bf 5fa2 1c3f 9fed 023f
000003b0: 3abe 583e 276e 373e 6ead b23e 6b55 4fbf
000003c0: 5695 f0be bf74 febe 0e22 11bd f087 e3be
000003d0: df06 423f 0b3a c3be 8f15 cc3e 314e da3e
000003e0: 68bb c53e 8e9f ccbd 9edd 453f 4415 cebd
000003f0: f102 bb3e 4584 393d 0bf3 403f bff2 52bd
-0.6207032 1.0197599 0.6994374 2.8399975 -0.8297671 0.33938357 -0.07611494 -0.7280335
-1.2364693 -0.98653686 0.2094852 0.5570623 1.1093103 -0.0026825592 0.35620943 0.60693467
-0.941066 -0.4876721 -0.066785686 0.4755717 0.5821889 -1.6161487 0.37220785 -0.44727665
0.42407274 -0.47382122 -0.3956828 -0.5624081 -0.49292055 -0.69798994 0.5899485 2.0568914
0.4865522 0.60852206 1.1347835 -0.21074289 0.75993496 1.7311593 -0.14040045 -0.82340413
0.25288808 -0.9686759 0.22675632 0.6705487 -0.024166156 -0.85956216 0.16483621 0.36063814
1.3678931 -0.16465935 0.64955616 0.62228376 0.44865394 -1.0988959 0.16870818 1.3528415
0.2618263 -0.9535297 0.44024706 -0.2732763 0.44179833 0.578386 0.44254476 -0.57339734
0.7880783 0.25165582 -0.49823275 0.11145584 -0.33955786 0.8794786 0.018998267 -0.117666066
0.40066937 0.12398663 0.51839113 0.16417953 0.04441656 0.79929954 -0.57213473 0.23622625
-0.33107767 0.50263286 0.48583934 0.39187732 -0.22678484 -0.2533927 -0.25741524 0.28506914
0.53237045 0.33822608 -0.13047759 -0.12332145 -0.19223088 0.094381385 -0.94134146 0.6140514
-0.7010369 0.22304584 -0.03286041 -0.061722785 0.5049843 0.18467726 0.55201775 0.77827334
-0.54202443 0.9042723 -0.3121756 -0.616109 0.037134264 -0.573649 -0.13352916 0.6797467
-0.71944106 0.021426836 -0.21819809 0.12515144 -0.26995546 0.39140978 0.36247998 0.66121274
-1.1618868 0.31417167 -0.3970931 0.20115036 -0.6979892 -0.022699885 -0.4394005 -0.58142495
-0.53496766 -0.04121273 0.52536553 0.13866025 0.2213836 0.20259252 -0.7103241 -0.88309216
-0.3398912 -0.08866981 0.22402912 0.14825054 -0.0011566728 -0.37561682 1.3187717 0.06005183
-0.47173586 -0.3380076 -0.55887395 0.19866051 0.18398798 -0.2368367 0.18685748 2.715104
0.07804743 -0.27992168 -0.028272923 1.2432001 -0.13354662 0.2937894 -0.41075087 -0.799615
-0.6356157 -0.25670195 -0.8857049 -1.2283347 0.88377637 -1.4964848 -0.56089664 0.674179
1.9303744 -1.0695574 0.97318953 -0.14669788 -0.110324085 -0.46362337 0.52780885 0.27982348
-0.80609953 -0.29877797 -1.1926417 -0.024876103 -0.70266646 -0.10038579 1.0144212 0.3485717
-0.2553824 0.8113196 -0.16636589 -0.1686349 -0.38564175 -0.093197316 -0.31938475 -0.17296974
-0.21719539 0.27360228 0.21031524 0.8431016 0.27048528 -0.44313458 0.15495898 -0.6075558
0.85846025 -0.20877768 0.23112932 0.056772754 0.32800615 0.3552039 -0.13798107 -0.3344501
-0.0822403 -0.3712228 -0.02401164 0.16868709 0.1440551 0.18884525 0.34692037 -0.08513683
-0.374321 -0.15928671 -0.03306016 0.120262414 -0.20922278 -1.5312266 0.5615653 1.344315
-0.76750374 -0.47067717 -0.95706594 0.37241587 2.5673683 0.34787986 0.58268857 1.2540581
-1.1034063 -0.583058 0.6118526 0.5114383 0.21166316 0.17913114 0.3489794 -0.8098971
-0.46988934 -0.49698445 -0.035432868 -0.4443965 0.75791734 -0.3813022 0.39860198 0.4263778
0.38619542 -0.0999137 0.77291286 -0.1006265 0.36525682 0.045292158 0.75370854 -0.051501032

weight_hh_l0 f4 [200, 50]
00000000: 1ce6 57bf 8b16 e63b f419 3bbd bea3 213e
00000010: 22f2 9bbf e2ff 37c0 b86b d5bf 32ed acbf
00000020: b6ba 6dbe 308d 15be 748b 01c0 55d5 3dbf
00000030: 4619 0b40 79e4 b8c0 c07b 1040 9b31 3140
00000040: b8f5 a5bf e0a3 2f3f ce73 2440 3e0b 94bd
00000050: 9c1f 843f 6492 903f 9534 b73f 8b4e 1bbe
00000060: ff39 e93f 8467 45c0 34d7 36be 3eb7 05bf
00000070: 302a b4bd 46a0 dbbe 6ee7 84bf eb70 c2bf
00000080: fcf3 67bf dfd0 58bf 5b07 6540 5a5a 3340
00000090: 8f6b fb3e 1da5 693d c075 763f 2648 0440
000000a0: 7630 6e3e 0cbd f93f fbb8 17bf 59ce 9e3f
000000b0: 23e7 3940 8c11 a8be ffee 453e b455 9c3f
000000c0: 0308 3ac0 9b92 393f ebb9 3bbf 327f 77bf
000000d0: 2254 853f 1d0a d43f 13a5 013f 26ba 923f
000000e0: 6ecc ff3d f474 2ec0 d0de e73e bd31 8a3f
000000f0: cae8 3c3f f5b3 c1be 3495 253f a35b ff3e
00000100: 5289 ce3f e389 49bf f6b1 a8bf b8f7 ce3f
00000110: bcf1 0340 4c55 6b3f cb7d b23e 29a3 80be
00000120: 1f9b 0dbf f21e 68bf 6d64 583f 1b32 0dbf
00000130: 7bac e8bf 267a cb3f f9bd 263f e102 ed3e
00000140: 3aeb 97be 6381 c4bf 6090 883f 1644 c0bf
00000150: 4ddb 54bf 08d1 08bf 5be1 973f d797 153f
00000160: 5dcc 3a3d 95d4 b9be f0c1 68bf 547a 8f3f
00000170: 5132 dfbe 8472 10bf 1fb0 f03f 4585 fc3e
00000180: 3e43 9b3f a9be 0a40 1f70 f3be 60b7 f83f
00000190: 4ac0 d3be 6a7d 30bf 28d4 63be 1fe8 31be
000001a0: f1b7 00c0 1492 f53e 3308 873e 4eb6 48c0
000001b0: adcd afbf 1c1f 263f c34d 00c0 262b 513e
000001c0: 8155 05be 2dc5 213f d0b9 0dbe 4372 463f
000001d0: 0d73 09bf a194 47bf 960e 8b3f cbd4 733e
000001e0: 6d27 023f 92c0 eabe a8d4 ff3e b5f4 2dbe
000001f0: c19a 903d ee58 533f 9a48 f3be b4ae 80bf
00000200: b585 e13f ec56 3d3f 925a 9c3e d4ba 813f
00000210: 7e22 f03e e368 96bf b8a4 923e 87c6 3e40
00000220: c64f 62bf 250b 8ac0 c105 293f ace1 1ebf
00000230: f121 11be 4b57 d83d cc99 b1bf 2fb6 773c
00000240: 4ad6 6340 6d3c 1840 ec51 7b3f 28bc 7d40
00000250: ce47 97bf a5bf 0b3e 9e66 98be 126f 00bf
00000260: c59f 98bf 5719 db3e a506 7dbe 6987 febd
00000270: a1b6 1fc0 bc09 08bf 5d7a 99be 04f4 31be
00000280: fd99 26bf 7a41 a6bd 15d9 d2bf 3b1d 0a40
00000290: 6322 613f 82e0 d23e 3622 eabe 07d1 19bf
000002a0: afd3 83bf af99 fbbd 8f05 0ac0 bb8a 043f
000002b0: 6a84 9e3f e6c5 22bd a883 7cbe dcff 93bf
000002c0: e314 15be f5d8 24bf 7047 fcbf a24d 253e
000002d0: 0e2c edbe bc54 b53e 6c9b b53f b6cc 073f
000002e0: 80be 1dbe 010c 913f 542b d53d b6c7 1340
000002f0: 47f7 283e e1cb 9f3d 834a 5940 b721 44bf
00000300: 0411 80be b76b fcbd abb3 b03e b69b 43bd
00000310: 29eb c7be 7d87 2740 4955 1040 9f70 5bbf
00000320: 8d08 80bf c661 a9bf 01b6 1e3e 7606 a03e
00000330: 3c98 1f3f b043 0ebf be77 27be d7aa 223f
00000340: 499a 273f fb03 f83f af8e f1be 831b e4be
00000350: 2d2e dabf 9426 04c1 49a7 23be 140c aabf
00000360: 5f36 8ebf ae33 c03d 82bb 0140 4c57 ec3f
00000370: 720d 583f aa9d febe 45b0 553e 35bb cb3d
00000380: 7288 0c40 fe18 4bbf 0287 70bf d3ac 293f
00000390: 7184 c3be fcc9 913f d307 893e 3773 75bf
000003a0: 0ce7 8d3f d3f3 e7bd 0745 4540 b264 ffbe
000003b0: 4781 463f 0d3b 273f f2a7 493f 7e5f 773f
000003c0: d659 073f fecd 6c3e f98e 1ebe fb3d 783e
000003d0: 5326 3540 b13f e7be 3cfd 3bbd b0e1 8f3e
000003e0: 6a70 d5be 8f29 0d3f b050 023e 3471 1e3f
000003f0: 82c0 22bf 0c3f 853f e6d7 603c 928d dd3d
-0.84335494 0.0070217303 -0.045679048 0.15785119 -1.2183268 -2.8749928 -1.6673498 -1.3509886
-0.23215756 -0.1460464 -2.0241365 -0.74153644 2.1734176 -5.7778897 2.257553 2.7686527
-1.2965612 0.6860943 2.5695682 -0.07228707 1.0322146 1.1294675 1.4312922 -0.1516668
1.8220824 -3.084443 -0.17855531 -0.5223273 -0.08797109 -0.42895716 -1.0383127 -1.519071
-0.90606666 -0.8469371 3.578574 2.8023896 0.49105498 0.05704223 0.9627342 2.0669036
0.23260674 1.9510818 -0.5926663 1.2406722 2.9047325 -0.32825887 0.19329451 1.2213655
-2.906739 0.7248933 -0.73330563 -0.9667846 1.04163 1.6565586 0.5064251 1.1463058
0.12490164 -2.7258883 0.4528718 1.0796429 0.7379271 -0.3783261 0.6468079 0.498746
1.6135657 -0.78726023 -1.3179309 1.6169348 2.0616293 0.9192703 0.34861597 -0.2512448
-0.5531482 -0.9067222 0.8452824 -0.5515458 -1.8177637 1.5896652 0.65133625 0.4629126
-0.2967165 -1.5351986 1.066906 -1.5020778 -0.83147126 -0.53443956 1.1865648 0.58434814
0.045605052 -0.36295 -0.90920925 1.1209207 -0.43593076 -0.56424737 1.8803748 0.49320427
1.2129896 2.167887 -0.4754648 1.9430962 -0.41357642 -0.68941367 -0.222489 -0.17373703
-2.011227 0.4796301 0.26373443 -3.136127 -1.3734642 0.6489122 -2.0047462 0.20426616
-0.13020898 0.6319149 -0.13840413 0.775181 -0.5369118 -0.77961165 1.0863826 0.23811643
0.5084141 -0.45850044 0.4996693 -0.1698788 0.07060767 0.8255757 -0.47516328 -1.0053315
1.7618929 0.7396076 0.3053785 1.013514 0.46901315 -1.1750759 0.28641295 2.9808671
-0.88402975 -4.3138604 0.66024405 -0.620631 -0.14173104 0.10563525 -1.387506 0.01511912
3.5599542 2.378688 0.9817188 3.9646091 -1.1818788 0.13647325 -0.2976579 -0.5016948
-1.1923758 0.4279277 -0.24709566 -0.12428171 -2.4955218 -0.53139853 -0.29976168 -0.17378241
-0.6507872 -0.081179574 -1.6472498 2.158034 0.87943095 0.4118691 -0.45729226 -0.60084575
-1.0298976 -0.12285172 -2.1565893 0.51774186 1.238416 -0.039739512 -0.24659598 -1.1562457
-0.14558749 -0.6439355 -1.9709301 0.16142896 -0.46322674 0.3541621 1.4188056 0.5304674
-0.15404701 1.1331788 0.10408655 2.3090644 0.16500579 0.07802559 3.3951728 -0.76613945
-0.25012982 -0.123252325 0.34512076 -0.04775592 -0.390466 2.6176445 2.2552054 -0.8571872
-1.000261 -1.3232963 0.15499116 0.3125493 0.62341666 -0.5557203 -0.16354272 0.6354193
0.65469795 1.9376215 -0.4717917 -0.4455224 -1.7045342 -8.2594185 -0.15981783 -1.3284936
-1.1110343 0.09384857 2.0270696 1.8464141 0.84395516 -0.49729663 0.20868023 0.09947816
2.195828 -0.7933501 -0.93956006 0.66279334 -0.38186982 1.1389766 0.26763782 -0.9587893
1.1086135 -0.11325803 3.082338 -0.49881512 0.7754101 0.6532448 0.7877189 0.96630085
0.52871454 0.23125455 -0.15484227 0.24242394 2.8304641 -0.4516578 -0.0458958 0.28101873
-0.41687328 0.5514154 0.12726092 0.61891484 -0.63574994 1.0409865 0.013723349 0.10818018

bias_ih_l0 f4 [200]
00000000: e9f1 ec3e f6f0 08be 4a61 5d3f 7d1a 85be
00000010: bb0b a33f f59d a93f bc24 413e 0cd1 683e
00000020: 6487 8fbd 0672 443f 6128 b73f d859 503e
00000030: d638 84be 70ff 5f3e b278 8a3d d8e0 54be
00000040: 22a1 ac3f 7ec9 e83e 2730 283f 22f5 f73e
00000050: 8677 d53e c4d7 a03e f408 263f 7002 53be
00000060: 248d 74be 0f87 143f 9ba9 75be 1782 453f
00000070: 2cdb d73e ac21 a93e da4e a53f 5b99 a33e
00000080: 8ee5 8d3e 2fcd 4b3f d21e 2d3f ebc7 fa3c
00000090: f347 813f b9b5 7d3f 0b7b aebc a6f6 c23f
000000a0: 4066 88bd f0c4 e73e c0d4 afbd a3d6 96be
000000b0: d1f8 ac3f 0e1e 0b3d acbb 233e ee09 3a3e
000000c0: c835 b83f 22d6 b33d c5cf 00bf 0c78 0e3f
000000d0: 71fe d23f 9d68 a3bd ff7b 633f dc78 be3f
000000e0: 1d5e 84be 153e 10bf 6f10 e53e 02f2 343c
000000f0: cf26 ae3e df9a d53e 6ba4 13be 90c3 ab3f
00000100: 513b 8fbd 2d77 973f 3da9 263e 01eb 393f
00000110: e21f 413e 71ad 47bf 64ef 2e3f d67d 2d3e
00000120: c922 023f 2de4 30be b9d3 183f 7183 2a3d
00000130: d73f 8d3f 1f99 813e 4f06 e73d 8257 633e
00000140: 2ea7 fbbe 1191 443e 98ed 403f e70b 0bbf
00000150: 93e4 e7be a34f 4bbf 5eb4 ccbe 85d6 a03e
00000160: 96d8 583e fd06 f5bf 0ea9 4a3f 93f2 ba3d
00000170: 2b14 343f afa6 8a3e ad55 c13e 99b6 a2be
00000180: 2cbd 293d 1337 8abe 776a 473f e96e 793c
00000190: c04e 6abe 2884 25bf 679e 36be 661b 493f
000001a0: dfbd 593e ddca fcbe 455b 43bf 9e47 3dbe
000001b0: 6545 f73e 2e06 353e 0b3d ecbb 23b5 3cbf
000001c0: f07c a1be 3bdf 013f fcff 613e fb22 4a3f
000001d0: 6951 d4be 924f c63e 13c4 933e 1031 5c3e
000001e0: 1398 a4be ba1b 4fbf ff85 9e3d 405f 073f
000001f0: 6e03 823f dd22 f0be d33c 453c 6fe6 de3d
00000200: 6895 64be 44d5 873e f44d 22bf 4ea7 323e
00000210: a081 8f3d 95b9 8f3e 17da 2bbe 1996 e6be
00000220: 3c67 27bf 7740 973e bf62 4b3f 4c74 0c3f
00000230: c46b 4d3e 8a67 3abf 14ec 2dbf 0b4d 8d3e
00000240: 788d ffbe 4b09 ce3e a243 963e dcbd a03e
00000250: 075e 143f 0976 3e3e 03fa d4be 836b 193f
00000260: 59f1 d03e 3748 c13e 5d15 ad3f a855 283f
00000270: d7c9 d43e 9c7e 1e3f d63f 4bbe 78d0 af3e
00000280: 0dda 963f fb34 de3e c787 47bf 697f dbbe
00000290: 8879 1d3f a0dd 583f 108b 063f 20d7 ac3e
000002a0: d6c0 893e d1c3 6e3f a3f4 a93e 33bb 473f
000002b0: 0811 aa3d eb1c 84be 633c 18bf 913b ecbe
000002c0: ba70 07bf aa57 1e3f 5a7d 17be e482 843d
000002d0: b9fb 243f 3f4f 253f d3f5 9d3e 60d3 1a3f
000002e0: 3799 483f 76bb 1c3e e48f fd3e d11b 923c
000002f0: 0217 823f 87dd ad3f 7d82 c0be 7c6b fdbe
00000300: 9ceb 34be ddea 4f3f 464d 383f e825 81bf
00000310: c13d 903e 391b d6be f899 423e 42a2 e73e
0.46278313 -0.1337317 0.86476576 -0.2599677 1.2737955 1.325133 0.1886167 0.22735995
-0.070082456 0.76736486 1.4309198 0.20346773 -0.25824612 0.21874785 0.06761302 -0.20788896
1.3486674 0.45466226 0.65698475 0.4842921 0.41692752 0.31414616 0.6485741 -0.20606399
-0.23881966 0.58018583 -0.2399048 0.77151626 0.42159402 0.33033502 1.2914689 0.31952938
0.277142 0.7960996 0.67625153 0.030612906 1.0100082 0.9910541 -0.021298906 1.5231521
-0.06660128 0.4526744 -0.08585501 -0.2946063 1.3513433 0.03396421 0.1598956 0.1816785
1.4391413 0.08781077 -0.5031703 0.55651927 1.6483899 -0.07978938 0.8886108 1.4880633
-0.25853053 -0.5634473 0.447391 0.011044027 0.34013984 0.4171972 -0.14418189 1.3419056
-0.069937356 1.1833245 0.16275497 0.7262421 0.18859819 -0.77999026 0.6833403 0.16942534
0.5083433 -0.17274542 0.59698063 0.04162926 1.1035107 0.25312135 0.112805 0.2220135
-0.49150985 0.19195963 0.7536254 -0.54315037 -0.45291576 -0.7941839 -0.3998136 0.31413665
0.21176371 -1.9142758 0.79164207 0.091282986 0.70343274 0.27080294 0.37760678 -0.31779936
0.041440174 -0.26995143 0.7789683 0.015224197 -0.22881603 -0.6465478 -0.17833863 0.7855743
0.21263836 -0.49373522 -0.7631114 -0.18484351 0.4829513 0.17678139 -0.0072094253 -0.7371389
-0.31540632 0.5073125 0.22070307 0.78959626 -0.4146836 0.38732582 0.2886053 0.21503091
-0.32147273 -0.8090168 0.077404015 0.52879715 1.0157297 -0.469016 0.012038427 0.108837955
-0.22322619 0.26529896 -0.634002 0.17446634 0.07007146 0.28071275 -0.16782413 -0.4503639
-0.653919 0.2954137 0.7944755 0.54864955 0.2006064 -0.7281424 -0.6793835 0.27597842
-0.4991262 0.40241465 0.29348475 0.3139485 0.57955974 0.18599714 -0.41596994 0.59929675
0.40809134 0.37750408 1.3522145 0.657557 0.41560242 0.6191194 -0.1984857 0.34338737
1.1785294 0.43399796 -0.77941555 -0.42870644 0.61513567 0.8471317 0.5255594 0.33757877
0.26904935 0.9326754 0.33194456 0.7802002 0.0830403 -0.25803313 -0.5946714 -0.46139196
-0.5290638 0.61852515 -0.14793912 0.06470278 0.644466 0.64574045 0.30851611 0.6047878
0.7835879 0.15305886 0.49523842 0.01783553 1.0163271 1.358323 -0.37599555 -0.49496067
-0.17668003 0.8121775 0.7199291 -1.0089693 0.28172114 -0.41817644 0.19004047 0.4524098

bias_hh_l0 f4 [200]
00000000: 9051 f53e 224b 74be 325a 8a3f 3e91 9cbe
00000010: 4a63 b03f 8799 a73f 06ac 243e f2d7 2e3e
00000020: f683 90bd 73af 6e3f 3a98 bb3f 2b97 ac3d
00000030: 2a78 83be d824 043e bbb6 7e3e 0168 9dbd
00000040: 6145 be3f 645c 0e3f e21f 383f 57c6 093f
00000050: 5e2d 523e fcf9 ad3e c5e5 5e3f 4fd1 42be
00000060: a5cd 88be 9114 143f 8d6a d6bd 88b2 303f
00000070: 128d 7e3e 6394 d53e 4a33 ab3f c5e2 653e
00000080: baaf a13e 2475 503f 8fc4 1d3f f452 a9bd
00000090: f09e 6c3f 9b66 5f3f 7b0e b43b c7d8 a13f
000000a0: dd5f 9dbd eb2b 983e 462a 873d 8921 cebe
000000b0: 2fe2 a03f 9422 433e 5ae2 be3e 2796 473e
000000c0: 9fd8 b83f a96d 3e3c 0e87 e4be b2c4 df3e
000000d0: 80f1 d73f 30e3 12bd 45b3 333f 7411 bd3f
000000e0: e58f 13be edcb 00bf 15cd 053f accd fb3d
000000f0: a542 fa3d c7c5 ae3e af1d 5cbe dbec 9c3f
00000100: a504 3abe 00a7 9f3f 11ff 9d3d a198 1c3f
00000110: c821 8e3d 6d37 17bf d627 023f ec70 c03d
00000120: 8452 053f 9ab0 22bd 75a4 e73e 604e fdbd
00000130: ad68 853f c5aa 913e 8ac0 2a3e f990 ae3e
00000140: f12a 09bf 66c7 023e c650 1b3f 6067 e4be
00000150: 8b53 30bf 0fd2 39bf 5456 d6be b7f2 a33e
00000160: 96cf 493d c3ea f3bf e2b3 1e3f 60ad f23d
00000170: 020d 313f cbac 013f d8dd b43e 78df a3be
00000180: 9b4b 503e 881f e3bd b179 3f3f c15d 95bd
00000190: 90c5 88be 264d 2bbf 9e07 eabd f44f 2b3f
000001a0: a2e1 a13e 772d 04bf 1b5c 4ebf 8409 0cbe
000001b0: 3b8e 0e3f d995 4a3e 2097 19be f6ee 2abf
000001c0: 7e36 cebe 6d7a d53e b835 753e cb27 473f
000001d0: 9328 07bf c3e6 d43e 4295 343e 03c5 f43c
000001e0: d22d a9be 096b 55bf 71af a9bd bc94 1d3f
000001f0: 5635 893f 0f98 16bf 2f1b b83c 0358 803a
00000200: 32d5 35be 1e62 e53e 5e76 17bf d65c 2d3e
00000210: 905a 343c 4c18 c73e 1ce3 a9be e0af babe
00000220: e345 f9be 1a9e 923e 1e6c 5f3f f28b b93e
00000230: 8219 293e 519c 24bf 29eb f3be a776 123e
00000240: 23c4 ccbe cca1 c83e b87a ac3e 895f 053f
00000250: 2157 063f 5742 313d 353c 54be 3e93 223f
00000260: 29a3 973e 67b5 b83e 6a01 c03f 6b3e 243f
00000270: 0242 c63e 5b86 043f 87e3 75bd 7d30 c13e
00000280: e858 903f d5e7 fa3e 85d4 26bf ba87 20bf
00000290: d4f6 0c3f c6f8 393f 4dad df3e 1b2a 9e3e
000002a0: 97b6 c93e 491e 853f 97e9 b43e 784a 163f
000002b0: 24dc 18be f918 c3be 8de1 2ebf 468e c6be
000002c0: 9187 c9be 72b6 103f be7f a1be 7198 d13d
000002d0: dfd9 0a3f 5c27 063f f0e6 a03e da7b 023f
000002e0: 7cf8 323f 5973 513e 6518 133f 4026 d33c
000002f0: 50c9 6d3f d978 9b3f 9ded a5be 035f f5be
00000300: cd11 96be 491b 2b3f 2182 793f 3e46 64bf
00000310: ee2c 283e 3a08 f1be 4919 3e3e 9568 733e
0.4791379 -0.23856786 1.0808775 -0.3057956 1.3780301 1.3093728 0.16081247 0.17074564
-0.070564196 0.93236464 1.4655831 0.084272705 -0.25677615 0.1290468 0.24874394 -0.07685853
1.4864923 0.55609727 0.7192365 0.5381827 0.20525119 0.33979785 0.8706935 -0.19025157
-0.26719394 0.5784388 -0.10469542 0.6902242 0.24858502 0.41714773 1.3375027 0.22449787
0.3157938 0.8142874 0.6162805 -0.08267775 0.9243002 0.8726594 0.0054948903 1.264428
-0.076843 0.29721007 0.0659986 -0.4025996 1.2569026 0.1905616 0.37282068 0.19490872
1.4441108 0.011622825 -0.4463429 0.43704754 1.6870575 -0.035861194 0.7019542 1.4770951
-0.1441036 -0.50311166 0.52266055 0.12295088 0.12219743 0.34135267 -0.21495698 1.2259783
-0.18165834 1.2472839 0.07714666 0.61170393 0.06940037 -0.5906895 0.50842035 0.09396538
0.52079034 -0.0397192 0.45242658 -0.123684645 1.042257 0.284506 0.1667501 0.3409498
-0.5358115 0.12771377 0.60670125 -0.4461012 -0.68877476 -0.7258615 -0.41862738 0.32021114
0.049270235 -1.9056019 0.6199323 0.11849475 0.69160473 0.50654286 0.35325503 -0.3200643
0.20341341 -0.110899985 0.7479506 -0.07293273 -0.26713228 -0.66914594 -0.11427234 0.66918874
0.31617457 -0.51631874 -0.8060929 -0.13675505 0.55685776 0.19783725 -0.14999056 -0.66770875
-0.4027595 0.41694966 0.23946273 0.77795094 -0.52796286 0.41582307 0.17635062 0.029879099
-0.3304277 -0.8336645 -0.08285416 0.61555076 1.0719402 -0.58825773 0.0224739 0.0009791855
-0.17757109 0.4480142 -0.5916499 0.16929945 0.01100792 0.38885725 -0.33181083 -0.36462307
-0.48686132 0.28636247 0.8727435 0.36239582 0.16513637 -0.6430102 -0.4764035 0.14303075
-0.3999339 0.3918594 0.33687377 0.520989 0.524767 0.043276157 -0.20726092 0.63505924
0.2961667 0.360759 1.5000432 0.6415774 0.38722235 0.5176751 -0.06003144 0.37732306
1.1277132 0.49005 -0.6516803 -0.627071 0.5506413 0.72645223 0.43686906 0.308915
0.39397117 1.0399867 0.35334465 0.5870738 -0.14927727 -0.3810499 -0.68312913 -0.3878042
-0.3936124 0.5652839 -0.31542772 0.10234154 0.54238695 0.5240381 0.3142619 0.5097023
0.6991041 0.20454158 0.574591 0.025775075 0.92885303 1.2146255 -0.32407847 -0.4792405
-0.29310456 0.6683851 0.97464186 -0.8916968 0.1642339 -0.4707659 0.18564333 0.23770364

weight f4 [74, 50]
00000000: c021 e0be 4816 f13e 50bf 4e3f eec6 36bf
00000010: aac1 053f 0395 c1be 940e 95bd c3fa 67bf
00000020: cb0a 22bf eba1 d13e 51bd c1be d5c0 2f3f
00000030: 5894 d53e 1088 e4bc 3550 b63e 461a 32bf
00000040: 9d6c f93e 7ba3 81be 66e3 c1be 8112 fabd
00000050: 730a 653e a09a d13e 6cf5 63bf 0d1c 5fbd
00000060: da84 c9be 13fc 14be 5b95 5e3f 5c1b 363d
00000070: e72f 22be da9a 39bf 2d4d 293e fca4 06bf
00000080: 56d7 81bc 119e b9bc 0215 173e 8d93 dc3f
00000090: e7ba 173f 977d 39bd 22f9 49bf 6ed3 ec3d
000000a0: 1391 54be 3cda 0b3f 89b8 4b3f 60fc 7c3e
000000b0: 7649 8cbe 4fcb ecbe b472 e1be 9c9c e0be
000000c0: bbe4 90be d051 cd3f 0176 8ebe 9a5e c73e
000000d0: a5a1 063f 2425 23bf 62f8 da3e 90a0 c1be
000000e0: 6d83 68be cf42 35bf b69a fbbe 0924 da3e
000000f0: a47e a5be a843 ff3e c176 903e 9d95 573d
00000100: 4373 023f 5619 f5be 2680 033f 07a7 87bc
00000110: cda7 cbbe 8a75 963c d56b 923e f137 913e
00000120: b697 35bf aa61 babd cf4a debe 3aba d0bd
00000130: 2f41 473f 5f5f 76bd 942e a1bd 8402 29bf
00000140: 68bc 833e f211 ccbe ffad 3f3d c32f 65bc
00000150: 3ee4 3c3e 21c6 d03f 1245 003f 3905 3bbc
00000160: 7f2c 2cbf e6ce 263e b852 0ebe 8ba8 b13e
00000170: 06be 773f e9fe 6a3e 8cc8 b6be c51c f9be
00000180: f2e5 dbbe eddd 4ebe bd11 b8be a7e0 d83f
00000190: c8b8 233f ba59 11bf 86f3 89be 1682 253f
000001a0: 000f c2bf d915 163f f105 19bf 737e 50be
000001b0: 2dae 2b3f 9916 43be f5e3 3b40 ff9f 843f
000001c0: 1586 58c0 181e 2ebf 799b b0be a5e7 cb3e
000001d0: 62e5 a2bf 1f26 54bf 3efe 453f 2bf4 6d3e
000001e0: 9fed 893f 23da 8d3c bca6 203f 76eb 4f3e
000001f0: 8c4d 7abf 0ff3 1d3f 286e a63d 8e0e e93e
00000200: f1bd b83b 8cda d03c 90f6 323f ab75 d03e
00000210: 40b7 06be 5e73 8bbe a0a5 91be e127 db3e
00000220: ad47 643f a166 233f 14f2 d2be b22a 6b3f
00000230: b86d e13e ac46 58bf 8d5b 7c3d eefe 11be
00000240: ee03 7ebf 7ddf d33f 08b3 553f d397 493f
00000250: ec75 3c3f b9ba 21bf 5342 cdbe b0b5 9bbf
00000260: d16e febe e1f2 60bf 792b f3be 22d9 62bf
00000270: 2d8b d63f 160f 68c1 3d3b a9bf 5d03 303f
00000280: 5a94 c2bf fb37 51bb 6ab8 cf3e 186a 813f
00000290: 4b5e 1a3f 12ed 97c0 7072 52bf a9ba 63c0
000002a0: 0026 ac3e 77f6 073f 743f be40 e2b0 9abf
000002b0: 1db5 5bbf 7e09 d1bf e50a 0a40 5f6a 8b3d
000002c0: 122a 96be 79a2 a83f 9bdd 3c3d 9b80 3dbe
000002d0: e161 a3bf f122 fbc0 421b 793f aded 923f
000002e0: c66f 0440 4f64 bc3f 906e 8140 5dfd f83e
000002f0: ad3f a83e e5bd 6bbe 5a1c 99bf 888f b53f
00000300: 2672 97bf 6418 ea40 580c 78c0 a2d6 b8bf
00000310: 67b3 453d 897c 183f 652b afbf 3a37 0940
00000320: dcb8 53bf 0bce 533d 4fe6 ddbf 682a 193f
00000330: c10c 303f 0664 3d3d 74da 953c 0c01 78be
00000340: dd0b 993d a479 403f 1fc5 b0bf e275 bfbf
00000350: 7e79 7f3e 1294 9a3e df04 e83e 0205 4d3e
00000360: 977a 27bf 2a34 38bf 885f 0a40 b0a8 29be
00000370: 6bf3 cfbd dc81 0cbf 29b1 163e fcdf 5a3f
00000380: b2da d93e fb2b 993d aeb7 36be 77c9 243f
00000390: 832a c73e 357b 203e b085 0b3e 3d65 bf3e
000003a0: 497f 9a3f 66e7 31bf 98d7 86c0 dc55 28bf
000003b0: 433b 52be 4463 743e e7c6 8d3e ff68 b63f
000003c0: b842 5c3f ed82 b53f d13f ecbe a2a9 bebe
000003d0: e403 5f3f c531 ddbf 02f4 2f3f 1701 b9bb
000003e0: 4b32 83bf 46cf be3f b122 a53e 7e92 67be
000003f0: 3076 10c0 29de df3f ff43 5c3f f6ca 9f3f
-0.4377575 0.47087312 0.8076067 -0.7139729 0.5224863 -0.37809 -0.07278171 -0.90617007
-0.6329772 0.40943846 -0.3783975 0.68653613 0.4171474 -0.02789691 0.35608068 -0.6957134
0.48715678 -0.25320038 -0.37868804 -0.122105606 0.22367267 0.40938282 -0.8904636 -0.05447011
-0.3935917 -0.14549284 0.8694665 0.044459686 -0.15838586 -0.7250191 0.16533346 -0.52595496
-0.01584975 -0.02265838 0.14754108 1.7232529 0.59269565 -0.045285787 -0.7889577 0.115637645
-0.20758466 0.54629874 0.79578453 0.24705648 -0.27399796 -0.46248862 -0.44032824 -0.43869483
-0.28299507 1.6040592 -0.27824405 0.38939363 0.525904 -0.6372855 0.42767626 -0.37817812
-0.22706385 -0.70805067 -0.49141473 0.42605618 -0.32323182 0.49856305 0.28215602 0.052632917
0.50957125 -0.47870892 0.51367414 -0.016559137 -0.3977646 0.018366594 0.28597894 0.28362992
-0.7093462 -0.09100659 -0.4341645 -0.1019177 0.7783384 -0.060149547 -0.07870212 -0.66019464
0.2572968 -0.3985744 0.046796795 -0.013988438 0.18446442 1.6310464 0.5010539 -0.011414819
-0.67255396 0.16289863 -0.13898742 0.346989 0.9677433 0.22948803 -0.3569988 -0.48654762
-0.42948872 -0.20201845 -0.35951033 1.6943558 0.6395383 -0.56777537 -0.26943606 0.6465162
-1.5160828 0.58627087 -0.5977469 -0.20360737 0.67062646 -0.19051589 2.9357884 1.0361327
-3.3831837 -0.6801467 -0.34493616 0.39825168 -1.2726252 -0.8287067 0.7734107 0.23237674
1.0775641 0.01731593 0.62754416 0.20304665 -0.9777458 0.61699003 0.081264794 0.45518917
0.005637877 0.025494836 0.69907475 0.40714774 -0.13155842 -0.27236456 -0.28446674 0.42803863
0.8917187 0.63828474 -0.41200316 0.9186202 0.4402902 -0.84482837 0.061610747 -0.14257404
-0.99224746 1.6552578 0.83476305 0.7874729 0.73617435 -0.6317554 -0.40089664 -1.2164822
-0.4969392 -0.87870604 -0.47494105 -0.8861257 1.6761223 -14.503683 -1.3221203 0.6875513
-1.5201523 -0.0031924236 0.40570384 1.0110502 0.6030013 -4.7476892 -0.8220587 -3.5582678
0.33622742 0.5311045 5.9452457 -1.208523 -0.8582323 -1.6331022 2.156915 0.06807398
-0.29328972 1.3174583 0.046109777 -0.1850609 -1.2764245 -7.8480153 0.9730722 1.1478783
2.069322 1.4718112 4.0447464 0.486308 0.3286108 -0.23021658 -1.1961777 1.4184427
-1.183171 7.3154774 -3.8757534 -1.4440501 0.048266795 0.59565026 -1.3685118 2.1439958
-0.8270395 0.05171017 -1.733591 0.5983033 0.6876946 0.046237968 0.018292643 -0.2421915
0.07472966 0.7518561 -1.3810157 -1.495785 0.2494869 0.30191094 0.45316216 0.20021442
-0.6542143 -0.71954596 2.1620808 -0.16568255 -0.1015385 -0.5488565 0.14716019 0.85498023
0.42549664 0.07479092 -0.17843506 0.6436991 0.3889962 0.15672 0.13625216 0.37381926
1.2070094 -0.6949371 -4.2138176 -0.6575601 -0.20530419 0.23865992 0.27690813 1.4250792
0.86039305 1.418058 -0.46142438 -0.37238795 0.8711531 -1.7280813 0.687317 -0.005645882
-1.0249723 1.4907005 0.3225303 -0.22614476 -2.2572136 1.7489673 0.86041254 1.2483814

bias f4 [74]
00000000: 383e 12bf 561d 19bf f078 623f 7427 1ebf
00000010: 476a f03f b713 0ac0 d860 ec3f c937 94be
00000020: de97 93bf 6bcb 13bf 9080 82bf 73cb b0bd
00000030: 64cb bd3d 9de0 b8bf 7a68 0840 f254 db3f
00000040: 6f83 943e 2a4a 473f d694 7dbd a334 1fbf
00000050: 9d68 5fbf 5d72 35bd 8a04 59bf 5858 383e
00000060: 2175 a23e 68e8 9c3e 39c2 d1bf 406d 383f
00000070: 1546 383f 6e27 06bf 540a 0f3e 9080 02c0
00000080: 1ff8 a03e 3a54 333f 522c 663e 13eb 42be
00000090: f21f 29c0 a0ed 00bf 6f80 1cbf eb5c f3be
000000a0: d119 1abf 5616 e6be a5dc 17bf 6881 27bf
000000b0: 27c1 29bf 2eef efbe 7019 20bf 118a 19bf
000000c0: f627 dabe f1f2 01bf be7e 06bf 1eb6 edbe
000000d0: d6e7 34bf ca53 26bf 34b7 0cbf 2741 19bf
000000e0: 2d4c 00bf 9178 f1be 60fc 0bbf 893a 17bf
000000f0: 2189 04bf 3e02 debe 4e9b 15bf 104a d5be
00000100: 7add 11bf 0db3 2dbf 1eda 17bf bb79 f7be
00000110: d41d ecbe 7db7 29bf 7d30 34bf 4cda 02bf
00000120: 59e7 16bf fb65 e6be
-0.5712619 -0.5981039 0.88465786 -0.6177895 1.8782433 -2.1574533 1.8467054 -0.2894881
-1.1530721 -0.57732266 -1.0195484 -0.08632555 0.09267309 -1.4443547 2.1313767 1.7135298
0.29006526 0.7784754 -0.06190952 -0.6218969 -0.87269 -0.04429852 -0.8477255 0.1800245
0.31729987 0.30646062 -1.6387397 0.720417 0.71981937 -0.52403915 0.13968784 -2.0390968
0.314393 0.70050395 0.22477844 -0.19034986 -2.6425748 -0.50362587 -0.61133474 -0.47531828
-0.6019564 -0.44938916 -0.5932105 -0.65431833 -0.6631035 -0.46862167 -0.62538815 -0.599763
-0.42608613 -0.50761324 -0.52537143 -0.46428007 -0.70666254 -0.649716 -0.54967046 -0.5986504
-0.50116235 -0.47162297 -0.5468197 -0.5907369 -0.5177174 -0.43361086 -0.584401 -0.41658068
-0.5697857 -0.67851335 -0.59317195 -0.4833506 -0.46116507 -0.66295606 -0.7038649 -0.51114345
-0.5894676 -0.4499968

weight f4 [50, 2]
00000000: a52b 093f 6723 153f 1a41 943e f9c6 2a3f
00000010: 90ed 77bd 2045 88be 78ca 083e 90bd 1d3d
00000020: f024 43be 6724 2ebf c7de 2b3f b00a 553e
00000030: 4c51 38be 0041 163e 73e7 0e3f c666 f63e
00000040: 0009 66be 807c 493d 92c1 31bf e504 cebe
00000050: 4066 cb3c e126 ccbe e428 14be 4c0e 80be
00000060: 504d 673d c1b4 a6be 986a c4be e7d4 9abe
00000070: 8442 143e f872 e83d 4021 1abe f012 ffbd
00000080: 912a 1b3f cab3 21bf 00f7 83bd a79a 0dbf
00000090: 5ac2 6fbe 7f1a 23bf 623d f33e add0 1a3f
000000a0: 69a4 babe 9155 0ebf 3eee d53e 0b1d fdbe
000000b0: d571 19bf c5b0 edbe ee83 04bf 62b2 07bf
000000c0: 94d2 39be f6bf a83e 10ff 6cbe 8e65 11bf
000000d0: a2f5 f73e ceaa 23bf 0adc e23e 403e 233e
000000e0: 5275 f9be 80a2 07bf 6f6f 263f 3049 323d
000000f0: 7c54 4e3e 60db e1bc b01e 84bd a1f1 213f
00000100: c504 e6be 60fb 7f3d e0fa 8abd 78fd cbbe
00000110: 4a9c bb3e e1ec 19bf 1a2b 853e 4bc2 e2be
00000120: 3951 0bbf 90e3 44be e088 d93c 4836 a8be
00000130: aab4 8d3e e0e2 b0be 71a4 e4be 69dc b2be
00000140: b848 eabd 800e d53d 66af b33e 5ead 11bf
00000150: 197f 2abf 5234 25bf 88bd 4a3e 0460 6fbe
00000160: 2e99 5ebe 8d08 1ebf 3c97 6c3e 0595 0f3f
00000170: a26a ef3e 984e e8bd 5d62 09bf d798 1b3f
00000180: 501e d73d 24b7 4ebe 1e11 34bf 9ad7 d13e
0.5358222 0.58257145 0.2895592 0.6670986 -0.06052929 -0.26615238 0.13358486 0.03851086
-0.1905706 -0.68024296 0.67136806 0.20804858 -0.17999762 0.14673233 0.55821913 0.48125285
-0.2246437 0.049190998 -0.6943599 -0.4023811 0.02482903 -0.39873412 -0.14468724 -0.25010908
0.056470215 -0.3255978 -0.38362575 -0.30240557 0.14478499 0.113500535 -0.15051746 -0.12454784
0.60611826 -0.6316496 -0.06443596 -0.55314106 -0.23413983 -0.63712305 0.4750777 0.60474664
-0.3645356 -0.55599314 0.41783327 -0.4943622 -0.5993932 -0.46423927 -0.5176381 -0.53006566
-0.18146735 0.32958955 -0.23144174 -0.56795585 0.4842959 -0.639325 0.443085 0.15941715
-0.4872232 -0.5298233 0.65013784 0.04352683 0.20149416 -0.027570426 -0.06451166 0.6325932
-0.44925514 0.06249559 -0.06786132 -0.3984182 0.36642677 -0.60127074 0.26009446 -0.4428886
-0.5442081 -0.19227433 0.026554525 -0.32853913 0.27676898 -0.34548092 -0.4465671 -0.34933785
-0.11439651 0.10403156 0.35094756 -0.5690516 -0.66600186 -0.6453296 0.19798863 -0.23376471
-0.21738121 -0.617318 0.23104566 0.5608676 0.46761042 -0.113431156 -0.53665715 0.6078009
0.105038285 -0.2018705 -0.7033862 0.40984803

bias f4 [50]
00000000: d97d 2d3f 9b78 013f 0002 023c 9ae0 bd3e
00000010: da85 c8be d43e 7a3e 79a1 2e3f e8e9 c4be
00000020: ce28 d13e 32f3 a13e 5483 34bf e9f1 243f
00000030: cf72 0e3f da65 e6be 1a93 b33e d5e9 b5be
00000040: f8b9 23bf 406c 8dbd caef 9e3e 30e1 33bd
00000050: d471 4a3e 0020 373b 3a80 da3e bc04 81be
00000060: b5df 033f d8f5 043e fa6d 1ebf 555c e1be
00000070: 5087 b93d 0083 f93d 66e5 0abf 8acd dabe
00000080: c02e aa3c 3467 2bbf b83a fd3d a00a 25bf
00000090: 8f2d 083f 6248 b93e 736d 0c3f 068c e2be
000000a0: da59 edbe bfdb 223f 9d30 1fbf 684b 003e
000000b0: 5ca6 323e 0ee0 f73e 6dd1 303f 62b1 e73e
000000c0: f595 c0be dd7f 1b3f
0.67770153 0.50574654 0.007935047 0.3708542 -0.3916462 0.2443803 0.6821514 -0.38459706
0.40851444 0.31630856 -0.7051289 0.64431626 0.55643934 -0.44999582 0.35073167 -0.35529962
-0.6395564 -0.06905413 0.3104232 -0.043915927 0.19769984 0.0027942657 0.42675954 -0.25198925
0.51513225 0.12984407 -0.6188656 -0.44015756 0.09059012 0.121831894 -0.54256284 -0.4273494
0.020774245 -0.6695435 0.12364715 -0.6446934 0.53194517 0.36188036 0.54854506 -0.44247454
-0.46357614 0.63616556 -0.62183553 0.12528765 0.17446274 0.48413128 0.6906956 0.4525252
-0.37614408 0.6074198

weight_ih_l0 f4 [200, 20]
00000000: 3f56 83bd bb84 a6bd fb1b 18be f16a 9e3e
00000010: af78 d53c fdbe 2cbe 9f48 5c3e 079e 6ebd
00000020: 8f7b 83bd 6177 fbbc e399 2bbf a4f6 853d
00000030: 5323 bebe 617b 293c 7ac0 09be c09e 5d3d
00000040: 416e a03a f380 e73d dec0 c1bd fd6a 53be
00000050: d5d5 4c3d 0b94 c2be 7063 c23d 25c8 493d
00000060: 842f 15be 4a1e 3ebe a732 943d a0d3 2cbe
00000070: 4343 8bbd 4338 e03c 9694 2bbc c1a7 7fbe
00000080: c7a0 3cbd 56ea cb3e bf89 5439 165b e2bd
00000090: 0412 9b3e 96d1 473d cb57 1e3d 328a 293d
000000a0: 5f5f 7fbd e312 f9be 7b75 893e 92e4 e13e
000000b0: 2289 58be 011c a5be 3ce0 7abe 5468 b5bd
000000c0: fd94 52bd 8cd2 803e 9792 66bd ed7b c13d
000000d0: b070 183a 4b92 a73d 2cab d13c 0b1a 8a3d
000000e0: 481e c23d 617a 323d 4a7a 263e cafa 863e
000000f0: 2b34 4c3e fe0c 84bf e599 393f d6a3 423e
00000100: ef40 a8be 00d7 8fbf ca4e 833e 72a7 9d3e
00000110: b908 843d 7b57 96be ce57 103f fb14 1abd
00000120: 0a0b 993e f3be 033f bf1a 6cbd 41ac 8cbe
00000130: ebbc 55bb b227 323f d2df b33d b883 2c3f
00000140: d5c0 063e fc6f ecbe 0cb3 84be 232b 53bd
00000150: 014c 2a3e 7e08 17bf 028b 933e 155d 203c
00000160: f376 c93e 7698 9bbc 54bc 9abd 14ce 49be
00000170: 357a 66be caf4 4f3e 9829 55be 2b16 00be
00000180: 843b a0be 4c44 ff3d 3d15 0c3e adc8 5f3d
00000190: a128 973d 1748 1c3e 548f cdbe d96a 013f
000001a0: 702c cdbd 8867 81be 325c 8a3d 4a06 98be
000001b0: 6ed0 8e3d 3ea4 6d3e 930e 1abe 99cf 4b3e
000001c0: b13b a03e 0d0b cf3c ff9d 60bd f44c a53d
000001d0: d715 963d ecaa cc3e 6c3b 723e cb45 a23d
000001e0: 1de0 7fbd f111 a3be 5160 4a3e 8767 5d3d
000001f0: d01d 16bc e04f 86be 223c a5bd 6fad 99bd
00000200: a564 e4bd 45b0 0dbd ce2e 63be 39ee c4be
00000210: e206 35be 42eb 673e 1509 d6be f032 5c3d
00000220: 542d 633d 2866 743e 793b 7abe 82b0 ac3e
00000230: 010b 713e 6634 8ebe 9294 a1be 95ef b93d
00000240: d357 91be 9b3f 04bf f868 783d 74c8 79bd
00000250: 9b49 69be ef63 203e 29a6 883e ef79 113f
00000260: 69d0 983e d1fa 383e 0299 71be 3c21 86bd
00000270: 8469 96bd 843b 0c3f 204b 9fbe 282f 183e
00000280: 652c 033d 56e5 e1be 0f47 1f3d d92f 11be
00000290: 88d6 ffbc 70aa 40be a259 c93d 9d1c 033d
000002a0: f113 db3e 5a94 bcbd c645 733e 9533 3f3e
000002b0: 0d04 ddbd 16c4 023e 481c 483e 6d69 79bd
000002c0: 7c1b ff3d e8d6 473d 8f1d 083e 0dee 25bd
000002d0: 8d3d f53c 20b5 c7be 6e31 433d 15fb 8ebe
000002e0: 7830 8fbe 1b9a f4bd d20d 673e e51c 063d
000002f0: 4cb5 9d3e 23f2 3fbd e50a e03d c346 373e
00000300: 8f78 cfbb 1124 583e 7346 fabc 4f2d 16be
00000310: 013b 33bd 3899 9d3e 47be 5e3e 7fec 123f
00000320: 342f ea3d a89c 5fbe 79c3 1abe 3731 20be
00000330: 1bce 79be d809 a2be 699d cb3e 6ad5 50be
00000340: c2d4 3e3e cebd 2abe b956 70be 6121 adbd
00000350: 6cad 70bd 4170 a33e 006f ba3d 322e 68bd
00000360: 7f02 983c f5a8 743d 1c30 db3c 27ef 50be
00000370: e98b 0c3d 0f3c 45bf 11e8 9a3e 2281 0cbf
00000380: d0d7 62be 33ee 1dbf d209 42be 323f 143c
00000390: c8da 6c3e 2281 efbe 7f4f 073e 18e7 c43d
000003a0: e3da 28bc d8b3 b03e e9a8 80bd 3a77 febe
000003b0: 144c a43d 3a6a 5c3e fec8 3a3e 4377 a4bd
000003c0: a37d 72bd 843e 6c3d a5d7 89bd c134 99bd
000003d0: 9a88 e9bd 6e1c 83be fbb8 f13e 86d7 53be
000003e0: 2d62 eebd a275 8f3e e463 29be 4bd2 4e3e
000003f0: 9f12 eb3d 2813 90bd 2429 7dbe 5277 57bd
-0.064129345 -0.08130785 -0.14854424 0.30940965 0.026058523 -0.16869731 0.21512078 -0.058256175
-0.06420051 -0.030696573 -0.6703169 0.065411836 -0.37136325 0.010344357 -0.1345233 0.054106474
0.001223989 0.11303892 -0.094606146 -0.20646282 0.050008614 -0.38003573 0.094916224 0.04926314
-0.14568907 -0.18566242 0.07236224 -0.16877604 -0.067999385 0.027370578 -0.010472437 -0.24966337
-0.046051767 0.39827222 0.0002026921 -0.110525295 0.30287182 0.04878386 0.038657945 0.04139156
-0.062346812 -0.48647222 0.26847443 0.44119698 -0.21146062 -0.32247928 -0.24499601 -0.0885779
-0.051411618 0.25160635 -0.056292143 0.09447465 0.00058151316 0.081822 0.025594316 0.067432486
0.09478432 0.04357374 0.16257587 0.26363212 0.19941776 -1.0316465 0.7250045 0.19007811
-0.3286204 -1.1237488 0.2564605 0.30791813 0.06446976 -0.29363617 0.5638398 -0.037617665
0.29891235 0.5146324 -0.057642695 -0.2747517 -0.0032613825 0.6959182 0.08782925 0.67388487
0.13159497 -0.46179187 -0.25917852 -0.05155481 0.16630556 -0.58997333 0.28816992 0.0097878175
0.39348564 -0.018993597 -0.07555452 -0.19707519 -0.22507556 0.20308223 -0.20816648 -0.12508456
-0.31295407 0.124641985 0.13679977 0.05463474 0.07380796 0.15261875 -0.40148413 0.5055366
-0.100182414 -0.252743 0.06755866 -0.29692298 0.069733486 0.23207185 -0.15044622 0.19903411
0.3129554 0.025273824 -0.054838177 0.08071318 0.07328384 0.39974153 0.2365548 0.07923468
-0.06246959 -0.31849626 0.19763304 0.05405381 -0.009162381 -0.26232815 -0.0806811 -0.07503783
-0.11152009 -0.03459193 -0.22185823 -0.38463 -0.17678407 0.22648337 -0.41803804 0.053759515
0.05546315 0.23867095 -0.2443675 0.33728415 0.23539354 -0.27774352 -0.31558663 0.090789
-0.28387317 -0.51659554 0.06064698 -0.060982183 -0.22781985 0.15663122 0.2668927 0.5682668
0.29846504 0.18064429 -0.23593524 -0.06549308 -0.07344344 0.54778314 -0.31112003 0.14861739
0.03202476 -0.44120282 0.038886126 -0.14178409 -0.031230226 -0.18815017 0.09831549 0.03200971
0.42788652 -0.09207983 0.23757085 0.1867202 -0.10791788 0.12770113 0.19542038 -0.060891557
0.12456414 0.048788935 0.13292526 -0.040510226 0.029936576 -0.39005375 0.04765456 -0.27925935
-0.27966666 -0.11943456 0.22563866 0.0327424 0.3080238 -0.04686178 0.10939578 0.17898087
-0.0063315104 0.21107508 -0.03055117 -0.14665721 -0.043757442 0.3078096 0.21752273 0.57392114
0.114347845 -0.21837103 -0.1511363 -0.15643774 -0.24395029 -0.31648135 0.39768532 -0.20393911
0.18635848 -0.16673967 -0.23470582 -0.08453632 -0.058759138 0.3192158 0.09103203 -0.05668468
0.018555878 0.059731442 0.026756339 -0.2040373 0.034313116 -0.7704477 0.30255178 -0.5488454
-0.22152638 -0.6169159 -0.18949059 0.00904827 0.23130333 -0.46778208 0.13213919 0.0961439
-0.010306093 0.3451221 -0.06282217 -0.49700338 0.08022323 0.21524897 0.18240735 -0.0803056
-0.059201848 0.057676807 -0.06730584 -0.07480765 -0.11403008 -0.25607628 0.4721144 -0.20687684
-0.11639819 0.28019434 -0.16542011 0.20197408 0.11478161 -0.07034904 -0.24722725 -0.052604027
