model/saved_models/en_transfer/model_fr_to_en_epoch_12.pt (torch_old, 234884 bytes, 23 tensors)

weight f4 [74, 20]
00000000: 0000 0000 0000 0000 0000 0000 0000 0000
00000010: 0000 0000 0000 0000 0000 0000 0000 0000
00000020: 0000 0000 0000 0000 0000 0000 0000 0000
00000030: 0000 0000 0000 0000 0000 0000 0000 0000
00000040: 0000 0000 0000 0000 0000 0000 0000 0000
00000050: de51 acbb b15b eeba 3f75 73bc 1e6e 4b3c
00000060: 77e0 ab3b b08b 21bc 005a edba 90b3 6a3c
00000070: 7dc1 bdbb 18b4 b7bb aae1 ca3b fa50 223e
00000080: 9660 42bc b617 a53b a782 993b 9d59 4b3c
00000090: 0b5a c33a c6d1 bfb8 cf58 63bc 72c9 a9bb
000000a0: 2be0 873f 0017 9a3d 9350 153f f3b2 3e3d
000000b0: 01b2 093e 5c10 793e 3c36 cb3c b95e 943e
000000c0: 0a71 873b 94f5 8e3e 9333 5f3f 547c babe
000000d0: d9aa 60bf 06e6 193e 6346 7c3f 8ff8 dabe
000000e0: 20b7 f33d a67f 51be cbf0 813f cc98 e53d
000000f0: b421 6abd a1d8 f6bc 6c7a 3abd 2041 333d
00000100: 0b52 603d 916d 923b e83b 493e 5e34 b33d
00000110: 27c6 15be 0b60 9d3d 4a4e 573d 1195 c8be
00000120: 3b45 dc3e b7a0 01be f104 a4bd a105 97bc
00000130: c0a5 493d af98 fcbd 3fee 9c3d 801d e53d
00000140: b1f2 84bc d0be 383e cc93 a5bd d2cc 39bc
00000150: 50a1 6cbd b1c2 be3d 7d12 71bc a5ff 61bb
00000160: c7ca 7fbb fcc8 f0bd d580 96bc 7974 473e
00000170: 414a 84be 320c f23d 1b31 fe3c d39d b83d
00000180: 5329 b9bc ea21 143d 465f 98ba d010 033e
00000190: ad0d 97bf bf13 adbe a773 a8be e6d6 2abf
000001a0: 9c25 063f d55a 88bf 62d9 093f a98e 0540
000001b0: 82ae 6ebe b2b4 653f 982a 45bf 5d2d 21bf
000001c0: 8a84 773f 4a40 46bf 6328 ef3f f9b1 04bf
000001d0: 990c d43f f809 dbbe ed8d 5b3e 27a5 293e
000001e0: 8033 9c3b ce86 8c3c 1989 d93d b539 a1be
000001f0: abf0 cebd f52c 7c3e 6fa4 cb3e 1009 e9bd
00000200: 716e 89be 7cf9 693d 8b03 ca3d 85d1 f7bd
00000210: acc1 89bd 9fa6 c23e 3447 cbbe 7522 29be
00000220: 08c8 fabd 5bf8 b1be 71eb 3c3e 8063 5b3d
00000230: e951 ae3f 60d2 343e b4e6 44be fd25 653f
00000240: a147 9d3f 0803 123f f8c8 83bf e4a8 123f
00000250: e9ca 71bd ac31 c13c 4920 dabe 4f32 563d
00000260: 74c1 56bf 4110 01be c5d7 7a3f b0b6 cfbe
00000270: 9025 4c3e 8fd2 d7bf 6b81 61bd 727c b53e
00000280: ee8b 88be df56 c43e e6d0 debe 5b14 823f
00000290: c70e 95bf 15c6 a6be ab38 69bc 6946 11be
000002a0: 4f20 0c3f 3f9f a53f fc19 af3d 07cf a4be
000002b0: 1597 87be b585 0e3e 274b 71bf 785b 38bf
000002c0: a5c3 24bf 0058 fe3d e22b 7e3e 0773 38be
000002d0: 3325 213f 64b2 3b3f f3f4 b9be 8619 713f
000002e0: 9510 973e 42df 1c3f 5166 7dbd f1d3 863d
000002f0: c77e 9cbe 81c0 9e3d 5f99 34be 2e31 74bd
00000300: 5a27 a3be 49ff 19bf 275a a93f 8602 d03f
00000310: f5cd 4fbe ebce d2bd c5be 3ebf 3e89 03bd
00000320: a10b 2abe fb8e 09c0 d4b0 123f c7c3 1e3f
00000330: 53ed d4bd ddf7 79bd 9aed 47bf 8291 57be
00000340: f9a7 27bd 54ed 073e 5948 96be 9543 953c
00000350: c452 2a3f 6c12 f2bd 8dad 253f a10b 333f
00000360: 9b9f 723f bc99 a3bd 76d1 92be 0fb1 99be
00000370: 94ed 8bbe afec 21bd 9860 a03e 651c d6be
00000380: ff17 fdbd 8396 613e a1b7 0c3d 1eb3 41be
00000390: 410a ebb9 57cf c63e c761 2b3e 21ff bdbe
000003a0: 7540 9bbe c7e4 babe f68b 00be f3f2 3fbe
000003b0: 2957 78bb a249 e53c 3b1e 19be bb8a 6cbd
000003c0: b5d9 a63e 95b5 09bf 6a09 ddbe 7dd8 a83e
000003d0: 15aa 7f3f fac3 0e3f 41c8 d9bd 7372 55bf
000003e0: e3c2 053f d3f1 87bf 267a 34be c12e 2ebe
000003f0: 484f 24be 2230 c5bf a02f 17bf 72c4 92bc
0.0 0.0 0.0 0.0 0.0 0.0 0.0 0.0
0.0 0.0 0.0 0.0 0.0 0.0 0.0 0.0
0.0 0.0 0.0 0.0 -0.0052587828 -0.0018185285 -0.014859497 0.012416391
0.005245264 -0.009859964 -0.0018108487 0.014325038 -0.005790888 -0.0056061856 0.006191452 0.15851203
-0.011863848 0.005038227 0.0046847644 0.012411502 0.0014904154 -9.146663e-05 -0.013876154 -0.005181485
1.0615286 0.07523918 0.5832607 0.046557378 0.1344681 0.24322647 0.024806134 0.28978518
0.0041333484 0.27921736 0.8718807 -0.3642298 -0.8776069 0.15029153 0.985449 -0.4276776
0.11900163 -0.2045885 1.0151609 0.11210784 -0.057161048 -0.030132594 -0.045526907 0.04376328
0.054765742 0.0044686277 0.19651759 0.087502226 -0.1462637 0.07684334 0.052564897 -0.3917623
0.4302157 -0.12658964 -0.08008755 -0.018435301 0.049230337 -0.123338096 0.07662629 0.11187267
-0.016229006 0.18041539 -0.08084831 -0.011340337 -0.057771027 0.09314478 -0.014713881 -0.0034484651
-0.0039030777 -0.11757085 -0.018371979 0.19478025 -0.258379 0.11818732 0.031029275 0.090144776
-0.022602713 0.036165155 -0.0011625073 0.12799382 -1.1801049 -0.33804128 -0.32900736 -0.6673416
0.5240114 -1.065272 0.53847325 2.0868323 -0.23308757 0.89728844 -0.7701812 -0.62959844
0.96686614 -0.7744185 1.86842 -0.51834065 1.6566344 -0.42781043 0.21440859 0.16566907
0.0047668815 0.017154124 0.106218524 -0.3148934 -0.101044975 0.24626525 0.3977389 -0.11378682
-0.26842073 0.057122692 0.09863957 -0.121005096 -0.06726393 0.38017747 -0.3970276 -0.1651705
-0.12245184 -0.34759793 0.18449189 0.053561687 1.3618747 0.17658377 -0.19228631 0.8951109
1.2287484 0.57035875 -1.0295706 0.57288957 -0.0590314 0.023583256 -0.42602757 0.05229407
-0.83888936 -0.12603857 0.9798549 -0.40569067 0.19936204 -1.6861132 -0.055055063 0.35446507
-0.26669258 0.38347527 -0.43518752 1.0162462 -1.1645135 -0.32573 -0.014234702 -0.14187016
0.547368 1.2939223 0.08549878 -0.321892 -0.26482454 0.13918193 -0.942553 -0.7201457
-0.6436103 0.124191284 0.24821427 -0.1801263 0.62947387 0.7331908 -0.36319694 0.9417957
0.2950484 0.61278164 -0.061865155 0.06583393 -0.30565473 0.07751561 -0.17636631 -0.059617214
-0.3186596 -0.6015516 1.3230637 1.625077 -0.2029341 -0.10293373 -0.7450984 -0.032113306
-0.16605999 -2.1493518 0.5730107 0.6201748 -0.103968285 -0.061027396 -0.78096926 -0.210516
-0.040931676 0.13274127 -0.29352072 0.018220702 0.6653254 -0.1181992 0.6471794 0.6993962
0.9477479 -0.07988307 -0.2867543 -0.30017897 -0.27329695 -0.03953236 0.31323695 -0.41818538
-0.123580925 0.22030072 0.03435481 -0.18915984 -0.00044830333 0.38830063 0.16736518 -0.3710871
-0.30322614 -0.36502668 -0.12553391 -0.18745022 -0.0037893748 0.027989212 -0.14952938 -0.05774949
0.32587972 -0.537927 -0.43171245 0.32977667 0.998689 0.55767787 -0.106338985 -0.8337776
0.522505 -1.0620674 -0.17624721 -0.17010023 -0.16045868 -1.5405314 -0.59057045 -0.017915938

weight_ih_l0 f4 [200, 20]
00000000: 4983 4abf 17e7 973d 66c7 ed3e 0243 0440
00000010: 096b 61bf 4e6b 45bd 5eae b83c 91ba cbbd
00000020: 4571 56bf c968 d2be 1aa0 d23f 23a2 0f3f
00000030: d4f8 8e3f 7629 1a3e c7fa 513e 5a05 3dbe
00000040: 2ff5 f6be abb7 0bbd d3b8 6dbe d698 e73d
00000050: 0a25 9d3f cfba 06c0 7c4c dcbe 8563 0dbf
00000060: 5271 c83e 30f0 c63e f286 e3be ef6e 5abf
00000070: f24c 89bf 8767 7dbf 9656 e33d c04e 2740
00000080: 4b35 0bbd 3207 803e 3033 7c3f 3899 cebe
00000090: 16aa 5a3f 72a6 8d3f ac81 1bbe 9578 f7be
000000a0: 8730 733e 8f93 3d3f a744 8c3e 8e9b 8bbf
000000b0: a881 a8bd ca7d 36bf 7146 88bf 2226 c23e
000000c0: 20ea 973f 0641 823e caed 9d3e 7afa 343e
000000d0: 86c6 9dbe a6f9 44bf c264 bf3e 64a4 7e3f
000000e0: 6367 2cbf 43d0 37bf 84a9 9abd b791 e93e
000000f0: 0521 583f 2311 f53f 96bb 71bf 8696 983d
00000100: 8cfe 64bd bb8b d63f 25de 07bf 824c 613e
00000110: 4810 17bf 1a7f 3c3f 3a08 03be f599 25bf
00000120: a099 04be d361 af3f 3752 403e 2e2a 79bd
00000130: e092 223f 6a9e adbd 4ef8 cd3e 3355 a1be
00000140: 9952 ad3e 4b02 33bf 2bc8 e2bf 6c47 b73f
00000150: 5cdc 23bf 64e3 063f e4fe babe 82f5 b7be
00000160: c241 0e3f 4fd4 d13e 21ea 62bf ba6b 113f
00000170: 80b2 a4bf 4dec c23d 29ca 94bf 2f53 173d
00000180: e6d1 c23f c2c9 2dbf b4ab 2b3f 5495 d9bc
00000190: fdb7 80bc 73b9 5abf cc85 c2be cb48 663e
000001a0: 2644 233f 96ca 083e 8b9d 5cbf 370b e7be
000001b0: acb7 9dbe d86f bcbf c46d c83f 38fe 883e
000001c0: ed67 afbe 6c72 293f c0b5 8fbf 648e 8ebf
000001d0: 90f1 533f ebd3 a23f 3c51 753f 618e 393f
000001e0: 167d 99bf 9719 ce3e 78f9 99be 258c 1bbe
000001f0: 272d ebbe 8ecd 3e3c 5aca b6be c915 a2bc
00000200: 353b bebd bcf2 083f f776 043f 7142 273e
00000210: c94a a53e 9907 92bd 7901 76bf 2193 3ebf
00000220: f177 dd3e 45b2 503e afe1 0e3f df32 72be
00000230: f13d 493f 258a 4bbf 0687 05be 4a2c 1d3e
00000240: 378e d3be e670 24be 6187 1fbf 5c4e 9a3f
00000250: 86ea c0be 9d83 30bf 1b60 41bf 6db6 3640
00000260: 0454 9abe 398e 823e 7192 3d3f 5592 233f
00000270: 0b9c f6be 6234 473f 8519 dc3d 8b51 ab3d
00000280: 5952 bcbe 604c e5bf a4f3 07bf 6d60 6abb
00000290: 7b2d 893d 2c65 93be d068 2dbf ab84 e73d
000002a0: a18a 8f3f 4146 1fbf eaa2 f5bc 2a16 0ebe
000002b0: bcd9 7c3e 24ce ffbe b037 8d3f c432 453f
000002c0: fb48 16bf 4412 29be c979 dbbe db8c 1abf
000002d0: 5f13 1e3f 37ac aabd 2a3f fa3e 141f eb3e
000002e0: a859 30bf e844 853f 9a26 e23e fea1 3cbf
000002f0: 0a72 47bf 2338 aebe e042 64bb ef13 be3d
00000300: beee 4cbe 9352 803e 2530 3d3f 3eb5 a13f
00000310: 5c7e d2bd 1081 543e f74b 893f 326d d4be
00000320: 8920 d0be 5027 8a3e c518 29bf 746a 693e
00000330: 5d45 1c3f 9dfc d9be a4b5 a03e f15a b53e
00000340: bbf0 1fbf 0aad 9cbe cf28 b1bd 9335 b33c
00000350: 4362 dbbf 8eb2 4d3f 121b 2e3d f32f 80be
00000360: 8ed1 3cbf 4b2b 3f3f eb58 533f 949f 35be
00000370: 7790 12bd d1af 03bf cabc 913f 0be0 5cbf
00000380: f562 79bf 39da d7bf 699e 8bbf 3468 f2bd
00000390: 511e 7d40 fb71 d93e 3803 50be 97d1 803f
000003a0: 376e 06c0 daf7 06bf 5cdf 5fbf 5225 763f
000003b0: 1824 4e3e a015 dd3d c217 b13e 5265 9bbf
000003c0: 2dda 25bf d22a 06be 865e c9be a9d9 08bf
000003d0: c0b2 c63e bc4d 94be 9659 2ebf 532f 813e
000003e0: 3bf6 33bf 2131 453e f05c 193f af8d aabe
000003f0: bdd8 cbbc ad33 8abd 07ad 263e a12c 1abe
-0.79106575 0.07417124 0.4644119 2.0665898 -0.8805395 -0.048198037 0.022544082 -0.09947694
-0.83766586 -0.4109557 1.6455109 0.56106776 1.1169686 0.15054879 0.2050582 -0.18459073
-0.48233935 -0.034110706 -0.23215036 0.11308448 1.2276928 -2.105152 -0.43027103 -0.5522998
0.39148957 0.38855124 -0.44438893 -0.8532552 -1.0726607 -0.98986095 0.11100499 2.6141815
-0.03398637 0.2500549 0.98515606 -0.40351272 0.8541578 1.106642 -0.15186185 -0.48334184
0.2374898 0.7405328 0.27396128 -1.0906847 -0.08227855 -0.7128569 -1.0646497 0.37919718
1.1868324 0.25440234 0.3084548 0.17673674 -0.30815524 -0.76943433 0.3738156 0.9946959
-0.67345256 -0.7180216 -0.07551864 0.45618984 0.84425384 1.9145855 -0.9442686 0.07450585
-0.055906817 1.6761392 -0.5307334 0.22001842 -0.5900922 0.7363144 -0.12796107 -0.64688045
-0.12949228 1.3701729 0.18781362 -0.06083124 0.63505363 -0.08477481 0.40228504 -0.31510314
0.3385208 -0.69925374 -1.7717336 1.4318671 -0.64008117 0.5269072 -0.3652259 -0.35929495
0.5556909 0.4098229 -0.886385 0.56805 -1.2866974 0.09517727 -1.1624194 0.036944564
1.5220306 -0.67885983 0.67058873 -0.026560463 -0.015712732 -0.85439223 -0.37992704 0.22488706
0.6377586 0.1335853 -0.8617789 -0.45125744 -0.30804193 -1.4721632 1.5658498 0.26756454
-0.34258977 0.6619022 -1.1227341 -1.1137204 0.8279047 1.2720922 0.9582708 0.7248288
-1.1991298 0.40253899 -0.30073142 -0.1519018 -0.45932886 0.011645688 -0.35701257 -0.019785779
-0.092886366 0.53495383 0.51744026 0.16333939 0.3228362 -0.071303554 -0.96096 -0.7444325
0.4325557 0.20380504 0.55813116 -0.23652218 0.7861014 -0.79507667 -0.13039789 0.15348926
-0.4131944 -0.16058692 -0.62315947 1.2055163 -0.37678927 -0.68950826 -0.7553727 2.8548844
-0.30142224 0.25499132 0.74051577 0.6389516 -0.48165926 0.77814305 0.10747055 0.083651625
-0.36781576 -1.7913933 -0.5310614 -0.003576304 0.06698128 -0.28788126 -0.67738056 0.11304601
1.1214181 -0.62216574 -0.02998491 -0.13875642 0.24692434 -0.4996196 1.103262 0.7703059
-0.5870511 -0.16510874 -0.42866352 -0.6037118 0.6174831 -0.083336286 0.48876315 0.45922148
-0.68886805 1.0411654 0.44170076 -0.7368468 -0.77908385 -0.34027204 -0.00348299 0.09281146
-0.20012948 0.25063 0.7390159 1.2633436 -0.102780074 0.20752358 1.0726308 -0.4148956
-0.40649822 0.26983118 -0.6605342 0.22794515 0.6104334 -0.4257554 0.3138858 0.35420945
-0.624767 -0.30600768 -0.08650362 0.021876132 -1.7139362 0.8035058 0.042506285 -0.25036582
-0.73757255 0.74675435 0.82557553 -0.17736655 -0.035782304 -0.5144015 1.1385739 -0.8627936
-0.9741662 -1.6863471 -1.0907718 -0.118362814 3.9549754 0.42469773 -0.20313728 1.0063962
-2.100477 -0.5272194 -0.87450194 0.96150696 0.20130956 0.1079514 0.34588438 -1.2140296
-0.64786035 -0.13102272 -0.39329928 -0.53457123 0.3880825 -0.28965557 -0.6810545 0.25231418
-0.7029759 0.19257022 0.59907436 -0.3331122 -0.024883622 -0.067481376 0.16276942 -0.15056087

weight_hh_l0 f4 [200, 50]
00000000: c82a 58c0 915d 75bf fb63 b63f dd14 1fc0
00000010: efaa 72c0 b8c4 88c0 d481 f3bf 4d2b 89c0
00000020: a2b6 c03e 17ed 853e 124d 41c0 34a2 44bf
00000030: 1f84 ca3f d6ec 10c1 250e 3c40 4dc0 1a40
00000040: a39a f6bf 603d 843f 8f4f c140 bd9f 0e40
00000050: ae6e 3c40 0671 c33f 19f2 a93f bb03 abbf
00000060: c524 6240 0367 9ac0 fad0 163f 5902 a0be
00000070: 9068 02bf 5dbc 3140 9310 73bf 7157 4ec0
00000080: b033 223f 7bd3 ff3d 09d6 8e40 14c5 9540
00000090: 4dc5 da3e 80cb 3ec0 04de ea3f f65c ff3f
000000a0: 50f8 6a3f e94e f63f bdba 623f 5a58 1a40
000000b0: 0ef2 9140 41f7 a9bf 815b a0bf 48b7 cf3f
000000c0: 0a33 d5c0 5f3c eb3f 82ca 62be 1b55 84be
000000d0: ca29 833f 2038 e23f b689 b13e c921 8f3f
000000e0: 455f 263f bfa3 33c0 5563 4c3e ea4f 4f3f
000000f0: 54d3 2f3f 1be7 20be 2b23 063f 6147 5f3f
00000100: 5b1a ed3f 8e1a 3ebf 619a b9bf 2bdd e23f
00000110: 0097 1e40 2e64 7f3f a368 523f 0e46 e1be
00000120: 4616 0ebf 8ce1 e5be 3113 543f bc83 0bbf
00000130: 5904 f7bf 715f 903f 9fc1 ea3e e7fe 0f3f
00000140: 5a6b 0ebf de38 f4bf b136 923f 083c 93bf
00000150: 038c bbbe 8471 babe f93d b93f 62d0 313f
00000160: 12dc 033e 7d17 93bd 31aa 38bf 6418 773f
00000170: 934a 01bf 5dcf b7be 169b ed3f a421 303f
00000180: 0999 c43f 2307 0c40 7708 11bf 67fb 1a40
00000190: d7aa 6cbf 0195 79bf 0d15 2f40 160b 3e3f
000001a0: c45c 43c0 032f 153f c7b4 1ebf be99 87c0
000001b0: e2ee 82bf b2cf fc3f 8ead 1bc0 6b00 1240
000001c0: 7222 9ebf 644d 3240 3de1 80bf 2a0a 0a40
000001d0: e292 06c0 3297 05be 3b20 1440 8bf3 2fc0
000001e0: 154b 66bf cf14 213f 6af1 6d3f 523b 843f
000001f0: f859 1540 778e 5340 a5ac 00bf d018 463e
00000200: 946e 2740 c00c 7d3f fc5e 44bf 1d42 153f
00000210: 4c4b 0340 078b 553d 98cd e6bf d224 4340
00000220: 08f9 1240 d512 86c0 6cbc d3be e19b d1bf
00000230: 4612 25bf 2282 2fbf d63d 64bf b059 fbbf
00000240: 29a0 b640 d3f9 3640 897b 993f d5ce b540
00000250: c183 a0bf dd9b fd3e f7cd 233f 8d7a 5dbe
00000260: d79e 21c0 078c e53f af70 b8bf 769b b4be
00000270: 15f6 cdbf e867 bdbf ec0a a0bf f608 943e
00000280: 0026 983f ba00 f9be 9b65 f73e ff7a d23f
00000290: 3221 af3f 1f0b ca3e 0f89 81bf 4170 fd3e
000002a0: 10e7 2c3f 7933 3040 ea66 90c0 6b95 22bf
000002b0: 7790 8e3f efba 2cbf 069c 90bf ced0 abbf
000002c0: b0a9 bc3d 5dca 94bf 22e1 3ec0 7ccd 9c3f
000002d0: ec67 19bf 4ded b2bc b6be f03f 0311 0e40
000002e0: ec65 8c3e b8e6 2a40 c5ee 6d3f ab39 ef3f
000002f0: c357 573d 5bb7 b53f 4276 4240 d748 26c0
00000300: 2bf5 833f 7152 5abf e290 7fbe 41a2 78be
00000310: 2689 80bf 32e5 883f be75 5b40 3457 5a3f
00000320: 3916 42c0 5850 d0be 2a3f e53e 991a 58bd
00000330: c0d9 1fc0 37d9 72bf c333 41c0 f0b8 35be
00000340: add9 443e 1b32 f93f 2117 83bf 8c79 e1be
00000350: 4dc3 58be cac3 9dc1 b0ac 1a3f 03fb af3f
00000360: c578 21c0 338b 513f 6372 4b40 9e13 0d40
00000370: 9142 d83f a69d 77bf 51d8 85bd 279f 80bf
00000380: 6e2a 0240 63db a23e 797a d0bf 9bcf 973e
00000390: 4619 983f 3775 91bf 20a0 18bf 3810 9cbf
000003a0: d7bf 053f d193 aebf 10c1 9540 6ade 0440
000003b0: b0ef 163f d0a1 ab40 e8d8 313f 3d85 103f
000003c0: d0a8 4640 265d 2440 725f 96bf 7867 ed3f
000003d0: 2f07 5240 004b c23e f4b8 063f b94f b33f
000003e0: c5ea 323e 7f47 f23e 5ed6 2cbf fdf2 f33e
000003f0: b9b4 433f 07a7 2840 779a 8e3f 5cdc a43e
-3.3776112 -0.95845896 1.4249262 -2.4856484 -3.791683 -4.2740135 -1.9023995 -4.2865357
0.37639338 0.26157448 -3.020329 -0.7681 1.582157 -9.057821 2.9383633 2.417987
-1.9265941 1.033123 6.0409617 2.2284997 2.9442554 1.5268867 1.3277007 -1.3360513
3.5334942 -4.8250747 0.5891262 -0.3125179 -0.509408 2.7771218 -0.94947165 -3.224087
0.6336012 0.124915086 4.4636273 4.6803074 0.42728654 -2.9811707 1.8349004 1.9950244
0.91785145 1.9242831 0.8856619 2.4116426 4.5607977 -1.3278581 -1.2527925 1.6227808
-6.6624804 1.8377799 -0.22147563 -0.2584618 1.0247128 1.7673378 0.34675378 1.1182185
0.6498912 -2.8068693 0.19959767 0.80981314 0.68681836 -0.1571316 0.5239741 0.8721829
1.8523668 -0.7425927 -1.4500238 1.7723745 2.4779663 0.9976224 0.8219091 -0.4399876
-0.55502737 -0.4489864 0.82841784 -0.54497886 -1.9298202 1.1279126 0.45850846 0.56248325
-0.55632555 -1.9079854 1.142294 -1.1502695 -0.36630258 -0.3641473 1.4472038 0.6945859
0.12876919 -0.071822144 -0.7213469 0.9652159 -0.50504416 -0.35900393 1.8562953 0.6880133
1.5359203 2.1879356 -0.5665354 2.4215944 -0.9244818 -0.97492987 2.7356598 0.74235666
-3.052537 0.5827486 -0.61994594 -4.2375174 -1.0229151 1.9750884 -2.432468 2.2812755
-1.2354262 2.7859735 -1.0068737 2.1568704 -2.102715 -0.13045958 2.3144672 -2.7492397
-0.89958316 0.62922376 0.92946494 1.0330603 2.3336163 3.3055704 -0.50263435 0.19345403
2.6161242 0.9884758 -0.76707435 0.58304006 2.0514708 0.05213454 -1.8031492 3.0491223
2.2964497 -4.189799 -0.41354692 -1.6375695 -0.6448101 -0.6855794 -0.89156854 -1.9636745
5.707051 2.858998 1.1990825 5.681498 -1.2540208 0.49532977 0.6398615 -0.2162878
-2.5253198 1.7933358 -1.4409388 -0.35274857 -1.6090723 -1.4797335 -1.2503333 0.28913087
1.1886597 -0.48633367 0.48319706 1.6443785 1.3682005 0.3946161 -1.0119952 0.49499705
0.67540073 2.7531416 -4.5125628 -0.63509244 1.1137837 -0.6747274 -1.1297615 -1.3423097
0.09212053 -1.1624256 -2.982491 1.2250209 -0.599242 -0.02184167 1.88082 2.2197883
0.2742151 2.670332 0.9294246 1.8689474 0.05257393 1.4196581 3.038468 -2.5981958
1.0309194 -0.85282046 -0.24957612 -0.24280645 -1.0041854 1.0694945 3.4290614 0.8528931
-3.0326064 -0.40686297 0.44774753 -0.05275974 -2.4976654 -0.94862694 -3.0187843 -0.1774633
0.19223662 1.9468416 -1.0241433 -0.44038045 -0.21168251 -19.7206 0.6041975 1.3748478
-2.5229962 0.81853026 3.1788566 2.2043223 1.6895314 -0.9672493 -0.065354 -1.004857
2.0338397 0.31808004 -1.6287376 0.29650578 1.1882713 -1.1363896 -0.5961933 -1.219245
0.5224585 -1.363886 4.679817 2.076075 0.58959484 5.3635025 0.694716 0.56453305
3.1040535 2.5681853 -1.1747878 1.8547201 3.2816885 0.37947845 0.52625966 1.4008704
0.1747237 0.47320172 -0.675146 0.47646323 0.76447636 2.6351945 1.1140889 0.3219937

bias_ih_l0 f4 [200]
00000000: ee29 543f 73e9 85bd 5c39 ad3f bf7f d1bd
00000010: 747f f93f 1e2f f03f 5188 a5be d939 483e
00000020: ce3d d5bd 08f9 853f a6a4 0940 2c89 013f
00000030: 8340 48be 4d1d 8c3f 67d9 463e 7ca5 a3be
00000040: 1086 9a3f da69 383e 6dc5 503f 14c4 0b3f
00000050: 95fa 183f e444 453f 1501 363f 08fb 6fbe
00000060: 83d4 3cbf 6aec eb3f 2b18 4bbf cfe9 933f
00000070: 606b a73e 211d 513f 713b d53f 2370 1b3f
00000080: ba5a 9d3e 8096 d73f 1cb5 453f c31f 003f
00000090: cbd8 ab3f bbf7 b13f 937e 633e 45c0 2b40
000000a0: 3c75 0d3e 85c6 b93e a0f7 0f3e 2c7f 2fbf
000000b0: 6c05 ef3f 74dd 313e c690 ff3e d059 273f
000000c0: 8d39 6240 e58f ebbe 2f70 e5bd 0010 1c3f
000000d0: 1320 ba3f 933e b8be df66 213f 923f ce3f
000000e0: b43f cfbe 8d6b febe 34e9 5f3e 8eca 9ebd
000000f0: 5cf4 003f fc33 67be 374d 65be 50eb f63f
00000100: 095d 8bbe c8da ce3f 362b 9fbe 64e1 753f
00000110: b559 183e 58e1 a6bf 4a15 1140 6a65 26bd
00000120: 9d1f 2d3e 3d15 3fbd 24d7 913f 0c8f eb3e
00000130: a851 d43f ff2a 9fbe 62b2 763e e985 b33e
00000140: e00b 8abf 7c72 743f 3c50 113f f6f6 89be
00000150: 1b8d c0be 909f 7fbf fdcd b5bf 1f87 cb3e
00000160: 4598 e23e 134b 16c0 a438 a93f 38ca 313f
00000170: dda2 8b3d 496e 31be 7661 3e3e 8e78 0a3c
00000180: 8071 e8be f3b8 9cbe c2a4 1c3f aa25 17bf
00000190: 08a6 58bf 41ac 7bbf d88b 23be 1cb5 933f
000001a0: dabe 2f3f 30c5 7abf c595 5fbf a79f 3fbb
000001b0: abd8 b73e 0a28 8e3e 91e6 f5be 62a0 97bf
000001c0: f34e 6abf 254e 913f 7b46 3d3d 7579 5a3f
000001d0: 6d94 f8be 8847 203f 5d51 043f 0a75 453f
000001e0: 189d ccbe de47 4bbf 4547 573d ec4c fe3e
000001f0: b7fe ba3f 3a58 22bf 94e7 913e 303d de3d
00000200: a29f 44be 5d7f 953f a800 4dbf 4ae9 0b3f
00000210: 0cd8 2a3e 550d 0a3e 192e 5cbc 1c78 8abe
00000220: c780 01bf 7b67 3b3f 06d7 6a3f 552a 413f
00000230: 82f2 2e3f 4f17 76bf d3f9 36bf df31 ca3e
00000240: 7cdf 2bbf e09b 463f 5458 1d3f 7f1b 123e
00000250: 7d1c 7d3f 37cb 953e 2146 ed3d 09de 243f
00000260: 5bb1 c73e 2a57 b43f 6904 d73f cbcf 0f3f
00000270: 2022 76be 7537 173f 80ae b7bd f54d 663f
00000280: d1f8 193f d3f9 ea3e 8015 98bf 4e24 e9be
00000290: 796c bc3f 3cd1 be3f ea00 2c3f 1c1a fd3e
000002a0: 2917 ee3c 880b fc3f 3676 363f 6590 273f
000002b0: 4824 843e c11c 8dbd f358 91bf ef90 6cbf
000002c0: e106 5dbf 8ae6 333f c055 593c 325e 343e
000002d0: ba94 523f 7bcc aa3f 8a31 073f 48e6 dc3f
000002e0: 88a9 b53f 69ba f9be 5ab5 433e ddd3 4c3f
000002f0: a070 d43f 6b71 e63f 2414 8cbf a0fe 49bf
00000300: 34fe 35bf 5c34 2f3f 1950 833f 5413 5cbf
00000310: 7ee3 093f b469 e2be 7f68 1b3f 24db 3f3f
0.8287648 -0.065386675 1.353313 -0.10229444 1.9492021 1.8764379 -0.32330564 0.19553317
-0.10412179 1.0466623 2.1506743 0.5059993 -0.1955586 1.0946442 0.1941887 -0.31962192
1.2072163 0.18009129 0.8155125 0.54596066 0.5975736 0.77058244 0.710954 -0.23435605
-0.7376177 1.8431523 -0.7933375 1.1555728 0.32699108 0.8168507 1.6658765 0.6071798
0.3073328 1.6842804 0.77229476 0.50048465 1.3425535 1.3903726 0.22216253 2.6836102
0.13814253 0.3628427 0.14059305 -0.68553424 1.867353 0.17369634 0.4991514 0.6537142
3.5347626 -0.4600822 -0.11203038 0.60961914 1.4541038 -0.3598524 0.63047594 1.611315
-0.4047829 -0.4969143 0.21866304 -0.07753478 0.5037286 -0.22578424 -0.22392736 1.9290562
-0.27219418 1.6160517 -0.31087655 0.96047044 0.1487797 -1.303752 2.2669244 -0.04062406
0.16906591 -0.046651114 1.1393781 0.46007574 1.658742 -0.3108749 0.24091485 0.35063103
-1.0784874 0.9548719 0.5676305 -0.2694623 -0.37607655 -0.9985285 -1.4203488 0.39751527
0.44256797 -2.3483322 1.322041 0.69449186 0.06818173 -0.17327227 0.18591866 0.008451594
-0.45399094 -0.30609855 0.611889 -0.59041846 -0.84628344 -0.98309714 -0.15971315 1.1539645
0.6865059 -0.97957134 -0.87337905 -0.0029239447 0.35907492 0.27764922 -0.4802747 -1.184582
-0.91526717 1.1351973 0.046209794 0.8534158 -0.4855074 0.6260915 0.5168665 0.7713171
-0.39963603 -0.79406536 0.052558202 0.49668062 1.4608983 -0.63415873 0.28496993 0.10851514
-0.1920152 1.1679493 -0.80079126 0.54652846 0.16683978 0.13481648 -0.013438725 -0.2704476
-0.50587124 0.73204774 0.9173435 0.7545522 0.6833879 -0.96129316 -0.7147495 0.39491174
-0.67137885 0.77581596 0.61462903 0.14268301 0.98871595 0.29256603 0.11585642 0.644013
0.390025 1.40891 1.6798221 0.5617644 -0.24036455 0.59068996 -0.0896883 0.89962703
0.6014529 0.45893726 -1.1881561 -0.4553551 1.4720603 1.4907603 0.67188895 0.49433982
0.029063778 1.9691019 0.71274126 0.65454704 0.2580893 -0.0689025 -1.135527 -0.9240865
-0.8633862 0.7027365 0.013265073 0.17614058 0.8225819 1.3343652 0.52809966 1.7257776
1.4192362 -0.48775032 0.19112149 0.8001078 1.659687 1.8003362 -1.0943646 -0.7890415
-0.7109101 0.6843927 1.0258819 -0.8596699 0.5386275 -0.4422127 0.60706323 0.7494376

bias_hh_l0 f4 [200]
00000000: ab59 583f e04d 2ebe fae2 c83f 4dad 17be
00000010: 436b 0340 ac2a ee3f b2c4 b3be b13e 0e3e
00000020: 8a3a d6bd 6417 9b3f a6dc 0b40 820b c63e
00000030: 1abf 46be c1a1 803f 752a c03e dc1e 41be
00000040: 4f2a ac3f d823 903e 28b5 603f 2390 193f
00000050: bd95 c53e c6d5 4b3f dedd 6e3f 4aca 5fbe
00000060: 1718 44bf 34b3 eb3f 4a7b 28bf c682 893f
00000070: 02af 1d3e 6956 673f e11f db3f 111c 033f
00000080: ad24 b13e 6cea d93f 015b 363f 7e3e c63e
00000090: 41e0 a03f 52d0 a23f e7ec 7e3e 7431 1b40
000000a0: 83f8 023e d658 543e 6cbb 953e 2625 4bbf
000000b0: caee e23f fe1b a93e 964a 363f f6bc 2a3f
000000c0: 038b 6240 1649 09bf 371d 62bd 9ef4 fa3e
000000d0: 2213 bf3f 70c0 a1be f63a e33e 2ad8 cc3f
000000e0: ffa9 94be 4488 dfbe 1c7e 963e d1c9 0c3d
000000f0: 7252 923e 226f 9abe cde3 96be 9b14 e83f
00000100: a590 c4be 9b0a d73f f100 cbbe 718e 583f
00000110: 1d65 f23c 0aa6 8ebf 92e3 0540 a8bf edbd
00000120: 39df 393e 2de6 b03d 41ae 7e3f 1feb 963e
00000130: 547a cc3f 3b19 8fbe 9cf7 963e 4d6b f03e
00000140: 12b7 8fbf 3b00 643f 0966 d73e a28d 30be
00000150: 27a7 1cbf 0022 6ebf 6636 b8bf 52a3 ce3e
00000160: fb65 8f3e fdbc 15c0 373e 933f b7c1 383f
00000170: e7d3 663d c6d4 7f3d d671 253e 4bb9 ca3b
00000180: 7083 95be c692 16be 05b4 143f 03b7 2dbf
00000190: f874 62bf 91ba 80bf f2e2 c3bd 20cf 843f
000001a0: 3b40 4a3f cb46 80bf b596 6abf 8ffe 383d
000001b0: 2bb0 dd3e bbef 983e e77f 1fbf 95bd 8ebf
000001c0: d655 80bf 21bd 853f 550f 853d 457e 573f
000001d0: db49 19bf fd92 273f 2328 cf3e 6b0f 163f
000001e0: bd32 d1be 3297 51bf a691 dcbd 0c5c 153f
000001f0: 9d30 c23f 7dde 40bf b63f 973e e4ec 2b3a
00000200: 2ddf 15be f4e2 ac3f 1529 42bf 8096 0a3f
00000210: 3bba dc3d 30cc 783e 72af 35be a521 3dbe
00000220: eb76 adbe 6916 393f 51e1 7e3f 257c 113f
00000230: b1dd 253f 124c 60bf fc03 03bf a01f 863e
00000240: 827a 12bf 21e8 433f b473 283f 760f b33e
00000250: 9815 6f3f a46f 193e 2e2d a63e c405 2e3f
00000260: 8962 8e3e 6c32 b23f 76f0 e93f 8eb8 0b3f
00000270: a198 89be 4e7e fa3e 7fbd 473d 04fe 6e3f
00000280: 68f6 0c3f a9d6 033f 3abb 87bf c159 27bf
00000290: 2b2b b43f e15e af3f 8e4c 153f cd6c ee3e
000002a0: c3af 1d3e 64e4 0440 97f0 3b3f dd41 ec3e
000002b0: df1b d33c 6886 44be 70ab 9cbf 72ba 59bf
000002c0: 325a 3abf 9c45 263f d1eb 1dbe 7de9 5a3e
000002d0: 2973 383f b138 9b3f 10aa 083f afba d03f
000002e0: 36d9 aa3f 665e dfbe cd7b 8a3e 3cdc 4e3f
000002f0: 4b3e c93f bd0c d43f 566e 85bf 20f8 45bf
00000300: 32cc 53bf a064 0a3f 9fea a33f dd0c 3ebf
00000310: 259e d73e 4757 fdbe 4a48 1a3f 42e3 083f
0.8451182 -0.17021894 1.5694268 -0.14812203 2.0534217 1.8606772 -0.35111004 0.13891102
-0.10460384 1.2116513 2.1853423 0.38680655 -0.19408837 1.0049363 0.37532392 -0.18859428
1.3450412 0.28152347 0.8777642 0.5998556 0.38590804 0.7962307 0.9330729 -0.21854511
-0.7659926 1.8414063 -0.65813124 1.0743034 0.15398791 0.90366226 1.7119104 0.512147
0.34598294 1.7024665 0.7123261 0.38719553 1.2568437 1.2719824 0.24895059 2.4248934
0.12790112 0.20737013 0.29244554 -0.7935356 1.7729123 0.3302917 0.7120756 0.6669458
3.5397346 -0.53627145 -0.055203643 0.49014753 1.4927714 -0.3159213 0.4438092 1.6003468
-0.29035947 -0.4365865 0.2939309 0.034372155 0.28578526 -0.30162913 -0.29470673 1.8131288
-0.38391605 1.6800112 -0.39649156 0.8459235 0.02958923 -1.1144421 2.0920148 -0.11608821
0.18151559 0.086376525 0.9948464 0.29476258 1.5974832 -0.27948937 0.29485786 0.46956864
-1.1227744 0.8906285 0.42070034 -0.17241529 -0.61192554 -0.9302063 -1.4391601 0.4035898
0.28007492 -2.33966 1.1503361 0.72170585 0.05635443 0.062458776 0.16156706 0.0061866394
-0.2920184 -0.14704427 0.5808719 -0.6785738 -0.8845973 -1.0056936 -0.09564771 1.037571
0.7900426 -1.0021604 -0.9163621 0.04516464 0.43298468 0.298704 -0.6230454 -1.1151606
-1.0026195 1.0448343 0.06497065 0.84177047 -0.5987832 0.6545866 0.4046031 0.58617276
-0.40859023 -0.8187133 -0.10769968 0.5834358 1.5171086 -0.7533949 0.29540795 0.0006558432
-0.14635916 1.3506761 -0.75843936 0.54135895 0.10777708 0.24296641 -0.17742708 -0.18469866
-0.3387979 0.7229982 0.99562556 0.56830055 0.647914 -0.87616074 -0.51177955 0.26196003
-0.5721818 0.76526076 0.6580155 0.34972733 0.93392324 0.14983994 0.32456344 0.6797755
0.2780955 1.3921638 1.8276508 0.54578483 -0.2687426 0.48924488 0.048764702 0.9335635
0.55063486 0.5149942 -1.0604012 -0.6537133 1.4075674 1.370083 0.5831994 0.46567383
0.15399079 2.0764399 0.73413986 0.46144 0.025770126 -0.19191897 -1.2239819 -0.8505012
-0.7279388 0.64949965 -0.15421988 0.21378131 0.7205072 1.2126676 0.53384495 1.6306971
1.3347538 -0.43626708 0.27047578 0.808048 1.5722135 1.6566387 -1.0424297 -0.77331734
-0.8273345 0.5405979 1.2805976 -0.7423838 0.42112842 -0.4948065 0.60266554 0.5347177

weight f4 [74, 50]
00000000: 2619 3dbf b161 933f f6a0 2a3f 113b abbf
00000010: 15ac 80bd 58b4 1dbf 3f09 1d3e 9a9a 43be
00000020: 0d1b a9bf e703 04bf 09dc 0f3f b3a5 c83f
00000030: 94f9 7c3f 16a0 24bd 60f3 383f 30aa b0bf
00000040: 95a7 a63f cdd7 82be 766b 8cbf 5c3e d63e
00000050: 2b05 693f 4182 913f 4c9a c6bf 099d 20bf
00000060: 3bdb 76be b2fe 0dbe 4f79 a83e 41f3 d0be
00000070: 1a4a f43e 2215 b7bf fb6b 4d3e 1e91 9abf
00000080: 0b6f 8cbe 6ef6 ff3e 03b7 893e b036 c13f
00000090: 0f4e be3f 1209 ebbe f53f b6bf ea55 953e
000000a0: 2af1 43bf c59a 713f eaa4 c33f bc2d 073e
000000b0: 4a06 493e 26f4 a8bf aa7b 95bf c18a 34bd
000000c0: 2a3a 92bf 2131 d13f af80 11bf 0899 8a3f
000000d0: 5268 e33e e4b0 a5bf 73bd a2bd 1b7a 17bf
000000e0: 2e9d 533d abfc 1b3d 6b86 9bbf 94d3 05bf
000000f0: 0ec9 193f f22b ae3f b03b 5e3f 55e0 a93d
00000100: 4acc 523f c404 98bf e045 a73f b7dc 58be
00000110: d942 92bf 6775 e03e 184b 773f 0d96 803f
00000120: 6910 b1bf 4e3d 29bf ca42 c7be 41aa d9bd
00000130: 2ece 683e 25ba fcbe c1c5 053f f79b b6bf
00000140: b860 8c3e c89c 8cbf 906c 6ebe c1ab 003f
00000150: e237 903e 09ad b53f 8b8f b13f 4e0f e5be
00000160: 7015 a5bf a2c6 833e ecc8 38bf 6b11 4e3f
00000170: c827 da3f c9a6 bc3d d846 263e 245a b0bf
00000180: 53ef 94bf 9b77 d83d 858f 99bf 490e dd3f
00000190: 7b55 0140 c9d9 83bf 40aa 83bd 0c98 3abf
000001a0: ad69 8dbf 7346 1e40 7b47 50be 5c97 c1be
000001b0: 69d5 d63e d614 ddbe af87 af40 3af1 783f
000001c0: f4b6 94c0 3aa4 75bf 3ece 393e b7ae d93f
000001d0: 295f f2bf 800e 72bf a24b eb3c f012 60bf
000001e0: 73e5 813e a4e1 95be de29 163f b791 5e3f
000001f0: bf79 49c0 b5c2 73bf f9da 493f 6385 9bbf
00000200: c279 8e3f b222 023e fa37 2e3f 4c3c 903f
00000210: 6ce7 5cbf 3c5e 98bf c235 64c0 2720 4040
00000220: 7a99 883f ba63 1340 95f0 9d3f 0ba0 5b3e
00000230: fb69 0840 153e 0ec0 b0f9 d43e 8947 c9bf
00000240: d410 18c0 ff56 0640 7990 d83e 9ea7 293f
00000250: 6c30 e3bf 2fd6 33be 66d6 b43f e59d a4be
00000260: b8ad 03bf b9e6 4cc0 1ed7 79be d15f 76be
00000270: b90b 5240 fbf1 aec1 9de8 323f dd29 30bf
00000280: ae2e 9fbf c05e d23f 87ef 843f d48a 9e3e
00000290: 49d7 d1bf 3d49 09c1 b986 fb3e abf5 90c0
000002a0: a604 01be b4c7 723e 717a 2041 b4c3 85bd
000002b0: 0c61 8bbf 59d2 febe c029 963f 60f7 2d3f
000002c0: 7c6e 3d40 c730 2240 0619 c1be 9229 d6bf
000002d0: 754c 12bf 73a5 c0c0 530b e2be a146 d7bd
000002e0: ec69 a33f e2d4 d73e f6b9 9140 0955 d4bf
000002f0: f99d 50bf 52fb c3bf b471 d1be d6a8 4240
00000300: c4e3 6fbe 1027 1f41 414d 57c0 6c9d 34c0
00000310: 91d0 24c0 7e25 d83e 5d04 3cc0 6f52 e93f
00000320: 6933 e33d fd89 773f 556d 28c0 98d7 c6be
00000330: 8f0d 883f 7e84 023e 72bf 483f 72a4 8e3e
00000340: 71b2 69bf 4591 603e 2a42 b5bf d66a 0fbf
00000350: 207c a73f a43f d6be 02a1 1f3f f5b4 cd3d
00000360: 32ee ee3e 9894 e4bf fb5a 0440 8d6a 293f
00000370: c4b6 b8be e2b8 413f e32a 28bf e444 a93f
00000380: 22e6 963f 7dd3 1dbe 0e72 22bf 8b4e c8be
00000390: e791 0840 c078 19bf d919 87bf b564 8cbf
000003a0: 2e6c d23f cf4a 41bf ee45 6dc0 de74 81bf
000003b0: 3cd4 3f3f 6ae5 8bbf 2b4d 813e 7fbf cc3f
000003c0: b135 4f3d c427 1140 d4e8 69be 132e 1bbf
000003d0: 5753 ef3f 1ecb 86c0 b95f cf3e c311 97be
000003e0: 5065 dabf 1b02 e93f de69 2dbf 6390 06be
000003f0: 3983 8fc0 f37d 5140 d284 f8bc 5191 1640
-0.738665 1.1514188 0.66651857 -1.3377401 -0.06282822 -0.6160331 0.15335558 -0.19101945
-1.321138 -0.51568455 0.5619512 1.5675567 0.98818326 -0.040191732 0.7224636 -1.3801937
1.3019892 -0.25555268 -1.0970294 0.4184445 0.9102351 1.1367875 -1.5515838 -0.62739617
-0.24107067 -0.1386669 0.3290505 -0.40810588 0.47712785 -1.4303324 0.20060723 -1.2075536
-0.2742847 0.49992698 0.2689744 1.5094814 1.4867572 -0.45905358 -1.4238268 0.2916711
-0.7653986 0.94376785 1.5284703 0.1320104 0.19631305 -1.3199508 -1.1678364 -0.04407764
-1.1424 1.6343118 -0.5683698 1.0827951 0.44415528 -1.2944608 -0.07946291 -0.59170693
0.05166357 0.03808276 -1.2150396 -0.5227597 0.6007241 1.3607161 0.86809826 0.08294741
0.8234297 -1.1876454 1.3068199 -0.21177946 -1.142665 0.4383957 0.9659896 1.0045792
-1.3833133 -0.6610917 -0.38918144 -0.106281765 0.22734901 -0.49360767 0.52254874 -1.4266347
0.2741754 -1.0985346 -0.23283601 0.50262076 0.28167635 1.4193431 1.3871931 -0.4473824
-1.2897167 0.25737482 -0.7218158 0.8049533 1.704339 0.09211499 0.16237962 -1.3777509
-1.1635536 0.10569688 -1.1996924 1.7269984 2.0208423 -1.0300838 -0.06428957 -0.72888255
-1.1047875 2.4730499 -0.20339768 -0.3781079 0.41959694 -0.4317996 5.485313 0.9724308
-4.647333 -0.95953715 0.18145081 1.7006444 -1.893529 -0.94553375 0.028722588 -0.87528896
0.25370368 -0.29273713 0.58657634 0.86941093 -3.1480558 -0.95218974 0.7884975 -1.2150081
1.1130908 0.12708548 0.68054163 1.1268401 -0.8629062 -1.1903758 -3.565781 3.0019624
1.0671837 2.3029618 1.2339045 0.2144777 2.1314685 -2.2225392 0.41596746 -1.5724956
-2.376027 2.0990598 0.42297724 0.6627139 -1.7749152 -0.17562173 1.4127929 -0.32151714
-0.5143695 -3.2015822 -0.24398467 -0.24059989 3.2819655 -21.868155 0.6988619 -0.6881388
-1.243612 1.6435165 1.0385598 0.30965292 -1.6393825 -8.58038 0.49126223 -4.529989
-0.1259943 0.23708993 10.029893 -0.06531468 -1.0888991 -0.49769858 1.1731491 0.6795559
2.9598684 2.5342271 -0.37714404 -1.6731436 -0.57147914 -6.0201964 -0.44149265 -0.10511518
1.27667 0.42154604 4.5539503 -1.6588451 -0.8149105 -1.5311072 -0.4090706 3.041555
-0.2342673 9.947037 -3.3640902 -2.8221083 -2.57523 0.42216104 -2.9377663 1.8228282
0.1109379 0.9669493 -2.631673 -0.3883636 1.0629138 0.12745854 0.7841712 0.27859837
-0.91287905 0.21930416 -1.4160817 -0.56022394 1.3084755 -0.4184543 0.62355053 0.100442804
0.46666104 -1.7857847 2.068053 0.6617821 -0.3607694 0.75672734 -0.6569044 1.3224149
1.1788981 -0.15412708 -0.63455284 -0.39122424 2.1339052 -0.59949875 -1.0554763 -1.0968233
1.6439264 -0.75504774 -3.7073932 -1.011379 0.7493322 -1.0929387 0.25254187 1.599594
0.050588313 2.268052 -0.22842723 -0.6061718 1.8697308 -4.2122946 0.40502718 -0.2950574
-1.7062168 1.8203768 -0.67739666 -0.13141017 -4.4847684 3.2733123 -0.030336771 2.3526194

bias f4 [74]
00000000: d345 b1bf bdaa b6bf 28a7 ba3f 080a 0dc0
00000010: d2ba 0a40 8d0c 77c0 1c32 8140 0a77 a1bf
00000020: 09f8 2fc0 647a 18bf dcdb 09c0 5dcb 2ebf
00000030: 7d57 ddbf f469 bebf 0f08 c23f 92ca 673f
00000040: 1b50 8a3d 7994 21be 2773 1bbe caf2 f9be
00000050: 143c 8ebf e32a bcbf 9956 dabf f9c0 6d3d
00000060: 473a 90bf f741 35bf baf9 2fc0 df15 aebe
00000070: a641 9cbd d0b2 2ac0 6187 c7bf cf90 2cc0
00000080: a7ca 8abe 1ffc 2fbf ce06 9dbf d7f0 86bf
00000090: 619f 89c0 3a5d 963f 67b8 a2bf 4213 cb3f
000000a0: 6857 793e 8431 0abc 98d1 143e a919 bc3e
000000b0: 87bb fd3e f93c 49bf 1816 97be a446 90be
000000c0: 19df 7cbe a6c7 e2bf e810 54bd 216f 8e3e
000000d0: bdc7 50bf ec6a 1fbf 7000 263f 322b afbd
000000e0: fb3b a9be 802f e2bf 256a 3f40 3e70 57be
000000f0: de67 d83e 59e4 0d40 09e0 ebbf 3378 b5bf
00000100: fc8f 703e 157e 9ebf e9d3 19bf 9e35 a7bd
00000110: 3f04 83bf 1b31 8b3d ec87 b8bf 4b79 f03d
00000120: 203c c43e ce61 003e
-1.3849434 -1.4270855 1.4582262 -2.2037373 2.1676526 -3.860141 4.037367 -1.2614453
-2.7495139 -0.59561753 -2.1540442 -0.6827906 -1.7292324 -1.4876084 1.5158709 0.9054347
0.0675356 -0.15779294 -0.15180646 -0.48818046 -1.1112084 -1.4700588 -1.7057678 0.05804536
-1.1267785 -0.7080378 -2.749617 -0.3400106 -0.07629709 -2.6671638 -1.5588189 -2.6963384
-0.27107736 -0.6874408 -1.2267702 -1.0542248 -4.3007054 1.17472 -1.2712525 1.5865252
0.24349749 -0.008434657 0.14533079 0.36738327 0.49557135 -0.7860866 -0.29509044 -0.28178895
-0.2469448 -1.7717178 -0.051773936 0.2781916 -0.81554776 -0.62272525 0.6484442 -0.08553161
-0.33053574 -1.7670746 2.9908535 -0.21038911 0.42266744 2.2170622 -1.8427745 -1.4177307
0.23492426 -1.2382227 -0.60088974 -0.081645235 -1.0235671 0.067964755 -1.441648 0.11741885
0.38327122 0.1253731

weight f4 [50, 2]
00000000: a52b 093f 6723 153f 1a41 943e f9c6 2a3f
00000010: 90ed 77bd 2045 88be 78ca 083e 90bd 1d3d
00000020: f024 43be 6724 2ebf c7de 2b3f b00a 553e
00000030: 4c51 38be 0041 163e 73e7 0e3f c666 f63e
00000040: 0009 66be 807c 493d 92c1 31bf e504 cebe
00000050: 4066 cb3c e126 ccbe e428 14be 4c0e 80be
00000060: 504d 673d c1b4 a6be 986a c4be e7d4 9abe
00000070: 8442 143e f872 e83d 4021 1abe f012 ffbd
00000080: 912a 1b3f cab3 21bf 00f7 83bd a79a 0dbf
00000090: 5ac2 6fbe 7f1a 23bf 623d f33e add0 1a3f
000000a0: 69a4 babe 9155 0ebf 3eee d53e 0b1d fdbe
000000b0: d571 19bf c5b0 edbe ee83 04bf 62b2 07bf
000000c0: 94d2 39be f6bf a83e 10ff 6cbe 8e65 11bf
000000d0: a2f5 f73e ceaa 23bf 0adc e23e 403e 233e
000000e0: 5275 f9be 80a2 07bf 6f6f 263f 3049 323d
000000f0: 7c54 4e3e 60db e1bc b01e 84bd a1f1 213f
00000100: c504 e6be 60fb 7f3d e0fa 8abd 78fd cbbe
00000110: 4a9c bb3e e1ec 19bf 1a2b 853e 4bc2 e2be
00000120: 3951 0bbf 90e3 44be e088 d93c 4836 a8be
00000130: aab4 8d3e e0e2 b0be 71a4 e4be 69dc b2be
00000140: b848 eabd 800e d53d 66af b33e 5ead 11bf
00000150: 197f 2abf 5234 25bf 88bd 4a3e 0460 6fbe
00000160: 2e99 5ebe 8d08 1ebf 3c97 6c3e 0595 0f3f
00000170: a26a ef3e 984e e8bd 5d62 09bf d798 1b3f
00000180: 501e d73d 24b7 4ebe 1e11 34bf 9ad7 d13e
0.5358222 0.58257145 0.2895592 0.6670986 -0.06052929 -0.26615238 0.13358486 0.03851086
-0.1905706 -0.68024296 0.67136806 0.20804858 -0.17999762 0.14673233 0.55821913 0.48125285
-0.2246437 0.049190998 -0.6943599 -0.4023811 0.02482903 -0.39873412 -0.14468724 -0.25010908
0.056470215 -0.3255978 -0.38362575 -0.30240557 0.14478499 0.113500535 -0.15051746 -0.12454784
0.60611826 -0.6316496 -0.06443596 -0.55314106 -0.23413983 -0.63712305 0.4750777 0.60474664
-0.3645356 -0.55599314 0.41783327 -0.4943622 -0.5993932 -0.46423927 -0.5176381 -0.53006566
-0.18146735 0.32958955 -0.23144174 -0.56795585 0.4842959 -0.639325 0.443085 0.15941715
-0.4872232 -0.5298233 0.65013784 0.04352683 0.20149416 -0.027570426 -0.06451166 0.6325932
-0.44925514 0.06249559 -0.06786132 -0.3984182 0.36642677 -0.60127074 0.26009446 -0.4428886
-0.5442081 -0.19227433 0.026554525 -0.32853913 0.27676898 -0.34548092 -0.4465671 -0.34933785
-0.11439651 0.10403156 0.35094756 -0.5690516 -0.66600186 -0.6453296 0.19798863 -0.23376471
-0.21738121 -0.617318 0.23104566 0.5608676 0.46761042 -0.113431156 -0.53665715 0.6078009
0.105038285 -0.2018705 -0.7033862 0.40984803

bias f4 [50]
00000000: d97d 2d3f 9b78 013f 0002 023c 9ae0 bd3e
00000010: da85 c8be d43e 7a3e 79a1 2e3f e8e9 c4be
00000020: ce28 d13e 32f3 a13e 5483 34bf e9f1 243f
00000030: cf72 0e3f da65 e6be 1a93 b33e d5e9 b5be
00000040: f8b9 23bf 406c 8dbd caef 9e3e 30e1 33bd
00000050: d471 4a3e 0020 373b 3a80 da3e bc04 81be
00000060: b5df 033f d8f5 043e fa6d 1ebf 555c e1be
00000070: 5087 b93d 0083 f93d 66e5 0abf 8acd dabe
00000080: c02e aa3c 3467 2bbf b83a fd3d a00a 25bf
00000090: 8f2d 083f 6248 b93e 736d 0c3f 068c e2be
000000a0: da59 edbe bfdb 223f 9d30 1fbf 684b 003e
000000b0: 5ca6 323e 0ee0 f73e 6dd1 303f 62b1 e73e
000000c0: f595 c0be dd7f 1b3f
0.67770153 0.50574654 0.007935047 0.3708542 -0.3916462 0.2443803 0.6821514 -0.38459706
0.40851444 0.31630856 -0.7051289 0.64431626 0.55643934 -0.44999582 0.35073167 -0.35529962
-0.6395564 -0.06905413 0.3104232 -0.043915927 0.19769984 0.0027942657 0.42675954 -0.25198925
0.51513225 0.12984407 -0.6188656 -0.44015756 0.09059012 0.121831894 -0.54256284 -0.4273494
0.020774245 -0.6695435 0.12364715 -0.6446934 0.53194517 0.36188036 0.54854506 -0.44247454
-0.46357614 0.63616556 -0.62183553 0.12528765 0.17446274 0.48413128 0.6906956 0.4525252
-0.37614408 0.6074198

weight_ih_l0 f4 [200, 20]
00000000: 00f7 09be f7af 55be 2547 a3bd c47a e83e
00000010: 1eb8 87be 2297 80bd 4b29 f2b9 a74b abbe
00000020: 7e51 a0bd 43d4 1a3e b2cb 4abf 8aec 473e
00000030: 7d46 e4be 3f8a 013c 084c e1bd 5aa7 ed3c
00000040: 7430 3bbc 87cd b93e 5500 253d 1716 b6bd
00000050: be25 4fbd 84bc a1be 39e5 253e 656d 1f3e
00000060: 52b7 03bf d4c4 90be 84c4 a43e 121c 39bf
00000070: f7df f63c 1c23 a63c 2e87 70be b78e 51be
00000080: bcde 4a3d 7bca 443f f77e 84bd 99cc 153e
00000090: be14 413d 5e50 ad3e 8e87 633e 661c 99bd
000000a0: e635 e5be 2ec2 d4bd 4947 dc3e c4a0 6e3e
000000b0: b98e 14be 10ed 1dbf b979 12be 693b 7abe
000000c0: 8483 443e 27ae ad3e 5684 73bb 0938 8bbe
000000d0: 7431 d63e 187c 943e fbcb edbe fd26 1a3e
000000e0: d32c 253e 9ae3 593e f6ea fb3d 1b29 83bd
000000f0: df04 3f3e 214f 80bf 5d67 fa3e fe9b 303f
00000100: 4257 6dbf 76a7 63bf d56e f6bc 8836 f0be
00000110: 52c2 2ebe 3e87 09bf 7757 023f 2d4f e7be
00000120: f8ff f2bd 8c0e e03e 8a24 36bc 2fc8 6cbe
00000130: 6f76 b33e 4d1c 173f 791f 113f c2be 853f
00000140: 5d73 1f3e 630c dabe 7bdd 43be 513c 4b3d
00000150: 1692 363e 9d23 11bf b6c1 c83e a73b 1cbe
00000160: a301 103f bec8 55be 9858 11bd d484 69be
00000170: 4d36 d9be 91fa 243e 401a b6bd 3ae8 50be
00000180: 4299 90be deab 503e a1ed a33e 0d07 013d
00000190: c7e8 7d3e 8c7c a13e 5041 50bf cde9 173f
000001a0: 39e7 b2be 47dd 09be 64f4 383e a857 d6be
000001b0: 1610 0abd 069f 503e 3cd2 d0bd d362 ae3e
000001c0: eb0a c73e 0245 893e 306d 66be 707b bf3e
000001d0: 99b3 083d 1870 f13e 4638 003d 9abb 70be
000001e0: 427a 2bbe f95d 4cbe 8f1e 493e 465c c73c
000001f0: 0c1d a6be 8450 b3be 87f1 2b3d c441 2abe
00000200: 1713 c5bd 9b01 5dbc 62ab 9cbe d22b c5be
00000210: 9846 4fbe 7b37 323e 6068 bbbe 235c 503e
00000220: 4734 efbc 6dc9 e63e f9d5 b1be 71a6 663e
00000230: c957 043e 1d45 eebe 5e8e 85bf 6d91 063f
00000240: 2d29 28bf e4ff 0abf 1594 73be eb71 09bf
00000250: d6a5 23be 8229 d3bc 143a 913e 28d2 aa3e
00000260: ec17 59be 26f5 d33d 518b 01bf c7cc 4a3d
00000270: 243e 2d3b 467d 2b3f 0e34 99be f07b 343e
00000280: b212 173e 7feb cebe 347c 2e3e 0142 fb3d
00000290: 0c10 adbe 05d1 cfbe 7efc 0b3e 4877 dfbd
000002a0: 434b af3e fc07 95be 28a9 c53d a194 853e
000002b0: a526 76be 2c03 91bd 8fd4 f13e f890 11bf
000002c0: 7e71 f13d f4da c13e 3a5a 8a3e 94bb 403e
000002d0: c409 0a3e c424 ebbe 88b7 4bbc 86ac b5be
000002e0: b744 02bf d682 0bbe 552d 9e3e 28f9 1bbf
000002f0: 5cfd 893e 28e1 9bbe 41c2 d63d 8f03 27bd
00000300: 8787 eabe 8841 873c 594b 043e 68a8 f7be
00000310: a704 c43d 86e7 b33e f0d4 8f3e e7d8 ae3e
00000320: c39d a43e b627 55bd bf79 833d 81bb 37bd
00000330: 00c7 20be 06ef 6cbe d43d 053f af38 35be
00000340: c519 863e d792 eabd 40b8 98be 7f8a 00bc
00000350: b326 cdbe 51a3 6e3e aa56 c23e 2d0c c9be
00000360: 95b7 243e 8382 553e a1e0 d83e 3609 b93c
00000370: 45c9 dd3d 16da 71bf b31e 60bd 494c 59be
00000380: 5189 acbe 25b7 4cbf bcf6 9ebe 0fdd a1be
00000390: 6327 423e 7ae1 23bf a0ab a03d c699 68be
000003a0: 1e3e d2be f37f 5cbd ce2f 59bd aff7 debe
000003b0: c976 d83e 1178 6b3e dbad d73e 246a afbd
000003c0: fb68 423d a82d 4dbb 4080 bdbd c6a9 06be
000003d0: 1700 14bd 50f6 cfbd 68cd 163f 063b 99be
000003e0: 7909 6fbe d370 243e 4bbd afbe 5adc 9f3e
000003f0: 2114 163e 4306 cabd 4433 94be a6a1 02be
-0.1347313 -0.20867907 -0.07972554 0.45406163 -0.26507658 -0.06278826 -0.00046188603 -0.33456156
-0.078280434 0.15120034 -0.79217064 0.19523826 -0.44585028 0.007906496 -0.1100083 0.029010464
-0.011425126 0.36289617 0.04028352 -0.08890932 -0.050573103 -0.31589139 0.16200723 0.15569074
-0.514516 -0.28275168 0.3218118 -0.72308457 0.030136092 0.020280413 -0.23489067 -0.20464598
0.049528822 0.7687146 -0.06469529 0.14628829 0.047138922 0.33850378 0.22219679 -0.0747612
-0.44767684 -0.10388599 0.43023136 0.23303515 -0.1450757 -0.61689854 -0.14304246 -0.24436726
0.19190794 0.3392193 -0.0037157736 -0.2719119 0.41834605 0.29000926 -0.46444687 0.15053935
0.1613038 0.2127823 0.123006746 -0.064043246 0.18654202 -1.0024148 0.48906985 0.68988025
-0.9271127 -0.889274 -0.030082146 -0.46916604 -0.17066315 -0.5372199 0.5091471 -0.45177594
-0.118652284 0.43761098 -0.01111711 -0.23123239 0.35051295 0.5902756 0.5668865 1.044884
0.15571351 -0.42587575 -0.19127457 0.04961807 0.17829165 -0.56694967 0.3921029 -0.1525713
0.562525 -0.20877358 -0.03548488 -0.22804576 -0.4242424 0.16111208 -0.088917255 -0.20401087
-0.28241926 0.20378062 0.32017234 0.031500865 0.24795829 0.31540334 -0.8134966 0.59341127
-0.34942034 -0.13463317 0.18061978 -0.4186375 -0.033706747 0.20373163 -0.10196349 0.34059772
0.38875517 0.2681046 -0.22502589 0.37398863 0.033374403 0.47155833 0.031303667 -0.23509064
-0.16745856 -0.19957723 0.19640563 0.024335992 -0.32444036 -0.35022366 0.041978385 -0.1662665
-0.09622782 -0.013489152 -0.30599505 -0.38509995 -0.20241773 0.17403977 -0.3660307 0.20347647
-0.029199732 0.4507555 -0.3473356 0.2252443 0.12924112 -0.46537104 -1.0434072 0.5256565
-0.6568783 -0.5429671 -0.23786958 -0.5368945 -0.1598123 -0.025776628 0.28364623 0.33363461
-0.21200532 0.10349493 -0.50603205 0.049511697 0.0026434744 0.6698803 -0.29922527 0.17625403
0.14753225 -0.40414044 0.17039567 0.122684486 -0.33801305 -0.40589157 0.13670537 -0.10911423
0.34237108 -0.29107654 0.096514046 0.26089957 -0.24038179 -0.07080683 0.47232482 -0.5686183
0.11789225 0.3786236 0.27021962 0.18821555 0.13480288 -0.45926487 -0.012433894 -0.35483187
-0.508861 -0.13624129 0.3089396 -0.6092706 0.2695111 -0.30445218 0.1048627 -0.040774878
-0.45806524 0.01651074 0.12919368 -0.4837067 0.095712 0.35137576 0.28092146 0.34149858
0.32151613 -0.052039824 0.064197056 -0.044856552 -0.15700912 -0.23138055 0.5204747 -0.17697404
0.26191536 -0.11453789 -0.29828072 -0.00784552 -0.40068588 0.23304488 0.37956744 -0.39267102
0.16085656 0.20850568 0.42358878 0.0225874 0.10829405 -0.944734 -0.054716777 -0.21220507
-0.33698514 -0.79966956 -0.31047618 -0.31613967 0.18960337 -0.64015925 0.07845235 -0.2271491
-0.41063017 -0.05383296 -0.053024106 -0.43548343 0.42278126 0.2299502 0.4212483 -0.085651666
0.0474634 -0.003130773 -0.09252977 -0.13150701 -0.0361329 -0.10154402 0.58907175 -0.29927844
-0.23343457 0.16058664 -0.34324107 0.31222802 0.14656116 -0.098644756 -0.28945363 -0.12756976
