model/saved_models/en_transfer/model_fr_to_en_epoch_1.pt (torch_old, 231736 bytes, 23 tensors)

weight f4 [74, 20]
000000 00 00 00 00 00 00 00 00 00 00 00 00 00 00 00 00
       0.0 0.0 0.0 0.0
000010 00 00 00 00 00 00 00 00 00 00 00 00 00 00 00 00
       0.0 0.0 0.0 0.0
000020 00 00 00 00 00 00 00 00 00 00 00 00 00 00 00 00
       0.0 0.0 0.0 0.0
000030 00 00 00 00 00 00 00 00 00 00 00 00 00 00 00 00
       0.0 0.0 0.0 0.0
000040 00 00 00 00 00 00 00 00 00 00 00 00 00 00 00 00
       0.0 0.0 0.0 0.0
000050 14 c6 cd 3b 77 34 c8 bc cc 57 0e bc ea 61 0a bd
       0.0062797163 -0.02443908 -0.008687925 -0.033784784
000060 35 2f 41 bc a7 39 de bc d8 36 8c 3d 11 c3 59 bc
       -0.01179104 -0.0271271 0.06846398 -0.013291136
000070 ad b8 75 bc 77 5c cb 3d e0 00 44 bd 75 e6 93 3f
       -0.014997643 0.09929746 -0.047852397 1.1554705
000080 94 ba 0c bd 52 4e e0 3d 80 10 98 3c e8 3d 88 be
       -0.034357622 0.109524384 0.018562555 -0.2660973
000090 89 d7 bc 3d 15 76 d0 bc fd c8 44 3d dc 7a 92 bc
       0.092207976 -0.02544693 0.04804324 -0.01788085
0000a0 59 ca 82 3e ad 99 c6 be e4 b0 65 3f 90 92 b2 3e
       0.25545004 -0.3878912 0.8972304 0.34877443
0000b0 89 bc 9c bc 6f dc 0d 3f 64 ac 82 be be a0 e8 bd
       -0.01913287 0.5541448 -0.2552215 -0.11358784
0000c0 fb a5 aa 3e 89 11 45 3e ad 26 97 3f d0 14 a8 be
       0.33329758 0.1924497 1.1808678 -0.3282838
0000d0 7c d0 67 bf 24 27 90 3c 15 67 96 3f cd 51 10 bf
       -0.90552497 0.017596789 1.1750208 -0.5637482
0000e0 c1 0d 00 be b0 cc 9a be 75 bb a7 3f dc 83 c7 3c
       -0.12505247 -0.3023429 1.3104082 0.024354868
0000f0 fa 2b 6b bd 34 10 fc bc 27 12 3a bd 17 f6 31 3d
       -0.057414986 -0.030769445 -0.045427468 0.04344758
000100 a3 4e 62 3d 21 a5 71 3b c3 3b 49 3e 04 40 b3 3d
       0.055250775 0.0036872106 0.19651704 0.087524444
000110 86 42 14 be 4a 00 9e 3d 94 7f 55 3d 0a c4 c8 be
       -0.14478502 0.07714899 0.05212362 -0.39212066
000120 7b 71 dc 3e 21 b5 02 be 35 68 a3 bd d5 29 90 bc
       0.4305533 -0.12764408 -0.0797886 -0.017598072
000130 b3 d1 4d 3d 44 bf fb bd bf 46 9d 3d 6a a4 e1 3d
       0.050248813 -0.122923404 0.07679509 0.110176876
000140 36 a0 84 bc 83 c3 38 3e 0d 95 a5 bd 9b ae 39 bc
       -0.016189676 0.18043332 -0.0808507 -0.011333133
000150 3b 5b 6c bd 56 bb be 3d bb 85 74 bc ea 6b 5e bb
       -0.05770419 0.09313075 -0.014924462 -0.0033938834
000160 e2 1e 81 bb 97 ee f0 bd 74 1f 96 bc 0d 69 47 3e
       -0.003940449 -0.117642574 -0.018325545 0.19473667
000170 a0 42 84 be 3e f4 f1 3d 6b 92 fe 3c 6e e8 b8 3d
       -0.2583208 0.118141636 0.031075677 0.090287074
000180 b6 33 b8 bc dc 30 14 3d 42 28 ad ba 40 1e 03 3e
       -0.022485595 0.03617941 -0.001321085 0.12804508
000190 ad 0d 97 bf bf 13 ad be a7 73 a8 be e6 d6 2a bf
       -1.1801049 -0.33804128 -0.32900736 -0.6673416
0001a0 9c 25 06 3f d5 5a 88 bf 62 d9 09 3f a9 8e 05 40
       0.5240114 -1.065272 0.53847325 2.0868323
0001b0 82 ae 6e be b2 b4 65 3f 98 2a 45 bf 5d 2d 21 bf
       -0.23308757 0.89728844 -0.7701812 -0.62959844
0001c0 8a 84 77 3f 4a 40 46 bf 63 28 ef 3f f9 b1 04 bf
       0.96686614 -0.7744185 1.86842 -0.51834065
0001d0 99 0c d4 3f f8 09 db be ed 8d 5b 3e 27 a5 29 3e
       1.6566344 -0.42781043 0.21440859 0.16566907
0001e0 94 34 14 3d f3 ef 9a bd 10 71 e5 bd 19 3e df be
       0.036182955 -0.07565298 -0.112032056 -0.43602064
0001f0 14 27 30 bf f6 60 d7 3d 3a a4 ba 3e 09 47 90 be
       -0.6880963 0.10516541 0.3645342 -0.28179196
000200 b1 cd 16 bf 06 7d ca 3e 48 4f c9 3e 5e 61 bb ba
       -0.5890761 0.3954851 0.393183 -0.0014295985
000210 2a 98 02 be b3 93 c2 3e 05 6d 0d bf 5b aa d1 be
       -0.12753358 0.3800331 -0.55244476 -0.40950283
000220 5e f5 0c be d4 04 36 3e 5f 81 32 3e 55 27 9b 3e
       -0.13765475 0.1777528 0.17432164 0.30303445
000230 e9 51 ae 3f 60 d2 34 3e b4 e6 44 be fd 25 65 3f
       1.3618747 0.17658377 -0.19228631 0.8951109
000240 a1 47 9d 3f 08 03 12 3f f8 c8 83 bf e4 a8 12 3f
       1.2287484 0.57035875 -1.0295706 0.57288957
000250 e9 ca 71 bd ac 31 c1 3c 49 20 da be 4f 32 56 3d
       -0.0590314 0.023583256 -0.42602757 0.05229407
000260 74 c1 56 bf 41 10 01 be c5 d7 7a 3f b0 b6 cf be
       -0.83888936 -0.12603857 0.9798549 -0.40569067
000270 90 25 4c 3e 8f d2 d7 bf 6b 81 61 bd 72 7c b5 3e
       0.19936204 -1.6861132 -0.055055063 0.35446507
000280 ee 8b 88 be df 56 c4 3e e6 d0 de be 5b 14 82 3f
       -0.26669258 0.38347527 -0.43518752 1.0162462
000290 c7 0e 95 bf 15 c6 a6 be ab 38 69 bc 69 46 11 be
       -1.1645135 -0.32573 -0.014234702 -0.14187016
0002a0 4f 20 0c 3f 3f 9f a5 3f fc 19 af 3d 07 cf a4 be
       0.547368 1.2939223 0.08549878 -0.321892
0002b0 15 97 87 be b5 85 0e 3e 27 4b 71 bf 78 5b 38 bf
       -0.26482454 0.13918193 -0.942553 -0.7201457
0002c0 a5 c3 24 bf 00 58 fe 3d e2 2b 7e 3e 07 73 38 be
       -0.6436103 0.124191284 0.24821427 -0.1801263
0002d0 7a c1 21 3f f9 ce 3b 3f 9b 10 bb be d7 ee 6f 3f
       0.63185847 0.7336269 -0.36536106 0.93723816
0002e0 98 67 95 3e 7b be 1b 3f 73 50 64 bd 3b a6 8a 3d
       0.29180598 0.60837525 -0.055740785 0.06769987
0002f0 c7 a6 9a be cf 1d b0 3d 98 35 35 be cc 9c 7a bd
       -0.30205366 0.085994355 -0.17696226 -0.06118469
000300 87 42 a3 be 7b c3 1a bf f7 94 a8 3f f2 84 cf 3f
       -0.31886694 -0.6045453 1.317046 1.6212447
000310 bc d6 4c be 9b d6 d3 bd 1a d8 3e bf e8 3a 0e bd
       -0.2000379 -0.10343667 -0.74548495 -0.034724146
000320 be 0d 2a be 1d 8f 09 c0 b9 b3 12 3f 7e c5 1e 3f
       -0.16606805 -2.14936 0.57305485 0.620201
000330 aa db d4 bd ba 10 7a bd 6c ef 47 bf 88 9e 57 be
       -0.1039346 -0.061051108 -0.78099704 -0.21056569
000340 61 92 27 bd 8b e9 07 3e 9a 4a 96 be b9 46 95 3c
       -0.040911082 0.13272683 -0.2935379 0.0182222
000350 99 50 2a 3f df 1d f2 bd 2e b0 25 3f 62 0d 33 3f
       0.6652923 -0.11822104 0.64721954 0.69942296
000360 eb a0 72 3f 9f 9a a3 bd 78 d0 92 be d5 b2 99 be
       0.9477679 -0.07988476 -0.28674674 -0.3001925
000370 94 ed 8b be af ec 21 bd 98 60 a0 3e 65 1c d6 be
       -0.27329695 -0.03953236 0.31323695 -0.41818538
000380 ff 17 fd bd 83 96 61 3e a1 b7 0c 3d 1e b3 41 be
       -0.123580925 0.22030072 0.03435481 -0.18915984
000390 41 0a eb b9 57 cf c6 3e c7 61 2b 3e 21 ff bd be
       -0.00044830333 0.38830063 0.16736518 -0.3710871
0003a0 75 40 9b be c7 e4 ba be f6 8b 00 be f3 f2 3f be
       -0.30322614 -0.36502668 -0.12553391 -0.18745022
0003b0 29 57 78 bb a2 49 e5 3c 3b 1e 19 be bb 8a 6c bd
       -0.0037893748 0.027989212 -0.14952938 -0.05774949
0003c0 b5 d9 a6 3e 95 b5 09 bf 6a 09 dd be 7d d8 a8 3e
       0.32587972 -0.537927 -0.43171245 0.32977667
0003d0 15 aa 7f 3f fa c3 0e 3f 41 c8 d9 bd 73 72 55 bf
       0.998689 0.55767787 -0.106338985 -0.8337776
0003e0 e3 c2 05 3f d3 f1 87 bf 26 7a 34 be c1 2e 2e be
       0.522505 -1.0620674 -0.17624721 -0.17010023
0003f0 48 4f 24 be 22 30 c5 bf a0 2f 17 bf 72 c4 92 bc
       -0.16045868 -1.5405314 -0.59057045 -0.017915938

weight_ih_l0 f4 [200, 20]
000000 03 2b b0 be 1c d5 a8 3e 45 51 3b be 9c 52 20 40
       -0.34407815 0.3297509 -0.1829272 2.505042
000010 3c 25 21 bf 64 b4 83 bb 64 94 16 bf 13 79 b8 be
       -0.6294744 -0.004019307 -0.58820176 -0.36029872
000020 52 aa b4 bf 3e 1e a3 bf 26 bf ba 3e 45 17 e6 3e
       -1.4114478 -1.2743604 0.3647396 0.44939628
000030 29 5e a2 3f 56 2e 65 3f 0f ed 81 3e a7 a9 71 3e
       1.2684985 0.8952383 0.25376174 0.23599873
000040 33 30 1d bf 68 70 88 bf c7 7b b8 be 43 8b 7d 3d
       -0.6140167 -1.0659304 -0.36031935 0.06190039
000050 e2 ee 34 3f 50 e4 db bf bc 61 f5 3e 4b 68 4e bf
       0.70677006 -1.717905 0.47926128 -0.8062789
000060 3a ff 42 3f b4 7a 37 3d 2d 7e 7a be 33 f3 15 bf
       0.76170695 0.044794753 -0.24462195 -0.5857422
000070 6b f9 28 bf 35 e2 4d bf e9 e7 73 3e 6b 86 e1 3f
       -0.6600558 -0.8042329 0.23818935 1.7619146
000080 7a 75 14 3f 4f 39 2d 3f 62 1a b1 3f 15 20 97 be
       0.57991755 0.6766557 1.3836176 -0.29516664
000090 9a 44 0c 3f 8a ec cc 3f bb 64 a2 bd 37 db 62 bf
       0.5479218 1.6009686 -0.07929369 -0.88615745
0000a0 dc 37 54 3f c3 45 fd be cf b1 29 3e c8 42 ef bd
       0.82897735 -0.49467286 0.16571735 -0.116826594
0000b0 c2 c8 14 bf c9 97 98 bf 65 33 bf 3d 71 f1 08 3f
       -0.5811883 -1.1921321 0.093359746 0.5349341
0000c0 c0 0f 1c 3f 3d a2 4e be da 2a b0 3e ca 90 01 3f
       0.6096153 -0.20179076 0.34407693 0.50611556
0000d0 4d ca 5c 3f 63 65 50 bf 3b e3 3c 3e 6e 2e 5f 3f
       0.86246186 -0.81404704 0.18446057 0.8718022
0000e0 5a 9f c8 be e4 34 69 bf 04 3d 37 3f e8 52 3f be
       -0.39184076 -0.9109633 0.7157748 -0.1868397
0000f0 c9 b9 18 3f 61 00 63 3f 41 cf c8 3e 61 f6 12 bd
       0.59658486 0.88672453 0.39220622 -0.035879496
000100 72 56 7d 3f d3 5a 9f 3f 49 40 00 be 9e 9c 93 3f
       0.9896003 1.2449592 -0.12524523 1.1532171
000110 a3 7e 97 bd 8a 27 00 3e b7 be 2d be 54 c4 d1 be
       -0.07397201 0.12515083 -0.16967283 -0.409701
000120 a3 c0 1e 3f 35 95 89 3f 57 38 b6 3e d0 9b 06 3f
       0.6201269 1.0748659 0.3558986 0.525815
000130 39 56 a4 3c 32 fb 36 3e c8 d5 0c be 6a 66 c1 be
       0.020060645 0.17869261 -0.13753426 -0.37773448
000140 21 40 c2 be 09 5b b3 be 28 3f 17 3e 1f e9 b8 3e
       -0.3793955 -0.35030392 0.14770186 0.36115357
000150 9f 31 2c bd 15 20 07 3e aa 0a 34 bf c5 b6 ab 3e
       -0.04203951 0.13195832 -0.7032877 0.3353788
000160 6c 09 d9 3d 9f 4e 21 3f 7c fc cf be 7b 57 5b be
       0.105975 0.6301059 -0.40622318 -0.2142009
000170 22 f6 3d bf 12 8e 98 3e fa e1 6a bf be 1d 76 be
       -0.74203694 0.2979589 -0.9175106 -0.24034783
000180 aa cd 88 3e 49 f5 96 be d2 6b 84 3e 0d 7b 3f be
       0.2671941 -0.29484013 0.2586351 -0.18699284
000190 aa 64 11 3f e2 ea f7 bc 27 9f 64 3e 6b 4e 0b 3f
       0.56794226 -0.030263368 0.22326337 0.5441653
0001a0 6a cb cb be cf 69 ab 3e 30 c7 fd be 05 03 04 bf
       -0.3980363 0.33479163 -0.4956603 -0.5156711
0001b0 25 b3 42 bf fa f5 92 bf 80 09 c6 3f 5d dc 2a 3f
       -0.760546 -1.1481316 1.5471649 0.667425
0001c0 3a 00 18 bf 62 66 52 3e 84 f7 5a bf a9 04 59 bf
       -0.59375346 0.20546868 -0.8553393 -0.84772736
0001d0 a5 bf ef 3e 4e e5 42 3f 6c c8 e3 3e ea 3f 9a 3f
       0.468259 0.7613114 0.44488847 1.2050755
0001e0 de 80 a4 bf b8 1b 42 3e 7f 23 c9 be 8f 42 75 3d
       -1.2851827 0.18955886 -0.39284894 0.05987793
0001f0 73 71 d0 be dd 47 ed be 14 ec d4 be 2e 53 f7 be
       -0.40711555 -0.4634389 -0.41586363 -0.4830565
000200 91 8a f4 be 95 c0 1f 3d d5 b0 2f 3f 17 1c c4 3e
       -0.47761968 0.03900202 0.686292 0.3830268
000210 10 2c a6 3e bb a7 09 3e 12 f6 53 bf 13 e6 cd be
       0.32455492 0.1344289 -0.8279735 -0.40214595
000220 2d 79 e0 be 24 60 bf 3e 61 61 7b bd c2 c8 5a be
       -0.4384245 0.37378037 -0.061372165 -0.21365646
000230 2f 2d db bd a2 31 3c bf 2e 07 3f 3f dd 91 4d be
       -0.107019775 -0.73513234 0.7462033 -0.20075174
000240 68 0b be 3d ec 04 ba be e8 fe af bf 4a ad 94 3f
       0.09279519 -0.3633188 -1.3749666 1.1615384
000250 2e 48 d2 3e c9 18 b4 be bb 65 98 be 11 23 22 40
       0.41070694 -0.3517516 -0.29765114 2.5333903
000260 41 b6 6d be 41 3f 1e be c4 42 03 3f fd 10 83 3f
       -0.23214056 -0.15453817 0.5127375 1.023956
000270 26 6e 30 bd 4d 44 c0 3c c4 a7 dd be 6e 57 af be
       -0.043073796 0.023470068 -0.43292058 -0.3424639
000280 1e 51 c5 be 1b ba 9f bf 53 c2 19 bf 5a 49 98 bf
       -0.3853845 -1.247867 -0.6006214 -1.1897385
000290 41 11 18 3f 79 c8 65 bf 31 24 ac be ea 51 0c 3f
       0.5940133 -0.8975902 -0.33621362 0.5481249
0002a0 75 30 fe 3f 86 3d 31 bf 5b d1 2c 3f 09 f0 87 be
       1.9858538 -0.692345 0.6750695 -0.2655032
0002b0 76 50 72 3e 2e 7a 4c bf 1e 2b cf 3f c5 4f 0a 3f
       0.23663506 -0.7987393 1.6185033 0.5402797
0002c0 b4 83 6f bf d7 a7 c0 be 89 24 a1 bf 34 2f 49 bf
       -0.9356034 -0.37628052 -1.2589275 -0.7858765
0002d0 97 a6 a8 be b8 c4 07 be 7e cc 64 3f 75 d8 3e 3e
       -0.32939598 -0.13258636 0.8937453 0.1863726
0002e0 f4 6e 18 3e db b3 16 3f a0 41 8b 3d ae 38 d4 3d
       0.14886075 0.5886819 0.06799626 0.10362373
0002f0 73 1a ea be 1b 08 93 be 66 33 e2 be 0f e0 54 be
       -0.45723304 -0.2871712 -0.4417984 -0.20788597
000300 22 94 05 be a2 4b 4e 3d 96 7a f3 3e 33 7e 89 3f
       -0.1304479 0.050365098 0.47554463 1.0741638
000310 6f df be be 59 5d d6 bd 18 ca 86 3e 13 8f fc be
       -0.3727984 -0.104670234 0.2632606 -0.49327907
000320 23 f7 5b bf e4 1f 46 bf 6e 23 9f be 6b f3 a6 3e
       -0.85923976 -0.7739241 -0.31081718 0.32607588
000330 3f 48 9a 3f 8b 51 e6 3e fc f1 9d be 01 60 16 3f
       1.2053298 0.44984087 -0.30848682 0.5874024
000340 a3 74 8d be 29 8a 35 3a 26 88 83 be 5a e6 b0 bd
       -0.2762805 0.00069251895 -0.2568981 -0.08637686
000350 f1 c4 09 bf a6 69 2f 3e 48 ce 4c 3e e3 3d 2f bd
       -0.53816134 0.17130145 0.20000565 -0.04278363
000360 2a c5 7b be 0d 75 d2 3d 3e f4 10 3f e4 f0 98 3e
       -0.24586931 0.10276232 0.56622684 0.29871285
000370 df 1f c6 be 3a 84 b6 bf ac 5f 03 3f af c7 82 3c
       -0.3869619 -1.4259102 0.5131786 0.015964357
000380 63 79 ed bd b0 e0 4d bf 9c 59 37 bf e1 fa 8f 3d
       -0.11595418 -0.8042097 -0.7162111 0.07030273
000390 cb f1 52 40 39 52 02 bd 5c 26 44 3e 4b f2 b5 3f
       3.2960079 -0.031816695 0.19155258 1.4214567
0003a0 99 0b cf bf e8 47 b4 bf 81 12 8c be b4 9e fd 3e
       -1.6175414 -1.4084444 -0.27357867 0.49535143
0003b0 62 95 a7 3e e9 17 49 3e 99 04 87 be 12 33 4e bf
       0.32731158 0.19638027 -0.26370695 -0.8054668
0003c0 fe de 80 bf e4 8c a5 bf 3e d6 54 bf 65 b0 de bf
       -1.0068052 -1.2933621 -0.8313941 -1.7397581
0003d0 6a 88 11 3c c3 7f d1 bd b9 3e 9a bd a3 16 9c 3e
       0.008882621 -0.10229447 -0.07531495 0.3048602
0003e0 90 e8 c1 be 74 76 22 3e d6 9a 1f 3f 46 e5 0d 3f
       -0.37872744 0.15865499 0.62345636 0.5542797
0003f0 80 58 fc bd 47 4a 88 be 21 9b dc 3e c7 28 89 bf
       -0.123215675 -0.2661917 0.43087104 -1.0715569

weight_hh_l0 f4 [200, 50]
000000 a7 24 0f c0 68 67 fa bf 42 e7 e9 3d bc b0 73 bd
       -2.236612 -1.9562807 0.11421062 -0.05949472
000010 19 61 48 c0 58 c3 83 c0 0b 25 0b c0 e4 84 18 c0
       -3.1309264 -4.1175957 -2.174136 -2.383111
000020 27 10 47 3e d2 d9 9f 3f eb d2 70 bf 80 9d ee 3c
       0.19439755 1.2488348 -0.94071835 0.029127836
000030 19 01 c6 3f b5 16 04 c1 26 59 07 40 0c 31 65 40
       1.5469085 -8.255544 2.1148162 3.5811186
000040 74 c7 ec bf 08 8e b3 3f 9b 22 4a 40 b4 a9 ef 3e
       -1.8498368 1.402772 3.1583622 0.4680916
000050 8b 7e b2 3f 25 22 03 40 96 88 b7 3f d7 85 9e bf
       1.3944868 2.048959 1.4338558 -1.2384595
000060 16 0d 3b 40 65 89 9c c0 0b c2 85 be 8d 9b 4c be
       2.9226737 -4.891772 -0.26124606 -0.19981213
000070 bb c8 62 bf 17 05 58 3e e6 97 f1 bf c2 89 34 c0
       -0.8858754 0.21095692 -1.8874481 -2.820908
000080 24 7a 3d be 77 9b 86 be 6c c7 8c 40 35 d3 6a 40
       -0.18503624 -0.26290485 4.3993435 3.669141
000090 84 6e 30 3f 55 4f 46 bf fe 72 c0 3f cf 7d 32 40
       0.68918633 -0.774648 1.5035093 2.7889287
0000a0 08 5e b2 3e d4 77 22 40 f2 e7 87 3f 45 92 4c 3e
       0.34837365 2.5385637 1.0617659 0.19977672
0000b0 87 12 5b 40 60 50 87 be 63 dd c0 be 80 75 cd 3e
       3.4230058 -0.2642851 -0.37668905 0.40128708
0000c0 00 c8 b1 c0 e1 6b 85 3f 45 ac 6e bf 11 cb 4b bf
       -5.555664 1.0423547 -0.9323161 -0.7960673
0000d0 aa 76 86 3f fe cb bf 3f 6e 78 e8 3e c6 59 58 3f
       1.0504963 1.4984128 0.4540438 0.84511983
0000e0 df 45 aa 3c 31 2d 30 c0 73 3a 78 3e 59 d5 8a 3f
       0.02078527 -2.7527583 0.24241047 1.0846359
0000f0 b3 9c 4a 3f 0c f0 b0 be 9e 52 84 3e 3c d3 90 3f
       0.79145354 -0.3455814 0.25844282 1.1314464
000100 78 16 d1 3f de 90 06 bf d1 5d aa bf 74 19 e8 3f
       1.6334982 -0.525648 -1.330988 1.8132768
000110 64 e3 14 40 83 15 4b 3f ae ad 1a 3f 10 9f de be
       2.3263788 0.793297 0.60421264 -0.4348073
000120 83 32 13 bf dc 81 aa be b5 48 82 3f 9e 11 3a be
       -0.5749895 -0.333022 1.0178438 -0.18170783
000130 bd 5e f9 bf e5 89 ae 3f f1 d5 4f 3f 4a 0b b6 3e
       -1.9482037 1.3635832 0.81185824 0.35555488
000140 43 26 a3 be f7 95 e4 bf 97 12 b7 3f bb 83 ae bf
       -0.3186513 -1.7858266 1.4302548 -1.3633951
000150 76 f4 13 bf 8d 8f e7 be 69 43 b1 3f 6a 45 3d 3f
       -0.5779489 -0.45226708 1.3848697 0.7393404
000160 9c a7 a5 bc e3 7e 2c bd 97 ee e4 be e5 3c 4a 3f
       -0.020221524 -0.042113196 -0.4471328 0.7899917
000170 f9 c4 41 3e 53 78 b6 be c3 db e1 3f f2 5c 40 3e
       0.18922795 -0.35638675 1.7645191 0.18785456
000180 67 58 9b 3f a2 54 0e 40 7e 3c f1 be 4c 3f ea 3f
       1.2136353 2.2239156 -0.47116464 1.8300567
000190 00 89 ab bf a0 29 9e be a2 0e 48 3e a2 a8 34 3d
       -1.3401184 -0.30891132 0.19536832 0.044106133
0001a0 e1 da 1f c0 28 5e 9b 3e cf 5f ed 3e 7b 68 2e c0
       -2.4977343 0.30345273 0.4636216 -2.725127
0001b0 47 56 79 bf 8a 64 b8 3f 5f 73 01 c0 54 d5 10 3e
       -0.97397274 1.4405682 -2.0226667 0.14143878
0001c0 62 31 14 be 77 75 10 40 36 15 b1 bf 3d 8d 4a 3f
       -0.14471963 2.2571695 -1.3834598 0.7912176
0001d0 29 82 61 be 20 e8 44 bf 4d 8f c7 3f 16 78 51 bf
       -0.22022308 -0.76916695 1.5590607 -0.8182386
0001e0 93 16 9a 3f 3d 88 7c be a7 01 e4 3f 5a 30 22 3f
       1.2038139 -0.24661346 1.7813004 0.6335503
0001f0 59 2a 7f bb bd 3f ab 3f b1 90 13 bf 1b 71 01 bf
       -0.0038935153 1.3378826 -0.57642657 -0.5056321
000200 83 90 26 40 5b 76 f6 3e 57 a1 1f 3f 30 aa 9d 3f
       2.6025703 0.48137173 0.6235556 1.2317562
000210 97 d3 a8 3f 10 48 01 bf 5a d0 af be 79 e9 63 40
       1.3189572 -0.50500584 -0.34338647 3.561125
000220 40 da 23 bf e6 2d 80 c0 bb 6e 99 3e 6c 67 78 bf
       -0.640049 -4.005603 0.29967293 -0.9703281
000230 1f 24 f9 3d ac b9 85 be 11 32 1f bf 1c 08 a3 bf
       0.12165093 -0.2611822 -0.6218577 -1.273685
000240 ac e6 89 40 d6 e2 25 40 5a 20 bb 3e 06 e3 85 40
       4.309408 2.59197 0.3654812 4.183963
000250 28 a8 92 bf 7e 48 3d be 08 3a 2f bf 58 7d 57 bf
       -1.1457567 -0.18484685 -0.68447924 -0.84175634
000260 d8 ee b1 bf 12 d1 1f 3f 48 54 99 be de de cb be
       -1.3901014 0.6242839 -0.29947114 -0.39818472
000270 00 c3 3e c0 72 5d 94 bf 6a a0 14 bf a3 75 e0 be
       -2.9806519 -1.1591017 -0.5805727 -0.4383975
000280 fb 96 f0 be 8f c4 72 3e 43 3e 83 3d 2e 20 24 40
       -0.4699019 0.23707794 0.0640836 2.564464
000290 cd 4d 9a 3f 6d 2d 33 bf bd eb 2c bf 3a b7 97 be
       1.2054993 -0.6999119 -0.6754721 -0.29631978
0002a0 d5 dd 65 bf 2a 37 26 bd cd d9 d6 bf 91 7b 72 3f
       -0.89791614 -0.040579952 -1.6785218 0.947198
0002b0 60 2e ae 3f a6 e4 65 be c5 da 7d 3c 1b dd bb bf
       1.3607903 -0.22450504 0.015494053 -1.4676851
0002c0 13 ae 7a be ab 21 29 bf 19 c8 c3 bf 81 7b ab be
       -0.24480467 -0.66067 -1.529544 -0.33492664
0002d0 e0 d1 ae be f0 cd 9f 3e bf 37 9e 3f 06 5e 2c 3f
       -0.34144497 0.31211805 1.2360762 0.6733097
0002e0 39 d0 4c be ec 77 9f 3f 37 b9 82 3e c3 62 f2 3f
       -0.20001306 1.2458472 0.25531933 1.893639
0002f0 f3 f3 1f 3e 0f 8d a9 3e cb 20 4e 40 69 01 e2 bf
       0.15620403 0.33115432 3.2207515 -1.765668
000300 64 de 28 3f db 52 e1 be 18 c0 3d 3e 8b 5a d4 bc
       0.6596434 -0.44008526 0.18530309 -0.02592208
000310 a0 da 66 bf 55 88 05 40 94 2c 0f 40 38 8c 68 bf
       -0.90177345 2.086446 2.2370958 -0.90838957
000320 af e2 b4 bf 94 67 7e bf ab 05 0a 3f b8 ae f6 bd
       -1.4131678 -0.993768 0.539149 -0.12045044
000330 3d ae b0 3d 2e 9e 68 be 52 0a 79 bf 24 a9 0f 3f
       0.08626983 -0.22716591 -0.9728137 0.56117463
000340 30 47 fa 3e 7e 3a 24 40 40 6c d2 3e a1 c3 72 bf
       0.48882437 2.56607 0.41098213 -0.94829756
000350 eb f0 77 bf 1e 12 0f c1 27 ba ff 3e fa 2c 9e bf
       -0.96851987 -8.941923 0.4994671 -1.2357476
000360 f9 7c e9 bf a7 70 57 be a3 59 22 40 ac cc 20 40
       -1.8241264 -0.21039067 2.536721 2.5124922
000370 59 10 cf 3e 06 8b 4b bf 11 cc 96 bd bf 6b 1a bc
       0.4044216 -0.7950901 -0.07363141 -0.009425103
000380 10 9d f9 3f 2a f7 ad bf 8a 55 a8 bf 64 68 81 bd
       1.9501057 -1.3591053 -1.3151104 -0.06318739
000390 9c 60 4f be bb dc 93 3f 86 19 2b be ac 57 aa bf
       -0.20251697 1.1551737 -0.16708955 -1.3308005
0003a0 1c 23 92 3f 72 21 68 3e 98 57 3a 40 30 11 be 3e
       1.1416965 0.22669008 2.9115963 0.37122488
0003b0 9e 87 14 3f 30 b1 6b 3f 67 d4 12 3f a0 8d 13 3f
       0.58019435 0.9206724 0.5735535 0.5763798
0003c0 6b e9 2c 3f 58 22 2e 3f 26 42 b4 bd 71 c0 d3 bd
       0.6754367 0.68021154 -0.08801679 -0.1033944
0003d0 88 51 28 40 ce b2 4a bf 86 f5 76 bd f4 37 b4 3e
       2.6299763 -0.79179084 -0.060292743 0.3519894
0003e0 50 de 77 be 37 bb 37 3f 47 1e 5d be 52 56 8b 3f
       -0.24205899 0.7177004 -0.21593581 1.0885718
0003f0 8d 36 26 3e 91 d4 13 40 0d 2b 51 3f 93 e4 9d 3c
       0.16231747 2.309849 0.81706315 0.019274032

bias_ih_l0 f4 [200]
000000 9c fd ac bd 98 9f 16 be bb 8a 4f 3f b0 b2 e4 be
       -0.0844681 -0.14709318 0.8107106 -0.44667578
000010 a9 d9 ba 3f 1d d5 e2 3f 34 fc 16 bd b2 67 62 3e
       1.4597675 1.7721287 -0.036861613 0.22109869
000020 3e e5 b9 bd 4f c0 77 3f cb 3c d0 3f 7e 40 01 3e
       -0.090769276 0.96777815 1.6268553 0.12622258
000030 8d eb df bd f2 54 91 3e f4 3d 5d 3d ba 10 82 be
       -0.109335996 0.2838512 0.05401416 -0.25403386
000040 84 f5 b7 3f c8 01 12 3f 03 c5 51 3f 61 64 de 3e
       1.43718 0.5703397 0.8194124 0.43435958
000050 c6 77 0d 3f f6 57 b9 3e 38 f0 08 3f b0 85 d5 be
       0.55260885 0.3619992 0.53491545 -0.41703558
000060 20 01 ac be d3 fc 81 3f 81 63 f5 bd 62 04 45 3f
       -0.33594608 1.0155281 -0.119818695 0.7695981
000070 70 03 34 3f 13 01 fb 3e 55 1b b8 3f 3e 47 1b 3f
       0.70317745 0.49024257 1.4383341 0.6065558
000080 91 69 8c 3e 9d a3 78 3f 49 ba 03 3f f4 b9 c0 3e
       0.2742429 0.97124654 0.51456124 0.3764187
000090 16 4a 9d 3f db 03 95 3f d4 8d 52 3e bc 71 fe 3f
       1.2288234 1.1641802 0.20561916 1.9878459
0000a0 3d 72 29 3c 11 0a 9f 3e f9 99 49 bd c5 03 ef be
       0.010342178 0.31062368 -0.049219105 -0.46682563
0000b0 26 7f b8 3f 7e b2 66 3e 16 cd ca 3e dd 81 07 3f
       1.4413803 0.22529027 0.39609593 0.5293253
0000c0 e6 76 2e 40 50 ab cd 3c f4 03 fc be de b8 51 3f
       2.726007 0.025106102 -0.49221766 0.8192271
0000d0 a9 38 a5 3f ad 26 f0 be aa 9a 51 3f b4 ec b9 3f
       1.2907916 -0.46904507 0.81876624 1.4525361
0000e0 f3 ae 78 be fe 7b f7 be c5 8e f0 bc fd 4f fd 3d
       -0.24285488 -0.48336786 -0.029364953 0.12368772
0000f0 2e 4c a0 3e 22 ac 02 3e 3a 05 a8 3c 5d 06 d6 3f
       0.3130812 0.12760976 0.020510305 1.6720692
000100 0c b1 8b be 04 55 aa 3f 9f 4c 0c 3e 09 f7 79 3f
       -0.27283514 1.3307195 0.13701104 0.9764257
000110 a5 fb 3c 3e 18 b1 91 bf 23 70 ae 3f a9 a9 fb 3e
       0.1845537 -1.138217 1.3627971 0.49152878
000120 c7 b4 b8 3e 16 4c 8f bc d5 ec 43 3f bf b8 b3 3e
       0.36075422 -0.017492335 0.7653325 0.35101888
000130 53 b6 8d 3f 2d de 28 3e 6e 51 09 bd 99 3b a5 3e
       1.1071266 0.16491003 -0.033524923 0.32272032
000140 f3 26 6c bf 91 46 45 3f 05 b7 13 3f 7b f7 27 bf
       -0.9224693 0.770608 0.5770114 -0.65612
000150 06 c0 d1 be e4 48 38 bf 19 ad 2a bf 05 5d 93 3e
       -0.40966815 -0.7198622 -0.66670376 0.28781906
000160 f1 45 ba 3e 07 87 ff bf 7b 3c 81 3f 63 42 ad 3e
       0.36381486 -1.9963082 1.0096582 0.33839712
000170 97 05 8f 3e f9 19 47 3c fa c9 37 3e d9 e2 4d be
       0.27933952 0.012152188 0.17948142 -0.20106067
000180 bd cc a3 bd 5c 64 c1 be 4d d6 15 3f 62 ae 17 be
       -0.07998035 -0.3777188 0.5853012 -0.14812616
000190 f9 e6 1f bf 90 24 1c bf 69 23 09 be ae 9a 93 3f
       -0.6246181 -0.6099329 -0.13392414 1.153158
0001a0 b9 0d 0f 3f d9 f4 33 bf a4 03 69 bf d5 69 e6 bd
       0.55880314 -0.7029548 -0.9102118 -0.112506546
0001b0 38 a2 f6 3e ba fe 31 3e 0f 16 cb bd a5 a6 84 bf
       0.48170638 0.17382327 -0.09916317 -1.0363356
0001c0 a3 12 41 bf 98 93 38 3f bf 57 9d bd 64 b5 50 3f
       -0.7541906 0.7210021 -0.07682752 0.8152678
0001d0 31 ad d5 be 76 88 ea 3e c5 bd 8b 3e 3d 8c bb 3e
       -0.41733697 0.45807236 0.2729322 0.3663043
0001e0 bb 3f cc be 2f d0 58 bf 04 d2 0c bc 7f 94 f6 3e
       -0.39892372 -0.8469266 -0.0085949935 0.4816017
0001f0 02 be a1 3f 9c f3 1f bf 55 ee 85 3e 22 0e 20 3e
       1.2636111 -0.62481093 0.26158395 0.15630391
000200 fb 3d 78 be f6 6a 5d 3f 4a 3f 29 bf 51 19 c8 3e
       -0.24242394 0.86491334 -0.66112196 0.39081815
000210 1f 54 c4 3d 67 bc 86 3e 78 98 26 be a4 26 cb be
       0.09586357 0.26315615 -0.162691 -0.39677918
000220 05 1f 0a bf ad c3 05 3f 0e b9 69 3f b9 54 4b 3f
       -0.5395358 0.522517 0.91297996 0.7942615
000230 0b a3 98 3e c9 53 5c bf ad ef 31 bf 47 62 a3 3e
       0.29811892 -0.86065346 -0.6950634 0.31910917
000240 b3 01 1e bf 14 e9 27 3f 44 b7 06 3f 0b ed 24 3e
       -0.6172134 0.65590024 0.5262339 0.1610605
000250 14 1b 24 3f 8e d0 4d 3e cb e1 9c bd 49 2a 17 3f
       0.6410382 0.20099089 -0.07660254 0.590489
000260 36 44 da 3e 38 e2 1c 3f c7 b3 b0 3f f6 12 30 3f
       0.42630166 0.6128268 1.3804864 0.6877893
000270 ad 2e 7e bd 7f 9f ed 3e c1 42 0f be 04 cf 12 3f
       -0.062056232 0.46410748 -0.13990308 0.5734713
000280 e7 c8 13 3f 81 4c 85 3e a8 29 67 bf d8 22 28 bf
       0.5772843 0.2603493 -0.9029794 -0.6567817
000290 dc 9c 37 3f 3c 3c 1d 3f ee e1 31 3f 71 e5 91 3e
       0.71723723 0.61420035 0.69485366 0.28495362
0002a0 aa 24 00 be 59 fa 91 3f 66 3d c3 3e 78 b5 32 3f
       -0.12513986 1.1404525 0.3813278 0.6980815
0002b0 73 41 cf bc 11 33 f7 3d f6 ad 57 bf 64 a5 f8 be
       -0.025299763 0.12070287 -0.8424982 -0.48563683
0002c0 5b 53 18 bf 16 e2 0f 3f ed c1 83 3d 85 68 74 3e
       -0.5950219 0.56204355 0.06433473 0.23867996
0002d0 ed 4b dd 3e 68 40 8a 3f 38 85 af 3e 96 be 85 3f
       0.4322199 1.0800905 0.34281325 1.0448787
0002e0 b8 ab 11 3f ca f0 b0 be c6 e6 a8 3e 96 98 ec 3e
       0.56902647 -0.34558707 0.32988566 0.46210164
0002f0 5c 54 c6 3f 86 72 b9 3f 60 c1 29 bf 60 18 22 bf
       1.5494494 1.4488075 -0.6631069 -0.63318443
000300 c5 a1 2f bf 96 f8 96 3f 3a ed 3e 3f f8 76 77 bf
       -0.68606216 1.1794612 0.7458073 -0.96665907
000310 cc 97 7b 3e 46 b9 15 bf 27 81 a5 3e a6 dc 31 3f
       0.24569625 -0.5848583 0.32325098 0.6947731

bias_hh_l0 f4 [200]
000000 86 7f 8b bd 6b fc 80 be 33 6f 83 3f 6d 29 fc be
       -0.068114325 -0.2519258 1.026831 -0.49250355
000010 38 31 c8 3f af d0 e0 3f 74 6f 84 bd 8c 6c 28 3e
       1.564002 1.7563685 -0.064665705 0.16447657
000020 e1 e1 ba bd 8e fe 90 3f a4 ac d4 3f bc 4b e6 3b
       -0.09125114 1.1327684 1.6615186 0.007028071
000030 c9 e8 dc bd eb cf 46 3e 53 ca 70 3e 05 e8 fb bd
       -0.10786588 0.19415252 0.2351468 -0.123001136
000040 c3 99 c9 3f 47 f9 2b 3f be b4 61 3f aa fc f9 3e
       1.5750049 0.6717724 0.88166416 0.4882558
000050 1e 8f ae 3e 2e 7a c6 3e 06 cd 41 3f 31 6d cd be
       0.34093565 0.3876509 0.75703466 -0.4012237
000060 34 88 ba be 94 c3 81 3f 8a 29 7c 3c d3 34 30 3f
       -0.3643204 1.0137811 0.015390763 0.68830603
000070 47 b9 07 3f c6 b9 13 3f c5 ff bd 3f 53 f3 02 3f
       0.53017086 0.5770534 1.484368 0.51152533
000080 bd 33 a0 3e 72 4b 7d 3f 62 c0 e8 3e b4 b8 86 3e
       0.31289473 0.98943245 0.45459276 0.26312792
000090 8c 51 92 3f 72 dc 85 3f bf fd 6d 3e b3 53 dd 3f
       1.1431136 1.04579 0.23241328 1.7291168
0000a0 fd d6 d2 38 17 e1 1e 3e 5d 31 d2 3d e4 27 13 bf
       0.00010053625 0.15515552 0.102633215 -0.57482743
0000b0 84 68 ac 3f 4f 86 c3 3e d7 e8 1b 3f 05 e5 0a 3f
       1.3469396 0.38188407 0.6090216 0.54255706
0000c0 5c c8 2e 40 d2 3a 51 bd 5e eb de be 29 23 33 3f
       2.730979 -0.051081486 -0.43538946 0.69975525
0000d0 b8 2b aa 3f 8b a8 d9 be 96 d1 21 3f 4c 85 b8 3f
       1.3294592 -0.425114 0.6321043 1.4415679
0000e0 ec 83 03 be 96 97 d8 be 74 0a 3c 3d a2 3f 71 3e
       -0.12843293 -0.4230315 0.045908406 0.2355943
0000f0 9a d6 c2 3d ea 07 54 3d 99 e2 4d bd a8 2f c7 3f
       0.09513588 0.05176536 -0.05026493 1.5561419
000100 38 e4 c4 be d7 84 b2 3f 8f 8a 52 3d d5 a4 5c 3f
       -0.38455367 1.394679 0.05140167 0.86189014
000110 cb db 85 3d 7e eb 72 bf 4d 0c 98 3f 87 06 d5 3e
       0.06536063 -0.9489058 1.1878754 0.41606542
000120 92 14 bf 3e ad 9d ec 3d 8b eb 1e 3f ab 29 3e 3e
       0.3732038 0.11553512 0.6207816 0.18570583
000130 ff de 85 3f 7c 01 49 3e ca 47 a7 3c ec 20 e2 3e
       1.0458678 0.19629472 0.020419974 0.44165742
000140 2f 7e 77 bf 43 d4 34 3f 8c 34 dc 3e 5e 1f 0f bf
       -0.96676916 0.70636386 0.4300884 -0.5590724
000150 f8 40 25 bf 50 cb 26 bf 0b 7e 2f bf 38 79 96 3e
       -0.6455226 -0.6515398 -0.685517 0.29389358
000160 de 27 4e 3e b8 6a fe bf cb 83 56 3f 46 31 bb 3e
       0.20132396 -1.9876318 0.8379485 0.3656103
000170 4c f7 88 3e 2d d5 7d 3e 4e da 1e 3e 84 34 50 be
       0.26751173 0.24788351 0.15512964 -0.20332533
000180 5c ed a7 3d 8d ea 5f be 87 e5 0d 3f 8c f4 71 be
       0.081995696 -0.21866818 0.55428356 -0.23628443
000190 e9 b5 29 bf 8e ed 21 bf b0 12 8f bd a9 b4 84 3f
       -0.662932 -0.63253105 -0.06985986 1.0367633
0001a0 1a 8f 29 3f dc bc 39 bf 94 04 74 bf 6e ed 83 bd
       0.6623398 -0.725538 -0.95319486 -0.064417705
0001b0 b5 3c 0e 3f 66 8e 47 3e e3 bf 77 be dd 86 77 bf
       0.5556138 0.19487914 -0.24194293 -0.9669016
0001c0 5a 6f 57 bf f6 70 21 3f bf d7 6d bd 34 ba 4d 3f
       -0.84154284 0.6306299 -0.05806708 0.8036225
0001d0 f7 d5 07 bf 90 1f f9 3e 38 89 24 3e 88 7f 39 3e
       -0.5306086 0.48656893 0.1606797 0.18115056
0001e0 64 d5 d0 be 7e 1f 5f bf 73 e7 2c be c4 7f 11 3f
       -0.40787804 -0.8715743 -0.16885166 0.5683558
0001f0 e8 ef a8 3f df 79 3e bf 27 46 8b 3e 18 70 46 3d
       1.3198214 -0.7440471 0.2720196 0.048446745
000200 88 7d 49 be ef 18 86 3f b7 67 1e bf 1b 74 c5 3e
       -0.19676793 1.0476359 -0.61877006 0.38565144
000210 3c bb 16 3d 15 1b be 3e 75 42 a7 be 7e 3f 9f be
       0.036799654 0.37130037 -0.3266789 -0.31103128
000220 eb b3 be be 9b 72 03 3f a9 c2 7d 3f 89 a6 1b 3f
       -0.37246642 0.5134675 0.9912515 0.6080099
000230 7b 79 86 3e 90 88 46 bf a5 f2 fb be b7 a0 3e 3e
       0.26264557 -0.7755213 -0.4920856 0.18615995
000240 ef 9c 04 bf 55 35 25 3f ca d2 11 3f 01 78 bc 3e
       -0.5180196 0.64534503 0.56962264 0.36810306
000250 2e 14 16 3f a6 aa 6e 3d fc 46 07 3e 04 52 20 3f
       0.5862454 0.05826821 0.13210672 0.62625146
000260 53 f5 a0 3e ab 98 18 3f d4 9f c3 3f b9 fb 2b 3f
       0.31437168 0.5960795 1.5283151 0.67180973
000270 51 35 b9 bd 82 ae b9 3e 1c f1 bd ba 13 7f 1b 3f
       -0.090433724 0.3626595 -0.0014491412 0.60740775
000280 9b c6 06 3f 43 ff a1 3e ba 75 46 bf 94 ea 5a bf
       0.526468 0.31640062 -0.77523386 -0.8551419
000290 16 1a 27 3f 27 ae fc 3e 92 2d 1b 3f 6c 38 83 3e
       0.6527418 0.49351618 0.6061641 0.25628984
0002a0 68 34 5f b9 70 b7 9f 3f 5a 32 ce 3e c8 44 01 3f
       -0.0002128646 1.2477856 0.4027279 0.50495577
0002b0 d2 e6 83 be 97 b7 17 bb 1e 53 6e bf 22 f8 d2 be
       -0.2576204 -0.00231502 -0.93095577 -0.41204935
0002c0 79 4d eb be 00 41 02 3f bc 41 d3 bd f5 79 8d 3e
       -0.45957544 0.5088043 -0.10315272 0.27632108
0002d0 39 08 a9 3e fd 58 75 3f 55 76 b2 3e 2a 25 73 3f
       0.33014086 0.9583891 0.34855905 0.9497858
0002e0 17 16 f8 3e cc 94 96 be 27 88 d1 3e 57 a9 f0 3e
       0.48454353 -0.29410398 0.40924188 0.47004196
0002f0 07 22 bb 3f d8 0d a7 3f d7 76 1c bf e0 11 1e bf
       1.4619759 1.30511 -0.61118835 -0.61746025
000300 c3 6f 4d bf ca 90 84 3f 08 11 80 3f 81 70 59 bf
       -0.8024866 1.0356686 1.0005198 -0.8493729
000310 60 48 03 3e b6 2f 23 bf eb 40 a3 3e d3 c9 f5 3e
       0.12820578 -0.63744676 0.31885466 0.48005542

weight f4 [74, 50]
000000 f7 ca 38 bf 15 f1 92 3f 64 c2 2a 3f 26 7b aa bf
       -0.721847 1.1479822 0.66702867 -1.3318832
000010 24 a1 13 bd bf b4 10 bf 63 2e f1 3d 43 b1 5f be
       -0.036042348 -0.56525797 0.11776426 -0.21844964
000020 a7 97 a4 bf 42 b0 eb be 31 93 00 3f f8 fc c3 3f
       -1.2858781 -0.46032912 0.50224596 1.5311575
000030 bb 13 79 3f 2d 89 0e 3c 7d 78 35 3f 4c eb af bf
       0.9729573 0.008699697 0.70886976 -1.3743682
000040 03 16 a4 3f e0 37 9d be 83 99 8a bf de 69 b8 3e
       1.2819217 -0.30706692 -1.0828098 0.3601827
000050 e8 0f 64 3f d7 24 8f 3f 90 88 c6 bf cd c4 17 bf
       0.8908677 1.1183118 -1.5510426 -0.5928467
000060 a6 8c a3 be d9 df 3b be 9b 88 ab 3e ab 07 c3 be
       -0.31943244 -0.1834711 0.3350266 -0.38091788
000070 39 04 e0 3e c7 e2 b0 bf 4d 65 73 3e a0 72 97 bf
       0.43753222 -1.3819207 0.23769112 -1.1831856
000080 37 f5 85 be d2 21 f4 3e 28 3f 8a 3e 9b 03 c3 3f
       -0.26163647 0.47682053 0.2700131 1.5235475
000090 e9 59 b7 3f 78 87 e1 be 0c 00 b5 bf 38 84 77 3e
       1.4324313 -0.44048667 -1.4140639 0.24171531
0000a0 6a c4 41 bf e8 37 71 3f 3e a4 be 3f 73 46 1a 3e
       -0.7569033 0.9422593 1.4893873 0.15065937
0000b0 f4 92 49 3e f3 dc a1 bf 18 34 91 bf d2 75 d7 bd
       0.19684964 -1.2645553 -1.1344023 -0.10520519
0000c0 14 67 89 bf b9 e1 d0 3f a1 5a 0d bf 79 31 8a 3f
       -1.0734582 1.6318885 -0.55216414 1.0796348
0000d0 aa b8 e3 3e 20 ef a4 bf dd 47 66 bd ae cf 0a bf
       0.44476825 -1.2885475 -0.056220878 -0.54223144
0000e0 ba 58 83 3c 81 11 32 3c 68 2e 96 bf 03 44 ef be
       0.016033519 0.010868431 -1.1732912 -0.46731576
0000f0 7e 52 0a 3f 1f 5e a9 3f df 77 59 3f b9 e7 0c 3e
       0.54032123 1.3231848 0.84948534 0.1376027
000100 c8 cc 4e 3f cb 1d 97 bf d3 e9 a4 3f 83 fa 82 be
       0.8078122 -1.1805967 1.2883857 -0.2558175
000110 a3 24 90 bf 9a 68 c4 3e fe 4c 72 3f dc 77 7c 3f
       -1.1261181 0.38361055 0.9464873 0.9862039
000120 d1 ff b0 bf 6f c4 1f bf e6 5b ec be fd 00 18 be
       -1.3828069 -0.6240911 -0.46163863 -0.14844127
000130 3a 26 6f 3e 95 f5 e9 be 2e f9 f8 3e 68 0b b0 bf
       0.23354426 -0.45695177 0.4862761 -1.3753481
000140 a3 15 9e 3e 92 2c 89 bf 66 1d 5f be 8a ad f3 3e
       0.30875883 -1.0716727 -0.21788558 0.47593337
000150 77 fa 90 3e 63 e4 b6 3f 33 8a aa 3f 36 f7 da be
       0.2831609 1.4288448 1.3323425 -0.42766732
000160 bf 82 a3 bf c4 30 5f 3e 4d 1f 36 bf 37 cb 4d 3f
       -1.2774276 0.21795946 -0.7114151 0.80388206
000170 eb a1 d5 3f a4 1c e8 3d bc 44 22 3e 67 6b a9 bf
       1.6690038 0.11333588 0.15846533 -1.3235902
000180 87 ad 90 bf 27 ad 10 3d d2 8f 90 bf 30 c3 dc 3f
       -1.1302956 0.03532138 -1.129389 1.7247066
000190 e5 12 a0 3f 10 40 45 bf 57 68 50 3f b3 de 45 be
       1.2505766 -0.77050877 0.8140921 -0.19323234
0001a0 e3 3b cb bf a7 16 a7 3f 4c e5 a9 be e8 95 3c bf
       -1.5877651 1.3053788 -0.33182752 -0.7366624
0001b0 f3 42 da 3e 18 64 0e be 33 b5 7e 40 be 9c a2 3f
       0.42629203 -0.1390537 3.9798095 1.2704084
0001c0 e8 7d 5b c0 5c 4b 7c bf 83 0f 44 3e de fc 4f 3f
       -3.4295597 -0.9855249 0.19146542 0.8124522
0001d0 8f 74 ca bf a8 76 c8 bf 57 87 26 be fd 1b 66 be
       -1.5816821 -1.5661211 -0.16262566 -0.22471614
0001e0 81 9c 39 3f 5a 63 cd be 04 fa 2a 3f 0c 45 78 3e
       0.7250443 -0.40114862 0.66787744 0.2424509
0001f0 61 41 86 bf 73 b1 d4 be 8c c2 19 3f 25 f6 76 bf
       -1.0488702 -0.41541633 0.6006248 -0.96469337
000200 94 ea 06 bf 39 44 e1 3d 63 86 1b 3f 13 ec 47 3f
       -0.5270169 0.109993406 0.6075193 0.78094596
000210 b3 0a 53 bf 5c be df bc 15 63 0d c0 37 76 14 40
       -0.824382 -0.02731245 -2.2091725 2.3197153
000220 86 be b3 3f 81 31 9e 3f 51 4d 92 3d 9e 8a a5 3e
       1.4042518 1.2358857 0.07143653 0.3233232
000230 94 b9 98 3f e0 36 76 bf a6 eb 04 bf 9b 09 04 be
       1.1931634 -0.9617748 -0.5192207 -0.12894289
000240 d1 ae c7 bf 34 94 b0 3f 36 9f f0 3e 4e 3a 0e 3f
       -1.5600225 1.3795228 0.46996468 0.55557716
000250 37 97 3d bf 2e 1f 43 3d b1 e7 9e 3f bb 53 bf be
       -0.7405886 0.047637157 1.2414457 -0.3736857
000260 e0 0b 16 bf 06 61 44 c0 a1 12 a0 be 8f 65 9d be
       -0.5861187 -3.0684218 -0.31264213 -0.30741546
000270 18 78 4e 40 1b c6 af c1 d7 9a 33 3f 28 36 13 bf
       3.22608 -21.971731 0.7015814 -0.5750451
000280 aa e4 a0 bf bb a2 ce 3f aa 1f 82 3f 2d 05 c0 3e
       -1.2569783 1.6143411 1.0165913 0.3750395
000290 bd 52 d1 bf 91 b0 0b c1 84 73 d6 3e 6b 11 90 c0
       -1.6353375 -8.730607 0.41885006 -4.502126
0002a0 91 6e b8 bd 7b 4a a5 3e 96 7b 20 41 0a 03 d9 bd
       -0.09005464 0.32283387 10.030172 -0.10596283
0002b0 34 97 93 bf b5 91 0b bf ef b9 aa 3f a4 77 21 3f
       -1.1530519 -0.54519206 1.3337992 0.6307318
0002c0 9b d4 37 40 a9 2d 29 40 3f 7d 86 be 63 43 d7 bf
       2.8723514 2.6434119 -0.2626743 -1.681744
0002d0 b9 0c 29 bf a7 7a c0 c0 aa 71 bc be 04 9c aa bd
       -0.6603504 -6.014972 -0.3680547 -0.08330539
0002e0 88 c2 a4 3f 5e c2 01 3f 1a f3 93 40 5f de cc bf
       1.2871866 0.50687206 4.6234255 -1.6005362
0002f0 57 fb 46 bf 1f 70 bb bf d1 c8 fa be 14 ec 3f 40
       -0.77727264 -1.4643592 -0.48981336 2.998784
000300 ea 31 b7 be 4c c4 1d 41 b8 24 5b c0 db a7 46 c0
       -0.3578027 9.860424 -3.4241161 -3.103995
000310 4e fe 22 c0 e6 60 ee 3e 42 69 3e c0 a8 69 f0 3f
       -2.5467715 0.46558303 -2.9751744 1.8782244
000320 6c 91 dd 3d d7 44 69 3f 4d e1 28 c0 34 bb ba be
       0.10818753 0.91120666 -2.6387513 -0.3647095
000330 1c 5d 8f 3f 90 03 39 3e a2 e9 3b 3f 0c b9 72 3e
       1.120029 0.18067765 0.7340337 0.23703402
000340 93 e8 5e bf 1f 54 89 3e 26 bf bd bf 45 22 1e bf
       -0.8707363 0.26821992 -1.4823959 -0.6177104
000350 b5 7c 98 3f 32 d8 22 be 1f 1c 08 3f 75 98 3d 3e
       1.1913058 -0.15902784 0.5316791 0.18515189
000360 2e 3f db 3e 6e c7 e9 bf f1 7f 07 40 4a 03 1e 3f
       0.4282164 -1.8263986 2.117184 0.6172377
000370 88 99 04 bf f7 82 2f 3f 20 c6 26 bf 10 cc b2 3f
       -0.5179677 0.6855921 -0.65146065 1.3968525
000380 3e be 91 3f 4b 0f 94 be 95 c7 35 bf a3 56 87 be
       1.1386182 -0.28917918 -0.71007663 -0.26433286
000390 43 57 03 40 45 a3 07 bf 2c 19 7d bf f3 c1 78 bf
       2.052201 -0.52983505 -0.98866534 -0.97170943
0003a0 a5 4e d9 3f 62 3e 52 bf 55 a3 6d c0 34 e4 85 bf
       1.6977125 -0.8212644 -3.713094 -1.0460267
0003b0 45 ba 32 3f 16 11 83 bf d4 55 99 3e 84 da ce 3f
       0.69815475 -1.0239589 0.29948294 1.6160436
0003c0 f1 4a d6 3d 4b ee 0f 40 33 4a 75 be 99 3c e8 be
       0.10463513 2.2489192 -0.23954086 -0.45358732
0003d0 c5 3a e7 3f ba e9 85 c0 86 bd fe 3e 6c 66 2a be
       1.806481 -4.184781 0.4975397 -0.16640633
0003e0 55 69 c6 bf e8 43 f1 3f bb 3a 2f bf 52 a9 08 be
       -1.5500895 1.8848848 -0.6844899 -0.1334584
0003f0 30 03 90 c0 5c b9 51 40 c5 ae 8e bc 2a 88 1d 40
       -4.500389 3.2769384 -0.017417321 2.4614358

bias f4 [74]
000000 a2 f5 ad bf 89 69 b3 bf 95 7f 96 3f c2 f0 08 c0
       -1.3590586 -1.4016582 1.1757685 -2.1396947
000010 f8 4a 0e 40 07 bb 72 c0 c4 1b 3f 40 a6 b6 99 bf
       2.2233257 -3.7926652 2.9860697 -1.2008865
000020 5c 78 2f c0 87 37 0e bf e4 c9 02 c0 d6 8b 2a bf
       -2.7417212 -0.5555348 -2.0435724 -0.6661962
000030 51 bd db bf 75 65 bd bf 67 75 c4 3f 2b 73 6a 3f
       -1.716715 -1.4796587 1.5348328 0.9158198
000040 2c 26 e1 3d 20 a1 ea bd 48 85 86 bd da 0d 49 bf
       0.10993609 -0.114565134 -0.0656839 -0.7853676
000050 6f 06 8b bf cc cf b7 bf d7 f9 d0 bf a9 9d ad 3d
       -1.0861338 -1.436029 -1.6326245 0.08477337
000060 f1 b8 8e bf 45 bb 2d bf 6e 6c 2f c0 61 47 94 be
       -1.115019 -0.67863876 -2.740993 -0.28960708
000070 f5 59 46 bd 52 e5 25 c0 0e ad c2 bf af f6 28 c0
       -0.048425633 -2.5921216 -1.5209062 -2.6400564
000080 66 3a 61 be e2 b9 27 bf 8d 21 9a bf cf d8 80 bf
       -0.21994933 -0.6551801 -1.2041489 -1.0066165
000090 0f f0 86 c0 3b bd 50 3f 7d 76 ab be 38 98 99 3e
       -4.216804 0.8153874 -0.33488837 0.29998946
0000a0 cd d4 9f 3d e6 11 d8 3d d0 82 05 be ea fd b8 3d
       0.078042604 0.10550289 -0.13038182 0.09032805
0000b0 77 e0 90 3e c3 50 f3 be 43 ea 18 be 29 98 c2 bc
       0.28296253 -0.47522554 -0.14933114 -0.023754196
0000c0 87 45 c9 bc f4 d6 09 bf 6e a5 0d be 7f 48 fb 3d
       -0.024569286 -0.5384362 -0.13832638 0.12269687
0000d0 3a 3c b8 be 14 40 ac be c3 d2 37 3e 99 36 26 be
       -0.3598345 -0.33642638 0.17951493 -0.16231765
0000e0 12 00 68 3e 0b 9e 34 be f2 9e 9e 3f a6 c5 b0 bd
       0.22656277 -0.17638414 1.2392256 -0.086314484
0000f0 aa 63 30 3e fb 1c f6 3e 8f 4d c3 be ec ec 83 3e
       0.17225519 0.48068985 -0.3814511 0.25766695
000100 fd 97 c6 bd c3 2b d1 bd b1 7c bf bd 45 e7 76 3d
       -0.09696958 -0.10213425 -0.09349955 0.06027915
000110 a2 68 96 3e 47 ab 9e bd 5e c5 9a be e3 56 a1 3d
       0.29376704 -0.07747512 -0.30228704 0.078779005
000120 cf c3 e5 bb d3 7c e2 3d
       -0.0070118676 0.110589646

weight f4 [50, 2]
000000 a5 2b 09 3f 67 23 15 3f 1a 41 94 3e f9 c6 2a 3f
       0.5358222 0.58257145 0.2895592 0.6670986
000010 90 ed 77 bd 20 45 88 be 78 ca 08 3e 90 bd 1d 3d
       -0.06052929 -0.26615238 0.13358486 0.03851086
000020 f0 24 43 be 67 24 2e bf c7 de 2b 3f b0 0a 55 3e
       -0.1905706 -0.68024296 0.67136806 0.20804858
000030 4c 51 38 be 00 41 16 3e 73 e7 0e 3f c6 66 f6 3e
       -0.17999762 0.14673233 0.55821913 0.48125285
000040 00 09 66 be 80 7c 49 3d 92 c1 31 bf e5 04 ce be
       -0.2246437 0.049190998 -0.6943599 -0.4023811
000050 40 66 cb 3c e1 26 cc be e4 28 14 be 4c 0e 80 be
       0.02482903 -0.39873412 -0.14468724 -0.25010908
000060 50 4d 67 3d c1 b4 a6 be 98 6a c4 be e7 d4 9a be
       0.056470215 -0.3255978 -0.38362575 -0.30240557
000070 84 42 14 3e f8 72 e8 3d 40 21 1a be f0 12 ff bd
       0.14478499 0.113500535 -0.15051746 -0.12454784
000080 91 2a 1b 3f ca b3 21 bf 00 f7 83 bd a7 9a 0d bf
       0.60611826 -0.6316496 -0.06443596 -0.55314106
000090 5a c2 6f be 7f 1a 23 bf 62 3d f3 3e ad d0 1a 3f
       -0.23413983 -0.63712305 0.4750777 0.60474664
0000a0 69 a4 ba be 91 55 0e bf 3e ee d5 3e 0b 1d fd be
       -0.3645356 -0.55599314 0.41783327 -0.4943622
0000b0 d5 71 19 bf c5 b0 ed be ee 83 04 bf 62 b2 07 bf
       -0.5993932 -0.46423927 -0.5176381 -0.53006566
0000c0 94 d2 39 be f6 bf a8 3e 10 ff 6c be 8e 65 11 bf
       -0.18146735 0.32958955 -0.23144174 -0.56795585
0000d0 a2 f5 f7 3e ce aa 23 bf 0a dc e2 3e 40 3e 23 3e
       0.4842959 -0.639325 0.443085 0.15941715
0000e0 52 75 f9 be 80 a2 07 bf 6f 6f 26 3f 30 49 32 3d
       -0.4872232 -0.5298233 0.65013784 0.04352683
0000f0 7c 54 4e 3e 60 db e1 bc b0 1e 84 bd a1 f1 21 3f
       0.20149416 -0.027570426 -0.06451166 0.6325932
000100 c5 04 e6 be 60 fb 7f 3d e0 fa 8a bd 78 fd cb be
       -0.44925514 0.06249559 -0.06786132 -0.3984182
000110 4a 9c bb 3e e1 ec 19 bf 1a 2b 85 3e 4b c2 e2 be
       0.36642677 -0.60127074 0.26009446 -0.4428886
000120 39 51 0b bf 90 e3 44 be e0 88 d9 3c 48 36 a8 be
       -0.5442081 -0.19227433 0.026554525 -0.32853913
000130 aa b4 8d 3e e0 e2 b0 be 71 a4 e4 be 69 dc b2 be
       0.27676898 -0.34548092 -0.4465671 -0.34933785
000140 b8 48 ea bd 80 0e d5 3d 66 af b3 3e 5e ad 11 bf
       -0.11439651 0.10403156 0.35094756 -0.5690516
000150 19 7f 2a bf 52 34 25 bf 88 bd 4a 3e 04 60 6f be
       -0.66600186 -0.6453296 0.19798863 -0.23376471
000160 2e 99 5e be 8d 08 1e bf 3c 97 6c 3e 05 95 0f 3f
       -0.21738121 -0.617318 0.23104566 0.5608676
000170 a2 6a ef 3e 98 4e e8 bd 5d 62 09 bf d7 98 1b 3f
       0.46761042 -0.113431156 -0.53665715 0.6078009
000180 50 1e d7 3d 24 b7 4e be 1e 11 34 bf 9a d7 d1 3e
       0.105038285 -0.2018705 -0.7033862 0.40984803

bias f4 [50]
000000 d9 7d 2d 3f 9b 78 01 3f 00 02 02 3c 9a e0 bd 3e
       0.67770153 0.50574654 0.007935047 0.3708542
000010 da 85 c8 be d4 3e 7a 3e 79 a1 2e 3f e8 e9 c4 be
       -0.3916462 0.2443803 0.6821514 -0.38459706
000020 ce 28 d1 3e 32 f3 a1 3e 54 83 34 bf e9 f1 24 3f
       0.40851444 0.31630856 -0.7051289 0.64431626
000030 cf 72 0e 3f da 65 e6 be 1a 93 b3 3e d5 e9 b5 be
       0.55643934 -0.44999582 0.35073167 -0.35529962
000040 f8 b9 23 bf 40 6c 8d bd ca ef 9e 3e 30 e1 33 bd
       -0.6395564 -0.06905413 0.3104232 -0.043915927
000050 d4 71 4a 3e 00 20 37 3b 3a 80 da 3e bc 04 81 be
       0.19769984 0.0027942657 0.42675954 -0.25198925
000060 b5 df 03 3f d8 f5 04 3e fa 6d 1e bf 55 5c e1 be
       0.51513225 0.12984407 -0.6188656 -0.44015756
000070 50 87 b9 3d 00 83 f9 3d 66 e5 0a bf 8a cd da be
       0.09059012 0.121831894 -0.54256284 -0.4273494
000080 c0 2e aa 3c 34 67 2b bf b8 3a fd 3d a0 0a 25 bf
       0.020774245 -0.6695435 0.12364715 -0.6446934
000090 8f 2d 08 3f 62 48 b9 3e 73 6d 0c 3f 06 8c e2 be
       0.53194517 0.36188036 0.54854506 -0.44247454
0000a0 da 59 ed be bf db 22 3f 9d 30 1f bf 68 4b 00 3e
       -0.46357614 0.63616556 -0.62183553 0.12528765
0000b0 5c a6 32 3e 0e e0 f7 3e 6d d1 30 3f 62 b1 e7 3e
       0.17446274 0.48413128 0.6906956 0.4525252
0000c0 f5 95 c0 be dd 7f 1b 3f
       -0.37614408 0.6074198
