model/saved_models/en_transfer/model_fr_to_en_epoch_4.pt (torch_old, 231736 bytes, 23 tensors)

weight f4 [74, 20]
00000000: 0000 0000 0000 0000 0000 0000 0000 0000
00000010: 0000 0000 0000 0000 0000 0000 0000 0000
00000020: 0000 0000 0000 0000 0000 0000 0000 0000
00000030: 0000 0000 0000 0000 0000 0000 0000 0000
00000040: 0000 0000 0000 0000 0000 0000 0000 0000
00000050: f380 2cbc 22db 843c d8af 19bc b328 323c
00000060: 5982 46bc 6177 e63b 4bf0 1ebc 6d02 633c
00000070: 972d 033c cb59 40bb 485a ae3c d160 2b3f
00000080: 26fc 363b 785e 46bc 1881 97ba ef5e b93b
00000090: 059a cd3a 1842 ffbb 4ed9 9bba e35c b5bb
000000a0: f338 5e3f f845 adbd 121b 5f3f 96ea 9f3c
000000b0: a002 f03d a544 013f 6560 4bbe d34f d13a
000000c0: dd54 833d 6e01 883d 7ed5 a13f a8d1 c3be
000000d0: bdf8 5abf e42a b03d 7ccb 963f ce2c 1cbf
000000e0: 2afb d7bd 8613 88be 1d2f 933f adeb 4a3e
000000f0: fa2b 6bbd 3410 fcbc 2712 3abd 17f6 313d
00000100: a34e 623d 21a5 713b c33b 493e 0440 b33d
00000110: 8642 14be 4a00 9e3d 947f 553d 0ac4 c8be
00000120: 7b71 dc3e 21b5 02be 3568 a3bd d529 90bc
00000130: b3d1 4d3d 44bf fbbd bf46 9d3d 6aa4 e13d
00000140: b1f2 84bc d0be 383e cc93 a5bd d2cc 39bc
00000150: 50a1 6cbd b1c2 be3d 7d12 71bc a5ff 61bb
00000160: c7ca 7fbb fcc8 f0bd d580 96bc 7974 473e
00000170: 414a 84be 320c f23d 1b31 fe3c d39d b83d
00000180: 5329 b9bc ea21 143d 465f 98ba d010 033e
00000190: ad0d 97bf bf13 adbe a773 a8be e6d6 2abf
000001a0: 9c25 063f d55a 88bf 62d9 093f a98e 0540
000001b0: 82ae 6ebe b2b4 653f 982a 45bf 5d2d 21bf
000001c0: 8a84 773f 4a40 46bf 6328 ef3f f9b1 04bf
000001d0: 990c d43f f809 dbbe ed8d 5b3e 27a5 293e
000001e0: 5de5 e0bc c93d 2abe a83b 313e c79b e9be
000001f0: 6667 a1be 7748 483e f180 c73e d136 38be
00000200: bc36 dcbe 57ae 383d fe4f 7f3e d62e 07be
00000210: 0a89 ccbc 3d71 ee3e a707 e7be 0493 21be
00000220: a8ed b1bd 0a49 8cbe 5271 793e 098e 953d
00000230: e951 ae3f 60d2 343e b4e6 44be fd25 653f
00000240: a147 9d3f 0803 123f f8c8 83bf e4a8 123f
00000250: e9ca 71bd ac31 c13c 4920 dabe 4f32 563d
00000260: 74c1 56bf 4110 01be c5d7 7a3f b0b6 cfbe
00000270: 9025 4c3e 8fd2 d7bf 6b81 61bd 727c b53e
00000280: ee8b 88be df56 c43e e6d0 debe 5b14 823f
00000290: c70e 95bf 15c6 a6be ab38 69bc 6946 11be
000002a0: 4f20 0c3f 3f9f a53f fc19 af3d 07cf a4be
000002b0: 1597 87be b585 0e3e 274b 71bf 785b 38bf
000002c0: a5c3 24bf 0058 fe3d e22b 7e3e 0773 38be
000002d0: 3325 213f 64b2 3b3f f3f4 b9be 8619 713f
000002e0: 9510 973e 42df 1c3f 5166 7dbd f1d3 863d
000002f0: c77e 9cbe 81c0 9e3d 5f99 34be 2e31 74bd
00000300: 5a27 a3be 49ff 19bf 275a a93f 8602 d03f
00000310: f5cd 4fbe ebce d2bd c5be 3ebf 3e89 03bd
00000320: a10b 2abe fb8e 09c0 d4b0 123f c7c3 1e3f
00000330: 53ed d4bd ddf7 79bd 9aed 47bf 8291 57be
00000340: f9a7 27bd 54ed 073e 5948 96be 9543 953c
00000350: c452 2a3f 6c12 f2bd 8dad 253f a10b 333f
00000360: 9b9f 723f bc99 a3bd 76d1 92be 0fb1 99be
00000370: 94ed 8bbe afec 21bd 9860 a03e 651c d6be
00000380: ff17 fdbd 8396 613e a1b7 0c3d 1eb3 41be
00000390: 410a ebb9 57cf c63e c761 2b3e 21ff bdbe
000003a0: 7540 9bbe c7e4 babe f68b 00be f3f2 3fbe
000003b0: 2957 78bb a249 e53c 3b1e 19be bb8a 6cbd
000003c0: b5d9 a63e 95b5 09bf 6a09 ddbe 7dd8 a83e
000003d0: 15aa 7f3f fac3 0e3f 41c8 d9bd 7372 55bf
000003e0: e3c2 053f d3f1 87bf 267a 34be c12e 2ebe
000003f0: 484f 24be 2230 c5bf a02f 17bf 72c4 92bc
0.0 0.0 0.0 0.0 0.0 0.0 0.0 0.0
0.0 0.0 0.0 0.0 0.0 0.0 0.0 0.0
0.0 0.0 0.0 0.0 -0.010528791 0.016217772 -0.009380303 0.010873961
-0.012116038 0.007033274 -0.009700845 0.013855559 0.008006475 -0.0029350396 0.021283284 0.66944605
0.0027921288 -0.012107484 -0.0011558859 0.005657069 0.001568616 -0.0077898614 -0.0011890323 -0.0055347546
0.8680565 -0.08460611 0.8715068 0.019521039 0.11719251 0.5049537 -0.1986099 0.0015969224
0.06412671 0.06640898 1.2643278 -0.38245893 -0.85535794 0.08601931 1.1780849 -0.61005867
-0.105459526 -0.26577395 1.1498753 0.19816466 -0.057414986 -0.030769445 -0.045427468 0.04344758
0.055250775 0.0036872106 0.19651704 0.087524444 -0.14478502 0.07714899 0.05212362 -0.39212066
0.4305533 -0.12764408 -0.0797886 -0.017598072 0.050248813 -0.122923404 0.07679509 0.110176876
-0.016229006 0.18041539 -0.08084831 -0.011340337 -0.057771027 0.09314478 -0.014713881 -0.0034484651
-0.0039030777 -0.11757085 -0.018371979 0.19478025 -0.258379 0.11818732 0.031029275 0.090144776
-0.022602713 0.036165155 -0.0011625073 0.12799382 -1.1801049 -0.33804128 -0.32900736 -0.6673416
0.5240114 -1.065272 0.53847325 2.0868323 -0.23308757 0.89728844 -0.7701812 -0.62959844
0.96686614 -0.7744185 1.86842 -0.51834065 1.6566344 -0.42781043 0.21440859 0.16566907
-0.027453119 -0.16625132 0.17307913 -0.4562666 -0.315242 0.19558893 0.38965562 -0.17989661
-0.4301051 0.04508814 0.24932858 -0.1320146 -0.024967689 0.4657077 -0.45123026 -0.15778738
-0.086879075 -0.27399474 0.24359635 0.07302482 1.3618747 0.17658377 -0.19228631 0.8951109
1.2287484 0.57035875 -1.0295706 0.57288957 -0.0590314 0.023583256 -0.42602757 0.05229407
-0.83888936 -0.12603857 0.9798549 -0.40569067 0.19936204 -1.6861132 -0.055055063 0.35446507
-0.26669258 0.38347527 -0.43518752 1.0162462 -1.1645135 -0.32573 -0.014234702 -0.14187016
0.547368 1.2939223 0.08549878 -0.321892 -0.26482454 0.13918193 -0.942553 -0.7201457
-0.6436103 0.124191284 0.24821427 -0.1801263 0.62947387 0.7331908 -0.36319694 0.9417957
0.2950484 0.61278164 -0.061865155 0.06583393 -0.30565473 0.07751561 -0.17636631 -0.059617214
-0.3186596 -0.6015516 1.3230637 1.625077 -0.2029341 -0.10293373 -0.7450984 -0.032113306
-0.16605999 -2.1493518 0.5730107 0.6201748 -0.103968285 -0.061027396 -0.78096926 -0.210516
-0.040931676 0.13274127 -0.29352072 0.018220702 0.6653254 -0.1181992 0.6471794 0.6993962
0.9477479 -0.07988307 -0.2867543 -0.30017897 -0.27329695 -0.03953236 0.31323695 -0.41818538
-0.123580925 0.22030072 0.03435481 -0.18915984 -0.00044830333 0.38830063 0.16736518 -0.3710871
-0.30322614 -0.36502668 -0.12553391 -0.18745022 -0.0037893748 0.027989212 -0.14952938 -0.05774949
0.32587972 -0.537927 -0.43171245 0.32977667 0.998689 0.55767787 -0.106338985 -0.8337776
0.522505 -1.0620674 -0.17624721 -0.17010023 -0.16045868 -1.5405314 -0.59057045 -0.017915938

weight_ih_l0 f4 [200, 20]
00000000: 229b 0ebf 2a97 a73b 6134 b6be 5558 0c40
00000010: 282c edbe 9c82 85be 764f 4bbe 5774 28be
00000020: 2e38 8ebf 3a71 12bf 6df2 543f 6d7e a43e
00000030: fd7c 843f 2534 1a3f 7c5b a2bd 748d 0c3e
00000040: 9ec9 67be 5ead 54bf 523c e8be a0b8 5a3e
00000050: 2960 5d3f 8735 06c0 672e f0bd a429 02bf
00000060: 72a4 033f d96b 303e decb a1be 7165 25bf
00000070: be38 6abf a5db 5bbf 48a2 463e 4042 1b40
00000080: 94b8 ba3e 58df 453e 4564 893f fc6b c8be
00000090: f8b9 583f 26ff ba3f 7612 34be 5267 02bf
000000a0: 65f0 893d 2e63 cfbc db45 403f 37db 98bf
000000b0: d631 84be 65f2 afbf 1d1a 87be 2bdb f93e
000000c0: f461 a53e ac60 d03d db29 8c3e eb08 263f
000000d0: 839a dc3e 3032 56bf 89cd a63e b705 f33e
000000e0: 326e cabe 2dfd 8cbf 0bbd 88bd 9c9d e23e
000000f0: 929a 973e b58c a63f 3700 58bf f95f d7be
00000100: 73ba 413f 22a5 ba3f b92b 90be 1a5e 873f
00000110: 37a0 e3be 51eb a03e f2a3 46be 2457 43bf
00000120: e4e5 3a3f b754 2b3f bad9 e03d 45e7 fd3d
00000130: c2bd 3e3f 5149 05bf e8d7 a0be ede5 0fbf
00000140: 2104 ecbe 6887 3bbe e41a 48bf 3ecd 923f
00000150: 109b 1ebf bfaf a83e 34f8 e8be 7127 903e
00000160: aaad 8c3b ade5 da3d 8471 91bf cb54 8b3e
00000170: 0227 97bf 6d9b da3c 0b1c 97bf 8bca 3fbe
00000180: e1a1 913f f18f 59bc 7765 f93e 71b4 de3e
00000190: 82a9 ad3d 0118 f2be bcbd 64be d393 0a3f
000001a0: 9795 b3bd cf75 6f3c cd53 28bf 63ca c7be
000001b0: 7122 babe 430d a3bf 6196 c13f 12ef 1d3f
000001c0: 0f15 1abf b40c 113f 079a 84bf a096 97bf
000001d0: 0d10 2b3f 22e1 903f 6976 c03e 4f9d 843f
000001e0: 2b51 89bf aa40 d03d 50a3 debe 6b64 45be
000001f0: cdbb 08bf 031f adbe 1d66 9cbe 8017 0cbf
00000200: fab3 ebbe 54c3 213e 3501 313f d4a2 db3e
00000210: 6388 fd3e 92f4 1f3d ca07 6cbf ca74 1abf
00000220: d3cf a5bb 4cec c33e 2005 e9bd 6b55 e7bd
00000230: 97f9 ae3d 058b 2ebf 5cda e03e 065d d5bc
00000240: c580 28be 1957 dbbe fa64 77bf eb1e ab3f
00000250: 02d1 253e bb03 ddbe ec4d 02bf fd80 3240
00000260: f02a babd 9275 cd3d e77c fb3e 7b9a 423f
00000270: de02 48bd e1f7 ce3e 4fd1 99be 32ab 91be
00000280: 9ba9 febe 01f1 e8bf 0caf 49bf dfb2 cfbe
00000290: e37d 293e 857a 14bf 5681 febe 8452 d73e
000002a0: e241 c43f 6c6a 5abf 0128 153e 9606 553b
000002b0: 4629 603e 447a 5dbf 0067 d63f 2ee5 663f
000002c0: 342b 6dbf 3b27 abbe 94e7 85bf bbf3 e1be
000002d0: f73e aa3d 6c90 86be 4d68 cc3e 39b4 073f
000002e0: e146 22be f070 1b3f 8418 b4bd ec88 3abe
000002f0: cb86 12bf 0c67 f1be 8dfe 18bf e411 c6bc
00000300: 3f4d 80be 9241 00be 2fff e03e d866 a03f
00000310: 2260 efbe 277a a0bd 0191 d93e b5b0 11bf
00000320: 68b2 eabe e4c9 88be 3494 20bf ec09 653f
00000330: cde1 783e 361e 7d3d f96e e0be 54ac 113f
00000340: 55cb dfbe 63a3 b1bd 3264 f43e 3daa 13bd
00000350: 82bf adbf 4d7e 363f 5333 c9be f027 0dbe
00000360: 61a3 acbf 3532 1c3f 473b 233f c728 e83e
00000370: 4f33 a7bd 93a1 84bf 4a31 0d3f 656d 22bf
00000380: 2e2d 2fbf 7087 9cbf bded 82bf bc06 5ebe
00000390: c1ad 3f40 4ea9 293f bdaa 2a3f c3a7 983f
000003a0: 161a e5bf 4b32 aebf 40ff 14bf ffb5 5e3e
000003b0: 05b6 e43e b7dc 453e fd23 223e 362f 4bbf
000003c0: f053 87bf 3d8c 41bf b053 90bf 3bc3 5fbf
000003d0: b7cf f13d 0f75 bdbe 4a1a f7be b34e 2f3f
000003e0: 53d4 16bf 120b e9be 9de4 393f 1765 42bd
000003f0: ca07 3bbd 2519 163e 8844 4a3e 13c8 58bf
-0.55705464 0.0051144557 -0.35586837 2.1928914 -0.4632275 -0.2607621 -0.1985453 -0.1645063
-1.1110895 -0.5720402 0.8318241 0.32127705 1.0350643 0.60235816 -0.079276055 0.13725835
-0.22635505 -0.8307704 -0.4535852 0.21359491 0.86474854 -2.097017 -0.117276005 -0.5084479
0.514228 0.1722864 -0.3160085 -0.6460791 -0.9149283 -0.85882026 0.19397843 2.4259186
0.36468947 0.1932348 1.0733725 -0.39144886 0.84658766 1.4609115 -0.17585167 -0.50938904
0.06735305 -0.025315847 0.7510659 -1.1941899 -0.25819272 -1.3745848 -0.2638711 0.48800024
0.32301295 0.10174689 0.27375683 0.6485736 0.43086633 -0.8367033 0.32578686 0.47465298
-0.39537197 -1.1014763 -0.06676682 0.4426087 0.29610115 1.301169 -0.8437533 -0.4206541
0.75675124 1.4581645 -0.28158358 1.0575593 -0.44458172 0.31429532 -0.19398478 -0.7630484
0.73007035 0.6692614 0.10979028 0.12397627 0.745083 -0.52064997 -0.31414723 -0.56210214
-0.460969 -0.18313372 -0.7816603 1.1468885 -0.61955357 0.32946584 -0.45501864 0.2815509
0.0042931633 0.106883384 -1.1362767 0.2721313 -1.1808779 0.02668544 -1.1805433 -0.18729608
1.1377527 -0.013278947 0.48710224 0.4349704 0.08479597 -0.4728394 -0.22338003 0.5413181
-0.087687664 0.01461549 -0.6575287 -0.39021596 -0.36354402 -1.2738422 1.5124017 0.6169292
-0.6018838 0.5666001 -1.0359505 -1.1842842 0.66821367 1.1318705 0.3759034 1.0360507
-1.0727895 0.10168584 -0.43483973 -0.19276588 -0.5341156 -0.33812723 -0.30546656 -0.5472336
-0.4603575 0.15797168 0.69142467 0.42897666 0.49518117 0.0390516 -0.92199385 -0.60334456
-0.005060175 0.38266218 -0.11377931 -0.11295589 0.08543699 -0.68180877 0.43916595 -0.026045334
-0.16455372 -0.42839888 -0.96638453 1.336881 0.16193011 -0.4316691 -0.5090015 2.7891228
-0.09090221 0.100321904 0.4911873 0.7601697 -0.04883086 0.40423492 -0.30042502 -0.28450924
-0.49738774 -1.8198549 -0.78782725 -0.40566155 0.16551928 -0.5799945 -0.4970805 0.42055142
1.5332606 -0.85318637 0.14566042 0.0032505146 0.21890745 -0.8651469 1.6750183 0.9019345
-0.9264405 -0.33428368 -1.0461297 -0.44131264 0.08312791 -0.2628206 0.39923325 0.5300937
-0.1584735 0.60719204 -0.087937385 -0.18216294 -0.5723693 -0.4714893 -0.59763414 -0.024178453
-0.25058934 -0.12525013 0.4394469 1.2531385 -0.4675303 -0.07835799 0.42493442 -0.5691026
-0.45839238 -0.2671653 -0.6272614 0.89468265 0.24304886 0.06179639 -0.43834665 0.56903577
-0.43709818 -0.08673742 0.47732693 -0.036051024 -1.3574069 0.7128647 -0.3929697 -0.13784766
-1.3487359 0.6101411 0.63762325 0.4534361 -0.08164083 -1.0361809 0.55153334 -0.6344817
-0.68428314 -1.2228832 -1.0228802 -0.21682256 2.99498 0.66273963 0.66666776 1.1926197
-1.7898586 -1.3609098 -0.5820198 0.21749114 0.4467012 0.19322477 0.15834041 -0.79368913
-1.0572491 -0.7560461 -1.1275539 -0.87407273 0.118071966 -0.3700337 -0.48262244 0.6847946
-0.5891773 -0.45516258 0.7261446 -0.047459688 -0.045661725 0.1465803 0.19752705 -0.8468029

weight_hh_l0 f4 [200, 50]
00000000: 5fa0 3fc0 0a59 bdbf 5e2a fb3e 5fc5 9ebf
00000010: d79b 4ec0 728a 7fc0 ce18 08c0 df1e 44c0
00000020: ae8b 743e ab4b 8c3f 1b3b 00c0 a87d 193e
00000030: cde6 a43f 79ce 07c1 b53c 1c40 d4c7 6340
00000040: 6ff3 e3bf 5061 a53f 07bc 6740 faf7 883f
00000050: 1a4a 0640 cdf1 e63f 676c 7b3f 90fb cbbf
00000060: b951 5940 32ec a1c0 b6e4 a93e 9772 b9bd
00000070: e511 98bf 3c30 8f3f b079 70bf 4271 37c0
00000080: a271 783d 1c03 0dbf a71e 8440 0b64 8640
00000090: 06fc d33e ae16 ccbf 315d c13f 6ef4 1040
000000a0: 38bd 2d3f 6fe3 1540 fd2d 043f 6b98 c43f
000000b0: 5b2c 8240 4825 7fbf 8892 72bf 9a06 8f3f
000000c0: 7f98 c5c0 2f0f ac3f 9cc7 fbbe b25b 41bf
000000d0: db5d 913f 8b15 f83f 6eef f93e c27a 8d3f
000000e0: b380 543e e4a4 37c0 4ff7 9e3e fe49 863f
000000f0: 064c 203f 50c4 83be e4a9 a93e a34c 7e3f
00000100: 67c5 d93f e711 0cbf bfd0 b5bf 7deb e13f
00000110: b00c 1840 1e70 793f 67b0 e23e 2c2d 05bf
00000120: 0de1 18bf b58e aebe 1843 543f a1e8 e4be
00000130: 8dc1 f2bf 234b af3f 29fd 0c3f c4d4 2f3f
00000140: c6d5 e6be 8cd8 cfbf e8ee ab3f 71d7 c2bf
00000150: f6d5 05bf 0109 dcbe 41fe 9d3f 4f31 373f
00000160: 58ac d93d e71e 7bbe 6ba6 f0be d4da 813f
00000170: dd3f 85be 6ee7 09bf 6c1e e13f 2081 1f3f
00000180: 9ec0 ac3f baaa 0540 10e8 a2be c726 e53f
00000190: 0760 a1bf 344c 22be 424a 0e40 4f10 8b3e
000001a0: ea31 1bc0 ed3b fa3e 4972 06be 635e 33c0
000001b0: bb2a 44bf f9c8 df3f 24d1 0ec0 d86a 133f
000001c0: 167f 7dbe 8e5a 2740 521c 48bf c712 933f
000001d0: 6896 9cbf b022 72bf 4eed 0040 7121 53bf
000001e0: c005 ccbe 59ee 313f 4cb1 a13f 4b9d 513f
000001f0: ef27 fe3e 5735 c43f a1dd ffbe 6256 03bf
00000200: a781 3a40 07a1 333f f629 c03e 9213 853f
00000210: f823 923f 8920 1cbe cc7b 8bbf bb3b 3f40
00000220: 276f a33f aa28 81c0 26b3 623e 9efd afbf
00000230: 09f5 08be 6670 f4be 6cab 50bf d067 94bf
00000240: 3898 9e40 e606 2740 175f 0a3f a939 9440
00000250: 5db9 a7bf 2daa c83e 4fec 81bf 9b43 2ebf
00000260: 9e69 dabf ab76 9b3f f638 25bf f97e 90be
00000270: 161d 05c0 20d6 9abf 71ec 57bf 39a0 d1be
00000280: 7950 143e 2672 353d 112e 9cbe 5fbc 0840
00000290: 793a a03f 2f90 a7bf a64c 54bf b8cb 0f3f
000002a0: 8604 cebd 29ff 9e3f c4c5 09c0 5b2b 113f
000002b0: a7fb ac3f a2db 5bbe 88f4 393e a9ab acbf
000002c0: d416 163e 347f 65bf c594 c9bf f222 b63d
000002d0: da0b fd3d a257 db3e de8f d03f 529c 9f3f
000002e0: 7c58 5cbe 6bb7 bb3f 44e9 fc3e a969 0140
000002f0: 8fc9 3e3e 2e55 0c3f aa2b 5340 e5b2 2cc0
00000300: a65e 6e3f cfeb 7abf df65 c63b ae39 e13e
00000310: 4bfc 1abf ba75 e33f 5602 1f40 0e3b 3c3d
00000320: 5015 efbf d2f7 afbe fcf6 67be 9beb aabe
00000330: 6428 b7be 8916 22be e6ba fabf 4072 abbd
00000340: d095 c43e 7603 0040 c1f6 a9be e657 7bbf
00000350: 608f e5be 1b64 4dc1 08f6 213f 20d9 a3bd
00000360: f541 fcbf 0f46 2d3e a146 2a40 b12e 0640
00000370: 5f2a 7c3f 54c5 47bf c5e3 973e 318d cabe
00000380: 7972 e63f c43b adbe 126e 0fc0 0e88 b3be
00000390: 1e17 a33d d673 793e 5b52 29bf 5bf0 b0bf
000003a0: fee3 223f 8e90 b9be dbbb 3840 1d00 b83e
000003b0: 0240 623f 26c1 fb3f 9591 093f 6891 003f
000003c0: 3599 bf3f f5c2 c53f e7d3 4cbf 4491 333f
000003d0: beaf 4240 72ad 85be 4a2f 913e cb84 423f
000003e0: 7e16 73be b62b e93e 06d2 3cbf 06a1 313f
000003f0: 2906 da3e 702a 3440 c297 633f fab8 bb3e
-2.9941633 -1.4792798 0.4905576 -1.2403983 -3.2282617 -3.992825 -2.126514 -3.0643842
0.23881409 1.0960592 -2.0036075 0.1498934 1.2882935 -8.487908 2.4412053 3.5590715
-1.7808665 1.2920322 3.6208513 1.0700676 2.0982728 1.8042542 0.98212284 -1.5936146
3.395613 -5.0600824 0.33182305 -0.090550594 -1.1880461 1.1186595 -0.9393568 -2.8662877
0.060655244 -0.5508287 4.1287417 4.1997123 0.41403216 -1.5944421 1.5106565 2.2649188
0.6786685 2.3420064 0.5163267 1.5359014 4.0679145 -0.9966626 -0.9475484 1.117389
-6.1748652 1.3442134 -0.49175727 -0.7553054 1.1356767 1.9381574 0.48815483 1.1053088
0.2075222 -2.8694391 0.31048056 1.0491331 0.62616 -0.25735712 0.3313743 0.9933569
1.7013367 -0.54714817 -1.4204329 1.764999 2.3757744 0.974367 0.4427521 -0.5202205
-0.597184 -0.34093252 0.82914877 -0.44708732 -1.8965317 1.3694805 0.5507379 0.6868403
-0.4508497 -1.623796 1.3432283 -1.5221997 -0.52279603 -0.4297562 1.2343217 0.71559614
0.10628575 -0.24523507 -0.47001967 1.0144906 -0.26025286 -0.5386876 1.7587409 0.62306404
1.3496282 2.0885453 -0.31817675 1.7902459 -1.260743 -0.15849382 2.2232823 0.2716088
-2.4249215 0.48873845 -0.13129534 -2.802636 -0.766277 1.7483207 -2.231515 0.57584906
-0.2475551 2.614902 -0.78168213 1.1490105 -1.22334 -0.9458418 2.014484 -0.824729
-0.39848137 0.69504315 1.2632232 0.81880635 0.49639842 1.5328778 -0.49973777 -0.51303685
2.9141634 0.70167583 0.37532014 1.0396597 1.1417227 -0.15246786 -1.0897155 2.9880207
1.2768296 -4.036214 0.22138652 -1.3749273 -0.13374723 -0.47742003 -0.8151157 -1.1594181
4.9560814 2.609796 0.54051346 4.6320386 -1.3103443 0.39192334 -1.0150241 -0.6807191
-1.7063482 1.214559 -0.6454004 -0.28221872 -2.0799003 -1.2096596 -0.84345156 -0.40942553
0.14483823 0.044298314 -0.30503896 2.1364973 1.2517844 -1.3090876 -0.82929456 0.56170225
-0.100594565 1.2421619 -2.1526957 0.5670678 1.3514298 -0.21470502 0.18159688 -1.3489887
0.14657146 -0.8964722 -1.5748526 0.08893384 0.12355776 0.42840296 1.6293905 1.246958
-0.21518129 1.466535 0.49396718 2.022074 0.18631576 0.54817474 3.29954 -2.6984189
0.9311317 -0.98016065 0.0060546244 0.4398932 -0.6054122 1.7770302 2.4845176 0.045954756
-1.8678379 -0.3436876 -0.22652811 -0.33382878 -0.35773003 -0.15828909 -1.9588287 -0.08371401
0.38395548 2.0002112 -0.3319607 -0.98181 -0.4483595 -12.83694 0.6326604 -0.08000398
-1.9707628 0.16921256 2.6605608 2.0965998 0.98502153 -0.78035474 0.29665962 -0.39560845
1.8003684 -0.3383466 -2.2410932 -0.3506474 0.07963394 0.24360594 -0.6614129 -1.3823351
0.6362914 -0.362431 2.8864658 0.35937586 0.8837892 1.9668319 0.53737766 0.5022187
1.496863 1.5450121 -0.8001084 0.7014353 3.0419765 -0.2610889 0.2835639 0.75983876
-0.23739049 0.4554116 -0.7375797 0.6938633 0.42582825 2.8150902 0.8890344 0.36664563

bias_ih_l0 f4 [200]
00000000: 19ac a93e 4ac4 a8bb a309 623f 6c91 cbbe
00000010: 6a73 b73f d450 f93f 8afb 3cbe 337b 623e
00000020: 68a1 15bd c9ce 733f df5d d73f e071 a43e
00000030: a6f9 15bd 5775 263f 0c61 f1bb 174a 94be
00000040: 4e07 b13f 4327 863e d965 3b3f ab88 e03e
00000050: cda9 103f 0b51 ff3e 2bca 153f 015c 7cbe
00000060: c2d0 39bf e101 963f c17f fdbe cab0 613f
00000070: a692 133f ea32 213f ce2e a23f fc06 1e3f
00000080: dd7b a03e e871 903f 588a 0b3f be15 ed3e
00000090: 2e92 ae3f 3927 9a3f 67d6 2a3e 6548 0840
000000a0: 6d2b a13d a34e ac3e e947 893d 32ef 10bf
000000b0: 29bd ca3f 510b 923e e5c9 c03e 10ed 0b3f
000000c0: 5029 3a40 1098 28be ea5b 77be 3f43 3c3f
000000d0: fd66 ab3f fe53 ddbe 42d7 493f 49f7 c43f
000000e0: f39e 8ebe 7d22 f0be f5c1 f03d 41ad b5ba
000000f0: 4251 ca3e 6efa 623d f5b6 95bd ae0f e33f
00000100: a74b 83be 6334 b53f 3e86 23bd 0bbb 513f
00000110: 4e72 373e 62be 9cbf dcbd e13f a136 6c3e
00000120: a74e 943e 1da6 d0bc f673 703f d5db a53e
00000130: 7431 9f3f 7c22 dabc a171 ec3d bffd a63e
00000140: c0c0 79bf 24b1 753f 6dcd f23e fb07 1fbf
00000150: 1398 c8be b0d6 40bf a6b9 83bf c94f a93e
00000160: b74f ac3e e892 02c0 4aa8 943f cada 053f
00000170: a589 223e 7fa6 ca3c 3dff 023e 9fb0 28be
00000180: 38cc 6dbe e978 b9be 3cd2 063f adb4 ebbe
00000190: bc91 3cbf 593b 37bf 8b09 d6bd bda4 873f
000001a0: 8497 0c3f 54da 5bbf 5713 58bf 2605 7bbd
000001b0: 5ae9 d83e bfec 593e 2b2a 75be 2cc9 80bf
000001c0: 720e 55bf c2a1 7f3f d300 a43d 35f6 563f
000001d0: b32f cdbe 0145 dd3e 8d21 ce3e 4ddf 093f
000001e0: 9e76 cfbe ade1 56bf 845b c2bd 8df1 ff3e
000001f0: 6cc0 ab3f 50ef 1ebf c3d1 813e 5698 433e
00000200: d813 74be 16c9 693f a052 39bf 458e f33e
00000210: 10a9 ec3d 3474 603e 5c59 bbbd e6d7 b2be
00000220: d1cb 00bf 68f4 203f cf47 733f e2a0 3c3f
00000230: a1c5 d13e 782f 73bf c890 48bf 92fd a83e
00000240: 2f0f 1abf 987f 2b3f 25da 0c3f 7127 0b3e
00000250: 917b 523f 110c 643e 6b4d 34bd 3701 153f
00000260: 6656 d43e 53cc 5e3f ec15 bf3f 4086 1f3f
00000270: dc88 bdbd 9fab f73e c6f8 d3bd cbeb 453f
00000280: e61c 1d3f d002 413e bf26 79bf 9ad1 19bf
00000290: 3646 823f 9741 693f f8ae 453f 7df2 ba3e
000002a0: 4e47 00be 52bb b63f aace d63e e990 233f
000002b0: af33 9bbc af7f 053e 66c0 74bf 33ef 16bf
000002c0: 7357 4fbf 07ca 0d3f 4621 833c 410a 6d3e
000002d0: 3275 283f 7d92 973f b185 cd3e 40f7 953f
000002e0: 2295 793f efa4 e6be cab4 a43e 5920 1b3f
000002f0: b185 d53f e985 bc3f 2cbb 65bf 7bce 16bf
00000300: 4857 20bf 7fa4 563f 42b7 5e3f a6c9 66bf
00000310: 665c 993e 7a47 21bf 639f ec3e 74d3 353f
0.33139113 -0.0051503526 0.88295954 -0.39759386 1.4332097 1.9477792 -0.1845533 0.2211731
-0.036530882 0.95237404 1.6825522 0.3211813 -0.036615036 0.65022796 -0.007366305 -0.28962776
1.3830354 0.2620183 0.7320228 0.4385427 0.56509095 0.49866518 0.5851161 -0.24644472
-0.72584164 1.1719323 -0.4951153 0.88160384 0.5764564 0.62968314 1.2670534 0.6172941
0.313445 1.1284761 0.5450797 0.4630565 1.363836 1.204322 0.1668335 2.1294186
0.07869611 0.33653745 0.06703169 -0.56614983 1.5838977 0.2852426 0.37654033 0.54658604
2.9087715 -0.16464257 -0.24156156 0.7354011 1.3390805 -0.43228143 0.7884408 1.5387965
-0.27855644 -0.46901312 0.11755744 -0.0013860838 0.3951512 0.05541461 -0.07310287 1.773916
-0.25643656 1.4156612 -0.039922945 0.8192603 0.17914698 -1.22456 1.7636065 0.23067714
0.28966257 -0.025469834 0.9392694 0.3239428 1.2436967 -0.026627772 0.115451105 0.32615468
-0.9755974 0.9597342 0.47422352 -0.6212155 -0.39178523 -0.7532759 -1.029103 0.33068684
0.33654568 -2.0402164 1.1613858 0.5228697 0.1587282 0.024737595 0.12792678 -0.16473626
-0.23222435 -0.3622506 0.5266454 -0.46036282 -0.73659873 -0.7157493 -0.10451039 1.0597149
0.54918694 -0.8588002 -0.8440451 -0.061284207 0.42365533 0.21281718 -0.23941867 -1.0061393
-0.83225167 0.998562 0.0800797 0.8396943 -0.40075454 0.43216708 0.40259972 0.53856355
-0.40520185 -0.83938104 -0.094901115 0.49988976 1.3418097 -0.6208391 0.25355348 0.1910108
-0.23835695 0.9132246 -0.723917 0.4756948 0.115556836 0.21919328 -0.09147903 -0.34930342
-0.50311 0.62872934 0.95031446 0.7368299 0.4097109 -0.94994307 -0.7834592 0.3300596
-0.6017942 0.6699157 0.5502036 0.13589264 0.822198 0.22270228 -0.044019144 0.5820498
0.41472167 0.87030524 1.4928565 0.62314224 -0.092546195 0.48373124 -0.10350184 0.77312917
0.6137222 0.18848729 -0.97324747 -0.6008545 1.0177677 0.9111571 0.77220106 0.3651313
-0.125272 1.4275916 0.41954547 0.6389299 -0.018945543 0.13036989 -0.95606077 -0.5895874
-0.8099281 0.55386394 0.016007077 0.23148443 0.65803826 1.184158 0.4014106 1.171608
0.97493184 -0.4504771 0.3216918 0.60596234 1.6681424 1.4728366 -0.89738727 -0.58908814
-0.6263318 0.8384475 0.8699838 -0.9015144 0.29953307 -0.6299969 0.46215352 0.71025777

bias_hh_l0 f4 [200]
00000000: 8c0b b23e 2e3f e1bd 71ae 8c3f 1308 e3be
00000010: f9ca c43f 604c f73f 7374 59be 0880 283e
00000020: ba9a 17bd e405 8f3f b8cd db3f fcd5 4e3e
00000030: e3f3 0fbd d27e 0f3f 04f0 313e a966 22be
00000040: 8dab c23f 0216 ba3e 9455 4b3f 9920 fc3e
00000050: 14f4 b43e a339 063f f4a6 4e3f d02a 6cbe
00000060: 5614 41bf abc8 953f 8845 b8be 3be1 4c3f
00000070: 4191 ce3e 326c 373f 3e13 a83f 27b3 053f
00000080: d045 b43e d4c5 923f cb60 f83e a114 b33e
00000090: a499 a33f d0ff 8a3f 5146 463e 1d73 ef3f
000000a0: f331 8c3d a669 393e 1223 603e 2c95 2cbf
000000b0: 87a6 be3f 3838 e23e 03e7 163f 3850 0f3f
000000c0: c67a 3a40 4a9c 76be 072b 3dbe 8aad 1d3f
000000d0: 0c5a b03f dbd5 c6be 2e0e 1a3f e18f c33f
000000e0: ff12 28be 153e d1be b175 453e ea58 e23d
000000f0: b475 353e aa5c a7bc b154 13be f938 d43f
00000100: 247f bcbe 3664 bd3f 9d8b 00be ba68 343f
00000110: bc93 753d 1483 84bf 065a cb3f faf0 1e3e
00000120: 72ae 9a3e 0947 dc3d ac72 4b3f 2b6f 223e
00000130: 205a 973f 7be2 9b3b 4476 2d3e 12e3 e33e
00000140: e88b 82bf d63e 653f 5193 a73e ca2f 06bf
00000150: 36ac 20bf 1c59 2fbf 1e22 86bf fc6b ac3e
00000160: e23b 323e b904 02c0 e35b 7d3f 4cd2 0c3f
00000170: 216d 163e 235c 853e 1c1f d43d 5002 2bbe
00000180: 4ade 8fbd dc12 50be c0c2 fd3e d96b 0cbf
00000190: ac60 46bf 5704 3dbf 0bab 25bd c57c 713f
000001a0: e518 273f 57a2 61bf 4714 63bf 7d32 58bc
000001b0: bec0 fe3e 6b7c 6f3e 16af c3be 3dcc 6fbf
000001c0: 296b 6bbf 207f 683f 106d ca3d 05fb 533f
000001d0: 6597 03bf e2db eb3e 28a8 943e 80f2 b43e
000001e0: 470c d4be 0131 5dbf 30a4 82be 6b2e 163f
000001f0: 52f2 b23f 9375 3dbf 8329 873e 6e4c aa3d
00000200: 6353 45be 3648 8c3f 0d7b 2ebf 10e9 f03e
00000210: 6165 673d 1299 a73e 81cc 82be c0f0 86be
00000220: ca0c acbe 56a3 1e3f c7a8 833f b2f2 0c3f
00000230: 119c bf3e 3b64 5dbf 6e9a 14bf 01d7 493e
00000240: 39aa 00bf d9cb 283f 85f5 173f 2e95 af3e
00000250: ab74 443f b9cb a33d 8ca4 283e f228 1e3f
00000260: 8307 9b3e c682 5a3f f901 d23f 036f 1b3f
00000270: c3a6 f7bd 08bb c33e 6429 0f3d da9b 4e3f
00000280: 9b1a 103f 7769 7a3e d472 58bf 5699 4cbf
00000290: c109 743f 715c 4a3f 9cfa 2e3f 6c45 ac3e
000002a0: 9ccf b4b9 6978 c43f 9ec3 e13e d340 e43e
000002b0: 0da6 80be 62ef f03b dcb2 85bf b618 04bf
000002c0: c4aa 2cbf 1b29 003f c41d 1bbe f5ca 893e
000002d0: a153 0e3f b3fe 873f ce76 d03e a7cb 893f
000002e0: 87f4 633f f148 ccbe 2b56 cd3e b828 1d3f
000002f0: 5c53 ca3f 3b21 aa3f a370 58bf fbc7 12bf
00000300: 4625 3ebf cbd4 313f cdf5 8f3f 2fc3 48bf
00000310: f868 3a3e eabd 2ebf 255f ea3e e6b7 fd3e
0.34774435 -0.10998379 1.0990735 -0.44342098 1.5374442 1.9320183 -0.21235828 0.1645509
-0.037012793 1.1173673 1.7172155 0.20198816 -0.035144698 0.5605289 0.17376715 -0.15859474
1.5208603 0.36344916 0.79427457 0.4924362 0.35342467 0.52431697 0.807235 -0.23063207
-0.75421655 1.1701864 -0.35990548 0.80031174 0.40345195 0.7164947 1.3130872 0.5222649
0.35209513 1.1466622 0.48511347 0.34976676 1.2781262 1.0859318 0.19362761 1.8707005
0.068454646 0.18106708 0.21888378 -0.6741512 1.489457 0.44183517 0.58946246 0.5598178
2.9137435 -0.24083057 -0.18473445 0.61592925 1.377748 -0.38835034 0.60177886 1.5278283
-0.16413496 -0.40867677 0.19283177 0.11052115 0.17720681 -0.020429928 -0.14387776 1.6579887
-0.3681575 1.4796207 -0.12553258 0.704723 0.059955344 -1.0352502 1.5886848 0.15521613
0.30211216 0.107557364 0.7947185 0.1586272 1.1824379 0.004757223 0.16939646 0.44509178
-1.0198946 0.89549005 0.3272958 -0.5241667 -0.62762773 -0.68495345 -1.0479162 0.33676136
0.17405656 -2.0315382 0.98968333 0.5500839 0.14690067 0.26046857 0.10357496 -0.16700101
-0.0702482 -0.20319694 0.49562645 -0.5485206 -0.7749126 -0.7383475 -0.040446322 0.9433101
0.6527236 -0.88138336 -0.88702816 -0.013195631 0.49756426 0.23387305 -0.38219517 -0.9367102
-0.9196039 0.9081898 0.09884083 0.828049 -0.51402885 0.46066195 0.29034543 0.35341263
-0.41415617 -0.864029 -0.2551589 0.5866458 1.39802 -0.7400753 0.26398858 0.08315359
-0.19270091 1.0959537 -0.6815651 0.47052813 0.056493167 0.3273397 -0.2554665 -0.26355553
-0.33603507 0.6196798 1.0285882 0.55057824 0.37423757 -0.86481065 -0.5804814 0.19710924
-0.5025974 0.65936047 0.5935901 0.34293503 0.7674052 0.079978414 0.1646902 0.6178123
0.30279168 0.85355794 1.6406852 0.60716265 -0.12092354 0.3822863 0.034951583 0.8070656
0.56290597 0.24454294 -0.84550214 -0.7992147 0.95327383 0.79047304 0.6835115 0.33646715
-0.00034486956 1.5349246 0.44094557 0.44580707 -0.25126687 0.0073527554 -1.0445209 -0.51600206
-0.6744807 0.5006272 -0.15148073 0.26912656 0.5559636 1.0624603 0.4071564 1.0765275
0.89044994 -0.398994 0.40104803 0.61390257 1.5806689 1.3291391 -0.8454687 -0.57336396
-0.74275625 0.6946532 1.1246887 -0.78422827 0.18204105 -0.68258536 0.45775715 0.49554366

weight f4 [74, 50]
00000000: 1b95 3bbf 2462 933f bda0 2a3f 043b abbf
00000010: ac4e 69bd 55bc 1abf 92e5 163e b9d0 4bbe
00000020: eebc a7bf ea97 00bf a089 0c3f 9a85 c73f
00000030: 0f05 7c3f 7e06 02bd 6c6b 373f 13a8 b0bf
00000040: 4f4d a63f 648d 87be 4d14 8cbf c23e cf3e
00000050: f866 673f 7d05 913f 4c9a c6bf b03f 1ebf
00000060: a0d3 82be 04e5 12be 8e87 a93e 74a0 cbbe
00000070: dfbf ef3e 9700 b6bf b1ab 553e 54a1 99bf
00000080: 93a4 8abe 79c1 fc3e 0aca 893e be35 c13f
00000090: b4c3 bc3f a67f e8be e3f4 b5bf c46b 903e
000000a0: 4bd5 43bf ef8b 713f 26ef c23f 0b26 0c3e
000000b0: fdb4 453e 1687 a7bf 2375 94bf 7300 72bd
000000c0: 9827 90bf c830 d13f 5dde 0fbf 5999 8a3f
000000d0: 4168 e33e d3b0 a5bf e70f 97bd e553 14bf
000000e0: 63f0 353d e7f0 f03c bdcb 99bf 2f2c 02bf
000000f0: 6d0b 163f 7ae5 ac3f 4fe8 5c3f ac3f bf3d
00000100: 5207 513f 9efd 97bf 41f2 a63f e4c8 61be
00000110: 65c4 91bf 2569 d93e 2fa0 753f 4710 803f
00000120: 6910 b1bf f68c 26bf 8e8b cebe d1a5 e2bd
00000130: 9022 6b3e 0ab0 f5be ee91 033f de2f b5bf
00000140: 31a5 903e 9b88 8bbf 3219 6abe 9185 fd3e
00000150: 5a49 903e c99d b53f aedc af3f d241 e2be
00000160: a49d a4bf fdfa 7e3e 0778 38bf 1e0a 4e3f
00000170: d382 d93f 756d c83d ae32 223e 6ae6 aebf
00000180: abf5 93bf 18f3 b33d 0559 97bf f20d dd3f
00000190: 44fc 993f 21b2 5bbf 39a1 523f 9be4 31bf
000001a0: 8b25 8bbf 268e f13f 57ad f0be bf0e 42bf
000001b0: b31c a33e c079 89bd 8f55 9840 00ca 8b3f
000001c0: 71b2 6ec0 50c1 8bbf d8ff 7a3e 2f8c 883f
000001d0: 76c8 eabf bf0f d5bf 6dc8 93be 5317 c0be
000001e0: 5612 d33e 86c1 74be 4640 423f 5c6b 8b3e
000001f0: 9e36 01c0 8b21 8bbf 2404 303f 4b8a bdbf
00000200: e6a1 99be 71f7 8e3d 10cc 323f 721b 773f
00000210: 9768 d0bd 6549 5dbf 237c 51c0 6305 3940
00000220: 528e cf3f 0974 da3f df95 e33e 017c 593e
00000230: 7500 b53f 7953 9dbf 5bad f23d 9bc5 43bf
00000240: c8d2 05c0 bf9c d63f d487 013f 2294 503e
00000250: 3469 a4bf 36b2 9e3e f224 b23f 90fb a8be
00000260: d852 06bf 2d58 4cc0 2975 82be c920 80be
00000270: a38c 5240 72f5 aec1 78f2 313f 4072 2cbf
00000280: 7f37 9fbf 371f d23f 2be0 843f 841b a43e
00000290: 231f d2bf 298b 09c1 b02a f63e a033 91c0
000002a0: e99d fabd 17ce 7e3e a07b 2041 b982 95bd
000002b0: 34a8 8cbf f660 01bf cc12 993f 7faa 253f
000002c0: b2db 3c40 1359 2340 22c1 babe 3022 d6bf
000002d0: 87eb 15bf fd8d c0c0 133d ddbe 8573 cfbd
000002e0: 32b8 a33f dbba d13e 38f0 9140 039f d3bf
000002f0: dd5b 4fbf 5f24 c3bf 53c7 d8be 7db1 4040
00000300: 86dd 81be bc23 1f41 47e8 57c0 1ecd 34c0
00000310: 8297 24c0 6ebd cd3e 6a70 3ac0 9a1c ea3f
00000320: dd35 e73d a3a0 733f 9653 28c0 6731 c4be
00000330: 1f6a 8b3f 2160 183e bd0f 433f a8b4 853e
00000340: 18e6 65bf 2f33 6d3e a5da b8bf 4e8b 15bf
00000350: 49ae a03f 8014 a7be 3495 173f 7c8f 0d3e
00000360: 485e ea3e ff6e e7bf b4c0 0540 8699 233f
00000370: f126 ddbe 5104 393f 051d 28bf 463d ad3f
00000380: f9e6 913f 8f8a 66be 25af 28bf 62dd aabe
00000390: 3306 0640 39c2 12bf 1733 83bf be8f 85bf
000003a0: dd34 d53f f115 48bf fb45 6dc0 5982 85bf
000003b0: 1831 3a3f 9909 88bf 5b9a 893e 5ff2 cc3f
000003c0: cf72 953d 81e8 1040 05ac 6abe 2d1e 02bf
000003d0: 1364 ec3f d68b 86c0 b496 dd3e 69ac 64be
000003e0: 07e8 d2bf 35cc eb3f 9715 2dbf 26cd 07be
000003f0: 0c84 8fc0 937e 5140 fc73 d3bc ecf1 1a40
-0.7327439 1.1514325 0.6665152 -1.3377385 -0.056959793 -0.6044362 0.14736012 -0.1990384
-1.3104532 -0.502318 0.548975 1.5587647 0.9844522 -0.031744473 0.7164829 -1.3801292
1.2992343 -0.2647506 -1.0943695 0.40477568 0.9039149 1.13298 -1.5515838 -0.6181593
-0.25552082 -0.14345175 0.33111233 -0.39770854 0.46826074 -1.421893 0.20866276 -1.2002358
-0.27078685 0.49366358 0.26911956 1.5094526 1.4747224 -0.45409888 -1.4215358 0.2820722
-0.76497334 0.94354147 1.5229232 0.13686387 0.19307323 -1.30881 -1.1598247 -0.05908246
-1.1262083 1.6343012 -0.56198674 1.0828048 0.44415477 -1.2944587 -0.0737608 -0.5794051
0.044418704 0.029411746 -1.2015301 -0.5084867 0.58611184 1.3507531 0.86291975 0.09338316
0.81651795 -1.1874273 1.304268 -0.2204929 -1.138806 0.4246303 0.95947546 1.0004967
-1.3833133 -0.6505884 -0.40340847 -0.11066783 0.22962403 -0.4798587 0.51394546 -1.4155233
0.2825103 -1.0901064 -0.22861174 0.49515966 0.28180963 1.4188777 1.3739221 -0.44190842
-1.2860608 0.24900432 -0.7205815 0.8048419 1.6993049 0.09786502 0.15839645 -1.3664067
-1.1559347 0.08786601 -1.1824042 1.7269881 1.203011 -0.8581868 0.82277256 -0.6948945
-1.0870832 1.8871505 -0.47007248 -0.7580375 0.31857833 -0.06712675 4.760444 1.092102
-3.7296412 -1.0918369 0.24511659 1.0667781 -1.8342426 -1.664543 -0.2886385 -0.37517795
0.41224927 -0.23901948 0.75879323 0.27230346 -2.0189586 -1.0869612 0.6875632 -1.4807829
-0.3000633 0.069807895 0.69842625 0.96526253 -0.10176199 -0.86440116 -3.2732017 2.8909538
1.6215308 1.7066661 0.4445028 0.2123871 1.4140764 -1.2291099 0.11849471 -0.76473397
-2.09099 1.6766585 0.5059788 0.20369008 -1.2844605 0.3099534 1.3917525 -0.33004427
-0.5247016 -3.1928818 -0.2548001 -0.25025013 3.2898338 -21.869846 0.695106 -0.6736183
-1.2438811 1.6415776 1.0380911 0.32052243 -1.6415752 -8.596475 0.48079443 -4.537552
-0.1223715 0.24883305 10.030182 -0.07300324 -1.0988832 -0.50538576 1.1958861 0.6471328
2.9509091 2.5523117 -0.36475474 -1.6729183 -0.5856251 -6.0173326 -0.43210658 -0.101294555
1.2790587 0.40962872 4.5605736 -1.6532902 -0.8099955 -1.5245475 -0.42339572 3.010833
-0.2536432 9.946224 -3.373552 -2.8250194 -2.5717473 0.40183586 -2.9131112 1.8289979
0.112895705 0.9516699 -2.6301017 -0.3831894 1.089176 0.1488042 0.7619589 0.26114392
-0.8980422 0.23164056 -1.4441725 -0.5841569 1.2553188 -0.32632828 0.5921204 0.13824266
0.45775056 -1.8080748 2.0898867 0.63906133 -0.43193772 0.7227221 -0.6566928 1.3534324
1.1398612 -0.22513793 -0.6589225 -0.33372027 2.0941284 -0.5732761 -1.0249966 -1.0434492
1.6656758 -0.7815848 -3.7073963 -1.0430404 0.7273116 -1.0627929 0.26875576 1.6011466
0.072972886 2.264191 -0.22917183 -0.50827295 1.846804 -4.20457 0.4327904 -0.22331394
-1.6477059 1.8421694 -0.6761107 -0.13261852 -4.484869 3.2733505 -0.025812142 2.4210157

bias f4 [74]
00000000: d1a4 b0bf 0a00 b6bf e9a4 a33f 628d 0cc0
00000010: 5c28 0c40 79d9 74c0 fdfb 5240 626d 9ebf
00000020: f6f5 2fc0 02f0 16bf 568e 08c0 3ef4 2dbf
00000030: d5ee dcbf 0859 bebf a77e c23f f95f 683f
00000040: 090b 9b3d 49cf 13be 1de9 d3bd 207d 27bf
00000050: b05e 8dbf 9598 bbbf b396 d5bf 15a6 853d
00000060: 9b11 90bf dccf 31bf 0ff9 2fc0 cba9 a3be
00000070: f881 87bd 6fa9 28c0 1f79 c7bf 300e 2bc0
00000080: 7299 81be baab 2dbf 65ff 9cbf da76 84bf
00000090: 8b4f 89c0 5e8a 7a3f c2eb 1dbf e67e 303f
000000a0: ea5b 0a3e 17bd 633c e5c3 06bd 35f7 8c3e
000000b0: ef15 c43e 9263 03bf 1c94 e7bd 37ab 5dbd
000000c0: a7a8 d23d 26b0 9dbf b55c 01be b181 643e
000000d0: a78d 13bf 1125 1ebf e966 ac3e 641b 20be
000000e0: 46af 57bc 3b7c 4ebf c251 0340 5cdf b73d
000000f0: a9d3 bf3e 6a01 b63f 4ad2 62bf 75ee 61be
00000100: b4d1 9fbe 1b70 2bbf 288e 9bbe f38c 623d
00000110: 3b5e 20be ce6b 1d3e 7ece 39bf 117b 3a3e
00000120: 0e08 8538 9468 973e
-1.3800298 -1.4218762 1.2784702 -2.1961293 2.1899633 -3.8257735 3.2966301 -1.2377131
-2.7493873 -0.5895997 -2.1336875 -0.6795081 -1.7260386 -1.487092 1.5194901 0.9077144
0.07570464 -0.14434542 -0.10347197 -0.654253 -1.1044521 -1.4655939 -1.6686615 0.06525818
-1.1255373 -0.69457793 -2.7495763 -0.3196548 -0.066165864 -2.6353414 -1.5583838 -2.672741
-0.25312382 -0.6784016 -1.226544 -1.0348771 -4.29096 0.9786738 -0.6168786 0.6894363
0.13511625 0.013900063 -0.032901663 0.27532354 0.38297984 -0.5132381 -0.113075465 -0.05411836
0.10286074 -1.2319381 -0.12633021 0.22315098 -0.5763802 -0.6177531 0.33672264 -0.15635449
-0.013164347 -0.8065831 2.051865 0.08978149 0.3746617 1.4219182 -0.88602126 -0.2206362
-0.31214678 -0.66967934 -0.30381894 0.0553102 -0.15660946 0.15373155 -0.7258071 0.18211009
6.3434345e-05 0.29571974

weight f4 [50, 2]
00000000: a52b 093f 6723 153f 1a41 943e f9c6 2a3f
00000010: 90ed 77bd 2045 88be 78ca 083e 90bd 1d3d
00000020: f024 43be 6724 2ebf c7de 2b3f b00a 553e
00000030: 4c51 38be 0041 163e 73e7 0e3f c666 f63e
00000040: 0009 66be 807c 493d 92c1 31bf e504 cebe
00000050: 4066 cb3c e126 ccbe e428 14be 4c0e 80be
00000060: 504d 673d c1b4 a6be 986a c4be e7d4 9abe
00000070: 8442 143e f872 e83d 4021 1abe f012 ffbd
00000080: 912a 1b3f cab3 21bf 00f7 83bd a79a 0dbf
00000090: 5ac2 6fbe 7f1a 23bf 623d f33e add0 1a3f
000000a0: 69a4 babe 9155 0ebf 3eee d53e 0b1d fdbe
000000b0: d571 19bf c5b0 edbe ee83 04bf 62b2 07bf
000000c0: 94d2 39be f6bf a83e 10ff 6cbe 8e65 11bf
000000d0: a2f5 f73e ceaa 23bf 0adc e23e 403e 233e
000000e0: 5275 f9be 80a2 07bf 6f6f 263f 3049 323d
000000f0: 7c54 4e3e 60db e1bc b01e 84bd a1f1 213f
00000100: c504 e6be 60fb 7f3d e0fa 8abd 78fd cbbe
00000110: 4a9c bb3e e1ec 19bf 1a2b 853e 4bc2 e2be
00000120: 3951 0bbf 90e3 44be e088 d93c 4836 a8be
00000130: aab4 8d3e e0e2 b0be 71a4 e4be 69dc b2be
00000140: b848 eabd 800e d53d 66af b33e 5ead 11bf
00000150: 197f 2abf 5234 25bf 88bd 4a3e 0460 6fbe
00000160: 2e99 5ebe 8d08 1ebf 3c97 6c3e 0595 0f3f
00000170: a26a ef3e 984e e8bd 5d62 09bf d798 1b3f
00000180: 501e d73d 24b7 4ebe 1e11 34bf 9ad7 d13e
0.5358222 0.58257145 0.2895592 0.6670986 -0.06052929 -0.26615238 0.13358486 0.03851086
-0.1905706 -0.68024296 0.67136806 0.20804858 -0.17999762 0.14673233 0.55821913 0.48125285
-0.2246437 0.049190998 -0.6943599 -0.4023811 0.02482903 -0.39873412 -0.14468724 -0.25010908
0.056470215 -0.3255978 -0.38362575 -0.30240557 0.14478499 0.113500535 -0.15051746 -0.12454784
0.60611826 -0.6316496 -0.06443596 -0.55314106 -0.23413983 -0.63712305 0.4750777 0.60474664
-0.3645356 -0.55599314 0.41783327 -0.4943622 -0.5993932 -0.46423927 -0.5176381 -0.53006566
-0.18146735 0.32958955 -0.23144174 -0.56795585 0.4842959 -0.639325 0.443085 0.15941715
-0.4872232 -0.5298233 0.65013784 0.04352683 0.20149416 -0.027570426 -0.06451166 0.6325932
-0.44925514 0.06249559 -0.06786132 -0.3984182 0.36642677 -0.60127074 0.26009446 -0.4428886
-0.5442081 -0.19227433 0.026554525 -0.32853913 0.27676898 -0.34548092 -0.4465671 -0.34933785
-0.11439651 0.10403156 0.35094756 -0.5690516 -0.66600186 -0.6453296 0.19798863 -0.23376471
-0.21738121 -0.617318 0.23104566 0.5608676 0.46761042 -0.113431156 -0.53665715 0.6078009
0.105038285 -0.2018705 -0.7033862 0.40984803

bias f4 [50]
00000000: d97d 2d3f 9b78 013f 0002 023c 9ae0 bd3e
00000010: da85 c8be d43e 7a3e 79a1 2e3f e8e9 c4be
00000020: ce28 d13e 32f3 a13e 5483 34bf e9f1 243f
00000030: cf72 0e3f da65 e6be 1a93 b33e d5e9 b5be
00000040: f8b9 23bf 406c 8dbd caef 9e3e 30e1 33bd
00000050: d471 4a3e 0020 373b 3a80 da3e bc04 81be
00000060: b5df 033f d8f5 043e fa6d 1ebf 555c e1be
00000070: 5087 b93d 0083 f93d 66e5 0abf 8acd dabe
00000080: c02e aa3c 3467 2bbf b83a fd3d a00a 25bf
00000090: 8f2d 083f 6248 b93e 736d 0c3f 068c e2be
000000a0: da59 edbe bfdb 223f 9d30 1fbf 684b 003e
000000b0: 5ca6 323e 0ee0 f73e 6dd1 303f 62b1 e73e
000000c0: f595 c0be dd7f 1b3f
0.67770153 0.50574654 0.007935047 0.3708542 -0.3916462 0.2443803 0.6821514 -0.38459706
0.40851444 0.31630856 -0.7051289 0.64431626 0.55643934 -0.44999582 0.35073167 -0.35529962
-0.6395564 -0.06905413 0.3104232 -0.043915927 0.19769984 0.0027942657 0.42675954 -0.25198925
0.51513225 0.12984407 -0.6188656 -0.44015756 0.09059012 0.121831894 -0.54256284 -0.4273494
0.020774245 -0.6695435 0.12364715 -0.6446934 0.53194517 0.36188036 0.54854506 -0.44247454
-0.46357614 0.63616556 -0.62183553 0.12528765 0.17446274 0.48413128 0.6906956 0.4525252
-0.37614408 0.6074198

weight_ih_l0 f4 [200, 20]
00000000: 464c e8bd 471e 4bbe d608 aebd dea6 dd3e
00000010: 8a11 5fbe ca62 903c fd1d b8bb 67ea 8fbe
00000020: a1ae 56bd 045e 393e 8f21 4abf d06a 383e
00000030: a86e 0dbf 49e9 153c 830e bfbd 485b 903c
00000040: c3f7 1a3b b578 8d3e 1240 5e3a 94d8 b0bd
00000050: 7c19 a4ba a62a 9fbe a7c5 c23d 3724 363e
00000060: ea1e f0be 653b 5abe 8a6a a53e f080 28bf
00000070: 6a30 81bc 87fe a23b 0188 45be ed6e 67be
00000080: 5022 813c 352d 453f 670c 7fbd eb8b 9e3d
00000090: 1b25 b13c fd60 883e e869 073e cbb6 99bd
000000a0: 3111 41be 8be6 63be ec2c c93e 1e88 3a3e
000000b0: 760a 30be 7f9b 1abf d241 5ebd 6bc8 a4bd
000000c0: e9ec d83d fe20 093e 5589 3cbd a5fc 0ebe
000000d0: 2928 bd3e f81b 993e 2220 55be e439 393e
000000e0: 48af 7c3d 2223 5c3e d667 173e 6aab d3bc
000000f0: b879 353e 0191 83bf 4ab5 3c3f 8a79 fe3e
00000100: 2dbe 5abf 2cd0 7ebf ffb0 2e3b 8d27 b0be
00000110: 4fca 1ebe 952b fbbe 942d 0c3f 79c1 e5be
00000120: 2216 02bd 5744 bd3e 8f06 b2bc c16c 72be
00000130: a3aa 833e 7a74 1c3f f6ea ff3e 3c11 4d3f
00000140: bfcb 0e3e b24f f8be 6f99 3cbe 59d9 c23c
00000150: c59a 243e 744c 09bf c035 c63e dba0 11be
00000160: 286d 093f 1577 1cbe c0e6 5fbd e173 65be
00000170: 1ac4 c8be aef4 133e cf4b d8bd 8dd4 10be
00000180: 554b acbe 0016 363e 7d33 923e 5bdb 803c
00000190: 7343 5c3e c8d7 823e acd1 3cbf fabc 1a3f
000001a0: 197e 9abe 2b7d 31bd 29bb 463e 58b1 cabe
000001b0: 7d9a c5bc e7e0 1d3e 28ee 00be 2cb8 a93e
000001c0: 24c6 db3e 6057 773e e206 23be 5bbd a33e
000001d0: 858f 8c3d 16e4 e23e e530 063d 2964 3ebe
000001e0: 5d7c 4bbe 1e0a 7bbe 4027 443e 07bf 313d
000001f0: de29 8cbe ccdc a7be e1ee 1a3d c911 04be
00000200: 53ca b7bd 3f2a 37bc 1d30 acbe ccf5 ccbe
00000210: 9481 53be a0c7 2c3e 3989 d6be a95a 4e3e
00000220: d87a 0dbd 0f40 d63e 5cd8 aebe bff4 4d3e
00000230: c365 8f3e 5c87 0ebf 3bc7 5cbf b3a6 f53e
00000240: 2907 38bf b003 0ebf 0a49 79be 145d 07bf
00000250: dfde ffbd c72e abbb 8901 913e 1451 bc3e
00000260: ff4f 31be 6b3e b93d f3f1 c5be 6751 2e3d
00000270: 0d15 2b3d 9375 123f 7a37 89be 617e 4b3e
00000280: 8c0e 293e 56f6 d8be 2121 123e cb55 853d
00000290: 36e7 b5be ef73 b6be d52f c63d b213 2bbe
000002a0: 0a0d 9c3e 7740 8fbe a35a 9c3d a5c3 6a3e
000002b0: 2d32 5dbe 4af9 dfbd 82f6 dc3e ed45 f0be
000002c0: 6377 d63d 2f51 993e 7554 893e 64c2 563e
000002d0: 340f d23d 8199 f7be 6a8a bb3c b65e b2be
000002e0: a3fe 10bf d702 3abe 4ac4 9e3e 15a3 01bf
000002f0: ef4b 953e e25e 75be 5c96 ae3d daa2 3b3c
00000300: 9dff c9be 1c64 093d 5e0a 1c3e 2fbb ccbe
00000310: b08c 863d cb1e bc3e f074 8c3e 6b04 cd3e
00000320: 260e 9a3e bfb9 dcbd 956a 9a3d 4851 d8bd
00000330: a351 2fbe 04e1 28be 753a 013f e48e 1ebe
00000340: 4d58 773e 2912 acbd 13b8 87be d9f4 d5bc
00000350: 27f0 b9be 3d85 3b3e d953 b33e 3bc0 a6be
00000360: df7f 983d 27f6 2f3e 0dc6 ba3e 80ae d5bb
00000370: 1670 fc3d ee73 7bbf fa81 d73c 01e3 97be
00000380: 5f54 c3be 6f56 35bf 1e10 89be 2ea3 bdbe
00000390: 47d0 5c3e aa3b 28bf 51bc bf3d baee 8ebe
000003a0: bf6b bdbe fe53 acbd c394 17be 698c d0be
000003b0: 9085 c73e 9cbe 6c3e 4c0f b73e 02be 38be
000003c0: a663 bd3d 7c9f 90bc acf0 9ebd 42a6 e5bd
000003d0: fc44 47bd 5404 eabd 8447 173f ccdc 93be
000003e0: 7e93 7fbe 8580 2c3e 87da a2be 8ab6 993e
000003f0: 14e6 1a3e 6adc b7bd dbf4 82be 1cf2 0fbe
-0.11342673 -0.19835769 -0.08497779 0.43291372 -0.21784034 0.017625231 -0.0056188093 -0.28108522
-0.052412633 0.1810227 -0.78957456 0.18009496 -0.55246973 0.009149858 -0.0932894 0.017621651
0.0023646213 0.27631155 0.0008478175 -0.08635059 -0.0012519802 -0.31087226 0.095103554 0.17787252
-0.46898586 -0.2131172 0.32307845 -0.65821743 -0.015770156 0.0049741897 -0.19290163 -0.22600909
0.015763432 0.77022105 -0.062267687 0.07741531 0.021624139 0.26636496 0.13223994 -0.07505568
-0.18854214 -0.22255914 0.39292085 0.18215987 -0.1719149 -0.6039352 -0.05426199 -0.08046039
0.10592062 0.13391492 -0.046029408 -0.13963564 0.36944702 0.2990415 -0.20813039 0.1808849
0.0616906 0.21497777 0.14785704 -0.025838573 0.17722213 -1.0278627 0.73714125 0.49702102
-0.85446435 -0.99536395 0.002665579 -0.34405175 -0.15506862 -0.49056688 0.54757047 -0.4487417
-0.03175939 0.36966202 -0.021731643 -0.23674299 0.25716123 0.6111523 0.49983948 0.8010442
0.1394491 -0.48498303 -0.18417905 0.02378528 0.16074665 -0.53632283 0.38712883 -0.14221518
0.53682184 -0.15279801 -0.05466342 -0.22407486 -0.39212114 0.14448807 -0.10561334 -0.14143582
-0.33651224 0.1778183 0.28554907 0.015729597 0.21510105 0.25555253 -0.73757434 0.60444605
-0.3017433 -0.04333226 0.19407333 -0.39588428 -0.024121517 0.15417825 -0.1259085 0.33148324
0.42924607 0.24154425 -0.15920594 0.31980404 0.06863312 0.4431464 0.032761473 -0.18592896
-0.1987166 -0.24515578 0.19155598 0.04339507 -0.27375692 -0.32785642 0.03782547 -0.1289741
-0.08974137 -0.011179506 -0.33630458 -0.40031278 -0.20654899 0.16873026 -0.41901568 0.20151772
-0.03454098 0.41845748 -0.34149444 0.20112894 0.28007326 -0.5567529 -0.862415 0.47978744
-0.71885926 -0.55474377 -0.24344268 -0.528764 -0.12493681 -0.005224082 0.28321484 0.36780608
-0.17315672 0.090451084 -0.38661155 0.0425581 0.041768122 0.57210654 -0.26800138 0.19872428
0.16509455 -0.4237544 0.1427045 0.06510504 -0.35527962 -0.35635325 0.09677092 -0.16706732
0.30478698 -0.2797887 0.07634475 0.22926195 -0.21601172 -0.1093622 0.4315682 -0.4692835
0.1047199 0.2994475 0.26822248 0.20972592 0.10256806 -0.48359302 0.02289315 -0.34837884
-0.56638545 -0.18165146 0.31009132 -0.5063947 0.29159495 -0.23961976 0.085247725 0.011452401
-0.3945283 0.033542737 0.1523833 -0.3998656 0.06569803 0.36742243 0.27432966 0.40042433
0.3008892 -0.10777616 0.0753986 -0.10562378 -0.17120986 -0.16492087 0.50479823 -0.15484196
0.24154778 -0.08401901 -0.26507625 -0.026117729 -0.36316034 0.18312545 0.35024908 -0.32568535
0.074462645 0.17183743 0.36479226 -0.006521046 0.12326066 -0.9822377 0.026307095 -0.29665378
-0.38150308 -0.7083501 -0.2677011 -0.3703856 0.21563827 -0.6571604 0.093620904 -0.2791651
-0.36996266 -0.08414458 -0.14802842 -0.40732124 0.38969088 0.23119587 0.35753858 -0.18041232
0.09247522 -0.017654173 -0.07760748 -0.11213352 -0.048649773 -0.11426607 0.590935 -0.28879392
-0.24958608 0.16845901 -0.31807348 0.3002208 0.1512683 -0.089775875 -0.25577435 -0.14057201
