model/saved_models/en_transfer/model_fr_to_en_epoch_15.pt (torch_old, 234884 bytes, 23 tensors)

weight f4 [74, 20]
0.0 0.0 0.0 0.0 0.0 0.0 0.0 0.0
0.0 0.0 0.0 0.0 0.0 0.0 0.0 0.0
0.0 0.0 0.0 0.0 -0.0068326616 -0.00029060058 0.012215092 0.015568103
-0.012145369 0.007612087 -0.011008365 0.0022605478 0.00033275443 -0.008223134 -0.015227225 0.12285537
0.0058220886 0.0013389278 0.030293094 0.007355285 0.0043079755 0.021699404 -0.0033195983 0.0013588057
0.93649715 0.1740448 0.5025475 0.036158793 0.10728584 0.06321128 0.09538564 0.1230902
-0.016844476 0.29734546 0.71455735 -0.4368199 -0.81317884 0.2988258 1.0709728 -0.42780256
0.04126063 -0.24989285 1.0587516 0.1670601 -0.057161048 -0.030132594 -0.045526907 0.04376328
0.054765742 0.0044686277 0.19651759 0.087502226 -0.1462637 0.07684334 0.052564897 -0.3917623
0.4302157 -0.12658964 -0.08008755 -0.018435301 0.049230337 -0.123338096 0.07662629 0.11187267
-0.016229006 0.18041539 -0.08084831 -0.011340337 -0.057771027 0.09314478 -0.014713881 -0.0034484651
-0.0039030777 -0.11757085 -0.018371979 0.19478025 -0.258379 0.11818732 0.031029275 0.090144776
-0.022602713 0.036165155 -0.0011625073 0.12799382 -1.1801049 -0.33804128 -0.32900736 -0.6673416
0.5240114 -1.065272 0.53847325 2.0868323 -0.23308757 0.89728844 -0.7701812 -0.62959844
0.96686614 -0.7744185 1.86842 -0.51834065 1.6566344 -0.42781043 0.21440859 0.16566907
0.03552114 -0.08944238 0.124892905 -0.27986068 -0.1691097 0.20112088 0.38051662 -0.12078527
-0.24806775 0.10287977 0.10346676 -0.15428859 -0.08301591 0.3722188 -0.4315573 -0.100255065
-0.16719753 -0.3522576 0.18038394 0.067436114 1.3618747 0.17658377 -0.19228631 0.8951109
1.2287484 0.57035875 -1.0295706 0.57288957 -0.0590314 0.023583256 -0.42602757 0.05229407
-0.83888936 -0.12603857 0.9798549 -0.40569067 0.19936204 -1.6861132 -0.055055063 0.35446507
-0.26669258 0.38347527 -0.43518752 1.0162462 -1.1645135 -0.32573 -0.014234702 -0.14187016
0.547368 1.2939223 0.08549878 -0.321892 -0.26482454 0.13918193 -0.942553 -0.7201457
-0.6436103 0.124191284 0.24821427 -0.1801263 0.62947387 0.7331908 -0.36319694 0.9417957
0.2950484 0.61278164 -0.061865155 0.06583393 -0.30565473 0.07751561 -0.17636631 -0.059617214
-0.3186596 -0.6015516 1.3230637 1.625077 -0.2029341 -0.10293373 -0.7450984 -0.032113306
-0.16605999 -2.1493518 0.5730107 0.6201748 -0.103968285 -0.061027396 -0.78096926 -0.210516
-0.040931676 0.13274127 -0.29352072 0.018220702 0.6653254 -0.1181992 0.6471794 0.6993962
0.9477479 -0.07988307 -0.2867543 -0.30017897 -0.27329695 -0.03953236 0.31323695 -0.41818538
-0.123580925 0.22030072 0.03435481 -0.18915984 -0.00044830333 0.38830063 0.16736518 -0.3710871
-0.30322614 -0.36502668 -0.12553391 -0.18745022 -0.0037893748 0.027989212 -0.14952938 -0.05774949
0.32587972 -0.537927 -0.43171245 0.32977667 0.998689 0.55767787 -0.106338985 -0.8337776
0.522505 -1.0620674 -0.17624721 -0.17010023 -0.16045868 -1.5405314 -0.59057045 -0.017915938
00000000: 0000 0000 0000 0000 0000 0000 0000 0000
00000010: 0000 0000 0000 0000 0000 0000 0000 0000
00000020: 0000 0000 0000 0000 0000 0000 0000 0000
00000030: 0000 0000 0000 0000 0000 0000 0000 0000
00000040: 0000 0000 0000 0000 0000 0000 0000 0000
00000050: 85e4 dfbb c05b 98b9 cf21 483c 5b11 7f3c
00000060: 5ffd 46bc d06e f93b 6e5c 34bc b325 143b
00000070: 8b75 ae39 53ba 06bc 9c7b 79bc 999b fb3d
00000080: 38c7 be3b f67e af3a 3929 f83c 9a04 f13b
00000090: eb29 8d3b f3c2 b13c 9e8d 59bb f419 b23a
000000a0: 47be 6f3f cd38 323e f4a6 003f 3e1b 143d
000000b0: aeb8 db3d ea74 813d 8c59 c33d b716 fc3d
000000c0: 6dfd 89bc aa3d 983e 3bed 363f dca6 dfbe
000000d0: 7d2c 50bf b2ff 983e a315 893f f008 dbbe
000000e0: e800 293d e9e3 7fbe 2c85 873f ce11 2b3e
000000f0: b421 6abd a1d8 f6bc 6c7a 3abd 2041 333d
00000100: 0b52 603d 916d 923b e83b 493e 5e34 b33d
00000110: 27c6 15be 0b60 9d3d 4a4e 573d 1195 c8be
00000120: 3b45 dc3e b7a0 01be f104 a4bd a105 97bc
00000130: c0a5 493d af98 fcbd 3fee 9c3d 801d e53d
00000140: b1f2 84bc d0be 383e cc93 a5bd d2cc 39bc
00000150: 50a1 6cbd b1c2 be3d 7d12 71bc a5ff 61bb
00000160: c7ca 7fbb fcc8 f0bd d580 96bc 7974 473e
00000170: 414a 84be 320c f23d 1b31 fe3c d39d b83d
00000180: 5329 b9bc ea21 143d 465f 98ba d010 033e
00000190: ad0d 97bf bf13 adbe a773 a8be e6d6 2abf
000001a0: 9c25 063f d55a 88bf 62d9 093f a98e 0540
000001b0: 82ae 6ebe b2b4 653f 982a 45bf 5d2d 21bf
000001c0: 8a84 773f 4a40 46bf 6328 ef3f f9b1 04bf
000001d0: 990c d43f f809 dbbe ed8d 5b3e 27a5 293e
000001e0: 9d7e 113d 912d b7bd dac7 ff3d e649 8fbe
000001f0: 182b 2dbe a2f2 4d3e 13d3 c23e 455e f7bd
00000200: 7905 7ebe a1b2 d23d 61e6 d33d d4fd 1dbe
00000210: 3f04 aabd 7693 be3e 14f5 dcbe 8752 cdbd
00000220: d435 2bbe 1c5b b4be 91b6 383e f21b 8a3d
00000230: e951 ae3f 60d2 343e b4e6 44be fd25 653f
00000240: a147 9d3f 0803 123f f8c8 83bf e4a8 123f
00000250: e9ca 71bd ac31 c13c 4920 dabe 4f32 563d
00000260: 74c1 56bf 4110 01be c5d7 7a3f b0b6 cfbe
00000270: 9025 4c3e 8fd2 d7bf 6b81 61bd 727c b53e
00000280: ee8b 88be df56 c43e e6d0 debe 5b14 823f
00000290: c70e 95bf 15c6 a6be ab38 69bc 6946 11be
000002a0: 4f20 0c3f 3f9f a53f fc19 af3d 07cf a4be
000002b0: 1597 87be b585 0e3e 274b 71bf 785b 38bf
000002c0: a5c3 24bf 0058 fe3d e22b 7e3e 0773 38be
000002d0: 3325 213f 64b2 3b3f f3f4 b9be 8619 713f
000002e0: 9510 973e 42df 1c3f 5166 7dbd f1d3 863d
000002f0: c77e 9cbe 81c0 9e3d 5f99 34be 2e31 74bd
00000300: 5a27 a3be 49ff 19bf 275a a93f 8602 d03f
00000310: f5cd 4fbe ebce d2bd c5be 3ebf 3e89 03bd
00000320: a10b 2abe fb8e 09c0 d4b0 123f c7c3 1e3f
00000330: 53ed d4bd ddf7 79bd 9aed 47bf 8291 57be
00000340: f9a7 27bd 54ed 073e 5948 96be 9543 953c
00000350: c452 2a3f 6c12 f2bd 8dad 253f a10b 333f
00000360: 9b9f 723f bc99 a3bd 76d1 92be 0fb1 99be
00000370: 94ed 8bbe afec 21bd 9860 a03e 651c d6be
00000380: ff17 fdbd 8396 613e a1b7 0c3d 1eb3 41be
00000390: 410a ebb9 57cf c63e c761 2b3e 21ff bdbe
000003a0: 7540 9bbe c7e4 babe f68b 00be f3f2 3fbe
000003b0: 2957 78bb a249 e53c 3b1e 19be bb8a 6cbd
000003c0: b5d9 a63e 95b5 09bf 6a09 ddbe 7dd8 a83e
000003d0: 15aa 7f3f fac3 0e3f 41c8 d9bd 7372 55bf
000003e0: e3c2 053f d3f1 87bf 267a 34be c12e 2ebe
000003f0: 484f 24be 2230 c5bf a02f 17bf 72c4 92bc

weight_ih_l0 f4 [200, 20]
-0.6533353 -0.18011329 0.80819917 1.8751816 -0.9511687 -0.0038426747 -0.0094561875 -0.1848884
-0.79500276 -0.3505283 1.6116127 0.47015136 1.0918591 0.24072298 0.26644465 -0.2947353
-0.60887307 0.09243748 -0.34987646 -0.1342327 1.3004069 -2.065396 -0.5687593 -0.5796408
0.14934888 0.33525896 -0.45955825 -0.91289496 -1.1550978 -1.0279864 0.03641212 2.6982875
-0.21410525 0.15130873 0.91531545 -0.20968214 0.94500715 1.0444833 -0.29671547 -0.38574156
-0.12730885 0.843173 0.45252225 -1.1403674 -0.26215604 -0.9466729 -1.1271969 0.21023016
1.2205815 -0.004835298 0.07837407 0.108692475 -0.53135216 -0.5915451 0.20295516 1.2313056
-0.7541836 -0.65720695 -0.28518355 0.6719276 0.9097222 1.8900778 -1.0412512 -0.030431893
-0.19100371 1.7159376 -0.53641915 0.060239453 -0.63773316 1.0890042 -0.24207813 -0.6510664
-0.03067304 1.5749294 0.10893697 0.03254227 0.8227142 -0.16478324 0.59716636 -0.44667086
0.13488622 -0.7703727 -2.0286133 1.5101151 -0.59715486 0.45017466 -0.25283414 -0.5025904
0.6057105 0.3740045 -0.8733439 0.80137944 -1.4245442 -0.011380319 -1.2738506 0.04518308
1.7835611 -0.7848049 0.5647438 -0.16802482 0.063401535 -0.9594284 -0.30580756 0.29660544
0.8482181 0.18714388 -0.90194386 -0.36142585 -0.29599166 -1.5598065 1.5302296 0.44497645
-0.25802216 0.7623544 -1.1260732 -0.75703025 0.75652134 1.2299253 1.1176871 0.59194654
-0.92873853 0.5692553 0.073607035 -0.2557614 -0.5956797 0.12798163 -0.21728125 0.011346407
-0.32743543 0.8015908 0.5657962 0.21853465 0.35952672 -0.16721283 -0.6977117 -0.8400884
0.46070254 0.22569442 0.7060856 -0.011389588 0.8346537 -0.8790459 -0.13141042 0.1612137
-0.29752347 -0.028319266 -0.47472867 1.1611451 -0.35967112 -0.6091512 -0.73453766 2.78299
-0.31725678 0.2666883 0.8318982 0.60047823 -0.5223235 0.836048 0.21820363 0.3518341
-0.44784144 -1.8622054 -0.50124836 0.11489783 0.06460624 -0.10677542 -0.81978375 0.12648286
1.0331316 -0.45833224 -0.07875922 -0.08842057 0.17875895 -0.5177008 0.89398813 0.76442915
-0.51218575 -0.12842448 -0.35811472 -0.51535785 1.3431807 -0.10655127 0.5114249 0.45645896
-0.7775156 0.7212622 0.70373875 -0.8869719 -0.7480347 -0.17007653 -0.15981367 0.07101978
-0.11693763 0.22240707 0.679019 1.0315849 -0.20287924 -0.06183554 1.0200355 -0.5141821
-0.23876177 0.47135964 -0.73169696 0.35893145 0.53757656 -0.5209781 0.17173985 0.43437293
-0.47735438 -0.31626448 -0.13568781 0.05376861 -1.7801905 0.8126051 0.07904115 -0.19180873
-0.8685225 0.73323447 0.76426893 -0.23533803 0.07486009 -0.32649705 1.149738 -0.579863
-0.86451644 -1.4688367 -1.5699948 0.007079771 4.3894787 0.5922951 -0.37683225 0.79474604
-2.2279348 -0.91955864 -0.98816127 1.1063368 0.36327755 0.2180422 0.24831761 -1.432312
-0.53379756 -0.33806372 -0.09545061 -0.3080467 0.6317295 -0.21933624 -0.75127596 0.5070552
-0.7660358 0.093200244 0.5924879 -0.18856834 -0.22828506 -0.03517239 0.22152445 -0.30323255
00000000: fb40 27bf 9e6f 38be 24e6 4e3f f305 f03f
00000010: cb7f 73bf 62d5 7bbb 20ee 1abc 6253 3dbe
00000020: 4d85 4bbf 7278 b3be 5349 ce3f aeb7 f03e
00000030: 0ac2 8b3f 1680 763e 6f6b 883e 8ce7 96be
00000040: 1bdf 1bbf dd4f bd3d 0223 b3be 4c74 09be
00000050: bc73 a63f 732f 04c0 369a 11bf 5763 14bf
00000060: eaee 183e 10a7 ab3e 384b ebbe 7cb3 69bf
00000070: 3fda 93bf 0f95 83bf e024 153d beb0 2c40
00000080: 683e 5bbe adf0 1a3e 1d52 6a3f eab6 56be
00000090: fdeb 713f a1b1 853f 17eb 97be eb7f c5be
000000a0: 405d 02be 30da 573f ffb0 e73e 8ff7 91bf
000000b0: 5139 86be 2859 72bf fd47 90bf 9346 573e
000000c0: 043c 9c3f 6b71 9ebb 9682 a03d 299a de3d
000000d0: b206 08bf 806f 17bf 7ad3 4f3e 6c9b 9d3f
000000e0: 2d12 41bf b73e 28bf 9403 92be 7203 2c3f
000000f0: 8ee3 683f 12ee f13f b847 85bf 4e4c f9bc
00000100: 7a96 43be d8a3 db3f c452 09bf a5bd 763d
00000110: 7b42 23bf 7d64 8b3f 54e3 77be 4aac 26bf
00000120: 0746 fbbc 4997 c93f 591a df3d 0b4b 053d
00000130: 669d 523f f0bc 28be e5df 183f 0bb2 e4be
00000140: 9d1f 0a3e 2537 45bf cdd4 01c0 744b c13f
00000150: 24df 18bf 4b7d e63e 7a73 81be c4a9 00bf
00000160: d80f 1b3f 857d bf3e 7793 5fbf 3427 4d3f
00000170: 7757 b6bf 8474 3abc 890d a3bf e511 393d
00000180: bb4b e43f f9e8 48bf 0d93 103f b30e 2cbe
00000190: aad8 813d 1a9d 75bf cf92 9cbe abdc 973e
000001a0: d224 593f a5a2 3f3e cbe5 66bf cf0c b9be
000001b0: 388c 97be bda7 c7bf 90de c33f f4d3 e33e
000001c0: 7b1b 84be a829 433f 2b23 90bf bccc 41bf
000001d0: 62ab 413f 316e 9d3f 5f10 8f3f cf89 173f
000001e0: cfc1 6dbf b7ba 113f 49bf 963d 29f3 82be
000001f0: 777e 18bf 9e0d 033e fa7e 5ebe 48e6 393c
00000200: 9ea5 a7be 0e35 4d3f 05d8 103f 8cc7 5f3e
00000210: e313 b83e d739 2bbe 3c9d 32bf 0910 57bf
00000220: 34e1 eb3e 701c 673e 07c2 343f 659b 3abc
00000230: ddab 553f 2709 61bf 7490 06be 3415 253e
00000240: ff54 98be cefd e7bc a30f f3be 67a0 943f
00000250: d026 b8be 55f1 1bbf a90a 3cbf 821c 3240
00000260: 7b6f a2be 5e8b 883e 48f7 543f f1b8 193f
00000270: feb6 05bf 3e07 563f c670 5f3e 9923 b43e
00000280: 794b e5be bf5c eebf d051 00bf 8e4f eb3d
00000290: 4750 843d 12ad dabd 59dd 51bf b984 013e
000002a0: a83d 843f 86aa eabe 844c a1bd d815 b5bd
000002b0: 960c 373e 0a88 04bf 68dc 643f a1b1 433f
000002c0: 9b1e 03bf b581 03be d05a b7be 7eee 03bf
000002d0: 58ed ab3f 8d37 dabd beec 023f fdb4 e93e
000002e0: 430b 47bf a4a4 383f 3928 343f 9710 63bf
000002f0: 347f 3fbf 8b28 2ebe 32a6 23be d272 913d
00000300: ff7c efbd aebe 633e 30d4 2d3f f90a 843f
00000310: 93bf 4fbe 4347 7dbd 8690 823f 70a1 03bf
00000320: f77d 74be 0d56 f13e 7e50 3bbf ddc5 b73e
00000330: 9e9e 093f d25e 05bf 92dc 2f3e 2166 de3e
00000340: cb67 f4be 6bed a1be bff1 0abe 793c 5c3d
00000350: 48dd e3bf e306 503f 54e0 a13d 8269 44be
00000360: 7e57 5ebf 41b5 3b3f 21a7 433f 74fc 70be
00000370: 3f50 993d 9f2a a7be 9d2a 933f e771 14bf
00000380: f350 5dbf d702 bcbf 97f5 c8bf 6cfd e73b
00000390: 9c76 8c40 a7a0 173f 28f0 c0be 7a74 4b3f
000003a0: 7c96 0ec0 3268 6bbf 23f8 7cbf 729c 8d3f
000003b0: 84ff b93e 7446 5f3e f946 7e3e 0056 b7bf
000003c0: f5a6 08bf b016 adbe 9c7b c3bd 4cb8 9dbe
000003d0: 06b9 213f ae99 60be 9f53 40bf 5fce 013f
000003e0: ec1a 44bf c5df be3d 49ad 173f 0f18 41be
000003f0: 8fc3 69be ed10 10bd 4ed7 623e 4c41 9bbe

weight_hh_l0 f4 [200, 50]
-3.5233862 -0.7036753 1.4319029 -2.9446146 -3.9200227 -4.413764 -2.0536542 -4.3469305
0.66932935 0.15705548 -3.160791 -0.99159527 1.8049458 -9.156776 2.4263442 2.4264863
-2.1816902 0.89872766 6.3762107 2.2868497 2.8761237 1.5660304 1.4456196 -1.2462227
3.5503504 -4.612374 0.5405798 -0.3462855 -0.36778453 3.1408856 -0.8954984 -3.7149472
0.82419556 0.12940714 4.502315 4.835593 0.45185682 -2.9961662 2.125813 1.8657207
1.0879374 1.516952 1.0450747 2.5633283 4.52864 -1.556635 -1.3671699 1.5707898
-6.714951 1.758778 -0.23834336 -0.2473723 1.1225909 1.4392364 0.31527844 1.240237
0.85008174 -2.8610332 0.21145572 0.5227257 0.8314377 -0.028050132 0.566443 0.95238584
1.6968348 -0.6575213 -1.3400474 1.8029113 2.5531628 0.90663004 0.7587489 -0.666563
-0.58608025 -0.4720678 0.7133091 -0.5531782 -1.8310798 1.0623554 0.45284563 0.49184385
-0.6713263 -1.8780464 1.0802788 -0.87354946 -0.31230694 -0.35278907 1.4244889 0.56193876
0.03364182 0.07793251 -0.7372588 0.81095356 -0.3427006 -0.4169612 1.6413559 0.7672854
1.6666523 2.008888 -0.6669107 2.7864249 -0.8211444 -1.3958927 2.8094268 0.7642953
-3.455396 0.7207848 -0.5069344 -4.551788 -1.5122647 1.913314 -2.3936694 2.711119
-1.477985 2.873549 -1.1122729 2.3655653 -2.2303293 -0.109344035 2.182771 -2.8631155
-1.0313631 0.60932094 1.0594918 1.0929697 2.548683 3.5587323 -0.5283095 -0.15742943
2.3972812 1.1258731 -0.75132376 0.61563295 2.229358 0.12252809 -2.1322815 3.0309515
2.1565151 -4.184004 -0.5333758 -1.9210595 -0.7449813 -0.8102861 -0.88051146 -2.0840285
5.922742 2.7512753 1.198583 5.648748 -1.2205038 0.75421625 0.34765652 -0.03954345
-2.9281092 2.2079334 -1.4504366 -0.24314086 -1.8950007 -1.1585462 -1.4296824 0.45390704
1.3243837 -0.07340112 0.89780724 1.7136905 1.388236 0.55973303 -1.0531873 0.48765635
1.2102805 3.2005658 -4.797654 -0.8940039 1.0345738 -0.85888463 -1.3050138 -1.6853603
-0.28974473 -1.1497226 -3.4303138 1.4093667 -0.31769007 -0.22769639 2.1462743 2.166585
0.24640259 3.1389751 0.89429367 2.1870108 -0.02137923 1.5019102 2.951718 -3.0154748
0.6438095 -0.7842858 -0.36142153 -0.5159398 -1.0358616 0.8689293 3.74563 1.1634604
-3.3411083 -0.32999143 0.29977787 -0.28761402 -3.1223755 -0.9858041 -3.4775887 0.11444387
0.3180191 1.8751639 -1.293301 -0.2702872 -0.003636954 -21.370735 0.9941885 1.4734062
-2.444021 0.8034497 3.4392605 2.0428567 1.8331093 -0.94462264 -0.09533462 -1.2123134
2.0082505 0.42251122 -1.327687 0.31003258 0.9994815 -1.52065 -0.49204767 -1.3201824
0.6573032 -1.7477874 4.657339 2.2569036 0.5074065 5.364202 0.6529876 1.1452136
3.4250393 2.7212653 -1.6747442 2.0744941 3.3848593 0.40824082 0.6293112 1.7924371
0.21072473 0.41888857 -0.2553182 0.1775743 0.919843 1.9406183 1.3703401 0.34098676
00000000: 297f 61c0 1124 34bf 9848 b73f 9174 3cc0
00000010: a7e1 7ac0 8e3d 8dc0 126f 03c0 0e1a 8bc0
00000020: 2b59 2b3f 27d3 203e 664a 4ac0 30d9 7dbf
00000030: 7708 e73f 2882 12c1 3949 1b40 8d4b 1b40
00000040: d0a0 0bc0 0413 663f eb09 cc40 bf5b 1240
00000050: 6912 3840 af73 c83f 100a b93f 3a84 9fbf
00000060: f138 6340 9198 93c0 7063 0a3f 554c b1be
00000070: 414e bcbe 4504 4940 623f 65bf b2c1 6dc0
00000080: 7bfe 523f 4e83 043e f712 9040 2ebd 9a40
00000090: c759 e73e 30c1 3fc0 520d 0840 f0cf ee3f
000000a0: 8841 8b3f 7c2b c23f 02c5 853f 920d 2440
000000b0: 9eea 9040 d13f c7bf 6cff aebf a40f c93f
000000c0: e1e0 d6c0 a31f e13f 4810 74be 2a4f 7dbe
000000d0: 0fb1 8f3f e638 b83f 2d6c a13e 16c0 9e3f
000000e0: f59e 593f 2b1b 37c0 d987 583e 5ad1 053f
000000f0: 1ad9 543f 64c9 e5bc 6902 113f 8fcf 733f
00000100: e231 d93f 5153 28bf ac86 abbf ccc5 e63f
00000110: 0567 2340 e818 683f 5e3d 423f dfa3 2abf
00000120: 5b09 16bf dfb2 f1be 6d9b 363f 169d 0dbf
00000130: d360 eabf 43fb 873f 62db e73e f5d2 fb3e
00000140: 0adc 2bbf d363 f0bf 9346 8a3f f0a0 5fbf
00000150: b2e6 9fbe c5a0 b4be a755 b63f 38db 0f3f
00000160: 01cc 093d 149b 9f3d febc 3cbf a79a 4f3f
00000170: 7476 afbe f07b d5be f317 d23f d16c 443f
00000180: dd54 d53f 9f91 0040 a9ba 2abf c954 3240
00000190: 8536 52bf 9dac b2bf a6cd 3340 dba8 433f
000001a0: 3525 5dc0 5a85 383f 74c6 01bf 3fa8 91c0
000001b0: e491 c1bf 79e7 f43f e131 19c0 f982 2d40
000001c0: 9d2e bdbf 3ae8 3740 f55e 8ebf 6c65 1740
000001d0: b7bd 0ec0 c4ef dfbd 85b2 0b40 493d 37c0
000001e0: b503 84bf 75fc 1b3f 6d9d 873f 6ee6 8b3f
000001f0: 9f1d 2340 45c2 6340 4b3f 07bf 2e35 21be
00000200: 0e6d 1940 9c1c 903f c156 40bf 1f9a 1d3f
00000210: cdad 0e40 02f0 fa3d 4d77 08c0 1cfb 4140
00000220: 5804 0a40 5ce3 85c0 518b 08bf 47e5 f5bf
00000230: 18b7 3ebf e96e 4fbf 3369 61bf b960 05c0
00000240: 1a87 bd40 e514 3040 2b6b 993f 8bc2 b440
00000250: 7839 9cbf 5114 413f 0900 b23e 50f8 21bd
00000260: 2466 3bc0 c84e 0d40 e8a7 b9bf ebf9 78be
00000270: 628f f2bf 3e4b 94bf d5ff b6bf 8166 e83e
00000280: 6885 a93f 5453 96bd b2d6 653f 365a db3f
00000290: b8b1 b13f aa4a 0f3f d7ce 86bf 18ae f93e
000002a0: 79ea 9a3f 12d6 4c40 6286 99c0 71dd 64bf
000002b0: ea6c 843f dddf 5bbf b10a a7bf e3b9 d7bf
000002c0: 6c59 94be 1c2a 93bf 438a 5bc0 2166 b43f
000002d0: 46a8 a2be 3e29 69be 8f5c 0940 54a9 0a40
000002e0: f650 7c3e f8e4 4840 6ef0 643f fcf7 0b40
000002f0: 7f23 afbc 983e c03f f3e8 3c40 8afd 40c0
00000300: b3d0 243f f4c6 48bf 3e0c b9be a114 04bf
00000310: 1d97 84bf 2772 5e3f 67b8 6f40 45ec 943f
00000320: b8d4 55c0 a3f4 a8be 7c7c 993e 2542 93be
00000330: 00d5 47c0 a85d 7cbf d090 5ec0 8c61 ea3d
00000340: 66d3 a23e 5f05 f03f e38a a5bf 1563 8abe
00000350: f659 6ebb 44f7 aac1 2383 7e3f 9398 bc3f
00000360: d76a 1cc0 e1ae 4d3f d81c 5c40 2abe 0240
00000370: 53a3 ea3f cad2 71bf cc3e c3bd 162d 9bbf
00000380: 2d87 0040 6453 d83e a6f1 a9bf 97bc 9e3e
00000390: 05de 7f3f a9a4 c2bf aced fbbe bdfb a8bf
000003a0: 0645 283f 7fb7 dfbf ec08 9540 1c71 1040
000003b0: 64e5 013f 8ba7 ab40 322a 273f 5c96 923f
000003c0: d833 5b40 3629 2e40 055e d6bf 83c4 0440
000003d0: 89a1 5840 f104 d13e 8a1a 213f 946e e53f
000003e0: 39c8 573e 9078 d63e 11b9 82be 0ad6 353e
000003f0: d57a 6b3f 2e66 f83f 4e67 af3f d195 ae3e

bias_ih_l0 f4 [200]
0.94742155 -0.05665182 1.3749952 -0.0013935133 2.148842 1.8801379 -0.344712 0.1680123
-0.13444288 1.0384296 2.2630785 0.42961934 -0.21470264 1.2230877 0.28428936 -0.3206568
1.1373043 0.22376893 0.83122104 0.5922268 0.59306103 0.83555615 0.75646603 -0.2803089
-0.6643312 2.0137765 -0.86267036 1.2279383 0.29979184 0.8605996 1.718869 0.578373
0.32873604 1.7704746 0.8738029 0.4577485 1.3850678 1.4321 0.23939131 2.8971055
0.10600895 0.35737208 0.17468056 -0.8217934 1.9533473 0.17631392 0.571835 0.573536
3.795992 -0.43125227 -0.045482174 0.7005736 1.3920368 -0.34393582 0.70241225 1.6677992
-0.47263008 -0.5080665 0.22309808 -0.12017255 0.5495296 -0.26902634 -0.20332292 1.9474461
-0.20627733 1.5696702 -0.23684248 1.0658271 0.17222169 -1.3316089 2.402907 -0.09734692
0.20289369 -0.019303944 1.2227479 0.425545 1.7699143 -0.3857603 0.2389145 0.3302793
-1.0544418 1.0436171 0.53812116 -0.20124783 -0.37127367 -1.0610969 -1.4941635 0.42636576
0.44147015 -2.4875963 1.3941013 0.7004398 0.09576889 -0.1894125 0.22277515 -0.023999203
-0.5286041 -0.27990928 0.6460127 -0.6160054 -0.9946628 -1.0492032 -0.176934 1.1840953
0.7223434 -0.9532926 -0.8671089 -0.019088501 0.34433585 0.28052342 -0.5753851 -1.0114089
-0.91593695 1.2074789 0.06780982 0.8497722 -0.5060231 0.6625708 0.55774206 0.79639655
-0.39282015 -0.83516085 0.00033140703 0.5084836 1.5450367 -0.6088532 0.39364606 0.07590876
-0.19210103 1.1436082 -0.78762996 0.53645104 0.1579857 0.110038385 -0.012822392 -0.2415159
-0.5223531 0.7410639 0.95234555 0.7218287 0.72672313 -0.9610765 -0.73588395 0.428447
-0.69550127 0.7657564 0.703894 0.13205564 0.9866359 0.30597734 0.130773 0.65191036
0.4083687 1.4861878 1.7733566 0.5266937 -0.34002554 0.6123269 -0.052340865 0.8956513
0.57449645 0.6075911 -1.182626 -0.40997437 1.6555879 1.6545329 0.61810786 0.46060914
0.10731274 2.0457723 0.7217312 0.6149305 0.33231026 -0.23064062 -1.1406518 -0.9807862
-0.8701794 0.7493473 0.0034023605 0.20094845 0.7976184 1.3127043 0.56466746 1.9473238
1.4406903 -0.47779182 0.22828846 0.8519637 1.6540897 1.9273077 -1.0794238 -0.7975786
-0.7607009 0.6390244 1.0615468 -0.8667187 0.61131066 -0.39360547 0.6699445 0.68951124
00000000: 388a 723f bd0b 68bd d8ff af3f 8ca6 b6ba
00000010: a186 0940 5ca8 f03f 177e b0be 6b0b 2c3e
00000020: 65ab 09be 43eb 843f 47d6 1040 11f7 db3e
00000030: 02db 5bbe 238e 9c3f 608e 913e 212d a4be
00000040: 3093 913f af23 653e e7ca 543f 2d9c 173f
00000050: d9d2 173f 02e7 553f c2a7 413f a684 8fbe
00000060: 9c11 2abf b7e1 0040 f7d7 5cbf 152d 9d3f
00000070: 517e 993e 4150 5c3f e603 dc3f 4110 143f
00000080: 1750 a83e e99e e23f 8cb1 5f3f 035e ea3e
00000090: e749 b13f 0e4f b73f ff22 753e 2d6a 3940
000000a0: 381b d93d 79f9 b63e 76df 323e 0d61 52bf
000000b0: 4907 fa3f a38b 343e c763 123f 41d3 123f
000000c0: 88f1 7240 19cd dcbe 844b 3abd cb58 333f
000000d0: 432e b23f 5b18 b0be 4ad1 333f 727a d53f
000000e0: 92fc f1be a510 02bf d373 643e 071d f6bd
000000f0: f9ad 0c3f d2bd 89be e233 50be ea45 f93f
00000100: 5d3a 53be f4ea c83f d686 72be 066d 883f
00000110: e25a 303e 2972 aabf 3ac9 1940 d25d c7bd
00000120: 5dc3 4f3e 4e23 9ebc 0183 9c3f 09e1 d93e
00000130: 8d8c e23f 6082 c5be 01a6 743e 5e1a a93e
00000140: f3f7 86bf 3f95 853f 4fc2 093f e913 4ebe
00000150: 9517 bebe 06d2 87bf c040 bfbf 9d4c da3e
00000160: 6008 e23e c734 1fc0 e971 b23f 0650 333f
00000170: 7b22 c43d 5af5 41be 2b1f 643e fa99 c4bc
00000180: 9952 07bf 4550 8fbe 1761 253f 88b2 1dbf
00000190: 39a2 7ebf 4a4c 86bf 302e 35be 6f90 973f
000001a0: 7feb 383f fc0a 74bf d9fa 5dbf 7d5f 9cbc
000001b0: ca4c b03e c4a0 8f3e 704c 13bf d975 81bf
000001c0: d87a 6abf ab8e 9a3f e0df 8a3d ac8a 593f
000001d0: bb8a 01bf 3d9e 293f 2fc8 0e3f a5e0 4b3f
000001e0: b91f c9be 1acd 55bf b3c0 ad39 fb2b 023f
000001f0: c3c3 c53f cedd 1bbf fa8b c93e 0d76 9b3d
00000200: 22b6 44be c161 923f 1ea2 49bf db54 093f
00000210: 01c7 213e ce5b e13d 0315 52bc f24f 77be
00000220: efb8 05bf 5db6 3d3f ebcc 733f c4c9 383f
00000230: 870a 3a3f 1c09 76bf e462 3cbf 685d db3e
00000240: 5f0c 32bf 9d08 443f 6632 343f 9839 073e
00000250: 2c94 7c3f 10a9 9c3e 5be9 053e 99e3 263f
00000260: b415 d13e 673b be3f 59fd e23f 66d5 063f
00000270: d417 aebe 75c1 1c3f 6063 56bd 6749 653f
00000280: 3312 133f 178b 1b3f 4a60 97bf 29e8 d1be
00000290: 4eea d33f bcc7 d33f 513c 1e3f f6d4 eb3e
000002a0: c8c6 db3d efed 0240 60c3 383f 166c 1d3f
000002b0: 9224 aa3e 0e2d 6cbe e100 92bf ce14 7bbf
000002c0: 14c4 5ebf 3ad5 3f3f 23fa 5e3b 6ec5 4d3e
000002d0: b830 4c3f b206 a83f 0c8e 103f e841 f93f
000002e0: 8a68 b83f 21a1 f4be 73c4 693e 4b1a 5a3f
000002f0: 36b9 d33f 05b2 f63f 8f2a 8abf 1c2e 4cbf
00000300: 4bbd 42bf 1a97 233f c4e0 873f 47e1 5dbf
00000310: db7e 1c3f a886 c9be 7c81 2b3f cf83 303f

bias_hh_l0 f4 [200]
0.963775 -0.1614867 1.591109 -0.04722146 2.2530427 1.8643767 -0.3725164 0.11139008
-0.1349249 1.2034193 2.2977464 0.31042314 -0.21323244 1.1333803 0.4654256 -0.18963067
1.2751292 0.32520172 0.8934728 0.64612156 0.38139942 0.8612044 0.9785853 -0.26449984
-0.6927061 2.012031 -0.7274641 1.1466689 0.1267881 0.9474111 1.7649028 0.4833364
0.36738616 1.7886606 0.81383425 0.34445974 1.299358 1.3137099 0.26617923 2.6383886
0.09576799 0.20190659 0.326531 -0.92979497 1.8589066 0.33291012 0.78476167 0.586767
3.8009639 -0.5074323 0.011344778 0.5811003 1.4307044 -0.30000463 0.5157407 1.656831
-0.35820633 -0.44773477 0.29836887 -0.00826544 0.331597 -0.34487063 -0.274103 1.8315188
-0.31799817 1.6336297 -0.32245827 0.95129234 0.05303086 -1.142299 2.2279973 -0.17281339
0.21534339 0.11372328 1.0782096 0.2602344 1.7086555 -0.35437483 0.29285505 0.4492169
-1.0987288 0.9793706 0.3911894 -0.104200035 -0.6071324 -0.99276966 -1.5129749 0.43244028
0.2789771 -2.478924 1.2223964 0.7276538 0.083941445 0.04631675 0.19842364 -0.026264189
-0.36662975 -0.12085509 0.6149956 -0.70416075 -1.0329762 -1.0718004 -0.11286869 1.0677022
0.82588005 -0.97588676 -0.91009194 0.02900027 0.4182456 0.30157816 -0.71815574 -0.94197637
-1.0032953 1.1171159 0.08657062 0.8381269 -0.6192963 0.6910659 0.44547948 0.6112522
-0.40177435 -0.8598088 -0.15992689 0.59523845 1.601247 -0.7280894 0.4040841 -0.031950332
-0.14644489 1.326335 -0.74527806 0.53128153 0.09892373 0.21818836 -0.17681162 -0.15576649
-0.35528228 0.73201436 1.0306326 0.53557706 0.69124925 -0.8759441 -0.53291273 0.2954956
-0.59630424 0.7552012 0.7472805 0.33910137 0.93184185 0.1632487 0.33947733 0.68767285
0.29643923 1.4694415 1.9211853 0.51071405 -0.3684032 0.5108815 0.086111344 0.9295877
0.5236787 0.6636478 -1.0548706 -0.6083323 1.591095 1.5338556 0.5294183 0.4319455
0.23223847 2.153099 0.7431298 0.4218217 0.0999921 -0.35365903 -1.2291067 -0.9072009
-0.734732 0.6961105 -0.16408274 0.23858887 0.6955437 1.1910067 0.57041276 1.8522434
1.3562078 -0.42630857 0.30764496 0.85990393 1.5666162 1.7836102 -1.0274864 -0.7818544
-0.8771253 0.49523255 1.3162625 -0.74943256 0.49380735 -0.4461999 0.66554683 0.4747894
00000000: f5b9 763f c55c 25be 76a9 cb3f 4a6b 41bd
00000010: da31 1040 e5a3 ee3f 78ba bebe 7b20 e43d
00000020: c129 0abe a509 9a3f 470e 1340 c8ef 9e3e
00000030: 9b59 5abe 9b12 913f 444c ee3e 8b2e 42be
00000040: 6f37 a33f d780 a63e a2ba 643f 3968 253f
00000050: c946 c33e e477 5c3f 9184 7a3f 866c 87be
00000060: 3055 31bf 1ec5 0040 163b 3abf 0cc6 923f
00000070: bdd4 013e 8989 723f 56e8 e13f de77 f73e
00000080: 0a1a bc3e d5f2 e43f 7157 503f 075d b03e
00000090: 5d51 a63f a527 a83f a548 883e 5cdb 2840
000000a0: 0222 c43d 9ac0 4e3e 122f a73e 0b07 6ebf
000000b0: a7f0 ed3f 3273 aa3e 24e6 483f 5d36 163f
000000c0: fe42 7340 15e7 01bf 73df 393c fdc2 143f
000000d0: 5221 b73f 359a 99be 9507 043f 0a13 d43f
000000e0: d266 b7be 7e3d e5be cec3 983e c56b 07bc
000000f0: 15c7 a93e e292 b0be 3a57 8cbe 356f ea3f
00000100: a8d0 a2be c71a d13f 4019 a5be e587 733f
00000110: e336 593d db36 92bf 8297 0e40 fef5 30be
00000120: fa82 5c3e c0e7 e83d c602 8a3f 713d 853e
00000130: 39b5 da3f 9e70 b5be 19f1 953e c2ff e53e
00000140: 25a3 8cbf 08b8 7a3f fa49 c83e d466 d5bd
00000150: 076d 1bbf 2726 7ebf 29a9 c1bf d068 dd3e
00000160: 16d6 8e3e b1a6 1ec0 7c77 9c3f 8547 3a3f
00000170: 7ee9 ab3d a2b6 3d3d 912f 4b3e ff27 d7bc
00000180: e5b6 bbbe e082 f7bd 5a70 1d3f e143 34bf
00000190: 9038 84bf c130 89bf b327 e7bd 77aa 883f
000001a0: e06c 533f b7d3 79bf c9fb 68bf f991 ed3c
000001b0: 4a24 d63e 7468 9a3e 0ed9 37bf 5d25 71bf
000001c0: fb6b 80bf a7fd 8e3f f04b b13d 7c8f 563f
000001d0: 348a 1ebf b2e9 303f e315 e43e 067b 1c3f
000001e0: 5eb5 cdbe 6e1c 5cbf e0c3 23be 8c61 183f
000001f0: a9f5 cc3f 1164 3abf 1ce4 ce3e 5ade 02bd
00000200: a6f5 15be 58c5 a93f 8bca 3ebf 1102 083f
00000210: 8698 ca3d c56c 5f3e 1b0e 35be 4081 1fbe
00000220: 8fe7 b5be 4b65 3b3f c5eb 833f 941b 093f
00000230: b6f5 303f df3d 60bf f86c 08bf 334b 973e
00000240: 65a7 18bf de54 413f c64d 3f3f b29e ad3e
00000250: 308d 6e3f ab2a 273e f9cf ad3e 540b 303f
00000260: e2c6 973e a916 bc3f 66e9 f53f 28be 023f
00000270: 589f bcbe 21c9 023f 255b b03d 76f9 6d3f
00000280: cf0f 063f d2e4 293f 0006 87bf aabb 1bbf
00000290: 00a9 cb3f 6155 c43f f587 073f f627 dd3e
000002a0: eccf 6d3e 60cc 0940 c13d 3e3f 04f9 d73e
000002b0: a8c8 cc3d cc12 b5be 5e53 9dbf 513e 68bf
000002c0: 6517 3cbf 4c34 323f 4e05 28be a450 743e
000002d0: 270f 323f e872 983f 9206 123f 5016 ed3f
000002e0: 3898 ad3f 1e45 dabe a483 9d3e aa22 5c3f
000002f0: e186 c83f 574d e43f ad84 83bf 9c27 48bf
00000300: 498b 60bf 1f8f fd3e 4a7b a83f d0da 3fbf
00000310: 51d4 fc3e 5074 e4be 4761 2a3f 9917 f33e

weight f4 [74, 50]
-0.73880374 1.15141 0.666517 -1.3377405 -0.063274786 -0.61687785 0.1537599 -0.19012763
-1.3215325 -0.5172829 0.5632621 1.5676502 0.9882175 -0.041544892 0.72283745 -1.380195
1.3020014 -0.2550043 -1.0970412 0.42011335 0.910293 1.1367992 -1.5515838 -0.62787527
-0.24018882 -0.13903467 0.32901675 -0.40978438 0.4780502 -1.4305913 0.19954556 -1.2076217
-0.2748471 0.5000657 0.2688848 1.509417 1.4868867 -0.4594668 -1.4238422 0.29197672
-0.76541114 0.94375443 1.5285796 0.13116953 0.19717996 -1.3201131 -1.1679004 -0.04222876
-1.1427718 1.6343118 -0.5685142 1.0827924 0.44415274 -1.2944614 -0.07996433 -0.59291
0.052232265 0.039065443 -1.2158848 -0.52479774 0.60286707 1.3608243 0.86819506 0.08123403
0.8240538 -1.1876478 1.3068279 -0.2109389 -1.1426929 0.44012496 0.9660594 1.0045906
-1.3833133 -0.6620894 -0.38827413 -0.1066877 0.22708507 -0.49586117 0.5227815 -1.4273895
0.27274132 -1.0986105 -0.23367389 0.5028106 0.28162193 1.4192858 1.3873539 -0.448015
-1.2897309 0.2576519 -0.7218394 0.80493957 1.7044374 0.091203615 0.16332579 -1.3779205
-1.1636062 0.10794695 -1.2002407 1.7269984 2.2853484 -1.3338667 -0.13475476 -0.5839034
-1.2708294 2.7536745 -0.07612189 -0.53563714 0.17527756 -0.6012945 5.517686 1.0322673
-4.5857267 -0.74043757 0.21015416 1.5785781 -1.8227378 -0.5767904 -0.06265567 -1.0089363
0.3327631 -0.5570539 0.56501085 0.9854483 -3.2586632 -0.92428195 1.0643703 -1.0590634
1.265622 -0.05841357 0.70419765 1.2767534 -1.0202231 -1.5303681 -3.3089252 3.072204
1.0605109 2.3908556 1.263377 0.18823233 2.2514882 -2.4185724 0.39072868 -1.4632691
-2.4814177 2.0118911 0.52896553 0.6742893 -2.190498 -0.18846579 1.4127929 -0.32151538
-0.5143694 -3.2015822 -0.24382475 -0.24054493 3.2819667 -21.868155 0.6988619 -0.68814486
-1.2436101 1.6435165 1.03856 0.3096485 -1.6393826 -8.58038 0.4912645 -4.5299616
-0.12599437 0.2369832 10.029893 -0.06505678 -1.0888991 -0.49723297 1.1731528 0.6802569
2.9598684 2.5342271 -0.37708855 -1.6731619 -0.57148147 -6.0201964 -0.44149423 -0.10511762
1.27667 0.42160472 4.5539503 -1.6588451 -0.81491363 -1.5311066 -0.40904436 3.0415568
-0.23370345 9.947037 -3.3640902 -2.8222082 -2.57523 0.42251503 -2.9378355 1.8228282
0.11072908 0.9700651 -2.6325386 -0.38916686 1.0595491 0.1257314 0.7871071 0.28107405
-0.91472626 0.2178493 -1.4125454 -0.5569468 1.3159435 -0.42687592 0.62495685 0.095110424
0.46826014 -1.7835435 2.066417 0.66445935 -0.3510366 0.7611926 -0.6569048 1.3186809
1.1849251 -0.14296307 -0.6331288 -0.3988836 2.1380806 -0.6019743 -1.05925 -1.1040698
1.641581 -0.751994 -3.7073932 -1.0048007 0.7522629 -1.0971172 0.25072518 1.5995129
0.047531 2.27009 -0.22842723 -0.6151255 1.8711196 -4.2122946 0.40182236 -0.3058892
-1.7139007 1.8197225 -0.67761976 -0.13108042 -4.4847684 3.2733123 -0.031028304 2.334441
00000000: 3e22 3dbf 6761 933f dca0 2a3f 153b abbf
00000010: 3696 81bd b5eb 1dbf 3c73 1d3e d1b0 42be
00000020: fa27 a9bf a76c 04bf f231 103f c3a8 c83f
00000030: d2fb 7c3f fa2a 2abd e00b 393f 3baa b0bf
00000040: fba7 a63f ec8f 82be d96b 8cbf 1919 d73e
00000050: f608 693f a382 913f 4c9a c6bf 6fbc 20bf
00000060: 0ff4 75be 1b5f 0ebe e274 a83e 42cf d1be
00000070: ffc2 f43e 9e1d b7bf ac55 4c3e 5993 9abf
00000080: c2b8 8cbe 4e04 003f 45ab 893e 9434 c13f
00000090: 4e52 be3f 3b3f ebbe 7640 b6bf f97d 953e
000000a0: fcf1 43bf e499 713f 7fa8 c33f 4e51 063e
000000b0: 8be9 493e 77f9 a8bf c37d 95bf 10f8 2cbd
000000c0: 5946 92bf 2131 d13f 268a 11bf f198 8a3f
000000d0: fd67 e33e e9b0 a5bf 57c4 a3bd f3c8 17bf
000000e0: 80f1 553d 1603 203d 1da2 9bbf 2559 06bf
000000f0: 7f55 1a3f 7e2f ae3f 0842 5e3f 075e a63d
00000100: 31f5 523f d804 98bf 2346 a73f 5e00 58be
00000110: c343 92bf 0f58 e13e ab4f 773f 6d96 803f
00000120: 6910 b1bf b17e 29bf decb c6be 157f dabd
00000130: fd88 683e 84e1 fdbe 02d5 053f b3b4 b6bf
00000140: c0a4 8b3e 459f 8cbf 3548 6fbe 32b8 003f
00000150: c030 903e 28ab b53f d094 b13f 3962 e5be
00000160: e715 a5bf f3ea 833e 78ca 38bf 8510 4e3f
00000170: 012b da3f f6c8 ba3d e03e 273e b35f b0bf
00000180: 0cf1 94bf 4a13 dd3d 7da1 99bf 490e dd3f
00000190: 2643 1240 25bc aabf 27fd 09be b17a 15bf
000001a0: 8aaa a2bf 343c 3040 cbe5 9bbd 841f 09bf
000001b0: f67b 333e 70ee 19bf e290 b040 5621 843f
000001c0: 46be 92c0 518d 3dbf a732 573e d90e ca3f
000001d0: 794f e9bf 89a8 13bf 9e51 80bd d324 81bf
000001e0: ed5f aa3e 169b 0ebf 8da4 103f 5746 7c3f
000001f0: f08d 50c0 be9d 6cbf 493d 883f 648f 87bf
00000200: e7ff a13f 1143 6fbd 4c46 343f a86c a33f
00000210: ac96 82bf 1ae3 c3bf 6ec5 53c0 fe9e 4440
00000220: d2be 873f c703 1940 56b6 a13f fabf 403e
00000230: 6218 1040 e4c9 1ac0 970d c83e 674c bbbf
00000240: 8ccf 1ec0 d3c2 0040 496a 073f 399e 2c3f
00000250: 1f31 0cc0 2dfd 40be 66d6 b43f aa9d a4be
00000260: b7ad 03bf b9e6 4cc0 32ad 79be 6951 76be
00000270: be0b 5240 fbf1 aec1 9de8 323f 432a 30bf
00000280: 9e2e 9fbf c05e d23f 89ef 843f 408a 9e3e
00000290: 4ad7 d1bf 3d49 09c1 0587 fb3e 72f5 90c0
000002a0: ab04 01be b9ab 723e 717a 2041 7d3c 85bd
000002b0: 0c61 8bbf 5295 febe df29 963f 5125 2e3f
000002c0: 7c6e 3d40 c730 2240 c011 c1be 2b2a d6bf
000002d0: 9c4c 12bf 73a5 c0c0 880b e2be e847 d7bd
000002e0: ec69 a33f 93dc d73e f6b9 9140 0955 d4bf
000002f0: 2e9e 50bf 4dfb c3bf 436e d1be dea8 4240
00000300: f54f 6fbe 1027 1f41 414d 57c0 0f9f 34c0
00000310: 91d0 24c0 e453 d83e 7f05 3cc0 6f52 e93f
00000320: eec5 e23d 3056 783f 837b 28c0 e140 c7be
00000330: 4e9f 873f bbbf 003e da7f 493f f0e8 8f3e
00000340: 802b 6abf e313 5f3e 4ace b4bf 1194 0ebf
00000350: d670 a83f 7b8f dabe 2cfd 1f3f 41c9 c23d
00000360: cbbf ef3e 274b e4bf 2d40 0440 021a 2a3f
00000370: 12bb b3be 85dd 423f ea2a 28bf 89ca a83f
00000380: a0ab 973f e964 12be bb14 22bf 793a ccbe
00000390: 50d6 0840 fd1a 1abf 8195 87bf 2952 8dbf
000003a0: 541f d23f ae82 40bf ee45 6dc0 4f9d 80bf
000003b0: 4d94 403f 566e 8cbf 0d5f 803e d7bc cc3f
000003c0: deaf 423d 2849 1140 d4e8 69be dd78 1dbf
000003d0: d980 ef3f 1ecb 86c0 a9bb cd3e 829d 9cbe
000003e0: 1961 dbbf abec e83f 7d78 2dbf f239 06be
000003f0: 3983 8fc0 f37d 5140 122f febc 7b67 1540

bias f4 [74]
-1.3849863 -1.4271255 1.5827217 -2.2037373 2.166907 -3.868242 4.2302103 -1.261873
-2.749525 -0.5956487 -2.1542695 -0.68280154 -1.7293769 -1.4876137 1.5158708 0.9054347
0.06506216 -0.1589856 -0.21570194 -0.46765324 -1.1112117 -1.4703946 -1.7136647 0.056286607
-1.1269914 -0.7105094 -2.749619 -0.34221324 -0.078845836 -2.667188 -1.5589075 -2.6985857
-0.27480814 -0.6893532 -1.2268089 -1.0542891 -4.3109255 1.2069072 -1.4922099 1.752256
0.3177373 0.020226797 0.1828968 0.3625862 0.5336071 -0.8303224 -0.34936744 -0.35354766
-0.3106416 -1.8775705 -0.023253482 0.3031515 -1.0024203 -0.5688061 0.61492777 -0.10297783
-0.35568488 -2.0183496 3.3023105 -0.23241986 0.368436 2.2696579 -2.177859 -1.7627909
0.38403833 -1.4466262 -0.4650349 0.050952055 -1.2638633 0.044027094 -1.4786608 0.13304546
0.523755 0.07675166
00000000: 3b47 b1bf 0cac b6bf a096 ca3f 080a 0dc0
00000010: 9bae 0a40 4791 77c0 e25d 8740 0e85 a1bf
00000020: 38f8 2fc0 6f7c 18bf 8ddf 09c0 15cc 2ebf
00000030: 395c ddbf 206a bebf 0e08 c23f 92ca 673f
00000040: 4f3f 853d 1fcd 22be f8e0 5cbe 3f70 efbe
00000050: 2f3c 8ebf e435 bcbf 5d59 dbbf c98c 663d
00000060: 4141 90bf f2e3 35bf c2f9 2fc0 9336 afbe
00000070: ed79 a1bd 35b3 2ac0 488a c7bf a1b5 2cc0
00000080: a7b3 8cbe 7479 30bf 1308 9dbf f2f2 86bf
00000090: 1af3 89c0 ef7b 9a3f bc00 bfbf ed49 e03f
000000a0: 77ae a23e abb2 a53c 4c49 3b3e e6a4 b93e
000000b0: 7a9a 083f 0290 54bf 4ae0 b2be 3304 b5be
000000c0: 6a0c 9fbe 3b54 f0bf 167e bebc ac36 9b3e
000000d0: 4f4f 80bf 479d 11bf e86b 1d3f 0ae6 d2bd
000000e0: 541c b6be a42c 01c0 0e59 5340 79ff 6dbe
000000f0: a5a3 bc3e 1342 1140 0b62 0bc0 22a3 e1bf
00000100: aca0 c43e 0c2b b9bf 0e19 eebe 1ab3 503d
00000110: 46c6 a1bf c155 343d c244 bdbf 123d 083e
00000120: cf14 063f f92f 9d3d

weight f4 [50, 2]
0.5358222 0.58257145 0.2895592 0.6670986 -0.06052929 -0.26615238 0.13358486 0.03851086
-0.1905706 -0.68024296 0.67136806 0.20804858 -0.17999762 0.14673233 0.55821913 0.48125285
-0.2246437 0.049190998 -0.6943599 -0.4023811 0.02482903 -0.39873412 -0.14468724 -0.25010908
0.056470215 -0.3255978 -0.38362575 -0.30240557 0.14478499 0.113500535 -0.15051746 -0.12454784
0.60611826 -0.6316496 -0.06443596 -0.55314106 -0.23413983 -0.63712305 0.4750777 0.60474664
-0.3645356 -0.55599314 0.41783327 -0.4943622 -0.5993932 -0.46423927 -0.5176381 -0.53006566
-0.18146735 0.32958955 -0.23144174 -0.56795585 0.4842959 -0.639325 0.443085 0.15941715
-0.4872232 -0.5298233 0.65013784 0.04352683 0.20149416 -0.027570426 -0.06451166 0.6325932
-0.44925514 0.06249559 -0.06786132 -0.3984182 0.36642677 -0.60127074 0.26009446 -0.4428886
-0.5442081 -0.19227433 0.026554525 -0.32853913 0.27676898 -0.34548092 -0.4465671 -0.34933785
-0.11439651 0.10403156 0.35094756 -0.5690516 -0.66600186 -0.6453296 0.19798863 -0.23376471
-0.21738121 -0.617318 0.23104566 0.5608676 0.46761042 -0.113431156 -0.53665715 0.6078009
0.105038285 -0.2018705 -0.7033862 0.40984803
00000000: a52b 093f 6723 153f 1a41 943e f9c6 2a3f
00000010: 90ed 77bd 2045 88be 78ca 083e 90bd 1d3d
00000020: f024 43be 6724 2ebf c7de 2b3f b00a 553e
00000030: 4c51 38be 0041 163e 73e7 0e3f c666 f63e
00000040: 0009 66be 807c 493d 92c1 31bf e504 cebe
00000050: 4066 cb3c e126 ccbe e428 14be 4c0e 80be
00000060: 504d 673d c1b4 a6be 986a c4be e7d4 9abe
00000070: 8442 143e f872 e83d 4021 1abe f012 ffbd
00000080: 912a 1b3f cab3 21bf 00f7 83bd a79a 0dbf
00000090: 5ac2 6fbe 7f1a 23bf 623d f33e add0 1a3f
000000a0: 69a4 babe 9155 0ebf 3eee d53e 0b1d fdbe
000000b0: d571 19bf c5b0 edbe ee83 04bf 62b2 07bf
000000c0: 94d2 39be f6bf a83e 10ff 6cbe 8e65 11bf
000000d0: a2f5 f73e ceaa 23bf 0adc e23e 403e 233e
000000e0: 5275 f9be 80a2 07bf 6f6f 263f 3049 323d
000000f0: 7c54 4e3e 60db e1bc b01e 84bd a1f1 213f
00000100: c504 e6be 60fb 7f3d e0fa 8abd 78fd cbbe
00000110: 4a9c bb3e e1ec 19bf 1a2b 853e 4bc2 e2be
00000120: 3951 0bbf 90e3 44be e088 d93c 4836 a8be
00000130: aab4 8d3e e0e2 b0be 71a4 e4be 69dc b2be
00000140: b848 eabd 800e d53d 66af b33e 5ead 11bf
00000150: 197f 2abf 5234 25bf 88bd 4a3e 0460 6fbe
00000160: 2e99 5ebe 8d08 1ebf 3c97 6c3e 0595 0f3f
00000170: a26a ef3e 984e e8bd 5d62 09bf d798 1b3f
00000180: 501e d73d 24b7 4ebe 1e11 34bf 9ad7 d13e

bias f4 [50]
0.67770153 0.50574654 0.007935047 0.3708542 -0.3916462 0.2443803 0.6821514 -0.38459706
0.40851444 0.31630856 -0.7051289 0.64431626 0.55643934 -0.44999582 0.35073167 -0.35529962
-0.6395564 -0.06905413 0.3104232 -0.043915927 0.19769984 0.0027942657 0.42675954 -0.25198925
0.51513225 0.12984407 -0.6188656 -0.44015756 0.09059012 0.121831894 -0.54256284 -0.4273494
0.020774245 -0.6695435 0.12364715 -0.6446934 0.53194517 0.36188036 0.54854506 -0.44247454
-0.46357614 0.63616556 -0.62183553 0.12528765 0.17446274 0.48413128 0.6906956 0.4525252
-0.37614408 0.6074198
00000000: d97d 2d3f 9b78 013f 0002 023c 9ae0 bd3e
00000010: da85 c8be d43e 7a3e 79a1 2e3f e8e9 c4be
00000020: ce28 d13e 32f3 a13e 5483 34bf e9f1 243f
00000030: cf72 0e3f da65 e6be 1a93 b33e d5e9 b5be
00000040: f8b9 23bf 406c 8dbd caef 9e3e 30e1 33bd
00000050: d471 4a3e 0020 373b 3a80 da3e bc04 81be
00000060: b5df 033f d8f5 043e fa6d 1ebf 555c e1be
00000070: 5087 b93d 0083 f93d 66e5 0abf 8acd dabe
00000080: c02e aa3c 3467 2bbf b83a fd3d a00a 25bf
00000090: 8f2d 083f 6248 b93e 736d 0c3f 068c e2be
000000a0: da59 edbe bfdb 223f 9d30 1fbf 684b 003e
000000b0: 5ca6 323e 0ee0 f73e 6dd1 303f 62b1 e73e
000000c0: f595 c0be dd7f 1b3f

weight_ih_l0 f4 [200, 20]
-0.114582986 -0.22640035 -0.097936265 0.4519195 -0.2629447 -0.05965383 -0.001823774 -0.3010178
-0.08004937 0.136758 -0.8031756 0.21001752 -0.40872085 0.012678355 -0.12321914 0.011649985
-0.012809856 0.3661218 0.037251357 -0.08303356 -0.04638785 -0.30085394 0.18133523 0.13223024
-0.51515454 -0.32559586 0.31781876 -0.7362541 -0.021984218 0.00571473 -0.26190838 -0.1808659
0.020192618 0.7847997 -0.06959983 0.16957091 0.04648197 0.32429495 0.24229218 -0.08345487
-0.47525978 -0.097197644 0.4339691 0.22700816 -0.1443583 -0.6193147 -0.17883861 -0.26701903
0.22331184 0.3998751 0.025917284 -0.29258296 0.42137626 0.25713184 -0.49758703 0.15954745
0.1486183 0.20968358 0.088665105 -0.07335674 0.19001794 -1.027571 0.40363657 0.72775614
-0.93908864 -0.8208597 0.007771324 -0.5458861 -0.066509284 -0.5554787 0.519608 -0.49337623
-0.14152439 0.4495557 0.0291782 -0.18848617 0.335841 0.64662206 0.60725826 1.0826387
0.16721469 -0.42699808 -0.20108923 0.040789116 0.1754456 -0.58168024 0.3836483 -0.15082234
0.54371554 -0.20860037 -0.028174948 -0.22273837 -0.41231796 0.1570339 -0.09973181 -0.21884336
-0.26957294 0.20666796 0.32478726 0.039988067 0.25182527 0.3132107 -0.8463448 0.60150826
-0.3550768 -0.15381405 0.16590054 -0.3844441 -0.034375202 0.19745423 -0.121264406 0.37856215
0.4076973 0.2746517 -0.25060517 0.37186503 0.05444465 0.50280815 0.04241249 -0.25544724
-0.16563967 -0.19546865 0.19734436 0.020047165 -0.30707642 -0.34251392 0.047978535 -0.16906306
-0.09212008 -0.015293591 -0.29111958 -0.3843717 -0.20246398 0.18330367 -0.350666 0.20063998
-0.029770663 0.4581351 -0.35387367 0.22867014 0.15154898 -0.48920977 -1.0866654 0.4969806
-0.64044523 -0.5384889 -0.17157605 -0.55650926 -0.13932014 -0.017799769 0.26629508 0.3484201
-0.18847917 0.065488935 -0.52304536 0.06501191 -0.03240987 0.6660016 -0.34821975 0.14483236
0.148543 -0.40446705 0.17638989 0.1353604 -0.33249655 -0.38666433 0.14553685 -0.09904725
0.35877138 -0.28874084 0.107224084 0.24737857 -0.2467022 -0.06435716 0.4788699 -0.575619
0.11578761 0.39456993 0.2673383 0.1969489 0.11986209 -0.45069203 -0.001702703 -0.3389608
-0.519299 -0.114469096 0.32669616 -0.6589164 0.28954905 -0.31525138 0.10838199 -0.045636173
-0.46701467 0.011753448 0.16149025 -0.47775483 0.0952197 0.3474192 0.29455245 0.31615362
0.3213208 -0.040153854 0.056909386 -0.04866302 -0.16824988 -0.24282712 0.4965657 -0.15088114
0.25143608 -0.13517664 -0.29794762 -0.005220199 -0.38761333 0.24615782 0.36503676 -0.40328464
0.17276566 0.20891087 0.42333025 0.020044554 0.13151243 -0.9326993 -0.071259215 -0.19817156
-0.29519904 -0.7601457 -0.31427243 -0.33053464 0.2148589 -0.65726465 0.119506724 -0.25429195
-0.38903943 -0.05271065 -0.032800186 -0.41113296 0.38776428 0.25996938 0.41292945 -0.10168584
0.040040772 -0.0047025136 -0.089127325 -0.1348962 -0.0310112 -0.100225285 0.59118026 -0.3105836
-0.22514199 0.16705312 -0.34738848 0.30819798 0.14452161 -0.09788942 -0.29176039 -0.12674715
00000000: 7caa eabd 7ed5 67be cf92 c8bd fe61 e73e
00000010: b0a0 86be 9357 74bd b30b efba 011f 9abe
00000020: edf0 a3bd 4a0a 0c3e eb9c 4dbf d50e 573e
00000030: dc43 d1be e0b8 4f3c 515a fcbd 94df 3e3c
00000040: 6ee0 51bc 5174 bb3e e194 183d 800d aabd
00000050: 3001 3ebd 8709 9abe f1af 393e 5d67 073e
00000060: 2be1 03bf 80b4 a6be 24b9 a23e 267b 3cbf
00000070: 3f18 b4bc a142 bb3b db18 86be e934 39be
00000080: fd6a a53c a2e8 483f 5b8a 8ebd ffa3 2d3e
00000090: e163 3e3d fd09 a63e 711b 783e 63ea aabd
000000a0: 4055 f3be 8f0f c7bd 3331 de3e d474 683e
000000b0: aad2 13be 688b 1ebf 7821 37be b8b6 88be
000000c0: dcab 643e 6ebc cc3e 7c50 d43c 6fcd 95be
000000d0: a1be d73e c9a6 833e bac3 febe 6860 233e
000000e0: 652f 183e 4bb7 563e 0d96 b53d 0f3c 96bd
000000f0: 1094 423e 7287 83bf 74a9 ce3e 3a4e 3a3f
00000100: 1d68 70bf dc23 52bf 97a6 fe3b 31bf 0bbf
00000110: 0536 88bd da33 0ebf 0805 053f cf9b fcbe
00000120: c5eb 10be 2a2c e63e 1f07 ef3c 8502 41be
00000130: 5af3 ab3e 0689 253f 4775 1b3f e893 8a3f
00000140: 543a 2b3e 7e9f dabe 56ea 4dbe 7d12 273d
00000150: 03a8 333e ffe8 14bf 8d6d c43e 2c71 1abe
00000160: f130 0b3f 569b 55be 26cf e6bc 8715 64be
00000170: 571b d3be 7fcd 203e 3140 ccbd 7918 60be
00000180: 7705 8abe c4a0 533e 844a a63e 87ca 233d
00000190: 3eef 803e 275d a03e 0eaa 58bf 72fc 193f
000001a0: a0cc b5be 6e81 1dbe d5e1 293e dbd5 c4be
000001b0: 03cd 0cbd 7131 4a3e 7959 f8bd e6d2 c13e
000001c0: b3bd d03e 269f 8c3e 524f 80be 1865 be3e
000001d0: 5a01 5f3d 09b8 003f b8b8 2d3d fbc9 82be
000001e0: 729d 29be ef28 48be a414 4a3e f439 a43c
000001f0: 1f39 9dbe fc5d afbe 2485 443d de1e 2dbe
00000200: 74a9 bcbd f891 7abc a00d 95be 5ecc c4be
00000210: b852 4fbe f5b3 3b3e 7e8a b3be 9174 4d3e
00000220: 9be1 f3bc af90 ea3e ee2e b5be 8128 6a3e
00000230: a82f 1b3e b479 fabe da17 8bbf 3e74 fe3e
00000240: 38f4 23bf 69da 09bf a2b1 2fbe 6477 0ebf
00000250: f0a9 0ebe d2d0 91bc d457 883e 1f64 b23e
00000260: af00 41be 101f 863d 4de6 05bf f724 853d
00000270: 36c0 04bd 157f 2a3f dc49 b2be ef4e 143e
00000280: a81b 183e 4e16 cfbe 8d9f 343e eb9b 0a3e
00000290: fd3c aabe def8 c5be 9d07 153e 49d9 cabd
000002a0: e2b0 b73e d7d5 93be 4d98 db3d cf50 7d3e
000002b0: 809f 7cbe b0cd 83bd 6f2e f53e c45b 13bf
000002c0: 0e22 ed3d 1205 ca3e 91e0 883e f9ac 493e
000002d0: 417a f53d 1bc1 e6be 3b2d dfba 458c adbe
000002e0: c7f0 04bf c66e eabd b844 a73e bfae 28bf
000002f0: c63f 943e a168 a1be 60f7 dd3d ffec 3abd
00000300: 8c1c efbe 8991 403c b35d 253e 489c f4be
00000310: 8c02 c33d eee0 b13e 94cf 963e e3de a13e
00000320: 2984 a43e 5e78 24bd d119 693d e052 47bd
00000330: b249 2cbe aca7 78be dc3d fe3e 9680 1abe
00000340: 3bbc 803e bf6b 0abe 978c 98be 340e abbb
00000350: 4175 c6be cc10 7c3e 19e6 ba3e 537b cebe
00000360: 7be9 303e bbec 553e bebe d83e 7a34 a43c
00000370: 32ab 063e 62c5 6ebf 5af0 91bd 7ced 4abe
00000380: 5424 97be e998 42bf 51e8 a0be d63b a9be
00000390: f903 5c3e 7f42 28bf f1bf f43d 8e32 82be
000003a0: 2d30 c7be 1fe7 57bd 7d59 06bd 0580 d2be
000003b0: 0a89 c63e b51a 853e 7d6b d33e aa40 d0bd
000003c0: cb01 243d 8b17 9abb 6388 b6bd 3b22 0abe
000003d0: 330b febc ea42 cdbd 9757 173f d004 9fbe
000003e0: 9f8b 66be f90f 2b3e e7dc b1be 20cc 9d3e
000003f0: 79fd 133e 407a c8bd 9e61 95be 01ca 01be
