model/saved_models/en_decoder/model_epoch_2.pt (torch_old, 93678 bytes, 11 tensors)

weight f4 [75, 20]
0.0 0.0 0.0 0.0 0.0 0.0 0.0 0.0
0.0 0.0 0.0 0.0 0.0 0.0 0.0 0.0
0.0 0.0 0.0 0.0 0.06437042 -0.027240707 -0.18067549 0.022901103
-0.058809657 -0.008286215 -0.20973426 0.0071231266 0.1064109 -0.15136202 -0.07199456 -0.050144333
0.07275734 -0.013489456 -0.08824437 -0.12764764 0.14045058 0.112762555 0.049940098 -0.11654584
-0.04058455 -0.04788932 0.10470802 0.05153157 0.1586889 0.11565839 0.21946378 -0.014812432
-0.02709524 0.114834934 0.032367263 0.03933465 -0.17584707 -0.041730557 -0.0023448672 0.031738207
-0.098159075 -0.10273705 -0.009022504 0.12791471 5.675e-42 -9.792969e-21 -2.067e-42 9.811692e-19
-1.833e-42 -2.161e-42 -3.019486e-08 -3.107e-42 1.90975e-39 2.5426266e-38 7.311587e-14 3.788758e-08
-4.750103e-13 -4.85e-42 1.041e-42 -8.0884637e-16 -3.0220698e-30 -6.35e-42 -3.3958363e-12 -1.1742396e-24
-4.378e-42 1.326e-42 -6.99e-43 3.4107408e-38 -1.5123687e-22 -6.345e-42 2.549e-42 4.3e-42
-1.6851832e-08 -7.9777155e-37 4.8e-43 5.66e-42 -5.714e-42 -9.746e-42 -5.3151884e-16 -2.2665236e-31
-1.8164e-41 -4.8455494e-15 -3.9413392e-14 6.931167e-10 -2.0993e-41 1.1e-43 -7.709226e-16 -4.036e-42
-8.501741e-26 -3.304969e-27 2.830571e-07 7.826206e-08 -5.214e-42 5.8824975e-20 2.465e-42 -7.169114e-16
-1.822e-42 2.3777408e-28 2.979e-42 -7.07e-42 4.47e-42 1.59339e-33 4.02e-43 -0.0
0.010391398 0.013688033 0.006516089 0.0022474576 -0.030552853 0.0020464691 -0.03848744 0.014339212
-0.030573638 -0.0041372958 -0.0130964145 0.01986731 0.017058494 0.03368205 0.0028408996 -0.014585049
0.037690148 0.024045596 0.011442984 -0.033977427 3.877e-42 2.532e-42 2.1631008e-22 -2.0603603e-26
-2.235e-42 -2.232e-42 -5.592753e-16 1.6682657e-18 -4.8582557e-13 -1.101e-42 4.697595e-17 4.895933e-08
2.3204748e-34 -4.989e-42 4.235e-42 6.174e-42 -2.6845535e-12 -1.98e-43 3.807e-42 -5.548e-42
-3.868e-42 3.15e-43 -5.72e-43 -3.5950054e-12 -2.4843316e-13 7.330572e-26 -2.1105e-41 6.167e-42
5.963e-42 -8.240974e-12 -2.1321104e-33 1.3476955e-14 -1.2820817e-21 2.8712328e-20 4.0620225e-13 -1.927e-42
2.4624306e-30 -4.7541706e-14 -1.483e-42 5.0657333e-30 0.065210044 -0.061215807 -0.09103993 0.094413355
-0.010806512 0.10389314 -0.11904893 0.025742957 0.029738126 -0.07158743 -0.062144823 -0.05430964
-0.015437532 -0.083794974 -0.115134455 -0.16152543 0.09187245 0.12056853 0.059786312 -0.09365844
2.559e-42 9.05e-43 1.0686496e-12 6.464e-42 -2.7661081e-21 -1.330083e-19 -1.03011725e-24 -3.3574e-41
1.4433065e-13 6.840067e-16 -1.53e-42 -1.449e-42 -4.609e-42 -6.376e-42 -2.109e-42 -1.994e-42
1.33e-43 -4.749e-42 -4.898e-42 -3.467e-42 -5.03e-43 -2.2399131e-36 3.5735172e-35 -1.8458196e-35
5.279e-42 4.188e-42 1.744556e-26 -3.116e-42 7.257553e-17 2.63e-42 -2.3626187e-21 -2.569e-42
4.341e-42 -7.214e-42 1.0418573e-13 2.2423024e-24 2.0725442e-26 1.366e-42 2.026e-42 2.1588225e-18
-3.727e-42 4.23e-43 4.989e-42 -5.675012e-32 -9.74e-43 7.536427e-15 -7.195947e-33 -2.466e-42
4.888875e-16 3.0308528e-22 4.247e-42 2.3686644e-07 3.119e-42 6.467e-42 -3.8880857e-21 -3.642781e-30
00000000: 0000 0000 0000 0000 0000 0000 0000 0000
00000010: 0000 0000 0000 0000 0000 0000 0000 0000
00000020: 0000 0000 0000 0000 0000 0000 0000 0000
00000030: 0000 0000 0000 0000 0000 0000 0000 0000
00000040: 0000 0000 0000 0000 0000 0000 0000 0000
00000050: a4d4 833d e727 dfbc ff02 39be 189b bb3c
00000060: 65e2 70bd e8c2 07bc 94c4 56be 1e69 e93b
00000070: f5ed d93d a5fe 1abe e271 93bd 2564 4dbd
00000080: cd01 953d e102 5dbc 77b9 b4bd 10b6 02be
00000090: 47d2 0f3e 0ef0 e63d fd8d 4c3d 96af eebd
000000a0: fc3b 26bd 9727 44bd 2971 d63d c412 533d
000000b0: 587f 223e 4ede ec3d 1dbb 603e d8af 72bc
000000c0: d6f6 ddbc 942e eb3d 8993 043d 5f1d 213d
000000d0: 4111 34be a9ed 2abd 58ac 19bb ecff 013d
000000e0: a007 c9bd cd67 d2bd 20d3 13bc 13fc 023e
000000f0: d20f 0000 e4fb 389e c305 0080 86cb 9021
00000100: 1c05 0080 0606 0080 9aaf 01b3 a908 0080
00000110: 9bcb 1400 0b6f 0a01 6ea4 a429 d6b9 2233
00000120: 19b4 05ab 850d 0080 e702 0000 5422 69a6
00000130: ef2d 758e b411 0080 f3f5 6eac 6cb4 b597
00000140: 340c 0080 b203 0000 f301 0080 cab2 3901
00000150: 8bd5 369b b011 0080 1b07 0000 fd0b 0000
00000160: 92c1 90b2 dabb 8783 5701 0000 c70f 0000
00000170: ee0f 0080 2b1b 0080 2b33 19a6 151b 938c
00000180: a232 0080 4e94 aea7 8c80 31a9 c085 3e30
00000190: 853a 0080 4e00 0000 0c34 5ea6 400b 0080
000001a0: 2f7e d295 5eec 8293 12f7 9734 0611 a833
000001b0: 890e 0080 84e5 8a1f df06 0000 b9a2 4ea6
000001c0: 1405 0080 0db5 9611 4e08 0000 b513 0080
000001d0: 760c 0000 a85f 0409 1f01 0000 0000 0080
000001e0: af40 2a3c c643 603c eb84 d53b 154a 133b
000001f0: fa49 fabc 0e1e 063b 02a5 1dbd 04ef 6a3c
00000200: 9175 fabc 2792 87bb 5892 56bc c5c0 a23c
00000210: 41be 8b3c 30f6 093d 632e 3a3b 21f6 6ebc
00000220: fc60 1a3d 45fb c43c 5b7b 3b3c ea2b 0bbd
00000230: cf0a 0000 0f07 0000 5dc0 821b 570c cc94
00000240: 3b06 0080 3906 0080 3c33 21a6 4c31 f621
00000250: 6cbf 08ab 1203 0080 6aa3 5824 5a47 5233
00000260: d538 9a07 e80d 0080 ce0b 0000 3611 0000
00000270: 9ee8 3cac 8d00 0080 9d0a 0000 770f 0080
00000280: c80a 0080 e100 0000 9801 0080 dcf9 7cac
00000290: feda 8baa 057f b515 d53a 0080 3111 0000
000002a0: 9f10 0000 0cfa 10ad f920 3189 7cc7 7228
000002b0: 22be c19c 1397 071f eaab e42a 5f05 0080
000002c0: afc6 470e db1b 56a9 2204 0080 957d cd0e
000002d0: d88c 853d 6dbd 7abd 2573 babd ca5b c13d
000002e0: cc0d 31bc edc5 d43d edcf f3bd e5e2 d23c
000002f0: 5f9d f33c 6e9c 92bd 928b 7ebd c973 5ebd
00000300: b4ed 7cbc b39c abbd 9dcb ebbd ec66 25be
00000310: a027 bc3d a2ec f63d 7ee2 743d ffcf bfbd
00000320: 2207 0000 8602 0000 2966 962b 0512 0000
00000330: 5000 519d 4b07 1da0 2667 9f97 975d 0080
00000340: 7a80 222a c926 4526 4404 0080 0a04 0080
00000350: d90c 0080 c611 0080 e105 0080 8f05 0080
00000360: 5f00 0000 3d0d 0080 a70d 0080 aa09 0080
00000370: 6701 0080 fd8c 3e84 3200 3e06 fd47 c485
00000380: b70e 0000 ad0b 0000 c0c5 ac14 b008 0080
00000390: 0859 a724 5507 0000 b183 329d 2907 0080
000003a0: 1a0c 0000 1c14 0080 fc9a ea29 607d 2d18
000003b0: 3d41 cd14 cf03 0000 a605 0000 014b 1f22
000003c0: 640a 0080 2e01 0000 e80d 0000 ed54 938b
000003d0: b702 0080 a3c3 0728 3874 158a e006 0080
000003e0: 88e9 0c26 2d34 b71b d70b 0000 5a55 7e34
000003f0: b208 0000 0712 0000 42e3 929d cdc4 938e

weight_ih_l0 f4 [200, 20]
0.0026655046 -0.00148869 -0.0056474865 0.0016584944 -0.0030410076 0.0006347229 -0.007604111 0.00070637366
0.0032609554 -0.00491848 -0.0030125044 -0.0018831622 0.0025228593 -0.0010814677 -0.0037068557 -0.006072416
0.005549014 0.005076678 0.0022565234 -0.0051607876 0.0031052618 -0.0008487114 -0.003623666 0.0021615115
-0.00449676 0.00079463335 -0.007177868 0.0014581329 -0.0006207757 -0.004811439 -0.0026123223 -0.0029278018
0.004406789 -0.0022694455 -0.0033443507 -0.0050096847 0.004168227 0.0064469436 0.0016297727 -0.0057110977
-0.009686773 0.004281712 0.027998269 -0.0037403943 0.0018962604 -0.0015218194 0.02726045 0.0008670838
-0.018804384 0.022207895 0.008450185 0.0075017624 -0.0070354966 0.0033240658 0.014114952 0.016275724
-0.01915383 -0.01251909 -0.0063815624 0.012625921 0.0028160517 -0.013378397 -0.015864136 0.013801876
0.018243378 0.020639865 -0.0030378397 -0.0021504737 0.022996735 -0.0011975568 -0.0068589128 0.0018511878
-0.023737498 -0.0091887815 -0.016829994 -0.026613817 0.011999684 0.0010311296 0.010836754 0.00026473546
0.0032596574 -0.004142826 -0.008397788 0.004930889 0.004445245 0.0064608175 -0.005551746 -0.0003080462
0.006589341 -0.0053825174 -0.002814043 -0.0030701596 -0.0035281212 -0.0051653413 -0.007509583 -0.008142213
0.005361757 0.004045221 0.0031373969 -0.0021883266 -0.005556519 0.0028216897 0.014722258 -0.003299654
0.0009649012 -0.0021456408 0.014702926 3.873698e-05 -0.008672202 0.012650321 0.0047683623 0.0051961993
-0.0039053103 0.0033470842 0.00860084 0.009377771 -0.010154671 -0.008329411 -0.003495719 0.007297067
-0.005109899 0.0034918173 0.018548446 -0.0023196146 -0.00023674364 -0.001283279 0.016922697 0.0011577186
-0.01477111 0.014058672 0.0057503902 0.003328223 -0.0019673954 0.0008900378 0.009189218 0.010824448
-0.013477919 -0.0067939516 -0.0045750495 0.007054167 0.00019255377 -0.009376975 -0.013853706 0.0072327554
0.018369146 0.013910778 0.00015266762 -0.0038095813 0.021757497 -0.00032711192 -0.0033820646 0.0028750664
-0.020246847 -0.0040736063 -0.010955871 -0.014311149 0.0076817707 -0.004377966 0.0063157408 0.004401191
-0.006617177 0.00029701332 0.017795322 -0.0004024459 0.006970555 0.0034423186 0.021807631 -0.0002676292
-0.008655922 0.017198311 0.005324683 0.006523653 -0.011365898 0.0012043846 0.0072562876 0.008319611
-0.012781784 -0.011065866 -0.002913038 0.010936968 0.0025983145 -0.0019523045 -0.0076410025 0.0019396202
0.0005347569 0.0017542021 -0.00688675 -0.00022738423 0.00557208 -0.0059611043 -0.002510221 -0.0021502972
0.00049664325 -0.0016878891 -0.004621478 -0.0052643307 0.005441846 0.003583249 0.0020582739 -0.0031272068
0.003580874 -0.00253852 -0.008551607 0.0029047905 -0.00073385716 0.0025070233 -0.009187061 0.000340841
0.0055375025 -0.006877583 -0.0033143512 -0.003172217 0.001285344 -0.0030131445 -0.0059674643 -0.0074074557
0.006573896 0.0057423706 0.0027948369 -0.005033221 0.002984586 -0.001886734 -0.0073270826 0.002730459
0.00081823283 0.00278068 -0.0069136587 4.986607e-05 0.004005401 -0.0059555084 -0.0023288382 -0.002971505
0.0005772482 -0.0029156094 -0.005030069 -0.0053123203 0.004832148 0.004224125 0.002017365 -0.0031740682
-0.004337208 0.0030343977 0.011311943 -0.0035676819 0.0013947602 -0.0031575474 0.012356135 -0.00026304065
-0.0075359694 0.008801836 0.0048326273 0.0024303487 -0.0010451231 0.0011396735 0.007535074 0.010066885
00000000: bfaf 2e3b 2620 c3ba 8d0e b9bb d661 d93a
00000010: a44b 47bb 8863 263a e82b f9bb ef2b 393a
00000020: c1b5 553b 332b a1bb 706d 45bb 70d4 f6ba
00000030: 8e56 253b 09c0 8dba b8ee 72bb 1efb c6bb
00000040: 81d4 b53b 435a a63b 2ee2 133b d31b a9bb
00000050: a681 4b3b 0f7c 5eba 077b 6dbb 25a8 0d3b
00000060: 8f59 93bb f14e 503a 5234 ebbb d21e bf3a
00000070: 8dbb 22ba 47a9 9dbb 7f33 2bbb 5de0 3fbb
00000080: d366 903b faba 14bb e52c 5bbb 4828 a4bb
00000090: 9f95 883b e240 d33b 199e d53a 2924 bbbb
000000a0: 45b5 1ebc 9b4d 8c3b a05c e53c 6721 75bb
000000b0: f18b f83a c977 c7ba 4f51 df3c 024d 633a
000000c0: a70b 9abc 55ed b53c a572 0a3c 58d1 f53b
000000d0: 068a e6bb 92d8 593b 6642 673c ab54 853c
000000e0: 7ee8 9cbc df1c 4dbc 6d1c d1bb f3dc 4e3c
000000f0: 828d 383b 1031 5bbc 81f5 81bc 4421 623c
00000100: 2373 953c ef14 a93c 7e16 47bb f6ee 0cbb
00000110: a663 bc3c 57f7 9cba bbc0 e0bb 8ea3 f23a
00000120: 2475 c2bc 8b8c 16bc 0edf 89bc 3805 dabc
00000130: 539a 443c f826 873a a48c 313c 31cc 8a39
00000140: fa9f 553b 8bc0 87bb e096 09bc 4b93 a13b
00000150: 6ba9 913b 44b5 d33b 6ceb b5bb 4381 a1b9
00000160: 66eb d73b d45f b0bb cf6b 38bb bb34 49bb
00000170: 0d38 67bb 0642 a9bb f312 f6bb eb66 05bc
00000180: adb1 af3b c68d 843b c99c 4d3b 076a 0fbb
00000190: 7613 b6bb 19ec 383b a035 713c 023f 58bb
000001a0: 6cf1 7c3a e19d 0cbb 8be4 703c 8479 2238
000001b0: da15 0ebc 4b43 4f3c ec3f 9c3b e144 aa3b
000001c0: 3cf0 7fbb c15a 5b3b 8aea 0c3c 39a5 193c
000001d0: c75f 26bc 1578 08bc 6f18 65bb 3c1c ef3b
000001e0: f170 a7bb f9d6 643b e9f2 973c ad04 18bb
000001f0: 633e 78b9 b333 a8ba 78a1 8a3c 97be 973a
00000200: 8702 72bc 5856 663c c56d bc3b 511e 5a3b
00000210: 6bef 00bb 6d51 693a 608e 163c 0759 313c
00000220: 7dd2 5cbc cc9f debb 4cea 95bb a426 e73b
00000230: 42e8 4939 e2a1 19bc a8fa 62bc c000 ed3b
00000240: e47a 963c 08ea 633c 6715 2039 2baa 79bb
00000250: c73c b23c 3880 abb9 a1a5 5dbb 9c6b 3c3b
00000260: b7dc a5bc e37b 85bb 4180 33bc 4f79 6abc
00000270: 5db7 fb3b 0a75 8fbb 46f4 ce3b de37 903b
00000280: e7d4 d8bb 74b8 9b39 7fc7 913c 60ff d2b9
00000290: 4169 e43b 8698 613b eba5 b23c 9550 8cb9
000002a0: 91d1 0dbc 79e3 8c3c ae7a ae3b 5ec4 d53b
000002b0: 0838 3abc 71dc 9d3a 27c6 ed3b fa4e 083c
000002c0: b06a 51bc 9b4d 35bc abe8 3ebb f830 333c
000002d0: 7c48 2a3b 78e4 ffba 6061 fabb db3a fe3a
000002e0: ee2e 0c3a 41ed e53a 3faa e1bb fd6d 6eb9
000002f0: ff95 b63b 5e55 c3bb 8582 24bb 00ec 0cbb
00000300: 2a31 023a 293c ddba c46f 97bb 6880 acbb
00000310: 8351 b23b f1d4 6a3b 1be4 063b d3f1 4cbb
00000320: 19ad 6a3b 4c5d 26bb 0a1c 0cbc 4c5e 3e3b
00000330: 5260 40ba df4c 243b 5485 16bc e8b2 b239
00000340: f073 b53b 595d e1bb 9635 59bb f8e4 4fbb
00000350: fd78 a83a 2d78 45bb b88a c3bb 3eba f2bb
00000360: d669 d73b 7f2a bc3b 9529 373b b8ed a4bb
00000370: 0b99 433b 4a4c f7ba 0618 f0bb 80f1 323b
00000380: ad7e 563a 123c 363b f98b e2bb 4927 5138
00000390: bd3f 833b 6d26 c3bb 6c9f 18bb 95bd 42bb
000003a0: 7952 173a cf13 3fbb 47d3 a4bb f912 aebb
000003b0: ff56 9e3b 876a 8a3b c535 043b 0704 50bb
000003c0: 231f 8ebb bfdc 463b ba55 393c c5cf 69bb
000003d0: 63d0 b63a dbee 4ebb 6371 4a3c b8e8 89b9
000003e0: 4bf0 f6bb 9335 103c 045b 9e3b 7c46 1f3b
000003f0: 83fc 88ba 1961 953a c8e8 f63b 93ef 243c

weight_hh_l0 f4 [200, 50]
0.09425299 -0.08863846 0.053549036 -0.07956183 0.08398467 0.059945177 -0.0607498 0.028903723
0.06821123 -0.07841038 0.080604725 0.08250189 -0.054523144 0.07275341 0.022533558 -0.08368569
0.057877168 -0.09259197 0.054752246 0.092723384 -0.06935843 0.058731157 -0.051526845 -0.08017863
-0.086259425 0.06472279 -0.08528842 -0.08693666 0.014019334 0.0058777696 0.070707604 -0.019038536
-0.019452512 0.083243735 -0.023103401 0.06654011 0.064697124 -0.06523988 -0.08063683 0.014956108
0.07897237 0.011097778 0.03848406 0.094653115 0.079564996 -0.0844084 -0.09310933 -0.094168775
-0.08301678 0.08020045 0.09065948 -0.069659844 0.027268454 -0.08147399 0.08676795 0.06477234
-0.06228121 0.029540839 0.08345973 -0.07934287 0.08258573 0.08624248 -0.060339212 0.08631304
0.012466341 -0.087941565 0.043306336 -0.069551006 0.060725324 0.092346944 -0.07456423 0.053682182
-0.035512283 -0.08475294 -0.09720958 0.061415676 -0.090562366 -0.0914393 0.027359826 0.012349791
0.04868868 -0.03388688 -0.031057205 0.0879547 -0.029594958 0.069624126 0.049174976 -0.06473094
-0.084505014 0.03388799 0.08159144 -0.0009957539 0.024787871 0.09254436 0.08319099 -0.08969476
-0.09180493 -0.09713066 -0.083647996 0.083470486 0.08127838 -0.07261138 0.02695397 -0.06341729
0.07440879 0.04499954 -0.051587194 0.0281635 0.07418347 -0.0700428 0.07206185 0.07399091
-0.029555809 0.07850649 0.019945113 -0.07508608 0.032147404 -0.06974769 0.03277957 0.080161765
-0.07661918 0.062022127 -0.039239384 -0.07278666 -0.08381868 0.043930084 -0.07650189 -0.077775136
0.035751626 -0.020974 0.04435223 -0.04915863 -0.031587996 0.07496677 -0.0196225 0.052648783
0.041765705 -0.053335544 -0.07183474 0.03194958 0.07116922 -0.005574086 0.015142658 0.08083389
0.071578756 -0.07594331 -0.08028593 -0.08175367 -0.07314848 0.07387262 0.08608955 -0.019202419
-0.008775711 -0.008195571 0.076988585 0.084390394 -0.053536847 -0.03293881 0.063506305 -0.07194291
0.07501758 0.08069471 -0.08377167 0.019975841 0.011462412 -0.08297011 0.03418703 -0.03790444
0.092542306 0.087003514 -0.058763836 0.045072366 0.02853334 -0.07984109 -0.07871944 0.079561606
-0.087849446 -0.08903119 0.05377068 0.049088366 0.05913744 -0.028915871 -0.06718321 0.08392729
-0.029968461 0.07498609 0.06110962 -0.046654202 -0.07394144 0.058806807 0.07548292 -0.02792992
-0.012385165 0.08592217 0.07684506 -0.08578575 -0.08523419 -0.094062224 -0.07384908 0.08050837
0.041770644 -0.018822655 0.00972457 -0.043990124 0.039940033 0.038446374 -0.029205192 0.020906994
0.030970844 -0.03539114 0.037440237 0.039783668 -0.035389353 0.023179093 -0.00067168014 -0.04071014
0.03097857 -0.025618175 0.04124072 0.04264095 0.007038895 0.0006664995 -0.00089339894 -0.03847267
-0.03749359 0.040567912 -0.041868966 -0.04286602 0.008663104 0.018239658 0.032978013 -0.0048915986
-0.025547488 0.040734645 -0.008640635 0.035784002 0.03161582 -0.027815994 -0.037757814 0.019941643
0.03645649 0.009753796 -0.0007069391 0.04358116 0.03738178 -0.04128137 -0.04308515 -0.045628194
-0.03796575 0.03463639 0.07603192 -0.06010445 0.031360216 -0.04501288 0.06930444 0.05163918
00000000: b607 c13d 1588 b5bd 3c56 5b3d 50f1 a2bd
00000010: 2800 ac3d 1389 753d c8d4 78bd 80c7 ec3c
00000020: 54b2 8b3d 9f95 a0bd 1714 a53d c0f6 a83d
00000030: a953 5fbd bdff 943d 4c98 b83c 6763 abbd
00000040: 9c10 6d3d dca0 bdbd e443 603d c2e5 bd3d
00000050: cb0b 8ebd 1590 703d d00d 53bd b234 a4bd
00000060: c8a8 b0bd 628d 843d b2ab aebd d90b b2bd
00000070: 59b1 653c 4e9a c03b 26cf 903d b4f6 9bbc
00000080: e05a 9fbc b17b aa3d 5843 bdbc 2e46 883d
00000090: ed7f 843d 7c9c 85bd ec24 a5bd 770a 753c
000000a0: 44bc a13d 74d3 353c 76a1 1d3d 7ed9 c13d
000000b0: f9f2 a23d 50de acbd 1bb0 bebd 8fdb c0bd
000000c0: b404 aabd 2240 a43d adab b93d d2a9 8ebd
000000d0: 1862 df3c d6db a6bd 65b3 b13d 5ca7 843d
000000e0: 951a 7fbd a1ff f13c efec aa3d 847e a2bd
000000f0: b522 a93d e69f b03d 4026 77bd e4c4 b03d
00000100: a03f 4c3c b51a b4bd fc61 313d c270 8ebd
00000110: 1ebb 783d 6520 bd3d 22b5 98bd d9e1 5b3d
00000120: 5475 11bd f392 adbd d115 c7bd 018f 7b3d
00000130: c378 b9bd 8744 bbbd b721 e03c c756 4a3c
00000140: c86d 473d f8cc 0abd ae6b febc 9821 b43d
00000150: 2071 f2bc 1897 8e3d b36b 493d a891 84bd
00000160: f710 adbd 22ce 0a3d 6a19 a73d f583 82ba
00000170: ef0f cb3c e687 bd3d 0a60 aa3d e3b1 b7bd
00000180: 3904 bcbd 71ec c6bd a44f abbd 93f2 aa3d
00000190: 4775 a63d 46b5 94bd 92ce dc3c ede0 81bd
000001a0: a363 983d 7051 383d 184d 53bd 24b7 e63c
000001b0: 81ed 973d 9972 8fbd 2a95 933d 8c88 973d
000001c0: 061f f2bc 03c8 a03d ef63 a33c bbc6 99bd
000001d0: ffac 033d e0d7 8ebd df43 063d da2b a43d
000001e0: 84ea 9cbd ea0a 7e3d 7ab9 20bd 2c11 95bd
000001f0: 21a9 abbd 08f0 333d 06ad 9cbd 9248 9fbd
00000200: 4c70 123d abd1 abbc afaa 353d 8f5a 49bd
00000210: 6a62 01bd 2e88 993d 5dbf a0bc 40a6 573d
00000220: 8412 2b3d 5f76 5abd 181e 93bd 90dd 023d
00000230: 2bc1 913d d3a6 b6bb e918 783c 3d8c a53d
00000240: e297 923d 2b88 9bbd f36c a4bd 786e a7bd
00000250: dfce 95bd 874a 973d b84f b03d 644e 9dbc
00000260: 00c8 0fbc b746 06bc 31ac 9d3d dfd4 ac3d
00000270: 7449 5bbd d8ea 06bd 980f 823d ce56 93bd
00000280: d1a2 993d 4543 a53d 7b90 abbd 60a4 a33c
00000290: d7cc 3b3c 3cec a9bd b307 0c3d b041 1bbd
000002a0: d286 bd3d e62e b23d 59b2 70bd cd9d 383d
000002b0: c0be e93c ba83 a3bd a837 a1bd 32f1 a23d
000002c0: 69ea b3bd fc55 b6bd a53e 5c3d e210 493d
000002d0: 1a3a 723d fae0 ecbc 5a97 89bd 12e2 ab3d
000002e0: 6b80 f5bc 4f92 993d 154e 7a3d 7a18 3fbd
000002f0: 9c6e 97bd 68df 703d ca96 9a3d 4acd e4bc
00000300: 26eb 4abc f6f7 af3d f160 9d3d 70b0 afbd
00000310: 438f aebd b2a3 c0bd 303e 97bd 93e1 a43d
00000320: b217 2b3d f831 9abc ce53 1f3c fd2e 34bd
00000330: 2998 233d f279 1d3d ba3f efbc 2545 ab3c
00000340: 91b6 fd3c 4df6 10bd ef5a 193d 33f4 223d
00000350: 6df4 10bd 15e2 bd3c b113 30ba adbf 26bd
00000360: c5c6 fd3c 35dd d1bc 07ec 283d 47a8 2e3d
00000370: 88a6 e63b 06b8 2e3a fd32 6aba 8595 1dbd
00000380: e192 19bd 8a2a 263d cb7e 2bbd 4894 2fbd
00000390: b1ef 0d3c 566b 953c f413 073d b449 a0bb
000003a0: f748 d1bc 5fd9 263d 7391 0dbc 3f92 123d
000003b0: 977f 013d 5ede e3bc f0a7 1abd a85c a33c
000003c0: 6753 153d 63ce 1f3c e151 39ba 2982 323d
000003d0: a31d 193d a716 29bd 0e7a 30bd a1e4 3abd
000003e0: f981 1bbd e3de 0d3d a0b6 9b3d 1530 76bd
000003f0: 9273 003d 6d5f 38bd 7cef 8d3d 9b83 533d

bias_ih_l0 f4 [200]
0.15060335 0.1365653 0.124555655 0.12441151 0.07590877 0.1318072 0.10800567 0.15605244
0.07847338 0.061152942 0.05716592 0.05731828 0.13890749 0.08031942 0.06866566 0.06015097
0.12027086 0.14643681 0.1518056 0.12012404 0.17901437 0.10891194 0.13157998 0.050437853
0.10581783 0.1233234 0.070056625 0.07526212 0.08670336 0.106705375 0.1388132 0.11180053
0.101108015 0.058228806 0.19710666 0.13797127 0.11889598 0.117749244 0.064746305 0.1157731
0.056654967 0.08093951 0.093303315 0.14610565 0.051417436 0.06314743 0.12644996 0.15083863
0.07550256 0.087088995 0.043245956 0.04255275 0.058575347 0.058728732 0.07073208 0.041102782
0.014984048 0.04908845 0.07579512 0.039713543 0.045102783 0.057120226 0.03432515 0.10523895
0.033119682 0.06548856 0.04259295 0.06477423 0.061487872 0.059034925 0.10139246 0.044342484
0.07065096 0.056386005 0.12797259 0.054318752 0.09102177 0.09381287 0.11490087 0.047319897
0.061793 0.14514014 0.15324444 0.06841615 0.093576 0.031755473 0.04539281 0.01963328
0.06149311 0.06526125 0.047902226 0.0781303 0.13937283 0.07748653 0.04679007 0.07788094
0.06819137 0.18774937 0.052880272 0.091173895 0.172441 -0.07921792 0.0376764 -0.10129786
0.14386679 0.1627969 -0.055090558 0.09498422 0.05099312 -0.12454333 0.129266 0.15374875
-0.13378415 0.051635906 -0.029437503 -0.15789752 0.103288546 -0.13338171 0.15628 0.15807274
-0.13516574 0.044432208 0.0510861 -0.12948978 -0.15111952 0.1808863 -0.15251493 -0.17038785
-0.051010847 0.02489052 0.14715047 -0.083215 -0.1071723 0.14632489 0.019761894 0.0980472
0.12346696 -0.051974434 -0.084438615 0.005533464 0.13480954 -0.07002824 0.055864275 0.17123158
0.13211212 -0.15342802 -0.15845005 -0.18111317 -0.1373351 0.1626946 0.11769029 0.079875685
0.11982996 0.121382795 0.09916761 0.140256 0.11222724 0.14607441 0.082270294 0.08670948
0.09128045 0.100516565 0.14497088 0.07781685 0.06652903 0.10399755 0.117480464 0.086893946
0.15367249 0.11433196 0.16381325 0.08963189 0.11929761 0.092281036 0.10775122 0.13690743
0.1041121 0.111118 0.051079694 0.112618774 0.14117278 0.06831706 0.07315937 0.10214721
0.19322683 0.14586473 0.122178815 0.119329125 0.088033594 0.11090469 0.09019566 0.089194864
0.050769307 0.11939689 0.09064484 0.102362975 0.115495495 0.122545056 0.09479107 0.09934959
00000000: c437 1a3e c6d7 0b3e 0917 ff3d 76cb fe3d
00000010: 0f76 9b3d 77f8 063e 1432 dd3d 36cc 1f3e
00000020: a7b6 a03d 827b 7a3d d026 6a3d 93c6 6a3d
00000030: c43d 0e3e 827e a43d 95a0 8c3d dd60 763d
00000040: 9250 f63d 88f3 153e ed72 1b3e 9803 f63d
00000050: 8b4f 373e 390d df3d e7bc 063e ec97 4e3d
00000060: 05b7 d83d fb90 fc3d d979 8f3d 0723 9a3d
00000070: 8891 b13d 5988 da3d 0c25 0e3e adf7 e43d
00000080: b811 cf3d 5481 6e3d 54d6 493e 5748 0d3e
00000090: bc7f f33d 8426 f13d b699 843d 721a ed3d
000000a0: 0a0f 683d 9dc3 a53d cf15 bf3d b89c 153e
000000b0: 179b 523d 7153 813d 197c 013e 7175 1a3e
000000c0: 16a1 9a3d b75b b23d ac22 313d cb4b 2e3d
000000d0: b4ec 6f3d 8a8d 703d fbdb 903d 645b 283d
000000e0: a77f 753c f810 493d 793a 9b3d abaa 223d
000000f0: b2bd 383d e6f6 693d 8798 0c3d 8587 d73d
00000100: 81a8 073d de1e 863d f275 2e3d 5aa8 843d
00000110: b5da 7b3d 9bce 713d daa6 cf3d 77a0 353d
00000120: 73b1 903d 03f5 663d 3f0b 033e 577d 5e3d
00000130: 9f69 ba3d f620 c03d 2651 eb3d 82d2 413d
00000140: a81a 7d3d 9e9f 143e 1cec 1c3e c41d 8c3d
00000150: c6a4 bf3d 0712 023d d0ed 393d f9d5 a03c
00000160: 33e0 7b3d b1a7 853d 2035 443d c702 a03d
00000170: c0b7 0e3e 42b1 9e3d f2a6 3f3d 0b80 9f3d
00000180: eba7 8b3d 5f41 403e fc98 583d 61b9 ba3d
00000190: 6094 303e 013d a2bd 9252 1a3d 4175 cfbd
000001a0: d151 133e 3bb4 263e a3a6 61bd 1687 c23d
000001b0: 29de 503d 9310 ffbd 4e5e 043e 5070 1d3e
000001c0: b6fe 08be 2c80 533d eb26 f1bc e3af 21be
000001d0: f288 d33d 3795 08be dd07 203e d2dd 213e
000001e0: e368 0abe 8cfe 353d a93f 513d f898 04be
000001f0: 13bf 1abe 423a 393e e02c 1cbe 277a 2ebe
00000200: c0f0 50bd 34e7 cb3c 9dae 163e a06c aabd
00000210: 277d dbbd 31d6 153e b2e3 a13c f8cc c83d
00000220: 3fdc fc3d 25e3 54bd 27ee acbd 0f52 b53b
00000230: 830b 0a3e f76a 8fbd f0d1 643d 5557 2f3e
00000240: 6648 073e 3c1c 1dbe bb40 22be bb75 39be
00000250: 93a1 0cbe 6a99 263e 9b07 f13d dd95 a33d
00000260: 6969 f53d 8b97 f83d 6318 cb3d 459f 0f3e
00000270: 65d7 e53d 8894 153e 547d a83d bd94 b13d
00000280: 3ff1 ba3d a1db cd3d 3f73 143e 715e 9f3d
00000290: 5f40 883d abfc d43d 9999 f03d 74f5 b13d
000002a0: 525c 1d3e e026 ea3d a9be 273e ed90 b73d
000002b0: 4e52 f43d d7fd bc3d acac dc3d 7631 0c3e
000002c0: ba38 d53d d591 e33d f138 513d aca4 e63d
000002d0: 998f 103e d1e9 8b3d 94d4 953d 8e32 d13d
000002e0: 41dd 453e 905d 153e e338 fa3d d462 f43d
000002f0: f54a b43d 0022 e33d 81b8 b83d ccab b63d
00000300: 7af3 4f3d 5b86 f43d 00a4 b93d aea3 d13d
00000310: e788 ec3d e7f8 fa3d d221 c23d cc77 cb3d

bias_hh_l0 f4 [200]
0.15060417 0.13656507 0.12455574 0.1244438 0.075908884 0.13181208 0.10800566 0.15605243
0.07847333 0.061153937 0.057165932 0.057318266 0.13890749 0.080317475 0.06866538 0.060151014
0.12027059 0.14643681 0.15180266 0.12012342 0.17901437 0.10891424 0.13157925 0.050437853
0.10581833 0.12332286 0.07005637 0.075262144 0.08670378 0.10670519 0.1388132 0.11180601
0.10110803 0.058228895 0.19710457 0.13797116 0.11889527 0.117750764 0.064746305 0.11577358
0.056654226 0.08094375 0.09330323 0.14610517 0.05141745 0.06314745 0.12644976 0.15083863
0.07550649 0.087089136 0.043245777 0.042551294 0.058575347 0.057965454 0.070732474 0.04110167
0.014984092 0.05005111 0.07579512 0.039713353 0.045102738 0.057120427 0.034326814 0.10523895
0.033119116 0.06548841 0.042592946 0.06477424 0.061487887 0.05903491 0.101502694 0.044620942
0.07065097 0.056385964 0.12797259 0.054318774 0.09102177 0.09381298 0.114900775 0.047319893
0.06179311 0.1451344 0.1532477 0.068416215 0.09358415 0.03176138 0.045423917 0.01963304
0.06149311 0.06526164 0.047902267 0.07813091 0.13937406 0.07748654 0.046790067 0.077880874
0.068191364 0.18774937 0.05288019 0.09117433 0.17244524 -0.0693117 0.047001515 -0.035953306
0.144741 0.16624455 -0.05063625 0.09965507 0.04782872 -0.122159846 0.12802733 0.15494254
-0.06937735 0.036909062 -0.043149345 -0.15825988 0.09860146 -0.13324545 0.16946068 0.15771838
-0.119409524 0.06584446 0.041452795 -0.121013105 -0.15280323 0.18123154 -0.1530106 -0.17037909
-0.04670885 0.06750664 0.14301841 -0.08464216 -0.08939397 0.14444727 -0.04906357 0.089173086
0.07840476 -0.05052741 -0.08434429 -0.007723113 0.1347672 -0.015582087 0.036763355 0.17141631
0.13225196 -0.153414 -0.15844928 -0.18253961 -0.13734044 0.1629873 0.11769034 0.07987782
0.11983006 0.12167119 0.09916724 0.14025642 0.11222778 0.14607257 0.08227025 0.08670949
0.09128023 0.10051672 0.14497086 0.07781704 0.06652879 0.10399766 0.11748049 0.08689401
0.15367246 0.11433215 0.16381395 0.089602634 0.11929765 0.092281215 0.10775122 0.13690604
0.104112096 0.11111801 0.05107929 0.11261881 0.14117268 0.06831707 0.07315989 0.10214717
0.19322683 0.14586443 0.122185744 0.11932916 0.088033594 0.11090507 0.090195686 0.089195035
0.05076928 0.119397126 0.090644784 0.102362975 0.11549544 0.122545056 0.09479107 0.099349745
00000000: fb37 1a3e b7d7 0b3e 1417 ff3d 64dc fe3d
00000010: 1e76 9b3d bff9 063e 1232 dd3d 35cc 1f3e
00000020: a0b6 a03d 8d7c 7a3d d326 6a3d 8fc6 6a3d
00000030: c43d 0e3e 7d7d a43d 6fa0 8c3d e960 763d
00000040: 6d50 f63d 88f3 153e 2872 1b3e 4503 f63d
00000050: 8b4f 373e 6e0e df3d b6bc 063e ec97 4e3d
00000060: 48b7 d83d b290 fc3d b779 8f3d 0a23 9a3d
00000070: c091 b13d 4088 da3d 0c25 0e3e 8dfa e43d
00000080: ba11 cf3d 6c81 6e3d c8d5 493e 5048 0d3e
00000090: 5d7f f33d 5027 f13d b699 843d b31a ed3d
000000a0: 430e 683d d6c5 a53d c415 bf3d 989c 153e
000000b0: 1b9b 523d 7353 813d 0c7c 013e 7175 1a3e
000000c0: 26a3 9a3d ca5b b23d 7c22 313d 444a 2e3d
000000d0: b4ec 6f3d 2f6d 6d3d 30dc 903d 3a5a 283d
000000e0: d67f 753c 6502 4d3d 793a 9b3d 78aa 223d
000000f0: a6bd 383d 1cf7 693d 469a 0c3d 8587 d73d
00000100: e9a7 073d ca1e 863d f175 2e3d 5ba8 843d
00000110: b9da 7b3d 97ce 713d a5e0 cf3d 73c4 363d
00000120: 75b1 903d f8f4 663d 3f0b 033e 5d7d 5e3d
00000130: 9f69 ba3d 0521 c03d 1951 eb3d 81d2 413d
00000140: c61a 7d3d 1d9e 143e f7ec 1c3e cd1d 8c3d
00000150: 0ca9 bf3d 3918 023d 6e0e 3a3d 78d5 a03c
00000160: 33e0 7b3d e5a7 853d 2b35 443d 1903 a03d
00000170: 13b8 0e3e 43b1 9e3d f1a6 3f3d 0280 9f3d
00000180: eaa7 8b3d 5f41 403e e698 583d 9bb9 ba3d
00000190: 7c95 303e 4bf3 8dbd a984 403d c643 13bd
000001a0: fc36 143e 033c 2a3e f567 4fbd f517 cc3d
000001b0: 0ce8 433d f12e fabd 9919 033e 42a9 1e3e
000001c0: b615 8ebd f52d 173d 5ebd 30bd e10e 22be
000001d0: 90ef c93d 7f71 08be 1a87 2d3e ed80 213e
000001e0: fb8c f4bd 76d9 863d 68ca 293d b8d5 f7bd
000001f0: 7378 1cbe c394 393e d0ae 1cbe db77 2ebe
00000200: c751 3fbd ec40 8a3d 6b73 123e de58 adbd
00000210: 3014 b7bd fce9 133e e2f6 48bd 61a0 b63d
00000220: ad92 a03d d4f5 4ebd b3bc acbd 2b12 fdbb
00000230: 6a00 0a3e 034c 7fbc 2c95 163d c287 2f3e
00000240: 0f6d 073e 8f18 1dbe 8740 22be aaeb 3abe
00000250: f9a2 0cbe 25e6 263e a207 f13d fc96 a33d
00000260: 7669 f53d bf2e f93d 3218 cb3d 619f 0f3e
00000270: aed7 e53d 0c94 153e 4e7d a83d bf94 b13d
00000280: 21f1 ba3d b6db cd3d 3e73 143e 8a5e 9f3d
00000290: 3f40 883d bafc d43d 9c99 f03d 7df5 b13d
000002a0: 505c 1d3e f926 ea3d d8be 273e 9681 b73d
000002b0: 5452 f43d effd bc3d acac dc3d 1931 0c3e
000002c0: b938 d53d d791 e33d 8538 513d b1a4 e63d
000002d0: 928f 103e d2e9 8b3d dad4 953d 8932 d13d
000002e0: 41dd 453e 7c5d 153e 853c fa3d d962 f43d
000002f0: f54a b43d 3322 e33d 84b8 b83d e3ab b63d
00000300: 73f3 4f3d 7b86 f43d f9a3 b93d aea3 d13d
00000310: e088 ec3d e7f8 fa3d d221 c23d e177 cb3d

weight f4 [10, 50]
-0.02893567 0.11889534 -0.0010510236 -0.011126429 0.12002353 0.0930749 0.030650318 -0.08706125
0.069599435 -0.090594724 0.06908357 0.0009048134 0.10858916 -0.0047726184 0.044058204 0.020373523
-0.10605356 0.021692708 0.09742761 -0.07304219 -0.12648244 0.06204292 -0.033346757 0.1267987
-0.06475618 -0.1351733 0.12850879 -0.0230271 -0.0036246479 0.031695694 0.029221907 -0.11820076
-0.025402106 0.07344085 0.100403085 -0.093064055 0.13517852 0.12266587 -0.013399005 0.0074350387
-0.057698175 0.022510782 -0.112085804 0.057765126 0.012416765 -0.10274925 -0.035100505 -0.07199839
0.02987957 0.009513006 -0.1023939 0.008457139 -0.10746302 -0.0065930486 0.03277351 0.037807032
0.09693162 0.00029182434 0.012100711 0.016416788 0.0837695 -0.053093232 0.011315405 0.103230804
-0.009025395 -0.079381384 0.04422678 -0.0097569525 0.043505907 -0.111083314 -0.040436044 -0.1390755
0.09567127 0.08912769 -0.09849274 0.05605553 -0.021219857 -0.11124761 0.13800077 0.06315595
-0.036683604 -0.058324702 -0.011363089 0.041281775 -0.10599154 -0.06404714 -0.051546343 0.052397594
0.1068486 0.045736447 0.018332064 -0.031568058 -0.047819078 -0.11804938 -0.12752247 0.08497529
-0.023716807 -0.12496307 0.13838 -0.0025253147 -0.04163696 0.063464984 -0.10604291 -0.09335293
0.113520786 -0.051322035 -0.005640298 -0.06566702 -0.13620307 0.092995405 -0.13855171 -0.010255322
-0.1140502 0.030027002 -0.11497319 -0.1084144 -0.087337345 -0.033711493 0.092684284 -0.03279406
0.11961536 -0.09591217 0.08037084 -0.0030386597 -0.03184235 -0.11097281 -0.00022727251 0.028087854
0.054971755 -0.0115584135 -0.08141772 0.076296225 0.08209996 -0.026482835 0.07477954 -0.053807802
-0.0016232282 0.03622219 -0.0037643015 0.13032122 -0.13014969 -0.054670975 -0.0481458 0.09895782
0.01250115 0.008709535 -0.026573807 0.054950476 0.06315036 -0.026149526 0.03430304 -0.026616104
0.028727755 0.03680499 -0.058803923 0.050362602 -0.13188832 0.061977714 -0.03324446 -0.013430074
0.113329574 0.12776782 0.04417485 -0.12206122 -0.039755978 0.005358413 -0.03144297 0.069165915
0.008123681 0.0052940547 0.0089259595 0.11415602 0.13218997 -0.113216676 -0.096702375 0.042019546
-0.11651957 -0.052002385 0.13973124 -0.1307033 -0.058851987 -0.06709898 -0.049894184 -0.09174688
0.043320596 0.041925192 0.066127166 0.11776622 0.118871704 -0.13216323 0.03318955 -0.08119111
-0.12991571 -0.074304916 -0.028285898 -0.04832133 0.13254632 -0.10765931 0.10224776 0.09479098
0.12583385 -0.08125208 0.027539507 0.029602319 0.12747465 -0.039181277 0.05128841 0.14005949
-0.022728868 -0.08483551 0.1368049 -0.017906964 0.1035551 0.06158328 -0.05080059 0.041718766
0.06600918 -0.12985839 -0.07892106 0.1412177 0.07794286 0.08069424 0.045674726 0.045761675
0.02916421 0.042495787 0.025108352 -0.13906497 0.017024532 0.11436038 0.12143521 0.06801902
0.021144494 0.107716605 0.059710115 -0.10630497 0.120308205 -0.033800393 -0.05470427 -0.01200895
0.105757624 0.0089968145 -0.09989077 0.036994472 0.023029074 0.11666094 -0.087201074 0.021765083
0.017814413 -0.01875621 -0.05849617 -0.07913533 0.08352317 0.006209761 -0.054567598 0.081049904
00000000: 800a edbc 667f f33d 80c2 89ba a04b 36bc
00000010: e6ce f53d 0e9e be3d 6016 fb3c 2b4d b2bd
00000020: 268a 8e3d ba89 b9bd b07b 8d3d 0031 6d3a
00000030: fe63 de3d a063 9cbb 6076 343d 60e6 a63c
00000040: 9c32 d9bd e8b4 b13c 2088 c73d 2597 95bd
00000050: 9d84 01be b820 7e3d 9c96 08bd 85d7 013e
00000060: e39e 84bd df6a 0abe cf97 033e 54a3 bcbc
00000070: 808b 6dbb 58d3 013d c862 ef3c 3d13 f2bd
00000080: 1418 d0bc 2868 963d 22a0 cd3d 5e98 bebd
00000090: 3d6c 0a3e 3e38 fb3d 8087 5bbc a0a1 f33b
000000a0: ec54 6cbd 8868 b83c 3e8d e5bd 209b 6c3d
000000b0: b06f 4b3c 336e d2bd 8cc5 0fbd e473 93bd
000000c0: 00c6 f43c 70dc 1b3c e5b3 d1bd d08f 0a3c
000000d0: 9215 dcbd 800a d8bb 843d 063d 8cdb 1a3d
000000e0: 1684 c63d 0000 9939 1042 463c 807c 863c
000000f0: 588f ab3d 4a78 59bd 4064 393c ac6a d33d
00000100: 40df 13bc b592 a2bd 2427 353d a0db 1fbc
00000110: 4033 323d a67f e3bd 44a0 25bd cf69 0ebe
00000120: 4cef c33d 9488 b63d 90b6 c9bd 7c9a 653d
00000130: 44d5 adbc c9d5 e3bd 1350 0d3e e857 813d
00000140: 8c41 16bd e2e5 6ebd 402c 3abc 1417 293d
00000150: 1812 d9bd 262b 83bd 4222 53bd dc9e 563d
00000160: 70d3 da3d 2456 3b3d 202d 963c 824d 01bd
00000170: f0dd 43bd e0c3 f1bd 4095 02be 8607 ae3d
00000180: c049 c2bc a3ec ffbd 7db3 0d3e c07f 25bb
00000190: 848b 2abd eef9 813d 062d d9bd d22f bfbd
000001a0: 967d e83d 0e37 52bd 40d2 b8bb 6e7c 86bd
000001b0: d178 0bbe 6074 be3d 80e0 0dbe f005 28bc
000001c0: 2793 e9bd 30fb f53c 1077 ebbd 5e08 debd
000001d0: ecdd b2bd 1015 0abd 42d1 bd3d 1053 06bd
000001e0: e6f8 f43d 9a6d c4bd 7899 a43d 4024 47bb
000001f0: 206d 02bd b645 e3bd 0050 6eb9 8018 e63c
00000200: 102a 613d 805f 3dbc 55be a6bd 3241 9c3d
00000210: 0624 a83d 88f2 d8bc 0426 993d 9265 5cbd
00000220: 80c2 d4ba b85d 143d 80b2 76bb ed72 053e
00000230: f645 05be acee 5fbd 8834 45bd 66aa ca3d
00000240: a0d1 4c3c 70b2 0e3c 50b1 d9bc c013 613d
00000250: fa54 813d 8837 d6bc 5881 0c3d 040a dabc
00000260: 7856 eb3c d4c0 163d 62dc 70bd 0449 4e3d
00000270: bb0d 07be 58dc 7d3d 582b 08bd d009 5cbc
00000280: 5619 e83d 91d5 023e b0f0 343d 3cfb f9bd
00000290: 2ad7 22bd a095 af3b 58ca 00bd dca6 8d3d
000002a0: 3019 053c c079 ad3b 303e 123c a2ca e93d
000002b0: cf5c 073e 25de e7bd e50b c6bd b01c 2c3d
000002c0: d0a1 eebd 7400 55bd b515 0f3e 16d7 05be
000002d0: c80e 71bd 316b 89bd d85d 4cbd cae5 bbbd
000002e0: f070 313d c0b9 2b3d ae6d 873d 6a2f f13d
000002f0: 0273 f33d cc55 07be c4f1 073d 8647 a6bd
00000300: a008 05be 2d2d 98bd d4b7 e7bc 96ec 45bd
00000310: 39ba 073e 7c7c dcbd 4667 d13d c621 c23d
00000320: 97da 003e 7e67 a6bd 889a e13c 9080 f23c
00000330: b788 023e 8c7c 20bd cc13 523d c16b 0f3e
00000340: e431 babc 3dbe adbd 9516 0c3e a0b1 92bc
00000350: b214 d43d c03e 7c3d 4814 50bd 4ce1 2a3d
00000360: d22f 873d 99f9 04be 5da1 a1bd 5f9b 103e
00000370: 82a0 9f3d 0643 a53d 6c15 3b3d 9870 3b3d
00000380: c8e9 ee3c 1010 2e3d 08b0 cd3c 0c67 0ebe
00000390: 0877 8b3c c635 ea3d 06b3 f83d 8e4d 8b3d
000003a0: 3837 ad3c 869a dc3d 9892 743d 6cb6 d9bd
000003b0: 2664 f63d 4872 0abd 9611 60bd 30c1 44bc
000003c0: 7497 d83d 6067 133c 8893 ccbd 8487 173d
000003d0: 78a7 bc3c eeeb ee3d 7a96 b2bd b04c b23c
000003e0: 88ef 913c a0a6 99bc ae99 6fbd b411 a2bd
000003f0: 320e ab3d 407b cb3b 4682 5fbd 7efd a53d

bias f4 [10]
-0.1272675 0.0992201 -0.04113418 0.001747489 0.115969315 -0.10446127 0.008082017 -0.06132608
0.14089195 0.05514753
00000000: 6952 02be e833 cb3d 507c 28bd 000c e53a
00000010: 5281 ed3d caef d5bd 706a 043c 0e31 7bbd
00000020: fb45 103e 60e2 613d

weight f4 [5, 10]
0.25272515 0.04464683 -0.15577827 0.23071805 -0.30499703 0.12356904 -0.3128674 0.19762209
0.122097015 0.2597038 0.039236218 -0.21034566 -0.15332939 0.12342125 0.27300587 0.29775968
0.10726169 -0.05636385 -0.08063872 0.047908843 0.09810224 -0.054828495 0.009475976 0.024001777
-0.21754889 0.17579773 -0.14310169 0.10482904 0.062610716 0.19493327 -0.05639243 0.06383011
-0.13315485 -0.15861379 0.11654404 -0.21611068 0.009513706 0.30352727 -0.03492564 -0.21591374
0.1409626 0.119707406 -0.13790192 0.0111608505 -0.08070794 0.22585729 -0.103304476 -0.009368122
-0.12477358 -0.22994734
00000000: 3165 813e 98df 363d 5784 1fbe 5a41 6c3e
00000010: 9228 9cbe c411 fd3d 2830 a0be 725d 4a3e
00000020: 000e fa3d e5f7 843e 28b6 203d da64 57be
00000030: 6102 1dbe 48c4 fc3d 6dc7 8b3e f573 983e
00000040: 04ac db3d c8dd 66bd ea25 a5bd 103c 443d
00000050: d4e9 c83d d893 60bd 2041 1b3c 609f c43c
00000060: 23c5 5ebe 5204 343e 4089 12be 9cb0 d63d
00000070: 0c3a 803d 969c 473e c0fb 66bd 5cb9 823d
00000080: bf59 08be a76b 22be a4ae ee3d 1e4c 5dbe
00000090: 60df 1b3c ed67 9b3e 300e 0fbd 7e18 5dbe
000000a0: 8058 103e 2829 f53d 2936 0dbe 00dc 363c
000000b0: 344a a5bd 2247 673e 4c91 d3bd c07c 19bc
000000c0: 4a89 ffbd 5177 6bbe

bias f4 [5]
0.0112257 0.040572345 -0.044828534 -0.0316028 0.26750866
00000000: 00ec 373c 302f 263d 209e 37bd f071 01bd
00000010: e5f6 883e

weight f4 [2, 5]
-0.027028352 0.3275233 0.30863458 0.21403039 -0.35278133 0.34508604 0.19615054 0.11891526
0.29520625 -0.4298101
00000000: 906a ddbc 22b1 a73e 5a05 9e3e c82a 5b3e
00000010: c19f b4be 1eaf b03e b0db 483e d889 f33d
00000020: 4625 973e 1210 dcbe

bias f4 [2]
-0.19817488 0.12954372
00000000: 5bee 4abe 1ca7 043e
