model/saved_models/en_decoder/model_epoch_3.pt (torch_old, 93678 bytes, 11 tensors)

weight f4 [75, 20]
0	0x00000000	0.0
1	0x00000000	0.0
2	0x00000000	0.0
3	0x00000000	0.0
4	0x00000000	0.0
5	0x00000000	0.0
6	0x00000000	0.0
7	0x00000000	0.0
8	0x00000000	0.0
9	0x00000000	0.0
10	0x00000000	0.0
11	0x00000000	0.0
12	0x00000000	0.0
13	0x00000000	0.0
14	0x00000000	0.0
15	0x00000000	0.0
16	0x00000000	0.0
17	0x00000000	0.0
18	0x00000000	0.0
19	0x00000000	0.0
20	0x3d87a927	0.0662406
21	0xbca7ec55	-0.020498434
22	0xbe351b93	-0.176863
23	0x3cd06493	0.025438583
24	0xbd7338a9	-0.059380207
25	0xbb081d19	-0.0020769297
26	0xbe53afcc	-0.2067253
27	0x3ba89e8b	0.005145853
28	0x3db50a58	0.088398635
29	0xbe23f3f5	-0.16011031
30	0xbd7f004a	-0.062256135
31	0xbd750801	-0.059822086
32	0x3dabc108	0.08386427
33	0xbca775c4	-0.020441897
34	0xbdb1e88f	-0.08686935
35	0xbde6f328	-0.11276847
36	0x3e0777ea	0.13229337
37	0x3dea47fc	0.11439511
38	0x3d24485a	0.040108062
39	0xbde3cb9e	-0.11122821
40	0xbd0b58e8	-0.034020334
41	0xbd1e4a1c	-0.038644895
42	0x3d8e4e5e	0.06948541
43	0x3d0e285f	0.03470647
44	0x3e161006	0.1465455
45	0x3db9ff34	0.09081879
46	0x3e2c232e	0.16810295
47	0xbc83656c	-0.016039573
48	0x3c32a8c7	0.0109044975
49	0x3dc56bd5	0.09639708
50	0x3cdb49b1	0.026768537
51	0x3ce3f9a1	0.027828993
52	0xbe1fad98	-0.15593565
53	0xbd33c64f	-0.043890294
54	0xbbc33e08	-0.0059583224
55	0x3c86be72	0.016448233
56	0xbd992894	-0.07478443
57	0xbdae52c2	-0.085118786
58	0xbb04f839	-0.0020289554
59	0x3dd9ae4c	0.106289476
60	0x000001f8	7.06e-43
61	0x8d357022	-5.5909906e-31
62	0x80000227	-7.72e-43
63	0x1233ab5b	5.6693653e-28
64	0x80000df8	-5.011e-42
65	0x80000391	-1.28e-42
66	0xac48d667	-2.8540727e-12
67	0x80000b31	-4.015e-42
68	0x00000a7a	3.758e-42
69	0x8000075f	-2.644e-42
70	0x1e5a78f2	1.1565835e-20
71	0x2c8cc8c5	4.001329e-12
72	0xa06131f4	-1.907477e-19
73	0x00000998	3.442e-42
74	0x80001109	-6.111e-42
75	0x9982a4b8	-1.3508214e-23
76	0x80000977	-3.395e-42
77	0x00000ec2	5.294e-42
78	0xa285b2a8	-3.623888e-18
79	0x8371a838	-7.101664e-37
80	0x00000592	1.998e-42
81	0x00000277	8.84e-43
82	0x80001155	-6.218e-42
83	0x80000c21	-4.351e-42
84	0x88afdeb8	-1.058479e-33
85	0x00000fcf	5.671e-42
86	0x80000509	-1.806e-42
87	0x000005a1	2.019e-42
88	0xaba886b7	-1.1974509e-12
89	0x80000567	-1.938e-42
90	0x80000e49	-5.125e-42
91	0x80000019	-3.5e-44
92	0x80000076	-1.65e-43
93	0x8000184e	-8.719e-42
94	0x990b2ee6	-7.195603e-24
95	0x00000709	2.524e-42
96	0x80001097	-5.951e-42
97	0x9b6f4f2e	-1.9795201e-22
98	0x9dad1a68	-4.5820022e-21
99	0x28390a62	1.0271814e-14
100	0x000013c0	7.085e-42
101	0x80001062	-5.877e-42
102	0x997320e8	-1.2569451e-23
103	0x80000f8b	-5.576e-42
104	0x8094dce2	-1.3670891e-38
105	0x8001160b	-9.9743e-41
106	0x2eaf2852	7.965241e-11
107	0x2d4f32c5	1.1777861e-11
108	0x80000d12	-4.689e-42
109	0x0f27c1cf	8.271062e-30
110	0x80000acb	-3.872e-42
111	0x995a07bb	-1.1271897e-23
112	0x00000e24	5.073e-42
113	0x80000b1a	-3.982e-42
114	0x80000c1b	-4.343e-42
115	0x800005b1	-2.042e-42
116	0x80000534	-1.867e-42
117	0x8000085c	-2.999e-42
118	0x80000bf9	-4.295e-42
119	0x00000f8a	5.574e-42
120	0x3be7d16d	0.007074526
121	0x3bda6a9e	0.006665542
122	0x3baee364	0.0053371657
123	0xbb3cdbb0	-0.0028817467
124	0xbd65ea82	-0.056131847
125	0xbc7cece0	-0.015437335
126	0xbd1ac7fb	-0.037788372
127	0x3c409551	0.01175435
128	0xbcb4794d	-0.022030497
129	0xbb826e48	-0.0039804317
130	0xbc73124f	-0.014835908
131	0x3c3223e4	0.010872815
132	0x3d03293a	0.03202174
133	0x3cbd075b	0.023074796
134	0x3b80ef6b	0.003934791
135	0xbcbadddd	-0.02281087
136	0x3ce44f46	0.027869832
137	0x3cf0b54c	0.029383324
138	0x3c311aeb	0.01080964
139	0xbd2ac0d3	-0.041687798
140	0x0000048a	1.628e-42
141	0x8000094b	-3.334e-42
142	0x09169baa	1.8128786e-33
143	0x8011a407	-1.620045e-39
144	0x800008b0	-3.116e-42
145	0x0000062a	2.211e-42
146	0x99163a3e	-7.76658e-24
147	0x12c75d29	1.2581631e-27
148	0xa068ea8f	-1.9728773e-19
149	0x00002b2a	1.5484e-41
150	0x1669c2ca	1.8883055e-25
151	0x2cce3173	5.860362e-12
152	0x00000985	3.415e-42
153	0x8000054c	-1.9e-42
154	0x00000877	3.037e-42
155	0x80000346	-1.174e-42
156	0xa23c1b6e	-2.5493272e-18
157	0x800004be	-1.701e-42
158	0x0000069d	2.372e-42
159	0x00000259	8.42e-43
160	0x800004b0	-1.682e-42
161	0x00000159	4.83e-43
162	0x00001148	6.2e-42
163	0xa29199ba	-3.9465093e-18
164	0x9faa9f9c	-7.226185e-20
165	0x00771b48	1.0938211e-38
166	0x0000476b	2.562e-41
167	0x800001b7	-6.15e-43
168	0x80000fb9	-5.64e-42
169	0xa37bda8d	-1.3653017e-17
170	0x000002a9	9.54e-43
171	0x1c8aa247	9.174022e-22
172	0x8b08a863	-2.6319327e-32
173	0x0e646661	2.8152463e-30
174	0x203226c8	1.5090018e-19
175	0x0000122b	6.517e-42
176	0x00000de7	4.987e-42
177	0x9de54208	-6.068407e-21
178	0x800005df	-2.106e-42
179	0x800001ac	-6e-43
180	0x3d80a53d	0.06281517
181	0xbd5918b8	-0.05300209
182	0xbdd032f6	-0.1016597
183	0x3da0ce8c	0.07851896
184	0xbc01fd81	-0.007933975
185	0x3db34d07	0.08754926
186	0xbdfee414	-0.12445846
187	0x3c74d852	0.014944153
188	0x3d428958	0.047494262
189	0xbdabf0ec	-0.083955616
190	0xbd5ca38e	-0.053866915
191	0xbd6be6a6	-0.05759301
192	0xbbbe6004	-0.005809786
193	0xbda6e4ad	-0.08149085
194	0xbddded2a	-0.10836251
195	0xbe1866f0	-0.14883018
196	0x3dbb77af	0.09153687
197	0x3de1b604	0.11021045
198	0x3d534568	0.051579863
199	0xbdafddde	-0.0858724
200	0x0000108e	5.939e-42
201	0x80000f24	-5.431e-42
202	0x213d8b2c	6.4219883e-19
203	0x8000030d	-1.094e-42
204	0x8bd911ff	-8.361244e-32
205	0x900ee05b	-2.81774e-29
206	0x83467287	-5.831844e-37
207	0x0000a31e	5.8515e-41
208	0x1f174939	3.2036062e-20
209	0x194b3198	1.05048694e-23
210	0x00000c74	4.467e-42
211	0x80000bb7	-4.202e-42
212	0x800006c1	-2.423e-42
213	0x80000a26	-3.64e-42
214	0x800002e9	-1.044e-42
215	0x00000a43	3.681e-42
216	0x0000043a	1.516e-42
217	0x80000163	-4.97e-43
218	0x00000adb	3.894e-42
219	0x00000100	3.59e-43
220	0x00000179	5.28e-43
221	0x00000c00	4.305e-42
222	0x8000077a	-2.682e-42
223	0x00000fbd	5.646e-42
224	0x80000b20	-3.991e-42
225	0x80000425	-1.487e-42
226	0x000dbad0	1.260877e-39
227	0x000005b0	2.04e-42
228	0x16e08661	3.6273957e-25
229	0x0000071f	2.555e-42
230	0x8bab4467	-6.5969725e-32
231	0x00000a81	3.768e-42
232	0x0000018a	5.52e-43
233	0x0000024c	8.24e-43
234	0x1eb9afa8	1.9660287e-20
235	0x041fde7a	1.8792516e-36
236	0x0011cb56	1.634147e-39
237	0x8000125b	-6.585e-42
238	0x80000ab4	-3.84e-42
239	0x1312cdcf	1.8529262e-27
240	0x0000056e	1.948e-42
241	0x0000077e	2.688e-42
242	0x80000a5a	-3.713e-42
243	0x80000ed7	-5.324e-42
244	0x80000bbd	-4.211e-42
245	0x1be80492	3.8384134e-22
246	0x00000b1b	3.984e-42
247	0x800006ed	-2.485e-42
248	0x18f58dd3	6.347422e-24
249	0x097a1aa3	3.010518e-33
250	0x80000d51	-4.777e-42
251	0x2e866acc	6.1125854e-11
252	0x000005ba	2.054e-42
253	0x80000929	-3.286e-42
254	0x8c351022	-1.3948588e-31
255	0x80000572	-1.953e-42

weight_ih_l0 f4 [200, 20]
0	0x3b3406d8	0.00274699
1	0xbaa9eb18	-0.001296374
2	0xbbca32d5	-0.0061706104
3	0x3ad8b255	0.0016532639
4	0xbb3f0057	-0.002914449
5	0x3a56700b	0.0008180148
6	0xbc026a1f	-0.007959872
7	0x39f1d407	0.00046125075
8	0x3b5c29a2	0.003359415
9	0xbbb2ae6c	-0.0054529216
10	0xbb36c09b	-0.0027885798
11	0xbb0bf3da	-0.0021355064
12	0x3b2a4a1c	0.0025984114
13	0xba89bc81	-0.0010508449
14	0xbb794f67	-0.0038041712
15	0xbbc1bbad	-0.0059122653
16	0x3bb9d1d1	0.005670764
17	0x3ba45287	0.005014721
18	0x3b0877c2	0.0020823334
19	0xbba5d528	-0.0050608106
20	0x3b4d77aa	0.0031351843
21	0xba694c67	-0.00088996295
22	0xbba6b793	-0.0050878017
23	0x3b080130	0.002075266
24	0xbb8a42a7	-0.0042193714
25	0x3a688247	0.00088695105
26	0xbc060b4c	-0.008181404
27	0x3a83bcf5	0.001005082
28	0x3a5a9011	0.00083375076
29	0xbbbacb22	-0.005700485
30	0xbb2ee089	-0.0026684126
31	0xbb418e74	-0.0029534372
32	0x3b8ab39e	0.004232838
33	0xbb002225	-0.0019551602
34	0xbb74dffb	-0.0037364948
35	0xbbb10663	-0.0054023727
36	0x3ba40c25	0.0050063306
37	0x3bd02286	0.0063517718
38	0x3ae9b333	0.0017829895
39	0xbbbd5a8f	-0.0057786177
40	0xbc1be0be	-0.009514032
41	0x3b93c106	0.004509094
42	0x3cdd03fd	0.02697944
43	0xbb918b36	-0.004441644
44	0x3ad5c4d3	0.0016309269
45	0xbb3e270e	-0.0029014978
46	0x3cd7f2d7	0.026360912
47	0x3a277935	0.00063886057
48	0xbc8e7b70	-0.017392844
49	0x3cb05159	0.021523165
50	0x3c02098a	0.007936845
51	0x3bfca7ae	0.0077104187
52	0xbbca99ac	-0.00618287
53	0x3b87cf14	0.0041445587
54	0x3c67a173	0.014137614
55	0x3c8920c2	0.016739253
56	0xbc958cd4	-0.018255629
57	0xbc509ed3	-0.012733179
58	0xbbc56e95	-0.0060251453
59	0x3c4b38e4	0.0124037005
60	0x3b24a780	0.0025124252
61	0xbc393890	-0.011304989
62	0xbc70145c	-0.014653292
63	0x3c25b003	0.010112765
64	0x3c87eb2a	0.016591627
65	0x3c8a7269	0.016900258
66	0xbb4ac418	-0.0030939635
67	0xbb2182f4	-0.0024644705
68	0x3cb95a03	0.022625929
69	0xbaf2d3a2	-0.0018526206
70	0xbba908fe	-0.0051585427
71	0x3ae148b4	0.0017187805
72	0xbcabe5b2	-0.02098355
73	0xbbe52d70	-0.006993942
74	0xbc6dcd01	-0.014514209
75	0xbcae91aa	-0.021309692
76	0x3c2e8676	0.010652175
77	0x39ba2b16	0.00035508786
78	0x3c0ae542	0.008477511
79	0x3a470373	0.00075917615
80	0x3b568a7a	0.0032736347
81	0xbb844c6b	-0.00403743
82	0xbc0c2142	-0.008552851
83	0x3ba00be7	0.0048842314
84	0x3ba4c973	0.0050288974
85	0x3bdbdaad	0.006709418
86	0xbbb67c0f	-0.005568988
87	0xb9eb5792	-0.00044887938
88	0x3be5547e	0.0069985976
89	0xbbb69450	-0.0055718794
90	0xbb24d3dc	-0.0025150692
91	0xbb5ef3f9	-0.003401993
92	0xbb7d048d	-0.0038607449
93	0xbbb7965b	-0.0056026406
94	0xbbf903b6	-0.0075993193
95	0xbc05cc21	-0.008166344
96	0x3ba9a79f	0.0051774527
97	0x3b830223	0.0039980575
98	0x3b41e10b	0.00295836
99	0xbb0003fa	-0.001953362
100	0xbbbb2678	-0.005711373
101	0x3b35c8d7	0.0027738118
102	0x3c7e077f	0.015504717
103	0xbb60daad	-0.0034310028
104	0x3a2084fa	0.00061233307
105	0xbb249ac2	-0.0025116657
106	0x3c7c4efe	0.015399693
107	0x3930c314	0.0001685734
108	0xbc125111	-0.008930461
109	0x3c59bd19	0.013289713
110	0x3b95b5e3	0.0045688017
111	0x3bbb2c6b	0.005712082
112	0xbb8272a2	-0.0039809505
113	0x3b79eaf9	0.003813444
114	0x3c1115bf	0.008855282
115	0x3c1d6f1b	0.009609009
116	0xbc2808eb	-0.010256032
117	0xbc0d51c2	-0.00862545
118	0xbb5a752e	-0.0033334005
119	0x3befea75	0.0073216506
120	0xbbadcdaa	-0.005304058
121	0x3b6e4081	0.0036354365
122	0x3c97a099	0.018509196
123	0xbb46eb64	-0.0030352706
124	0xba819ce4	-0.0009888676
125	0xbb23e928	-0.0025010798
126	0x3c883d3c	0.016630761
127	0x3a84bae8	0.0010126503
128	0xbc633c50	-0.01386936
129	0x3c67bbc2	0.014143886
130	0x3baddaf6	0.005305643
131	0x3b86c4e2	0.0041128257
132	0xbacd972c	-0.0015685312
133	0x3b11fd5f	0.0022276265
134	0x3c1cb223	0.0095639555
135	0x3c38168f	0.011235847
136	0xbc4fa13a	-0.012672717
137	0xbbefa45d	-0.007313295
138	0xbb8c5283	-0.004282297
139	0x3bdfbef9	0.0068281856
140	0x39f5238c	0.00046756526
141	0xbc093b1f	-0.008375912
142	0xbc456545	-0.01204807
143	0x3bd010fa	0.00634968
144	0x3c9848de	0.018589433
145	0x3c51939a	0.012791539
146	0x3ab5b535	0.0013863208
147	0xbb66549d	-0.0035145648
148	0x3ca31baa	0.019910652
149	0xba052368	-0.00050788233
150	0xbb0a46d9	-0.0021099357
151	0x3ac53420	0.0015045442
152	0xbc9acfeb	-0.018897971
153	0xbba6374f	-0.0050725113
154	0xbc2580a8	-0.010101475
155	0xbc42f0f7	-0.011898271
156	0x3bb5c6fb	0.005547402
157	0xbb88ff88	-0.0041808523
158	0x3b9ec05c	0.0048447084
159	0x3bb7c3be	0.005608051
160	0xbb730561	-0.0037082063
161	0xbad751a9	-0.0016427535
162	0x3c26ec1e	0.010188131
163	0x3af50fb3	0.0018696695
164	0x3c09fbf4	0.008421887
165	0x3bbc83cd	0.0057530166
166	0x3c77851d	0.01510742
167	0xb9c5faef	-0.00037761728
168	0xbb83f940	-0.0040275156
169	0x3c378cd1	0.011203007
170	0x3b4bbde6	0.003108853
171	0x3b507f3c	0.003181412
172	0xbc32e298	-0.010918282
173	0xbb1fdbaa	-0.0024392405
174	0x3b159ae9	0.002282793
175	0x3b5765b7	0.0032867023
176	0xbc091d9a	-0.008368874
177	0xbbe30e64	-0.0069292057
178	0xba7dae0c	-0.0009677119
179	0x3c068208	0.008209713
180	0x3b389d30	0.0028169863
181	0xbaef851e	-0.0018273925
182	0xbc02c5d9	-0.007981741
183	0x3affd51a	0.0019518465
184	0xb9988bc1	-0.00029095824
185	0x3adb6e02	0.0016741159
186	0xbc009e51	-0.007850246
187	0xb8c1f353	-9.24828e-05
188	0x3bb0ed34	0.0053993706
189	0xbbcffb9c	-0.006347133
190	0xbb2b14d9	-0.0026104955
191	0xbb1ce8fc	-0.002394258
192	0x3a922fc6	0.0011153154
193	0xbae3b7d7	-0.0017373514
194	0xbb9a8ef4	-0.0047167484
195	0xbbbdd086	-0.00579268
196	0x3bbe7ee6	0.0058134673
197	0x3b8bfbf1	0.004271977
198	0x3b0957bb	0.0020956832
199	0xbb7d54a2	-0.0038655181
200	0x3b6315f3	0.0034650534
201	0xbb149fd3	-0.002267827
202	0xbc0d1b49	-0.008612462
203	0x3b34ef03	0.0027608282
204	0xb9a1e25d	-0.00030876967
205	0x3b2b9f64	0.0026187534
206	0xbc129324	-0.008946214
207	0x38e3a15b	0.00010854258
208	0x3bb3a591	0.0054823835
209	0xbbe6f8ff	-0.0070487256
210	0xbb409fa0	-0.002939202
211	0xbb4c9d0e	-0.0031221542
212	0x3a970638	0.0011522239
213	0xbb378126	-0.0028000562
214	0xbbbc89a6	-0.0057537137
215	0xbbe151a9	-0.0068761897
216	0x3bd0d92b	0.0063735447
217	0x3baefb9a	0.005340052
218	0x3b223246	0.0024749204
219	0xbb9620e8	-0.0045815594
220	0x3b3110cb	0.0027018066
221	0xbb02765b	-0.001990697
222	0xbbdeb287	-0.0067961845
223	0x3b2e7894	0.0026622163
224	0x3a94ff9d	0.0011367683
225	0x3b439725	0.0029844728
226	0xbbcaed46	-0.006192836
227	0xb87b11ff	-5.9859824e-05
228	0x3b868ebc	0.0041063707
229	0xbbb27923	-0.0054465695
230	0xbb0635b9	-0.0020478799
231	0xbb375acd	-0.0027977705
232	0x3829f50a	4.052095e-05
233	0xbb486a2a	-0.0030580857
234	0xbb9ef8fe	-0.0048514595
235	0xbbacc3dc	-0.0052723717
236	0x3b908757	0.004410665
237	0x3b7a9f18	0.00382418
238	0x3af51203	0.0018697385
239	0xbb3766b0	-0.002798479
240	0xbb901403	-0.004396917
241	0x3b32bb33	0.0027272224
242	0x3c4bcca0	0.012438923
243	0xbb59eb2e	-0.003325175
244	0xb8063a3f	-3.2002336e-05
245	0xbb400b05	-0.0029303443
246	0x3c444734	0.011979867
247	0x398c9b5d	0.00026818636
248	0xbc0074ed	-0.007840377
249	0x3c220073	0.009887802
250	0x3b7c6716	0.0038513592
251	0x3b7b81e0	0.0038376972
252	0xbac5c52a	-0.0015088667
253	0x3b3b8cae	0.0028617787
254	0x3bf4a08d	0.007465428
255	0x3c113b46	0.00886423

weight_hh_l0 f4 [200, 50]
0	0x3dbbaf78	0.091643274
1	0xbdb4b388	-0.08823305
2	0x3d469335	0.04848023
3	0xbda3d714	-0.08000007
4	0x3da629ad	0.08113418
5	0x3d68acc6	0.056805395
6	0xbd802511	-0.0625707
7	0x3d07c873	0.033150148
8	0x3da1c723	0.078993104
9	0xbd9d666e	-0.076855525
10	0x3d9fccf0	0.078027606
11	0x3da2b89e	0.07945369
12	0xbd686fba	-0.056747176
13	0x3d963069	0.07333452
14	0x3cf8f639	0.030390846
15	0xbda4886c	-0.08033833
16	0x3d70b7b3	0.05876894
17	0xbdb84cc2	-0.089990154
18	0x3d4e5f86	0.050384067
19	0x3dba1bfe	0.0908737
20	0xbd8d26de	-0.06892179
21	0x3d60a8f5	0.05484863
22	0xbd610ef4	-0.0549459
23	0xbd9fc9b9	-0.078021474
24	0xbdb516a9	-0.08842213
25	0x3d839541	0.06424952
26	0xbda934e6	-0.08262043
27	0xbdaa58d1	-0.08317722
28	0x3c932583	0.017962223
29	0x3c6395cd	0.013890696
30	0x3d8f5aed	0.069997646
31	0xbc7b4007	-0.0153350895
32	0xbc65031a	-0.01397779
33	0x3da45431	0.08023871
34	0xbccf5e44	-0.025313504
35	0x3d854200	0.06506729
36	0x3d856e9f	0.0651524
37	0xbd876f6c	-0.06613049
38	0xbda21c78	-0.07915586
39	0x3c812c54	0.015768208
40	0x3d9d186c	0.07670674
41	0x3c30d5ed	0.010793191
42	0x3d209efa	0.039214112
43	0x3dbcb469	0.09214098
44	0x3d9e0790	0.07716286
45	0xbda6b07c	-0.081391305
46	0xbdb993ea	-0.090614155
47	0xbdbdb0a2	-0.09262206
48	0xbda51cb0	-0.08062112
49	0x3da02be2	0.0782087
50	0x3dbb3e66	0.09142761
51	0xbd9495ad	-0.07255111
52	0x3ce24ac1	0.027623536
53	0xbdad85e1	-0.08472801
54	0x3db0822f	0.086185805
55	0x3d761a02	0.060083397
56	0xbd7ab7ad	-0.061210323
57	0x3d12e051	0.035858456
58	0x3db2a2e5	0.08722476
59	0xbda41295	-0.08011357
60	0x3da81e6a	0.08208926
61	0x3dae69f6	0.08516304
62	0xbd7967af	-0.060889896
63	0x3da95654	0.08268419
64	0x3caaf143	0.020866996
65	0xbdb14cd4	-0.08657232
66	0x3d4567b2	0.048194595
67	0xbd93587a	-0.0719461
68	0x3d656205	0.05600168
69	0x3dbf5016	0.09341447
70	0xbd970025	-0.073730744
71	0x3d5818ff	0.052758213
72	0xbd103329	-0.03520504
73	0xbdacda67	-0.084400944
74	0xbdc4e1e0	-0.09613395
75	0x3d82c56a	0.0638531
76	0xbdb8489d	-0.08998225
77	0xbdb8020d	-0.08984766
78	0x3cff09f0	0.031132668
79	0x3ca56339	0.020188915
80	0x3d55715c	0.05211006
81	0xbcd22de1	-0.025656642
82	0xbcdae6d2	-0.026721392
83	0x3db1cd2d	0.08681712
84	0xbcf92d29	-0.030417042
85	0x3d865b80	0.06560421
86	0x3d5ffd01	0.054684643
87	0xbd7da2ba	-0.061922766
88	0xbdadc64f	-0.0848509
89	0x3cfccff5	0.03086088
90	0x3da6fb39	0.08153386
91	0xba0f88a2	-0.0005475377
92	0x3ce98c95	0.028509418
93	0x3dbe6a0a	0.09297569
94	0x3da996e2	0.08280732
95	0xbdb5b787	-0.08872896
96	0xbdbc6d0d	-0.09200487
97	0xbdc8a6d6	-0.097974464
98	0xbdab70ba	-0.0837111
99	0x3daba373	0.08380785
100	0x3dae49d7	0.085101776
101	0xbd9ff876	-0.07811062
102	0x3cc739a8	0.024319485
103	0xbd81f895	-0.063462414
104	0x3d99d10f	0.07510578
105	0x3d3c863e	0.04602646
106	0xbd63dee9	-0.055632506
107	0x3d10db8e	0.035365634
108	0x3d9b6f0a	0.075895384
109	0xbd92fc7e	-0.07177065
110	0x3d951736	0.07279818
111	0x3d98cce1	0.074609526
112	0xbd18fab1	-0.037348453
113	0x3daa7819	0.08323688
114	0x3cd5f75c	0.026118927
115	0xbd9adbd5	-0.07561461
116	0x3d0e1256	0.034685455
117	0xbd943cb1	-0.072381385
118	0x3d0676a5	0.032827992
119	0x3dac6b8f	0.08418953
120	0xbda5cd14	-0.08095756
121	0x3d80fa65	0.06297759
122	0xbd2dd963	-0.042443644
123	0xbd981334	-0.07425538
124	0xbdb5ec6e	-0.08882986
125	0x3d415f2e	0.04720991
126	0xbda0e2ae	-0.07855736
127	0xbda13380	-0.07871151
128	0x3d1e9423	0.038715493
129	0xbc6ed7fa	-0.01457786
130	0x3d41e46e	0.04733699
131	0xbd43fd00	-0.0478487
132	0xbd01ff30	-0.031737506
133	0x3d9b758c	0.0759078
134	0xbcb9bce3	-0.022673076
135	0x3d64c205	0.055849094
136	0x3d3846fb	0.044989567
137	0xbd6939a5	-0.05693974
138	0xbd95e225	-0.07318524
139	0x3d0658c6	0.032799505
140	0x3d948401	0.0725174
141	0xbbdbaab4	-0.006703699
142	0x3c7f31ba	0.015575821
143	0x3dae02a2	0.08496596
144	0x3d957b90	0.07298958
145	0xbd9e569b	-0.077313624
146	0xbdab634d	-0.083685495
147	0xbdb25625	-0.08707837
148	0xbd984a0c	-0.07435998
149	0x3d9b053b	0.07569357
150	0x3db552c5	0.08853678
151	0xbcdf5d08	-0.02726604
152	0xbc5c1fee	-0.013435347
153	0xbc3ea409	-0.011635789
154	0x3da136f3	0.07871809
155	0x3da9a0cc	0.08282623
156	0xbd559ec3	-0.05215336
157	0xbcc56b5d	-0.024099046
158	0x3daffc0d	0.08592997
159	0xbd98dd72	-0.07464112
160	0x3d9c7e18	0.07641238
161	0x3da6361f	0.081157915
162	0xbdb2871b	-0.087171756
163	0x3c92c434	0.017915823
164	0x3c95182b	0.0182
165	0xbdaa9242	-0.08328678
166	0x3d271a4a	0.040796556
167	0xbd28ee41	-0.04124284
168	0x3dbc2f9a	0.09188767
169	0x3dba3ce5	0.09093646
170	0xbd8224a6	-0.063546464
171	0x3d3b21c9	0.045686517
172	0x3ceb3375	0.02871106
173	0xbda7454e	-0.08167516
174	0xbd9b7078	-0.07589811
175	0x3da99c20	0.082817316
176	0xbdb6df71	-0.08929337
177	0xbdb5f982	-0.088854805
178	0x3d6bdfb6	0.057586394
179	0x3d4a1487	0.049335983
180	0x3d81117d	0.06302164
181	0xbcc4afb5	-0.024009565
182	0xbd8558bc	-0.06511065
183	0x3dace8dd	0.08442853
184	0xbd3bb6d8	-0.04582867
185	0x3d96e052	0.073670045
186	0x3d8e6f48	0.06954819
187	0xbd192e7c	-0.037397847
188	0xbd9ca46d	-0.07648549
189	0x3d65c82d	0.056099106
190	0x3d9efbf4	0.077629
191	0xbcf2b774	-0.029628493
192	0xbc21fe9d	-0.009887365
193	0x3db763c4	0.08954576
194	0x3da08bb2	0.07839145
195	0xbdb172a0	-0.08664441
196	0xbdb4d4da	-0.08829661
197	0xbdc792c5	-0.09744791
198	0xbd9b4f08	-0.075834334
199	0x3daa8bb2	0.08327426
200	0x3d255dd5	0.04037269
201	0xbca342cb	-0.01992931
202	0x3bb73c12	0.0055918777
203	0xbd3b54db	-0.04573522
204	0x3d1eea48	0.038797647
205	0x3d14e787	0.036353614
206	0xbcf0e4b2	-0.029405925
207	0x3cb4ffe9	0.022094684
208	0x3d1ea482	0.038731106
209	0xbd1019c2	-0.035180815
210	0x3d159c6c	0.03652613
211	0x3d1d7535	0.038441855
212	0xbd17497c	-0.036935315
213	0x3cb09e27	0.021559788
214	0x3ba4759b	0.0050189025
215	0xbd207f5b	-0.039183956
216	0x3d02042a	0.031742252
217	0xbcd1fa8f	-0.025632171
218	0x3d2008eb	0.039071005
219	0x3d2bb8b0	0.04192418
220	0x3c00b39b	0.007855321
221	0x3b023e83	0.0019873686
222	0xbab78654	-0.0014001825
223	0xbd1a1d6d	-0.03762572
224	0xbd0fb97e	-0.03508901
225	0x3d236b7a	0.03989742
226	0xbd26195d	-0.040551532
227	0xbd28383b	-0.04106925
228	0x3c10d2e5	0.008839344
229	0x3cc2d1bc	0.02378165
230	0x3d04c0b5	0.032410342
231	0xbb630131	-0.0034638161
232	0xbcb067f2	-0.02153394
233	0x3d2110e6	0.039322756
234	0xbc66321e	-0.014050035
235	0x3d0f5a2d	0.034998108
236	0x3d07bb7d	0.033137787
237	0xbcd52e8c	-0.026023172
238	0xbd18b14b	-0.037278455
239	0x3c9ff871	0.019527646
240	0x3d124b7e	0.035716526
241	0x3c0f2894	0.008737702
242	0x3a8c8ffe	0.0010724065
243	0x3d2cc406	0.04217913
244	0x3d14f546	0.036366723
245	0xbd22fa57	-0.039789524
246	0xbd2b52f3	-0.041827153
247	0xbd35f218	-0.04442033
248	0xbd17e037	-0.037079062
249	0x3d0d40cd	0.034485627
250	0x3d94a250	0.07257521
251	0xbd737976	-0.059442006
252	0x3ce3fbf1	0.027830096
253	0xbd317bde	-0.04333102
254	0x3d86fb9a	0.06590958
255	0x3d47856d	0.04871123

bias_ih_l0 f4 [200]
0	0x3e17da67	0.14829408
1	0x3e10f2f6	0.14155182
2	0x3e0c114a	0.1367847
3	0x3e017b9c	0.1264481
4	0x3d9282a2	0.071538225
5	0x3dfa0c79	0.1220941
6	0x3de1b106	0.11020093
7	0x3e135473	0.14387684
8	0x3d8ecf2c	0.06973109
9	0x3d6e5f6b	0.058196466
10	0x3d5dcd69	0.054150973
11	0x3d592e08	0.053022414
12	0x3e1225ee	0.14272282
13	0x3da573c0	0.08078718
14	0x3d8cf2c4	0.06882241
15	0x3d62adb9	0.055341456
16	0x3dfc20ed	0.123109676
17	0x3e16e48f	0.14735626
18	0x3e11fa15	0.14255555
19	0x3dfdadc1	0.123866566
20	0x3e3a76c5	0.1820937
21	0x3ddc1e12	0.10747923
22	0x3e09bc2a	0.13450685
23	0x3d4ebca0	0.050472856
24	0x3dd8af00	0.105802536
25	0x3e0112ae	0.12604782
26	0x3d8bd8fb	0.06828495
27	0x3d8c1e83	0.06841757
28	0x3db2fc6f	0.08739554
29	0x3dd8a78c	0.10578832
30	0x3e102207	0.1407548
31	0x3de08074	0.109620005
32	0x3dccf77b	0.10008141
33	0x3d5f26c9	0.054480348
34	0x3e5228c1	0.20523359
35	0x3e0490d7	0.12945877
36	0x3e021431	0.12703015
37	0x3dec3fd3	0.11535611
38	0x3d809cf6	0.06279938
39	0x3de8f317	0.11374491
40	0x3d5c42eb	0.053774755
41	0x3d8c497b	0.06849953
42	0x3dbca16c	0.09210476
43	0x3e151bae	0.1456134
44	0x3d4a32a7	0.049364712
45	0x3d73d5c9	0.059530053
46	0x3e0201f6	0.1269606
47	0x3e151de3	0.14562182
48	0x3d925267	0.07144623
49	0x3daef371	0.085425265
50	0x3d3038ef	0.043023046
51	0x3d5bd2c8	0.053667814
52	0x3d917826	0.071029946
53	0x3d466bee	0.048442774
54	0x3d89d989	0.06730945
55	0x3d176ad6	0.03696712
56	0x3c896234	0.01677046
57	0x3d074f68	0.033034712
58	0x3dcdadb8	0.100429
59	0x3d21fb86	0.039546512
60	0x3d30fe96	0.043211542
61	0x3d5dc4e8	0.054142863
62	0x3d13a4b3	0.03604574
63	0x3dd17d7d	0.10229013
64	0x3cc95221	0.024575295
65	0x3d7c8e45	0.061659116
66	0x3d33c14b	0.04388551
67	0x3d8d14b3	0.06888714
68	0x3d686cd5	0.056744415
69	0x3d871e9d	0.06597636
70	0x3dca0eb6	0.09866087
71	0x3d46b24d	0.048509885
72	0x3d8ca157	0.06866711
73	0x3d65dd07	0.05611899
74	0x3e0521bb	0.13001148
75	0x3d5dabf6	0.054119073
76	0x3db4bcb8	0.08825058
77	0x3db0314b	0.08603152
78	0x3dfea9b4	0.12434712
79	0x3ce93f76	0.028472643
80	0x3d80645e	0.062691435
81	0x3e0ea610	0.13930535
82	0x3e191175	0.14948066
83	0x3d84740e	0.06467448
84	0x3dd92d88	0.106043875
85	0x3cdd7947	0.027035369
86	0x3d4a2372	0.04935021
87	0x3cb63bc9	0.022245305
88	0x3d71f2f5	0.059069593
89	0x3d82aabe	0.06380223
90	0x3d3e98f5	0.04653259
91	0x3d9bfaa7	0.076161675
92	0x3e0b0d4d	0.13579293
93	0x3d914efc	0.07095143
94	0x3d3bd64d	0.04585867
95	0x3d983a8a	0.074330404
96	0x3d83240a	0.06403358
97	0x3e45670a	0.19277588
98	0x3d4d0bf6	0.050060235
99	0x3dbca902	0.09211923
100	0x3e321a46	0.17392835
101	0xbdd871bf	-0.1056857
102	0x3c0d34f6	0.008618584
103	0xbde504ff	-0.111825936
104	0x3e08997d	0.13339801
105	0x3e2325a0	0.15932322
106	0xbd91af76	-0.07113545
107	0x3df7010d	0.12060747
108	0x3dcd83d3	0.10034909
109	0xbe0088a5	-0.12552126
110	0x3e003671	0.12520768
111	0x3e146e3c	0.14495176
112	0xbe131bd0	-0.14366078
113	0x3d993976	0.07481663
114	0xbc8f1080	-0.017463923
115	0xbe18688b	-0.1488363
116	0x3de04ae3	0.109517835
117	0xbe10cb90	-0.14140153
118	0x3e31f5f5	0.17378981
119	0x3e2a1836	0.16610798
120	0xbe16d4aa	-0.14729562
121	0x3d3abffb	0.045593243
122	0x3d2fb25a	0.0428947
123	0xbe08da99	-0.13364638
124	0xbe156538	-0.14589393
125	0x3e3f221b	0.18665354
126	0xbe1efbd0	-0.15525746
127	0xbe24cbd7	-0.16093384
128	0xbb2a0f03	-0.002594889
129	0x3d899af5	0.06719009
130	0x3e0d1b1f	0.13779877
131	0xbd9d22b7	-0.07672637
132	0xbdd5c6b1	-0.10438288
133	0x3e15fb23	0.14646582
134	0x3b7a2b2f	0.0038172712
135	0x3dcdab81	0.100424774
136	0x3e07d891	0.13266207
137	0xbd74853a	-0.059697367
138	0xbdd5ff66	-0.10449104
139	0xbcbd90ae	-0.023140278
140	0x3e080c3c	0.13285917
141	0xbd92f0c2	-0.07174827
142	0x3d5b0b98	0.053477854
143	0x3e323512	0.17403057
144	0x3e06e65a	0.1317381
145	0xbe19799e	-0.149878
146	0xbe24de5b	-0.16100447
147	0xbe58846f	-0.2114427
148	0xbe03da5e	-0.12876269
149	0x3e1bc1ce	0.1521065
150	0x3def8085	0.11694435
151	0x3dae4d3d	0.08510826
152	0x3e042ba7	0.12907277
153	0x3df9e27e	0.12201403
154	0x3dc1523b	0.09439512
155	0x3e0453e9	0.12922634
156	0x3de806f1	0.11329449
157	0x3e0b739c	0.1361832
158	0x3db8b3d4	0.090186745
159	0x3db0e4d6	0.08637397
160	0x3db4fb43	0.08836987
161	0x3dc3c73c	0.09559485
162	0x3e1756be	0.14779183
163	0x3da845ab	0.08216413
164	0x3d897c8d	0.06713209
165	0x3dc9b69e	0.098492846
166	0x3df8d9a1	0.121508844
167	0x3db5536a	0.088538006
168	0x3e1312ab	0.1436259
169	0x3ded4ab0	0.11586511
170	0x3e2b239b	0.16712801
171	0x3db4f0c2	0.088349834
172	0x3df57419	0.119850345
173	0x3dbb893e	0.09157036
174	0x3ddeb2b8	0.10873932
175	0x3e0ebeeb	0.13940017
176	0x3dd1a73f	0.10236978
177	0x3dd7b23b	0.10532042
178	0x3d58ecf2	0.052960344
179	0x3de52507	0.11188703
180	0x3e1376a6	0.1440073
181	0x3d86b440	0.06577349
182	0x3d85e1f9	0.065372415
183	0x3dc8a12c	0.09796366
184	0x3e4c6407	0.19960032
185	0x3e0b0daa	0.13579431
186	0x3e0893cf	0.13337635
187	0x3deb8c68	0.1150139
188	0x3db2e777	0.08735555
189	0x3ddd70e9	0.108125515
190	0x3db5c446	0.08875327
191	0x3da61b8c	0.08110723
192	0x3d581fc8	0.052764684
193	0x3df3bbac	0.1190103
194	0x3db5be79	0.088742204
195	0x3dcb9b56	0.09941737
196	0x3dea05a4	0.11426857
197	0x3e01f6c0	0.12691784
198	0x3dba95e0	0.09110618
199	0x3dc5034e	0.09619771

bias_hh_l0 f4 [200]
0	0x3e17da4e	0.1482937
1	0x3e10f2b5	0.14155085
2	0x3e0c1152	0.13678482
3	0x3e017c46	0.12645063
4	0x3d9282a5	0.07153825
5	0x3dfa0d8f	0.12209617
6	0x3de1b106	0.11020093
7	0x3e135473	0.14387684
8	0x3d8ecf27	0.06973105
9	0x3d6e6089	0.05819753
10	0x3d5dcd77	0.054151025
11	0x3d592e05	0.053022403
12	0x3e1225ee	0.14272282
13	0x3da57308	0.08078581
14	0x3d8cf330	0.06882322
15	0x3d62adbb	0.055341464
16	0x3dfc20e9	0.123109646
17	0x3e16e48f	0.14735626
18	0x3e11f9d0	0.14255452
19	0x3dfdada3	0.12386634
20	0x3e3a76c5	0.1820937
21	0x3ddc1e5c	0.10747978
22	0x3e09bc45	0.13450725
23	0x3d4ebcb2	0.050472923
24	0x3dd8af00	0.105802536
25	0x3e0112a8	0.12604773
26	0x3d8bd8fb	0.06828495
27	0x3d8c1e77	0.06841748
28	0x3db2fc7b	0.08739563
29	0x3dd8a71c	0.105787486
30	0x3e102207	0.1407548
31	0x3de082fa	0.10962482
32	0x3dccf7a5	0.10008172
33	0x3d5f26c8	0.054480344
34	0x3e5226bb	0.20522587
35	0x3e0490f2	0.12945917
36	0x3e021431	0.12703015
37	0x3dec4056	0.115357086
38	0x3d809cf6	0.06279938
39	0x3de8f374	0.1137456
40	0x3d5c42c7	0.05377462
41	0x3d8c4a86	0.06850152
42	0x3dbca16c	0.09210476
43	0x3e151c5b	0.14561598
44	0x3d4a32a8	0.049364716
45	0x3d73d5c9	0.059530053
46	0x3e020258	0.12696207
47	0x3e151de3	0.14562182
48	0x3d9253f2	0.071449175
49	0x3daef376	0.0854253
50	0x3d3038ef	0.043023046
51	0x3d5bd0ed	0.053666044
52	0x3d917826	0.071029946
53	0x3d45a760	0.048255324
54	0x3d89d9bf	0.06730985
55	0x3d176abe	0.03696703
56	0x3c896232	0.016770456
57	0x3d081e2c	0.0332319
58	0x3dcdadb8	0.100429
59	0x3d21fb61	0.039546374
60	0x3d30fe9a	0.043211557
61	0x3d5dc518	0.05414304
62	0x3d13a4be	0.036045782
63	0x3dd17d7d	0.10229013
64	0x3cc950bf	0.024574636
65	0x3d7c8e43	0.06165911
66	0x3d33c141	0.043885473
67	0x3d8d14b3	0.06888714
68	0x3d686cd5	0.056744415
69	0x3d871e9d	0.06597636
70	0x3dca2272	0.09869851
71	0x3d46c20d	0.048524905
72	0x3d8ca12d	0.06866679
73	0x3d65dd0f	0.05611902
74	0x3e0521bb	0.13001148
75	0x3d5dac0c	0.054119155
76	0x3db4bcb8	0.08825058
77	0x3db03159	0.08603162
78	0x3dfea9be	0.124347195
79	0x3ce93f72	0.028472636
80	0x3d80645e	0.062691435
81	0x3e0ea57d	0.13930316
82	0x3e191136	0.14947972
83	0x3d84741d	0.06467459
84	0x3dd92d99	0.106044
85	0x3cdd7964	0.027035423
86	0x3d4a23bb	0.04935048
87	0x3cb63b8d	0.022245193
88	0x3d71f2f5	0.059069593
89	0x3d82aabe	0.06380223
90	0x3d3e9914	0.046532705
91	0x3d9bfaa4	0.07616165
92	0x3e0b0d83	0.13579373
93	0x3d914efc	0.07095143
94	0x3d3bd64d	0.04585867
95	0x3d983a8b	0.07433041
96	0x3d83240a	0.06403358
97	0x3e45670a	0.19277588
98	0x3d4d0bc1	0.050060038
99	0x3dbca902	0.09211923
100	0x3e321a2a	0.17392793
101	0xbdd37d63	-0.1032665
102	0x3c4ea708	0.012613066
103	0xbd6d3935	-0.057915885
104	0x3e08c968	0.1335808
105	0x3e2429f0	0.16031623
106	0xbd8e4614	-0.0694696
107	0x3dfefe0c	0.12450799
108	0x3dcc31b5	0.09970418
109	0xbe0036d6	-0.12520918
110	0x3e000d09	0.12504973
111	0x3e148bd7	0.1450647
112	0xbdd12662	-0.10212399
113	0x3d8ecff8	0.06973261
114	0xbcc42e45	-0.023947844
115	0xbe187118	-0.14886892
116	0x3dde1638	0.10844082
117	0xbe10ca97	-0.14139782
118	0x3e38934f	0.18024944
119	0x3e2a13ea	0.16609159
120	0xbe09c373	-0.13453464
121	0x3d7b75a0	0.061391473
122	0x3d1e576c	0.03865759
123	0xbe066ff1	-0.1312864
124	0xbe15956f	-0.14607786
125	0x3e3f307c	0.18670839
126	0xbe1f0e0f	-0.15532707
127	0xbe24cbb9	-0.16093339
128	0xba4f4a68	-0.0007907511
129	0x3db6ed6b	0.08932003
130	0x3e0c2613	0.13686399
131	0xbd9dc91e	-0.07704376
132	0xbdc7aaa3	-0.09749343
133	0x3e1574e1	0.14595367
134	0xbd58ec2c	-0.052959606
135	0x3dc336c5	0.09531931
136	0x3de516bf	0.11185979
137	0xbd734b75	-0.059398133
138	0xbdd5eef2	-0.10445966
139	0xbcf4a3a0	-0.029863179
140	0x3e080b22	0.13285497
141	0xbd0f3382	-0.03496123
142	0x3d396372	0.045260854
143	0x3e323849	0.17404284
144	0x3e06e99d	0.13175054
145	0xbe197980	-0.14987755
146	0xbe24de59	-0.16100444
147	0xbe58badb	-0.2116503
148	0xbe03da67	-0.12876283
149	0x3e1bcd8b	0.15215127
150	0x3def8087	0.116944365
151	0x3dae4db2	0.08510913
152	0x3e042b95	0.1290725
153	0x3df9f3f0	0.122047305
154	0x3dc15227	0.094394974
155	0x3e0453ee	0.12922642
156	0x3de80709	0.11329467
157	0x3e0b7395	0.1361831
158	0x3db8b3bb	0.09018656
159	0x3db0e4d5	0.08637396
160	0x3db4fb38	0.08836979
161	0x3dc3c744	0.09559491
162	0x3e1756be	0.14779183
163	0x3da8455f	0.082163565
164	0x3d897c9d	0.06713221
165	0x3dc9b696	0.09849279
166	0x3df8d99e	0.12150882
167	0x3db55364	0.08853796
168	0x3e1312aa	0.14362589
169	0x3ded4ab5	0.11586515
170	0x3e2b239c	0.16712803
171	0x3db4f0b2	0.088349715
172	0x3df57415	0.119850315
173	0x3dbb8955	0.091570534
174	0x3ddeb2b9	0.108739324
175	0x3e0ebee0	0.1394
176	0x3dd1a73e	0.10236977
177	0x3dd7b23f	0.105320446
178	0x3d58ed5a	0.05296073
179	0x3de5250d	0.111887075
180	0x3e137695	0.14400704
181	0x3d86b44e	0.06577359
182	0x3d85e116	0.06537072
183	0x3dc8a13c	0.09796378
184	0x3e4c6407	0.19960032
185	0x3e0b0da2	0.1357942
186	0x3e0893d3	0.1333764
187	0x3deb8c72	0.11501397
188	0x3db2e777	0.08735555
189	0x3ddd7121	0.10812593
190	0x3db5c449	0.08875329
191	0x3da61b96	0.0811073
192	0x3d581fc7	0.05276468
193	0x3df3bba5	0.11901025
194	0x3db5be76	0.08874218
195	0x3dcb9b57	0.09941738
196	0x3dea05b3	0.11426868
197	0x3e01f6c0	0.12691784
198	0x3dba95d6	0.0911061
199	0x3dc50338	0.096197546

weight f4 [10, 50]
0	0xbced0a80	-0.02893567
1	0x3df37f66	0.11889534
2	0xba89c280	-0.0010510236
3	0xbc364ba0	-0.011126429
4	0x3df5cee6	0.12002353
5	0x3dbe9e0e	0.0930749
6	0x3cfb1660	0.030650318
7	0xbdb24d2b	-0.08706125
8	0x3d8e8a26	0.069599435
9	0xbdb989ba	-0.090594724
10	0x3d8d7bb0	0.06908357
11	0x3a6d3100	0.0009048134
12	0x3dde63fe	0.10858916
13	0xbb9c63a0	-0.0047726184
14	0x3d347660	0.044058204
15	0x3ca6e660	0.020373523
16	0xbdd9329c	-0.10605356
17	0x3cb1b4e8	0.021692708
18	0x3dc78820	0.09742761
19	0xbd959725	-0.07304219
20	0xbe01849d	-0.12648244
21	0x3d7e20b8	0.06204292
22	0xbd08969c	-0.033346757
23	0x3e01d785	0.1267987
24	0xbd849ee3	-0.06475618
25	0xbe0a6adf	-0.1351733
26	0x3e0397cf	0.12850879
27	0xbcbca354	-0.0230271
28	0xbb6d8b80	-0.0036246479
29	0x3d01d358	0.031695694
30	0x3cef62c8	0.029221907
31	0xbdf2133d	-0.11820076
32	0xbcd01814	-0.025402106
33	0x3d966828	0.07344085
34	0x3dcda022	0.100403085
35	0xbdbe985e	-0.093064055
36	0x3e0a6c3d	0.13517852
37	0x3dfb383e	0.12266587
38	0xbc5b8780	-0.013399005
39	0x3bf3a1a0	0.0074350387
40	0xbd6c54ec	-0.057698175
41	0x3cb86888	0.022510782
42	0xbde58d3e	-0.112085804
43	0x3d6c9b20	0.057765126
44	0x3c4b6fb0	0.012416765
45	0xbdd26e33	-0.10274925
46	0xbd0fc58c	-0.035100505
47	0xbd9373e4	-0.07199839
48	0x3cf4c600	0.02987957
49	0x3c1bdc70	0.009513006
50	0xbdd1b3e5	-0.1023939
51	0x3c0a8fd0	0.008457139
52	0xbddc1592	-0.10746302
53	0xbbd80a80	-0.0065930486
54	0x3d063d84	0.03277351
55	0x3d1adb8c	0.037807032
56	0x3dc68416	0.09693162
57	0x39990000	0.00029182434
58	0x3c464210	0.012100711
59	0x3c867c80	0.016416788
60	0x3dab8f58	0.0837695
61	0xbd59784a	-0.053093232
62	0x3c396440	0.011315405
63	0x3dd36aac	0.103230804
64	0xbc13df40	-0.009025395
65	0xbda292b5	-0.079381384
66	0x3d352724	0.04422678
67	0xbc1fdba0	-0.0097569525
68	0x3d323340	0.043505907
69	0xbde37fa6	-0.111083314
70	0xbd25a044	-0.040436044
71	0xbe0e69cf	-0.1390755
72	0x3dc3ef4c	0.09567127
73	0x3db68894	0.08912769
74	0xbdc9b690	-0.09849274
75	0x3d659a7c	0.05605553
76	0xbcadd544	-0.021219857
77	0xbde3d5c9	-0.11124761
78	0x3e0d5013	0.13800077
79	0x3d8157e8	0.06315595
80	0xbd16418c	-0.036683604
81	0xbd6ee5e2	-0.058324702
82	0xbc3a2c40	-0.011363089
83	0x3d291714	0.041281775
84	0xbdd91218	-0.10599154
85	0xbd832b26	-0.06404714
86	0xbd532242	-0.051546343
87	0x3d569edc	0.052397594
88	0x3ddad370	0.1068486
89	0x3d3b5624	0.045736447
90	0x3c962d20	0.018332064
91	0xbd014d82	-0.031568058
92	0xbd43ddf0	-0.047819078
93	0xbdf1c3e0	-0.11804938
94	0xbe029540	-0.12752247
95	0x3dae0786	0.08497529
96	0xbcc249c0	-0.023716807
97	0xbdffeca3	-0.12496307
98	0x3e0db37d	0.13838
99	0xbb257fc0	-0.0025253147
100	0xbd2a8b84	-0.04163696
101	0x3d81f9ee	0.063464984
102	0xbdd92d06	-0.10604291
103	0xbdbf2fd2	-0.09335293
104	0x3de87d96	0.113520786
105	0xbd52370e	-0.051322035
106	0xbbb8d240	-0.005640298
107	0xbd867c6e	-0.06566702
108	0xbe0b78d1	-0.13620307
109	0x3dbe7460	0.092995405
110	0xbe0de080	-0.13855171
111	0xbc2805f0	-0.010255322
112	0xbde99327	-0.1140502
113	0x3cf5fb30	0.030027002
114	0xbdeb7710	-0.11497319
115	0xbdde085e	-0.1084144
116	0xbdb2ddec	-0.087337345
117	0xbd0a1510	-0.033711493
118	0x3dbdd142	0.092684284
119	0xbd065310	-0.03279406
120	0x3df4f8e6	0.11961536
121	0xbdc46d9a	-0.09591217
122	0x3da49978	0.08037084
123	0xbb472440	-0.0030386597
124	0xbd026d20	-0.03184235
125	0xbde345b6	-0.11097281
126	0xb96e5000	-0.00022727251
127	0x3ce61880	0.028087854
128	0x3d612a10	0.054971755
129	0xbc3d5f80	-0.0115584135
130	0xbda6be55	-0.08141772
131	0x3d9c4132	0.076296225
132	0x3da82406	0.08209996
133	0xbcd8f288	-0.026482835
134	0x3d992604	0.07477954
135	0xbd5c6592	-0.053807802
136	0xbad4c280	-0.0016232282
137	0x3d145db8	0.03622219
138	0xbb76b280	-0.0037643015
139	0x3e0572ed	0.13032122
140	0xbe0545f6	-0.13014969
141	0xbd5feeac	-0.054670975
142	0xbd453488	-0.0481458
143	0x3dcaaa66	0.09895782
144	0x3c4cd1a0	0.01250115
145	0x3c0eb270	0.008709535
146	0xbcd9b150	-0.026573807
147	0x3d6113c0	0.054950476
148	0x3d8154fa	0.06315036
149	0xbcd63788	-0.026149526
150	0x3d0c8158	0.03430304
151	0xbcda0a04	-0.026616104
152	0x3ceb5678	0.028727755
153	0x3d16c0d4	0.03680499
154	0xbd70dc62	-0.058803923
155	0x3d4e4904	0.050362602
156	0xbe070dbb	-0.13188832
157	0x3d7ddc58	0.061977714
158	0xbd082b58	-0.03324446
159	0xbc5c09d0	-0.013430074
160	0x3de81956	0.113329574
161	0x3e02d591	0.12776782
162	0x3d34f0b0	0.04417485
163	0xbdf9fb3c	-0.12206122
164	0xbd22d72a	-0.039755978
165	0x3baf95a0	0.005358413
166	0xbd00ca58	-0.03144297
167	0x3d8da6dc	0.069165915
168	0x3c051930	0.008123681
169	0x3bad79c0	0.0052940547
170	0x3c123e30	0.0089259595
171	0x3de9caa2	0.11415602
172	0x3e075ccf	0.13218997
173	0xbde7de25	-0.113216676
174	0xbdc60be5	-0.096702375
175	0x3d2c1cb0	0.042019546
176	0xbdeea1d0	-0.11651957
177	0xbd550074	-0.052002385
178	0x3e0f15b5	0.13973124
179	0xbe05d716	-0.1307033
180	0xbd710ec8	-0.058851987
181	0xbd896b31	-0.06709898
182	0xbd4c5dd8	-0.049894184
183	0xbdbbe5ca	-0.09174688
184	0x3d3170f0	0.043320596
185	0x3d2bb9c0	0.041925192
186	0x3d876dae	0.066127166
187	0x3df12f6a	0.11776622
188	0x3df37302	0.118871704
189	0xbe0755cc	-0.13216323
190	0x3d07f1c4	0.03318955
191	0xbda64786	-0.08119111
192	0xbe0508a0	-0.12991571
193	0xbd982d2d	-0.074304916
194	0xbce7b7d4	-0.028285898
195	0xbd45ec96	-0.04832133
196	0x3e07ba39	0.13254632
197	0xbddc7c7c	-0.10765931
198	0x3dd16746	0.10224776
199	0x3dc221c6	0.09479098
200	0x3e00da97	0.12583385
201	0xbda6677e	-0.08125208
202	0x3ce19a88	0.027539507
203	0x3cf28090	0.029602319
204	0x3e0288b7	0.12747465
205	0xbd207c8c	-0.039181277
206	0x3d5213cc	0.05128841
207	0x3e0f6bc1	0.14005949
208	0xbcba31e4	-0.022728868
209	0xbdadbe3d	-0.08483551
210	0x3e0c1695	0.1368049
211	0xbc92b1a0	-0.017906964
212	0x3dd414b2	0.1035551
213	0x3d7c3ec0	0.06158328
214	0xbd501448	-0.05080059
215	0x3d2ae14c	0.041718766
216	0x3d872fd2	0.06600918
217	0xbe04f999	-0.12985839
218	0xbda1a15d	-0.07892106
219	0x3e109b5f	0.1412177
220	0x3d9fa082	0.07794286
221	0x3da54306	0.08069424
222	0x3d3b156c	0.045674726
223	0x3d3b7098	0.045761675
224	0x3ceee9c8	0.02916421
225	0x3d2e1010	0.042495787
226	0x3ccdb008	0.025108352
227	0xbe0e670c	-0.13906497
228	0x3c8b7708	0.017024532
229	0x3dea35c6	0.11436038
230	0x3df8b306	0.12143521
231	0x3d8b4d8e	0.06801902
232	0x3cad3738	0.021144494
233	0x3ddc9a86	0.107716605
234	0x3d749298	0.059710115
235	0xbdd9b66c	-0.10630497
236	0x3df66426	0.120308205
237	0xbd0a7248	-0.033800393
238	0xbd601196	-0.05470427
239	0xbc44c130	-0.01200895
240	0x3dd89774	0.105757624
241	0x3c136760	0.0089968145
242	0xbdcc9388	-0.09989077
243	0x3d178784	0.036994472
244	0x3cbca778	0.023029074
245	0x3deeebee	0.11666094
246	0xbdb2967a	-0.087201074
247	0x3cb24cb0	0.021765083
248	0x3c91ef88	0.017814413
249	0xbc99a6a0	-0.01875621
250	0xbd6f99ae	-0.05849617
251	0xbda211b4	-0.07913533
252	0x3dab0e32	0.08352317
253	0x3bcb7b40	0.006209761
254	0xbd5f8246	-0.054567598
255	0x3da5fd7e	0.081049904

bias f4 [10]
0	0xbe025269	-0.1272675
1	0x3dcb33e8	0.0992201
2	0xbd287c50	-0.04113418
3	0x3ae50c00	0.001747489
4	0x3ded8152	0.115969315
5	0xbdd5efca	-0.10446127
6	0x3c046a70	0.008082017
7	0xbd7b310e	-0.06132608
8	0x3e1045fb	0.14089195
9	0x3d61e260	0.05514753

weight f4 [5, 10]
0	0x3e816531	0.25272515
1	0x3d36df98	0.04464683
2	0xbe1f8457	-0.15577827
3	0x3e6c415a	0.23071805
4	0xbe9c2892	-0.30499703
5	0x3dfd11c4	0.12356904
6	0xbea03028	-0.3128674
7	0x3e4a5d72	0.19762209
8	0x3dfa0e00	0.122097015
9	0x3e84f7e5	0.2597038
10	0x3d20b628	0.039236218
11	0xbe5764da	-0.21034566
12	0xbe1d0261	-0.15332939
13	0x3dfcc448	0.12342125
14	0x3e8bc76d	0.27300587
15	0x3e9873f5	0.29775968
16	0x3ddbac04	0.10726169
17	0xbd66ddc8	-0.05636385
18	0xbda525ea	-0.08063872
19	0x3d443c10	0.047908843
20	0x3dc8e9d4	0.09810224
21	0xbd6093d8	-0.054828495
22	0x3c1b4120	0.009475976
23	0x3cc49f60	0.024001777
24	0xbe5ec523	-0.21754889
25	0x3e340452	0.17579773
26	0xbe128940	-0.14310169
27	0x3dd6b09c	0.10482904
28	0x3d803a0c	0.062610716
29	0x3e479c96	0.19493327
30	0xbd66fbc0	-0.05639243
31	0x3d82b95c	0.06383011
32	0xbe0859bf	-0.13315485
33	0xbe226ba7	-0.15861379
34	0x3deeaea4	0.11654404
35	0xbe5d4c1e	-0.21611068
36	0x3c1bdf60	0.009513706
37	0x3e9b67ed	0.30352727
38	0xbd0f0e30	-0.03492564
39	0xbe5d187e	-0.21591374
40	0x3e105880	0.1409626
41	0x3df52928	0.119707406
42	0xbe0d3629	-0.13790192
43	0x3c36dc00	0.0111608505
44	0xbda54a34	-0.08070794
45	0x3e674722	0.22585729
46	0xbdd3914c	-0.103304476
47	0xbc197cc0	-0.009368122
48	0xbdff894a	-0.12477358
49	0xbe6b7751	-0.22994734

bias f4 [5]
0	0x3c37ec00	0.0112257
1	0x3d262f30	0.040572345
2	0xbd379e20	-0.044828534
3	0xbd0171f0	-0.0316028
4	0x3e88f6e5	0.26750866

weight f4 [2, 5]
0	0xbcdd6a90	-0.027028352
1	0x3ea7b122	0.3275233
2	0x3e9e055a	0.30863458
3	0x3e5b2ac8	0.21403039
4	0xbeb49fc1	-0.35278133
5	0x3eb0af1e	0.34508604
6	0x3e48dbb0	0.19615054
7	0x3df389d8	0.11891526
8	0x3e972546	0.29520625
9	0xbedc1012	-0.4298101

bias f4 [2]
0	0xbe4aee5b	-0.19817488
1	0x3e04a71c	0.12954372
