model/saved_models/en/model_en_pretrained_epoch_14.pt (torch_old, 231736 bytes, 23 tensors)

weight f4 [74, 20]
0.0 0.0 0.0 0.0 0.0 0.0 0.0 0.0
0.0 0.0 0.0 0.0 0.0 0.0 0.0 0.0
0.0 0.0 0.0 0.0 -0.014573669 0.00034972563 -0.0021019094 -0.009234739
-0.0017712164 -0.014893603 -0.0037132562 -0.010851604 0.012933453 0.0037502255 0.053423993 0.019653149
-0.00034881113 -0.033662032 -0.00433399 0.01752997 0.004077986 -0.004693535 0.0037031572 -0.004115345
-0.13184433 -0.83537453 0.6604425 -0.1811463 -0.497562 -0.2731585 0.8996811 -0.79379135
0.040505387 -1.1336585 0.19979934 -1.147727 0.04108196 1.002065 1.2013783 -0.9179371
0.2164116 -0.7842485 -0.07637697 0.03491023 0.7788983 1.5332688 1.6097364 -0.40322813
-0.8344702 0.5978008 -0.05140591 -0.064558834 -0.49700567 0.4657563 -0.2572586 -1.0672592
2.0089414 -0.5369768 0.22279923 0.69705456 -1.4266635 0.90594244 0.14459474 0.22800043
2.450565 -1.1840088 1.0507073 0.56075746 -1.6334239 -1.2455125 0.66163856 -0.18920049
0.3827413 -0.38049966 0.514164 -0.75652415 -0.44416857 -0.46032017 -0.9616573 -0.4338168
-1.6297699 -1.3268257 -0.17351133 0.9996648 0.03154889 -0.7419016 -0.29778957 0.017165666
-0.1772239 -0.13342951 0.29395735 1.3849541 0.12091276 2.5417871 -0.64046 -1.9740105
-0.32956925 0.007958851 0.9262348 -1.8845556 0.1669616 0.45862234 -1.7662065 0.5859862
0.28390238 0.1491659 0.03254168 -0.06928357 0.21577764 0.06901597 0.04065742 -0.29001853
-0.36026075 0.75000674 0.22959125 -0.00656967 0.050735764 0.18107818 -0.006539718 -0.53021497
0.031452473 -0.19794337 -0.0026966443 -0.036575064 0.30665475 -0.7472333 0.7434943 0.88765764
2.2874365 0.96113855 -1.5296903 -0.29122463 -0.11395203 -0.31366795 -0.6293117 1.1385068
-0.99127394 0.1699892 1.2248735 -0.23453896 -1.0571605 -0.65426755 1.590885 -0.6994915
-0.89605623 0.0661913 -0.056280244 2.341223 -2.723433 0.509673 -0.8144687 -0.2460404
0.0045085433 2.0474298 -0.15754561 -0.21867052 -1.3519301 -0.057280593 -1.853978 -1.38489
-0.34539968 -1.1625037 0.14448078 0.16632313 0.72311944 0.88554907 -1.7000918 1.3331923
0.9316618 1.0876122 0.65733546 -1.3139769 -0.7147693 2.1105711 0.5390391 1.2465957
0.16334698 -0.37016827 1.8231674 1.3638285 1.0509068 -0.5873032 -0.43129936 0.5950946
-0.0068425494 -1.621284 1.0803069 0.4811981 -1.2823948 -0.9996989 -0.1215827 0.1353978
0.31687632 -0.7389297 -0.27400765 -0.42745712 0.6821544 0.5952304 1.2791545 0.76933914
0.5430765 0.8786591 -0.24803016 -0.7100121 -0.583239 0.36988485 -0.55562496 -0.3982808
-0.5818785 -0.2208343 0.0135370735 -0.3057357 -0.030383771 0.8216064 0.00038670364 -0.44742158
0.8203956 -1.5177529 0.6158723 -1.864795 -0.97772694 0.06322355 -0.45483163 -0.4147402
1.4987006 -0.039866813 -0.8051018 -1.1624465 0.42715997 -0.2819249 -0.012773277 -0.8779162
-0.32248142 0.18299298 -0.9303021 -1.2487695 1.119174 -1.9079236 -0.5275634 1.0806552
00000000: 0000 0000 0000 0000 0000 0000 0000 0000
00000010: 0000 0000 0000 0000 0000 0000 0000 0000
00000020: 0000 0000 0000 0000 0000 0000 0000 0000
00000030: 0000 0000 0000 0000 0000 0000 0000 0000
00000040: 0000 0000 0000 0000 0000 0000 0000 0000
00000050: 66c6 6ebc 615b b739 30c0 09bb 4d4d 17bc
00000060: 2928 e8ba 4c04 74bc 1a5a 73bb edca 31bc
00000070: d5e6 533c 58c6 753b 1ed3 5a3d a4ff a03c
00000080: a3e0 b6b9 33e1 09bd 2504 8ebb 039b 8f3c
00000090: a0a0 853b 3acc 99bb abb0 723b 04da 86bb
000000a0: 3302 07be 1bdb 55bf c212 293f 6a7e 39be
000000b0: 72c0 febe 6edb 8bbe 8051 663f e935 4bbf
000000c0: fae8 253d b91b 91bf 3398 4c3e b8e8 92bf
000000d0: 8f45 283d aa43 803f c4c6 993f edfd 6abf
000000e0: 019b 5d3e 82c4 48bf 876b 9cbd 08fe 0e3d
000000f0: e165 473f 2742 c43f d80b ce3f eb73 cebe
00000100: d79f 55bf 7909 193f 018f 52bd 6c37 84bd
00000110: 8777 febe 9c77 ee3e 66b7 83be f39b 88bf
00000120: 7f92 0040 5077 09bf 7b25 643e 2b72 323f
00000130: e99c b6bf d8eb 673f a510 143e f278 693e
00000140: 0fd6 1c40 9a8d 97bf 947d 863f cd8d 0f3f
00000150: 0914 d1bf f46c 9fbf 2561 293f c6bd 41be
00000160: abf6 c33e dad0 c2be 40a0 033f 91ab 41bf
00000170: 106a e3be 16af ebbe 2c2f 76bf 3c1d debe
00000180: 4d9c d0bf 6dd5 a9bf f4ac 31be 08ea 7f3f
00000190: 6939 013d 43ed 3dbf e077 98be 039f 8c3c
000001a0: 2f7a 35be bfa1 08be 9481 963e 2d46 b13f
000001b0: 1ca1 f73d a4ac 2240 30f5 23bf 60ac fcbf
000001c0: 4dbd a8be d765 023c b91d 6d3f 1e39 f1bf
000001d0: fbf7 2a3e 8cd0 ea3e 0e13 e2bf 3103 163f
000001e0: a75b 913e f2be 183e 6d4a 053d 8be4 8dbd
000001f0: d0f4 5c3e 3f58 8d3d 6588 263d 4f7d 94be
00000200: 1974 b8be 7100 403f f819 6b3e 6346 d7bb
00000210: 4ed0 4f3d 8f6c 393e 214b d6bb 2bbc 07bf
00000220: 4fd4 003d abb1 4abe 2fba 30bb bccf 15bd
00000230: da01 9d3e ae4a 3fbf a455 3e3f 883d 633f
00000240: 5c65 1240 2d0d 763f e4cc c3bf 651b 95be
00000250: af5f e9bd 1699 a0be 921a 21bf 97ba 913f
00000260: 21c4 7dbf a611 2e3e a8c8 9c3f fb2a 70be
00000270: 0951 87bf 147e 27bf 1fa2 cb3f e011 33bf
00000280: f163 65bf 4e8f 873d 1d86 66bd 99d6 1540
00000290: ba4c 2ec0 ee79 023f 0581 50bf 04f2 7bbe
000002a0: 67bc 933b 1709 0340 a353 21be 2aeb 5fbe
000002b0: 0c0c adbf 0e9f 6abd 274f edbf 1344 b1bf
000002c0: 3ad8 b0be eccc 94bf c5f2 133e 9c50 2a3e
000002d0: 5b1e 393f 58b3 623f 9c9c d9bf 0ca6 aa3f
000002e0: 6381 6e3f e036 8b3f 2347 283f 6530 a8bf
000002f0: 1ffb 36bf 9913 0740 77fe 093f 7390 9f3f
00000300: 6e44 273e b286 bdbe 8d5d e93f ef91 ae3f
00000310: 1d84 863f 8159 16bf 45d3 dcbe 1f58 183f
00000320: 7737 e0bb 3c86 cfbf 7f47 8a3f 995f f63e
00000330: 8325 a4bf 44ec 7fbf 5a00 f9bd b9a5 0a3e
00000340: 9d3d a23e 7f2a 3dbf bb4a 8cbe a9db dabe
00000350: aca1 2e3f 0561 183f 56bb a33f 69f3 443f
00000360: 1007 0b3f ceef 603f 9efb 7dbe 5ac3 35bf
00000370: 274f 15bf 8c61 bd3e 703d 0ebf 76eb cbbe
00000380: fdf5 14bf 6322 62be 9aca 5d3c 6489 9cbe
00000390: 63e7 f8bc cc54 523f 7cbe ca39 7114 e5be
000003a0: 7205 523f ba45 c2bf cfa9 1d3f 9ab1 eebf
000003b0: 504c 7abf 597b 813d b1df e8be d458 d4be
000003c0: 6cd5 bf3f 624b 23bd 271b 4ebf 0ccb 94bf
000003d0: b6b4 da3e 7658 90be 0247 51bc 1ebf 60bf
000003e0: 491c a5be 8362 3b3e 4728 6ebf aed7 9fbf
000003f0: 1841 8f3f d736 f4bf 650e 07bf e952 8a3f

weight_ih_l0 f4 [200, 20]
0.073473774 1.2142614 -0.605971 -1.1381037 -1.2025055 0.19129334 0.74009967 0.16902846
0.17078227 -0.017232925 1.1295105 -0.10084621 -0.6522363 -0.24400711 0.019339876 -0.45228988
-0.15503423 0.19773482 -0.028356101 -0.058223847 0.05197123 -0.103615865 -0.18911625 0.08453188
-0.7415219 -0.5835519 -0.3409125 0.18904395 0.028398879 -0.012613771 0.886738 0.10185553
-0.0043672267 -0.0631003 0.28080523 0.05915877 0.13377492 0.2268395 0.05354957 -0.02430214
-0.29548258 0.1893297 -0.47898677 -0.39474535 -0.28957355 0.8987754 -0.017932845 0.06925594
-0.45456955 -0.72831464 -0.5842181 0.24435247 0.111806065 -0.3230973 0.35815024 0.42432362
-0.05698012 -0.24561162 -0.36275563 0.37286496 -1.0337747 0.6772218 -0.15007924 0.019974735
-0.9273059 -0.012854962 0.1328764 0.5846448 0.091315545 -1.0196629 0.22071506 0.7277437
0.78699636 -1.7893236 0.09320297 0.6930248 -0.13875522 -0.70789003 -1.2948309 0.7710593
-0.28268796 -2.044188 -0.7268166 0.04664269 -0.2635214 -0.41571864 -1.3013772 -0.26089102
-0.51304716 -0.7172644 -1.8791081 0.48683634 -0.13126165 0.58798105 0.6258566 -1.8990043
-2.23637 2.857031 1.5433611 1.1973598 0.118249625 0.4647454 -0.65141135 0.14396124
-0.76808155 -0.09872018 -0.10517082 -0.15132417 -0.46484634 0.2977702 0.17524761 -0.106597945
-0.66364574 1.1297287 -0.0079543395 0.8095025 0.4361834 -0.12928712 -0.19387949 -0.2046124
-0.19659187 0.33980426 -0.08813023 -0.7850687 -0.83984286 -0.09354243 0.08935355 -0.24514319
-0.2156339 -0.5723745 1.163182 0.5882227 0.8762117 -1.5254005 -0.06393601 0.98140734
0.12948035 0.12267612 -1.6052524 -0.49900073 -0.11388102 0.6490384 0.20515138 -1.2050756
-0.02622992 0.1637558 0.38584226 -0.46368438 -0.2894533 -0.096124366 0.7659277 0.17424062
-0.062745854 -0.59736186 0.5067188 -0.47638136 0.94332546 -0.08195509 -1.3485906 0.8304371
-0.98625153 -0.37311143 -1.5317591 -0.028369656 -0.9217378 0.6900825 -0.053188574 0.3094802
0.3156963 -0.7326312 -1.3972547 1.3048403 -1.7751433 0.24975373 0.059334107 1.0035282
-0.88184416 0.005329618 -0.1228712 1.0581561 0.2258019 1.3946209 0.23920281 -0.12225371
0.5652153 -0.12128737 1.5571897 -0.12333462 -0.4524586 0.27110806 -0.8715583 -0.5009552
-0.8119243 1.3007618 0.1250939 -0.008010374 0.4424083 0.54364145 -0.03636717 -0.44464394
0.097134955 0.6497415 -0.11941649 -1.1703696 -0.693265 0.42984432 0.40596983 0.16712782
-0.32852733 0.60815567 0.5295968 -0.111755334 -0.13091666 -0.2935962 -0.22859657 -0.7698432
0.6337911 0.70538473 -0.98994726 0.6906479 -0.66917855 -0.29728457 -0.7800021 -0.491861
0.91805834 0.8355546 0.2367457 0.07472503 0.5867666 -0.7224572 -1.6263031 -0.88110757
-0.64493084 -0.5517438 0.13713628 1.7487142 -0.0016097244 -0.66609675 0.0297513 -0.21460158
0.3697724 0.12032321 -1.0413376 0.94084233 -0.1535306 1.2228284 0.46306965 0.37572914
0.24969596 -0.49157998 -0.3149076 0.50348765 -0.5916861 1.0927044 0.13398656 0.8869406
00000000: 6b79 963d eb6c 9b3f ea20 1bbf 62ad 91bf
00000010: b3eb 99bf 67e2 433e 2c77 3d3f cc15 2d3e
00000020: 8ce1 2e3e 102c 8dbc cd93 903f 7588 cebd
00000030: f5f8 26bf 00dd 79be a96e 9e3c 8a92 e7be
00000040: 4bc1 1ebe ff7a 4a3e 0e4b e8bc 217c 6ebd
00000050: c9df 543d 8e34 d4bd b1a7 41be 0d1f ad3d
00000060: 61d4 3dbf a863 15bf 158c aebe bd94 413e
00000070: c4a4 e83c fda9 4ebc 4301 633f a299 d03d
00000080: f41a 8fbb bb3a 81bd b4c5 8f3e 7750 723d
00000090: 4bfc 083e 9d48 683e cb56 5b3d 4815 c7bc
000000a0: 7e49 97be a5df 413e c13d f5be 101c cabe
000000b0: fc42 94be 2516 663f e7e7 92bc 0fd6 8d3d
000000c0: 57bd e8be d472 3abf 518f 15bf 8937 7a3e
000000d0: 94fa e43d 026d a5be 785f b73e f240 d93e
000000e0: fc63 69bd 9d81 7bbe 1bbb b9be 28e8 be3e
000000f0: bb52 84bf 685e 2d3f 5fae 19be 0ea2 a33c
00000100: eb63 6dbf 9e9d 52bc c010 083e 48ab 153f
00000110: a503 bb3d 5084 82bf 2103 623e 694d 3a3f
00000120: 9878 493f 8e08 e5bf 33e1 be3d 136a 313f
00000130: d915 0ebe 4838 35bf 05bd a5bf 2464 453f
00000140: 7abc 90be fad3 02c0 a710 3abf 680c 3f3d
00000150: 47ec 86be 13d9 d4be 8793 a6bf 8293 85be
00000160: 0f57 03bf a49e 37bf 9d86 f0bf 9d42 f93e
00000170: 7469 06be ed85 163f 2338 203f 9312 f3bf
00000180: b020 0fc0 99d9 3640 db8c c53f 1643 993f
00000190: dc2c f23d 1cf3 ed3e e5c2 26bf 936a 133e
000001a0: fea0 44bf ce2d cabd cd63 d7bd b9f4 1abe
000001b0: 5700 eebe 5675 983e 1c74 333e 0650 dabd
000001c0: b0e4 29bf f39a 903f eb52 02bc 8e3b 4f3f
000001d0: 6e53 df3e d863 04be 5888 46be ea85 51be
000001e0: 614f 49be d3fa ad3e 9f7d b4bd 43fa 48bf
000001f0: f1ff 56bf 2c93 bfbd fefe b63d d106 7bbe
00000200: 22cf 5cbe 2387 12bf 26e3 943f c395 163f
00000210: 694f 603f 5340 c3bf e2f0 82bd 833d 7b3f
00000220: 7f96 043e 9e3d fb3d e978 cdbf 067d ffbe
00000230: 743a e9bd 6127 263f 3413 523e eb3f 9abf
00000240: 21e0 d6bc 9aaf 273e 1e8d c53e 0a68 edbe
00000250: 3933 94be dadc c4bd d613 443f 226c 323e
00000260: e680 80bd b5ec 18bf 53b8 013f 42e8 f3be
00000270: c77d 713f 12d8 a7bd 9e9e acbf 8797 543f
00000280: fb7a 7cbf 7608 bfbe af10 c4bf 7b67 e8bc
00000290: 02f7 6bbf 3fa9 303f 43dc 59bd 3074 9e3e
000002a0: f2a2 a13e b88d 3bbf 3ed9 b2bf 0205 a73f
000002b0: e537 e3bf 71bf 7f3e 5208 733d 9d73 803f
000002c0: 8ac0 61bf 14a4 ae3b e5a3 fbbd a971 873f
000002d0: 9d38 673e f082 b23f 95f1 743e 2760 fabd
000002e0: f3b1 103f 8365 f8bd fe51 c73f dc96 fcbd
000002f0: a7a8 e7be adce 8a3e 721e 5fbf 9a3e 00bf
00000300: 45da 4fbf 5d7f a63f 9e18 003e f23d 03bc
00000310: 5783 e23e 162c 0b3f bef5 14bd 5fa8 e3be
00000320: b1ee c63d 7555 263f a290 f4bd acce 95bf
00000330: d179 31bf 8e14 dc3e 47db cf3e 8e23 2b3e
00000340: bc34 a8be 17b0 1b3f a893 073f fbdf e4bd
00000350: 040f 06be 3e52 96be 3815 6abe 7214 45bf
00000360: 2240 223f 1894 343f 2f6d 7dbf 4dce 303f
00000370: 494f 2bbf af35 98be 38ae 47bf 34d5 fbbe
00000380: df05 6b3f e8e6 553f 776d 723e 7009 993d
00000390: 5636 163f f4f2 38bf b32a d0bf 4490 61bf
000003a0: 301a 25bf 153f 0dbf 746d 0c3e ded5 df3f
000003b0: 63fd d2ba 5185 2abf 00b9 f33c 84c0 5bbe
000003c0: cf52 bd3e 046c f63d 8d4a 85bf 0bdb 703f
000003d0: 2037 1dbe a485 9c3f 7717 ed3e 925f c03e
000003e0: 4cb0 7f3e 5fb0 fbbe 923b a1be 91e4 003f
000003f0: be78 17bf bddd 8b3f c633 093e 8a0e 633f

weight_hh_l0 f4 [200, 50]
1.6116372 0.024564162 -4.1094794 -1.0985295 1.2015876 -4.3503094 1.1025933 -0.35394898
4.4123783 3.018433 -1.2157367 -0.48527357 0.26750436 0.5494995 0.22867222 -2.2326853
-3.376154 -3.1716528 1.3941373 -0.32531303 5.352794 0.8167816 3.4080274 -0.30294603
1.7472187 1.9713851 -1.6688005 -5.906916 4.559986 -2.8314788 -0.1788251 1.1919773
1.9500458 -1.2291964 -0.6398792 -2.3674703 1.7866517 -0.96598625 -1.1589667 0.6547931
2.0534472 -0.57545 1.2893964 -1.799461 -1.9309039 -1.3126761 -0.9036293 -0.55726814
-3.3809826 6.877828 3.2491162 -1.5307986 1.192008 0.54392844 1.3793734 -0.30636597
0.5061808 1.0572448 -1.3747925 -0.15643921 -1.2615043 -0.699292 -1.2139566 -2.689909
4.2761884 -0.43743452 -2.0020351 -0.39612424 0.009621874 -0.70249 0.37670752 -0.10223717
-0.6483494 -1.0185437 0.64883137 -0.12521157 -0.47704843 0.19790824 0.24366057 2.105245
0.53906554 0.0026525296 0.17047034 1.6339256 0.5271885 0.14247423 -1.9353552 -1.7313268
0.1494885 1.7407298 2.1444383 0.65279794 -4.585661 -2.7213352 -2.3114336 0.7278489
0.1990917 0.26308224 2.220462 0.41614923 0.9770645 0.14740482 0.2466365 0.27660635
0.050781228 1.5605005 -2.195779 0.14439566 0.7665112 1.7389346 -0.81429714 1.0509999
0.44875246 -0.2797711 -0.52187014 1.066421 -0.97820187 -1.0086832 1.3777634 0.47036693
0.025187226 -0.96529835 0.9919946 0.021326207 1.2469908 0.7701204 -0.75504524 0.46876007
-0.49627 0.96789044 0.5874778 -0.44816577 0.963791 1.1891857 -0.8382235 -0.56523675
0.06600653 -0.09652191 0.7222652 -0.7923131 1.0401323 1.7319282 -1.8804164 -0.38993713
0.16831872 1.3641994 -0.1638953 3.2781913 1.0667586 -0.5099935 1.0578306 1.5973233
0.54370785 0.12606715 -2.6199713 1.0720013 -0.027432965 -1.0888209 2.008592 0.5438756
-1.2961346 1.6640594 1.8886344 0.6972024 0.5762144 -0.32417834 -1.1697927 0.6985535
0.99309146 0.19972482 -1.387802 -2.246105 -1.3313792 -0.70678484 -2.256646 1.7374879
0.06549158 -1.1092373 0.96031845 0.09952055 1.359511 -1.3167871 1.6774782 -1.0802433
-2.521945 -0.59591323 0.1230553 2.575932 0.31288275 0.43428242 -4.7188764 1.3913143
-1.8934747 3.979672 0.20076175 0.12619694 2.2045178 -0.3453673 0.2493346 -1.4179378
1.1019843 -0.14143494 3.8726168 -1.3750726 1.4795873 2.032028 0.83938116 0.8776605
0.8197014 0.32291758 1.5578619 -0.8637618 0.21459508 -1.5952557 1.0743185 -2.0933206
-2.768303 -5.5689335 0.027181476 6.3559237 3.6150513 2.2690017 -2.6583622 2.3274465
-0.9687151 6.5126176 6.708206 -0.07928315 -4.2888193 1.8946327 2.3866725 1.3272189
-0.45202398 1.2776845 -0.48193297 0.1558671 -2.9690294 -2.1334507 2.130365 2.777319
0.87446874 -0.3449141 0.09440174 2.3499854 -1.8931776 -1.7488511 2.9472568 4.2696004
3.9343026 -2.8467526 2.5240889 1.035822 1.6751865 1.4692675 0.47147024 4.0887823
00000000: 214a ce3f c83a c93c db80 83c0 9d9c 8cbf
00000010: 9fcd 993f bc35 8bc0 c721 8d3f cd38 b5be
00000020: 3432 8d40 022e 4140 439d 9bbf c775 f8be
00000030: 55f6 883e 00ac 0c3f 0d29 6a3e 51e4 0ec0
00000040: e812 58c0 5cfc 4ac0 1773 b23f 6e8f a6be
00000050: 174a ab40 9918 513f 1f1d 5a40 be1b 9bbe
00000060: dda4 df3f 5956 fc3f 419b d5bf 7505 bdc0
00000070: 68eb 9140 f336 35c0 ed1d 37be b692 983f
00000080: 1a9b f93f 4f56 9dbf 20cf 23bf a284 17c0
00000090: 01b1 e43f e04a 77bf 0559 94bf 85a0 273f
000000a0: ae6b 0340 b150 13bf f10a a53f bd54 e6bf
000000b0: dc27 f7bf c505 a8bf 4054 67bf 20a9 0ebf
000000c0: 0562 58c0 2b17 dc40 85f1 4f40 35f1 c3bf
000000d0: b893 983f e53e 0b3f 4f8f b03f 00dc 9cbe
000000e0: 1195 013f cc53 873f 33f9 afbf 9a31 20be
000000f0: f978 a1bf cd04 33bf ee62 9bbf 7827 2cc0
00000100: 89d6 8840 6bf7 dfbe 5821 00c0 ccd0 cabe
00000110: 11a5 1d3c 62d6 33bf cfdf c03e b961 d1bd
00000120: 3afa 25bf a45f 82bf d019 263f 7637 00be
00000130: b13f f4be 75a8 4a3e 2882 793e 56bc 0640
00000140: 3300 0a3f 10d6 2d3b c78f 2e3e 7924 d13f
00000150: d3f5 063f c4e4 113e b8b9 f7bf 1e9c ddbf
00000160: 8313 193e 3cd0 de3f 7a3e 0940 c41d 273f
00000170: bcbd 92c0 5b2a 2ec0 87ee 13c0 4e54 3a3f
00000180: b2de 4b3e b7b2 863e 0d1c 0e40 8311 d53e
00000190: e620 7a3f 4af1 163e 478e 7c3e 599f 8d3e
000001a0: faff 4f3d 7bbe c73f a587 0cc0 75dc 133e
000001b0: 143a 443f 6995 de3f c775 50bf 2a87 863f
000001c0: e2c2 e53e 283e 8fbe 4899 05bf 7c80 883f
000001d0: 706b 7abf 881c 81bf 8d5a b03f efd3 f03e
000001e0: 7155 ce3c cb1d 77bf 5cf3 7d3f 4cb4 ae3c
000001f0: 659d 9f3f 9c26 453f a54a 41bf 5201 f03e
00000200: 1a17 febe abc7 773f f264 163f fc75 e5be
00000210: 02bb 763f 3d37 983f d195 56bf 5bb3 10bf
00000220: 6e2e 873d 47ad c5bd 5fe6 383f 08d5 4abf
00000230: 0e23 853f d3af dd3f 7cb1 f0bf d7a5 c7be
00000240: be5b 2c3e 169e ae3f 2bd4 27be e3cd 5140
00000250: 8c8b 883f ef8e 02bf fe66 873f 1775 cc3f
00000260: 7030 0b3f bf17 013e 9cad 27c0 5737 893f
00000270: 19bb e0bc 7c5e 8bbf c58c 0040 6e3b 0b3f
00000280: bde7 a5bf e6ff d43f c6be f13f db7b 323f
00000290: c982 133f b4fa a5be c4bb 95bf 67d4 323f
000002a0: 3e3b 7e3f aa84 4c3e 7fa3 b1bf 2fc0 0fc0
000002b0: a26a aabf daef 34bf e36c 10c0 0166 de3f
000002c0: 7320 863d 7dfb 8dbf 6ed7 753f 6ed1 cb3d
000002d0: 7504 ae3f 7b8c a8bf 9bb7 d63f 6a45 8abf
000002e0: 8c67 21c0 c58d 18bf 6b04 fc3d 12dc 2440
000002f0: 2b32 a03e 445a de3e 0901 97c0 9616 b23f
00000300: 615d f2bf f2b2 7e40 7d94 4d3e c539 013e
00000310: d216 0d40 fcd3 b0be 9251 7f3e fc7e b5bf
00000320: d20d 8d3f 52d4 10be f4d8 7740 6102 b0bf
00000330: 1e63 bd3f bf0c 0240 afe1 563f 5cae 603f
00000340: f3d7 513f 7455 a53e 0568 c73f 7e1f 5dbf
00000350: d0be 5b3e 5731 ccbf 4583 893f f7f8 05c0
00000360: e02b 31c0 b434 b2c0 b0ab de3c ba63 cb40
00000370: 005d 6740 5337 1140 9b22 2ac0 e2f4 1440
00000380: b6fd 77bf 5d67 d040 a0a9 d640 345f a2bd
00000390: 023e 89c0 5383 f23f 3ebf 1840 4fe2 a93f
000003a0: b06f e7be 2a8b a33f ebbf f6be a09b 1f3e
000003b0: 9404 3ec0 758a 08c0 e657 0840 98bf 3140
000003c0: 2fdd 5f3f 9598 b0be b355 c13d 2966 1640
000003d0: a553 f2bf 5ada dfbf db9f 3c40 91a0 8840
000003e0: 9dcb 7b40 3231 36c0 ac8a 2140 d195 843f
000003f0: 836c d63f f510 bc3f 8c64 f13e 4ed7 8240

bias_ih_l0 f4 [200]
1.4235154 0.76191217 0.44635168 0.43319583 0.7014983 1.209307 -0.1560257 1.5583248
0.25727594 -0.24137165 0.16577151 0.7710654 1.5625031 1.8714756 -1.5439752 0.640757
0.3564772 0.56330043 1.9358823 -0.11461636 0.22372462 0.05883786 0.363139 1.9329797
-1.2874368 1.244227 0.45091212 0.89070934 1.2974939 0.8467513 0.6626612 2.1139722
1.5580201 -1.046049 0.5565372 1.9969207 1.2643425 1.0327939 1.0556328 1.5522892
1.4259132 0.35222167 0.6354058 1.5755605 3.3178747 -0.5092194 -0.67759466 1.6321187
1.2206714 1.8042625 0.17493609 0.16642736 0.36308208 0.02949821 0.053655535 -0.9003325
3.5146546 -0.3118161 -0.32637846 0.65739834 0.114408724 1.014078 -0.3891005 0.78643084
0.3823957 1.1857295 -0.24345915 0.8743322 0.38080475 0.13742734 -0.27338436 0.43006426
1.3713892 -0.13856223 0.17861465 1.8413498 0.33010554 -0.6289564 0.95053273 -0.0038742116
0.0804549 1.1940465 0.09466247 1.0401635 0.20298465 -0.47731245 0.15650953 0.6552049
0.5361646 -0.51984864 -0.44391963 -0.83257 0.5812843 1.3195143 -0.42686164 0.052453283
0.8326809 -0.02314801 -0.019789089 0.94135505 0.014137444 0.16978362 0.34276333 0.15089275
0.31016237 1.0633396 -0.57749367 0.21914484 0.09426446 0.8859454 0.17337976 0.2089743
-0.36002645 -0.9652461 -0.6850251 0.34070057 -1.1028569 -0.50884223 0.35181978 0.3592916
0.5009696 -0.60849 0.6920843 0.636835 0.13500999 0.5229537 0.02876322 -0.18092395
-0.22557709 0.27054465 -0.2754551 0.5075519 0.4473827 0.0047526597 -1.5286579 0.114131674
-0.7270044 0.29061487 0.8914893 -0.59038454 1.3898549 -0.14187786 0.5918236 0.55818033
-0.45405722 -0.019913083 1.1438162 -0.8018082 1.1222739 -0.33688256 0.99756646 1.9954678
0.5897403 1.7993791 2.4502985 1.1164907 -0.39613512 1.5098892 2.4982266 1.5900054
-0.7520646 0.6238541 1.9765232 0.62258065 -0.344755 0.20995125 1.1159039 1.4949802
1.8270398 0.8712114 2.0819554 -0.32363424 0.033153113 1.8897318 0.031369757 0.4617848
0.18137412 1.5717576 1.4122084 0.9744172 0.91864264 0.65544605 0.95719975 0.47735775
0.1800908 0.5877591 0.8071422 0.7172205 0.32636863 1.2072232 0.7627365 2.0533528
0.8634085 0.5580585 1.0538568 0.17618524 2.43056 -0.02593681 -0.13037789 0.7625286
00000000: c135 b63f ad0c 433f 3588 e43e d8cb dd3e
00000010: 6595 333f 92ca 9a3f 33c5 1fbe 3077 c73f
00000020: acb9 833e 212a 77be 02c0 293e 8b64 453f
00000030: 1a00 c83f 838c ef3f fba0 c5bf a708 243f
00000040: 2e84 b63e 7534 103f feca f73f fbbb eabd
00000050: 1118 653e f8ff 703d 5bed b93e e16b f73f
00000060: bbca a4bf d542 9f3f f4dd e63e 8705 643f
00000070: 4814 a63f b1c4 583f 2aa4 293f 524b 0740
00000080: 346d c73f efe4 85bf 3979 0e3f 199b ff3f
00000090: fad5 a13f 9732 843f fa1e 873f 6ab1 c63f
000000a0: 5384 b63f 6656 b43e f4a9 223f f7ab c93f
000000b0: 0f58 5440 345c 02bf d876 2dbf 44e9 d03f
000000c0: f63e 9c3f 13f2 e63f 7222 333e ef6b 2a3e
000000d0: e5e5 b93e 3ba6 f13c e8c5 5b3d 317c 66bf
000000e0: 1af0 6040 5ca6 9fbe 141b a7be 424b 283f
000000f0: 1f4f ea3d 4fcd 813f 2e38 c7be 8853 493f
00000100: 5fc9 c33e fcc5 973f 5b4d 79be 3cd4 5f3f
00000110: d7f8 c23e c1b9 0c3e 09f9 8bbe 6231 dc3e
00000120: ae89 af3f 42e3 0dbe c2e6 363e 5ab1 eb3f
00000130: 9803 a93e 4903 21bf 1d56 733f 7ce6 7dbb
00000140: 8ac5 a43d 84d6 983f 66de c13d 1424 853f
00000150: 35db 4f3e 4c62 f4be 0944 203e 82bb 273f
00000160: 1542 093f cd14 05bf 6f49 e3be 4f23 55bf
00000170: 0ccf 143f d8e5 a83f 9c8d dabe 41d9 563d
00000180: 932a 553f e5a0 bdbc ba1c a2bc a5fc 703f
00000190: bda0 673c c2db 2d3e ad7e af3e a183 1a3e
000001a0: 9acd 9e3e 831b 883f a0d6 13bf 8167 603e
000001b0: ba0d c13d 51cd 623f 778a 313e 5cfd 553e
000001c0: 6355 b8be 5e1a 77bf ce5d 2fbf 4e70 ae3e
000001d0: 6a2a 8dbf 7c43 02bf b921 b43e 12f5 b73e
000001e0: 8b3f 003f 00c6 1bbf 702c 313f 9e07 233f
000001f0: 0f40 0a3e 4be0 053f d8a0 eb3c 2144 39be
00000200: aefd 66be d484 8a3e 7308 8dbe ecee 013f
00000210: 580f e53e 33bc 9b3b 10ab c3bf debd e93d
00000220: f61c 3abf 79cb 943e a538 643f 7123 17bf
00000230: c4e6 b13f 6e48 11be c081 173f e8e4 0e3f
00000240: 307a e8be c320 a3bc 9268 923f 4d43 4dbf
00000250: aca6 8f3f df7b acbe 8460 7f3f 7d6b ff3f
00000260: 38f9 163f 0e52 e63f b1d1 1c40 2be9 8e3f
00000270: 39d2 cabe 0d44 c13f f2e2 1f40 4c85 cb3f
00000280: 4e87 40bf e7b4 1f3f b6fe fc3f 7261 1f3f
00000290: ba83 b0be 76fd 563e f0d5 8e3f 835b bf3f
000002a0: 71dc e93f b607 5f3f c23e 0540 63b3 a5be
000002b0: 8fcb 073d bbe2 f13f 937d 003d 0f6f ec3e
000002c0: 23ba 393e 5a2f c93f 3fc3 b43f 6873 793f
000002d0: 2a2c 6b3f 50cb 273f 0b0b 753f 3c68 f43e
000002e0: b969 383e 6177 163f dfa0 4e3f c39b 373f
000002f0: ca19 a73e 4a86 9a3f b342 433f 226a 0340
00000300: 5708 5d3f ecdc 0e3f c8e4 863f e769 343e
00000310: 4c8e 1b40 6f79 d4bc c881 05be 1335 433f

bias_hh_l0 f4 [200]
1.4398695 0.6570767 0.6624682 0.38736632 0.80573726 1.1935458 -0.18383011 1.501714
0.256794 -0.076367125 0.20043533 0.6518799 1.5639727 1.7817707 -1.3628526 0.771792
0.49431056 0.66472906 1.998132 -0.06073234 0.012047594 0.084489234 0.58526224 1.9487915
-1.3158107 1.2424788 0.5861175 0.80941963 1.1244763 0.93356144 0.70868814 2.018951
1.5966718 -1.027861 0.49656308 1.8836272 1.1786493 0.91440785 1.0824225 1.2935472
1.4156722 0.19675836 0.7872577 1.4675611 3.2234344 -0.35262197 -0.4646721 1.6453507
1.225641 1.7280747 0.23176225 0.046961162 0.40175125 0.0734274 -0.1329987 -0.911303
3.6290765 -0.251479 -0.2511093 0.7693037 -0.103537254 0.93824416 -0.4598785 0.67048985
0.27067316 1.249687 -0.3290595 0.7598014 0.26161075 0.3267293 -0.44830117 0.35461378
1.383836 -0.0055345427 0.034064185 1.6760222 0.26884985 -0.59757143 1.0044745 0.115061834
0.036153484 1.1297958 -0.05225996 1.1372176 -0.032874513 -0.4089835 0.1376944 0.6612773
0.37366426 -0.5111765 -0.6156358 -0.80535597 0.5694546 1.555255 -0.45121595 0.050188262
0.99466586 0.13590562 -0.05080526 0.85319555 -0.024180546 0.14718595 0.4068277 0.03451105
0.41370127 1.0407541 -0.62047553 0.26723456 0.1681715 0.90700006 0.030599719 0.27841142
-0.44739062 -1.0556089 -0.6662652 0.32905728 -1.2161577 -0.48034355 0.23956008 0.1741394
0.49201533 -0.6331359 0.5318108 0.7235921 0.19121993 0.403729 0.039198227 -0.28878123
-0.17992568 0.45326796 -0.23310077 0.5023848 0.38831815 0.112896435 -1.6926562 0.19987145
-0.5599379 0.28156364 0.9697539 -0.77663934 1.3543806 -0.05674813 0.79481256 0.425242
-0.3548611 -0.030467143 1.1872094 -0.59477735 1.067497 -0.4796032 1.2062658 2.031229
0.47782007 1.782636 2.5981226 1.1005104 -0.42451447 1.4084405 2.636693 1.6239351
-0.8028773 0.6799107 2.1042664 0.4242166 -0.40925932 0.089275084 1.0272224 1.4663152
1.951965 0.9785154 2.1033554 -0.5167601 -0.19916801 1.7667178 -0.05708721 0.5353613
0.3168385 1.5185131 1.2447202 1.0120604 0.8165627 0.53374755 0.96294546 0.3822706
0.095606215 0.6392367 0.88649744 0.72516096 0.23890133 1.0635318 0.81465524 2.0690675
0.7469812 0.41426867 1.3085748 0.29345393 2.3130727 -0.078528434 -0.13477466 0.54782486
00000000: a54d b83f 2e36 283f 8497 293f e154 c63e
00000010: cc44 4e3f 1cc6 983f f63d 3cbe 2a38 c03f
00000020: 817a 833e 5e66 9cbd eb3e 4d3e 9ae1 263f
00000030: 4230 c83f 1011 e43f f471 aebf 2994 453f
00000040: 4616 fd3e af2b 2a3f cac2 ff3f 79c2 78bd
00000050: 4663 453c b108 ad3d bfd3 153f 0072 f93f
00000060: 7c6c a8bf 8c09 9f3f cc0b 163f 2036 4f3f
00000070: d7ee 8f3f e2fd 6e3f 966c 353f 7e36 0140
00000080: be5f cc3f f390 83bf 843d fe3e b21a f13f
00000090: fbdd 963f a216 6a3f d28c 8a3f f492 a53f
000000a0: bf34 b53f 067b 493e b889 493f 0bd9 bb3f
000000b0: c04c 4e40 de8a b4be 80e9 edbe da9a d23f
000000c0: cee1 9c3f 8d31 dd3f 1553 6d3e 595a 403d
000000d0: 57b2 cd3e 1b61 963d d030 08be 274b 69bf
000000e0: ca42 6840 dbc1 80be 6691 80be 16f1 443f
000000f0: 570b d4bd c530 703f 3275 ebbe 39a5 2b3f
00000100: ac95 8a3e bef5 9f3f 7d7a a8be 5882 423f
00000110: d8f1 853e 1049 a73e bb87 e5be f08f b53e
00000120: 8a21 b13f 1c5b b5bb e386 0b3d e587 d63f
00000130: b0a6 893e 71fa 18bf 9f92 803f 8aa5 eb3d
00000140: ad15 143d 269d 903f 8a0e 56bd 5990 913f
00000150: 6da7 06bd 4966 d1be c3ff 0c3e 7849 293f
00000160: ec50 bf3e 77dc 02bf 4f9a 1dbf cf2b 4ebf
00000170: c7c7 113f 9912 c73f c705 e7be 3592 4d3d
00000180: 6ca2 7e3f d82a 0b3e 2d19 50bd 066b 5a3f
00000190: 4816 c6bc eab7 163e b84b d03e 755b 0d3d
000001a0: a7d0 d33e 6e37 853f 7cd7 1ebf f8d2 883e
000001b0: 2635 2c3e 2831 683f 43ac fa3c f18b 8e3e
000001c0: 6210 e5be 311e 87bf 5b90 2abf 327a a83e
000001d0: 0eab 9bbf 97ef f5be 3d4f 753e 9951 323e
000001e0: 6fe9 fb3e 3215 22bf c124 083f 553d 393f
000001f0: 28cf 433e 91b5 ce3e 528e 203d 22db 93be
00000200: 703e 38be bd12 e83e f8b1 6ebe 4a9c 003f
00000210: a3d1 c63e 3f36 e73d f5a8 d8bf 1aab 4c3e
00000220: 1758 0fbf 1c29 903e cb41 783f d6d1 46bf
00000230: 585c ad3f ba70 68bd d678 4b3f 52b9 d93e
00000240: 5bb0 b5be 3b96 f9bc 7af6 973f 5443 18bf
00000250: bea3 883f 8d8e f5be eb66 9a3f a8ff 0140
00000260: d5a4 f43e 6b2d e43f a447 2640 86dd 8c3f
00000270: f659 d9be c747 b43f 94bf 2840 1bdd cf3f
00000280: 5e89 4dbf a10e 2e3f 4dac 0640 eb32 d93e
00000290: 708a d1be dbd5 b63d 067c 833f 37b0 bb3f
000002a0: fdd9 f93f fc7f 7a3f 609d 0640 644a 04bf
000002b0: b3f2 4bbe cf23 e23f 47d4 69bd 700d 093f
000002c0: a838 a23e a35e c23f fe52 9f3f 328b 813f
000002d0: 410a 513f aea3 083f 9883 763f f9b8 c33e
000002e0: 31cd c33d 04a5 233f 7ff1 623f 26a4 393f
000002f0: 8da2 743e cf21 883f 3f8d 503f 9a6b 0440
00000300: 293a 3f3f 061b d43e 617f a73f 983f 963e
00000310: 6209 1440 84d3 a0bd 5e02 0abe 403e 0c3f

weight f4 [74, 50]
-0.4795016 -0.18275927 -0.16952452 0.47482052 -0.05261478 -0.56526417 -0.31602368 -0.16730139
-0.53827757 -0.24823436 -0.26114467 0.29471818 0.15689178 0.4196577 -0.23034239 -0.3539467
0.3626166 0.3868569 -0.45489094 0.48914275 0.2679762 0.27093336 -0.60055804 -0.13800688
0.24935451 -0.26779714 0.30711815 -0.6629917 0.28944948 -0.22625443 0.27021438 -0.23007031
-0.42994997 0.22360653 0.28671822 -0.17255561 0.68796176 0.3334576 -0.38270864 -0.5117564
-0.9544673 0.3936822 0.20958962 -0.21114707 0.34401825 -0.2371417 -0.27094457 0.30137283
-0.14894994 0.5185466 -0.23868507 -0.045098294 -0.1304141 0.55244476 0.104139976 -0.53824663
-0.40706518 -0.116490655 -0.44393367 -0.28938156 -0.21662398 0.23626837 0.06526556 0.5263639
-0.15519531 -0.1854131 0.38298798 0.43465748 -0.37404665 0.4680704 0.30418107 0.15238678
-0.52295065 -0.16930282 0.19273563 -0.28150654 0.29676333 -0.7009208 0.23388119 -0.23260331
0.25294963 -0.1346102 -0.33298847 0.1623977 0.45326507 -0.08551111 0.595735 0.2613098
-0.31703892 -0.47093415 -0.78926164 0.21651013 0.3489188 -0.22265324 0.32983884 -0.26720664
-0.20407617 0.44471675 -0.23437665 0.324633 0.7928637 -0.79145354 0.9332954 -1.6057332
-0.39795366 -0.26792637 -0.25547776 -0.82096004 -1.0366616 1.6899034 -0.6217444 -2.0274777
-0.47933978 -1.8238801 -2.4927747 0.54507405 -0.1381508 -0.8003221 -0.59421873 -0.54418766
-0.21744132 -0.51290953 1.8203282 0.3348102 -0.9764673 0.58003664 -1.2850286 0.39107504
2.974429 -0.32563573 -1.4839282 2.7714908 -0.20439517 -0.013120762 -0.11613972 -0.014939847
-0.94623876 -0.12171461 -0.63236105 -1.39893 -1.8851247 -2.0148454 -1.5943666 0.9687682
-0.7931128 -1.6733556 -0.7877728 -0.84866905 -0.21590297 -0.6360644 -0.4176335 -0.18095396
-0.3575536 0.29566595 -0.11267403 -0.68183357 -0.4970201 -0.006337841 -0.5577229 -0.1894687
-0.19375879 0.16980067 0.124570735 0.633692 -0.08175968 -0.40612116 0.15046355 0.44552726
-0.35881978 0.637927 0.36061585 0.38941976 -0.47068495 -0.28080434 0.23659368 -0.47015056
0.11703139 -0.60162944 0.31732836 -0.1144392 0.05409441 -0.20381664 -0.38123202 0.33211726
0.34718135 -0.11414244 0.6689319 0.33443817 -0.3644703 -0.41550305 -0.9285131 0.2903986
0.25781193 -0.25760236 0.32627302 -0.4170181 -0.12156358 0.45271906 -0.41465133 0.4437949
-0.48925728 -0.007988946 -0.30726966 0.5588109 0.048672438 -0.5201269 -0.45582294 -0.2453426
-0.35241157 -0.3642912 -0.22067387 0.11914913 0.1064835 0.4679565 -0.17569532 -0.30880266
0.3325624 0.51459014 -0.2721048 0.43279627 0.29185405 0.29123473 -0.45092607 -0.069773465
0.093557455 -0.29492432 0.2252358 -0.6828832 0.36379606 -0.1890432 0.30858058 -0.06880996
-0.30683866 0.2626873 0.32823095 -0.057780832 0.43034565 0.3313928 -0.33772027 -0.3348482
-0.7988219 0.42777884 0.44515046 -0.37213802 0.46364164 -0.43358672 -0.2816468 0.50402224
-0.25712472 0.4293538 -0.36511198 -0.064524844 -0.14888822 0.6278352 -0.048644267 -0.6866204
00000000: 3c81 f5be 3f25 3bbe d697 2dbe ad1b f33e
00000010: 9882 57bd 27b5 10bf dbcd a1be 0e51 2bbe
00000020: 8fcc 09bf 2631 7ebe c1b4 85be 4de5 963e
00000030: 3da8 203e 60dd d63e e0de 6bbe 8038 b5be
00000040: e2a8 b93e 1c12 c63e 77e7 e8be eb70 fa3e
00000050: 2d34 893e c7b7 8a3e 2cbe 19bf ad51 0dbe
00000060: ca56 7f3e b51c 89be 973e 9d3e d3b9 29bf
00000070: b932 943e 3eaf 67be 8a59 8a3e 8d97 6bbe
00000080: 6722 dcbe 1cf9 643e bbcc 923e 6bb2 30be
00000090: 431e 303f f4ba aa3e 63f2 c3be 7802 03bf
000000a0: f857 74bf b790 c93e a99e 563e f036 58be
000000b0: 2923 b03e 46d5 72be 3fb9 8abe 8a4d 9a3e
000000c0: 5586 18be 78bf 043f dc69 74be fdb8 38bd
000000d0: 468b 05be 056d 0d3f 5747 d53d 88ca 09bf
000000e0: d96a d0be a792 eebd 464b e3be d229 94be
000000f0: add2 5dbe 56f0 713e f3a9 853d c9bf 063f
00000100: 85eb 1ebe efdc 3dbe 0017 c43e 6d8b de3e
00000110: 0b83 bfbe eca6 ef3e 9fbd 9b3e 480b 1c3e
00000120: 18e0 05bf b85d 2dbe 7d5c 453e a021 90be
00000130: 5df1 973e 8c6f 33bf 8d7e 6f3e 902f 6ebe
00000140: 9d82 813e 42d7 09be 777d aabe 954b 263e
00000150: 5c12 e83e 7320 afbd 1782 183f 66ca 853e
00000160: ed52 a2be 481e f1be 0d0d 4abf d5b4 5d3e
00000170: 7ca5 b23e 36ff 63be a3e0 a83e 4fcf 88be
00000180: 58f9 50be eab1 e33e 6f00 70be 4c36 a63e
00000190: 1ef9 4a3f b39c 4abf 73ec 6e3f aa88 cdbf
000001a0: 95c0 cbbe a52d 89be fbcd 82be 702a 52bf
000001b0: 54b1 84bf c14e d83f a42a 1fbf 32c2 01c0
000001c0: 066c f5be e774 e9bf 9f89 1fc0 f989 0b3f
000001d0: 6777 0dbe e9e1 4cbf b81e 18bf e24f 0bbf
000001e0: f0a8 5ebe 0a4e 03bf 8400 e93f 3e6c ab3e
000001f0: c3f9 79bf 487d 143f d17b a4bf fd3a c83e
00000200: 0b5d 3e40 bab9 a6be 5cf1 bdbf 1b60 3140
00000210: f84c 51be 77f8 56bc a9da edbd 43c6 74bc
00000220: b43c 72bf 8245 f9bd 6ae2 21bf 2310 b3bf
00000230: c44b f1bf 3af3 00c0 3414 ccbf 3101 783f
00000240: 7109 4bbf 8430 d6bf 7aab 49bf 6042 59bf
00000250: ab15 5dbe 1ed5 22bf 0fd4 d5be ff4b 39be
00000260: 4411 b7be 8761 973e a4c1 e6bd a58c 2ebf
00000270: 6b79 febe aaad cfbb eec6 0ebf 1504 42be
00000280: b468 46be 3ae0 2d3e f11e ff3d a439 223f
00000290: 9e71 a7bd 1def cfbe 1e13 1a3e 261c e43e
000002a0: 3ab7 b7be 2f4f 233f a4a2 b83e 0762 c73e
000002b0: 9efd f0be 96c5 8fbe 9d45 723e 93b7 f0be
000002c0: 27ae ef3d 6304 1abf dd78 a23e 195f eabd
000002d0: 1a92 5d3d 4fb5 50be d830 c3be 460b aa3e
000002e0: c1c1 b13e 83c3 e9bd 1f3f 2b3f 7b3b ab3e
000002f0: da9b babe d1bc d4be 09b3 6dbf 20af 943e
00000300: edff 833e 75e4 83be 420d a73e 6583 d5be
00000310: 54f6 f8bd cbca e73e 2e4d d4be 1639 e33e
00000320: ee7f fabe 11e4 02bc 7352 9dbe 3b0e 0f3f
00000330: c05c 473d 0927 05bf a061 e9be 173b 7bbe
00000340: 4a6f b4be 6084 babe 55f8 61be 7604 f43d
00000350: 0514 da3d ff97 ef3e 79e9 33be 621b 9ebe
00000360: 9e45 aa3e 2ebc 033f 5251 8bbe 7997 dd3e
00000370: e56d 953e b81c 953e c8df e6be 64e5 8ebd
00000380: 0d9b bf3d 5200 97be 37a4 663e 6fd1 2ebf
00000390: 7a43 ba3e 8a94 41be 46fe 9d3e 3cec 8cbd
000003a0: f519 9dbe f37e 863e e30d a83e 98ab 6cbd
000003b0: 4456 dc3e 51ac a93e ace9 acbe 3971 abbe
000003c0: 987f 4cbf d405 db3e c3ea e33e e088 bebe
000003d0: 7062 ed3e 14ff ddbe 0234 90be 9a07 013f
000003e0: daa5 83be 43d4 db3e f5ef babe 9a25 84bd
000003f0: 2776 18be cfb9 203f 363f 47bd 5bc6 2fbf

bias f4 [74]
-0.28424546 -0.25346938 1.0946132 -0.17713922 -0.12213225 -0.27442208 1.0224646 -0.18026446
-0.16865186 -0.16539142 -0.11504277 -0.26558146 -0.27195364 -0.3438654 -0.38264385 -0.2717003
-0.26578075 -0.20186667 -0.5031095 -0.03602522 -0.17929791 -0.23065528 -0.13046408 -0.25874376
-0.1598894 -0.12902752 -0.111082844 -0.309511 -0.22722985 -0.15693422 -0.18585217 -0.35596338
-0.21334001 -0.2999559 -0.34075096 -0.30630258 -0.30684185 0.59626293 0.5177156 0.009081316
0.76066726 0.23569198 -0.23871821 1.062209 0.3421129 1.2470986 -0.57256484 -0.517123
-0.5631565 -3.7399404 -0.985319 0.05706522 -2.945511 -0.8206387 -0.6003779 -0.90888137
-0.21130678 -1.0140014 3.7822194 -0.83233917 0.2276267 0.33278963 -1.2806628 0.43136722
1.4790409 0.7327618 -0.9962342 -0.75909406 0.09119373 -1.0653201 -0.7990597 -0.9805584
0.3851864 -0.79865485
00000000: 9f88 91be bdc6 81be 491c 8c3f fc63 35be
00000010: 7920 fabd 0d81 8cbe 1fe0 823f 3f97 38be
00000020: 13b3 2cbe 5e5c 29be 8b9b ebbd 4bfa 87be
00000030: 823d 8bbe 200f b0be e5e9 c3be 4d1c 8bbe
00000040: 6a14 88be 23b6 4ebe c9cb 00bf 2e8f 13bd
00000050: df99 37be e630 6cbe 6098 05be 107a 84be
00000060: 0cba 23be ca1f 04be 677f e3bd 3a78 9ebe
00000070: f1ae 68be 5db3 20be 0850 3ebe d540 b6be
00000080: ce75 5abe d293 99be e976 aebe b1d3 9cbe
00000090: 601a 9dbe b0a4 183f 0289 043f cdc9 143c
000000a0: 17bb 423f 3d59 713e 8c72 74be 77f6 873f
000000b0: 6c29 af3e eda0 9f3f 9c93 12bf 2c62 04bf
000000c0: 062b 10bf 2f5b 6fc0 de3d 7cbf 38bd 693d
000000d0: 4183 3cc0 6115 52bf 5eb2 19bf 73ac 68bf
000000e0: ce60 58be ccca 81bf e20f 7240 2e14 55bf
000000f0: f916 693e 6763 aa3e c2ec a3bf 2adc dc3e
00000100: 3651 bd3f 4796 3b3f 3409 7fbf fd53 42bf
00000110: c7c3 ba3d 695c 88bf 2d8f 4cbf e005 7bbf
00000120: 2737 c53e a574 4cbf

weight f4 [50, 2]
0.5358222 0.58257145 0.2895592 0.6670986 -0.06052929 -0.26615238 0.13358486 0.03851086
-0.1905706 -0.68024296 0.67136806 0.20804858 -0.17999762 0.14673233 0.55821913 0.48125285
-0.2246437 0.049190998 -0.6943599 -0.4023811 0.02482903 -0.39873412 -0.14468724 -0.25010908
0.056470215 -0.3255978 -0.38362575 -0.30240557 0.14478499 0.113500535 -0.15051746 -0.12454784
0.60611826 -0.6316496 -0.06443596 -0.55314106 -0.23413983 -0.63712305 0.4750777 0.60474664
-0.3645356 -0.55599314 0.41783327 -0.4943622 -0.5993932 -0.46423927 -0.5176381 -0.53006566
-0.18146735 0.32958955 -0.23144174 -0.56795585 0.4842959 -0.639325 0.443085 0.15941715
-0.4872232 -0.5298233 0.65013784 0.04352683 0.20149416 -0.027570426 -0.06451166 0.6325932
-0.44925514 0.06249559 -0.06786132 -0.3984182 0.36642677 -0.60127074 0.26009446 -0.4428886
-0.5442081 -0.19227433 0.026554525 -0.32853913 0.27676898 -0.34548092 -0.4465671 -0.34933785
-0.11439651 0.10403156 0.35094756 -0.5690516 -0.66600186 -0.6453296 0.19798863 -0.23376471
-0.21738121 -0.617318 0.23104566 0.5608676 0.46761042 -0.113431156 -0.53665715 0.6078009
0.105038285 -0.2018705 -0.7033862 0.40984803
00000000: a52b 093f 6723 153f 1a41 943e f9c6 2a3f
00000010: 90ed 77bd 2045 88be 78ca 083e 90bd 1d3d
00000020: f024 43be 6724 2ebf c7de 2b3f b00a 553e
00000030: 4c51 38be 0041 163e 73e7 0e3f c666 f63e
00000040: 0009 66be 807c 493d 92c1 31bf e504 cebe
00000050: 4066 cb3c e126 ccbe e428 14be 4c0e 80be
00000060: 504d 673d c1b4 a6be 986a c4be e7d4 9abe
00000070: 8442 143e f872 e83d 4021 1abe f012 ffbd
00000080: 912a 1b3f cab3 21bf 00f7 83bd a79a 0dbf
00000090: 5ac2 6fbe 7f1a 23bf 623d f33e add0 1a3f
000000a0: 69a4 babe 9155 0ebf 3eee d53e 0b1d fdbe
000000b0: d571 19bf c5b0 edbe ee83 04bf 62b2 07bf
000000c0: 94d2 39be f6bf a83e 10ff 6cbe 8e65 11bf
000000d0: a2f5 f73e ceaa 23bf 0adc e23e 403e 233e
000000e0: 5275 f9be 80a2 07bf 6f6f 263f 3049 323d
000000f0: 7c54 4e3e 60db e1bc b01e 84bd a1f1 213f
00000100: c504 e6be 60fb 7f3d e0fa 8abd 78fd cbbe
00000110: 4a9c bb3e e1ec 19bf 1a2b 853e 4bc2 e2be
00000120: 3951 0bbf 90e3 44be e088 d93c 4836 a8be
00000130: aab4 8d3e e0e2 b0be 71a4 e4be 69dc b2be
00000140: b848 eabd 800e d53d 66af b33e 5ead 11bf
00000150: 197f 2abf 5234 25bf 88bd 4a3e 0460 6fbe
00000160: 2e99 5ebe 8d08 1ebf 3c97 6c3e 0595 0f3f
00000170: a26a ef3e 984e e8bd 5d62 09bf d798 1b3f
00000180: 501e d73d 24b7 4ebe 1e11 34bf 9ad7 d13e

bias f4 [50]
0.67770153 0.50574654 0.007935047 0.3708542 -0.3916462 0.2443803 0.6821514 -0.38459706
0.40851444 0.31630856 -0.7051289 0.64431626 0.55643934 -0.44999582 0.35073167 -0.35529962
-0.6395564 -0.06905413 0.3104232 -0.043915927 0.19769984 0.0027942657 0.42675954 -0.25198925
0.51513225 0.12984407 -0.6188656 -0.44015756 0.09059012 0.121831894 -0.54256284 -0.4273494
0.020774245 -0.6695435 0.12364715 -0.6446934 0.53194517 0.36188036 0.54854506 -0.44247454
-0.46357614 0.63616556 -0.62183553 0.12528765 0.17446274 0.48413128 0.6906956 0.4525252
-0.37614408 0.6074198
00000000: d97d 2d3f 9b78 013f 0002 023c 9ae0 bd3e
00000010: da85 c8be d43e 7a3e 79a1 2e3f e8e9 c4be
00000020: ce28 d13e 32f3 a13e 5483 34bf e9f1 243f
00000030: cf72 0e3f da65 e6be 1a93 b33e d5e9 b5be
00000040: f8b9 23bf 406c 8dbd caef 9e3e 30e1 33bd
00000050: d471 4a3e 0020 373b 3a80 da3e bc04 81be
00000060: b5df 033f d8f5 043e fa6d 1ebf 555c e1be
00000070: 5087 b93d 0083 f93d 66e5 0abf 8acd dabe
00000080: c02e aa3c 3467 2bbf b83a fd3d a00a 25bf
00000090: 8f2d 083f 6248 b93e 736d 0c3f 068c e2be
000000a0: da59 edbe bfdb 223f 9d30 1fbf 684b 003e
000000b0: 5ca6 323e 0ee0 f73e 6dd1 303f 62b1 e73e
000000c0: f595 c0be dd7f 1b3f

weight_ih_l0 f4 [200, 20]
0.30277756 0.16554512 -0.25236836 0.14125513 -0.35408983 0.023136502 0.039060175 -0.4210786
-0.09978699 -0.036067616 -0.38430595 0.14044437 -0.22178373 -0.093299486 0.029268209 0.012238125
0.09781733 0.18470216 0.5203556 -0.25779143 0.30011645 -0.057885725 0.010481494 0.27455562
-0.5315912 -0.0075514964 -0.26816967 -0.43702397 -0.13356195 0.32159835 -0.09363631 -0.09179739
0.0334379 -0.0528963 -0.16716437 -0.044239525 0.0010482477 0.3192056 0.40009654 -0.12915535
-0.16439323 0.056377117 0.0143909715 -0.036266692 -0.23314798 -0.050552096 0.013619643 -0.23364839
0.1125376 -0.14327943 0.09453147 0.21446289 -0.049139883 -0.022481456 0.4036113 -0.014545509
0.1764828 0.08765889 0.29790747 -0.10799052 -0.08369113 0.097553715 -0.34658852 -0.16142814
-0.424327 -0.14547949 -0.31389254 -0.66994303 -0.19069138 -0.21927333 0.10003795 0.09180846
0.0066797435 -0.17108524 0.16440342 -0.08957007 0.40304008 0.34923542 -0.10699287 -0.11240725
0.25347477 -0.09027703 -0.1289819 0.3740699 -0.5318808 -0.12622358 -0.1256146 -0.50375164
0.03117264 0.0054710372 -0.34427115 0.0056227804 -0.02448529 0.03961934 0.15462667 -0.3002603
0.09177534 0.16444103 0.59313804 0.053316373 0.26449996 0.023769751 0.00058240176 0.47740155
-0.49999663 -0.46398163 -0.8294331 -0.20885964 0.26973152 0.30549836 0.019937718 0.26907963
-0.0716447 -0.43562952 0.12181796 -0.079500556 0.27263153 0.56899697 0.20016035 0.7069384
0.46365535 0.17269486 -0.17760067 0.24659075 -0.31655207 -0.3738706 -0.505168 -0.4109126
-0.3618311 0.71018547 0.4748152 0.5803222 -0.32611328 -0.20249358 -0.10713025 -0.7857286
0.083099596 -0.15140764 0.11526425 0.105725855 -0.16732395 0.044157676 -0.61576617 -0.31516176
-0.44154686 -0.27730784 -0.15759972 -0.65856946 -0.048788764 -0.24084347 0.13742568 -0.14651792
0.03503959 -0.10737159 0.045552045 -0.0642248 -0.0061502215 0.045267433 -0.307053 -0.6350581
0.094106585 0.23031648 0.039642427 -0.034053236 0.02161609 -0.13078882 0.14333762 -0.123404406
-0.10540382 0.018370159 -0.049580686 0.371429 -0.01580244 -0.16926655 0.06825745 0.036421046
0.044087227 0.07264691 -0.025733113 0.05182004 0.09148733 -0.047939416 -0.25605324 0.11560524
-0.34675238 -0.18213673 -0.53405416 -0.74990153 0.08175235 0.16208611 0.121977136 0.18280816
-0.19344597 0.040983148 -0.010554005 -0.039920725 -0.057507064 0.27125376 0.00662296 -0.06078628
-0.08111169 0.124514684 -0.05851462 0.02606012 -0.15637542 -0.16053306 0.09371787 -0.27432227
-0.08273691 -0.08335309 -0.21844798 0.1880412 0.19007517 -0.014758155 0.013871541 0.209876
0.0032992417 0.15542136 0.08624681 -0.26985782 -0.29999593 0.11717488 0.032237634 -0.14851893
-0.21048774 -0.22563148 -0.19772944 -0.29157418 0.14870286 -0.2528011 0.004646459 -0.026495274
-0.1448617 0.013812899 0.13667834 -0.29138717 0.013155073 -0.05944159 0.08099755 -0.29124182
0.10544307 0.13525182 -0.15285587 0.08343285 -0.13311136 -0.1379062 0.122776024 -0.18250158
-0.15768565 0.25296775 -0.119812645 0.005055951 -0.02086023 -0.15814526 -0.23468105 0.02021413
00000000: a905 9b3e a984 293e 6d36 81be 2fa5 103e
00000010: 434b b5be c388 bd3c 90fd 1f3d 9d97 d7be
00000020: 1f5d ccbd a3bb 13bd c0c3 c4be a6d0 0f3e
00000030: 461b 63be cd13 bfbd e2c3 ef3c 6b82 483c
00000040: 7454 c83d 9022 3d3e 0636 053f 3dfd 83be
00000050: dda8 993e 9519 6dbd 92ba 2b3c 8e92 8c3e
00000060: 5c16 08bf 8b72 f7bb 894d 89be 9bc1 dfbe
00000070: 77c4 08be 8aa8 a43e 65c4 bfbd 4500 bcbd
00000080: 2ef6 083d caa9 58bd 232d 2bbe 8134 35bd
00000090: 5b65 893a eb6e a33e 74d9 cc3e 4d41 04be
000000a0: b356 28be b1eb 663d 1cc8 6b3c 628c 14bd
000000b0: 58be 6ebe b70f 4fbd ec24 5f3c 8641 6fbe
000000c0: 1d7a e63d d8b7 12be b799 c13d 299c 5b3e
000000d0: e746 49bd 082b b8bc 24a6 ce3e 4950 6ebc
000000e0: e8b7 343e 8186 b33d 5487 983e 222a ddbd
000000f0: 4166 abbd 3eca c73d 0d74 b1be 6b4d 25be
00000100: 6341 d9be 93f8 14be 86b6 a0be 6381 2bbf
00000110: 9a44 43be 3089 60be b2e0 cc3d 1306 bc3d
00000120: c0e1 da3b f830 2fbe 5f59 283e 8370 b7bd
00000130: 455b ce3e fcce b23e 141f dbbd c635 e6bd
00000140: 72c7 813e 2ae3 b8bd d513 04be 1786 bf3e
00000150: 5729 08bf c140 01be 1da1 00be def5 00bf
00000160: c45d ff3c 6346 b33b 4f44 b0be 4d3f b83b
00000170: 6095 c8bc e447 223d 7456 1e3e b8bb 99be
00000180: b6f4 bb3d 3b63 283e e5d7 173f 4562 5a3d
00000190: 8a6c 873e c8b8 c23c 52ac 183a fa6d f43e
000001a0: 8fff ffbe 008f edbe ba55 54bf 4ddf 55be
000001b0: 401a 8a3e 486a 9c3e 6d54 a33c cec4 893e
000001c0: 75ba 92bd d50a dfbe b27b f93d 30d1 a2bd
000001d0: 5c96 8b3e c9a9 113f d6f6 4c3e eaf9 343f
000001e0: 3c64 ed3e ecd6 303e f3dc 35be 4982 7c3e
000001f0: 1d13 a2be f86b bfbe b152 01bf 2363 d2be
00000200: ed41 b9be b7ce 353f fa1a f33e ff8f 143f
00000210: 52f8 a6be 7a5a 4fbe 1b67 dbbd 8225 49bf
00000220: 1f30 aa3d 9b0a 1bbe aa0f ec3d cc86 d83d
00000230: f856 2bbe aede 343d daa2 1dbf e25c a1be
00000240: 6e12 e2be 4bfb 8dbe d261 21be 0298 28bf
00000250: bad6 47bd ac9f 76be 51b9 0c3e cb08 16be
00000260: ac85 0f3d a3e5 dbbd c894 3a3d 4b88 83bd
00000270: cc87 c9bb 586a 393d 0d36 9dbe 2b93 22bf
00000280: f4ba c03d 15d8 6b3e 1960 223d 687b 0bbd
00000290: 3a14 b13c 81ed 05be 19c7 123e 73bb fcbd
000002a0: f5dd d7bd 047d 963c 1e15 4bbd f12b be3e
000002b0: 1e74 81bc 3654 2dbe 90ca 8b3d 3c2e 153d
000002c0: cf94 343d e7c7 943d 40ce d2bc 4041 543d
000002d0: b65d bb3d 1f5c 44bd 6919 83be 71c2 ec3d
000002e0: 8789 b1be 0d82 3abe c6b7 08bf 8cf9 3fbf
000002f0: c76d a73d e7f9 253e 26cf f93d 1032 3b3e
00000300: b316 46be f2dd 273d b5ea 2cbc ea83 23bd
00000310: 878c 6bbd c6e1 8a3e 6a05 d93b 09fb 78bd
00000320: e31d a6bd 8e01 ff3d 07ad 6fbd 087c d53c
00000330: e120 20be c762 24be 28ef bf3d f873 8cbe
00000340: f871 a9bd 06b5 aabd d4b0 5fbe df8d 403e
00000350: 11a3 423e 30cc 71bc 7645 633c bce9 563e
00000360: 1738 583b c726 1f3e 2ba2 b03d ce2a 8abe
00000370: 1199 99be 62f9 ef3d 9c0b 043d 5915 18be
00000380: 198a 57be f00b 67be 9679 4abe 3649 95be
00000390: 9045 183e 256f 81be 5341 983b 9e0c d9bc
000003a0: a056 14be 7f4f 623c 68f5 0b3e b330 95be
000003b0: 6088 573c 0679 73bd 0be2 a53d a61d 95be
000003c0: 89f2 d73d 747f 0a3e 4086 1cbe d8de aa3d
000003d0: 584e 08be 4837 0dbe ff71 fb3d b2e1 3abe
000003e0: 5978 21be fd84 813e 5560 f5bd 64ac a53b
000003f0: 13e3 aabc d5f0 21be 3b50 70be 1a98 a53c
