model/saved_models/en/model_en_pretrained_epoch_15.pt (torch_old, 231736 bytes, 23 tensors)

weight f4 [74, 20]
000000 00 00 00 00 00 00 00 00 00 00 00 00 00 00 00 00
       0.0 0.0 0.0 0.0
000010 00 00 00 00 00 00 00 00 00 00 00 00 00 00 00 00
       0.0 0.0 0.0 0.0
000020 00 00 00 00 00 00 00 00 00 00 00 00 00 00 00 00
       0.0 0.0 0.0 0.0
000030 00 00 00 00 00 00 00 00 00 00 00 00 00 00 00 00
       0.0 0.0 0.0 0.0
000040 00 00 00 00 00 00 00 00 00 00 00 00 00 00 00 00
       0.0 0.0 0.0 0.0
000050 f7 62 1a bd 0a 69 a1 3c d4 43 40 bc c6 04 c6 3c
       -0.037692036 0.019703407 -0.0117349215 0.024172198
000060 dd cf 51 b8 cf 3a b5 3a 4a f1 d0 3b 81 f5 79 3c
       -5.002307e-05 0.001382673 0.00637642 0.015256287
000070 75 b0 db 3b 08 28 12 bd 36 09 1c 3d d0 b0 d6 3b
       0.006704385 -0.035682708 0.03809472 0.0065518394
000080 6e d1 db b8 d0 1b 6b ba 66 a5 fa bb c8 13 b4 3b
       -0.00010481743 -0.0008968683 -0.0076491116 0.005495522
000090 64 f5 b3 3c e6 28 33 3c 5d 37 df bc 13 e0 c1 3c
       0.021967597 0.010935044 -0.027248079 0.023666417
0000a0 20 cb e4 bd 90 4c 56 bf 5c 6b 33 3f 6f d1 3e be
       -0.111715555 -0.83710575 0.7008569 -0.1863458
0000b0 e5 b8 e3 be b6 91 b9 be c9 42 76 3f cf 51 78 bf
       -0.44477 -0.3624398 0.96195656 -0.9699983
0000c0 4b 7f 89 3e fd db 77 bf aa 74 46 3e b9 6d 83 bf
       0.2685493 -0.9682005 0.19380441 -1.026786
0000d0 bb 79 f6 3d d3 c9 71 3f dc 85 80 3f d6 3d 3d bf
       0.12034937 0.94448584 1.0040851 -0.7392248
0000e0 fa 23 4a 3e 13 03 3f bf f3 5d 37 be a9 5b f9 bc
       0.19740286 -0.74614066 -0.17906933 -0.030439215
0000f0 e1 65 47 3f 27 42 c4 3f d8 0b ce 3f eb 73 ce be
       0.7788983 1.5332688 1.6097364 -0.40322813
000100 d7 9f 55 bf 79 09 19 3f 01 8f 52 bd 6c 37 84 bd
       -0.8344702 0.5978008 -0.05140591 -0.064558834
000110 87 77 fe be 9c 77 ee 3e 66 b7 83 be f3 9b 88 bf
       -0.49700567 0.4657563 -0.2572586 -1.0672592
000120 7f 92 00 40 50 77 09 bf 7b 25 64 3e 2b 72 32 3f
       2.0089414 -0.5369768 0.22279923 0.69705456
000130 e9 9c b6 bf d8 eb 67 3f a5 10 14 3e f2 78 69 3e
       -1.4266635 0.90594244 0.14459474 0.22800043
000140 0f d6 1c 40 9a 8d 97 bf 94 7d 86 3f cd 8d 0f 3f
       2.450565 -1.1840088 1.0507073 0.56075746
000150 09 14 d1 bf f4 6c 9f bf 25 61 29 3f c6 bd 41 be
       -1.6334239 -1.2455125 0.66163856 -0.18920049
000160 ab f6 c3 3e da d0 c2 be 40 a0 03 3f 91 ab 41 bf
       0.3827413 -0.38049966 0.514164 -0.75652415
000170 10 6a e3 be 16 af eb be 2c 2f 76 bf 3c 1d de be
       -0.44416857 -0.46032017 -0.9616573 -0.4338168
000180 4d 9c d0 bf 6d d5 a9 bf f4 ac 31 be 08 ea 7f 3f
       -1.6297699 -1.3268257 -0.17351133 0.9996648
000190 69 39 01 3d 43 ed 3d bf e0 77 98 be 03 9f 8c 3c
       0.03154889 -0.7419016 -0.29778957 0.017165666
0001a0 2f 7a 35 be bf a1 08 be 94 81 96 3e 2d 46 b1 3f
       -0.1772239 -0.13342951 0.29395735 1.3849541
0001b0 1c a1 f7 3d a4 ac 22 40 30 f5 23 bf 60 ac fc bf
       0.12091276 2.5417871 -0.64046 -1.9740105
0001c0 4d bd a8 be d7 65 02 3c b9 1d 6d 3f 1e 39 f1 bf
       -0.32956925 0.007958851 0.9262348 -1.8845556
0001d0 fb f7 2a 3e 8c d0 ea 3e 0e 13 e2 bf 31 03 16 3f
       0.1669616 0.45862234 -1.7662065 0.5859862
0001e0 21 99 ad 3e 5b eb e9 3d 5a b9 d2 3c c8 6f 91 bd
       0.3390589 0.114218436 0.025723148 -0.07101399
0001f0 a3 53 0c 3e 10 3f e1 3d 2c 57 0f bc cd f7 8c be
       0.1370378 0.10998356 -0.008748811 -0.27532807
000200 b0 7a a3 be 76 a9 42 3f 97 d4 5c 3e e0 74 9d bd
       -0.3192954 0.76039827 0.21565472 -0.07688308
000210 6c 01 e4 bb 8c 50 55 3e c9 e0 59 bc 09 a5 18 bf
       -0.0069581773 0.20831507 -0.013298222 -0.59626824
000220 61 5e 4c bc 0b 05 2f be 13 57 7e 3c 23 40 4d bc
       -0.012473674 -0.17091767 0.01552369 -0.012527498
000230 da 01 9d 3e ae 4a 3f bf a4 55 3e 3f 88 3d 63 3f
       0.30665475 -0.7472333 0.7434943 0.88765764
000240 5c 65 12 40 2d 0d 76 3f e4 cc c3 bf 65 1b 95 be
       2.2874365 0.96113855 -1.5296903 -0.29122463
000250 af 5f e9 bd 16 99 a0 be 92 1a 21 bf 97 ba 91 3f
       -0.11395203 -0.31366795 -0.6293117 1.1385068
000260 21 c4 7d bf a6 11 2e 3e a8 c8 9c 3f fb 2a 70 be
       -0.99127394 0.1699892 1.2248735 -0.23453896
000270 09 51 87 bf 14 7e 27 bf 1f a2 cb 3f e0 11 33 bf
       -1.0571605 -0.65426755 1.590885 -0.6994915
000280 f1 63 65 bf 4e 8f 87 3d 1d 86 66 bd 99 d6 15 40
       -0.89605623 0.0661913 -0.056280244 2.341223
000290 ba 4c 2e c0 ee 79 02 3f 05 81 50 bf 04 f2 7b be
       -2.723433 0.509673 -0.8144687 -0.2460404
0002a0 67 bc 93 3b 17 09 03 40 a3 53 21 be 2a eb 5f be
       0.0045085433 2.0474298 -0.15754561 -0.21867052
0002b0 0c 0c ad bf 0e 9f 6a bd 27 4f ed bf 13 44 b1 bf
       -1.3519301 -0.057280593 -1.853978 -1.38489
0002c0 3a d8 b0 be ec cc 94 bf c5 f2 13 3e 9c 50 2a 3e
       -0.34539968 -1.1625037 0.14448078 0.16632313
0002d0 5b 1e 39 3f 58 b3 62 3f 9c 9c d9 bf 0c a6 aa 3f
       0.72311944 0.88554907 -1.7000918 1.3331923
0002e0 63 81 6e 3f e0 36 8b 3f 23 47 28 3f 65 30 a8 bf
       0.9316618 1.0876122 0.65733546 -1.3139769
0002f0 1f fb 36 bf 99 13 07 40 77 fe 09 3f 73 90 9f 3f
       -0.7147693 2.1105711 0.5390391 1.2465957
000300 6e 44 27 3e b2 86 bd be 8d 5d e9 3f ef 91 ae 3f
       0.16334698 -0.37016827 1.8231674 1.3638285
000310 1d 84 86 3f 81 59 16 bf 45 d3 dc be 1f 58 18 3f
       1.0509068 -0.5873032 -0.43129936 0.5950946
000320 77 37 e0 bb 3c 86 cf bf 7f 47 8a 3f 99 5f f6 3e
       -0.0068425494 -1.621284 1.0803069 0.4811981
000330 83 25 a4 bf 44 ec 7f bf 5a 00 f9 bd b9 a5 0a 3e
       -1.2823948 -0.9996989 -0.1215827 0.1353978
000340 9d 3d a2 3e 7f 2a 3d bf bb 4a 8c be a9 db da be
       0.31687632 -0.7389297 -0.27400765 -0.42745712
000350 ac a1 2e 3f 05 61 18 3f 56 bb a3 3f 69 f3 44 3f
       0.6821544 0.5952304 1.2791545 0.76933914
000360 10 07 0b 3f ce ef 60 3f 9e fb 7d be 5a c3 35 bf
       0.5430765 0.8786591 -0.24803016 -0.7100121
000370 27 4f 15 bf 8c 61 bd 3e 70 3d 0e bf 76 eb cb be
       -0.583239 0.36988485 -0.55562496 -0.3982808
000380 fd f5 14 bf 63 22 62 be 9a ca 5d 3c 64 89 9c be
       -0.5818785 -0.2208343 0.0135370735 -0.3057357
000390 63 e7 f8 bc cc 54 52 3f 7c be ca 39 71 14 e5 be
       -0.030383771 0.8216064 0.00038670364 -0.44742158
0003a0 72 05 52 3f ba 45 c2 bf cf a9 1d 3f 9a b1 ee bf
       0.8203956 -1.5177529 0.6158723 -1.864795
0003b0 50 4c 7a bf 59 7b 81 3d b1 df e8 be d4 58 d4 be
       -0.97772694 0.06322355 -0.45483163 -0.4147402
0003c0 6c d5 bf 3f 62 4b 23 bd 27 1b 4e bf 0c cb 94 bf
       1.4987006 -0.039866813 -0.8051018 -1.1624465
0003d0 b6 b4 da 3e 76 58 90 be 02 47 51 bc 1e bf 60 bf
       0.42715997 -0.2819249 -0.012773277 -0.8779162
0003e0 49 1c a5 be 83 62 3b 3e 47 28 6e bf ae d7 9f bf
       -0.32248142 0.18299298 -0.9303021 -1.2487695
0003f0 18 41 8f 3f d7 36 f4 bf 65 0e 07 bf e9 52 8a 3f
       1.119174 -1.9079236 -0.5275634 1.0806552

weight_ih_l0 f4 [200, 20]
000000 3e 51 9b 3d 07 b6 9d 3f e7 57 02 bf a7 64 8a bf
       0.07583855 1.2321175 -0.5091538 -1.0811967
000010 d2 84 93 bf 54 a0 6e 3e a4 3e 37 3f 9a d1 b9 3d
       -1.1524909 0.23303348 0.71579957 0.090731815
000020 f7 38 ad 3d d0 1c 99 3d 92 af 8a 3f 7c 42 a0 bd
       0.08458131 0.07476199 1.083483 -0.07825181
000030 cc 11 15 bf e0 6c 3f be 69 b1 87 bc 11 9c 01 bf
       -0.5823028 -0.18693876 -0.016564088 -0.50628763
000040 be 70 0f be fc 1b 80 3e 47 78 90 bd 24 9b 80 3b
       -0.14007851 0.2502135 -0.07054191 0.003924744
000050 1a c3 83 bb b9 75 48 be 9a 7d 91 be fb c6 fc 3b
       -0.0040210607 -0.19576158 -0.2841614 0.00771415
000060 a7 9d 48 bf 1a 15 d9 be 14 80 9e be f5 fc 68 3e
       -0.7836556 -0.42398912 -0.3095709 0.22752745
000070 78 98 0c bd b9 8f 14 be 5b 20 65 3f 15 43 61 3d
       -0.034325093 -0.14507951 0.89502496 0.054995615
000080 7d d9 fa bd 30 12 3d 3c da 09 d7 3d 46 e8 72 3d
       -0.12248514 0.011539981 0.10499926 0.059303544
000090 a5 4c a8 bd 33 47 eb 3d 5d 61 83 3d 5a 39 b7 3d
       -0.08217744 0.114881895 0.06415055 0.08946486
0000a0 bf 3c 9a be cc 90 9e 3d 9a 05 d3 be 66 61 c2 be
       -0.3012447 0.077424616 -0.4121521 -0.37964934
0000b0 fd f5 8f be aa 2b 84 3f 0f 08 ae bc eb 29 03 3e
       -0.28117362 1.0325825 -0.021244077 0.12808959
0000c0 e0 51 fc be 07 3b 53 bf 4f 9a 38 bf 9a a3 8f 3e
       -0.49281216 -0.82511944 -0.72110456 0.28054506
0000d0 31 94 bb 3d fc 81 d6 be 54 30 ad 3e af a3 db 3e
       0.09159125 -0.41896045 0.33825934 0.42898318
0000e0 7f ce 4f bd 6d 6f 8d be 72 c4 78 be 12 9a a9 3e
       -0.05073404 -0.27624074 -0.24293688 0.3312536
0000f0 66 62 78 bf 90 ae 36 3f 8b 16 84 be c0 54 56 3e
       -0.97025144 0.7136011 -0.2579845 0.20930767
000100 69 2c 8d bf 43 e3 47 bd b6 eb e9 3d b3 42 22 3f
       -1.1029178 -0.048800718 0.114219114 0.63383025
000110 a3 72 b5 3d 6e 83 8b bf 22 38 c7 3e 08 d0 37 3f
       0.08859756 -1.0899484 0.38910013 0.71801805
000120 26 b6 46 3f 0b 3e d6 bf 8b 51 0c 3e f8 c4 12 3f
       0.77621686 -1.6737684 0.13702981 0.573318
000130 87 d9 e8 bd 30 cd 1a bf fc 97 93 bf 1b 2d 52 3f
       -0.11369615 -0.6046934 -1.1530757 0.82100075
000140 9d f0 96 be 1f 03 05 c0 90 96 44 bf 52 1b 4f bd
       -0.29480448 -2.0783155 -0.7679224 -0.050563164
000150 7c f5 73 be e7 96 ef be 48 09 a0 bf 8a d2 29 be
       -0.23824114 -0.46794817 -1.2502832 -0.1658422
000160 4b d7 09 bf 3c 19 47 bf 61 97 ed bf 3f 3e 02 3f
       -0.53844136 -0.7777288 -1.8561822 0.5087623
000170 b8 b0 6a bd 1d f2 09 3f 86 db 0a 3f 9d ca fb bf
       -0.05729744 0.5388506 0.54241216 -1.9671208
000180 eb c6 11 c0 bf de 3a 40 e7 26 c1 3f fa fa 8d 3f
       -2.277766 2.9198453 1.5089997 1.1092217
000190 1f 4f c3 3d 79 4f d5 3e 41 24 23 bf de be 6e 3e
       0.095365755 0.41662195 -0.63727194 0.23314998
0001a0 54 ab 39 bf 7b 3d 08 be 89 49 cf bd dc 05 48 be
       -0.7252705 -0.13304703 -0.101214476 -0.19533485
0001b0 c5 14 f4 be 9e b3 a2 3e e7 9e db 3d 9e c1 a9 bd
       -0.47672096 0.31777662 0.107236676 -0.08288883
0001c0 7a ee 34 bf 2a 15 9a 3f 8b ff 24 bd 1e 37 4f 3f
       -0.70676386 1.2037709 -0.040282767 0.8094348
0001d0 cb b1 f6 3e e2 e8 0e be 59 bc 92 be 5f ef 84 be
       0.4818252 -0.13956025 -0.28659323 -0.25963876
0001e0 0e 92 b3 be 50 a6 9b 3e 0c 57 14 bf 88 fa 30 bf
       -0.35072368 0.30400324 -0.57945323 -0.6913228
0001f0 7f cd 85 bf 67 37 a5 be 3a 1d 71 3d 12 5c de bd
       -1.0453337 -0.3226883 0.058865763 -0.10857405
000200 1a f8 53 be d8 9a 2a bf ec 85 ad 3f 7d d8 55 3f
       -0.20700112 -0.6664252 1.3556495 0.8353346
000210 fc 37 4e 3f d5 89 ce bf f1 ba a1 bd bf e0 81 3f
       0.80554175 -1.6135813 -0.07896984 1.0146712
000220 61 a3 1d 3d 19 a5 c3 3d 22 bb 03 c0 79 ab c9 be
       0.03848589 0.09552974 -2.0582967 -0.39388636
000230 92 43 1c bd cf 6b 23 3f 6c 44 59 3e bf e9 97 bf
       -0.038150378 0.6383638 0.21217507 -1.1868209
000240 d5 01 51 bc 0c 9e 54 3e 56 18 7f 3e d2 4d d1 be
       -0.012756784 0.20763415 0.24911627 -0.40879685
000250 24 85 7f be 07 d9 bd bd 5c 08 6a 3f 2b 12 35 3e
       -0.24953133 -0.0926991 0.91419005 0.17682712
000260 bf a8 9e bd 64 ba 17 bf ca 22 ca 3e 22 cb e5 be
       -0.077470295 -0.59268785 0.39479667 -0.4488154
000270 b8 3a 72 3f fc 96 0c bd 00 3a b3 bf 6f 42 50 3f
       0.9462085 -0.034323677 -1.4002075 0.8135137
000280 3b 4c 62 bf 6b cf 15 bf a1 cd bf bf 18 9f 3c be
       -0.8839757 -0.5851962 -1.4984628 -0.18420064
000290 e0 bf 8d bf 6a 46 5a 3f fc 7b 0f 3d 71 f9 3c 3e
       -1.1074181 0.85263693 0.03503035 0.1845453
0002a0 25 68 b5 3e 94 93 3a bf 8d ab ab bf 74 e9 a1 3f
       0.35431018 -0.72881436 -1.3411728 1.2649369
0002b0 ea 03 f5 bf c0 90 f0 3e a0 74 8d bd 99 ea 83 3f
       -1.914182 0.46985435 -0.0690701 1.0305969
0002c0 3c 78 7c bf a2 b6 b8 bd 73 74 d8 bd 12 d6 b2 3f
       -0.98620963 -0.090192094 -0.10569086 1.3971579
0002d0 42 e6 41 3e 2d 2f af 3f 42 56 97 3e eb fa 01 be
       0.18935493 1.3686272 0.29557997 -0.12693374
0002e0 de 7a 1b 3f fd f2 88 bd d7 d5 ce 3f 70 b2 28 be
       0.60734355 -0.06686971 1.6159009 -0.16474319
0002f0 ab bd fc be 31 20 8e 3e 60 b5 51 bf 7f 29 f2 be
       -0.49363455 0.27758935 -0.8191738 -0.47297284
000300 63 e4 5f bf b9 e5 9a 3f 08 8f 49 3d 31 01 ae 3c
       -0.87457865 1.2101356 0.04920867 0.021240802
000310 1e 92 f8 3e ee b1 0c 3f 26 98 86 3e fa db a8 be
       0.4854898 0.54959 0.26287955 -0.3298033
000320 c2 db 2d 3e a9 b2 2f 3f 77 e8 b9 bd 79 74 84 bf
       0.16978362 0.6863199 -0.09077542 -1.0348045
000330 2e d2 32 bf 81 dc da 3e bf 3c a0 3e f5 a2 16 3e
       -0.6985196 0.42746356 0.31296346 0.147106
000340 7a c0 ab be b0 c8 2b 3f 77 09 20 3f 63 39 22 be
       -0.33545285 0.671031 0.6251444 -0.15842204
000350 af 76 ef bd 66 2b 8a be f3 44 5d be 85 06 60 bf
       -0.11692559 -0.26986235 -0.21608333 -0.8750995
000360 f1 89 06 3f f2 cd 1a 3f 78 8b 70 bf 3b 1b 23 3f
       0.5255423 0.604705 -0.9396281 0.63713425
000370 e6 da 2e bf 83 f7 6e be 68 f4 58 bf 8a d0 cb be
       -0.6830276 -0.23336606 -0.84747934 -0.3980754
000380 f3 65 63 3f b0 6e 65 3f 7a 9f 14 3e 24 03 a1 3e
       0.8882744 0.8962202 0.1451396 0.3144771
000390 3c 6c 0d 3f 33 97 4b bf 66 77 e1 bf a3 e4 6d bf
       0.5524328 -0.79527587 -1.7614563 -0.92926997
0003a0 04 9c 04 bf 77 bc 0a bf 42 ee 05 bd 24 c4 e7 3f
       -0.5180056 -0.54193825 -0.032697923 1.8106732
0003b0 b6 08 12 be a5 f7 3d bf 51 e1 a9 3c 89 e7 0d bf
       -0.14261135 -0.74206 0.020737322 -0.5543142
0003c0 32 80 da 3e 1c 66 1a bd e6 80 82 bf d0 e5 77 3f
       0.4267593 -0.037695035 -1.0195587 0.9683504
0003d0 98 53 d3 bd d7 1d a5 3f f1 b3 2c 3f b3 3c a8 3e
       -0.103186786 1.2899731 0.6746207 0.3285881
0003e0 39 75 f1 3d ea c3 b1 be 80 0d bc be b7 1b 08 3f
       0.117899366 -0.34719783 -0.3672905 0.5316729
0003f0 dd cb c6 be e7 9e 77 3f 49 8c 24 3e c0 f4 62 3f
       -0.3882741 0.9672684 0.1606914 0.8865471

weight_hh_l0 f4 [200, 50]
000000 ea dd ce 3f a4 ed 30 3c 5a 01 83 c0 80 9f 94 bf
       1.6161473 0.010798845 -4.093915 -1.1611176
000010 cb 83 98 3f 19 ae 8d c0 b1 15 93 3f 11 a9 a9 be
       1.191522 -4.427502 1.1490995 -0.331368
000020 9e e4 90 40 e2 71 46 40 90 d6 9d bf 17 e1 fd be
       4.5279074 3.1007009 -1.2331104 -0.49585792
000030 8b c8 80 3e bb 6a 08 3f 8c a4 76 3e 19 0c 10 c0
       0.25153002 0.5328786 0.24086207 -2.2507384
000040 93 36 5a c0 b8 3c 4d c0 37 cb ae 3f 44 52 c8 be
       -3.409581 -3.206831 1.3655766 -0.39125264
000050 03 d9 ad 40 d8 7f 53 3f b8 61 62 40 73 6a a2 be
       5.4327407 0.8261695 3.5372143 -0.3172184
000060 d0 b5 dc 3f 5d 09 01 40 04 43 e0 bf ac 21 c2 c0
       1.7242985 2.0161965 -1.7520452 -6.0666103
000070 e4 78 92 40 f2 7e 37 c0 5e aa 15 be c2 7d 9a 3f
       4.577257 -2.8671231 -0.14615771 1.2069628
000080 63 fa fa 3f 60 43 98 bf 94 df 21 bf 84 c9 1b c0
       1.9607662 -1.1895561 -0.6323178 -2.4341745
000090 28 e8 e6 3f 6a d9 76 bf 77 98 96 bf 4e 0c 24 3f
       1.8039598 -0.964255 -1.1765279 0.64081275
0000a0 72 f2 04 40 c7 e2 14 bf 4f 0c a6 3f d3 b2 e5 bf
       2.0772977 -0.58158535 1.2972506 -1.7945198
0000b0 c7 6f fe bf 87 1b a7 bf e5 85 6c bf 56 7d 27 bf
       -1.9877862 -1.3055276 -0.92391807 -0.6542562
0000c0 fa e2 5d c0 7c b8 e0 40 3c 9a 4d 40 19 e8 ce bf
       -3.4669785 7.02252 3.2125387 -1.616458
0000d0 98 20 79 3f ee 81 f9 3e 50 f5 ad 3f dc 3b 43 be
       0.9731536 0.4873194 1.3590488 -0.19065803
0000e0 5c 34 dd 3e 0c 3c 94 3f e7 8e ab bf 29 15 62 be
       0.4320401 1.1580825 -1.3402985 -0.22078384
0000f0 bb 30 a8 bf 6f 8c 3a bf 56 bb a2 bf 95 55 2c c0
       -1.3139871 -0.72870535 -1.271342 -2.6927235
000100 e4 12 8a 40 f3 13 9e be 7a 74 f2 bf 6c 0b 8d be
       4.314806 -0.30874595 -1.8941796 -0.27547777
000110 3d 56 c4 3c 82 99 3c bf 6c be b6 3e cf c8 46 be
       0.023966903 -0.73671734 0.35692155 -0.1941254
000120 48 a3 1d bf 08 9b 9a bf f1 2e 3d 3f 15 4b e1 bd
       -0.6157727 -1.2078562 0.7389975 -0.11000649
000130 ef 87 04 bf fd 05 2f 3e 10 76 8e 3e 1e 34 0c 40
       -0.5176992 0.17092128 0.2782445 2.190681
000140 22 b7 fe 3e e8 f8 60 3c 20 9b eb 3d d0 31 ca 3f
       0.49749094 0.013731219 0.11504197 1.5796452
000150 38 75 17 3f 37 9c 61 3d 54 d2 03 c0 0e bb da bf
       0.59163237 0.05508062 -2.0597124 -1.7088335
000160 f4 8d 40 3e ad 41 e1 3f b2 b4 0e 40 24 5a 30 3f
       0.18804151 1.7598168 2.2297788 0.68887544
000170 64 32 98 c0 4c 69 28 c0 77 c3 18 c0 02 ad 4f 3f
       -4.756151 -2.6314268 -2.3869302 0.81123364
000180 b0 ce 5d 3e 24 0a a4 3e 03 36 16 40 ee e8 eb 3e
       0.21660876 0.32038987 2.3470466 0.4607615
000190 07 ac 77 3f 63 70 94 3e 3d 06 0d 3e 96 b2 1c 3e
       0.9674687 0.28991994 0.13771911 0.153025
0001a0 f2 24 28 bd 8a cd d0 3f 68 84 27 c0 17 3e 89 3d
       -0.04105086 1.6312726 -2.6174564 0.06701296
0001b0 d3 24 57 3f e6 0e fd 3f 15 56 35 bf 23 38 86 3f
       0.84040564 1.9770172 -0.70834476 1.0485882
0001c0 ac 1f ed 3e 1a 66 4e be 56 9c 23 bf 8b cf 92 3f
       0.46313226 -0.20156136 -0.63910425 1.1469587
0001d0 73 69 77 bf ef 33 8b bf 1e b7 a2 3f be 78 31 3f
       -0.9664528 -1.0875224 1.2712133 0.6932486
0001e0 30 60 92 3d 5e a9 66 bf 95 ea 9c 3f 9e 18 42 bd
       0.071472526 -0.90102184 1.2259089 -0.047386758
0001f0 0d ca a3 3f 82 18 3d 3f 34 f3 4d bf ea 85 66 3e
       1.2796036 0.7386552 -0.80449224 0.22512022
000200 5c 4a d1 be 94 be 84 3f 60 88 23 3f d6 b4 e8 be
       -0.40877044 1.037066 0.63879967 -0.45450467
000210 8d ed 89 3f 07 4e c0 3f 9e 2e 48 bf e6 a8 0d bf
       1.077562 1.5023812 -0.7819613 -0.55335844
000220 0e 3f ca 3d db f0 37 be e1 01 34 3f ba 2d 61 bf
       0.09875308 -0.17962973 0.70315367 -0.879604
000230 54 52 8b 3f 74 19 02 40 6c 2d 08 c0 e9 70 03 bf
       1.08845 2.0328035 -2.1277723 -0.5134416
000240 8b 5e f5 3c cc a9 a5 3f c4 7b 8a be 38 33 52 40
       0.029952308 1.2942443 -0.2704755 3.2843761
000250 20 96 81 3f 34 86 22 bf e1 47 6c 3f cd 6b ec 3f
       1.012394 -0.6348603 0.9229718 1.8470398
000260 d3 ae ed 3e 5a ff e0 3d 35 91 18 c0 d7 11 94 3f
       0.46422443 0.109862044 -2.3838627 1.1567944
000270 47 60 6c 3e 47 d8 8f bf 78 71 02 40 48 68 47 3f
       0.23083602 -1.1237878 2.0381756 0.77893496
000280 f0 c8 ad bf 8d 55 da 3f 42 a5 fa 3f dd 9f 04 3f
       -1.3576946 1.7057358 1.9581683 0.5180643
000290 fb 7f 27 3f d8 46 89 be 17 fa 8c bf a4 42 0e 3f
       0.6542966 -0.26811862 -1.1013821 0.55570436
0002a0 2d ab 60 3f 02 18 7e 3e 8c 10 be bf fa 64 14 c0
       0.87761194 0.24813846 -1.48488 -2.3186631
0002b0 3d 89 b4 bf 1c 03 54 bf 02 61 15 c0 29 96 e1 3f
       -1.4104382 -0.82817245 -2.334046 1.762395
0002c0 d1 9b 08 bd a9 d8 93 bf 62 f4 91 3f 31 3b 0b 3e
       -0.033351723 -1.1550494 1.1402705 0.13596798
0002d0 d6 ef b5 3f ac 30 97 bf 23 40 e3 3f 1a d6 b8 bf
       1.4213817 -1.1811728 1.7753948 -1.4440339
0002e0 be 48 09 c0 2d 51 37 bf 12 ca b4 bd 9a 96 22 40
       -2.1450648 -0.7160824 -0.08827604 2.540442
0002f0 70 7f 22 3e 54 63 cb 3e c1 6f a5 c0 38 52 9f 3f
       0.15868926 0.3972422 -5.169892 1.2446966
000300 a6 8e e9 bf 65 4a 82 40 5e d5 51 3e 73 50 5f 3e
       -1.8246658 4.0715814 0.2049155 0.21808033
000310 32 64 0f 40 91 46 1a bf b8 62 a5 3e 90 6c c6 bf
       2.2404904 -0.60263926 0.3230188 -1.5501881
000320 34 de 94 3f 35 d4 1d be 36 af 80 40 84 51 b8 bf
       1.1630311 -0.15412982 4.021388 -1.4399877
000330 6f e2 bc 3f 8d 50 03 40 a5 78 61 3f 07 4c 58 3f
       1.4756602 2.0517914 0.88074714 0.8449101
000340 6e 7e 5a 3f 4e 97 ba 3e 3c b5 d7 3f 62 12 5a bf
       0.85349166 0.3644356 1.6852183 -0.851843
000350 74 2f 2d 3e 12 a9 db bf 9a 0b 89 3f 8e 65 0f c0
       0.16912633 -1.7160971 1.0706666 -2.2405734
000360 22 12 31 c0 bb de b2 c0 b6 7e 58 3d 83 79 d0 40
       -2.7667317 -5.589689 0.052855216 6.514833
000370 0a 70 69 40 1e 1c 20 40 eb 3f 31 c0 b2 62 16 40
       3.6474633 2.5017161 -2.7695262 2.349774
000380 72 04 88 bf ad 77 cf 40 5c e3 d3 40 eb 33 6b bd
       -1.0626357 6.483359 6.621504 -0.05742256
000390 50 08 8e c0 d4 cb 02 40 71 4c 1d 40 04 0e a9 3f
       -4.4385147 2.0436907 2.4577906 1.3207402
0003a0 2d 84 de be 5f dd a4 3f 69 2b ed be 61 27 d1 3d
       -0.43460217 1.2880057 -0.46322182 0.10212589
0003b0 26 47 3d c0 34 da 06 c0 67 fe 0c 40 c7 a3 36 40
       -2.9574676 -2.107068 2.2030275 2.8537462
0003c0 ef 97 6e 3f 9d 1b ac be f5 ad 55 3d 1e 95 23 40
       0.9320058 -0.33614817 0.05216785 2.5559764
0003d0 8f 82 e0 bf 2d d7 e2 bf 88 82 42 40 95 03 8d 40
       -1.7539843 -1.7721916 3.039217 4.4066873
0003e0 c3 db 83 40 09 af 41 c0 78 ab 29 40 c7 9b 80 3f
       4.1205764 -3.0263083 2.6510906 1.004754
0003f0 bb c0 d9 3f 02 77 bf 3f ee 71 d2 3e 18 20 88 40
       1.7011942 1.4958193 0.41102546 4.2539177

bias_ih_l0 f4 [200]
000000 a5 3a b9 3f 49 3f 4d 3f 18 4c dc 3e ca b2 e8 3e
       1.4471022 0.8017469 0.43026805 0.45448905
000010 90 a4 43 3f e8 84 a0 3f bb b2 db bd 6b fa cf 3f
       0.7642298 1.254056 -0.107274495 1.6248296
000020 d8 ce 62 3e 03 18 7d be e4 4a 7e 3e e2 70 4b 3f
       0.22149217 -0.24716191 0.24833256 0.7946912
000030 6c 5b c3 3f 83 ae eb 3f 31 a3 c8 bf a0 7f 2a 3f
       1.5262275 1.8412632 -1.5674802 0.6660099
000040 9d c4 ba 3e cc b5 1a 3f 18 85 fc 3f 03 c4 f7 bd
       0.3647813 0.6043365 1.9728117 -0.12097933
000050 24 d2 59 3e 91 1b 94 3d 2b d5 bf 3e bb 10 01 40
       0.21271569 0.072318204 0.37467322 2.0166461
000060 2f 52 aa bf 1e 48 98 3f f6 13 e5 3e 0b c6 74 3f
       -1.330633 1.1897008 0.4474179 0.9561469
000070 3c 94 a6 3f 98 e9 39 3f 08 e3 22 3f 85 c5 0a 40
       1.3013988 0.7262206 0.6362767 2.1683056
000080 5b eb d0 3f 2f 81 89 bf cb 05 11 3f b2 5f 03 40
       1.6321825 -1.0742549 0.56649464 2.0527158
000090 52 e6 a4 3f 0a dc 81 3f 8d f9 95 3f 3c 88 c2 3f
       1.2882788 1.0145276 1.1716782 1.5197825
0000a0 cb 61 b5 3f ca 0d 90 3e 73 3e 12 3f 5b fb ca 3f
       1.4170469 0.2813552 0.5712654 1.5857958
0000b0 1e ae 5d 40 ff b6 08 bf b5 20 2d bf af a8 e0 3f
       3.4637523 -0.5340423 -0.6762803 1.7551478
0000c0 43 88 99 3f 1e 3f f2 3f ca 59 2b 3e a6 bb f0 3d
       1.1994709 1.8925512 0.1673347 0.11754541
0000d0 8b 1b cc 3e 79 48 10 bd 71 89 a2 3d 5c 54 71 bf
       0.39864764 -0.035225365 0.07936371 -0.9426935
0000e0 20 29 6a 40 64 ee b2 be 54 b8 b1 be ab 11 2e 3f
       3.65876 -0.34947503 -0.34710944 0.6799571
0000f0 06 06 c7 3d 63 e1 89 3f fb 0b c5 be 68 a2 44 3f
       0.09717946 1.0771908 -0.38485703 0.7681031
000100 f0 9f c4 3e dc 70 a0 3f a7 71 5c be 84 d7 50 3f
       0.38403273 1.2534442 -0.2152773 0.8157885
000110 57 ce bc 3e c2 04 27 3e cd 9c 95 be 7f ce 07 3f
       0.36876175 0.16310409 -0.29221192 0.53049463
000120 84 05 be 3f a3 7f 52 be 57 1a 2b 3e 8b 3d f4 3f
       1.4845433 -0.20556502 0.16709267 1.9081281
000130 dd 80 a9 3e f4 7d 44 bf cb 1b 81 3f 88 55 e3 bc
       0.33106127 -0.7675469 1.0086607 -0.027750745
000140 34 0d a8 bb de 81 a0 3f 60 9f 5c 3d 18 d7 88 3f
       -0.005128527 1.2539632 0.05386293 1.0690641
000150 6c 7a 7d 3e 1e cf ea be c5 d8 1a 3e 29 34 2b 3f
       0.24753731 -0.45861143 0.15121754 0.66876465
000160 42 36 19 3f 6f 88 05 bf b5 ca c7 be 58 56 61 bf
       0.59848416 -0.52161306 -0.3902184 -0.88022375
000170 ad b3 1d 3f e5 0d a6 3f 39 19 b2 be 46 48 64 3d
       0.6160229 1.297299 -0.34784868 0.055732988
000180 3a fc 62 3f 65 bd 37 bd 76 13 5d bd 1b 78 77 3f
       0.8866612 -0.044858355 -0.053973638 0.9666764
000190 75 cf 45 3a 99 22 44 3e 98 88 b0 3e 7b 84 2d 3e
       0.0007545867 0.19153823 0.34479213 0.16945069
0001a0 b4 ad 95 3e 3a ba 8c 3f b8 e0 1a bf e4 91 6a 3e
       0.29234087 1.0994332 -0.60499144 0.22907215
0001b0 c3 54 b2 3d 64 46 66 3f db af cc 3d 65 99 58 3e
       0.08707573 0.8995116 0.09994479 0.21152265
0001c0 b1 91 df be d4 21 81 bf 70 df 35 bf 8e 0f b7 3e
       -0.4366584 -1.0088449 -0.71044064 0.35754055
0001d0 ce ab 95 bf a8 a3 09 bf cc 97 f4 3e ce 02 c9 3e
       -1.1693056 -0.53765345 0.47772062 0.39259952
0001e0 7f 22 06 3f ae c1 51 bf c1 b3 35 3f 45 a4 3a 3f
       0.52396387 -0.81936157 0.7097741 0.72906905
0001f0 44 5f 05 3e e0 57 05 3f cc f8 18 3d fe bd 5a be
       0.13024622 0.5208721 0.037346646 -0.21361539
000200 28 40 93 be 26 ba 71 3e 9b 04 8a be bc f7 e9 3e
       -0.28759885 0.23606166 -0.2695664 0.4569682
000210 cc 92 db 3e 38 ae 31 ba 15 84 c8 bf de ae 05 3e
       0.42885435 -0.0006777975 -1.5665308 0.13054988
000220 41 49 3a bf 28 99 a3 3e 26 4e 6c 3f b7 86 12 bf
       -0.72768027 0.31952786 0.92306745 -0.5723681
000230 39 9a ae 3f 64 07 21 be 27 66 20 3f aa 0d 32 3f
       1.3640815 -0.15725476 0.6265587 0.695521
000240 08 78 f1 be be 6d 99 bc 7f b2 95 3f 3b f8 50 bf
       -0.4716189 -0.018729087 1.1695098 -0.8162877
000250 55 9e 91 3f 82 55 b9 be 6b d4 84 3f 7d 7e 05 40
       1.1376444 -0.3619805 1.0377325 2.0858452
000260 9a dd 20 3f 9e d0 f0 3f d8 56 20 40 60 92 8d 3f
       0.6283814 1.8813665 2.5053005 1.1060295
000270 51 40 a2 be ff 5a c9 3f 9b 3e 26 40 a8 05 d0 3f
       -0.31689695 1.5730895 2.5975711 1.6251726
000280 5f 77 32 bf b6 cb 18 3f 08 3f fd 3f 5e 7a 1a 3f
       -0.69713396 0.5968584 1.9784861 0.6034297
000290 50 76 a9 be 97 e4 60 3e f8 fd 8f 3f 78 c4 c5 3f
       -0.33098078 0.219622 1.124938 1.5450583
0002a0 15 ab f0 3f 20 bd 60 3f f6 f5 0a 40 d6 5b dc be
       1.880221 0.8778858 2.1712623 -0.43038815
0002b0 fd b8 61 3d 8d 57 f6 3f 8b d7 16 3d c1 aa e4 3e
       0.05510806 1.9245468 0.03682665 0.44661525
0002c0 16 77 d9 3d c4 25 d1 3f de 3f bd 3f 22 d9 7f 3f
       0.10618417 1.633965 1.4785116 0.99940693
0002d0 18 03 79 3f 04 3c 13 3f 56 a7 75 3f 27 24 04 3f
       0.97270346 0.5751345 0.9595846 0.51617664
0002e0 99 d1 4b 3e 86 ea 12 3f 83 12 51 3f f5 f2 3a 3f
       0.19904174 0.57389104 0.8166887 0.73026973
0002f0 f2 aa af 3e fc e2 95 3f 63 97 50 3f e0 1c 06 40
       0.34310108 1.1709895 0.81481 2.0955124
000300 91 70 5f 3f fc ea 0e 3f 85 4d 8b 3f e2 51 45 3e
       0.8728114 0.5582731 1.0883032 0.19269517
000310 80 8a 1d 40 bb 4d 09 bd 87 40 f9 bd 34 11 4a 3f
       2.4615784 -0.033521395 -0.12170511 0.789325

bias_hh_l0 f4 [200]
000000 89 52 bb 3f ca 68 32 3f 63 79 25 3f db 3b d1 3e
       1.4634563 0.69691145 0.64638346 0.4086598
000010 f7 53 5e 3f 72 80 9e 3f 4e 52 0a be 65 bb c8 3f
       0.8684687 1.2382948 -0.13507959 1.5682188
000020 86 50 62 3e 18 42 a8 bd fa e4 90 3e f1 ed 2c 3f
       0.2210103 -0.082157314 0.28299695 0.6755057
000030 94 8b c3 3f 10 33 e0 3f 2a 74 b1 bf 22 0b 4c 3f
       1.5276971 1.7515583 -1.3863575 0.7970449
000040 97 ab 00 3f 06 ad 34 3f a0 3e 02 40 56 69 89 bd
       0.50261825 0.7057651 2.0350723 -0.06709544
000050 31 30 88 3a 62 a4 c8 3d 8e c7 18 3f ad 13 02 40
       0.0010390339 0.097969785 0.59679496 2.032451
000060 f0 f3 ad bf d5 0e 98 3f a9 26 15 3f a4 f6 5f 3f
       -1.3590069 1.1879526 0.58262116 0.8748572
000070 cb 6e 90 3f c9 22 50 3f 74 ab 2e 3f b1 b0 04 40
       1.1283811 0.8130308 0.68230367 2.0732844
000080 e5 dd d5 3f 33 2d 87 bf 6a ab 01 3f 41 3f f8 3f
       1.6708342 -1.0560669 0.5065218 1.9394304
000090 53 ee 99 3f 96 69 65 3f 65 67 99 3f c6 69 a1 3f
       1.2025856 0.89614236 1.1984679 1.2610404
0000a0 37 12 b4 3f 6f e9 00 3e 2b 1e 39 3f 6f 28 bd 3f
       1.4068059 0.12589048 0.7231166 1.4777964
0000b0 cf a2 57 40 65 40 c1 be 17 3d ed be 45 5a e2 3f
       3.369312 -0.37744442 -0.4633567 1.7683798
0000c0 1b 2b 9a 3f 98 7e e8 3f 6d 8a 65 3e 84 dd fb ba
       1.2044405 1.8163633 0.22416086 -0.0019215797
0000d0 04 e8 df 3e 8e 9b 0e 3c 36 bb db bd 52 23 74 bf
       0.437317 0.008704079 -0.10729067 -0.95366395
0000e0 d0 7b 71 40 de 09 94 be 9b 2e 8b be 7f b7 4a 3f
       3.773182 -0.28913778 -0.27183995 0.7918624
0000f0 9f 54 f7 bd 6c 2c 80 3f 07 49 e9 be 19 f4 26 3f
       -0.12076687 1.0013556 -0.45563528 0.65216213
000100 4a 6c 8b 3e 9e a0 a8 3f 5e 0c 9a be a0 85 33 3f
       0.27231055 1.3174016 -0.3008756 0.7012577
000110 ce 8e 7f 3e 5b 6e b4 3e 6b 2b ef be 5c fb e8 3e
       0.2495682 0.35240445 -0.46712813 0.45504272
000120 60 9d bf 3f 5e 8e 94 bd d5 a9 b8 3c 09 14 df 3f
       1.4969902 -0.07253717 0.02254192 1.7427989
000130 f5 23 8a 3e 1c 75 3c bf 88 03 88 3f 94 bf ba 3d
       0.26980558 -0.73616195 1.0626078 0.09118572
000140 90 76 4a bd 80 48 98 3f e2 95 be bd 5d 43 95 3f
       -0.049429476 1.1897125 -0.09305932 1.1661183
000150 ae 57 3f 3c 50 d3 c7 be 80 94 07 3e 1f c2 2c 3f
       0.011678619 -0.39028406 0.13240242 0.67483705
000160 5a 39 df 3e 04 50 03 bf c5 da 0f bf d8 5e 5a bf
       0.43598443 -0.5129397 -0.5619319 -0.8530097
000170 68 ac 1a 3f a6 3a c4 3f 64 91 be be 4c 01 5b 3d
       0.6041932 1.5330398 -0.372203 0.053468034
000180 e5 39 86 3f 00 df e9 3d 14 0f ae bd 89 e6 60 3f
       1.0486418 0.11419487 -0.0849897 0.8785177
000190 1f dc 19 bd c5 fe 2c 3e a3 55 d1 3e 1f 5e 59 3d
       -0.03756344 0.16894062 0.40885648 0.053068276
0001a0 c1 b0 ca 3e 25 d6 89 3f 94 e1 25 bf 0d e8 8d 3e
       0.39587978 1.0768477 -0.6479733 0.27716103
0001b0 c9 d8 24 3e 3b aa 6b 3f b6 73 2f bd 23 da 8f 3e
       0.16098322 0.92056626 -0.04283496 0.28096113
0001c0 72 26 06 bf a4 b2 8c bf fd 11 31 bf 72 19 b1 3e
       -0.5240241 -1.0992017 -0.6916807 0.34589726
0001d0 72 2c a4 bf ed 57 02 bf b6 1d bb 3e b3 6c 54 3e
       -1.2826064 -0.50915414 0.36546105 0.2074459
0001e0 b8 d7 03 3f e0 10 58 bf 13 ac 0c 3f fc d9 50 3f
       0.51501036 -0.8440075 0.54950064 0.8158262
0001f0 5d ee 3e 3e 85 a4 cd 3e d0 b6 43 3d f9 97 a4 be
       0.18645616 0.4016458 0.047781765 -0.32147196
000200 5d c1 77 be e3 6a d6 3e e9 a9 68 be 9b 52 e7 3e
       -0.24194856 0.41878423 -0.22721066 0.4518021
000210 17 55 bd 3e 30 17 dc 3d fa 81 dd bf 1d 7b 5d 3e
       0.3697898 0.1074661 -1.7305291 0.21628995
000220 65 84 0f bf cb f6 9e 3e a2 2b 80 3f 1c 35 42 bf
       -0.56061393 0.31047663 1.0013316 -0.7586229
000230 cd 0f aa 3f 4c b6 93 bd 3d 5d 54 3f 80 05 10 3f
       1.3286072 -0.07212505 0.8295477 0.5625839
000240 33 ae be be 2b e3 ef bc 67 40 9b 3f 42 f8 1b bf
       -0.37242278 -0.029283127 1.2129029 -0.60925686
000250 64 9b 8a 3f 2e 34 01 bf 13 8b 9f 3f 70 c8 07 40
       1.0828671 -0.50470245 1.2464317 2.1216087
000260 fc 36 04 3f fb ab ee 3f cb cc 29 40 bb 86 8b 3f
       0.516464 1.8646234 2.6531246 1.0900491
000270 0c c8 b0 be b9 5e bc 3f 3d 1b 2f 40 77 5d d4 3f
       -0.34527624 1.4716407 2.7360375 1.6591023
000280 6f 79 3f bf 70 25 27 3f 3a cc 06 40 aa 64 cf 3e
       -0.7479467 0.652915 2.106215 0.40506488
000290 06 7d ca be d3 a3 ca 3d 0f a4 84 3f 2c 19 c2 3f
       -0.3954851 0.09894528 1.0362567 1.5163932
0002a0 68 54 00 40 8c 35 7c 3f 94 54 0c 40 9c 9e 1f bf
       2.0051517 0.98519206 2.1926622 -0.62351394
0002b0 2a 77 35 be a1 98 e6 3f 5e 7a 53 bd a2 2b 05 3f
       -0.17721239 1.8015329 -0.05163037 0.52019703
0002c0 04 73 77 3e 0d 55 ca 3f 9d cf a7 3f a7 bd 84 3f
       0.24164969 1.5807205 1.3110234 1.0370377
0002d0 2f e1 5e 3f bc 28 e8 3e ed 1f 77 3f ee 98 d7 3e
       0.8706235 0.45343578 0.9653309 0.42108864
0002e0 23 9d ea 3d 29 18 20 3f 23 63 65 3f 58 fb 3c 3f
       0.11455753 0.62536865 0.89604396 0.7382102
0002f0 52 e2 82 3e a3 7e 83 3f ef e1 5d 3f 57 1e 07 40
       0.25563294 1.0273021 0.8667287 2.1112268
000300 63 a2 41 3f c9 36 d4 3e 1b e8 ab 3f b2 b3 9e 3e
       0.7563841 0.41448048 1.3430208 0.30996472
000310 96 05 16 40 1a 5c b0 bd d7 20 01 be 61 1a 13 3f
       2.344091 -0.08611317 -0.12610184 0.57462126

weight f4 [74, 50]
000000 44 81 f5 be d8 2a 3c be 03 98 2d be 4f 0d f4 3e
       -0.47950184 -0.18375719 -0.16952519 0.47666404
000010 17 65 55 bd 60 01 11 bf b1 f6 a1 be b1 63 2b be
       -0.05209836 -0.56642723 -0.31633523 -0.16737248
000020 ee db 09 bf 90 43 7e be 71 f8 85 be 4d e5 96 3e
       -0.5385121 -0.2483046 -0.26166108 0.29471818
000030 09 a8 20 3e 6f de d6 3e 78 60 6b be b1 38 b5 be
       0.156891 0.41966578 -0.22986019 -0.35394815
000040 aa 88 b9 3e 81 53 c6 3e af 22 e9 be d0 d3 fa 3e
       0.3623708 0.38735583 -0.45534274 0.48989725
000050 26 93 89 3e c7 b7 8a 3e 2c be 19 bf 13 d5 0c be
       0.26870078 0.27093336 -0.60055804 -0.13753156
000060 d0 56 7f 3e b5 1c 89 be 97 3e 9d 3e 3e 25 2a bf
       0.2493546 -0.26779714 0.30711815 -0.6646308
000070 66 84 94 3e 3a 04 67 be 14 58 8a 3e 8d 97 6b be
       0.29007262 -0.22560206 0.27020323 -0.23007031
000080 03 93 db be 3a bf 65 3e 54 12 93 3e 65 4e 30 be
       -0.428856 0.22436228 0.2872492 -0.17217405
000090 5f 1e 30 3f a7 c7 ab 3e 63 f2 c3 be 54 38 03 bf
       0.6879634 0.3355076 -0.38270864 -0.51257825
0000a0 8a dc 74 bf 42 d7 c9 3e c5 f5 55 3e 12 76 58 be
       -0.95649016 0.3942204 0.20894535 -0.2113879
0000b0 3d 23 b0 3e 15 7b 73 be 3f b9 8a be 10 6f 9a 3e
       0.34401885 -0.23777421 -0.27094457 0.3016286
0000c0 60 86 18 be 78 bf 04 3f 8a 6b 74 be db 2b 3d bd
       -0.1489501 0.5185466 -0.23869148 -0.046184402
0000d0 52 8b 05 be aa 00 0e 3f 1c 1e d6 3d a5 19 0a bf
       -0.13041428 0.55469763 0.10454962 -0.5394538
0000e0 3b 9b d0 be 43 db ee bd 28 8a e3 be 79 2a 94 be
       -0.4074343 -0.116629146 -0.44441342 -0.28938654
0000f0 f3 66 5e be 56 f0 71 3e 10 a9 85 3d c9 bf 06 3f
       -0.2171896 0.23626837 0.06526387 0.5263639
000100 2d 97 1e be 2b df 3d be 45 f8 c3 3e 72 ce de 3e
       -0.15487356 -0.18542163 0.38275352 0.4351688
000110 ed c0 bf be c7 01 f0 3e 35 18 9c 3e 49 0b 1c 3e
       -0.37451878 0.46876356 0.30487218 0.1523868
000120 18 e0 05 bf 50 dc 2c be 84 5c 45 3e a0 21 90 be
       -0.52295065 -0.16880918 0.19273573 -0.28150654
000130 5d f1 97 3e 65 e6 33 bf 5d 20 70 3e ef 82 6d be
       0.29676333 -0.7027343 0.23449846 -0.23194478
000140 dd 81 81 3e 42 d7 09 be f1 e8 a9 be 03 0c 27 3e
       0.2529439 -0.1346102 -0.33185533 0.16313176
000150 fa 45 e8 3e f5 43 ae bd 1a 82 18 3f 88 c5 86 3e
       0.45365888 -0.085090555 0.5957352 0.2632258
000160 ed 52 a2 be 3c 73 f1 be cc 92 4a bf 71 43 5e 3e
       -0.31703892 -0.4715823 -0.79130244 0.21705414
000170 50 48 b2 3e fe 3d 64 be a6 e0 a8 3e 5b 09 89 be
       0.34820795 -0.22289273 0.32983893 -0.2676495
000180 33 f9 50 be c4 be e3 3e 73 00 70 be 58 36 a6 3e
       -0.20407562 0.4448148 -0.23437671 0.32463336
000190 a2 73 50 3f d7 f0 47 bf 1d df 7c 3f 63 a0 cc bf
       0.8142644 -0.7810187 0.98777944 -1.5986446
0001a0 0a e3 d0 be 4d 97 9c be 08 ac ae be 82 0d 6d bf
       -0.40798217 -0.30584183 -0.34115624 -0.92598736
0001b0 92 50 8b bf ca 07 d9 3f 65 db 0c bf c5 b8 09 c0
       -1.0883963 1.6955502 -0.5502227 -2.1519024
0001c0 61 00 f2 be ba dd eb bf 08 ba 23 c0 2d 79 0a 3f
       -0.47265914 -1.842704 -2.5582294 0.5409115
0001d0 57 6a e3 bd 67 b9 56 bf ec c2 1f bf 0c c6 05 bf
       -0.11104267 -0.8387665 -0.624068 -0.5225532
0001e0 dc 07 7d be f5 1e f3 be 68 43 ef 3f 91 0c b1 3e
       -0.2471003 -0.47484556 1.8692446 0.345799
0001f0 80 25 7d bf 93 37 18 3f 55 f5 a9 bf dc 27 de 3e
       -0.98885345 0.594598 -1.3277994 0.43389785
000200 86 6a 40 40 73 00 b7 be 6e 4c c2 bf 29 c6 33 40
       3.0065017 -0.3574253 -1.5179574 2.8089697
000210 12 bd 82 be 76 ad 67 3d e3 db 21 be b8 42 35 bd
       -0.25534874 0.05656191 -0.15806536 -0.04425308
000220 3d e6 82 bf ae 62 0d be 0f c7 11 bf 4e a8 b5 bf
       -1.0226513 -0.13807175 -0.56944364 -1.4191988
000230 bb ea f9 bf ae ed 03 c0 89 56 d5 bf b7 80 87 3f
       -1.9524759 -2.0613818 -1.6667033 1.0586156
000240 cb d9 42 bf 93 e6 d3 bf 62 35 53 bf 81 75 59 bf
       -0.76113576 -1.6554741 -0.8250333 -0.8494492
000250 ee 37 90 be d3 06 23 bf 28 d4 d5 be 3e a6 3a be
       -0.2816767 -0.6368229 -0.41763425 -0.18227479
000260 44 11 b7 be 85 2f 98 3e 5f 35 e6 bd 76 d8 2e bf
       -0.3575536 0.29723755 -0.112406485 -0.68299043
000270 9d b1 fe be c0 c5 d1 bb 3c e2 0e bf 1e 18 42 be
       -0.49744883 -0.0064017475 -0.55813956 -0.18954512
000280 5a 52 47 be 3a e0 2d 3e 9d 16 ff 3d 9c 39 22 3f
       -0.19465008 0.16980067 0.12455485 0.63369155
000290 c6 f8 a6 bd 27 ef cf be 15 ee 19 3e 37 5f e4 3e
       -0.081529185 -0.40612146 0.15032227 0.44603893
0002a0 1a ec b7 be 21 8e 23 3f 2b 07 b9 3e 07 62 c7 3e
       -0.3592232 0.63888747 0.3613828 0.38941976
0002b0 9e fd f0 be 84 85 8f be c3 45 72 3e 93 b7 f0 be
       -0.47068495 -0.28031552 0.23659424 -0.47015056
0002c0 7e d4 ef 3d 44 69 1a bf e2 cb a2 3e a0 43 e9 bd
       0.117104515 -0.6031687 0.31796175 -0.113898516
0002d0 f7 74 5d 3d 4f b5 50 be 2c b8 c2 be ec 70 aa 3e
       0.054066624 -0.20381664 -0.38031137 0.33289278
0002e0 c4 f1 b1 3e 5d c2 e8 bd 3a 3f 2b 3f 97 15 ac 3e
       0.34754765 -0.11365197 0.6689335 0.33610222
0002f0 da 9b ba be d2 1f d5 be 81 22 6e bf 83 f6 94 3e
       -0.3644703 -0.4162584 -0.930214 0.29094324
000300 4e ad 83 3e 6d 16 84 be 7f 0d a7 3e 74 b8 d5 be
       0.25718158 -0.2579836 0.32627484 -0.4174229
000310 23 f0 f8 bd b4 e0 e7 3e 2e 4d d4 be 5b 39 e3 3e
       -0.121551774 0.45288622 -0.41465133 0.44379696
000320 f1 7f fa be b7 54 14 bc 73 52 9d be af 9c 0f 3f
       -0.48925737 -0.009053401 -0.30726966 0.56098455
000330 06 c0 48 3d 32 70 05 bf eb 8a e9 be 75 60 7b be
       0.049011253 -0.5212432 -0.45613798 -0.24548514
000340 c3 ad b4 be 17 85 ba be cf 84 62 be 76 04 f4 3d
       -0.3528882 -0.36429664 -0.22120975 0.11914913
000350 4e 11 da 3d 05 99 ef 3e 45 86 33 be 68 1b 9e be
       0.10647832 0.46796432 -0.17531689 -0.30880284
000360 a0 2e aa 3e d7 dc 03 3f af 8f 8b be 39 f2 dd 3e
       0.33238697 0.5150885 -0.2725806 0.43348864
000370 0f c6 95 3e b8 1c 95 3e c8 df e6 be a2 fd 8d bd
       0.2925267 0.29123473 -0.45092607 -0.06933142
000380 92 9b bf 3d 52 00 97 be 62 a4 66 3e bf 3d 2f bf
       0.093558446 -0.29492432 0.22523645 -0.6845359
000390 60 8e ba 3e e3 fd 40 be 16 fd 9d 3e 45 ec 8c bd
       0.36436749 -0.1884685 0.30857152 -0.06881002
0003a0 83 97 9c be de d3 86 3e 9c 40 a8 3e 7a 17 6b bd
       -0.30584344 0.26333517 0.32861793 -0.057395436
0003b0 7d 58 dc 3e 42 84 aa 3e ac e9 ac be 14 c4 ab be
       0.4303626 0.3330403 -0.33772027 -0.33548033
0003c0 aa f7 4c bf 7d 47 db 3e 4e 9a e3 3e 28 98 be be
       -0.80065405 0.4282798 0.44453663 -0.3722546
0003d0 7a 62 ed 3e f7 42 de be 02 34 90 be ce 07 01 3f
       0.46364194 -0.43410465 -0.2816468 0.50402534
0003e0 da a5 83 be 53 d4 db 3e 02 f0 ba be 19 08 86 bd
       -0.25712472 0.42935428 -0.36511236 -0.06544513
0003f0 5c 76 18 be 74 43 21 3f 78 ac 45 bd 92 0b 30 bf
       -0.148889 0.6299355 -0.048260182 -0.68767655

bias f4 [74]
000000 4b 98 91 be 5f e1 81 be ef 80 95 3f 73 a0 35 be
       -0.28436503 -0.25367257 1.1679972 -0.17736988
000010 c7 87 fa bd 6a 88 8c be 6f 13 81 3f 64 d3 38 be
       -0.12232929 -0.27447826 1.0084056 -0.18049389
000020 4d f2 2c be 00 9a 29 be 20 fe eb bd 14 0b 88 be
       -0.16889305 -0.16562653 -0.1152308 -0.26570952
000030 e2 43 8b be 2d 2b b0 be 9a f5 c3 be 2f 20 8b be
       -0.27200228 -0.3440794 -0.38273317 -0.27172992
000040 51 21 88 be d9 f3 4e be 83 cf 0a bf 90 03 8f bc
       -0.26587918 -0.20210208 -0.5422289 -0.017457753
000050 9b d8 37 be 23 6f 6c be 4d d6 05 be d7 7f 84 be
       -0.17953722 -0.2308927 -0.1307003 -0.25878784
000060 4d f9 23 be fa 5c 04 be 47 e4 e3 bd ef 7f 9e be
       -0.1601307 -0.12926093 -0.11127525 -0.3095698
000070 3a ed 68 be 76 f0 20 be c0 8c 3e be 62 4c b6 be
       -0.22746745 -0.15716729 -0.1860838 -0.3560515
000080 c4 b3 5a be 12 9a 99 be c7 83 ae be e8 d7 9c be
       -0.21357638 -0.3000036 -0.34084913 -0.30633473
000090 60 26 9d be 0c 20 1b 3f da aa 09 3f c6 1b a7 bc
       -0.3069334 0.60595775 0.53776324 -0.020398986
0000a0 05 5c 3c 3f 4a dc 73 3e fe ee 7b be 50 ce 87 3f
       0.7357791 0.23814502 -0.24602887 1.0609837
0000b0 b4 60 d0 3e d9 a9 a6 3f 81 3f 15 bf 86 81 14 bf
       0.4069878 1.3020583 -0.58300024 -0.5801014
0000c0 a8 8f 19 bf 06 06 77 c0 50 d1 7b bf 8c 59 88 3d
       -0.5998483 -3.8597426 -0.9836626 0.06657705
0000d0 6c 8b 41 c0 52 4f 58 bf 48 8b 20 bf b2 95 6e bf
       -3.0241346 -0.84496033 -0.62712526 -0.93197167
0000e0 f1 23 70 be 5a 8b 88 bf 6f 54 78 40 c9 b4 5d bf
       -0.2345121 -1.0667527 3.8801534 -0.8660398
0000f0 5d 67 79 3e 11 2c 92 3e 93 4e a7 bf 09 b0 ea 3e
       0.24355836 0.28549245 -1.3070854 0.4583743
000100 71 f3 c1 3f 18 c3 43 3f a8 84 7a bf 5b 86 38 bf
       1.5152417 0.76469564 -0.9785867 -0.7208001
000110 6f c7 5a 3d 0b 4b 8d bf 4f f3 4d bf 55 e5 7d bf
       0.05341285 -1.1038526 -0.80449384 -0.9917806
000120 60 b3 eb 3e 41 97 5f bf
       0.4603529 -0.8734017

weight f4 [50, 2]
000000 a5 2b 09 3f 67 23 15 3f 1a 41 94 3e f9 c6 2a 3f
       0.5358222 0.58257145 0.2895592 0.6670986
000010 90 ed 77 bd 20 45 88 be 78 ca 08 3e 90 bd 1d 3d
       -0.06052929 -0.26615238 0.13358486 0.03851086
000020 f0 24 43 be 67 24 2e bf c7 de 2b 3f b0 0a 55 3e
       -0.1905706 -0.68024296 0.67136806 0.20804858
000030 4c 51 38 be 00 41 16 3e 73 e7 0e 3f c6 66 f6 3e
       -0.17999762 0.14673233 0.55821913 0.48125285
000040 00 09 66 be 80 7c 49 3d 92 c1 31 bf e5 04 ce be
       -0.2246437 0.049190998 -0.6943599 -0.4023811
000050 40 66 cb 3c e1 26 cc be e4 28 14 be 4c 0e 80 be
       0.02482903 -0.39873412 -0.14468724 -0.25010908
000060 50 4d 67 3d c1 b4 a6 be 98 6a c4 be e7 d4 9a be
       0.056470215 -0.3255978 -0.38362575 -0.30240557
000070 84 42 14 3e f8 72 e8 3d 40 21 1a be f0 12 ff bd
       0.14478499 0.113500535 -0.15051746 -0.12454784
000080 91 2a 1b 3f ca b3 21 bf 00 f7 83 bd a7 9a 0d bf
       0.60611826 -0.6316496 -0.06443596 -0.55314106
000090 5a c2 6f be 7f 1a 23 bf 62 3d f3 3e ad d0 1a 3f
       -0.23413983 -0.63712305 0.4750777 0.60474664
0000a0 69 a4 ba be 91 55 0e bf 3e ee d5 3e 0b 1d fd be
       -0.3645356 -0.55599314 0.41783327 -0.4943622
0000b0 d5 71 19 bf c5 b0 ed be ee 83 04 bf 62 b2 07 bf
       -0.5993932 -0.46423927 -0.5176381 -0.53006566
0000c0 94 d2 39 be f6 bf a8 3e 10 ff 6c be 8e 65 11 bf
       -0.18146735 0.32958955 -0.23144174 -0.56795585
0000d0 a2 f5 f7 3e ce aa 23 bf 0a dc e2 3e 40 3e 23 3e
       0.4842959 -0.639325 0.443085 0.15941715
0000e0 52 75 f9 be 80 a2 07 bf 6f 6f 26 3f 30 49 32 3d
       -0.4872232 -0.5298233 0.65013784 0.04352683
0000f0 7c 54 4e 3e 60 db e1 bc b0 1e 84 bd a1 f1 21 3f
       0.20149416 -0.027570426 -0.06451166 0.6325932
000100 c5 04 e6 be 60 fb 7f 3d e0 fa 8a bd 78 fd cb be
       -0.44925514 0.06249559 -0.06786132 -0.3984182
000110 4a 9c bb 3e e1 ec 19 bf 1a 2b 85 3e 4b c2 e2 be
       0.36642677 -0.60127074 0.26009446 -0.4428886
000120 39 51 0b bf 90 e3 44 be e0 88 d9 3c 48 36 a8 be
       -0.5442081 -0.19227433 0.026554525 -0.32853913
000130 aa b4 8d 3e e0 e2 b0 be 71 a4 e4 be 69 dc b2 be
       0.27676898 -0.34548092 -0.4465671 -0.34933785
000140 b8 48 ea bd 80 0e d5 3d 66 af b3 3e 5e ad 11 bf
       -0.11439651 0.10403156 0.35094756 -0.5690516
000150 19 7f 2a bf 52 34 25 bf 88 bd 4a 3e 04 60 6f be
       -0.66600186 -0.6453296 0.19798863 -0.23376471
000160 2e 99 5e be 8d 08 1e bf 3c 97 6c 3e 05 95 0f 3f
       -0.21738121 -0.617318 0.23104566 0.5608676
000170 a2 6a ef 3e 98 4e e8 bd 5d 62 09 bf d7 98 1b 3f
       0.46761042 -0.113431156 -0.53665715 0.6078009
000180 50 1e d7 3d 24 b7 4e be 1e 11 34 bf 9a d7 d1 3e
       0.105038285 -0.2018705 -0.7033862 0.40984803

bias f4 [50]
000000 d9 7d 2d 3f 9b 78 01 3f 00 02 02 3c 9a e0 bd 3e
       0.67770153 0.50574654 0.007935047 0.3708542
000010 da 85 c8 be d4 3e 7a 3e 79 a1 2e 3f e8 e9 c4 be
       -0.3916462 0.2443803 0.6821514 -0.38459706
000020 ce 28 d1 3e 32 f3 a1 3e 54 83 34 bf e9 f1 24 3f
       0.40851444 0.31630856 -0.7051289 0.64431626
000030 cf 72 0e 3f da 65 e6 be 1a 93 b3 3e d5 e9 b5 be
       0.55643934 -0.44999582 0.35073167 -0.35529962
000040 f8 b9 23 bf 40 6c 8d bd ca ef 9e 3e 30 e1 33 bd
       -0.6395564 -0.06905413 0.3104232 -0.043915927
000050 d4 71 4a 3e 00 20 37 3b 3a 80 da 3e bc 04 81 be
       0.19769984 0.0027942657 0.42675954 -0.25198925
000060 b5 df 03 3f d8 f5 04 3e fa 6d 1e bf 55 5c e1 be
       0.51513225 0.12984407 -0.6188656 -0.44015756
000070 50 87 b9 3d 00 83 f9 3d 66 e5 0a bf 8a cd da be
       0.09059012 0.121831894 -0.54256284 -0.4273494
000080 c0 2e aa 3c 34 67 2b bf b8 3a fd 3d a0 0a 25 bf
       0.020774245 -0.6695435 0.12364715 -0.6446934
000090 8f 2d 08 3f 62 48 b9 3e 73 6d 0c 3f 06 8c e2 be
       0.53194517 0.36188036 0.54854506 -0.44247454
0000a0 da 59 ed be bf db 22 3f 9d 30 1f bf 68 4b 00 3e
       -0.46357614 0.63616556 -0.62183553 0.12528765
0000b0 5c a6 32 3e 0e e0 f7 3e 6d d1 30 3f 62 b1 e7 3e
       0.17446274 0.48413128 0.6906956 0.4525252
0000c0 f5 95 c0 be dd 7f 1b 3f
       -0.37614408 0.6074198
