model/saved_models/en/model_en_pretrained_epoch_10.pt (torch_old, 231736 bytes, 23 tensors)

weight f4 [74, 20]
000000 00 00 00 00 00 00 00 00 00 00 00 00 00 00 00 00
       0.0 0.0 0.0 0.0
000010 00 00 00 00 00 00 00 00 00 00 00 00 00 00 00 00
       0.0 0.0 0.0 0.0
000020 00 00 00 00 00 00 00 00 00 00 00 00 00 00 00 00
       0.0 0.0 0.0 0.0
000030 00 00 00 00 00 00 00 00 00 00 00 00 00 00 00 00
       0.0 0.0 0.0 0.0
000040 00 00 00 00 00 00 00 00 00 00 00 00 00 00 00 00
       0.0 0.0 0.0 0.0
000050 3c 97 74 bc 1b d6 0d 3c e1 bb 33 b9 05 ae 27 3b
       -0.014928635 0.008657004 -0.0001714076 0.0025585901
000060 32 6d bb 3b ef 96 81 bc 23 43 11 b9 83 fb 64 bb
       0.005719804 -0.015819041 -0.00013853288 -0.0034939952
000070 f7 45 45 bb 69 81 44 bc 93 a6 53 3d e8 9a 53 3c
       -0.0030101517 -0.011993744 0.05167253 0.0129153505
000080 d3 20 be 3b 70 47 c5 ba dc cc 47 3c e0 cd 23 bc
       0.005802253 -0.0015051197 0.012194838 -0.009997815
000090 6c b2 49 3c e3 2f 79 3c fb d3 33 3a b9 75 2b 3c
       0.0123106055 0.015209171 0.00068598957 0.010465079
0000a0 bb d6 81 bd 61 d6 28 bf 15 4d 5a 3f 02 dd ea be
       -0.06339785 -0.65952116 0.8527387 -0.4587174
0000b0 6b b7 32 bf 46 51 be be 22 a8 7a 3f 9d b5 33 bf
       -0.69811124 -0.37171382 0.979128 -0.70198995
0000c0 bb b4 b3 3e e8 a7 81 bf b9 62 aa 3e f6 97 51 bf
       0.35098824 -1.0129366 0.33278444 -0.818725
0000d0 e7 7f b2 3c f6 f5 91 3f c4 99 d3 3f a9 c6 5c bf
       0.021789504 1.1403186 1.65313 -0.8624063
0000e0 f7 d6 74 3e e4 52 8b bf 25 8d 7b bd aa a1 71 bd
       0.23910128 -1.0884671 -0.061413903 -0.058992065
0000f0 e1 65 47 3f 27 42 c4 3f d8 0b ce 3f eb 73 ce be
       0.7788983 1.5332688 1.6097364 -0.40322813
000100 d7 9f 55 bf 79 09 19 3f 01 8f 52 bd 6c 37 84 bd
       -0.8344702 0.5978008 -0.05140591 -0.064558834
000110 87 77 fe be 9c 77 ee 3e 66 b7 83 be f3 9b 88 bf
       -0.49700567 0.4657563 -0.2572586 -1.0672592
000120 7f 92 00 40 50 77 09 bf 7b 25 64 3e 2b 72 32 3f
       2.0089414 -0.5369768 0.22279923 0.69705456
000130 e9 9c b6 bf d8 eb 67 3f a5 10 14 3e f2 78 69 3e
       -1.4266635 0.90594244 0.14459474 0.22800043
000140 0f d6 1c 40 9a 8d 97 bf 94 7d 86 3f cd 8d 0f 3f
       2.450565 -1.1840088 1.0507073 0.56075746
000150 09 14 d1 bf f4 6c 9f bf 25 61 29 3f c6 bd 41 be
       -1.6334239 -1.2455125 0.66163856 -0.18920049
000160 ab f6 c3 3e da d0 c2 be 40 a0 03 3f 91 ab 41 bf
       0.3827413 -0.38049966 0.514164 -0.75652415
000170 10 6a e3 be 16 af eb be 2c 2f 76 bf 3c 1d de be
       -0.44416857 -0.46032017 -0.9616573 -0.4338168
000180 4d 9c d0 bf 6d d5 a9 bf f4 ac 31 be 08 ea 7f 3f
       -1.6297699 -1.3268257 -0.17351133 0.9996648
000190 69 39 01 3d 43 ed 3d bf e0 77 98 be 03 9f 8c 3c
       0.03154889 -0.7419016 -0.29778957 0.017165666
0001a0 2f 7a 35 be bf a1 08 be 94 81 96 3e 2d 46 b1 3f
       -0.1772239 -0.13342951 0.29395735 1.3849541
0001b0 1c a1 f7 3d a4 ac 22 40 30 f5 23 bf 60 ac fc bf
       0.12091276 2.5417871 -0.64046 -1.9740105
0001c0 4d bd a8 be d7 65 02 3c b9 1d 6d 3f 1e 39 f1 bf
       -0.32956925 0.007958851 0.9262348 -1.8845556
0001d0 fb f7 2a 3e 8c d0 ea 3e 0e 13 e2 bf 31 03 16 3f
       0.1669616 0.45862234 -1.7662065 0.5859862
0001e0 40 fc e5 3e 3e 5e 88 3d c5 cc c2 ba 29 f4 90 bd
       0.44919014 0.066586 -0.0014862051 -0.0707782
0001f0 c2 47 1d 3e 4c 2c b2 3d 0d 96 23 3d 83 f3 cd be
       0.15359405 0.08699855 0.03993802 -0.40224847
000200 8d d1 c3 be 7e 66 54 3f 64 b4 8f 3e 7f 5d c3 bd
       -0.38245812 0.8296889 0.28067315 -0.09539317
000210 17 de 45 3d 59 9a 23 3e 6a e3 ee bc bb 44 ff be
       0.048307505 0.15976848 -0.029161174 -0.49857125
000220 fb 7d 51 3d fa 10 1e be c8 38 a3 3c 14 4f ba 3b
       0.051145535 -0.15436164 0.019924536 0.0056856964
000230 da 01 9d 3e ae 4a 3f bf a4 55 3e 3f 88 3d 63 3f
       0.30665475 -0.7472333 0.7434943 0.88765764
000240 5c 65 12 40 2d 0d 76 3f e4 cc c3 bf 65 1b 95 be
       2.2874365 0.96113855 -1.5296903 -0.29122463
000250 af 5f e9 bd 16 99 a0 be 92 1a 21 bf 97 ba 91 3f
       -0.11395203 -0.31366795 -0.6293117 1.1385068
000260 21 c4 7d bf a6 11 2e 3e a8 c8 9c 3f fb 2a 70 be
       -0.99127394 0.1699892 1.2248735 -0.23453896
000270 09 51 87 bf 14 7e 27 bf 1f a2 cb 3f e0 11 33 bf
       -1.0571605 -0.65426755 1.590885 -0.6994915
000280 f1 63 65 bf 4e 8f 87 3d 1d 86 66 bd 99 d6 15 40
       -0.89605623 0.0661913 -0.056280244 2.341223
000290 ba 4c 2e c0 ee 79 02 3f 05 81 50 bf 04 f2 7b be
       -2.723433 0.509673 -0.8144687 -0.2460404
0002a0 67 bc 93 3b 17 09 03 40 a3 53 21 be 2a eb 5f be
       0.0045085433 2.0474298 -0.15754561 -0.21867052
0002b0 0c 0c ad bf 0e 9f 6a bd 27 4f ed bf 13 44 b1 bf
       -1.3519301 -0.057280593 -1.853978 -1.38489
0002c0 3a d8 b0 be ec cc 94 bf c5 f2 13 3e 9c 50 2a 3e
       -0.34539968 -1.1625037 0.14448078 0.16632313
0002d0 5b 1e 39 3f 58 b3 62 3f 9c 9c d9 bf 0c a6 aa 3f
       0.72311944 0.88554907 -1.7000918 1.3331923
0002e0 63 81 6e 3f e0 36 8b 3f 23 47 28 3f 65 30 a8 bf
       0.9316618 1.0876122 0.65733546 -1.3139769
0002f0 1f fb 36 bf 99 13 07 40 77 fe 09 3f 73 90 9f 3f
       -0.7147693 2.1105711 0.5390391 1.2465957
000300 6e 44 27 3e b2 86 bd be 8d 5d e9 3f ef 91 ae 3f
       0.16334698 -0.37016827 1.8231674 1.3638285
000310 1d 84 86 3f 81 59 16 bf 45 d3 dc be 1f 58 18 3f
       1.0509068 -0.5873032 -0.43129936 0.5950946
000320 77 37 e0 bb 3c 86 cf bf 7f 47 8a 3f 99 5f f6 3e
       -0.0068425494 -1.621284 1.0803069 0.4811981
000330 83 25 a4 bf 44 ec 7f bf 5a 00 f9 bd b9 a5 0a 3e
       -1.2823948 -0.9996989 -0.1215827 0.1353978
000340 9d 3d a2 3e 7f 2a 3d bf bb 4a 8c be a9 db da be
       0.31687632 -0.7389297 -0.27400765 -0.42745712
000350 ac a1 2e 3f 05 61 18 3f 56 bb a3 3f 69 f3 44 3f
       0.6821544 0.5952304 1.2791545 0.76933914
000360 10 07 0b 3f ce ef 60 3f 9e fb 7d be 5a c3 35 bf
       0.5430765 0.8786591 -0.24803016 -0.7100121
000370 27 4f 15 bf 8c 61 bd 3e 70 3d 0e bf 76 eb cb be
       -0.583239 0.36988485 -0.55562496 -0.3982808
000380 fd f5 14 bf 63 22 62 be 9a ca 5d 3c 64 89 9c be
       -0.5818785 -0.2208343 0.0135370735 -0.3057357
000390 63 e7 f8 bc cc 54 52 3f 7c be ca 39 71 14 e5 be
       -0.030383771 0.8216064 0.00038670364 -0.44742158
0003a0 72 05 52 3f ba 45 c2 bf cf a9 1d 3f 9a b1 ee bf
       0.8203956 -1.5177529 0.6158723 -1.864795
0003b0 50 4c 7a bf 59 7b 81 3d b1 df e8 be d4 58 d4 be
       -0.97772694 0.06322355 -0.45483163 -0.4147402
0003c0 6c d5 bf 3f 62 4b 23 bd 27 1b 4e bf 0c cb 94 bf
       1.4987006 -0.039866813 -0.8051018 -1.1624465
0003d0 b6 b4 da 3e 76 58 90 be 02 47 51 bc 1e bf 60 bf
       0.42715997 -0.2819249 -0.012773277 -0.8779162
0003e0 49 1c a5 be 83 62 3b 3e 47 28 6e bf ae d7 9f bf
       -0.32248142 0.18299298 -0.9303021 -1.2487695
0003f0 18 41 8f 3f d7 36 f4 bf 65 0e 07 bf e9 52 8a 3f
       1.119174 -1.9079236 -0.5275634 1.0806552

weight_ih_l0 f4 [200, 20]
000000 ed d2 d6 3d 2b 37 93 3f 08 98 49 bf 3d bf 88 bf
       0.1048945 1.1501211 -0.78747606 -1.0683361
000010 f1 8d a4 bf f1 e1 d6 3e c1 82 49 3f d7 a0 f7 3d
       -1.2855817 0.41969255 0.7871514 0.12091225
000020 ea 06 37 3e 55 24 f1 ba 89 2c 95 3f f6 9e 3e bd
       0.17873731 -0.0018397669 1.1654216 -0.046538316
000030 3b 10 22 bf 9e 12 11 bf b8 40 16 bd 7a 47 63 be
       -0.63306016 -0.5666903 -0.036682814 -0.22195235
000040 f3 1d 1b bd 5d 2b e3 bd 76 e0 29 bd df e7 9a 3e
       -0.03787036 -0.11092255 -0.04147383 0.3025503
000050 20 d7 2e be 72 b5 fe 3e d1 3a 1d bf 05 6e 3d bd
       -0.17074251 0.49747807 -0.6141787 -0.0462475
000060 24 45 21 bf dd 04 40 bf 48 a8 58 bf 0b ee 5a 3e
       -0.62996125 -0.7500742 -0.84631777 0.21379869
000070 e7 15 3f be 6d d0 3e bd c4 4c be 3f 28 bd 54 3e
       -0.18660699 -0.04658549 1.4867177 0.20775282
000080 8a ec 4d 3e 3e 27 67 bd e4 74 a8 3c 62 4a a4 bd
       0.20109764 -0.05643391 0.02056355 -0.08022
000090 07 cb 93 3d 23 61 df 3e ee 61 1b 3e 4f cc 1a 3c
       0.07216459 0.43628797 0.15174076 0.009448125
0000a0 d5 53 06 be 21 ee 21 3e 37 d0 b5 bc 32 5a 8e be
       -0.13117917 0.15813495 -0.022194011 -0.2780319
0000b0 91 60 a4 3e 8a 58 14 3f 38 75 d4 bd 7c fd 82 3d
       0.32104924 0.579476 -0.1037392 0.063960046
0000c0 29 65 cd be 0e b3 f6 be aa ce 2b be 1a fb b2 3e
       -0.40116242 -0.48183483 -0.16778055 0.349572
0000d0 d7 68 ea 3b d1 64 fa bd 21 22 88 3e 94 88 19 be
       0.007153611 -0.122262605 0.26588538 -0.14993507
0000e0 0b 9c b3 bc 9c 6a c6 be da 62 86 be ef 2c 05 3e
       -0.021924993 -0.38753211 -0.26247293 0.13005422
0000f0 84 3f 7f bf 25 90 5d 3f 15 55 1a 3e 58 c4 f0 3d
       -0.9970629 0.8654807 0.15071519 0.117561996
000100 b8 b4 5b bf 8a 58 2c bd ce 13 bc 3e cb 2e 22 3f
       -0.8582263 -0.042076625 0.3673386 0.6335265
000110 ef d7 f4 3c 83 32 8e bf f2 c6 c9 3d 0e 8d 41 3f
       0.029888121 -1.1109165 0.09852399 0.7560586
000120 a0 c4 07 3f 32 f2 cc bf 12 29 b3 3e be c4 ea 3e
       0.530344 -1.6011412 0.34992272 0.45853227
000130 fd 4e 01 be e1 23 41 bf c1 93 7e bf 5a e8 77 3f
       -0.12627788 -0.7544537 -0.99444205 0.96838915
000140 34 d5 88 be 28 f6 e5 bf 34 dd 52 bf 6c 6a d6 3e
       -0.2672516 -1.7965746 -0.8236878 0.41878068
000150 55 a4 14 be ae 69 a9 bd 58 42 a9 bf f0 0a df be
       -0.14515813 -0.0827211 -1.3223372 -0.43563032
000160 e7 d2 11 bf 2e 1c 16 bf 54 6d ee bf 01 c6 7e 3e
       -0.56962436 -0.5863675 -1.8627114 0.2488022
000170 06 10 95 be 96 4e 07 3f 97 4c 53 3f b1 39 cd bf
       -0.29113787 0.5285429 0.8253874 -1.6033231
000180 ec 75 09 c0 a1 05 21 40 72 4c dc 3f 38 84 97 3f
       -2.1478224 2.5159686 1.7210829 1.1837225
000190 35 75 01 3e 2b a9 09 3f d9 9f f4 be fc 1a ce 3d
       0.12642367 0.53773755 -0.47778204 0.100637406
0001a0 0d 18 5f bf 98 50 9b bd 22 c1 2a be 3d f1 11 be
       -0.87146074 -0.075837314 -0.16675237 -0.14252181
0001b0 69 e1 e9 be ef a1 9f 3d 6a fc 33 3d 47 f9 69 be
       -0.45679787 0.07794558 0.043941893 -0.22848998
0001c0 e4 c9 8c be 1e f7 60 3f 8f 24 be bc 8d 0b 52 3f
       -0.2749778 0.8787707 -0.023210792 0.82048875
0001d0 6b ef c6 3e 28 0c 01 be 04 7b 9a be 21 7d ee be
       0.38854536 -0.12602293 -0.30171978 -0.4657984
0001e0 34 51 89 be db ae 9a 3e db 11 13 3f bb 45 bf be
       -0.26819766 0.3021153 0.5744912 -0.37357888
0001f0 75 0b 77 bf ca 3b 3e be fa 2d 69 3c 55 1f 65 be
       -0.9650186 -0.18577495 0.014232153 -0.22375233
000200 4b df ca 3e 08 ae 2f bf 53 70 52 3f 6a bb 3a 3f
       0.39623484 -0.68624926 0.82202643 0.7294222
000210 6f ba 34 3f ca cc a0 bf 2a 5c 56 3d 9f 4f 78 3f
       0.70596975 -1.2562497 0.05233399 0.9699649
000220 80 12 50 3e 71 56 0f 3e c6 4a 86 bf b4 30 2b bf
       0.20319557 0.13997819 -1.0491569 -0.6687119
000230 90 9c ea be 78 5b 9f 3f 58 7a 92 3e 9f 78 8f bf
       -0.45822573 1.2449789 0.28608966 -1.1208686
000240 00 b7 1c 3e bb e3 a3 3e fe 63 ac 3e 6f da 16 bf
       0.15304184 0.32009682 0.33670038 -0.58927053
000250 22 f6 57 be 93 e2 8a 3c 2d 6d ea 3e 6e cf b5 3e
       -0.21089986 0.016953742 0.4578642 0.3550982
000260 40 ed 7c 3e 73 24 2d bf 6e 03 57 3e 48 e2 65 be
       0.24699879 -0.6763374 0.20997402 -0.224496
000270 1b 9d 32 3f f4 4a 3f 3e e4 14 43 bf aa b0 aa 3e
       0.69770974 0.18680936 -0.7620375 0.3333791
000280 b8 67 82 bf 25 4b 9e be 7a 3e b3 bf 9e d2 ac 3e
       -1.0187902 -0.30916706 -1.4003441 0.33754438
000290 15 35 01 bf 13 32 88 3f 9e 43 74 3e df dc a3 3e
       -0.5047162 1.0640281 0.23853919 0.3200445
0002a0 18 6b fd 3e 9d 7e 4c bf 51 f9 93 bf 4d da 70 3f
       0.4949577 -0.79880697 -1.156046 0.940831
0002b0 04 24 0b c0 58 9d a5 bd 88 fd 45 be 95 a5 63 3f
       -2.1740732 -0.080866516 -0.19334996 0.88924533
0002c0 41 ef 04 bf 60 a8 ab 3e 7e 68 80 be e8 6f 3a 3f
       -0.5192757 0.33526897 -0.2507972 0.72827005
0002d0 99 f8 b7 3e f2 2f 95 3f 2f de cb 3e a0 d3 20 3d
       0.35931852 1.1655257 0.3981795 0.03926432
0002e0 e8 78 08 3f 15 e1 8e bd 7e f6 bf 3f 4b 8f b8 bd
       0.5330949 -0.06976525 1.4997098 -0.09011706
0002f0 70 2d ab be a5 6a ec 3e 02 5c 7a bf d0 e7 e4 be
       -0.33433104 0.46175113 -0.9779664 -0.4470811
000300 ab 07 2f bf b4 11 67 3f 3e c2 59 bd f2 f9 bc bd
       -0.68371075 0.9026139 -0.05316376 -0.09227361
000310 4c 69 f0 3e 10 a8 b1 3e 71 f5 e0 bd 25 15 5a bf
       0.46955335 0.34698534 -0.10984314 -0.85188514
000320 cc 82 d5 3d 2d 65 bf 3e 9a a2 2a be 25 4e 70 bf
       0.10425338 0.37381878 -0.1666359 -0.9386924
000330 15 02 ff be e5 9e 36 3e 20 90 d4 3e fd 09 3d 3e
       -0.49806276 0.17834051 0.4151621 0.18460841
000340 8a 15 f7 be 3f 4c dc 3e 28 1a ba 3e f1 c7 54 bd
       -0.4825862 0.4302692 0.3634808 -0.05194849
000350 ee 07 98 bd 94 ed 16 be 04 44 9d be fb 1b 3c bf
       -0.074233875 -0.14739066 -0.30715954 -0.73480195
000360 88 a1 23 3f b0 b7 0f 3f 5c 75 39 bf 85 28 e5 3e
       0.6391835 0.5613966 -0.724447 0.44757476
000370 f7 38 d3 be b2 e1 ac be 28 08 ea be 06 1c ed be
       -0.41254398 -0.33765942 -0.45709348 -0.46310443
000380 29 7b f7 3e 8e c2 8b 3f b0 65 ae 3e 21 ac 62 be
       0.4833615 1.0918748 0.34061956 -0.22135974
000390 62 0c 11 3f a8 3d 08 bf f6 04 81 bf e5 df 18 bf
       0.5665952 -0.5321908 -1.0079639 -0.59716636
0003a0 f3 11 e6 be 3f a8 eb be cd 5c d7 3d 7a 53 af 3f
       -0.4493557 -0.460268 0.10515747 1.369735
0003b0 0b e8 99 3d bc 7e 33 bf 87 91 3a be ca fe 16 be
       0.07514962 -0.70115256 -0.18219577 -0.14745632
0003c0 aa 2d b5 3e cd fd 33 3d 83 c8 33 bf 9e 82 6a 3f
       0.353864 0.043943215 -0.7022783 0.91605556
0003d0 dc 15 61 be 25 7f a3 3f 2e e7 97 be 18 b5 01 3f
       -0.21980995 1.2773176 -0.29668564 0.5066695
0003e0 09 d3 16 3f a4 61 18 bf 4d 32 3a be 3a 64 f9 3e
       0.58915764 -0.5952399 -0.1818325 0.4870928
0003f0 b1 1c 4d bf af 33 67 3f fb 6c 94 3d 67 b5 5f 3f
       -0.80121905 0.9031324 0.07247349 0.87386173

weight_hh_l0 f4 [200, 50]
000000 e7 87 d4 3f 92 b1 08 bd a9 a2 84 c0 b2 76 4f bf
       1.6603974 -0.03337247 -4.144856 -0.8104049
000010 5c 06 a4 3f 50 dc 81 c0 da 47 7e 3f 83 1d a3 be
       1.2814441 -4.0581436 0.99328387 -0.31858453
000020 8e 15 7e 40 1e d2 2a 40 43 7a 9b bf 69 e1 fb be
       3.9700656 2.6690745 -1.2146686 -0.49195412
000030 26 c9 a4 3e b9 ef 01 3f 3c b2 8c 3e 58 6a 0b c0
       0.32184714 0.5075641 0.27479732 -2.1783657
000040 d3 c8 49 c0 e7 d3 39 c0 24 30 a8 3f f1 a9 66 be
       -3.1528823 -2.9035585 1.3139691 -0.22525765
000050 19 96 9f 40 44 e4 4e 3f 39 5e 37 40 31 ac a4 be
       4.9870725 0.80817056 2.865126 -0.32162622
000060 2f 6f d4 3f ae 5c f8 3f 95 3a 97 bf fe 71 af c0
       1.659643 1.9403284 -1.1814753 -5.482665
000070 69 f7 87 40 0f ca 27 c0 73 bb 5d be a0 c6 80 3f
       4.2489514 -2.6217077 -0.21653537 1.0060616
000080 30 95 e4 3f 8b 5d 99 bf b5 48 18 bf 55 3f 1d c0
       1.7858028 -1.1981672 -0.5948594 -2.4569905
000090 75 1d c6 3f e5 65 61 bf 06 7e 8b bf 55 2f 1a 3f
       1.547774 -0.88046104 -1.0897834 0.6022847
0000a0 c2 14 02 40 ef f7 1d bf c1 29 9c 3f c6 db db bf
       2.032517 -0.6170644 1.2200242 -1.7176445
0000b0 79 78 de bf ad 53 9c bf 08 99 4c bf fb 75 d4 be
       -1.7380515 -1.2213036 -0.7992101 -0.41496262
0000c0 7c 36 3e c0 7f 19 ca 40 4c 3f 49 40 f8 fb 9c bf
       -2.9720755 6.3156123 3.1444883 -1.2264395
0000d0 36 dd d4 3f e5 de e0 3e 85 c1 96 3f ab ba 54 be
       1.6630008 0.43920055 1.1777807 -0.20774333
0000e0 3d 7a 47 3f 6c 31 65 3f 32 d7 a1 bf dd 6f c0 3d
       0.77920896 0.89528537 -1.2643797 0.09396336
0000f0 4c bc 82 bf 27 4e 24 bf 5f a0 77 bf 0c db 0b c0
       -1.0213714 -0.6418175 -0.9672908 -2.1852446
000100 70 33 85 40 97 5a cd be a4 8d 08 c0 1e d0 d5 be
       4.162529 -0.40108177 -2.133645 -0.41760343
000110 ba de c0 bd ec 3f 29 bf de 28 db 3e 28 8c 80 3e
       -0.09417482 -0.6611316 0.42804617 0.2510693
000120 df 69 58 bf 02 25 89 bf 79 d3 9a 3e a6 ff 09 be
       -0.84536546 -1.0714419 0.30239466 -0.13476428
000130 c0 df e1 be 8a 00 8a 3e 88 d7 3a 3e 8a ff dc 3f
       -0.4411602 0.26953536 0.18246281 1.7265484
000140 84 ba d1 3e 63 0b 45 3e b9 f2 77 3e 08 a3 ed 3f
       0.40962613 0.19242625 0.24213685 1.8565378
000150 15 c6 15 3e 2e cc d2 3e b0 3b dd bf 5c 01 ca bf
       0.14626344 0.41171402 -1.728384 -1.5781665
000160 a7 d6 27 3d a3 e0 d8 3f d2 9b c4 3f ee ba 41 3f
       0.040976193 1.6943554 1.5360053 0.7567586
000170 94 08 80 c0 58 92 01 c0 1f 72 06 c0 51 0f 1c 3f
       -4.001047 -2.024557 -2.1007154 0.6096087
000180 c3 de 82 3e 4f bc 67 be b8 88 c3 3f 7a d3 93 3e
       0.2556058 -0.22630428 1.5276098 0.2887228
000190 7e 86 03 3f ec 45 f9 3e 2b d3 19 3e b8 79 bb bd
       0.51377094 0.4868616 0.1502196 -0.091540754
0001a0 93 fd 78 3e ce e1 ca 3f ef 2d d8 3e d4 04 26 bd
       0.24315481 1.585016 0.42222545 -0.04053195
0001b0 8b 3b 93 3e 68 9f 42 3f 5d d2 c9 bc f7 7f 54 3f
       0.28756365 0.76024485 -0.024636442 0.8300776
0001c0 11 34 11 3f f5 2e 64 be d9 c5 e6 3d 92 4d 27 3f
       0.5672007 -0.22283538 0.11268205 0.6535274
0001d0 80 5a 3a bf c4 68 c4 bf f7 b4 03 40 b5 75 29 bf
       -0.7279434 -1.5344472 2.0579202 -0.6619523
0001e0 24 6b 96 bd d6 ca d7 be 56 bc 29 3f bd 8e e0 be
       -0.07344654 -0.4214694 0.66303 -0.438589
0001f0 52 92 d0 3f 61 f5 26 3f 21 4b 02 bf 9a b2 04 3f
       1.6294653 0.6521817 -0.5089589 0.51835024
000200 4c f3 19 bf ad 97 15 3f f7 be 83 3e 1d b5 09 bf
       -0.60136867 0.58434564 0.25731632 -0.5379198
000210 b8 4d d3 be 3f bd a7 3e bf 03 f6 be 00 2b e3 be
       -0.41270232 0.3276157 -0.48049733 -0.44368744
000220 cd a1 aa 3e 04 7c c4 be 27 2d 38 3f a9 9a f1 3d
       0.3332657 -0.38375866 0.71943897 0.11797077
000230 30 8e 03 3e 72 ce 6f 3f 49 d8 2e bf eb c0 bb be
       0.12847209 0.93674386 -0.68298775 -0.36670622
000240 b0 fb 27 3e 0d 24 81 3f b9 0b 3e be 06 d1 2b 40
       0.16404605 1.0089127 -0.1855916 2.6846328
000250 91 eb 77 3f fc c3 17 bf cb 5d 90 3f 1e 09 cc 3f
       0.9684382 -0.59283423 1.1278623 1.5940282
000260 37 70 49 3f 75 83 2f 3e 10 3c ea bf 52 30 31 3f
       0.7868685 0.1713999 -1.829958 0.69214356
000270 d7 23 e7 3e e1 ba 74 bf 47 6c f7 3f c2 9e b5 3e
       0.4514453 -0.95597655 1.9329919 0.35472685
000280 76 d7 9c bf e9 e5 a5 3f ea 86 d1 3f 64 d4 2d 3f
       -1.2253253 1.2960788 1.6369298 0.6790221
000290 be a2 d2 3e bf ed 05 bf 88 5d a3 bf bd 0b 08 3f
       0.41139787 -0.52315897 -1.2762918 0.5314291
0002a0 04 60 80 3f 6b 6b 45 3e bf 53 98 bf eb 30 02 c0
       1.0029302 0.19279258 -1.1900557 -2.0342357
0002b0 7d 0a 8e bf 13 cd 26 bf 08 e9 01 c0 b7 d1 bd 3f
       -1.1096951 -0.6515667 -2.029848 1.4829625
0002c0 fe 48 21 3e b8 66 5e bf ac f4 2d 3f 01 db 08 3e
       0.157505 -0.86875486 0.67951465 0.13364793
0002d0 3f 9b 56 3f 85 16 9a bf d4 ab d4 3f cb c9 a4 bf
       0.83830637 -1.2038122 1.6614938 -1.2874082
0002e0 b0 76 2c c0 2c 79 af be 69 4b ff 3e 28 fe 31 40
       -2.694744 -0.34272134 0.4986222 2.7811375
0002f0 39 ba c4 3e 78 fe b3 3e 44 21 82 c0 16 f9 80 3f
       0.38423327 0.35155082 -4.0665607 1.0076015
000300 b3 fe 02 c0 b1 a9 4a 40 8b d6 7c 3e 77 d7 a1 3d
       -2.0467956 3.1666071 0.24691217 0.07902425
000310 13 ef 17 40 e1 a4 43 3c c0 f1 7a bd 7f f7 c6 bf
       2.373967 0.011941166 -0.061265707 -1.554428
000320 b2 4f 42 3f df 15 9d bd 20 f8 4b 40 cd 37 aa bf
       0.75902855 -0.07670187 3.1870193 -1.3298279
000330 2a 03 aa 3f 4a e0 04 40 e4 c4 87 3f 38 9c f6 3e
       1.3282216 2.0761895 1.0606961 0.4816606
000340 c3 0a 24 3f f0 0b f5 3d 19 2d 96 3f dc 2c 6f bf
       0.6407892 0.119651675 1.1732513 -0.93427825
000350 c6 d8 93 3e 79 e5 8e bf d5 46 53 3f 13 db a1 bf
       0.28876323 -1.116378 0.82529956 -1.2644981
000360 d1 15 2c c0 09 b1 b0 c0 a7 32 f9 bd 44 56 b9 40
       -2.6888316 -5.5216107 -0.12167864 5.7917805
000370 77 35 52 40 31 cd d0 3f 94 73 13 c0 19 c7 d8 3f
       3.2845132 1.631262 -2.3039293 1.693576
000380 a2 c8 bf be cf c8 d4 40 78 e1 d0 40 ac 7b 7f 3d
       -0.37457758 6.649513 6.527523 0.062373802
000390 d4 2b 89 c0 f3 5f cb 3f 28 2d 09 40 3d 76 a0 3f
       -4.2866 1.5888656 2.143381 1.2536083
0003a0 7e e2 04 bf a4 05 9e 3f 40 c8 39 be 13 88 ad 3d
       -0.519081 1.2345471 -0.18142796 0.0847322
0003b0 63 b3 31 c0 a9 a8 00 c0 e2 da f8 3f 7d 5d 0f 40
       -2.776574 -2.0102942 1.9441798 2.240081
0003c0 0a f5 5f 3f ec 2e e5 be 02 1c 10 3d 02 b4 f6 3f
       0.87483275 -0.4476236 0.03518296 1.9273684
0003d0 ba 8e ed bf 82 40 b9 bf 6d c9 32 40 1c c6 82 40
       -1.8559182 -1.4472811 2.793544 4.0866833
0003e0 53 78 5b 40 44 af 23 c0 4f 5d 05 40 f4 e8 76 3f
       3.429219 -2.5575724 2.08382 0.9644921
0003f0 8f 7f ca 3f 4c ba aa 3f 0b 32 b8 3e 3f 41 63 40
       1.5820178 1.3338103 0.3597568 3.5508573

bias_ih_l0 f4 [200]
000000 48 7a ac 3f b9 d0 1a 3f 79 a4 c7 3e 5c 2a e7 3e
       1.3474817 0.60474735 0.3899267 0.45149505
000010 b6 f6 15 3f 2b ee 8b 3f 1e 63 8d be cf 4c c8 3f
       0.58579576 1.0932058 -0.27614683 1.564844
000020 5a 19 35 3e f2 c0 38 be a3 8e c4 3e 44 12 0f 3f
       0.17685452 -0.18042353 0.38390073 0.55887246
000030 ad 5b ba 3f 85 a5 d6 3f 58 74 ba bf c9 52 24 3f
       1.4559227 1.6769263 -1.4566755 0.6418882
000040 13 67 df 3e 92 88 e3 3e 0a 2f da 3f f6 d4 e1 bd
       0.43633327 0.44440132 1.7045605 -0.11026947
000050 12 8f 2a 3e 89 e7 95 3c 75 a4 ae 3e f4 82 d2 3f
       0.1665614 0.018298881 0.34109846 1.6446214
000060 88 23 8a bf e1 65 98 3f 64 c4 e0 3e e4 f2 5e 3f
       -1.0792093 1.1906091 0.43899834 0.8708937
000070 39 a9 9f 3f 6f 1a 34 3f a8 69 fc 3e 0f b4 e1 3f
       1.2473518 0.70352834 0.4929936 1.7633075
000080 4b f3 b5 3f 11 d6 58 bf 56 f3 f1 3e 2a 5a d8 3f
       1.4214872 -0.8470164 0.47255963 1.6902516
000090 89 17 98 3f 1e 17 6d 3f 1f a0 61 3f ae 59 a5 3f
       1.1882182 0.926134 0.8813495 1.2917993
0000a0 99 98 87 3f 42 b2 04 3f cb 66 2b 3f ce 4f b8 3f
       1.0593444 0.518345 0.66953725 1.4399354
0000b0 ef a1 40 40 d0 f6 d9 be f8 7d 1f bf 0d 67 bd 3f
       3.0098836 -0.42571115 -0.6230159 1.4797074
0000c0 84 f6 88 3f c2 f3 ce 3f 50 cf cd 3d 52 57 8e 3e
       1.0700231 1.6168139 0.10049307 0.27800995
0000d0 52 98 c6 3e 3b 9a 5c 3d de 0f 81 3e 62 76 53 bf
       0.38788086 0.053858023 0.25207418 -0.8260251
0000e0 70 2c 2c 40 76 b7 be be 4d 75 b0 be f3 05 0c 3f
       2.6902122 -0.37249345 -0.34464493 0.5469658
0000f0 01 34 bb 3d d2 51 5b 3f 2f 15 b3 be be 3e 1f 3f
       0.09140778 0.8567172 -0.349771 0.6220511
000100 75 cc 9b 3e 82 78 7e 3f 1a 01 77 be ec 69 24 3f
       0.30429426 0.9940263 -0.24121514 0.64224124
000110 04 25 9f 3e 25 75 de 3c f4 73 14 be 65 f5 bc 3e
       0.31082928 0.027155468 -0.14497358 0.3690597
000120 41 07 72 3f 0a ae 3a bd 94 48 81 3e 06 aa cf 3f
       0.9454232 -0.045576133 0.25250685 1.6223762
000130 0b d0 9b 3e 47 25 e2 be 4b 75 48 3f c5 b0 ad bd
       0.30432162 -0.44169065 0.78303975 -0.08480982
000140 ec 1c 7c 3e 45 90 88 3f 31 7e 97 3d 3c a2 6a 3f
       0.24620408 1.0669028 0.07397116 0.916538
000150 34 db 35 3e 5a 1b db be 72 bf 58 3e 4f 82 03 3f
       0.177594 -0.42794305 0.2116678 0.5137071
000160 ac 3c 00 3f a3 4d ed be 81 23 d5 be 09 cc 15 bf
       0.5009258 -0.46348295 -0.4162865 -0.5851446
000170 e2 1b 1a 3f e1 b9 9f 3f bf 3f c4 be 5f 9d ac 3d
       0.60198796 1.2478601 -0.38329884 0.08428454
000180 38 7e 38 3f 37 23 2b bd c3 42 ec bb 27 10 5b 3f
       0.72067595 -0.04178163 -0.007210107 0.8557152
000190 b5 fa 09 3c d0 9c 8a 3d 5c b9 b4 3e 3e a4 e3 3d
       0.00842159 0.06768191 0.35297668 0.11115311
0001a0 18 a1 86 3e c3 c1 64 3f 4d 1f e2 be 0d 35 39 3e
       0.2629478 0.89358157 -0.44164506 0.18086644
0001b0 4f e0 b7 3d 69 8d 38 3f 25 cd 43 3e e4 ca 4c 3e
       0.0897833 0.72090775 0.19121225 0.19999272
0001c0 a0 fc b6 be 3d 70 60 bf 59 b3 1c bf 3d fb 9a 3e
       -0.35739613 -0.8767126 -0.6121116 0.30269805
0001d0 13 3a 62 bf 57 37 d5 be 36 fc b4 3e 39 ff 8a 3e
       -0.88369864 -0.41643783 0.35348672 0.27147844
0001e0 cc e8 e2 3e 6c 9b 14 bf 6b 8c 14 3f e6 2a 13 3f
       0.44318235 -0.58049655 0.5802676 0.5748733
0001f0 42 4a 1f 3e 97 ab 03 3f a7 4f 81 3c cb 0c 2c be
       0.15555671 0.514337 0.015785052 -0.16801755
000200 38 83 8a be bc 0c 42 3e 0a da 72 be 2a d8 d3 3e
       -0.27053237 0.1895017 -0.23715988 0.41375858
000210 18 16 c9 3e d3 b5 d9 bb 9d 38 9e bf da c3 72 3d
       0.3927467 -0.0066439896 -1.2361027 0.05926881
000220 1d b3 41 bf 97 89 7e 3e 9a 29 45 3f b8 de 0b bf
       -0.7566393 0.24857174 0.77016604 -0.54636717
000230 54 35 99 3f 6b 01 e1 bd 85 d4 c6 3e 4a 02 00 3f
       1.19694 -0.109865986 0.38834015 0.5000349
000240 ab cb 03 bf 83 a1 bc bc 78 05 80 3f dc 9a 39 bf
       -0.5148265 -0.023026234 1.0001669 -0.7250192
000250 c3 9a 6d 3f 84 f9 82 be 1d eb 61 3f 45 a8 d7 3f
       0.9281427 -0.2558099 0.8824938 1.6848227
000260 58 cf e7 3e 15 7c c9 3f 1d e4 05 40 49 51 8f 3f
       0.45275378 1.5740992 2.092048 1.1196681
000270 f9 7a c6 be 94 eb af 3f 9a 16 01 40 14 2e c8 3f
       -0.38765696 1.3743768 2.0170045 1.5639062
000280 c4 90 0d bf c9 89 10 3f 0e e5 03 40 e5 7b 1a 3f
       -0.5529902 0.56460243 2.0608554 0.603453
000290 65 cb d5 be 5d 34 39 3e 14 e4 82 3f 32 af 9e 3f
       -0.4175674 0.18086381 1.0225854 1.2397215
0002a0 65 9b c4 3f 4b 17 41 3f 4c 1a d4 3f 5e d6 59 be
       1.5359923 0.7542617 1.6570525 -0.21273181
0002b0 1c 55 3d 3d ad e8 d6 3f 45 fb 80 3d 48 95 e9 3e
       0.046223745 1.6789757 0.06297926 0.45621705
0002c0 ee e5 b4 3e 11 a6 9a 3f 40 a0 99 3f 03 fa 5a 3f
       0.35331672 1.208193 1.200203 0.8553774
0002d0 73 37 7a 3f 9b b2 09 3f f5 42 5a 3f 4a b6 cf 3e
       0.9774086 0.53788155 0.8525842 0.40568763
0002e0 da 4d 94 3e 39 c9 d9 3e 54 09 2b 3f 2e cd 36 3f
       0.28965646 0.42536333 0.6681111 0.7140683
0002f0 3d 1d ad 3e b7 9b 72 3f d1 65 1f 3f 5c 30 e9 3f
       0.3381137 0.9476885 0.62264735 1.8217883
000300 89 8d 78 3f a7 0c e7 3e 30 ee 75 3f a9 78 61 3e
       0.97090966 0.4512684 0.9606657 0.22018684
000310 ce 3b 0b 40 4c 01 d9 bc f8 02 13 3d 9f c2 34 3f
       2.1755252 -0.026489876 0.035891503 0.7060947

bias_hh_l0 f4 [200]
000000 2c 92 ae 3f 48 f4 ff 3e ca 25 1b 3f 67 b3 cf 3e
       1.3638358 0.4999106 0.60604537 0.4056656
000010 1d a6 30 3f b5 e9 89 3f a5 9f 9b be c9 0d c1 3f
       0.6900347 1.0774447 -0.30395237 1.5082332
000020 0c 9b 34 3e 93 9d 7c bc 17 4e d6 3e 5b 1e e1 3e
       0.1763727 -0.015418428 0.41856453 0.43968472
000030 d5 8b ba 3f 12 2a cb 3f 51 45 a3 bf 4b de 45 3f
       1.4573923 1.5872214 -1.2755529 0.7729232
000040 3f fc 12 3f b4 bb 0b 3f fa 26 e2 3f a3 f4 66 bd
       0.57416147 0.5458329 1.7668145 -0.056385648
000050 a9 cb 38 bd 78 05 34 3d 7c 2f 10 3f 13 89 d4 3f
       -0.0451161 0.043950528 0.56322455 1.6604332
000060 49 c5 8d bf 98 2c 98 3f 5f ff 12 3f 7a 23 4a 3f
       -1.1075832 1.1888609 0.57420915 0.7896038
000070 c8 83 89 3f a7 53 4a 3f 70 fd 09 3f 80 8a d5 3f
       1.0743341 0.79033893 0.5390234 1.6682892
000080 d5 e5 ba 3f 3e 2e 54 bf e4 3e d3 3e c3 d9 c9 3f
       1.4601389 -0.8288306 0.4125892 1.5769581
000090 8a 1f 8d 3f 46 c8 4e 3f 21 7c 68 3f 34 3b 84 3f
       1.102525 0.80774343 0.90814406 1.0330567
0000a0 05 49 86 3f 5e cb b9 3e 8e 46 52 3f e2 7c aa 3f
       1.0491034 0.3628797 0.8213891 1.3319361
0000b0 a0 96 3a 40 84 c9 89 be 4b f8 d1 be a3 18 bf 3f
       2.9154434 -0.26911557 -0.41009745 1.4929394
0000c0 5c 99 89 3f 3c 33 c5 3f 6a 18 21 3e 2c 59 22 3e
       1.0749927 1.540626 0.1573197 0.15854329
0000d0 b7 64 da 3e c3 44 c8 3d 83 fa 85 3d 58 45 56 bf
       0.42654964 0.0977874 0.06541922 -0.8369956
0000e0 20 7f 33 40 29 d3 9f be b6 eb 89 be d6 ab 28 3f
       2.804634 -0.3121579 -0.26937646 0.658872
0000f0 e1 92 01 be 8a e7 47 3f 33 52 d7 be 7a 90 01 3f
       -0.12653686 0.78087676 -0.420549 0.5061108
000100 63 31 45 3e 22 6c 87 3f dc 54 a7 be 04 18 07 3f
       0.19257121 1.0579875 -0.3268193 0.5277102
000110 1b 3d 44 3e 90 a6 5d 3e 86 c8 a3 be ce 53 96 3e
       0.19163935 0.2164557 -0.31988925 0.29360813
000120 0a 37 75 3f 0f 19 b3 3d aa 18 dd 3d a4 80 ba 3f
       0.9578711 0.08745014 0.1079572 1.4570508
000130 19 e6 78 3e 36 13 d2 be 5f 44 56 3f c5 c7 0b 3d
       0.24306525 -0.41030282 0.83698076 0.034126062
000140 73 bf 4e 3e f6 56 80 3f 43 67 95 bd 67 bd 81 3f
       0.2019022 1.0026538 -0.07295086 1.0135926
000150 01 a9 6e bd 46 1f b8 be fd 7a 45 3e 40 10 05 3f
       -0.058266643 -0.3596136 0.19285198 0.5197792
000160 38 46 ad 3e bc dc e8 be e2 86 16 bf 89 d4 0e bf
       0.33842635 -0.45480907 -0.58799565 -0.5579305
000170 a1 14 17 3f a2 e6 bd 3f f6 b7 d0 be ef f9 a7 3d
       0.5901585 1.4836009 -0.4076535 0.08201968
000180 00 f6 61 3f 8c 2b f0 3d dd 92 1c bd 61 7e 44 3f
       0.8826599 0.11727056 -0.038225997 0.7675534
000190 72 e9 f4 bc b7 aa 38 3d 67 86 d5 3e d2 57 ab bb
       -0.029896472 0.04508468 0.41704103 -0.005228975
0001a0 25 a4 bb 3e 80 f9 5e 3f b9 20 f8 be 28 73 6a 3e
       0.3664867 0.87099457 -0.48462465 0.22895491
0001b0 d1 9e 27 3e 40 f1 3d 3f 48 60 46 3d 68 f2 89 3e
       0.16369177 0.74196243 0.048431665 0.26942754
0001c0 55 b7 e3 be 8d 92 77 bf e6 e5 17 bf 21 05 95 3e
       -0.4447581 -0.96707994 -0.5933517 0.29105476
0001d0 7d 3a 7f bf 22 a0 c6 be 75 04 77 3e a2 cb b0 3d
       -0.9969862 -0.38794047 0.24122794 0.0863259
0001e0 f5 52 de 3e 9e ea 1a bf 7b 0a d7 3e 9c 60 29 3f
       0.43422666 -0.6051425 0.42000183 0.6616304
0001f0 57 d9 58 3e 35 4c ca 3e 7a cc d6 3c 05 40 8d be
       0.21176659 0.39511266 0.026220549 -0.27587906
000200 10 47 66 be 2c 94 be 3e f6 7a 47 be f0 32 d1 3e
       -0.22488046 0.3722242 -0.194805 0.40859175
000210 5e d8 aa 3e 98 de cf 3d 82 36 b3 bf 3f 7d 14 3e
       0.333682 0.10149878 -1.400101 0.14500903
000220 40 ee 16 bf c9 44 75 3e c0 32 59 3f 1d 8d 3b bf
       -0.5895729 0.2395202 0.84843063 -0.73262197
000230 e8 aa 94 3f b7 a4 ca bc f0 60 17 3f bc f2 bb 3e
       1.1614656 -0.024736745 0.5913229 0.3670863
000240 26 ce d4 be 7e 8b 09 bd 5f 93 85 3f e2 9a 04 bf
       -0.4156353 -0.033580296 1.0435599 -0.5179883
000250 6c 94 5f 3f 33 0c cc be bb ac 8b 3f 13 3c dc 3f
       0.8733585 -0.39853057 1.0912088 1.7205833
000260 1c 81 ae 3e 72 57 c7 3f 10 5a 0f 40 a4 45 8d 3f
       0.34082878 1.5573561 2.239872 1.1036878
000270 e8 02 d5 be 4e ef a2 3f 2e f3 09 40 e3 85 cc 3f
       -0.4160378 1.272928 2.1554675 1.5978359
000280 d4 92 1a bf 83 e3 1e 3f 29 12 0c 40 d2 66 cf 3e
       -0.6038029 0.62065905 2.1886084 0.40508133
000290 06 d2 f6 be e7 87 76 3d f4 13 6f 3f e6 03 9b 3f
       -0.4820711 0.0601882 0.9338982 1.2110565
0002a0 f1 98 d4 3f 9b 8f 5c 3f 85 d7 d6 3f 7a cc cf be
       1.6609174 0.86156625 1.6784521 -0.4058569
0002b0 31 90 3e be c1 29 c7 3f be b7 d0 bc da a0 07 3f
       -0.18609692 1.5559617 -0.02547824 0.52979815
0002c0 39 41 fa 3e 5a d5 93 3f fc 2f 84 3f c0 9c 64 3f
       0.48877886 1.1549485 1.0327144 0.8930168
0002d0 7e 15 60 3f fa 15 d5 3e 83 bb 5b 3f 0d 07 9f 3e
       0.87532794 0.4161833 0.85832995 0.31060067
0002e0 64 18 52 3e 4a 25 f4 3e f4 59 3f 3f 91 d5 38 3f
       0.20517117 0.476847 0.7474663 0.72200876
0002f0 c5 54 80 3e 4e d2 4d 3f 5d b0 2c 3f 5a 33 eb 3f
       0.25064674 0.80399024 0.6745661 1.8375046
000300 5b bf 5a 3f 31 6d 9d 3e 54 91 9b 3f c9 c6 ac 3e
       0.85448235 0.3074737 1.2153726 0.3374541
000310 e4 b6 03 40 ea f5 a1 bd 9a 00 01 3d 7d 97 fb 3e
       2.0580378 -0.079082325 0.031494714 0.49139014

weight f4 [74, 50]
000000 43 7d f5 be 30 60 35 be b2 85 2d be 54 d6 ed 3e
       -0.4794713 -0.17712474 -0.16945532 0.46452582
000010 65 44 64 bd f9 db 0e bf 32 ec a0 be 01 f9 2a be
       -0.05572929 -0.558044 -0.31430203 -0.1669655
000020 a0 0e 09 bf cc 63 7d be 83 1e 84 be 3d e5 96 3e
       -0.5353794 -0.247451 -0.2580453 0.2947177
000030 6f af 20 3e 62 88 d6 3e 6c 73 6f be 9a 32 b5 be
       0.15691923 0.41900927 -0.23383874 -0.35390168
000040 29 94 ba 3e 85 95 c4 3e 3c a0 e7 be 89 06 f8 3e
       0.36441162 0.38395324 -0.45239437 0.48442486
000050 0e df 86 3e b2 b7 8a 3e 2c be 19 bf 10 34 10 be
       0.26342052 0.27093273 -0.60055804 -0.1408236
000060 33 55 7f 3e b5 1c 89 be 82 3e 9d 3e b2 49 27 bf
       0.24934845 -0.26779714 0.30711752 -0.65346825
000070 de 47 92 3e df 99 6b be 08 5f 8a 3e 10 97 6b be
       0.28570455 -0.23007916 0.27025628 -0.23006845
000080 fd 65 df be fd 69 60 3e 21 0e 91 3e c6 eb 32 be
       -0.43632498 0.21915431 0.28331092 -0.17472753
000090 53 18 30 3f f5 58 a4 3e de f1 c3 be 38 fe 01 bf
       0.68787116 0.3209912 -0.38270468 -0.5077853
0000a0 a3 3e 71 bf 06 ff c7 3e 03 6b 5a 3e 52 c7 56 be
       -0.942362 0.39061755 0.21329884 -0.20974472
0000b0 51 15 b0 3e 9e 71 6e be 7c b9 8a be fb 33 99 3e
       0.34391263 -0.23285529 -0.27094638 0.2992247
0000c0 e9 85 18 be 42 bf 04 3f 0d 09 74 be f3 d9 1f bd
       -0.14894833 0.51854336 -0.23831578 -0.039026212
0000d0 71 80 05 be 30 34 0a 3f 02 4c d0 3d c4 de 07 bf
       -0.13037278 0.5398588 0.10170747 -0.5307429
0000e0 47 7d cf be 99 1e ed bd 7a 02 e2 be 88 fa 93 be
       -0.40525267 -0.11578102 -0.44142514 -0.28902078
0000f0 e0 9b 5a be 37 f0 71 3e af b7 85 3d cf bc 06 3f
       -0.21348524 0.23626791 0.065291755 0.5263185
000100 77 86 21 be 11 65 3d be da f7 c4 3e 56 f8 dc 3e
       -0.1577395 -0.18495585 0.38470346 0.43158215
000110 c9 1d be be 3c 72 ed 3e a1 8b 99 3e ce 08 1c 3e
       -0.371321 0.46376216 0.2998934 0.15237734
000120 18 e0 05 bf 4e 4e 30 be eb 5a 45 3e a0 21 90 be
       -0.52295065 -0.17217371 0.19272964 -0.28150654
000130 56 f1 97 3e 0d c8 30 bf bb da 6b 3e 71 0b 72 be
       0.29676312 -0.69055253 0.23032658 -0.23637177
000140 f3 71 81 3e cc d6 09 be 13 cf ad be da f3 21 3e
       0.2528225 -0.13460845 -0.33947048 0.15815678
000150 df bb e6 3e c3 ed b3 bd ef 7f 18 3f 19 df 7f 3e
       0.4506521 -0.08785584 0.5957021 0.24987449
000160 b7 52 a2 be 82 15 ef be d3 f9 46 bf c5 7c 5a 3e
       -0.3170373 -0.46696097 -0.7772495 0.21336658
000170 00 be b4 3e 1d a5 62 be de da a8 3e c3 42 87 be
       0.35301208 -0.22133298 0.32979482 -0.26418123
000180 9f 23 51 be 36 e9 e2 3e 45 00 70 be 87 33 a6 3e
       -0.20423745 0.4431855 -0.23437603 0.32461187
000190 11 3d 4f 3f 8d 42 44 bf ea 45 79 3f fe bf c9 bf
       0.80952555 -0.7666405 0.97372305 -1.5761716
0001a0 ab e6 a0 be 0d 05 86 bd ec 7a 37 bd 85 64 5b bf
       -0.31425986 -0.06543932 -0.04479496 -0.85700256
0001b0 5c e3 5d bf da 18 c0 3f a0 89 0e bf 03 6e bf bf
       -0.8667505 1.5007584 -0.5567875 -1.4955448
0001c0 d4 47 11 bf b2 16 d6 bf e3 3e 16 c0 68 90 20 3f
       -0.56750226 -1.6725676 -2.3475883 0.62720346
0001d0 5f 7b 2c be 86 81 17 bf 83 e2 d9 be 5b 1e b6 be
       -0.16843937 -0.5918201 -0.42555627 -0.35570034
0001e0 f2 fd 9e be a4 39 26 bf b1 5d d0 3f 6a f7 93 3e
       -0.3105312 -0.649317 1.6278592 0.288997
0001f0 a4 56 54 bf 8a 4a dc 3e 8b d8 9c bf 21 ee 60 3e
       -0.82944703 0.4302562 -1.2253584 0.21965839
000200 f9 39 31 40 c1 d1 38 be e6 4b a1 bf d6 aa 1c 40
       2.7691634 -0.18048765 -1.2601287 2.447927
000210 62 34 04 bd dd 0f 65 bd 36 84 c8 bd d8 86 d5 3d
       -0.03227652 -0.05592333 -0.09790842 0.1042611
000220 9c a9 ee be ec 0d 0e be a1 15 27 bf c2 f5 b5 bf
       -0.46613777 -0.13872498 -0.6526738 -1.4215624
000230 ef 2f e9 bf a7 77 02 c0 ad 74 af bf a2 3e 02 3f
       -1.8217753 -2.038553 -1.3707482 0.5087682
000240 0b 37 50 bf 2e 13 eb bf 26 76 4c bf 4c 7a 42 bf
       -0.8133399 -1.8365228 -0.7986778 -0.7596786
000250 f6 76 7e bd 4f 2f 16 bf 0e c8 d5 be 39 b7 31 be
       -0.06212517 -0.5866594 -0.41754192 -0.1735505
000260 3d 10 b7 be 8c dc 92 3e 0b ff e9 bd eb b0 2c bf
       -0.35754576 0.2868389 -0.11425599 -0.67457455
000270 ef 81 fd be a5 1d c6 bb 27 e8 0d bf 98 2f 41 be
       -0.49513194 -0.0060460144 -0.5543236 -0.18865812
000280 08 5d 41 be 25 e0 2d 3e 53 72 ff 3d 5e 35 22 3f
       -0.18883145 0.16980036 0.124729775 0.6336268
000290 35 35 ab bd 7c ec cf be be 0a 1b 3e 80 80 e2 3e
       -0.08359758 -0.4061011 0.15140817 0.44238663
0002a0 75 9f b6 be e6 05 22 3f 66 43 b6 3e e3 61 c7 3e
       -0.3566853 0.6329025 0.35598296 0.3894187
0002b0 d8 f2 f0 be e2 1c 91 be f3 3e 72 3e 93 b7 f0 be
       -0.47060275 -0.28342348 0.23656826 -0.47015056
0002c0 28 af ee 3d 79 c0 17 bf 16 87 a0 3e af a4 f0 bd
       0.11654502 -0.59278065 0.31353062 -0.11750161
0002d0 18 ca 5d 3d e6 b4 50 be 0a db c5 be bc c4 a7 3e
       0.05414781 -0.20381507 -0.38643676 0.32767284
0002e0 e7 84 b0 3e f2 61 ef bd 13 37 2b 3f 9e 2f a6 3e
       0.34476396 -0.116886035 0.6688091 0.32458204
0002f0 38 9a ba be dc 74 d2 be 2e 24 6b bf 3d 0c 93 3e
       -0.36445785 -0.41104782 -0.9185208 0.28720275
000300 a3 e0 85 3e 30 ec 82 be e4 f4 a6 3e 86 2a d4 be
       0.26147947 -0.25570822 0.32608712 -0.41438693
000310 b4 69 f9 bd eb df e6 3e 19 4d d4 be 29 31 e3 3e
       -0.121783644 0.4509271 -0.4146507 0.44373444
000320 ab 7b fa be 89 dc fa ba dd 51 9d be 42 e7 0b 3f
       -0.48922476 -0.0019139211 -0.3072652 0.54649746
000330 2c 2a 3f 3d 69 5d 03 bf a7 7e e8 be 29 79 7a be
       0.046671078 -0.5131441 -0.45409128 -0.24460281
000340 e7 2a b3 be f8 47 ba be 53 f3 5e be 92 03 f4 3d
       -0.3499367 -0.36383033 -0.21772508 0.119147435
000350 59 3e da 3d 18 2e ef 3e 4a c7 36 be dd 19 9e be
       0.10656423 0.46714854 -0.1784946 -0.30879107
000360 79 fc aa 3e 10 d7 02 3f 06 e1 89 be 7e 5c db 3e
       0.33395746 0.5110941 -0.26929492 0.42844003
000370 79 41 93 3e b4 1c 95 3e c3 d7 e6 be 40 38 94 bd
       0.2876089 0.2912346 -0.45086488 -0.07237291
000380 0b 6a bf 3d 52 00 97 be 8a 71 66 3e 02 5b 2c bf
       0.09346398 -0.29492432 0.22504249 -0.67326367
000390 54 84 b8 3e e5 fd 44 be 16 09 9e 3e 9c e1 8c bd
       0.36038458 -0.19237478 0.30866307 -0.06878969
0003a0 08 08 a0 be f0 86 84 3e fd bf a6 3e 58 9a 75 bd
       -0.31256127 0.258842 0.3256835 -0.059961647
0003b0 08 0d dc 3e 86 97 a4 3e 7a e9 ac be e1 69 a9 be
       0.42978692 0.32146853 -0.33771878 -0.33088592
0003c0 a7 b3 49 bf f6 9e d9 3e 00 c2 e5 3e 07 ad bd be
       -0.7878975 0.4250409 0.44874573 -0.37046072
0003d0 ca 59 ed 3e 22 35 dc be a0 34 90 be 9c db 00 3f
       0.46357566 -0.43009287 -0.2816515 0.503351
0003e0 cd a5 83 be 3b d0 db 3e ae ea ba be 0b f8 72 bd
       -0.25712433 0.42932305 -0.3650717 -0.059318583
0003f0 72 5f 18 be 38 b2 1d 3f 9f bd 50 bd 91 1d 2e bf
       -0.1488016 0.61600065 -0.050962087 -0.68013865

bias f4 [74]
000000 ac c1 90 be b5 e4 80 be b5 1a 4e 3f d1 4d 34 be
       -0.2827276 -0.2517449 0.805095 -0.1760781
000010 6e a0 f7 bd b1 d4 8b be 63 d5 6b 3f 87 87 37 be
       -0.120911464 -0.27310708 0.9212248 -0.17922793
000020 25 52 2b be 72 2d 28 be 56 42 e9 bd 1e 2b 87 be
       -0.16730554 -0.16423586 -0.11389606 -0.26400083
000030 47 98 8a be 30 29 af be 00 2f c3 be 85 89 8a be
       -0.27069303 -0.3421111 -0.38121796 -0.27058044
000040 99 52 87 be eb 83 4d be 77 5e c8 be 69 57 38 bd
       -0.26430205 -0.20069854 -0.3913457 -0.045005236
000050 9f 49 36 be d1 f8 6a be a3 5c 04 be d8 df 83 be
       -0.17801522 -0.22946478 -0.12925963 -0.25756717
000060 15 56 22 be ef f5 02 be 36 0d e1 bd 19 cf 9d be
       -0.1585315 -0.12789129 -0.10988848 -0.30822065
000070 4b 75 67 be d5 87 1f be a7 22 3d be 19 87 b5 be
       -0.22603337 -0.1557916 -0.1847025 -0.35454634
000080 71 40 59 be 6d e7 98 be 27 b5 ad be 44 40 9c be
       -0.21215989 -0.29864064 -0.3392727 -0.3051778
000090 c7 5d 9c be 37 1f 0b 3f 79 8b f5 3e 56 62 85 3d
       -0.30540296 0.54344505 0.47957972 0.06512897
0000a0 cd b4 57 3f 23 09 88 3e 9a 91 94 be 4b e1 78 3f
       0.84260255 0.2656947 -0.29017335 0.9721877
0000b0 ad 2b 8f 3e bd be 82 3f cd 5d d5 be 7b 82 ba be
       0.2796301 1.0214459 -0.41673127 -0.36427674
0000c0 0d 79 cc be d7 4d 45 c0 e4 c7 64 bf 1e 1b 83 3d
       -0.39936104 -3.082876 -0.8936751 0.064016566
0000d0 4d a7 26 c0 91 38 5f bf d4 1c fe be 1d 40 47 bf
       -2.6039612 -0.8719569 -0.4963137 -0.77832204
0000e0 b5 c4 17 be c7 75 82 bf 4e 2b 5d 40 03 bb 21 bf
       -0.14821132 -1.0192193 3.455768 -0.6317598
0000f0 85 8c e3 3d 6e da d8 3e 7b 52 93 bf 33 42 ad 3e
       0.11110786 0.4235415 -1.1509546 0.33839568
000100 ba 28 a6 3f 57 ed 31 3f 74 d8 57 bf 1a 92 2a bf
       1.2981179 0.69502777 -0.84314656 -0.66629183
000110 24 ea 0e 3e 2c 13 5a bf a4 4e 42 bf 49 4b 59 bf
       0.13956505 -0.85185504 -0.75901246 -0.848805
000120 e8 ce 52 3e 34 28 0c bf
       0.20586741 -0.54748845

weight f4 [50, 2]
000000 a5 2b 09 3f 67 23 15 3f 1a 41 94 3e f9 c6 2a 3f
       0.5358222 0.58257145 0.2895592 0.6670986
000010 90 ed 77 bd 20 45 88 be 78 ca 08 3e 90 bd 1d 3d
       -0.06052929 -0.26615238 0.13358486 0.03851086
000020 f0 24 43 be 67 24 2e bf c7 de 2b 3f b0 0a 55 3e
       -0.1905706 -0.68024296 0.67136806 0.20804858
000030 4c 51 38 be 00 41 16 3e 73 e7 0e 3f c6 66 f6 3e
       -0.17999762 0.14673233 0.55821913 0.48125285
000040 00 09 66 be 80 7c 49 3d 92 c1 31 bf e5 04 ce be
       -0.2246437 0.049190998 -0.6943599 -0.4023811
000050 40 66 cb 3c e1 26 cc be e4 28 14 be 4c 0e 80 be
       0.02482903 -0.39873412 -0.14468724 -0.25010908
000060 50 4d 67 3d c1 b4 a6 be 98 6a c4 be e7 d4 9a be
       0.056470215 -0.3255978 -0.38362575 -0.30240557
000070 84 42 14 3e f8 72 e8 3d 40 21 1a be f0 12 ff bd
       0.14478499 0.113500535 -0.15051746 -0.12454784
000080 91 2a 1b 3f ca b3 21 bf 00 f7 83 bd a7 9a 0d bf
       0.60611826 -0.6316496 -0.06443596 -0.55314106
000090 5a c2 6f be 7f 1a 23 bf 62 3d f3 3e ad d0 1a 3f
       -0.23413983 -0.63712305 0.4750777 0.60474664
0000a0 69 a4 ba be 91 55 0e bf 3e ee d5 3e 0b 1d fd be
       -0.3645356 -0.55599314 0.41783327 -0.4943622
0000b0 d5 71 19 bf c5 b0 ed be ee 83 04 bf 62 b2 07 bf
       -0.5993932 -0.46423927 -0.5176381 -0.53006566
0000c0 94 d2 39 be f6 bf a8 3e 10 ff 6c be 8e 65 11 bf
       -0.18146735 0.32958955 -0.23144174 -0.56795585
0000d0 a2 f5 f7 3e ce aa 23 bf 0a dc e2 3e 40 3e 23 3e
       0.4842959 -0.639325 0.443085 0.15941715
0000e0 52 75 f9 be 80 a2 07 bf 6f 6f 26 3f 30 49 32 3d
       -0.4872232 -0.5298233 0.65013784 0.04352683
0000f0 7c 54 4e 3e 60 db e1 bc b0 1e 84 bd a1 f1 21 3f
       0.20149416 -0.027570426 -0.06451166 0.6325932
000100 c5 04 e6 be 60 fb 7f 3d e0 fa 8a bd 78 fd cb be
       -0.44925514 0.06249559 -0.06786132 -0.3984182
000110 4a 9c bb 3e e1 ec 19 bf 1a 2b 85 3e 4b c2 e2 be
       0.36642677 -0.60127074 0.26009446 -0.4428886
000120 39 51 0b bf 90 e3 44 be e0 88 d9 3c 48 36 a8 be
       -0.5442081 -0.19227433 0.026554525 -0.32853913
000130 aa b4 8d 3e e0 e2 b0 be 71 a4 e4 be 69 dc b2 be
       0.27676898 -0.34548092 -0.4465671 -0.34933785
000140 b8 48 ea bd 80 0e d5 3d 66 af b3 3e 5e ad 11 bf
       -0.11439651 0.10403156 0.35094756 -0.5690516
000150 19 7f 2a bf 52 34 25 bf 88 bd 4a 3e 04 60 6f be
       -0.66600186 -0.6453296 0.19798863 -0.23376471
000160 2e 99 5e be 8d 08 1e bf 3c 97 6c 3e 05 95 0f 3f
       -0.21738121 -0.617318 0.23104566 0.5608676
000170 a2 6a ef 3e 98 4e e8 bd 5d 62 09 bf d7 98 1b 3f
       0.46761042 -0.113431156 -0.53665715 0.6078009
000180 50 1e d7 3d 24 b7 4e be 1e 11 34 bf 9a d7 d1 3e
       0.105038285 -0.2018705 -0.7033862 0.40984803

bias f4 [50]
000000 d9 7d 2d 3f 9b 78 01 3f 00 02 02 3c 9a e0 bd 3e
       0.67770153 0.50574654 0.007935047 0.3708542
000010 da 85 c8 be d4 3e 7a 3e 79 a1 2e 3f e8 e9 c4 be
       -0.3916462 0.2443803 0.6821514 -0.38459706
000020 ce 28 d1 3e 32 f3 a1 3e 54 83 34 bf e9 f1 24 3f
       0.40851444 0.31630856 -0.7051289 0.64431626
000030 cf 72 0e 3f da 65 e6 be 1a 93 b3 3e d5 e9 b5 be
       0.55643934 -0.44999582 0.35073167 -0.35529962
000040 f8 b9 23 bf 40 6c 8d bd ca ef 9e 3e 30 e1 33 bd
       -0.6395564 -0.06905413 0.3104232 -0.043915927
000050 d4 71 4a 3e 00 20 37 3b 3a 80 da 3e bc 04 81 be
       0.19769984 0.0027942657 0.42675954 -0.25198925
000060 b5 df 03 3f d8 f5 04 3e fa 6d 1e bf 55 5c e1 be
       0.51513225 0.12984407 -0.6188656 -0.44015756
000070 50 87 b9 3d 00 83 f9 3d 66 e5 0a bf 8a cd da be
       0.09059012 0.121831894 -0.54256284 -0.4273494
000080 c0 2e aa 3c 34 67 2b bf b8 3a fd 3d a0 0a 25 bf
       0.020774245 -0.6695435 0.12364715 -0.6446934
000090 8f 2d 08 3f 62 48 b9 3e 73 6d 0c 3f 06 8c e2 be
       0.53194517 0.36188036 0.54854506 -0.44247454
0000a0 da 59 ed be bf db 22 3f 9d 30 1f bf 68 4b 00 3e
       -0.46357614 0.63616556 -0.62183553 0.12528765
0000b0 5c a6 32 3e 0e e0 f7 3e 6d d1 30 3f 62 b1 e7 3e
       0.17446274 0.48413128 0.6906956 0.4525252
0000c0 f5 95 c0 be dd 7f 1b 3f
       -0.37614408 0.6074198
