model/saved_models/fr_encoder/model_epoch_11.pt (torch_old, 115280 bytes, 11 tensors)

weight f4 [74, 20]
000000 30 1c 39 3e eb 55 8f bd 92 20 b8 be d7 4a 6a bf
       0.18077159 -0.069988094 -0.3596235 -0.91520447
000010 28 32 20 3f 30 fa d0 3c 02 5b 74 3f 29 c9 83 3d
       0.6257653 0.025509924 0.95451367 0.06434853
000020 ba e8 b8 3e 08 7d 95 3f 4d c9 ac bf f1 9a 02 bf
       0.36115056 1.1678782 -1.3498932 -0.5101767
000030 e5 9e 71 3e 76 88 75 be 2c ce 6b bf c2 8a c5 3f
       0.2359577 -0.23977837 -0.9211147 1.543297
000040 53 a6 ac 3f 3a fe 0e be 04 54 92 3e 23 12 77 3f
       1.3488258 -0.13964167 0.28579724 0.9651205
000050 9f 47 5a bf ea 80 45 3b 30 10 eb 3b 09 6a 3b 3c
       -0.85265535 0.0030136653 0.0071735606 0.011438855
000060 be be fa ba 5c 2e e7 b9 7a 3e 14 be 60 a1 c7 bb
       -0.0019130332 -0.00044094294 -0.14476958 -0.0060922354
000070 53 62 bd 3b c3 94 36 bb 49 2f 95 3d f3 b6 ea 3d
       0.0057795434 -0.0027859665 0.072844096 0.11460676
000080 5e 66 e6 bc 3d ad 58 3a 80 ce 9a 3b db 8a 29 bb
       -0.028124984 0.00082655606 0.0047243237 -0.0025870118
000090 22 e5 12 bb 26 00 c0 3c 66 b1 0f 39 1b 72 1d bc
       -0.0022414406 0.02343757 0.00013703629 -0.009609724
0000a0 ed 5f e7 3e e0 f2 65 3e 06 db 02 3f a7 0a ec be
       0.45190373 0.2245593 0.51115453 -0.46101877
0000b0 aa 75 e1 be fb f6 06 3f 62 46 9e bd 0b 56 f6 3d
       -0.44035083 0.5272061 -0.07728268 0.1202813
0000c0 d5 22 f7 3d 88 ae e1 be 8b 8c 10 3f 69 35 f9 be
       0.120671906 -0.4407847 0.5646445 -0.4867356
0000d0 21 5e 4f be f6 c5 bb 3d f7 4d 94 3f bf e0 7d be
       -0.20250751 0.091686174 1.1586293 -0.24792765
0000e0 b1 6c 62 3e 0e 57 9d be ba cb 49 3e 81 e9 9c be
       0.22111775 -0.3073048 0.19706622 -0.306469
0000f0 54 d1 96 bd 4e 27 02 3e 6d 2f 0d 3d 24 56 db 3c
       -0.07364145 0.12710306 0.034469057 0.026774473
000100 78 dd 91 3c 52 d4 05 3d 2e af ce ba 06 6a ec ba
       0.0178058 0.032673188 -0.001576876 -0.0018036969
000110 54 9b 4e bd 50 bb 83 bc 13 6e e3 ba 42 8a a6 3c
       -0.0504411 -0.016080528 -0.001735153 0.020329598
000120 73 cf ce 3e 79 51 43 bd 42 95 0f 3c 98 44 e6 bb
       0.40392646 -0.04768512 0.008763613 -0.00702722
000130 2e d8 3c bc cf 1b 00 3d d1 de a2 3c 54 a2 c7 bb
       -0.011526151 0.03127652 0.019881638 -0.006092349
000140 e7 49 63 3f ef 86 08 be 95 ba 92 bc 7b 89 09 3c
       0.8878464 -0.13332723 -0.017911235 0.008394594
000150 47 6f 42 bd 55 a5 34 bc 0b 6a 17 3c d2 37 9f 3c
       -0.047469404 -0.011025746 0.009241591 0.019435797
000160 8b 31 e4 3d 99 38 0c 3d 48 82 36 bc ed 9f b1 bc
       0.11142262 0.034233663 -0.01113946 -0.021682704
000170 9c 2c ae be 90 fa bd 3c 0a 56 8d bb fb dd 2d 3c
       -0.3401841 0.023190767 -0.004313235 0.010612006
000180 70 cc a2 bd d4 63 7e bc a9 da e2 bc 8c c7 21 bb
       -0.079491496 -0.015526731 -0.027692156 -0.002468559
000190 a9 aa c5 bf 8c f7 8e bf 87 0e 1f be 76 be 22 bf
       -1.5442706 -1.1169295 -0.15532885 -0.6357187
0001a0 e2 05 95 3f f0 39 1d c0 9e 39 1b bf 33 3a 92 3f
       1.164242 -2.4566612 -0.6063479 1.1424011
0001b0 32 65 d7 3d ff fb bd 3f 68 1b 2e bf f6 39 be be
       0.10517348 1.4842528 -0.6801057 -0.37153596
0001c0 99 ee 0a 3f c8 8b 2d bf 4c b1 d8 3e 7b 3f da bf
       0.5427032 -0.67791414 0.42322767 -1.7050623
0001d0 f4 bf b4 3f 5f f8 8d 3f c5 c9 d5 bf 7a 2a 2c 3d
       1.412108 1.1091422 -1.67022 0.042032696
0001e0 65 ea 5b 3f 62 70 3a 3e 74 25 4c 3b a7 e7 0b bf
       0.8590453 0.18206933 0.0031150253 -0.5465035
0001f0 e4 cf 0d be d9 9b f6 3c 28 92 17 3d a7 70 37 bd
       -0.13848835 0.03010361 0.03700462 -0.044785168
000200 eb 1a cf be 9c 8a 80 3e 3e 33 77 3e f5 06 6a 3d
       -0.40450224 0.2510575 0.24140641 0.05713554
000210 05 5f 8b 3c 72 65 ae 3e a4 aa 0d bd 5e 05 bb bd
       0.017013082 0.34061772 -0.034586564 -0.09131883
000220 26 ff 28 3d b9 c1 f7 bc 11 70 09 3e c4 e3 0e 3d
       0.041258954 -0.030243741 0.13421656 0.034885183
000230 d8 b4 51 3f 3f d7 83 3e d2 37 9e 3d 97 af 91 3e
       0.8191657 0.25750157 0.07725491 0.28454277
000240 9e 51 e5 3e 96 84 e3 3d 25 b2 29 bf 35 a3 be 3d
       0.4478883 0.11109273 -0.6628745 0.09308473
000250 7f 30 99 3e 78 6f 32 be 89 92 81 bf 67 04 62 3d
       0.29919812 -0.17425334 -1.0122844 0.05517998
000260 cd 00 4c 3e 65 f5 e5 3e 4b 1c ff be a6 8a 32 3d
       0.1992218 0.44913784 -0.49826273 0.043589257
000270 ec 15 5e bf 47 7d 03 3e 2c 30 9c be 28 00 2d bf
       -0.867522 0.12840758 -0.30505502 -0.67578363
000280 a7 79 af 3e 8b 93 78 bd bd ac 83 3e e9 cd 49 3f
       0.342725 -0.060687583 0.25717726 0.7882982
000290 07 fb ef bf b4 91 d7 3d a0 ad 12 be c4 31 e3 3c
       -1.8748482 0.105258375 -0.14324045 0.027733691
0002a0 5d e9 1d 3e 84 26 7d 3f 05 4c 51 bd 11 25 01 3c
       0.15421052 0.98886895 -0.05109789 0.0078823725
0002b0 de 08 5a be 7a 41 0a 3e 6a df fd be 4a 6b c3 be
       -0.21292445 0.1350154 -0.49584514 -0.38167793
0002c0 e0 2e a9 bb a4 c1 d0 bd cd a7 9b 3d a7 96 d3 bb
       -0.0051630586 -0.10193184 0.07600365 -0.006457168
0002d0 34 07 04 3f 01 21 9c bd 91 1a eb be 7b 5e 40 3e
       0.5157349 -0.076234825 -0.45918706 0.18786041
0002e0 b6 f0 fc 3d 0a 63 e6 bd 00 c5 a4 3d 80 c2 7f ba
       0.123505995 -0.11249359 0.08045387 -0.0009756461
0002f0 da 5b 9f be 4b f0 7d 3e 5c b6 0e 3d e9 26 80 3e
       -0.31124765 0.24798696 0.03484188 0.25029686
000300 9f 45 12 3e c1 e0 12 3e 04 00 2c 3e 4c 0e 49 3f
       0.14284371 0.1434355 0.16796881 0.7853744
000310 c2 de de 3d 56 c3 26 3f 0b 66 29 3d f2 10 43 bd
       0.108823314 0.6514181 0.04135708 -0.047623582
000320 62 cc a2 3e 55 b7 55 c0 12 64 07 bc 3f bc 4b bd
       0.31796557 -3.3393147 -0.008263605 -0.049740072
000330 07 2b 00 be e0 3d 71 3d 11 d0 bb 3d 53 83 ab bc
       -0.12516414 0.0588969 0.09170545 -0.020936644
000340 96 18 f0 3d 4d f0 8f be d6 e6 4c bf f8 ae 17 be
       0.117234394 -0.28113022 -0.8003973 -0.14812839
000350 2f 05 e0 3d 56 0a bc 3e 4d c7 57 3d a8 8e 3e 3e
       0.10938489 0.36726636 0.052680302 0.18609107
000360 d7 ef f0 bd b5 86 86 3e 28 c2 6a 3d 05 d2 3d 3b
       -0.11764496 0.26274648 0.057314068 0.0028964293
000370 92 8d 2e 3e 3a e8 c8 bd be b3 25 bd 2f ae 0e bb
       0.17046192 -0.09809919 -0.04045462 -0.0021771302
000380 2e 29 d4 3d 39 27 58 bc 26 b5 b3 bd 4a d0 97 be
       0.10359417 -0.013192945 -0.08774786 -0.296511
000390 6b 41 25 3e 1a 33 a6 3d b4 85 83 bd e1 0d 08 bc
       0.16138236 0.081152156 -0.06421986 -0.00830409
0003a0 2a 9a c1 bd 34 a4 79 bd 95 80 34 3d ae d0 2e be
       -0.094532326 -0.060947612 0.044067938 -0.17071792
0003b0 e0 dc 56 bd 46 29 72 bd 04 ad 9a 3d 03 25 a1 3d
       -0.052456737 -0.059121393 0.07552531 0.078683876
0003c0 d2 1d 89 3d c2 22 bc 3d 1b 01 90 bc 05 8c e3 3c
       0.06695141 0.09186317 -0.017578652 0.027776727
0003d0 1a b1 9e 3e 91 89 3a 3f 99 14 0a be a9 fa d3 bf
       0.30994493 0.7286616 -0.1348442 -1.656087
0003e0 07 f1 15 3f 83 21 06 bd c2 e5 29 bd fb 34 a4 be
       0.58570904 -0.032746803 -0.04147888 -0.3207167
0003f0 e5 6e 3c be 62 af 2e bf c7 7c ed 3d 6d 23 9a 3f
       -0.18401678 -0.6823636 0.11596065 1.2042061

weight_ih_l0 f4 [200, 20]
000000 21 68 d1 bf 60 29 8c bf 7c 6e ca be b2 78 99 be
       -1.6359903 -1.0950127 -0.39537418 -0.29974896
000010 d4 65 1e 3f 02 82 94 bf 69 94 2c be d3 32 a1 3e
       0.6187413 -1.1602175 -0.16853489 0.31484088
000020 d2 6b ae 3e 25 6f a2 3d 6e 21 3a 3f 40 8e 46 be
       0.34066635 0.079313554 0.7270726 -0.19390202
000030 ae 70 0a c0 ca bc ab 3f 53 a1 63 be de 62 26 bd
       -2.1631274 1.3416989 -0.22229509 -0.04062163
000040 61 56 77 3e 76 17 15 3e aa 3c 45 bf 1c 2b 4f be
       0.24154045 0.14559731 -0.7704569 -0.20231289
000050 ec 57 0f ba d0 51 0e 3f 4c 51 66 3f 96 99 10 39
       -0.00054681185 0.55593586 0.899678 0.00013790125
000060 97 a4 8c bf 45 6e 72 bd 4c 2d ab be 30 b8 32 bf
       -1.0987729 -0.059187192 -0.33432996 -0.698123
000070 ef 14 f4 3e e2 40 41 bf 64 b4 af 3f 3d 43 a3 3f
       0.4767222 -0.7548963 1.3726926 1.2754894
000080 47 91 b4 be 3a ae f1 3d c4 38 78 bf 06 8f 11 3e
       -0.35267088 0.11800809 -0.9696162 0.14214715
000090 f9 d7 eb be a5 7d a4 be 06 b5 7e 3e 1c 03 65 bf
       -0.46063212 -0.3212711 0.24873742 -0.8945787
0000a0 f9 02 11 3e 88 20 55 3d e9 92 2f be 6d 82 8e 3c
       0.1416129 0.052032977 -0.17145886 0.017396176
0000b0 84 9e 30 be 3a ea 57 bd a1 ce 09 be ec 1f 94 3d
       -0.17247969 -0.05271361 -0.13457729 0.07232651
0000c0 8d b9 3d 3e 7a 08 a5 3e 56 98 c2 3b 46 04 0c 3e
       0.18527813 0.3223303 0.00593857 0.13673505
0000d0 e0 3d 5b bd 21 6c a4 bd 81 a2 ed 3c 87 c7 0e 3e
       -0.053525805 -0.080284365 0.029008152 0.13943301
0000e0 8d 71 4e bd 54 0e 30 3e 63 8d 89 3e c1 71 ea bc
       -0.05040126 0.17192966 0.26865682 -0.028618695
0000f0 d0 90 d2 bf 07 78 87 3f 96 4c 60 3f ae 89 15 3e
       -1.6450443 1.0583504 0.8761686 0.14603302
000100 55 95 02 bf 3b 80 d5 bd 8c 1e 6c bf d2 e3 27 3f
       -0.5100911 -0.10424849 -0.9223411 0.65582
000110 7d 91 89 3e e4 81 09 c0 4f aa ec 3d a2 a7 4d bf
       0.2686881 -2.148553 0.11555921 -0.8033391
000120 d9 73 f2 3d e0 15 1d bf 5e e3 5d 3d 00 df af bf
       0.118385024 -0.61361504 0.054171912 -1.3739929
000130 4a 0c e0 bd 9f 98 ac 3c 19 3a 1d 3f 18 2a 0e 3f
       -0.10939844 0.02106887 0.61416775 0.5553298
000140 3b 1d ad be 39 5a e5 3e 6d 4c 93 bd 5a 43 ff 3e
       -0.33811364 0.44795397 -0.071923114 0.49856073
000150 d1 9a 0b 3f 8a 40 1f bf f0 32 7d be a3 3a 0b 3f
       0.54533106 -0.62207854 -0.24726462 0.5438635
000160 64 1d 17 3f 26 6e 02 bc f8 39 d1 be bd 1f b1 3d
       0.5902922 -0.007960832 -0.4086454 0.08648632
000170 cc 48 a9 be 5e 0d 29 3e 72 53 ad 3e 5f 8b d2 3e
       -0.33063352 0.16509005 0.33852726 0.41121957
000180 bd b3 17 3f 15 f7 87 3e 2f 1a 19 bf f0 57 96 bd
       0.59258634 0.26555696 -0.5980558 -0.073409915
000190 43 0f e9 be a6 42 d2 3d c7 27 d8 3d 34 c7 99 be
       -0.45519456 0.102666184 0.10554462 -0.30034792
0001a0 72 3b 06 bd e3 7c 81 be ab 6c 35 bf 64 bd d2 3c
       -0.032771535 -0.25290594 -0.7086894 0.025725074
0001b0 05 6e 9d bc ac 33 0c bd d0 53 fe 3e d1 0c cf 3e
       -0.0192175 -0.034228966 0.4967332 0.40439466
0001c0 a1 cc 92 3e eb fa ee bc 5d 1c 81 3d 26 1c fe bc
       0.28671744 -0.029172381 0.06304238 -0.031019282
0001d0 1e 81 95 3e 53 65 9d 3e 33 8a 8b bd be 71 99 3c
       0.2920007 0.30741367 -0.06813469 0.018730994
0001e0 a4 ed 3a be 26 d7 ed bf ad 91 25 3e 15 ac 4c be
       -0.18254715 -1.8581283 0.16168852 -0.19987519
0001f0 07 bb 86 3f 6a 6f f0 3d b0 41 2e bd ff a2 dc 3e
       1.0525826 0.117400005 -0.042543113 0.43093106
000200 ef 1c d8 bf e7 69 8b 3f 4b e8 95 be 87 3a 9c 3d
       -1.688383 1.0891694 -0.29278788 0.07628351
000210 e7 77 c6 3e 88 17 8b 3e 34 09 4a be b8 7f 1f be
       0.38763353 0.2716639 -0.19730073 -0.15576065
000220 f1 e3 8a 3f 56 05 20 bf c8 4c 92 3f 00 7c 88 bd
       1.0850812 -0.6250814 1.1429682 -0.06664276
000230 3c 3a 04 3e 73 7c dc be 67 c7 86 bd 1d d8 0d ba
       0.1291284 -0.43063697 -0.06581002 -0.00054109265
000240 01 4b 66 bd 6a 2d 69 bd b8 dc 60 3c 05 4e 97 bc
       -0.056223873 -0.056928076 0.013724498 -0.01846982
000250 8b 86 a5 3d 24 35 ec 3c be e8 86 bd 19 f8 25 be
       0.08082303 0.028833933 -0.06587361 -0.16207923
000260 10 0f 73 bd 09 28 53 3e ea 77 8d 3c 1e 60 1c 3b
       -0.059340537 0.20620741 0.017269094 0.0023861001
000270 0a f5 03 bd 9b b3 c2 3c 6e 09 82 bd db 4d b7 bb
       -0.03221611 0.023767283 -0.06349455 -0.005593998
000280 55 8c ad bf d0 93 cf 3e 6f 2a df 3e 62 e0 e2 bc
       -1.3558451 0.4054246 0.43587062 -0.027694885
000290 f2 b5 c6 bf 29 54 b8 be 03 80 5c be f8 5d 35 bf
       -1.5524275 -0.3600171 -0.21533208 -0.7084651
0002a0 3a 06 09 bf 80 e9 a1 3f 4b 1f 1e 3f 5a 87 bf 3e
       -0.53525126 1.2649384 0.617665 0.37407953
0002b0 68 b2 34 3e b1 3e 2b 3b 00 0e b3 be 95 42 8a bf
       0.17646182 0.0026129896 -0.3497162 -1.0801569
0002c0 d9 95 27 3e 39 c9 38 bd 8e c4 c3 be 8a c0 a3 3d
       0.16365756 -0.045113776 -0.38235897 0.07995708
0002d0 05 04 44 3f 7f f8 06 bf 82 2f 77 3f f1 51 25 be
       0.76568633 -0.52722925 0.96556866 -0.1614454
0002e0 83 9e 1c bf e5 69 8f 3f 4d e2 31 bf 6e 82 7e 3e
       -0.6117937 1.1204191 -0.6948593 0.24854442
0002f0 7c a5 4f 3f ae 7e 0c 3e 2a f9 9c bf 5b d7 15 bf
       0.81111884 0.137202 -1.2263539 -0.5853173
000300 d4 9e c5 be eb d1 2e 3f 3a 7f ac bf 3b ad 0a c0
       -0.3859774 0.6828906 -1.3476326 -2.1668231
000310 91 97 6c bf e1 6b 1b c0 30 df ad bd 34 9b b5 3f
       -0.9241877 -2.4284594 -0.08489835 1.4187989
000320 76 60 00 be ad 55 6d be fb 89 0e 3e bf 6c b3 3e
       -0.12536797 -0.23177214 0.13919823 0.35043904
000330 45 4d a7 bd ae 3a cc be 4c 05 32 be 8e b7 7c be
       -0.08169035 -0.3988852 -0.17384833 -0.24679396
000340 ea e6 06 3f 27 ab b2 be f0 28 98 3c 79 cc 8b 3e
       0.52696097 -0.34896204 0.018574208 0.27304438
000350 de 13 d8 be ce 37 bb 3d 7a af 63 3d e9 55 b3 3e
       -0.42202657 0.09141503 0.05558727 0.35026482
000360 c2 05 89 bd d2 f9 1e 3e 54 c1 ca be 93 49 96 be
       -0.06690551 0.15524986 -0.39600623 -0.29353008
000370 8c 80 f3 be 73 64 20 be be e1 47 bf fa b2 07 bf
       -0.4755901 -0.15663318 -0.7807883 -0.5300747
000380 b7 db 31 bf 83 cf 81 bf a7 2d 9d bd bc 82 05 bf
       -0.69475883 -1.0141453 -0.07674723 -0.5215261
000390 cd 54 8a 3f e3 e0 fe 3e be 7b b8 3f 8a e8 a0 be
       1.0807129 0.4978095 1.4412763 -0.31427413
0003a0 fc e1 5b c0 61 89 da 3f d3 cc 2f bf c7 53 e3 be
       -3.435668 1.7073175 -0.6867191 -0.44399855
0003b0 8a 76 c9 be 08 60 d7 be 6b 50 32 bf 7d ab 10 be
       -0.3934825 -0.42065454 -0.6965396 -0.14127918
0003c0 66 9a b9 be c7 15 44 be e3 d2 46 3e c7 5e 9c 3e
       -0.3625061 -0.19148932 0.19416384 0.3054106
0003d0 b9 7f 5c be 69 b5 d4 be 35 e2 4e be 6d 88 48 be
       -0.21533097 -0.41544655 -0.20203479 -0.19583292
0003e0 eb 1c 90 3d 73 66 b6 bd 15 22 52 3e 19 3b 0c 3e
       0.07036766 -0.089062594 0.20520814 0.13694419
0003f0 af a1 11 bb 54 e3 1e 3d 0b 5f 83 bc e2 b5 8a be
       -0.0022221615 0.038791016 -0.016036531 -0.2709189

weight_hh_l0 f4 [200, 50]
000000 97 8b 90 c0 50 6f 8b bf 6f b4 75 c0 49 15 12 3d
       -4.51704 -1.0893345 -3.8391378 0.03566483
000010 20 ab 49 3e 34 2f a1 c0 6a fc b5 bf 03 7f b2 3f
       0.19694185 -5.037012 -1.4217656 1.3945011
000020 17 95 95 be 85 35 fb 3f d8 50 bb 3f a6 5d 02 3f
       -0.2921531 1.9625708 1.4634047 0.50924146
000030 29 52 14 c0 e9 1c 96 3e 1b 6b f0 3e bd ef 6a 40
       -2.3175147 0.29318932 0.46956715 3.6708825
000040 c8 cb 8f 3f 6b 57 33 3f ba 62 b4 bf 8b c1 02 c0
       1.1234064 0.70055264 -1.4092629 -2.043063
000050 19 e6 5d 3e 3a 45 5c 40 b0 80 8f 3f 0a 99 b5 3e
       0.21669807 3.4417253 1.1211147 0.35468322
000060 fa d7 f4 3e 43 2f 64 be 2d c7 c8 bf f3 9d a9 bf
       0.47821027 -0.22283654 -1.5685784 -1.3251327
000070 e9 00 1c 40 7c 61 6c be fd d8 26 c0 b8 99 67 c0
       2.4375556 -0.23084062 -2.606994 -3.6187572
000080 4c 85 a7 3f 96 ba af bf 5c 2d 90 3e 2e bc 0b be
       1.3087554 -1.3728817 0.28159606 -0.13646004
000090 7e 0f 90 bf 0e 89 65 3f df 89 d1 3e eb 6e 7d bf
       -1.1254728 0.89662254 0.409255 -0.9899737
0000a0 90 a6 6c c0 19 4b b3 bf b6 db da be 98 0a 50 3f
       -3.6976662 -1.4007293 -0.4274575 0.81266165
0000b0 3f 55 f0 bf 6e ed 74 3c 51 db fb be 84 4c 01 40
       -1.8776015 0.014949186 -0.49190763 2.0202951
0000c0 f7 61 56 bf d2 bf 20 be 69 17 40 bf 1a 62 cb be
       -0.8374323 -0.15698174 -0.7503572 -0.39723283
0000d0 26 21 bf 3f a6 a2 8c 3f 1c 2c 8d 3f 45 4e 40 be
       1.4931991 1.0987136 1.1029086 -0.18779857
0000e0 e1 7c 82 be 57 4a 1b 3d b2 a8 b8 bf 68 08 bf ba
       -0.254859 0.037912693 -1.4426482 -0.0014574649
0000f0 9f ff 94 3e c4 3f 12 bf 38 b3 f1 3e ff 12 66 bf
       0.29101273 -0.5712855 0.47207046 -0.89872736
000100 28 ec 8f 3f 3b 6b 0d 3f c5 be 05 3f 9e 09 41 bf
       1.1243944 0.55241746 0.52244216 -0.754053
000110 84 ad 09 bf fa 4d 3d 3e 8a e0 2e 40 e7 39 08 40
       -0.5378039 0.18486777 2.7324548 2.128534
000120 18 61 ee 3d e3 cf fd bd 34 d2 5c 3f 8b 1b ef bf
       0.11639613 -0.12393167 0.86258245 -1.868028
000130 00 ae 89 3d b6 d5 36 3f f9 72 c8 3e 48 98 93 bf
       0.06722641 0.71419847 0.39150217 -1.1530848
000140 f2 8f 1c bd 34 ac ae 3d 76 8d ef be 5a 33 73 be
       -0.038223214 0.08528939 -0.46787614 -0.23750058
000150 f1 27 b2 3f 86 97 af 3f 9a 0a 0a bf f2 c1 65 3e
       1.3918439 1.3718116 -0.53922427 0.22437266
000160 35 59 15 bf 25 df 1d 3e fc d8 0d 40 35 94 ba 3f
       -0.58339244 0.15417154 2.2163687 1.4576479
000170 47 0f 0e bf a9 e2 ef 3e d6 e6 46 bf de d4 34 3f
       -0.5549206 0.46852615 -0.7769598 0.7063731
000180 c1 22 36 40 83 51 a6 3e c1 5f 1b 3f b4 9a 10 bf
       2.8458712 0.32484064 0.60692984 -0.5648606
000190 dc 3c 06 bf 91 81 00 3f bb c6 9c bf c3 76 8c 3f
       -0.52436614 0.501977 -1.2248148 1.0973743
0001a0 40 69 29 bf f0 8b bf 3f b8 7c b3 be 18 f5 dc 3e
       -0.66176224 1.496458 -0.3505609 0.43155742
0001b0 cc cc 86 bf 55 90 2d 3e b5 89 a2 3e 11 61 68 bd
       -1.0531249 0.1694959 0.31745687 -0.056733195
0001c0 e9 84 80 be 0f ac 24 3f bf 64 76 3f 2d 28 ae 3d
       -0.25101402 0.6432504 0.96247476 0.08503757
0001d0 f9 1e 26 3f 54 e9 08 3d 0c c6 ef 3e 81 17 69 3e
       0.6489101 0.033425644 0.46830785 0.22762872
0001e0 29 ab cf be 96 13 04 bd f5 f2 5c be 11 8e 2b be
       -0.40560272 -0.03224524 -0.21577056 -0.16753413
0001f0 7f 11 8d bd 30 3b 8d 3e c8 27 69 3f 59 a8 aa be
       -0.06888103 0.2758422 0.91076326 -0.33331564
000200 9f 1b 8d be c0 c8 d0 bc f3 92 fd 3d c9 73 f6 3d
       -0.27560136 -0.02548635 0.12381544 0.12033803
000210 d4 62 c2 be 07 89 26 3f 1f fa 9a 3e 69 67 8f 3d
       -0.37966025 0.6505284 0.30268952 0.07002146
000220 60 25 29 3f 18 a5 94 be 81 08 cf 3d 72 fe 1e 3f
       0.66072655 -0.29032207 0.10109044 0.62107
000230 d9 f3 35 40 0a ea 2e 40 17 5b 48 3c 5a 47 95 3f
       2.8430083 2.7330346 0.012228749 1.16624
000240 9f 0a 71 be af ad 47 bf 86 d2 a7 be 09 24 fb 3e
       -0.23539208 -0.77999395 -0.32777804 0.4905093
000250 21 88 5d 3e 30 c7 fc be de 1a 5d 3e b0 9c 77 3d
       0.2163396 -0.49370718 0.2159228 0.060452163
000260 af fb 6b bf 4c b5 6e 3f 7a 33 88 bf 12 7a da 3e
       -0.92180914 0.9324539 -1.0640709 0.42671257
000270 f8 5e 8c 3f be e9 ea 3f 13 04 cc 3e d1 96 54 3f
       1.0966482 1.8352582 0.39846858 0.8304263
000280 bd 2c e2 3f 1f 0b 75 3e 80 f9 b0 be e7 b7 24 c0
       1.7669903 0.23930024 -0.34565353 -2.5737245
000290 d9 24 52 3e d4 7e 22 bf 29 28 0c c0 de 3f fb be
       0.20521869 -0.63474774 -2.1899512 -0.49072164
0002a0 ad ec b6 3f c7 01 b9 bf d3 60 c6 3f 10 65 b8 bf
       1.4290978 -1.4453667 1.5498298 -1.4405842
0002b0 96 3e 17 be 34 0e 11 3f 55 91 b5 3f bf d2 d5 bd
       -0.14769968 0.566623 1.4184977 -0.10440587
0002c0 88 1b e4 3f 3d e8 c6 3f 27 ed 0e c0 9f e9 b3 3e
       1.7820902 1.5539623 -2.2332246 0.35139176
0002d0 c5 13 96 3f 55 93 43 bf 53 bc 37 bd 93 05 83 3f
       1.1724783 -0.76396686 -0.044857334 1.0236076
0002e0 71 57 18 c0 f4 bc a7 be 95 b7 ba bf cc d1 9a 3f
       -2.380337 -0.32761347 -1.4587275 1.2095275
0002f0 f0 2b a0 bd 80 53 8d 3f be d7 86 3f d6 f8 b2 be
       -0.078208804 1.1041107 1.0534589 -0.34955472
000300 5f 11 83 be 1f d4 50 40 1e 76 8e bf cb 92 85 bf
       -0.2559919 3.2629468 -1.1129797 -1.0435423
000310 20 db 30 be f4 5f 23 c0 40 f4 01 3d d8 8c 4d 3f
       -0.1727109 -2.5527315 0.031727076 0.80293036
000320 34 b4 dc 3f b6 7a bc be 80 ce 8f 3f 73 1e 7b bd
       1.7242494 -0.3681237 1.1234894 -0.061308336
000330 47 4c a2 bf c0 6e 71 ba aa d0 45 3f d1 98 77 bf
       -1.2679528 -0.00092099234 0.7727152 -0.96717554
000340 89 1c eb bf af 6a 6f 40 0c ba 06 bf d5 e7 90 c0
       -1.8368083 3.7408864 -0.52627635 -4.5283
000350 09 d3 c6 3f 83 1f 33 40 51 fa ad 3f 16 63 3d 3d
       1.5533153 2.7987983 1.3592016 0.046237074
000360 d8 12 b7 be ef 61 25 bd 55 5c 4e c0 ac 02 a0 3f
       -0.35756564 -0.0403766 -3.2243855 1.2500815
000370 c9 92 03 40 03 90 83 3f 08 97 c6 3f 2d 33 4f bf
       2.055834 1.0278324 1.5514841 -0.80937463
000380 1d ec 62 3f f3 11 cb 3e d3 b7 2b bf 6a 0b ee bf
       0.8864153 0.39662132 -0.6707737 -1.8597233
000390 4a 94 b9 3f b1 fe ae 3f 2e 15 c9 3f 3b 25 2a 3f
       1.4498379 1.3671476 1.5709589 0.6646306
0003a0 bf 75 76 3e 70 64 a4 3f 3c 4c 20 bd 03 49 01 40
       0.24068354 1.2843151 -0.039135203 2.0200813
0003b0 c7 ef 1b bf 78 1e 8a bf a3 f2 51 3d 97 93 19 3f
       -0.60912746 -1.0790548 0.051256787 0.5999083
0003c0 58 7f 4b 40 78 70 82 3c 0e 8b df 3f ce 4a 95 3e
       3.1796474 0.01592277 1.7464311 0.29158634
0003d0 6f 8a ef 3d e9 ed d6 3e 3d ba b9 3f 02 43 44 bf
       0.11696326 0.41978386 1.450996 -0.76664746
0003e0 69 b5 77 3f f3 29 f1 3e 0c df 59 bf b2 92 35 be
       0.96761185 0.47102317 -0.8510597 -0.17731741
0003f0 2d 1f 17 3e fa 4d 7e 3e 02 d4 01 40 dc 20 62 bf
       0.14757986 0.24834433 2.028565 -0.8833139

bias_ih_l0 f4 [200]
000000 32 62 6a 3f 40 db 4d 3f 11 43 b4 3f db 8b 55 3f
       0.91556084 0.80412674 1.4082967 0.8341653
000010 29 a5 99 3e 7b ba 2e 3f c7 70 e5 3e 8c f6 8f 3e
       0.3000882 0.68253297 0.44812605 0.28117788
000020 cd 58 28 3f 8c f7 3e 3f 75 a4 4a 3e d0 a4 4c 3f
       0.657605 0.74596477 0.19789298 0.79938984
000030 9c bf 9a 3e dc 96 04 be f9 5d 81 3f cb 18 ad 3f
       0.3022431 -0.12948173 1.0106803 1.3523191
000040 1e ef 1b bf 85 2b f2 3e a4 ec c9 be dd a0 7c 3f
       -0.6091174 0.47298828 -0.39438355 0.9868296
000050 22 73 08 bf 83 91 69 3d 9b ba fe 3e bb e4 2f 3e
       -0.5330068 0.057023536 0.49751744 0.17177097
000060 32 1c e0 3d ce 4e ce 3e ea ca 19 3f 89 22 aa 3e
       0.10942878 0.40294498 0.6007525 0.33229473
000070 fb ae d0 3d 42 3c 2b 3d 0e 30 ae 3e 60 7e 21 3f
       0.10189625 0.041805513 0.34021038 0.6308346
000080 59 bc aa be 71 70 97 3e 33 f0 81 3e b5 76 1a 3f
       -0.33346823 0.29577973 0.2537857 0.6033738
000090 5c ab 89 be 97 bd a2 3f 0e d1 0c 3e c9 4c 78 3e
       -0.2688855 1.2714108 0.13751623 0.24248041
0000a0 5a 05 4e be 12 ea 0b be af f0 ee 3e 9b 85 c0 be
       -0.20119229 -0.1366351 0.46668002 -0.37601933
0000b0 50 87 f2 bc 26 04 ce be d1 8b c2 3f 82 cc 83 3f
       -0.029605538 -0.4023754 1.5198919 1.0296786
0000c0 43 1c 04 3e ea 1d a7 3e b3 88 d7 3e 5f 6f 40 bf
       0.12901406 0.3264001 0.4209648 -0.7516994
0000d0 34 dc 16 3f 39 30 44 3f d2 1b 11 3e 0e e5 72 be
       0.58929753 0.7663608 0.14170769 -0.2372019
0000e0 99 3d 57 3f f6 31 b5 bd 5e 27 1c 3d 16 18 33 3e
       0.84078366 -0.0884742 0.03812348 0.17489657
0000f0 28 76 bc 3d cf ca c0 3d fd 51 e9 3e 7f 8a 5e 3e
       0.09202224 0.09413683 0.45570365 0.2173252
000100 b2 81 0c 3d 75 81 17 3f 40 22 32 3f c6 0b a1 be
       0.034303375 0.5918191 0.6958351 -0.31454295
000110 99 a1 42 3e 8e fc b3 be 5c 14 0d 3f 02 32 11 3f
       0.19006957 -0.3515362 0.5510919 0.5671693
000120 80 12 ca 3e 01 b2 a5 3c 76 de 9d be b0 c8 a1 3e
       0.3946724 0.02022648 -0.30833787 0.31598425
000130 bd c7 86 3d 4a 88 73 be aa 09 c8 bf dd f0 0e 3f
       0.06581066 -0.23782459 -1.5627949 0.5583628
000140 97 c4 18 3e 7a a9 8f be 0c 18 01 be a0 48 b7 be
       0.14918743 -0.28058988 -0.1260683 -0.35797596
000150 73 60 dc 3e 8e 7c fd 3e 81 af 17 be 2d 2e 88 bf
       0.43042335 0.4950909 -0.14813043 -1.0639092
000160 ef 0e 4c 3e c7 42 76 be da f6 14 bf 71 5b 3f bf
       0.19927572 -0.24048911 -0.58189166 -0.74748904
000170 ee 48 f1 3e 4a 1e 21 3f 0c e3 05 3f 11 23 ce be
       0.47125953 0.6293684 0.5229957 -0.4026113
000180 6b 5d 24 3f 0e 5e 8a 3d 9a e6 51 bf ec 6e 82 be
       0.64205045 0.06756221 -0.81992495 -0.25475252
000190 18 dc 15 bf f2 70 d3 3e 4c 28 18 be cb 60 b3 be
       -0.5853896 0.41297108 -0.14859122 -0.35034785
0001a0 a6 8a 30 3c 77 39 d3 be 12 fe 1b 3f 7a 65 56 3f
       0.010775244 -0.4125478 0.60934556 0.8374859
0001b0 02 72 bb be f4 22 bd 3c 55 73 aa be 7c 27 3e be
       -0.3661042 0.023087956 -0.33291116 -0.1856975
0001c0 ac 87 9d be 9f 43 1f bf d3 38 36 3e 86 0f e8 3d
       -0.30767572 -0.62212557 0.17795114 0.11331086
0001d0 ee 63 83 3f 91 a9 de be b8 02 05 bd 46 f0 27 3f
       1.0264871 -0.43488744 -0.032473296 0.65601003
0001e0 22 1f 3b 3e 10 ee 1c 3f 8c 58 90 bc 0d 5a af 3e
       0.18273595 0.61300755 -0.017620347 0.3424839
0001f0 a8 67 30 3f ae 01 02 be 5c 55 03 bf eb ae d2 3e
       0.68908167 -0.12695953 -0.51302123 0.41149077
000200 29 4d 22 3d 36 2b d4 be 25 20 e8 3e 7b e5 7f 3e
       0.039624367 -0.41439217 0.45337024 0.24989884
000210 02 4a c7 bd e1 2d 8a bf cf 45 07 3e 59 f7 87 3e
       -0.09730913 -1.0795251 0.13210224 0.265559
000220 38 8e 89 be ed 37 97 3e 06 43 c1 bd 51 1c b0 3e
       -0.26866317 0.29534855 -0.09436612 0.34396604
000230 d7 a2 fa 3d 7b 8c 8e bd 1e 63 27 3e 6d 47 b9 3e
       0.122380905 -0.06960388 0.16346404 0.36187306
000240 d1 68 66 bf 93 ad 28 3e 0e 1c 11 3e e3 a5 d4 be
       -0.9000369 0.16472463 0.14170858 -0.41532812
000250 da aa 24 3f 5a 88 57 be 14 3c 12 3c 68 9e 95 3f
       0.643232 -0.21048108 0.008925457 1.1688967
000260 95 c3 87 3f f7 0b 20 3f 29 12 08 bf 0d 47 d4 be
       1.0606562 0.62518257 -0.5315271 -0.41460457
000270 3a cd cd be 85 72 02 3f 74 6c 18 3f aa 3e fc be
       -0.40195638 0.5095599 0.59540486 -0.4926656
000280 54 4a 62 be 73 18 84 3f 04 b1 91 bf 4d a7 d8 3f
       -0.22098666 1.0319961 -1.1382146 1.6926056
000290 1d 60 ea 3f fb 8d 4d bf 24 b4 c4 bf 1c b1 37 bf
       1.8310581 -0.8029477 -1.5367475 -0.7175462
0002a0 70 4c 96 bf c8 d6 39 bf ee dc 46 3e f7 30 6a 3f
       -1.1742077 -0.72593355 0.19420215 0.91480964
0002b0 6a b8 17 3e 6b 27 99 be 5c 19 87 bf 08 85 28 bf
       0.14816442 -0.29912886 -1.0554614 -0.6582799
0002c0 b7 08 7a 3f 23 c7 83 3f df 9a 13 3f c3 56 0d 3f
       0.9766955 1.0295147 0.5765819 0.5521051
0002d0 4b 36 08 3e b2 b5 25 3e d7 ce 47 3f 0e d3 32 bf
       0.13301961 0.16182593 0.7804999 -0.69853294
0002e0 58 0e a5 3f 3e 39 b8 3f ce fa 53 3f 5d 49 99 3f
       1.2895002 1.4392469 0.8280457 1.1975514
0002f0 5d 5f 75 3f 95 e4 5a be 45 45 45 be 39 08 2a 3f
       0.9584864 -0.2137626 -0.19264705 0.66418797
000300 f6 76 29 3f 26 1e 1a bf f0 8b 1b bd 5c 91 13 3f
       0.66197145 -0.6020225 -0.03797525 0.57643676
000310 63 42 60 3d e9 ee 0a be df c3 e1 3f f1 71 34 3f
       0.05475081 -0.135677 1.76379 0.7048636

bias_hh_l0 f4 [200]
000000 66 2c 4d 3f 9b 21 4d 3f 93 83 98 3f b3 20 80 3f
       0.8014587 0.801294 1.1915153 1.0009979
000010 32 d2 a1 3e 54 27 64 3f 4c 0b 04 3f 2a 98 d7 3e
       0.3160568 0.8912251 0.5157974 0.4210828
000020 36 61 2c 3f 6f ae 2f 3f 7f 84 d1 3e bc 63 15 3f
       0.6733583 0.6862554 0.409214 0.5835531
000030 b1 bf 8f 3e df c1 6f 3d 8b 74 80 3f ea 4c 9c 3f
       0.28075936 0.0585345 1.0035566 1.2210972
000040 a5 60 3d bf 8e 98 a8 3e d9 68 83 be 3a 29 6d 3f
       -0.7397559 0.3292889 -0.2566593 0.9264103
000050 36 db dc be 1a 03 e4 bc e6 81 fd 3e 70 5e a8 3e
       -0.43135995 -0.02783351 0.49513167 0.3288455
000060 7b a5 fe 3d cd e1 0d 3f 90 dc 52 3f 40 be 6f 3e
       0.12433907 0.5542267 0.823678 0.23412418
000070 6e db 22 3e 87 b5 db 3d c2 fd b2 3e 9f 62 29 3f
       0.15904018 0.10727983 0.34959227 0.6616611
000080 33 4f 08 bf 0d b4 c6 3d 2d 55 d3 3e 6e b4 e4 3e
       -0.5324585 0.09702311 0.4127592 0.44668907
000090 bc d1 c8 be 05 3c 94 3f 85 e8 3b 3d 33 41 ce 3e
       -0.39222515 1.1580817 0.045876045 0.40284118
0000a0 42 e5 9d be 16 79 d4 3d cc 41 fc 3e 06 1c 0f bf
       -0.30838972 0.10374658 0.4926895 -0.55902135
0000b0 3d f4 81 3c 36 1a 34 be eb 97 b8 3f b1 61 9c 3f
       0.015863532 -0.17588124 1.4421362 1.2217313
0000c0 28 31 92 3d 7b 77 f3 3e e5 7f 1e 3f 3e 7e 5a bf
       0.07138282 0.47552094 0.619139 -0.8534888
0000d0 6c a5 17 3f f9 e3 2a 3f 9a e0 d1 3d 0f 1c 9d be
       0.5923679 0.6675411 0.102479175 -0.3068547
0000e0 1e bb 56 3f b7 f4 6f 3c 77 f0 8f bd d5 df 00 3d
       0.8387927 0.014645747 -0.07028287 0.031463463
0000f0 28 a6 42 3e 3b 1f a7 3e 19 5a f3 3e 95 1c 25 3e
       0.19008696 0.32641014 0.47529677 0.16124184
000100 b6 03 cf 3d 8b 43 08 3f ed c3 22 3f c8 a6 aa be
       0.1010813 0.5322806 0.6358021 -0.3333037
000110 ee 45 ce 3e cc 5a 48 be a7 4b fe 3e 90 9d 11 3f
       0.40287727 -0.19565886 0.49667093 0.56881046
000120 59 00 1c 3f 6b e7 83 bd 09 31 c5 be 2d 28 d1 3e
       0.6093803 -0.06440624 -0.38513973 0.40850964
000130 90 ae 20 3d 4c d4 aa be 65 50 b6 bf 96 05 0a 3f
       0.039228976 -0.33365095 -1.4243284 0.53914773
000140 79 63 c6 3e da 9f ec bd e8 e7 44 3d 4b d2 02 bf
       0.38747767 -0.11553927 0.048072726 -0.5110213
000150 bd 56 12 3f f7 9b c7 3e e7 de 7d bd e2 e5 a2 bf
       0.571636 0.3898618 -0.061980154 -1.2726405
000160 a5 af 4a 3e 5e e9 f7 be 2e 9e 3d bf d8 3f 25 bf
       0.19793566 -0.48420233 -0.7406949 -0.6455054
000170 0c 2b 09 3f 4b 29 0a 3f f0 e5 30 3f c4 0c 05 bf
       0.5358131 0.5396926 0.69100857 -0.51972604
000180 7a 62 28 3f 82 f8 3b 3e 93 d6 52 bf a8 02 92 be
       0.65775263 0.18356517 -0.82358664 -0.28517652
000190 f9 e7 4f bf 4f f6 c6 3e ec 89 43 bc 43 62 90 be
       -0.8121334 0.38859794 -0.011934739 -0.28199968
0001a0 a1 ce 05 3e 99 2a cf be eb ea f9 3e 37 a9 5d 3f
       0.13067104 -0.40462187 0.4881204 0.86586326
0001b0 72 7a 55 be 6f 15 8c bc 39 55 78 be c4 0d ef bd
       -0.2084749 -0.017100064 -0.2425126 -0.116725475
0001c0 3f 86 86 be d8 17 0b bf e4 71 af 3e fe 2d 61 3d
       -0.26274297 -0.5433326 0.3426658 0.054975502
0001d0 7f bf 90 3f ae bf 82 be a6 7c 98 3c cc d6 1b 3f
       1.130844 -0.25536865 0.018614125 0.6087463
0001e0 4e da 5c 3e 04 b1 0d 3f 1e f2 1b 3e 18 b2 c1 3e
       0.21567652 0.5534823 0.15229079 0.37831187
0001f0 99 ec 5f 3f fc 3d ae be 72 e6 b2 be bb e5 f4 3e
       0.87470394 -0.34031665 -0.3494144 0.4783152
000200 25 40 f6 bd ff 49 f5 be 22 38 e2 3e ce ed 5f 3e
       -0.12023953 -0.47908017 0.4418345 0.21868059
000210 cd ff 3c bd cd ff 67 bf 14 5b 1f 3c e6 af 5f 3e
       -0.046142388 -0.90624696 0.009726305 0.21844444
000220 be 1a 70 bd 35 fc 30 3d 60 fd 00 be 81 86 35 3e
       -0.058619253 0.043209273 -0.12596655 0.1772709
000230 7b 7c c0 bb f6 03 de bd 26 11 8d 3e ce 72 84 3e
       -0.005874214 -0.10840599 0.27552146 0.2586884
000240 2a 3a 5f bf 3a d6 92 3e 28 b8 3b 3e df b1 e2 be
       -0.87198126 0.28679067 0.18331969 -0.4427633
000250 cf f1 05 3f 02 c0 bf be 3b 2a 84 bd 67 1f 9d 3f
       0.52322096 -0.37451178 -0.06453367 1.2275208
000260 5a aa 73 3f 41 bc 19 3f c0 29 07 bf bf 3d c3 be
       0.9518181 0.6005288 -0.5279808 -0.38133046
000270 c6 88 c8 be d1 b6 f8 3e de e2 25 3f 65 a4 df be
       -0.3916685 0.48576978 0.64799297 -0.4368011
000280 27 75 53 be 90 c0 6e 3f d5 fb 89 bf bf a3 c7 3f
       -0.20650159 0.9326258 -1.0779978 1.5596846
000290 6d c0 db 3f 38 bd 34 bf c8 c0 c3 bf 9f 8f 4b bf
       1.7168099 -0.70601225 -1.5293207 -0.79516023
0002a0 c9 a4 81 bf e2 d6 50 bf 64 6d b4 3e e8 fc 90 3f
       -1.0128413 -0.81577885 0.35239708 1.1327181
0002b0 65 b7 ab 3d 20 48 de be 5e 39 7f bf bc e4 ef be
       0.08384589 -0.43414402 -0.9969691 -0.46854198
0002c0 8c da 78 3f 02 14 7e 3f 7e ce f9 3e 48 b6 d6 3e
       0.97208476 0.9924928 0.48790354 0.41935945
0002d0 2f d7 0d 3e 11 1d 65 3d 91 a2 4e 3f 9b 28 31 bf
       0.13851617 0.055935923 0.80716807 -0.69202584
0002e0 f1 b1 97 3f 8f 09 cb 3f 80 85 54 3f 32 72 87 3f
       1.1851178 1.5862292 0.83016205 1.0581725
0002f0 80 10 85 3f 8d 48 c6 be 46 76 a2 bd 9f 2d 29 3f
       1.039566 -0.38727227 -0.07932715 0.6608524
000300 4f 79 01 3f e2 15 42 bf 6f 12 f8 bc a5 2c ab 3e
       0.5057573 -0.7581464 -0.030282227 0.334325
000310 94 9e f0 3b 0f f7 23 bc 45 2b de 3f 47 8c 79 3f
       0.0073431227 -0.010007634 1.7356955 0.9747967

weight f4 [74, 50]
000000 36 5a 84 3e 35 bc 5e bf 9b 08 e4 3e b4 d6 68 3e
       0.25850075 -0.8700593 0.44537815 0.22738153
000010 6e 53 02 3e 53 2f 9e be 2b 52 f5 be 38 3a c0 be
       0.12727138 -0.3089548 -0.47914252 -0.37544417
000020 f6 e9 1d 3e 80 c4 f9 be 88 2c 74 3e 48 9f dc be
       0.1542128 -0.4878273 0.23845112 -0.43090272
000030 06 6b 2d 3e e6 ae 6c 3e 2a b4 5b 3e 12 e7 c6 be
       0.16935357 0.23113593 0.21455446 -0.38848168
000040 45 f5 0b bf d7 15 b2 3e d4 42 87 be 7c 2a 69 be
       -0.54671127 0.34782287 -0.26418173 -0.22770113
000050 2a cf aa be c5 c0 00 bf b7 14 8c 3e 98 dc d2 be
       -0.3336118 -0.5029414 0.27359554 -0.41183925
000060 c7 e3 86 3c 73 b8 1e 3f 58 dc 4e be 66 7b 8a 3e
       0.016466035 0.620002 -0.20201242 0.2704727
000070 e9 aa 8d be 44 5e 8f 3e 2c 33 4a be 04 03 ae be
       -0.27669457 0.28001606 -0.19746083 -0.33986676
000080 07 75 12 3f 03 6d 0b 3d e3 f8 e1 bd 8a db 8b 3e
       0.5720982 0.03403951 -0.110337995 0.27315933
000090 c2 81 e2 be 82 8a 29 bf ff 24 83 3e 52 4e b9 be
       -0.44239622 -0.6622697 0.25614163 -0.36192566
0000a0 30 6a cd be ec 87 ac be a3 72 76 3f 57 ac 55 be
       -0.40120077 -0.3369745 0.9626867 -0.20866524
0000b0 58 87 94 3e 30 c8 5c be ef 66 03 be c0 91 c3 be
       0.2900951 -0.2156074 -0.12832235 -0.38197136
0000c0 b4 a7 dc be d8 96 ea 3e 95 a0 87 3e 6e d2 65 bf
       -0.43096697 0.4581821 0.26489702 -0.89774215
0000d0 fd 37 b1 3e 3e 75 ac 3e f4 8f 85 3e 97 93 9f be
       0.34613028 0.336832 0.2608639 -0.3116729
0000e0 29 8c 8c be 3e 9a 8c be c8 98 b7 3d 3a 9c f1 be
       -0.27450684 -0.27461427 0.089646876 -0.47189504
0000f0 1c 38 92 3e 4f 4e 01 bf 15 21 54 3e df f6 a5 3e
       0.28558433 -0.50510114 0.20715745 0.3241491
000100 cb ca 23 3e b8 41 bb be 2e 96 06 bf 37 18 4d 3e
       0.15995328 -0.36573577 -0.52572906 0.20028768
000110 82 84 4f be 50 b8 92 be 94 f3 cc be 14 33 0f bf
       -0.20265391 -0.28656244 -0.40029585 -0.55937314
000120 42 8d 2b 3e 23 78 e1 be 59 5a 86 bd cc 35 17 3f
       0.16753104 -0.4403697 -0.06560201 0.5906646
000130 fe b8 06 be c4 35 b2 3e c6 79 b1 be 6e b6 ca 3e
       -0.13156506 0.34806645 -0.34663218 0.39592308
000140 7e 4c 39 be f3 c7 c2 be ee 7e 06 3f 22 46 ed 3d
       -0.18095586 -0.38043174 0.5253743 0.115856424
000150 ea 4a ad bd 59 d8 4b 3e 72 45 9a be 3e 0f 43 bf
       -0.08461554 0.19906749 -0.30131108 -0.7619513
000160 af 19 57 3e ef 7b d5 be cc 20 9f be 32 4d 05 bf
       0.21005891 -0.41696116 -0.3107971 -0.52070916
000170 72 94 95 3f cc 0c 73 be 2e 5b 8b 3e 37 9c a4 bd
       1.1685927 -0.2373535 0.27218002 -0.08037608
000180 09 79 84 be e6 44 ed be ed 5f a0 be ab 14 fb 3e
       -0.25873592 -0.46341628 -0.31323186 0.49039206
000190 57 cf fa be 07 b8 27 3f 18 5e 0d c0 e1 1d 99 be
       -0.48986313 0.6551518 -2.208868 -0.29905608
0001a0 e5 50 81 bf d5 c6 1b bf f2 4b 18 c0 af 78 dc be
       -1.0102812 -0.6085027 -2.3796353 -0.43060824
0001b0 af b3 f4 be 1b 99 1a c0 90 98 b8 bf 78 e6 9f bf
       -0.47793338 -2.4155948 -1.4421558 -1.2492208
0001c0 23 f4 ca 3f 05 a7 06 3f eb 00 62 bf 93 91 4a bf
       1.5855755 0.525986 -0.8828265 -0.7912838
0001d0 04 80 47 bf 0f c5 f3 bf bd e2 37 3f 1b e1 37 bf
       -0.7792971 -1.9044513 0.7183035 -0.7182786
0001e0 22 15 8e 3f ff 7f c9 40 f3 04 98 bc fb 92 ea 3e
       1.1100199 6.2968745 -0.018557047 0.45815262
0001f0 9d 58 7a 3f 75 7c ce be 56 94 13 be d8 b2 8c 3c
       0.97791463 -0.40329328 -0.14412054 0.017175123
000200 9f fb ba be 1f e8 e5 3e 6d ae c2 bf 43 34 1f 3f
       -0.36520097 0.44903657 -1.520948 0.6218912
000210 5d f2 e6 bf 05 f5 30 be 6e 93 b7 bf 41 58 2a 3e
       -1.8042713 -0.17280968 -1.4341867 0.16635229
000220 e4 9b 37 c0 15 67 b0 bf f9 c1 68 3d b5 6d 06 bf
       -2.8688898 -1.3781458 0.05682561 -0.5251115
000230 32 3e 9b 3f b9 ab 43 3f b4 fd 6d bf 59 12 cf be
       1.2128356 0.764339 -0.92965245 -0.40443686
000240 8e c1 4f 3f dc 2d 39 c0 c9 94 a4 bd 5a cf c0 3e
       0.81154716 -2.893424 -0.08036191 0.37658197
000250 bf e4 13 3f 0f cb 2d be df ad 96 3e 7b 90 4c 3f
       0.57770914 -0.16971992 0.29429528 0.7990796
000260 43 5f 07 40 f8 8a 4b bf 48 94 b5 3f cf bc 8d bf
       2.1151893 -0.79508924 1.4185877 -1.1073245
000270 88 cd 23 40 9e 54 13 c0 3a e0 bd bf f5 ff b0 3e
       2.5594196 -2.3020396 -1.4834054 0.3457028
000280 ad e3 e5 3d 0c 6d 0b c0 97 4a 8d 40 39 fa a1 40
       0.11225066 -2.1785307 4.415355 5.0617948
000290 db 99 1a 40 9a 6e fc bf 23 0d a0 c0 6e c7 a4 3f
       2.4156406 -1.9721253 -5.0016036 1.2873361
0002a0 7b bb e2 bf 0b 88 b0 bf 44 66 68 3f 8a 2f fe 3e
       -1.7713464 -1.3791517 0.90781045 0.49645644
0002b0 57 26 6b 40 84 6a 19 c0 56 a6 72 c0 50 b3 c0 40
       3.674215 -2.3971262 -3.7914023 6.0218887
0002c0 21 a6 f2 bf 38 56 38 40 62 3c e3 3f 63 3c 3b bf
       -1.8956949 2.8802624 1.7752802 -0.7313902
0002d0 ad c6 a8 3f 36 0a 31 3f a9 a9 a0 bf 4a f8 88 bf
       1.3185631 0.69156206 -1.2551776 -1.0700772
0002e0 a6 3d 11 c0 c6 f6 fb 3f 3e 52 b2 c0 c4 11 3a 40
       -2.2693877 1.9684684 -5.5725393 2.9073343
0002f0 f1 45 04 be a4 7d b6 bf c7 06 a3 3f 6a 37 b6 3f
       -0.12917306 -1.4257092 1.2736443 1.4235661
000300 5b 70 2c 40 e8 a4 f0 be db e3 ab 3e 50 25 dd 3e
       2.6943576 -0.47000813 0.33572277 0.4319253
000310 f3 e6 b1 c1 2b 2c 1a c0 20 70 97 be c3 68 8e 40
       -22.237768 -2.4089458 -0.29577732 4.4502883
000320 05 cc c3 bf f4 4c b0 3c db df f5 be 9e e9 57 bf
       -1.5296637 0.02152107 -0.4802235 -0.84340847
000330 03 e7 97 bf 41 62 e2 3e c0 13 2a 3f 5c 76 8f 3f
       -1.1867374 0.44215587 0.66436386 1.1207995
000340 af 85 ee 3d e3 fd a1 bf 6a 2e 50 3f dd 2e 84 3e
       0.11646592 -1.2655605 0.8132082 0.25817004
000350 e0 6e ff bf 27 29 c7 bf c5 7e cf 3e a6 80 19 3f
       -1.9955711 -1.5559434 0.40526405 0.59961927
000360 41 9e e9 3e 32 70 6b bf 74 97 42 be 47 28 95 3f
       0.4562855 -0.9196807 -0.19003087 1.1652917
000370 9c b0 fd 3e 05 b2 94 bf 24 25 cd 3d 9f 85 12 3d
       0.49548805 -1.1616827 0.1001685 0.035771962
000380 37 7a 75 40 39 8c d1 be 3c fd cf 3d 2a e7 3a 40
       3.8355844 -0.40927294 0.101557225 2.9203591
000390 ac c7 84 3f 1f 59 32 bc cf 37 3d 3f 4b d7 d8 3f
       1.0373435 -0.010885506 0.7391328 1.6940702
0003a0 98 0d 13 3f 05 81 22 bf 51 7f 4f bf 8b 9e a5 3d
       0.5744262 -0.6347812 -0.81053644 0.0808688
0003b0 6b 77 b4 3f d0 cc e5 be 1f ab 07 bd 59 8e 0f 40
       1.4098943 -0.44882822 -0.03312218 2.2430632
0003c0 60 5d b2 3f 87 65 d6 3e 63 67 5d 3f ce e9 a1 3f
       1.3934746 0.41874334 0.8648588 1.2649477
0003d0 25 ff ac be 7b 7b b1 3f 4f 8d c2 3e 23 dc 74 3f
       -0.3378841 1.3865808 0.37998435 0.956484
0003e0 c1 db 2c be 34 87 6b 3f 9b 6c 98 3f e8 e7 85 c0
       -0.16880704 0.9200318 1.1908144 -4.184559
0003f0 eb fe 9a 3f 20 f5 fa bd a4 48 5a c0 50 8a f7 bf
       1.2109045 -0.12253785 -3.4106836 -1.9339085

bias f4 [74]
000000 d3 f4 66 be 22 78 ad be aa a6 a5 3f cf fe 51 ba
       -0.2255433 -0.33880717 1.2941487 -0.0008010687
000010 e6 cf 0a 3f 73 f6 1b bf 4d b4 e7 bd dd 96 34 3f
       0.5422348 -0.60922927 -0.113136865 0.705427
000020 c4 02 67 3f 42 6e 36 3d 7c 81 a4 be af 6e 23 3e
       0.90238595 0.044538744 -0.3213004 0.15960191
000030 57 25 15 3d 0d 03 9d be c7 7d 33 3f 81 e5 72 3e
       0.036412563 -0.3066639 0.70113796 0.23720361
000040 a4 05 c3 be f5 c5 82 be 4c f1 bb 3e 2c e6 c9 3d
       -0.3809024 -0.25541654 0.36707532 0.09858355
000050 9b 9a b6 bc b1 1b 7a bf d6 1b 3e 3f e7 7d cc 3e
       -0.022290519 -0.97698504 0.74261224 0.39939806
000060 2e 25 47 bf 09 1e 75 3f e9 07 5f be ad cf ad 3e
       -0.77791107 0.95748955 -0.21780361 0.33947507
000070 86 0a 84 bf d5 75 04 3f 37 9e 81 bf a1 bf 63 bf
       -1.0315711 0.517423 -1.0126408 -0.8896428
000080 99 ca 63 3e 05 f8 5c bf 1b cd 8a bf 35 74 8e bf
       0.22245254 -0.8631595 -1.0843843 -1.1129214
000090 9e c6 c3 bf c4 8a 98 be f9 80 8d be ae b6 aa be
       -1.5294988 -0.2979337 -0.2763746 -0.333425
0000a0 02 04 69 be d7 35 56 be 6f e9 a3 bd 1d d9 d4 bd
       -0.22755435 -0.20918976 -0.08003508 -0.103929736
0000b0 2c 11 31 be 2d 92 22 be 2d 76 8b be eb db b0 be
       -0.17291707 -0.15876074 -0.27238598 -0.34542784
0000c0 1f 5b 9a be 45 ed c8 bd cf 7c 61 be 03 e2 8f be
       -0.30147645 -0.098108806 -0.22020267 -0.2810212
0000d0 36 27 88 be 99 1c 77 be 66 0e 1e be a9 fa 99 be
       -0.26592416 -0.24132003 -0.1543518 -0.3007405
0000e0 34 35 22 be ec 08 b8 be 36 f4 c4 bd 4d d9 f6 bd
       -0.15840608 -0.35944307 -0.09616892 -0.120531656
0000f0 c1 91 c7 be 50 3f 2d be 78 12 75 be 5d 80 c8 bd
       -0.3897839 -0.16918683 -0.23932827 -0.09790108
000100 e4 b8 36 be f7 ac ab be 8b b3 9e be ae 19 32 be
       -0.17843968 -0.335304 -0.30996355 -0.17392609
000110 1c 78 4d be f4 4b 83 be a6 bc a7 be ca 4a d2 bd
       -0.2006535 -0.25643885 -0.32761115 -0.10268171
000120 81 20 56 be 65 ba 17 be
       -0.20910837 -0.14817198

weight f4 [35, 2]
000000 e8 64 c6 be 2c 3b 08 3e 32 cc cd 3e d4 e8 54 3e
       -0.3874886 0.13303822 0.4019485 0.20791942
000010 82 f2 cb 3e a8 47 24 be d8 ee 10 bf 1e 28 cb 3e
       0.39833456 -0.1604296 -0.56614447 0.39679044
000020 cf 3c 29 bf 30 5e 22 3d bf d7 1d 3f 2a b4 d4 3e
       -0.6610841 0.039640605 0.6165733 0.41543704
000030 20 e4 d1 3d 1c 42 b2 be 89 0e c0 be 83 71 22 3f
       0.102485895 -0.34816062 -0.3751109 0.63454455
000040 e0 a7 cf bc d6 b1 10 bf cb 0c 06 3f 96 d7 12 bf
       -0.025348604 -0.56521356 0.5236327 -0.5736021
000050 cc ee 09 3e 3d e9 84 be 37 21 1e 3f 3a b9 cc 3e
       0.1347 -0.25959197 0.6176943 0.39985067
000060 00 71 95 bc 74 65 22 bf 80 f9 cc bc 00 22 7a bd
       -0.01824236 -0.63436055 -0.025021315 -0.06106758
000070 c4 30 26 bf 60 12 50 3d 68 81 fd 3d 08 ae 1d 3e
       -0.6491816 0.050798774 0.12378198 0.15398419
000080 00 e0 09 3c 4b 88 30 3f 9c f9 38 be 30 38 f7 be
       0.008415222 0.68957967 -0.18063968 -0.48285055
000090 9c 3c 31 3e ec ea 3d be a6 33 a2 3e 3e 53 d0 3e
       0.17308277 -0.18546647 0.3168003 0.4068851
0000a0 e6 b8 76 be 71 f0 1a 3f 60 89 8f 3e 9a 21 d8 3e
       -0.2409397 0.60523134 0.28034496 0.42213136
0000b0 67 ac 19 3f 5a 9b 1a bf 48 9e e8 3d 5a 15 c0 3e
       0.6002869 -0.603933 0.11358315 0.3751629
0000c0 c8 7c 63 3e 87 9b 1a bf e8 f9 db 3d c2 3b e0 be
       0.22215569 -0.60393566 0.10741025 -0.43795592
0000d0 98 66 89 be 3d 60 27 bf dd 2c 16 3f a0 e6 51 bd
       -0.26836085 -0.6538122 0.58662206 -0.05124533
0000e0 8d 6b 1c 3f a7 a1 e1 be e7 32 e5 be dd fa 0a 3f
       0.6110161 -0.44068643 -0.44765398 0.54289037
0000f0 28 b1 db bd 55 85 0c bf 1f 0f 16 bf ac e8 3b 3e
       -0.10727149 -0.5489095 -0.5861682 0.18350476
000100 7c f7 f7 be 9c 7a 8a be d6 cf 9b 3e f8 92 02 3e
       -0.48431003 -0.2704667 0.30432004 0.12751377
000110 b2 c3 95 be c5 4b 13 3f
       -0.29250866 0.5753749

bias f4 [35]
000000 32 f1 e4 be 80 11 ec 3b 2f 12 ad be 8e 56 ce be
       -0.44715267 0.0072042346 -0.33802935 -0.4030041
000010 da 22 91 3e 48 a9 7e be 8a 00 16 bf 80 1e b1 bb
       0.28346902 -0.24869263 -0.5859457 -0.005405247
000020 b0 6e e3 bd a0 eb 03 be 3e fd 8f 3e 14 5f 29 bf
       -0.11105096 -0.12882853 0.28122896 -0.661607
000030 ee 11 e5 3e c6 18 d9 3e 50 ce 81 3d 1c f7 4b be
       0.44740242 0.42401713 0.06338179 -0.19918483
000040 28 ff 24 bf 5c 82 89 3e 9e fd 91 3e a6 91 ee 3e
       -0.6445184 0.2685727 0.28513807 0.46595496
000050 88 29 e3 3d 80 84 b8 3c 49 98 bd be 8a ee c4 3e
       0.11091906 0.022524118 -0.37030247 0.3846324
000060 b9 e6 2f 3f 80 d0 7c 3d 0e 12 f6 3e 8e 2b e3 3e
       0.6871143 0.06172228 0.4806065 0.44369167
000070 d7 e1 06 bf cb 68 26 3f 44 cb 4c be 5e 29 2f bf
       -0.52688354 0.6500365 -0.19999415 -0.68422496
000080 c6 23 10 bf d2 45 b4 3e 6b b6 92 be
       -0.56304586 0.3520952 -0.286548

weight f4 [50, 35]
000000 d0 02 09 3e d8 dc 2a 3e f8 ae cf bc 36 76 8a bd
       0.13379979 0.16685808 -0.025351986 -0.06760828
000010 60 0d 4e bd 7f cf 9b bd d8 3c 15 3e 88 ca b6 bd
       -0.050305724 -0.07607936 0.14573991 -0.089253485
000020 88 35 e5 bc af 5a c9 bd 66 ae ab bd c8 86 81 bc
       -0.027979627 -0.0983175 -0.08382873 -0.015811339
000030 cc f6 df bd e0 79 e6 3b 00 dc 1c bc fd 9a ec bd
       -0.10935745 0.0070335716 -0.009573936 -0.11552999
000040 30 fb 68 bd c0 26 b6 3d 4b c7 c0 bd 70 26 08 3d
       -0.056880176 0.0889411 -0.09413012 0.03323978
000050 3e 54 d4 bd 9c 1e 21 3d c8 49 a9 3d 60 4b dc bd
       -0.103676304 0.039335832 0.08266026 -0.10756564
000060 b4 57 d6 bd 42 50 1f be d9 ef 18 be 68 67 1d be
       -0.10465947 -0.1555796 -0.14935245 -0.15371478
000070 30 2d 40 3d 7c d6 d3 bd cf 69 da bd cc 74 ec bd
       0.046918094 -0.10343644 -0.10664713 -0.11545715
000080 c4 c9 b6 3d 97 4f d1 bd 98 2e 0c 3d e8 aa b3 bc
       0.089252025 -0.10220259 0.034224123 -0.02193208
000090 d1 bb 0a be 6c 2f bb bd f4 c1 24 bd 12 a8 10 be
       -0.13548209 -0.091399044 -0.04022403 -0.14126614
0000a0 1a 93 1c 3e 22 8e 22 3e 03 1a 26 be dc 5f e8 3d
       0.1529049 0.15874532 -0.1622086 0.11346409
0000b0 74 df 04 3e 60 a2 fd bb b0 39 d6 3d e8 54 76 3d
       0.12975866 -0.007740304 0.10460222 0.060139567
0000c0 50 50 64 3d cc 6e ff 3d a1 90 04 be 28 23 f6 3d
       0.055740654 0.12472305 -0.12945797 0.12018424
0000d0 58 72 f5 3c 28 d5 e2 bc 80 7f 12 bb 38 d8 24 3e
       0.02996175 -0.027689531 -0.0022353828 0.16098106
0000e0 36 4d 14 be c0 c6 b0 3c 00 78 97 3c 65 87 03 be
       -0.14482579 0.021579146 0.018489838 -0.12844618
0000f0 c1 9a 2c be c8 c0 d8 bd 34 90 90 bd 80 df b9 3d
       -0.16855909 -0.10583645 -0.070587546 0.09075832
000100 9b c2 e4 bd a6 49 13 3e a2 4f 56 bd ab 15 d8 bd
       -0.111699305 0.14383563 -0.052322038 -0.10551008
000110 00 1e ac 3c f0 bd ae bd d8 af eb 3d 3b ae 90 bd
       0.021010399 -0.085323215 0.11508149 -0.07064482
000120 3c ec 14 3e 78 37 1c be 97 7e ac bd d0 69 9d 3c
       0.14543241 -0.15255535 -0.084225826 0.019215494
000130 40 45 7d bd 20 0a dc 3d b8 1e 4f 3d c8 0b 25 be
       -0.06183362 0.10744119 0.050566405 -0.16117775
000140 88 a4 d9 3d 38 62 19 3e 94 a6 fe 3d 62 44 6f bd
       0.10627085 0.14978874 0.12434116 -0.058414824
000150 a2 07 0f be f8 e5 1d 3d 58 03 87 3c 12 5b 9d 3d
       -0.13967755 0.038549393 0.016481087 0.07683386
000160 77 e0 d4 bd 74 2e b9 bd 70 66 71 3c 3e 0a 1e be
       -0.10394376 -0.09042063 0.014733896 -0.15433595
000170 a8 87 9b 3d e0 e3 db bb 80 e9 e8 3d 20 a3 22 be
       0.07594234 -0.0067105144 0.113726616 -0.1588254
000180 d2 e7 48 bd 90 b9 25 3d b2 f7 0c 3e ac 68 1d 3e
       -0.049049206 0.04046017 0.13766363 0.1537196
000190 d8 87 c3 bd 8c 66 67 3d 50 7c 38 bc d2 e6 1b 3e
       -0.095473945 0.05649428 -0.011260107 0.1522477
0001a0 f3 c6 9b bd 14 43 00 3e 50 ec 1b bc 28 38 cf bd
       -0.07606306 0.12525588 -0.0095167905 -0.10118133
0001b0 42 5e 8d 3d 7a 18 90 3d 54 49 f1 3d a5 1a a6 bd
       0.06902744 0.070359185 0.11781564 -0.08110551
0001c0 6c fd 28 be 20 19 bd 3c f6 d4 f9 bd 78 26 da bd
       -0.16502923 0.02308327 -0.12198822 -0.106518686
0001d0 a3 e9 9a bd 06 c1 0b 3e 00 6e 6c 3b 48 de fb bc
       -0.07564094 0.13647851 0.0036076307 -0.03074564
0001e0 10 c0 ab 3c 9e 32 6f bd 3e 33 05 3e 70 15 ae 3c
       0.020965606 -0.05839788 0.13007829 0.021250457
0001f0 b8 ff d6 3d e8 de 48 3d bc f5 c2 3d 14 5d 77 3d
       0.10497993 0.049040705 0.09519526 0.0603915
000200 84 52 cb 3d 54 7f 26 bd a4 bd be 3d 94 1f 3f 3d
       0.09927848 -0.040648773 0.09313515 0.046660975
000210 96 95 04 be 76 42 0a be 04 de 07 3e 04 76 67 bd
       -0.12947688 -0.13501915 0.13268286 -0.056509033
000220 3a 0d 2d 3e bc 93 9c 3d 04 9d 0e 3e 04 42 c6 bd
       0.16899577 0.076453656 0.13927084 -0.0968056
000230 54 a8 0e be ee 76 00 be d1 1e 29 be 35 c6 a1 bd
       -0.139314 -0.12545368 -0.16515662 -0.07899133
000240 a0 84 bd 3d aa 54 55 bd a8 a6 ca 3c 51 22 a2 bd
       0.09253812 -0.052082695 0.024737671 -0.079167016
000250 78 de e2 bd b0 02 82 3d 14 bf 0a 3d 00 a7 92 3d
       -0.11077589 0.06348169 0.033873633 0.07160759
000260 d4 5c 91 3d 2c ef 50 3d 72 05 08 be ea bc 12 3e
       0.07097784 0.051009342 -0.13283327 0.14329877
000270 28 9b b9 bc 7c fb d4 3d 60 b8 05 3c 2c 96 cb 3d
       -0.022656992 0.10399529 0.008161634 0.099407524
000280 5b 9a 1a be d8 f0 a1 bc 42 94 1c 3e 1c 7b fd 3d
       -0.15097944 -0.019768164 0.15290931 0.12376997
000290 2f c9 9a bd 4e 88 f6 bd 74 af 40 3d 8b 60 9a bd
       -0.07557904 -0.12037717 0.047042325 -0.07537945
0002a0 11 4e c0 bd e7 31 da bd 88 3a 26 be 16 9e f6 bd
       -0.0938989 -0.10654049 -0.16233265 -0.12041871
0002b0 14 81 72 3d 60 aa 37 bc d0 24 08 bc a0 c3 7b 3c
       0.05920513 -0.011210054 -0.008309558 0.015366465
0002c0 b0 b4 0d be 90 6d 12 bd 91 3d 28 be 9b 21 18 be
       -0.13838458 -0.03574902 -0.16429736 -0.1485657
0002d0 18 b9 86 3d a8 1b fb 3c 3a 91 5a bd e6 3e 26 be
       0.065782726 0.030652836 -0.053361155 -0.16234931
0002e0 cc ef 2b be 28 2f 22 3d 72 d6 12 be c8 7a 01 be
       -0.16790694 0.039595753 -0.14339617 -0.12644494
0002f0 1b d7 27 be b9 2a c5 bd 60 7f 04 bd 90 f9 5b bc
       -0.1639065 -0.09627289 -0.032348037 -0.0134262
000300 18 0c ff bc 14 ec 92 bd 44 46 f2 3d 38 b6 d8 3d
       -0.031133696 -0.071739346 0.11829808 0.105816305
000310 5c 42 ce 3d e2 c5 07 be 40 0b 0e 3b 4c 72 1a be
       0.10071251 -0.1325908 0.0021674186 -0.15082663
000320 4e d7 12 3e 80 ee fe 3b 60 41 b2 bc 68 6a 5c bd
       0.14339945 0.0077798963 -0.021759689 -0.053812414
000330 38 ae 8b 3d 36 52 91 3d 44 18 17 3e e0 f5 ef bd
       0.06820339 0.070957586 0.1475535 -0.11716819
000340 04 ae ee 3d 24 61 7e 3d 4f b1 d3 bd 18 7b c1 bc
       0.116542846 0.06210436 -0.10336553 -0.023618266
000350 b9 36 8d bd 68 25 53 3d 88 0f f0 bc 0c 3c 23 be
       -0.06895203 0.051549345 -0.02930428 -0.15940875
000360 00 d3 0f 3b 96 18 90 3d 64 95 cb 3d 9a c0 8f bd
       0.0021945834 0.070359394 0.099406034 -0.07019158
000370 10 83 cb 3d 99 7e 22 be e6 c2 83 bd ef 49 f9 bd
       0.099371076 -0.15868606 -0.06433658 -0.12172305
000380 ae 4d 24 be 67 e9 b1 bd 00 36 b1 ba 30 38 9c bc
       -0.16045257 -0.08687096 -0.0013520122 -0.019069761
000390 0f 7b 1e be 0c a0 eb 3d 40 aa e8 3b 9c 2e fa 3d
       -0.1547663 0.11505136 0.0071003735 0.12215921
0003a0 e4 4b 1b 3d 1c 4e 76 3d d1 85 ca bd 04 9a 1a 3e
       0.03791417 0.060133085 -0.09888805 0.15097815
0003b0 22 aa 34 bd 40 a6 1a bd 0c 24 e9 3d d2 5b 09 be
       -0.044107564 -0.037756205 0.113838285 -0.13413933
0003c0 db e5 2b be 8a 9e 5f bd 89 f8 11 be 58 0f 00 bd
       -0.16786902 -0.054594554 -0.14254965 -0.031264633
0003d0 20 29 e8 3b 08 b2 1d 3e 64 2e 22 bd 48 5d c6 3d
       0.0070849806 0.15399945 -0.039595023 0.09685761
0003e0 be 93 2c 3e dc fc 17 3e 68 a4 f1 bd f4 41 85 bd
       0.16853234 0.14842552 -0.11798936 -0.0650672
0003f0 12 2b 1f 3e 81 6d 20 be 60 12 5c 3d 78 65 ef bc
       0.15543774 -0.15666772 0.05372846 -0.029223189
