model/saved_models/fr_encoder/model_epoch_9.pt (torch_old, 115280 bytes, 11 tensors)

weight f4 [74, 20]
0	0x3e391c30	0.18077159
1	0xbd8f55eb	-0.069988094
2	0xbeb82092	-0.3596235
3	0xbf6a4ad7	-0.91520447
4	0x3f203228	0.6257653
5	0x3cd0fa30	0.025509924
6	0x3f745b02	0.95451367
7	0x3d83c929	0.06434853
8	0x3eb8e8ba	0.36115056
9	0x3f957d08	1.1678782
10	0xbfacc94d	-1.3498932
11	0xbf029af1	-0.5101767
12	0x3e719ee5	0.2359577
13	0xbe758876	-0.23977837
14	0xbf6bce2c	-0.9211147
15	0x3fc58ac2	1.543297
16	0x3faca653	1.3488258
17	0xbe0efe3a	-0.13964167
18	0x3e925404	0.28579724
19	0x3f771223	0.9651205
20	0xbf7dd1e4	-0.9914839
21	0x3b9a92cc	0.0047172066
22	0x3bf04ad4	0.007333139
23	0x3bb51185	0.00552577
24	0xbbc8c5f7	-0.006127115
25	0xbc43ce74	-0.011951078
26	0xbe54ce20	-0.20781755
27	0xbbf7a361	-0.007557318
28	0x3c4aa4da	0.012368405
29	0x3b8ad230	0.004236482
30	0x3ddd27fd	0.10798643
31	0x3e2ebd66	0.17064437
32	0xbcfd8a87	-0.030949844
33	0xbbf2521e	-0.007395043
34	0xbbc6c924	-0.0060664583
35	0xbc02f319	-0.007992529
36	0xba5a5d75	-0.0008329966
37	0x3d01a094	0.03164728
38	0xbc5ee5d4	-0.0136046
39	0xb924fb29	-0.00015733823
40	0x3eee91f7	0.46595737
41	0x3e24e926	0.16104564
42	0x3f077857	0.52918
43	0xbf1064ce	-0.56403816
44	0xbf13dad8	-0.57755804
45	0x3efaa0ae	0.48950714
46	0xbe1639d5	-0.14670499
47	0x3e355abf	0.17710398
48	0xbbd00ac6	-0.0063489405
49	0xbe847067	-0.25867006
50	0x3f1ccfe8	0.6125474
51	0xbede1cb8	-0.43381286
52	0xbe2a7644	-0.16646677
53	0x3ea1b32a	0.31582004
54	0x3fb64f95	1.4243037
55	0xbe97d951	-0.29657987
56	0x3e8a5f2b	0.27025732
57	0xbeb1c44e	-0.3472008
58	0x3e6241aa	0.22095361
59	0xbe773dc7	-0.2414466
60	0xbd82eac4	-0.06392434
61	0x3e03d826	0.12875423
62	0x3ccf39dd	0.025296146
63	0x3d1374fd	0.03600024
64	0x3c060294	0.008179326
65	0x3cbcf44d	0.02306571
66	0xbbbe2392	-0.00580258
67	0x3ae093e0	0.0017133914
68	0xbd4ad378	-0.04951808
69	0xbc032a12	-0.008005636
70	0xbb47f67c	-0.0030511906
71	0x3cbee4f4	0.023302533
72	0x3ee2309d	0.44177714
73	0xbd2feaf3	-0.042948674
74	0xb9359d02	-0.00017319995
75	0xba72ed94	-0.0009266969
76	0xbc1faf09	-0.0097463215
77	0x3cf77fa0	0.030212224
78	0x3cace01f	0.021102963
79	0xbcbf7b42	-0.023374204
80	0x3f829dd4	1.0204415
81	0xbe3cdcbb	-0.18443577
82	0xbc1b5fd8	-0.0094833
83	0x3bf2403d	0.0073929117
84	0xbd64eca6	-0.055889748
85	0xbb8063d3	-0.00391815
86	0x3ceffa81	0.029294254
87	0xbbc3ef8c	-0.005979484
88	0x3e188c90	0.1489737
89	0xbbd5cb5f	-0.006524488
90	0x3b5978c4	0.0033183554
91	0xbd26fb0f	-0.040766772
92	0xbec640a0	-0.3872118
93	0x3c046612	0.008080976
94	0xb9bacc07	-0.00035628697
95	0x3cc1614d	0.023605967
96	0xbdad9b4e	-0.08476888
97	0xbc30703a	-0.010768944
98	0xbd5e8370	-0.054324567
99	0xba142847	-0.0005651754
100	0xbfc525ae	-1.5402124
101	0xbf7fec97	-0.9997038
102	0xbe77040d	-0.24122639
103	0xbf201d94	-0.6254513
104	0x3f911072	1.1333144
105	0xc01b1831	-2.4233515
106	0xbf1cc0cc	-0.61231685
107	0x3f93355f	1.1500663
108	0x3d8f5634	0.06998864
109	0x3fb67975	1.4255816
110	0xbf20cc77	-0.6281199
111	0xbeb0e99e	-0.34553236
112	0x3f182c27	0.5944237
113	0xbf42db1b	-0.7611558
114	0x3eca6a7d	0.3953437
115	0xbfdff3be	-1.7496259
116	0x3f9f36f2	1.2438643
117	0x3f9c5939	1.2214729
118	0xbfd4ab7a	-1.661483
119	0xbc296ac1	-0.0103403935
120	0x3f6752f0	0.9036093
121	0x3e27fd9c	0.16405338
122	0x3d468954	0.04847081
123	0xbf00be01	-0.5028992
124	0xbe0980f6	-0.13428101
125	0x3c35723a	0.011074597
126	0x3d7732e5	0.06035127
127	0xbc62e04e	-0.013847424
128	0xbf0299d0	-0.5101595
129	0x3eb4699b	0.3523682
130	0x3e3e7ea0	0.18602991
131	0x3d1d303d	0.03837608
132	0x3d67435a	0.056460716
133	0x3eb47a0b	0.3524936
134	0xbd1b3905	-0.037896175
135	0xbd8dfa21	-0.06932474
136	0x3d8d0892	0.068864
137	0x398301ec	0.000249877
138	0x3e6b6e51	0.22991301
139	0xbcc9468e	-0.024569776
140	0x3f49b652	0.78793824
141	0x3d81265b	0.06306144
142	0x3ea6a007	0.32543966
143	0x3ea387d2	0.3193956
144	0x3f18e764	0.59728074
145	0x3e7c072b	0.2461211
146	0xbf254eed	-0.64573556
147	0x3da9fcb1	0.0830015
148	0x3d6b3156	0.057420097
149	0xbd2776d8	-0.040884823
150	0xbf6cf235	-0.9255708
151	0x3ee792c9	0.45229176
152	0x3e3129ba	0.17301074
153	0x3e64d60f	0.22347282
154	0xbe46efe9	-0.19427456
155	0xbb5a7f52	-0.003334005
156	0xbf56115e	-0.8362025
157	0xbcc8af18	-0.024497554
158	0xbe67d670	-0.22640395
159	0xbf36cd80	-0.7140732
160	0x3e5f6327	0.21815167
161	0xbd33e45f	-0.043918964
162	0x3e8c8877	0.27447864
163	0x3f4e0468	0.80475473
164	0xbff82cd7	-1.9388684
165	0x3e11ecbe	0.14250466
166	0xbdf1bdfd	-0.118038155
167	0x3d6a662d	0.05722635
168	0x3da11d91	0.078669675
169	0x3f8d5391	1.1041127
170	0xbdd0d1b3	-0.10196247
171	0x3daf3162	0.08554341
172	0xbe43dde5	-0.19127615
173	0x3de757e6	0.11296062
174	0xbf217daf	-0.630824
175	0xbeca140a	-0.39468414
176	0x3d827d68	0.063715756
177	0xbe02e155	-0.1278127
178	0xbd15031d	-0.036379922
179	0xbcaabefb	-0.02084302
180	0x3ef6da01	0.482132
181	0xbd97917b	-0.07400795
182	0xbee8224f	-0.45338675
183	0x3e1f1364	0.1553474
184	0x3e028e95	0.12749703
185	0xbe280977	-0.1640986
186	0x3d22185e	0.03957402
187	0xbdadcc44	-0.08486226
188	0xbed780d7	-0.42090484
189	0x3e84de96	0.2595107
190	0x3dc60278	0.096684396
191	0x3e8048d2	0.25055557
192	0x3e2c1155	0.16803487
193	0x3e392d63	0.1808372
194	0x3e9575ce	0.2919144
195	0x3f3734c2	0.7156488
196	0x3de5f90b	0.11229142
197	0x3f207beb	0.62689084
198	0x3e16146b	0.14656226
199	0xbcf67d91	-0.030089172
200	0x3e916301	0.28395846
201	0xc052eb8e	-3.295627
202	0xbd0b1c5b	-0.03396259
203	0x3d511c7f	0.051052567
204	0xbdaa21c1	-0.08307219
205	0x3ca0dffe	0.019638058
206	0x3e1f251e	0.15541503
207	0xbc33b543	-0.010968509
208	0x3e03e026	0.12878475
209	0xbe99ef70	-0.3006549
210	0xbf6c5b99	-0.92327267
211	0xbe79d54e	-0.24397776
212	0x3df9f1fc	0.12204358
213	0x3ee69d37	0.4504182
214	0x3d8502e2	0.064946905
215	0x3e7060e9	0.23474468
216	0xbe2c459f	-0.16823433
217	0x3e83a73f	0.25713536
218	0x3dd233a5	0.10263757
219	0x3cca97a0	0.024730504
220	0x3e24d8c9	0.16098322
221	0xbd83367d	-0.06406877
222	0xbe0fff8d	-0.14062329
223	0xbc5f817f	-0.013641714
224	0x3dc7fd12	0.09765066
225	0x3d17dfb6	0.03707858
226	0xbe44b8f6	-0.19211182
227	0xbe9d3a81	-0.30708697
228	0x3e10ddda	0.1414713
229	0x3ddac63c	0.106823415
230	0xbdb5a182	-0.08868696
231	0xbd935d1b	-0.07195493
232	0xbddbf15f	-0.10739397
233	0xbd825769	-0.063643284
234	0xbcac93af	-0.021066515
235	0xbe83bdab	-0.25730643
236	0xbda7d8be	-0.08195637
237	0xbdd9c518	-0.10633296
238	0x3d948d4b	0.07253512
239	0x3d51a16a	0.051179327
240	0x3ecd535d	0.40102664
241	0x3d54c301	0.051943783
242	0xbe8452e6	-0.25844496
243	0x3f02dfeb	0.5112292
244	0x3f3ccfbf	0.73754495
245	0x3f368ceb	0.71308774
246	0xbea3a907	-0.31964895
247	0xbfd9463f	-1.6974562
248	0x3eeddf66	0.46459502
249	0xbb70fb02	-0.0036770706
250	0x3dbfcf3d	0.093656994
251	0xbedb3eae	-0.42821258
252	0x3e216815	0.1576236
253	0xbf645f20	-0.8920765
254	0x3e19d973	0.15024357
255	0x3f933d26	1.1503036

weight_ih_l0 f4 [200, 20]
0	0xbfb558a7	-1.416768
1	0xbf560b70	-0.836112
2	0xbea4033c	-0.32033718
3	0xbeaa3ed8	-0.3325107
4	0x3f1ee746	0.62071645
5	0xbf907406	-1.1285408
6	0xbe694906	-0.22781762
7	0x3eb39057	0.3507106
8	0x3e9025a6	0.28153723
9	0x3d7bc7db	0.061469894
10	0x3f4b6b8f	0.79460996
11	0x3e01fde7	0.12694512
12	0xc0003837	-2.003431
13	0x3f99388e	1.1970384
14	0xbe6fec57	-0.2343
15	0x3e347ea3	0.17626433
16	0x3f06d746	0.5267223
17	0x3e6e4463	0.23268275
18	0xbf1837b9	-0.59460026
19	0xbe13a740	-0.1441927
20	0xbc797ace	-0.015227033
21	0x3f09c3dd	0.5381449
22	0x3f5fd227	0.8743004
23	0x3e105adf	0.14097165
24	0xbf7e5642	-0.9935037
25	0xbd5b21a1	-0.053498868
26	0xbed062a7	-0.40700266
27	0xbf4abc9e	-0.79194057
28	0x3f18a9c0	0.5963402
29	0xbf11d825	-0.56970435
30	0x3fae58f2	1.3620894
31	0x3f915a00	1.1355591
32	0xbee2835a	-0.44240838
33	0x3df09c8c	0.11748609
34	0xbef186b2	-0.47173077
35	0x3e80c163	0.25147542
36	0xbe810719	-0.25200728
37	0xbe0afb7f	-0.135725
38	0x3eb59bd5	0.35470453
39	0xbf6e7595	-0.93148166
40	0x3d96cf2e	0.07363735
41	0x3d4e4d0a	0.05036644
42	0xbe700921	-0.23440982
43	0x3c227cb1	0.009917424
44	0xbe394566	-0.1809288
45	0x3cbd1410	0.023080856
46	0xbe06276e	-0.13100979
47	0xbd12e6f7	-0.035864796
48	0x3e3b44ba	0.18287936
49	0x3e96313e	0.29334444
50	0x3ca02928	0.019550875
51	0x3d940d27	0.07229071
52	0xbdaf8530	-0.085703254
53	0xbd71e921	-0.05906022
54	0x3dc336aa	0.09531911
55	0x3cdee3a2	0.027208153
56	0xbc87a9a9	-0.016560392
57	0x3e1fa4e5	0.15590246
58	0x3e82916b	0.2550157
59	0xbdb0bd27	-0.08629828
60	0xbfb22f39	-1.3920661
61	0x3f353bcd	0.70794374
62	0x3eb08927	0.3447964
63	0x3e39ab7e	0.18131825
64	0xbdc1ef91	-0.09469522
65	0xbe742c1c	-0.23844951
66	0xbf60c77f	-0.87804407
67	0x3e86067d	0.26176825
68	0x3d560348	0.052249223
69	0xbfe2c392	-1.7715933
70	0x3e30bd7f	0.17259787
71	0xbee08e62	-0.4385863
72	0xbdc0af3a	-0.09408422
73	0xbf294775	-0.6612466
74	0x3dd1cc7a	0.10244079
75	0xbfa3f4d3	-1.280909
76	0x3e41aef9	0.18914403
77	0xbd274e3e	-0.040846102
78	0x3ee39814	0.44451964
79	0x3f1c137b	0.60967225
80	0xbe963b95	-0.29342332
81	0x3f027863	0.50964946
82	0xbdcef46c	-0.101052135
83	0x3f170b1a	0.59001315
84	0x3f1305eb	0.57430905
85	0xbf2470e3	-0.6423475
86	0xbf022ba4	-0.5084784
87	0x3edc39a8	0.43012738
88	0x3f03c687	0.51474804
89	0xbdcfce4b	-0.10146769
90	0xbec8d979	-0.39228418
91	0x3c11cd77	0.008899084
92	0xbe91b4f1	-0.2845836
93	0x3e4d2e96	0.20037302
94	0x3e544e33	0.20732956
95	0x3ec1c8c9	0.378485
96	0x3f2b2385	0.66851074
97	0x3e944ea7	0.28966257
98	0xbf3f1b4c	-0.74651027
99	0x3d97624e	0.07391797
100	0xbee12178	-0.43970847
101	0x3d7e53cc	0.062091634
102	0x3e2c72af	0.16840623
103	0xbe8f4763	-0.2798415
104	0xbdae00a2	-0.084962144
105	0xbe81af09	-0.25328854
106	0xbf3b20d1	-0.7309695
107	0x3c8d6340	0.01725924
108	0xbc18660c	-0.009301674
109	0xbc8803bc	-0.016603343
110	0x3f0afc87	0.54291576
111	0x3ee2930c	0.44252813
112	0x3e34c859	0.17654552
113	0xbe077c41	-0.13230993
114	0x3c9c9c7a	0.019117583
115	0xbddea44e	-0.108711824
116	0x3e8059f4	0.2506863
117	0x3ea59970	0.32343626
118	0xbe0410b6	-0.12897
119	0x3c77bc93	0.015120643
120	0xbe3eaeea	-0.18621412
121	0xbfca2eae	-1.5795496
122	0xbd846fbf	-0.064666264
123	0xbeb59179	-0.3546255
124	0x3f7d80ed	0.9902485
125	0x3ea65af7	0.32491276
126	0xbe023d20	-0.1271863
127	0x3ebca0e6	0.36841506
128	0xbfc50dcc	-1.5394835
129	0x3f877f74	1.0585771
130	0xbe530480	-0.20607185
131	0x3df0530e	0.117345914
132	0x3eb00bfb	0.3438414
133	0x3ea205c5	0.31645027
134	0x3e31c6ab	0.17360942
135	0xbe4cfd10	-0.2001841
136	0x3f906e41	1.1283647
137	0xbf230d20	-0.636919
138	0x3facbaac	1.3494468
139	0x3cc64f42	0.024207715
140	0x3e093630	0.13399577
141	0xbefae693	-0.4900404
142	0xbdb48864	-0.08815077
143	0x3d4db28c	0.050219104
144	0xbd92fe7c	-0.07177445
145	0xbd72c7d1	-0.05927259
146	0xbb0c3198	-0.0021391865
147	0xbcbe7f78	-0.023254141
148	0x3dd1fe79	0.10253615
149	0xbc8230bc	-0.015892379
150	0xbd61638d	-0.05502658
151	0xbe15f393	-0.14643697
152	0xbcd4cc29	-0.025976257
153	0x3e39ceb5	0.18145259
154	0xbbd25e3a	-0.006419924
155	0xbc23b884	-0.009992722
156	0xbde4cac7	-0.11171489
157	0x3c7235a8	0.0147833
158	0xbdbb9b96	-0.09160535
159	0x3c2d97cf	0.010595276
160	0xbfa043f9	-1.2520744
161	0x3eba31b1	0.36366037
162	0x3ec0887c	0.3760413
163	0x3d7f36d3	0.062308144
164	0xbfabdd75	-1.3426958
165	0xbe5351f2	-0.20636728
166	0xbe9ee700	-0.31035614
167	0xbf1ea811	-0.619752
168	0xbe91e03f	-0.284914
169	0x3f9b0296	1.2110164
170	0x3eb75132	0.35804135
171	0x3ef06eb6	0.46959466
172	0xbdafd881	-0.08586217
173	0x3d8e2af2	0.06941785
174	0xbe47770a	-0.19479004
175	0xbf9a092d	-1.203405
176	0x3e726929	0.23672928
177	0xbe1191a3	-0.14215712
178	0xbecb8b76	-0.39754838
179	0xbdbba20c	-0.09161767
180	0x3f3c7210	0.73611546
181	0xbedb5878	-0.42840934
182	0x3f64ede2	0.8942548
183	0xbe8b363a	-0.2718981
184	0xbf3e7032	-0.74389946
185	0x3f40aa2a	0.7525965
186	0xbf3f9979	-0.74843556
187	0x3e2bed5b	0.16789763
188	0x3f5949db	0.8487832
189	0x3da73587	0.081645064
190	0xbf59833d	-0.8496588
191	0xbf015c59	-0.50531536
192	0xbebd7631	-0.37004235
193	0x3f38e817	0.7222914
194	0xbfa87dee	-1.3163431
195	0xbff2f64a	-1.8981411
196	0xbf4a2bb0	-0.7897291
197	0xc0033769	-2.050257
198	0xbe16f351	-0.14741255
199	0x3f9a8a7d	1.2073513
200	0xbdd76d2f	-0.10518872
201	0xbe5c4801	-0.21511842
202	0x3e16d975	0.14731391
203	0x3e3dee8a	0.18548027
204	0xbdcf24ab	-0.10114416
205	0xbec80786	-0.3906824
206	0xbdc87d59	-0.09789533
207	0xbdfe4fbd	-0.124175526
208	0x3eb7bb6a	0.35885173
209	0xbeb6bdcf	-0.35691687
210	0x3c90747e	0.017633673
211	0x3e93bb05	0.28853622
212	0xbe92c603	-0.28666696
213	0x3e029809	0.1275331
214	0x3d6ff69b	0.05858479
215	0x3e450c7b	0.19243042
216	0xbd9d5a05	-0.076831855
217	0x3e023561	0.12715675
218	0xbea24745	-0.31695
219	0xbde7b6ea	-0.11314185
220	0xbebeba7b	-0.37251648
221	0xbe787f20	-0.24267244
222	0xbf3cad55	-0.73701984
223	0xbea3d9b8	-0.32002044
224	0xbf66b53e	-0.90120304
225	0xbf42fbd1	-0.7616549
226	0xbe84a2d3	-0.25905475
227	0xbee10937	-0.43952343
228	0x3f935e91	1.1513234
229	0x3f13f97a	0.57802546
230	0x3fc55b86	1.5418556
231	0xbef51c2b	-0.47873053
232	0xc04e5a10	-3.224247
233	0x3fce8bf7	1.6136464
234	0xbf6750af	-0.9035749
235	0xbef64b3f	-0.48104283
236	0xbed0fa51	-0.40815976
237	0xbe86346c	-0.2621187
238	0xbee8417c	-0.4536246
239	0xbdf679ad	-0.120349266
240	0xbebf0986	-0.37311953
241	0xbdb0afab	-0.08627256
242	0x3e5791cf	0.21051715
243	0xbca07d81	-0.019591095
244	0xbe56f56a	-0.20992056
245	0xbecf9de8	-0.4055016
246	0xbe5d10b1	-0.21588399
247	0xbe4f845d	-0.20265336
248	0x3d2d4b10	0.042307913
249	0xbd06b36c	-0.032885954
250	0x3e78c3e6	0.2429348
251	0x3e492e18	0.1964649
252	0xbb75fd65	-0.0037535068
253	0x3d925ffe	0.07147215
254	0xbba24965	-0.004952597
255	0xbe1c9172	-0.15289858

weight_hh_l0 f4 [200, 50]
0	0xc08ee6a8	-4.4656563
1	0xbf6f8fa4	-0.93578553
2	0xc065d826	-3.5913177
3	0xbd73c701	-0.059515957
4	0x3e49ea48	0.19718277
5	0xc096e430	-4.715355
6	0xbf98fa79	-1.1951438
7	0x3faa3a77	1.3299092
8	0xbedd575d	-0.43230715
9	0x3ff8d7aa	1.9440815
10	0x3f9bd2dd	1.2173725
11	0x3ecdf930	0.40229177
12	0xc00ef004	-2.2333994
13	0x3ed4a74f	0.41533896
14	0x3ec698fe	0.387886
15	0x405eeafa	3.4830918
16	0x3f9080ac	1.1289268
17	0x3f38216e	0.7192601
18	0xbfa4f400	-1.2886963
19	0xbfe13f9d	-1.7597538
20	0x3d90b644	0.070660144
21	0x404e4254	3.2227983
22	0x3fa077c9	1.2536556
23	0x3e8b3659	0.271899
24	0x3f1552dd	0.58329564
25	0xbdea751b	-0.11448117
26	0xbfc9b109	-1.5757152
27	0xbf93753b	-1.1520151
28	0x40094e5e	2.1454082
29	0xbe13282e	-0.14370796
30	0xc017a08c	-2.369174
31	0xc053888f	-3.3052099
32	0x3f9eb52b	1.2399038
33	0xbfd90c3b	-1.6956857
34	0x3e83ea80	0.25764847
35	0xbd20590a	-0.039147414
36	0xbf50d49f	-0.81574434
37	0x3f53e7f6	0.8277582
38	0x3eec1f30	0.46117544
39	0xbf4160fd	-0.7553862
40	0xc075f24e	-3.842914
41	0xbfafe6c7	-1.3742303
42	0xbf0415c6	-0.51595724
43	0x3f394766	0.7237457
44	0xbff12de6	-1.8842132
45	0x3daced67	0.084437184
46	0xbf0087f2	-0.50207436
47	0x400006df	2.0004194
48	0xbf405c2c	-0.75140643
49	0xbd12f220	-0.03587544
50	0xbf15b556	-0.5847982
51	0xbe998299	-0.2998245
52	0x3f8db5d8	1.1071119
53	0x3eb1404d	0.3461937
54	0x3f95fba2	1.1717417
55	0xbd215c0c	-0.039394423
56	0xbe12f1c0	-0.14350033
57	0xbd5ff2ed	-0.05467503
58	0xbfc7d5e1	-1.5612146
59	0x3d5757df	0.052574035
60	0xbec8027b	-0.39064392
61	0xbec4ba9b	-0.3842362
62	0x3ee50d9e	0.44736952
63	0xbf870cd4	-1.055079
64	0x3f800812	1.0002463
65	0x3f0c1d0c	0.5473182
66	0x3efd5c3f	0.4948444
67	0xbf174ece	-0.5910462
68	0xbefc5d5e	-0.49289984
69	0x3d943ff9	0.07238764
70	0x40194414	2.3947802
71	0x3fe06db2	1.7533476
72	0x3d21fbf4	0.03954692
73	0x3d95f64a	0.073223665
74	0x3f15cf56	0.58519495
75	0xbff4d726	-1.9128158
76	0x3ed361cb	0.41285548
77	0x3f0f2a64	0.5592406
78	0x3f023a4e	0.50870216
79	0xbf849d15	-1.0360438
80	0xbd8e5cc9	-0.06951291
81	0x3e63febd	0.22265144
82	0xbe671cb6	-0.22569546
83	0xbbef267d	-0.0072982893
84	0x3fa89f88	1.3173685
85	0x3fab2693	1.3371147
86	0xbf05e945	-0.52309066
87	0x3e150760	0.14553595
88	0xbec6595c	-0.3874005
89	0x3ec3c31e	0.382348
90	0x3fc56fc3	1.5424732
91	0x3fbbda77	1.4676045
92	0xbf0ad789	-0.5423513
93	0x3efdd9e0	0.49580288
94	0xbf2ac94b	-0.667134
95	0x3f1a90a9	0.60376984
96	0x403376b6	2.8041205
97	0x3e838e5c	0.2569455
98	0x3f422fd9	0.7585426
99	0xbf16aedf	-0.5886058
100	0xbf523838	-0.82117033
101	0x3ecf10b0	0.4044242
102	0xbf9e2037	-1.2353581
103	0x3f813822	1.0095255
104	0xbf27f042	-0.6560098
105	0x3fb0b168	1.380414
106	0xbed191ce	-0.40931553
107	0x3f048646	0.51767385
108	0xbf844d36	-1.0336063
109	0x3eaeb5b9	0.34123018
110	0x3dfaaada	0.122396186
111	0xbe03e923	-0.12881903
112	0xbe59f76d	-0.21285792
113	0x3f0b5b60	0.544363
114	0x3f89c794	1.0764031
115	0x3d0c7c2b	0.034298103
116	0x3eea927a	0.45814878
117	0x3e20a619	0.15688361
118	0x3e7967cc	0.24356002
119	0x3e03755b	0.12837736
120	0xbed972da	-0.42470437
121	0xbde3a151	-0.11114753
122	0xbdaa8a8f	-0.08327209
123	0xbe7d7bf7	-0.2475432
124	0x3e0c9cb1	0.13731648
125	0x3e81848f	0.25296447
126	0x3f5e2ed5	0.8679021
127	0xbec6c556	-0.3882243
128	0xbe4be918	-0.19913137
129	0xbc5bf6c8	-0.013425536
130	0x3def4d55	0.11684672
131	0x3d12a609	0.035802875
132	0xbef74c37	-0.48300335
133	0x3f1853c8	0.5950284
134	0x3ead5f93	0.3386198
135	0x3e07f040	0.13275242
136	0x3f05d906	0.52284276
137	0xbe834c8e	-0.25644344
138	0x3e3f94cf	0.1870911
139	0x3f38fd09	0.722611
140	0x401f7a5d	2.4918435
141	0x402f267f	2.7367246
142	0x3dbda4e4	0.09259966
143	0x3fa2469c	1.2677798
144	0xbe33e702	-0.17568591
145	0xbf2a2c88	-0.664742
146	0xbed88c2a	-0.42294437
147	0x3ed28293	0.41115245
148	0x3e79e3c5	0.24403293
149	0xbf12f5f9	-0.57406574
150	0x3eace558	0.33768725
151	0xbd4aef4e	-0.049544625
152	0xbf6ab8a4	-0.9168799
153	0x3f4b28d8	0.793592
154	0xbf536ae1	-0.8258496
155	0x3e8c988e	0.2746014
156	0x3fab476e	1.3381174
157	0x3ff0f52b	1.8824819
158	0x3e4a1cbc	0.19737524
159	0x3f2d5fef	0.6772451
160	0x3ff56b9d	1.9173466
161	0x3e554a3e	0.20829102
162	0xbefd870a	-0.4951709
163	0xc0176e4d	-2.3661072
164	0xbbd7bde7	-0.0065839174
165	0xbeffc486	-0.49954623
166	0xbff42dfb	-1.9076532
167	0xbf25af74	-0.64720845
168	0x3fc15d91	1.5106679
169	0xbfbc93ca	-1.4732602
170	0x3f992d05	1.1966864
171	0xbf84e0ec	-1.0381141
172	0xbe291209	-0.16510786
173	0x3ec4f6a6	0.38469428
174	0x3f92db45	1.1473166
175	0xbd4eb944	-0.05046965
176	0x3fa31fb6	1.2744052
177	0x3fb403a3	1.406361
178	0xbfff9279	-1.9966575
179	0x3e30113b	0.17194073
180	0x3f966ea2	1.1752512
181	0xbf135045	-0.57544357
182	0x3e510f14	0.20415908
183	0x3f7d7607	0.9900822
184	0xc003e9c8	-2.0611439
185	0xbeff8482	-0.49905783
186	0xbfb20bf0	-1.3909893
187	0x3fba7bed	1.4569069
188	0x3ebd4390	0.3696561
189	0x3f89d267	1.0767335
190	0x3fa2d0f9	1.2720023
191	0xbe2ce5f0	-0.16884589
192	0xbee9b310	-0.45644426
193	0x4032dc09	2.7946799
194	0xbf9e2c9a	-1.2357361
195	0xbf8f7ebf	-1.1210555
196	0xbee3f47b	-0.4452246
197	0xbfdeb813	-1.7399925
198	0x3e03da67	0.12876283
199	0x3f191cc6	0.5980953
200	0x3ff973b1	1.9488431
201	0xbeda59ba	-0.4264658
202	0x3f866b88	1.0501566
203	0x3d661c5e	0.056179397
204	0xbf8b3fdb	-1.0878862
205	0x3d33ad30	0.043866336
206	0x3f4b2152	0.7934772
207	0xbf62fc4f	-0.8866624
208	0xbfebce0c	-1.8422256
209	0x40677a1f	3.6168287
210	0xbedd886a	-0.43268138
211	0xc085f45f	-4.1860805
212	0x3f9a88ca	1.2072995
213	0x402869e5	2.6314633
214	0x3fc8034e	1.5626009
215	0x3d9d03d9	0.076667495
216	0xbebae285	-0.36500946
217	0xbd50c448	-0.05096844
218	0xc0389851	-2.8842967
219	0x3f9aa7d7	1.2082471
220	0x3fef712d	1.8706414
221	0x3f977907	1.183381
222	0x3fa01118	1.2505217
223	0xbf48ed81	-0.784874
224	0x3f385119	0.71998745
225	0x3eadfa1b	0.33979878
226	0xbef60803	-0.48052987
227	0xbfed4917	-1.853793
228	0x3f8d8549	1.10563
229	0x3f9a0bd3	1.2034858
230	0x3fa8bd8f	1.3182849
231	0x3f316151	0.6928912
232	0x3e37d0b7	0.17950712
233	0x3f963b3d	1.1736828
234	0xbdf77d7d	-0.12084482
235	0x3ffe6c87	1.987687
236	0xbec8a753	-0.39190158
237	0xbf67959b	-0.90462655
238	0x3d6397ca	0.05556468
239	0x3f0aed9c	0.54268813
240	0x403e22b5	2.9708683
241	0x3debd9e6	0.1151617
242	0x3fdc7ba5	1.7225233
243	0x3e30cf1f	0.1726651
244	0x3dd47d7d	0.103754975
245	0x3e8592c0	0.26088524
246	0x3fc09e20	1.5048256
247	0xbf3d7c83	-0.74018115
248	0x3f11d0c4	0.56959176
249	0x3ecb6ebc	0.3973292
250	0xbf52f743	-0.8240854
251	0xbe24128d	-0.16022702
252	0x3e2e1839	0.17001428
253	0x3e67821a	0.22608224
254	0x3ffdedc9	1.9838191
255	0xbf5ea7d0	-0.8697481

bias_ih_l0 f4 [200]
0	0x3f56faf2	0.8397666
1	0x3f579a47	0.84219784
2	0x3fa510c4	1.2895741
3	0x3f2a1545	0.66438705
4	0x3e8f7bc0	0.280241
5	0x3f2800f0	0.6562643
6	0x3eca7f9e	0.3955049
7	0x3e870385	0.26369873
8	0x3f13b947	0.57704586
9	0x3f2ad08e	0.6672448
10	0x3df5e901	0.120073326
11	0x3f2f029f	0.68363374
12	0x3e5ca203	0.21546178
13	0xbdc792c6	-0.09744792
14	0x3f575e76	0.8412851
15	0x3fa457a0	1.2839241
16	0xbef2bd42	-0.47410017
17	0x3ebb0aa7	0.36531565
18	0xbe9fe01c	-0.3122567
19	0x3f64c737	0.8936648
20	0xbed39232	-0.41322476
21	0x3d306ae5	0.043070693
22	0x3ee5a706	0.4485399
23	0x3e1cc965	0.15311201
24	0x3dadf46b	0.08493885
25	0x3efffac7	0.49996015
26	0x3f0dd41a	0.55401766
27	0x3e915640	0.28386116
28	0x3db67509	0.089090414
29	0x3d2f47b1	0.04279298
30	0x3ee73c70	0.45163298
31	0x3f16435f	0.5869655
32	0xbe9538dd	-0.29144946
33	0x3ef4e0f7	0.47827885
34	0x3e9085c1	0.28227046
35	0x3f089a01	0.5335999
36	0xbe2e098e	-0.16995832
37	0x3f92e238	1.1475286
38	0x3e174c30	0.14775157
39	0x3de7ea52	0.1132399
40	0xbe39c421	-0.18141223
41	0xbe00c8de	-0.12576625
42	0x3f060787	0.52355236
43	0xbe8d815f	-0.27637765
44	0x3d856bbd	0.0651469
45	0xbeb07fd3	-0.34472522
46	0x3fb3dcd6	1.4051769
47	0x3f5a55d3	0.8528721
48	0x3dbf1295	0.09329716
49	0x3e8a36c2	0.26994902
50	0x3eb6d8dd	0.3571233
51	0xbf30b8b5	-0.6903184
52	0x3f12f58e	0.57405937
53	0x3f31f7a7	0.6951851
54	0x3e289c33	0.16465835
55	0xbe864eda	-0.26232034
56	0x3f401719	0.75035244
57	0xbda8c9cd	-0.082416154
58	0xbcce6970	-0.02519676
59	0x3e1cc154	0.15308124
60	0x3da975ba	0.08274408
61	0x3e065d6c	0.13121575
62	0x3f091d87	0.5356068
63	0x3e5adfa6	0.21374378
64	0x3d056795	0.032569487
65	0x3eff3825	0.49847522
66	0x3f2bed5d	0.6715906
67	0xbe2a2a16	-0.16617617
68	0x3df5ef16	0.12008493
69	0xbea74024	-0.32666123
70	0x3ee58454	0.4482752
71	0x3f25000d	0.644532
72	0x3ec8a3c3	0.3918744
73	0x3d80ce77	0.0628938
74	0xbe8ea147	-0.2785742
75	0x3e81564a	0.25261146
76	0xbc337aa5	-0.010954534
77	0xbe27bc46	-0.16380414
78	0xbfb84441	-1.439583
79	0x3eff3ed1	0.49852613
80	0x3df87a0d	0.12132654
81	0xbe60c780	-0.21951103
82	0xbde328fa	-0.110918
83	0xbe904311	-0.28176168
84	0x3ec81a9c	0.390828
85	0x3eeb3f69	0.45946816
86	0xbddc52f0	-0.107580066
87	0xbf5f3f32	-0.87205803
88	0x3e94c7a3	0.2905856
89	0xbe48d76d	-0.19613428
90	0xbf09ee70	-0.5387945
91	0xbf39cae2	-0.725752
92	0x3ec02a3e	0.37532228
93	0x3f0c64f3	0.54841536
94	0x3f03716d	0.5134495
95	0xbeb92204	-0.36158764
96	0x3f2c92eb	0.6741168
97	0x3dbd42fe	0.09241293
98	0xbf3bb536	-0.7332338
99	0xbe684b41	-0.22684957
100	0xbf05d611	-0.52279764
101	0x3ed170a9	0.40906265
102	0xbde71afe	-0.11284445
103	0xbec6baa2	-0.38814265
104	0xbc4ff96c	-0.012693744
105	0xbebe35eb	-0.3715051
106	0x3f127e0a	0.5722357
107	0x3f3e850f	0.7442178
108	0xbe8ecb8d	-0.27889672
109	0xbcd14637	-0.025546176
110	0xbea4a1d9	-0.3215473
111	0xbe299dc1	-0.16564085
112	0xbe84d795	-0.25945726
113	0xbf0cce02	-0.5500184
114	0x3e0582e4	0.13038212
115	0x3da04c82	0.07827093
116	0x3f719cf9	0.94380146
117	0xbed4615d	-0.41480532
118	0xbd406394	-0.046969965
119	0x3f14db4d	0.58147126
120	0x3e29d558	0.1658529
121	0x3f23e093	0.6401455
122	0xbd35b3b7	-0.044360843
123	0x3ea78969	0.32722023
124	0x3f190198	0.59768057
125	0xbe5e210c	-0.21692294
126	0xbeed65c4	-0.46366704
127	0x3e997f8e	0.2998013
128	0x3d2ddacc	0.04244499
129	0xbec28fa0	-0.38000202
130	0x3ed15012	0.408814
131	0x3e6f4a12	0.233681
132	0xbdb91707	-0.09037595
133	0xbf73a843	-0.9517862
134	0x3e30545e	0.17219684
135	0x3e67de41	0.22643377
136	0xbe3aaa49	-0.18229021
137	0x3e4ffad6	0.2031053
138	0xbdd055f2	-0.10172643
139	0x3e9c9027	0.3057873
140	0x3e226d84	0.1586209
141	0xbd157659	-0.03648982
142	0x3e09e40b	0.13465898
143	0x3e9e6a68	0.30940557
144	0xbf69e753	-0.913686
145	0x3e2da744	0.16958338
146	0x3e200064	0.15625149
147	0xbeccd87f	-0.40008923
148	0x3f1bac32	0.60809624
149	0xbe332612	-0.17494991
150	0x3d17b83d	0.037040938
151	0x3f8e13cf	1.1099795
152	0x3f847248	1.0347376
153	0x3f23d7d7	0.6400122
154	0xbebe63cd	-0.37185517
155	0xbebafbba	-0.36520177
156	0xbec20fd4	-0.379027
157	0x3ef404d2	0.47659928
158	0x3f0f0dc3	0.55880374
159	0xbeef53ab	-0.4674352
160	0xbe221875	-0.15829642
161	0x3f6edff5	0.9331048
162	0xbf8a8f3d	-1.0824963
163	0x3fbefd45	1.4921042
164	0x3fd65972	1.6746047
165	0xbf3f2f0d	-0.7468117
166	0xbfa61cb4	-1.297751
167	0xbf26074a	-0.6485487
168	0xbf72ad35	-0.9479554
169	0xbf384b2b	-0.719897
170	0x3e0e8be4	0.13920552
171	0x3f4b646c	0.79450107
172	0x3dfec7c3	0.12440445
173	0xbe9266f4	-0.28594172
174	0xbf79952c	-0.97493243
175	0xbf09e58e	-0.538659
176	0x3f4c18e1	0.7972546
177	0x3f7b052f	0.98054785
178	0x3f0833c0	0.53203964
179	0x3f03a845	0.51428634
180	0x3d9564da	0.072946265
181	0x3e924ae2	0.28572756
182	0x3f24b698	0.64341116
183	0xbf366fa4	-0.712641
184	0x3f96f02e	1.1792047
185	0x3faa9025	1.332524
186	0x3f5d0606	0.86337316
187	0x3f8aab3a	1.0833504
188	0x3f6dc9d9	0.9288612
189	0xbe384cb6	-0.17998013
190	0xbe5e4911	-0.2170756
191	0x3f162394	0.5864804
192	0x3f160b7b	0.5861127
193	0xbf0fe775	-0.5621255
194	0xbc882f78	-0.016624197
195	0x3f0d6ae2	0.55241215
196	0x3d5b9ec7	0.05361822
197	0xbe0e33cd	-0.13886948
198	0x3fcabe25	1.5839278
199	0x3f267a09	0.6502996

bias_hh_l0 f4 [200]
0	0x3f39c526	0.7256645
1	0x3f56e0a2	0.8393651
2	0x3f895146	1.0727928
3	0x3f54caa3	0.831217
4	0x3e97a8c9	0.2962096
5	0x3f5d6dc9	0.86495644
6	0x3eed2568	0.463176
7	0x3ecea521	0.40360358
8	0x3f17c1b0	0.5927992
9	0x3f1b8771	0.6075354
10	0x3ea9ac6e	0.33139366
11	0x3eef8324	0.4677974
12	0x3e46a245	0.19397838
13	0x3db97bb9	0.09056801
14	0x3f558b91	0.83416086
15	0x3f938bbf	1.1527022
16	0xbf1ad022	-0.60473835
17	0x3e62ef12	0.2216151
18	0xbe32b89b	-0.17453234
19	0x3f554f89	0.83324486
20	0xbe9f8708	-0.31157708
21	0xbd2b280e	-0.041786246
22	0x3ee46e49	0.4461539
23	0x3e9ed0db	0.3101872
24	0x3dcc7db7	0.09984916
25	0x3f26b786	0.65123785
26	0x3f46e5c0	0.7769432
27	0x3e3e2584	0.18568999
28	0x3e15be76	0.14623436
29	0x3dddbb8e	0.10826789
30	0x3eec0a23	0.46101484
31	0x3f1e279e	0.617792
32	0xbefb1abc	-0.49043834
33	0x3e8f1d6e	0.2795214
34	0x3ee1eab3	0.44124374
35	0x3ec0fa67	0.37691042
36	0xbe962acc	-0.29329526
37	0x3f8460a6	1.0341995
38	0x3d65d4c3	0.05611111
39	0x3e8c1549	0.2735999
40	0xbe93c4e5	-0.28861156
41	0x3deabb93	0.11461558
42	0x3f0cb008	0.549561
43	0xbeeb33a4	-0.45937836
44	0x3de28a8e	0.110615835
45	0xbdf224bb	-0.11823412
46	0x3fa9e8f0	1.3274212
47	0x3f85c00a	1.0449231
48	0x3d12167b	0.03566597
49	0x3ed69053	0.41906986
50	0x3f0e2817	0.5552992
51	0xbf4ac794	-0.7921078
52	0x3f13bec6	0.5771297
53	0x3f18ab67	0.5963654
54	0x3e007057	0.12542854
55	0xbea9f86a	-0.33197337
56	0x3f3f949e	0.74836147
57	0x3ca99aab	0.020703634
58	0xbe08cf35	-0.13360293
59	0x3c1e13b5	0.009648253
60	0x3e39263c	0.18080992
61	0x3eba1b2e	0.3634886
62	0x3f0e21aa	0.5552012
63	0x3e2171b9	0.15766038
64	0x3dcb7682	0.09934713
65	0x3ee0bc6e	0.4389376
66	0x3f1c8f0a	0.6115576
67	0xbe3d601e	-0.18493697
68	0x3eaa7107	0.33289358
69	0xbe2ee252	-0.17078522
70	0x3ec9a7c2	0.39385802
71	0x3f256b9b	0.6461732
72	0x3f1b4912	0.6065837
73	0xbcb2155f	-0.021738706
74	0xbeb5f3da	-0.35537606
75	0x3eb0b5d8	0.34513736
76	0xbd19bf59	-0.037536
77	0xbe84ee3e	-0.25963014
78	0xbfa68afc	-1.3011165
79	0x3ef5686f	0.4793124
80	0x3eb8200b	0.35961947
81	0xbd5f1292	-0.05446107
82	0x3d817acf	0.06322252
83	0xbede9ee3	-0.43480596
84	0x3f0833ac	0.53203845
85	0x3eb55ecf	0.35423896
86	0xbcaf8ea7	-0.021430327
87	0xbf8a5740	-1.0807877
88	0x3e9417fe	0.28924555
89	0xbee133be	-0.4398479
90	0xbf3295c4	-0.69759774
91	0xbf1faf49	-0.6237684
92	0x3ee136fa	0.43987256
93	0x3eeae056	0.4587428
94	0x3f2e744b	0.681462
95	0xbef51958	-0.47870898
96	0x3f3097fa	0.689819
97	0x3e556af4	0.2084158
98	0xbf3ca52f	-0.7368955
99	0xbe83b953	-0.2572733
100	0xbf3fe1f2	-0.7495414
101	0x3ec4f606	0.3846895
102	0x3cc31147	0.02381195
103	0xbea3bbf8	-0.31979346
104	0x3ddb8c9d	0.10720179
105	0xbeba270d	-0.36357918
106	0x3ee6ead0	0.45101023
107	0x3f45c8cc	0.77259517
108	0xbdf85b54	-0.121267945
109	0xbd869fd5	-0.06573454
110	0xbe6cb26f	-0.23114942
111	0xbdc5fa3c	-0.09666869
112	0xbe5bac9b	-0.21452563
113	0xbef144a4	-0.4712268
114	0x3e9716e7	0.2950966
115	0x3ca34e24	0.019934721
116	0x3f862a31	1.0481626
117	0xbe70ee7c	-0.23528475
118	0x3b86ea2c	0.004117271
119	0x3f08c1d3	0.5342075
120	0x3e4b9087	0.19879352
121	0x3f14a387	0.5806202
122	0x3e00904c	0.12555045
123	0x3eb9e174	0.3630482
124	0x3f488689	0.78330284
125	0xbedc4da5	-0.43027988
126	0xbe99a193	-0.30006084
127	0x3ebbb65e	0.36662573
128	0xbdf07988	-0.1174193
129	0xbee3ae69	-0.44469002
130	0x3ecb680f	0.39727828
131	0x3e4f523f	0.20246218
132	0xbd209977	-0.039208855
133	0xbf474cb1	-0.77851397
134	0x3d4c117e	0.04982137
135	0x3e379f3b	0.17931835
136	0x3ce35be5	0.02775378
137	0xbd48d83a	-0.049034335
138	0xbe0886d0	-0.13332677
139	0x3e0e6e1a	0.13909188
140	0x3cf8c1a3	0.03036577
141	0xbd9a32a8	-0.07529193
142	0x3e7ca355	0.24671681
143	0x3e532bf1	0.20622231
144	0xbf62b8ac	-0.88563037
145	0x3e95531e	0.29164976
146	0x3e4a9c7e	0.1978626
147	0xbedae47b	-0.42752442
148	0x3ef9e669	0.48808601
149	0xbead8ebd	-0.33897963
150	0xbd152b7f	-0.036418434
151	0x3f9594ce	1.1686037
152	0x3f6d0815	0.9259046
153	0x3f1d8821	0.6153584
154	0xbebc9307	-0.36830923
155	0xbea9f26c	-0.33192766
156	0xbebccb60	-0.36873913
157	0x3ee7d6d5	0.4528109
158	0x3f1c842d	0.61139184
159	0xbed2b956	-0.41157025
160	0xbe13434f	-0.14381145
161	0x3f556fbf	0.83373636
162	0xbf82da0e	-1.0222795
163	0x3fadf9b7	1.3591832
164	0x3fc7b9c2	1.5603564
165	0xbf265e4a	-0.64987624
166	0xbfa52958	-1.2903242
167	0xbf39e5cd	-0.72616273
168	0xbf495d9d	-0.7865847
169	0xbf4f4b45	-0.8097423
170	0x3e9844d8	0.29740024
171	0x3f819697	1.0124081
172	0x3d761cf4	0.060086206
173	0xbed787a9	-0.42095688
174	0xbf6a9bdb	-0.91644067
175	0xbeb2a5c3	-0.3489209
176	0x3f4aeab6	0.7926439
177	0x3f718aa8	0.943522
178	0x3ee2ffa2	0.44335657
179	0x3ec358ee	0.38153785
180	0x3da0a6c9	0.07844312
181	0x3e38273d	0.17983718
182	0x3f2b8a52	0.67007935
183	0xbf34c531	-0.7061339
184	0x3f8993c7	1.0748223
185	0x3fbd6076	1.4795063
186	0x3f5d90b8	0.8654895
187	0x3f71a7e8	0.9439683
188	0x3f8145ac	1.0099387
189	0xbeb4fcc7	-0.35349104
190	0xbdd47e03	-0.10375597
191	0x3f1548fa	0.5831448
192	0x3edc1ba5	0.4298984
193	0xbf37df31	-0.7182494
194	0xbc125444	-0.008931223
195	0x3e9edf5d	0.31029788
196	0x3bcb81af	0.006210528
197	0xbc5846ef	-0.013200506
198	0x3fc7258b	1.5558332
199	0x3f6b945f	0.9202327

weight f4 [74, 50]
0	0x3e83a54b	0.25712046
1	0xbf5c7ca7	-0.86127704
2	0x3ee077e4	0.4384147
3	0x3e67f5fe	0.22652432
4	0x3e023fde	0.12719676
5	0xbe9df300	-0.30849457
6	0xbef339b4	-0.47504961
7	0xbebf5453	-0.37369022
8	0x3e22f36a	0.15913168
9	0xbefa1343	-0.4884282
10	0x3e712ef0	0.23553061
11	0xbed88bf0	-0.42294264
12	0x3e2c88b1	0.16849019
13	0x3e6c3de3	0.23070483
14	0x3e5a98a0	0.21347284
15	0xbec38b2a	-0.3819211
16	0xbf0ae171	-0.54250246
17	0x3eb18d76	0.3467824
18	0xbe879c2c	-0.26486337
19	0xbe688f0b	-0.22710817
20	0xbeaa0181	-0.33204272
21	0xbefee3e3	-0.4978324
22	0x3e8bf0c4	0.27332127
23	0xbed105a4	-0.40824616
24	0x3c8675d9	0.016413616
25	0x3f1d3bba	0.6141926
26	0xbe4be613	-0.19911985
27	0x3e8a2e28	0.2698834
28	0xbe8dfac0	-0.2773037
29	0x3e8f0c10	0.2793889
30	0xbe48ed64	-0.19621807
31	0xbead8914	-0.33893645
32	0x3f11c059	0.56934124
33	0x3d0796cb	0.03310279
34	0xbdda8259	-0.10669393
35	0x3e8c21dc	0.27369583
36	0xbee01f1b	-0.43773732
37	0xbf281ff9	-0.65673786
38	0x3e837991	0.25678685
39	0xbeb8dd47	-0.3610632
40	0xbecd469e	-0.4009294
41	0xbeab79f4	-0.3349148
42	0x3f73bbfa	0.95208704
43	0xbe53376e	-0.20626613
44	0x3e92e7f8	0.28692603
45	0xbe5d46b7	-0.21609007
46	0xbe033593	-0.12813406
47	0xbec28976	-0.379955
48	0xbedc0d4f	-0.42978904
49	0x3ee90e51	0.45518735
50	0x3e86c9cf	0.26325843
51	0xbf63711d	-0.8884447
52	0x3eacf3cd	0.33779755
53	0x3eac1dda	0.33616525
54	0x3e858bbe	0.26083177
55	0xbe9f5468	-0.31119084
56	0xbe8a1e8e	-0.26976436
57	0xbe8b91f8	-0.27259803
58	0x3dc2c4e9	0.09510214
59	0xbef1d89b	-0.4723557
60	0x3e90b151	0.28260282
61	0xbefe8e23	-0.49717817
62	0x3e5326b2	0.2062023
63	0x3ea5b8e1	0.32367614
64	0x3e2265b9	0.15859117
65	0xbeb79fb0	-0.3586402
66	0xbf055a58	-0.5209098
67	0x3e4bcdd0	0.1990273
68	0xbe503a3f	-0.20334719
69	0xbe929520	-0.28629398
70	0xbecc316e	-0.39881462
71	0xbf0de867	-0.5543274
72	0x3e2b3c13	0.16722135
73	0xbedf6e53	-0.43638858
74	0xbd8676f4	-0.06565657
75	0x3f1591c6	0.5842556
76	0xbe03fe67	-0.12890016
77	0x3eb1e30f	0.34743544
78	0xbeb1e752	-0.34746796
79	0x3eca78b1	0.39545205
80	0xbe37f7a6	-0.17965564
81	0xbec24cae	-0.37949127
82	0x3f05bef1	0.5224448
83	0x3deb7630	0.11497152
84	0xbda60743	-0.08106854
85	0x3e4bc973	0.19901066
86	0xbe97e742	-0.29668623
87	0xbf41ab4b	-0.75652
88	0x3e57c056	0.21069464
89	0xbed4f265	-0.41591182
90	0xbe9efe4d	-0.3105339
91	0xbf04c4c8	-0.51862764
92	0x3f940d76	1.1566608
93	0xbe708ad2	-0.23490456
94	0x3e898b33	0.26864013
95	0xbda5aba0	-0.080893755
96	0xbe8487d7	-0.25884888
97	0xbeec1988	-0.4611323
98	0xbe9fb4af	-0.31192538
99	0x3ef98dde	0.4874105
100	0xbf0434e3	-0.516432
101	0x3f104392	0.56353104
102	0xc00b547e	-2.177032
103	0xbe923e49	-0.28563145
104	0xbf81041e	-1.0079381
105	0xbeeeb7c1	-0.46624568
106	0xc01e1f87	-2.4706743
107	0xbeb400a6	-0.35156745
108	0xbedfeb1f	-0.4373407
109	0xc00eb10f	-2.2295568
110	0xbfae989c	-1.3640323
111	0xbfa111bf	-1.2583541
112	0x3fae25ff	1.3605345
113	0x3f1a5810	0.6029062
114	0xbf53f2ba	-0.82792246
115	0xbf446435	-0.76715404
116	0xbf3cc416	-0.73736703
117	0xbfebf43a	-1.8433907
118	0x3f36de3b	0.71432847
119	0xbf190047	-0.5976605
120	0x3f92c6f5	1.1466967
121	0x40bcfbc9	5.9057355
122	0xbc8d21d3	-0.017228043
123	0x3e6bfefd	0.23046489
124	0x3f8361f2	1.0264266
125	0xbeafb58a	-0.3431819
126	0xbe8fbb1a	-0.28072435
127	0xbd7826fd	-0.060584057
128	0xbed85c76	-0.42258042
129	0x3f03c21f	0.5146808
130	0xbfbf5fd0	-1.4951115
131	0x3f2d0534	0.67586064
132	0xbff06e2e	-1.8783624
133	0xbe716e1f	-0.23577164
134	0xbfb5c8b2	-1.4201872
135	0x3e2b384b	0.16720693
136	0xc0342080	-2.8144836
137	0xbfb993a2	-1.4498179
138	0x3ce8f0f6	0.028435212
139	0xbf2d448f	-0.6768274
140	0x3f99e3e2	1.2022669
141	0x3f7e8e4b	0.9943587
142	0xbf6e5403	-0.9309694
143	0xbebddd3c	-0.3708285
144	0x3f520496	0.8203825
145	0xc028631a	-2.6310487
146	0xbd679376	-0.056537114
147	0x3e8eb958	0.2787578
148	0x3f1ba7b6	0.6080278
149	0xbe0276f9	-0.12740697
150	0x3e43f8fa	0.19137946
151	0x3f4db6ed	0.8035725
152	0x3ff48114	1.9101892
153	0xbf4667e2	-0.7750226
154	0x3faa0aee	1.3284585
155	0xbf8c51be	-1.0962446
156	0x4015ce88	2.3407307
157	0xc01452d5	-2.3175557
158	0xbfaa633a	-1.3311532
159	0x3f00b057	0.50269073
160	0xbd58bc53	-0.052913975
161	0xc000a9f4	-2.010373
162	0x4080c58a	4.0241137
163	0x409366ac	4.606283
164	0x400afe1e	2.17176
165	0xbff4e447	-1.9132165
166	0xc0963d0d	-4.6949525
167	0x3f9174e6	1.13638
168	0xbfc47ffb	-1.5351557
169	0xbfa692d5	-1.301356
170	0x3f550c4d	0.83221895
171	0x3f0a7baa	0.54094946
172	0x405b6782	3.4281926
173	0xc011d402	-2.278565
174	0xc0658d20	-3.5867386
175	0x40af5381	5.4789433
176	0xbfe509cb	-1.7893614
177	0x40273ab9	2.6129591
178	0x3fdc04b9	1.7188941
179	0xbee8cff1	-0.45471147
180	0x3f9f377d	1.2438809
181	0x3f37bae7	0.71769565
182	0xbf83eab7	-1.0306004
183	0xbf676986	-0.9039539
184	0xc0034ecc	-2.0516844
185	0x3fe5c207	1.7949837
186	0xc0a34d14	-5.103159
187	0x402f3e16	2.7381644
188	0xbd88cbd8	-0.06679505
189	0xbf9ce7bd	-1.2258221
190	0x3f8babc8	1.0911798
191	0x3facf64e	1.3512666
192	0x401ea830	2.4790154
193	0xbe5f37fc	-0.217987
194	0x3e3bf67f	0.1835575
195	0x3eeae978	0.45881248
196	0xc1a3ff37	-20.499617
197	0xc00e442e	-2.2229114
198	0xbe83722b	-0.2567304
199	0x408a5681	4.3230596
200	0xbfafe6ab	-1.3742269
201	0xbd7cc80b	-0.061714213
202	0xbef830a4	-0.4847461
203	0xbf49588e	-0.7865075
204	0xbf8b97e8	-1.0905733
205	0x3ef893f3	0.48550376
206	0x3f165507	0.5872349
207	0x3f782de6	0.96945035
208	0x3e35e36c	0.17762536
209	0xbfa43acc	-1.2830443
210	0x3f3671f3	0.7126762
211	0x3e7863bf	0.242568
212	0xc0026e44	-2.03798
213	0xbfbbad83	-1.4662327
214	0x3e85ebd4	0.26156485
215	0x3f18a92f	0.59633154
216	0x3f191244	0.59793496
217	0xbf2d6ab5	-0.67740947
218	0xbe3e70d2	-0.18597725
219	0x3f8fb7d6	1.1227977
220	0x3f2475a7	0.64242023
221	0xbf827198	-1.0190916
222	0x3debf4e2	0.11521317
223	0x3d14adaf	0.03629845
224	0x405f2328	3.4865208
225	0xbf02c5da	-0.5108315
226	0x3d8d3549	0.06894929
227	0x4038cd2c	2.8875227
228	0x3f826bb7	1.0189122
229	0xbdad60fc	-0.08465764
230	0x3f65bd78	0.8974223
231	0x3fb83343	1.4390644
232	0x3f29b731	0.6629515
233	0xbf0c41ac	-0.5478771
234	0xbf83b38f	-1.0289172
235	0x3dc0bc42	0.09410907
236	0x3fac8673	1.3478531
237	0xbee85b0b	-0.4538196
238	0xbd3ec9c6	-0.046579145
239	0x4007e713	2.1234787
240	0x3f9e230e	1.2354448
241	0x3eaa5b74	0.33272898
242	0x3f58ee3e	0.8473853
243	0x3f8ba815	1.091067
244	0xbe98ba84	-0.298298
245	0x3f9c576f	1.2214183
246	0x3ed90e1a	0.4239357
247	0x3f73c8cb	0.9522826
248	0xbe60254d	-0.21889229
249	0x3f2ec98e	0.682763
250	0x3fb82a4b	1.4387907
251	0xc076ccc6	-3.8562484
252	0x3f5b0442	0.8555337
253	0xbeb4a406	-0.3528139
254	0xc05fe1d5	-3.4981587
255	0xbff1ef9a	-1.8901246

bias f4 [74]
0	0xbe65758d	-0.22408123
1	0xbeacb9f3	-0.33735618
2	0x3f9788a7	1.1838578
3	0x3cd3a783	0.025836712
4	0x3ee1bd5e	0.44089788
5	0xbf09cff9	-0.53832966
6	0xb9df59c0	-0.00042600743
7	0x3f020dda	0.50802386
8	0x3f508ee6	0.81468046
9	0x3da22d65	0.079188146
10	0xbe8b97c7	-0.27264234
11	0x3db49586	0.08817582
12	0xbd6ac9b9	-0.057321284
13	0xbdfc6dd3	-0.12325635
14	0x3f2c84b1	0.6738997
15	0x3dfed399	0.12442703
16	0xbecd4dec	-0.40098512
17	0xbe8b09b3	-0.27155837
18	0x3ee4b22f	0.44667193
19	0x3d9c8ec3	0.07644417
20	0xbd562afb	-0.052287083
21	0xbf4d41f2	-0.8017875
22	0x3f36a0d2	0.7133914
23	0x3dfdd04e	0.123932466
24	0xbf2dfda7	-0.6796517
25	0x3f3c115c	0.7346399
26	0xbe2f5272	-0.17121294
27	0x3eb43221	0.35194495
28	0xbf5f455d	-0.87215215
29	0x3f031937	0.5121035
30	0xbf5d1dea	-0.8637377
31	0xbf58f2b1	-0.8474532
32	0x3ec19622	0.37809855
33	0xbf2f4365	-0.6846221
34	0xbf740617	-0.9532179
35	0xbf71a148	-0.9438672
36	0xbfb74a51	-1.4319555
37	0xbe97c742	-0.2964421
38	0xbe8cb4d3	-0.27481708
39	0xbea9f023	-0.33191022
40	0xbe678405	-0.22608955
41	0xbe54a3b0	-0.20765567
42	0xbda0f661	-0.07859493
43	0xbdd1e533	-0.102487944
44	0xbe2f81eb	-0.17139404
45	0xbe212ae3	-0.15739016
46	0xbe8aa6e7	-0.2708046
47	0xbeb00927	-0.34381983
48	0xbe999425	-0.29995838
49	0xbdc5cd8b	-0.09658345
50	0xbe5ff9e1	-0.21872665
51	0xbe8f0d17	-0.27939674
52	0xbe876e32	-0.2645126
53	0xbe7598c9	-0.23984064
54	0xbe1c6f6c	-0.15276879
55	0xbe991cf8	-0.29904914
56	0xbe20ad6a	-0.15691152
57	0xbeb744fb	-0.35794815
58	0xbdc1d975	-0.09465305
59	0xbdf386b1	-0.11890925
60	0xbec6c3a0	-0.38821125
61	0xbe2bbe26	-0.16771755
62	0xbe739a90	-0.2378943
63	0xbdc584dd	-0.09644482
64	0xbe3523a3	-0.17689376
65	0xbeaada68	-0.33369756
66	0xbe9deeed	-0.30846348
67	0xbe30930b	-0.17243592
68	0xbe4c1329	-0.19929184
69	0xbe828fad	-0.2550024
70	0xbea6f0fb	-0.32605729
71	0xbdcf0d7b	-0.10109993
72	0xbe548c13	-0.20756559
73	0xbe163d72	-0.14671877

weight f4 [35, 2]
0	0xbec664e8	-0.3874886
1	0x3e083b2c	0.13303822
2	0x3ecdcc32	0.4019485
3	0x3e54e8d4	0.20791942
4	0x3ecbf282	0.39833456
5	0xbe2447a8	-0.1604296
6	0xbf10eed8	-0.56614447
7	0x3ecb281e	0.39679044
8	0xbf293ccf	-0.6610841
9	0x3d225e30	0.039640605
10	0x3f1dd7bf	0.6165733
11	0x3ed4b42a	0.41543704
12	0x3dd1e420	0.102485895
13	0xbeb2421c	-0.34816062
14	0xbec00e89	-0.3751109
15	0x3f227183	0.63454455
16	0xbccfa7e0	-0.025348604
17	0xbf10b1d6	-0.56521356
18	0x3f060ccb	0.5236327
19	0xbf12d796	-0.5736021
20	0x3e09eecc	0.1347
21	0xbe84e93d	-0.25959197
22	0x3f1e2137	0.6176943
23	0x3eccb93a	0.39985067
24	0xbc957100	-0.01824236
25	0xbf226574	-0.63436055
26	0xbcccf980	-0.025021315
27	0xbd7a2200	-0.06106758
28	0xbf2630c4	-0.6491816
29	0x3d501260	0.050798774
30	0x3dfd8168	0.12378198
31	0x3e1dae08	0.15398419
32	0x3c09e000	0.008415222
33	0x3f30884b	0.68957967
34	0xbe38f99c	-0.18063968
35	0xbef73830	-0.48285055
36	0x3e313c9c	0.17308277
37	0xbe3deaec	-0.18546647
38	0x3ea233a6	0.3168003
39	0x3ed0533e	0.4068851
40	0xbe76b8e6	-0.2409397
41	0x3f1af071	0.60523134
42	0x3e8f8960	0.28034496
43	0x3ed8219a	0.42213136
44	0x3f19ac67	0.6002869
45	0xbf1a9b5a	-0.603933
46	0x3de89e48	0.11358315
47	0x3ec0155a	0.3751629
48	0x3e637cc8	0.22215569
49	0xbf1a9b87	-0.60393566
50	0x3ddbf9e8	0.10741025
51	0xbee03bc2	-0.43795592
52	0xbe896698	-0.26836085
53	0xbf27603d	-0.6538122
54	0x3f162cdd	0.58662206
55	0xbd51e6a0	-0.05124533
56	0x3f1c6b8d	0.6110161
57	0xbee1a1a7	-0.44068643
58	0xbee532e7	-0.44765398
59	0x3f0afadd	0.54289037
60	0xbddbb128	-0.10727149
61	0xbf0c8555	-0.5489095
62	0xbf160f1f	-0.5861682
63	0x3e3be8ac	0.18350476
64	0xbef7f77c	-0.48431003
65	0xbe8a7a9c	-0.2704667
66	0x3e9bcfd6	0.30432004
67	0x3e0292f8	0.12751377
68	0xbe95c3b2	-0.29250866
69	0x3f134bc5	0.5753749

bias f4 [35]
0	0xbee4f132	-0.44715267
1	0x3bec1180	0.0072042346
2	0xbead122f	-0.33802935
3	0xbece568e	-0.4030041
4	0x3e9122da	0.28346902
5	0xbe7ea948	-0.24869263
6	0xbf16008a	-0.5859457
7	0xbbb11e80	-0.005405247
8	0xbde36eb0	-0.11105096
9	0xbe03eba0	-0.12882853
10	0x3e8ffd3e	0.28122896
11	0xbf295f14	-0.661607
12	0x3ee511ee	0.44740242
13	0x3ed918c6	0.42401713
14	0x3d81ce50	0.06338179
15	0xbe4bf71c	-0.19918483
16	0xbf24ff28	-0.6445184
17	0x3e89825c	0.2685727
18	0x3e91fd9e	0.28513807
19	0x3eee91a6	0.46595496
20	0x3de32988	0.11091906
21	0x3cb88480	0.022524118
22	0xbebd9849	-0.37030247
23	0x3ec4ee8a	0.3846324
24	0x3f2fe6b9	0.6871143
25	0x3d7cd080	0.06172228
26	0x3ef6120e	0.4806065
27	0x3ee32b8e	0.44369167
28	0xbf06e1d7	-0.52688354
29	0x3f2668cb	0.6500365
30	0xbe4ccb44	-0.19999415
31	0xbf2f295e	-0.68422496
32	0xbf1023c6	-0.56304586
33	0x3eb445d2	0.3520952
34	0xbe92b66b	-0.286548

weight f4 [50, 35]
0	0x3e0902d0	0.13379979
1	0x3e2adcd8	0.16685808
2	0xbccfaef8	-0.025351986
3	0xbd8a7636	-0.06760828
4	0xbd4e0d60	-0.050305724
5	0xbd9bcf7f	-0.07607936
6	0x3e153cd8	0.14573991
7	0xbdb6ca88	-0.089253485
8	0xbce53588	-0.027979627
9	0xbdc95aaf	-0.0983175
10	0xbdabae66	-0.08382873
11	0xbc8186c8	-0.015811339
12	0xbddff6cc	-0.10935745
13	0x3be679e0	0.0070335716
14	0xbc1cdc00	-0.009573936
15	0xbdec9afd	-0.11552999
16	0xbd68fb30	-0.056880176
17	0x3db626c0	0.0889411
18	0xbdc0c74b	-0.09413012
19	0x3d082670	0.03323978
20	0xbdd4543e	-0.103676304
21	0x3d211e9c	0.039335832
22	0x3da949c8	0.08266026
23	0xbddc4b60	-0.10756564
24	0xbdd657b4	-0.10465947
25	0xbe1f5042	-0.1555796
26	0xbe18efd9	-0.14935245
27	0xbe1d6768	-0.15371478
28	0x3d402d30	0.046918094
29	0xbdd3d67c	-0.10343644
30	0xbdda69cf	-0.10664713
31	0xbdec74cc	-0.11545715
32	0x3db6c9c4	0.089252025
33	0xbdd14f97	-0.10220259
34	0x3d0c2e98	0.034224123
35	0xbcb3aae8	-0.02193208
36	0xbe0abbd1	-0.13548209
37	0xbdbb2f6c	-0.091399044
38	0xbd24c1f4	-0.04022403
39	0xbe10a812	-0.14126614
40	0x3e1c931a	0.1529049
41	0x3e228e22	0.15874532
42	0xbe261a03	-0.1622086
43	0x3de85fdc	0.11346409
44	0x3e04df74	0.12975866
45	0xbbfda260	-0.007740304
46	0x3dd639b0	0.10460222
47	0x3d7654e8	0.060139567
48	0x3d645050	0.055740654
49	0x3dff6ecc	0.12472305
50	0xbe0490a1	-0.12945797
51	0x3df62328	0.12018424
52	0x3cf57258	0.02996175
53	0xbce2d528	-0.027689531
54	0xbb127f80	-0.0022353828
55	0x3e24d838	0.16098106
56	0xbe144d36	-0.14482579
57	0x3cb0c6c0	0.021579146
58	0x3c977800	0.018489838
59	0xbe038765	-0.12844618
60	0xbe2c9ac1	-0.16855909
61	0xbdd8c0c8	-0.10583645
62	0xbd909034	-0.070587546
63	0x3db9df80	0.09075832
64	0xbde4c29b	-0.111699305
65	0x3e1349a6	0.14383563
66	0xbd564fa2	-0.052322038
67	0xbdd815ab	-0.10551008
68	0x3cac1e00	0.021010399
69	0xbdaebdf0	-0.085323215
70	0x3debafd8	0.11508149
71	0xbd90ae3b	-0.07064482
72	0x3e14ec3c	0.14543241
73	0xbe1c3778	-0.15255535
74	0xbdac7e97	-0.084225826
75	0x3c9d69d0	0.019215494
76	0xbd7d4540	-0.06183362
77	0x3ddc0a20	0.10744119
78	0x3d4f1eb8	0.050566405
79	0xbe250bc8	-0.16117775
80	0x3dd9a488	0.10627085
81	0x3e196238	0.14978874
82	0x3dfea694	0.12434116
83	0xbd6f4462	-0.058414824
84	0xbe0f07a2	-0.13967755
85	0x3d1de5f8	0.038549393
86	0x3c870358	0.016481087
87	0x3d9d5b12	0.07683386
88	0xbdd4e077	-0.10394376
89	0xbdb92e74	-0.09042063
90	0x3c716670	0.014733896
91	0xbe1e0a3e	-0.15433595
92	0x3d9b87a8	0.07594234
93	0xbbdbe3e0	-0.0067105144
94	0x3de8e980	0.113726616
95	0xbe22a320	-0.1588254
96	0xbd48e7d2	-0.049049206
97	0x3d25b990	0.04046017
98	0x3e0cf7b2	0.13766363
99	0x3e1d68ac	0.1537196
100	0xbdc387d8	-0.095473945
101	0x3d67668c	0.05649428
102	0xbc387c50	-0.011260107
103	0x3e1be6d2	0.1522477
104	0xbd9bc6f3	-0.07606306
105	0x3e004314	0.12525588
106	0xbc1bec50	-0.0095167905
107	0xbdcf3828	-0.10118133
108	0x3d8d5e42	0.06902744
109	0x3d90187a	0.070359185
110	0x3df14954	0.11781564
111	0xbda61aa5	-0.08110551
112	0xbe28fd6c	-0.16502923
113	0x3cbd1920	0.02308327
114	0xbdf9d4f6	-0.12198822
115	0xbdda2678	-0.106518686
116	0xbd9ae9a3	-0.07564094
117	0x3e0bc106	0.13647851
118	0x3b6c6e00	0.0036076307
119	0xbcfbde48	-0.03074564
120	0x3cabc010	0.020965606
121	0xbd6f329e	-0.05839788
122	0x3e05333e	0.13007829
123	0x3cae1570	0.021250457
124	0x3dd6ffb8	0.10497993
125	0x3d48dee8	0.049040705
126	0x3dc2f5bc	0.09519526
127	0x3d775d14	0.0603915
128	0x3dcb5284	0.09927848
129	0xbd267f54	-0.040648773
130	0x3dbebda4	0.09313515
131	0x3d3f1f94	0.046660975
132	0xbe049596	-0.12947688
133	0xbe0a4276	-0.13501915
134	0x3e07de04	0.13268286
135	0xbd677604	-0.056509033
136	0x3e2d0d3a	0.16899577
137	0x3d9c93bc	0.076453656
138	0x3e0e9d04	0.13927084
139	0xbdc64204	-0.0968056
140	0xbe0ea854	-0.139314
141	0xbe0076ee	-0.12545368
142	0xbe291ed1	-0.16515662
143	0xbda1c635	-0.07899133
144	0x3dbd84a0	0.09253812
145	0xbd5554aa	-0.052082695
146	0x3ccaa6a8	0.024737671
147	0xbda22251	-0.079167016
148	0xbde2de78	-0.11077589
149	0x3d8202b0	0.06348169
150	0x3d0abf14	0.033873633
151	0x3d92a700	0.07160759
152	0x3d915cd4	0.07097784
153	0x3d50ef2c	0.051009342
154	0xbe080572	-0.13283327
155	0x3e12bcea	0.14329877
156	0xbcb99b28	-0.022656992
157	0x3dd4fb7c	0.10399529
158	0x3c05b860	0.008161634
159	0x3dcb962c	0.099407524
160	0xbe1a9a5b	-0.15097944
161	0xbca1f0d8	-0.019768164
162	0x3e1c9442	0.15290931
163	0x3dfd7b1c	0.12376997
164	0xbd9ac92f	-0.07557904
165	0xbdf6884e	-0.12037717
166	0x3d40af74	0.047042325
167	0xbd9a608b	-0.07537945
168	0xbdc04e11	-0.0938989
169	0xbdda31e7	-0.10654049
170	0xbe263a88	-0.16233265
171	0xbdf69e16	-0.12041871
172	0x3d728114	0.05920513
173	0xbc37aa60	-0.011210054
174	0xbc0824d0	-0.008309558
175	0x3c7bc3a0	0.015366465
176	0xbe0db4b0	-0.13838458
177	0xbd126d90	-0.03574902
178	0xbe283d91	-0.16429736
179	0xbe18219b	-0.1485657
180	0x3d86b918	0.065782726
181	0x3cfb1ba8	0.030652836
182	0xbd5a913a	-0.053361155
183	0xbe263ee6	-0.16234931
184	0xbe2befcc	-0.16790694
185	0x3d222f28	0.039595753
186	0xbe12d672	-0.14339617
187	0xbe017ac8	-0.12644494
188	0xbe27d71b	-0.1639065
189	0xbdc52ab9	-0.09627289
190	0xbd047f60	-0.032348037
191	0xbc5bf990	-0.0134262
192	0xbcff0c18	-0.031133696
193	0xbd92ec14	-0.071739346
194	0x3df24644	0.11829808
195	0x3dd8b638	0.105816305
196	0x3dce425c	0.10071251
197	0xbe07c5e2	-0.1325908
198	0x3b0e0b40	0.0021674186
199	0xbe1a724c	-0.15082663
200	0x3e12d74e	0.14339945
201	0x3bfeee80	0.0077798963
202	0xbcb24160	-0.021759689
203	0xbd5c6a68	-0.053812414
204	0x3d8bae38	0.06820339
205	0x3d915236	0.070957586
206	0x3e171844	0.1475535
207	0xbdeff5e0	-0.11716819
208	0x3deeae04	0.116542846
209	0x3d7e6124	0.06210436
210	0xbdd3b14f	-0.10336553
211	0xbcc17b18	-0.023618266
212	0xbd8d36b9	-0.06895203
213	0x3d532568	0.051549345
214	0xbcf00f88	-0.02930428
215	0xbe233c0c	-0.15940875
216	0x3b0fd300	0.0021945834
217	0x3d901896	0.070359394
218	0x3dcb9564	0.099406034
219	0xbd8fc09a	-0.07019158
220	0x3dcb8310	0.099371076
221	0xbe227e99	-0.15868606
222	0xbd83c2e6	-0.06433658
223	0xbdf949ef	-0.12172305
224	0xbe244dae	-0.16045257
225	0xbdb1e967	-0.08687096
226	0xbab13600	-0.0013520122
227	0xbc9c3830	-0.019069761
228	0xbe1e7b0f	-0.1547663
229	0x3deba00c	0.11505136
230	0x3be8aa40	0.0071003735
231	0x3dfa2e9c	0.12215921
232	0x3d1b4be4	0.03791417
233	0x3d764e1c	0.060133085
234	0xbdca85d1	-0.09888805
235	0x3e1a9a04	0.15097815
236	0xbd34aa22	-0.044107564
237	0xbd1aa640	-0.037756205
238	0x3de9240c	0.113838285
239	0xbe095bd2	-0.13413933
240	0xbe2be5db	-0.16786902
241	0xbd5f9e8a	-0.054594554
242	0xbe11f889	-0.14254965
243	0xbd000f58	-0.031264633
244	0x3be82920	0.0070849806
245	0x3e1db208	0.15399945
246	0xbd222e64	-0.039595023
247	0x3dc65d48	0.09685761
248	0x3e2c93be	0.16853234
249	0x3e17fcdc	0.14842552
250	0xbdf1a468	-0.11798936
251	0xbd8541f4	-0.0650672
252	0x3e1f2b12	0.15543774
253	0xbe206d81	-0.15666772
254	0x3d5c1260	0.05372846
255	0xbcef6578	-0.029223189

bias f4 [50]
0	0xbdf2ec6f	-0.118615024
1	0xbe06c3d6	-0.13160643
2	0x3e0701cc	0.13184279
3	0xbbfdf160	-0.0077497214
4	0x3db07278	0.08615583
5	0x3e12e87e	0.14346501
6	0xbd7cd00e	-0.061721854
7	0x3ddfe9e4	0.10933283
8	0xbe2d0573	-0.1689661
9	0xbd982cb0	-0.074303985
10	0x3d7b8ae0	0.06141174
11	0x3d181a74	0.037134603
12	0x3e1ef06c	0.15521401
13	0xbd2a2cf0	-0.041546762
14	0x3e2b523c	0.16730589
15	0xbde4c0e5	-0.11169604
16	0xbe1c9262	-0.15290216
17	0x3dec0148	0.11523682
18	0x3db10bcc	0.08644828
19	0x3e198338	0.14991462
20	0x3d919952	0.07109322
21	0x3deacff4	0.11465445
22	0xbe1e8ad2	-0.15482643
23	0x3cfa9078	0.030586466
24	0x3e24231e	0.16029021
25	0x3dbfedd4	0.09371534
26	0xbdc58b9c	-0.09645769
27	0xbcd50500	-0.02600336
28	0x3e29b404	0.16572577
29	0xbd1eb264	-0.038744345
30	0xbd27a210	-0.04092604
31	0xbd1f0660	-0.03882444
32	0x3d171614	0.03688629
33	0x3bb7b800	0.0056066513
34	0xbd8a10d3	-0.0674149
35	0x3daf1fd0	0.0855099
36	0x3c85dd38	0.016340837
37	0xbc79f060	-0.015255064
38	0x3d419a00	0.047266006
39	0x3cd491a0	0.025948346
40	0x3e285ff6	0.16442856
41	0x3cd25978	0.025677428
42	0x3e0a2b12	0.13492993
43	0x3d7df2c8	0.061999112
44	0x3d51a444	0.051182047
45	0xbe02c0a6	-0.12768802
46	0x3d96c30c	0.07361421
47	0x3d8b2686	0.06794457
48	0xbe1ecd5a	-0.15508023
49	0x3d32fd60	0.04369867
