model/saved_models/fr_encoder/model_epoch_12.pt (torch_old, 115280 bytes, 11 tensors)

weight f4 [74, 20]
0	0x3e391c30	0.18077159
1	0xbd8f55eb	-0.069988094
2	0xbeb82092	-0.3596235
3	0xbf6a4ad7	-0.91520447
4	0x3f203228	0.6257653
5	0x3cd0fa30	0.025509924
6	0x3f745b02	0.95451367
7	0x3d83c929	0.06434853
8	0x3eb8e8ba	0.36115056
9	0x3f957d08	1.1678782
10	0xbfacc94d	-1.3498932
11	0xbf029af1	-0.5101767
12	0x3e719ee5	0.2359577
13	0xbe758876	-0.23977837
14	0xbf6bce2c	-0.9211147
15	0x3fc58ac2	1.543297
16	0x3faca653	1.3488258
17	0xbe0efe3a	-0.13964167
18	0x3e925404	0.28579724
19	0x3f771223	0.9651205
20	0xbf4a286e	-0.7896794
21	0x3aa5f73a	0.001266218
22	0x3b69e877	0.0035691538
23	0xbc5dd35d	-0.013539162
24	0xbc784eb2	-0.015155481
25	0xbc156515	-0.009118338
26	0xbe017553	-0.12642412
27	0x3adf0f52	0.0017018116
28	0x3c786fdb	0.015163387
29	0x3c441943	0.0119689135
30	0x3d7ce703	0.061743747
31	0x3dd81b8d	0.1055213
32	0xbc99ef36	-0.018790822
33	0x3bd78544	0.006577166
34	0x3c10576c	0.0088099055
35	0xba77bd11	-0.00094504753
36	0xba311ea4	-0.000675658
37	0x3cbe056d	0.023195947
38	0xbc61fa1c	-0.013792541
39	0x3affa401	0.0019503833
40	0x3ecc0e52	0.39854676
41	0x3e904b94	0.28182662
42	0x3f28607c	0.65772223
43	0xbf06263a	-0.5240208
44	0xbed0840b	-0.4072574
45	0x3f1e2fab	0.61791486
46	0xbde75f00	-0.11297417
47	0x3e5cd396	0.21565089
48	0x3c9ee270	0.019395083
49	0xbeccb71d	-0.39983454
50	0x3efc95bc	0.49332988
51	0xbebddef1	-0.37084153
52	0xbe729e0a	-0.236931
53	0x3dee3497	0.116311245
54	0x3fa62f0d	1.2983109
55	0xbe791e47	-0.24327956
56	0x3e75eb94	0.24015647
57	0xbe1a5a74	-0.15073568
58	0x3e1db992	0.1540282
59	0xbe0f7fd3	-0.14013605
60	0xbda382f0	-0.07983959
61	0x3dfacbff	0.122459404
62	0x3d04ebcc	0.032451436
63	0x3cbe946a	0.023264129
64	0x3c09d1b2	0.008411812
65	0x3cd4e698	0.025988862
66	0x3bc18960	0.005906269
67	0x3be8c089	0.00710303
68	0xbd08a800	-0.033363342
69	0xb9fbfd94	-0.0004806338
70	0xbab3f6f1	-0.001373021
71	0x3c975660	0.018473804
72	0x3ebf45bd	0.37357894
73	0xbd221446	-0.039570116
74	0x3c16fb32	0.009215163
75	0x3be83049	0.007085834
76	0xbc28885f	-0.01028642
77	0x3cf25846	0.029583108
78	0x3ba64542	0.005074174
79	0xbc455214	-0.012043495
80	0x3f548036	0.83008134
81	0xbddd7f82	-0.10815336
82	0x3c6d5fbd	0.014488158
83	0x3c3b7033	0.011440325
84	0xbd8717bb	-0.06596323
85	0xbb2ac7e7	-0.0026059092
86	0x3c2e974e	0.010656191
87	0x3c3a9ee6	0.011390423
88	0x3de91e0a	0.113826826
89	0x3cb24c87	0.021765007
90	0xbbc2100f	-0.0059223245
91	0xbcf7c11b	-0.030243447
92	0xbe9f89ee	-0.3115992
93	0xbbffb923	-0.0078040524
94	0xbc922c77	-0.017843468
95	0xbcea62b8	-0.028611526
96	0xbd957c08	-0.07299048
97	0xbc8931bb	-0.016747346
98	0xbd166bef	-0.036724027
99	0xbc506179	-0.012718552
100	0xbfce551f	-1.6119727
101	0xbf92ad0f	-1.1459063
102	0xbe1e30bb	-0.15448277
103	0xbf20ff48	-0.6288953
104	0x3f9951b0	1.1978054
105	0xc020ccae	-2.5124927
106	0xbf1c06ae	-0.6094769
107	0x3f933212	1.1499655
108	0x3e0b0607	0.13576518
109	0x3fbb6bbb	1.4642252
110	0xbf2a0ab0	-0.6642256
111	0xbea6d384	-0.3258325
112	0x3f06c44b	0.5264327
113	0xbf2832ce	-0.6570252
114	0x3eee23cb	0.46511683
115	0xbfd99183	-1.6997532
116	0x3fb7a6cb	1.4347776
117	0x3f863ea5	1.0487868
118	0xbfda13d4	-1.7037301
119	0x3d4ebe5f	0.05047452
120	0x3f6aadbf	0.91671365
121	0x3e31e3b8	0.17372024
122	0xbb857c34	-0.004073644
123	0xbef2b812	-0.4740606
124	0xbe12fe90	-0.1435492
125	0x3d7a69e9	0.06113616
126	0x3d6aba6b	0.05730669
127	0xbce683af	-0.028138964
128	0xbee99d4d	-0.45627823
129	0x3e5f251d	0.21791501
130	0x3e6331ce	0.22186968
131	0x3cea53f8	0.028604493
132	0x3d4767c1	0.04868293
133	0x3eb57c4c	0.35446393
134	0xbd8856a0	-0.066571474
135	0xbd723296	-0.059130274
136	0xbbf094b2	-0.0073419446
137	0xbceda579	-0.029009568
138	0x3e591c42	0.21202186
139	0x3cb72cb1	0.022360178
140	0x3f6cbc3a	0.9247471
141	0x3def0334	0.11670533
142	0x3e8856e6	0.26628798
143	0x3e4450d3	0.19171457
144	0x3eae21b2	0.34010082
145	0x3e8440b0	0.25830603
146	0xbf2fa292	-0.6860744
147	0x3d0bca46	0.03412845
148	0x3e8743b3	0.26418838
149	0xbe25dda2	-0.16197827
150	0xbf905162	-1.1274836
151	0x3cb6f1ba	0.022332061
152	0x3d239cb9	0.039944384
153	0x3ed214aa	0.4103139
154	0xbf13cb9e	-0.5773257
155	0x3dd3242a	0.10309632
156	0xbf2d57eb	-0.6771228
157	0x3e8000c7	0.25000593
158	0xbe033724	-0.12814003
159	0xbf226df2	-0.63449013
160	0x3e97d554	0.29654944
161	0xbcb76b21	-0.02238995
162	0x3e77556c	0.2415368
163	0x3f41db37	0.7572512
164	0xbff2257c	-1.8917689
165	0x3dd7ac8f	0.1053096
166	0xbdf99ac0	-0.12187719
167	0x3d9523cc	0.07282218
168	0x3e03d9ae	0.12876007
169	0x3f5a6a49	0.8531843
170	0x3ce58410	0.028017074
171	0x3dbbe2d0	0.091741204
172	0xbe61206d	-0.21985026
173	0x3d92afd9	0.071624465
174	0xbed9cac4	-0.4253751
175	0xbe9fc9bf	-0.31208608
176	0x3d25235c	0.040316924
177	0xbdf2a052	-0.11846985
178	0x3cc99c4b	0.02461066
179	0xbda9dfba	-0.082946256
180	0x3ee4f0ea	0.44715053
181	0xbd6a150a	-0.05714897
182	0xbedbdd09	-0.42942074
183	0x3e26b02a	0.16278139
184	0x3e5e6c5f	0.21721028
185	0xbdb23b93	-0.08702769
186	0x3cc6d27a	0.024270285
187	0x3d00188a	0.031273402
188	0xbe94b1b8	-0.2904184
189	0x3e5b0fa8	0.21392691
190	0x3d60fd31	0.054928962
191	0x3e65ca16	0.22440371
192	0x3deed4e2	0.11661698
193	0x3dfb272a	0.12263329
194	0x3dc017a4	0.09379509
195	0x3f41f589	0.7576528
196	0x3e4fa420	0.20277452
197	0x3f3adcbb	0.7299306
198	0x3c9e111c	0.019295268
199	0xbd1e3382	-0.03862334
200	0x3eb83192	0.3597532
201	0xc0535c90	-3.3025246
202	0xba167c8f	-0.00057406066
203	0xbd17155f	-0.036885615
204	0xbd4fb981	-0.05071402
205	0x3d8fae70	0.07015693
206	0x3dcc13c7	0.0996471
207	0xbd443731	-0.047904197
208	0x3da5fe55	0.081051506
209	0xbe90236d	-0.28152028
210	0xbf3a1ede	-0.7270335
211	0xbde1486a	-0.1100014
212	0x3dc9276e	0.09821974
213	0x3ea6aa3c	0.32551754
214	0x3d8555e3	0.06510522
215	0x3e1f7c5e	0.15574786
216	0xbdeadde9	-0.11468107
217	0x3e4107cd	0.18850632
218	0x3d58ce7d	0.052931298
219	0x3d1e8fb5	0.03871127
220	0x3e1be7b9	0.15225114
221	0xbc473802	-0.012159349
222	0x3c5f2bf4	0.013621319
223	0x3d217d46	0.03942611
224	0x3db4a413	0.08820357
225	0x3cf52449	0.029924529
226	0x3cb5b141	0.022179248
227	0xbeaf61df	-0.34254357
228	0x3e1379d6	0.14401945
229	0x3bf87f2c	0.0075835194
230	0xbd979187	-0.07400804
231	0xba4197fd	-0.0007385014
232	0xbdbcacb2	-0.092126265
233	0xbd26a975	-0.04068895
234	0x3ca86a08	0.020558372
235	0xbdf6ea66	-0.12056427
236	0xbcf122d1	-0.029435547
237	0xbd873a51	-0.0660292
238	0x3da842e8	0.08215886
239	0xbd58b7f5	-0.05290981
240	0x3e92f7fa	0.28704816
241	0x3daa7ce6	0.08324604
242	0xbe41753c	-0.18892378
243	0xbda0f6af	-0.07859551
244	0x3ebbbef1	0.36669114
245	0x3f26deca	0.651837
246	0xbe713a1b	-0.23557322
247	0xbfd97313	-1.6988243
248	0x3efebf8b	0.4975551
249	0xbd82a782	-0.06379606
250	0xbe63ee75	-0.22258933
251	0xbeae41cd	-0.34034577
252	0xbe105de0	-0.1409831
253	0xbf18a171	-0.5962134
254	0xbc4fcba2	-0.012682827
255	0x3fa06851	1.2531835

weight_ih_l0 f4 [200, 20]
0	0xbfcd76e3	-1.6051906
1	0xbf78ad5f	-0.97139543
2	0xbed3f905	-0.41400924
3	0xbe23489d	-0.15945669
4	0x3f32f8c3	0.6991083
5	0xbf8f7c7d	-1.1209866
6	0xbe3b3e7a	-0.18285552
7	0x3ecae186	0.39625186
8	0x3f0bb986	0.5457996
9	0x3e86faf1	0.26363328
10	0x3eff3881	0.49847797
11	0xbeb1032f	-0.3457274
12	0xc01507a8	-2.3285923
13	0x3fab6aff	1.3392028
14	0xbe2285b5	-0.15871318
15	0xbe1506fe	-0.14553449
16	0x3ea19733	0.31560668
17	0x3e8a35ac	0.26994073
18	0xbf29653c	-0.66170096
19	0xbe844c33	-0.25839385
20	0xbd54255f	-0.051793452
21	0x3eff2f4a	0.49840766
22	0x3f6cf48f	0.92560667
23	0xbdd7685f	-0.10517954
24	0xbf94f299	-1.1636535
25	0xbd1dd950	-0.038537323
26	0xbdf48300	-0.11939049
27	0xbf30d2e3	-0.6907179
28	0x3ec827b1	0.39092782
29	0xbf535829	-0.82556397
30	0x3fc3fe4a	1.5311978
31	0x3fa5ffae	1.2968652
32	0xbe1a1300	-0.1504631
33	0x3d8c704f	0.06857359
34	0xbf8ebc87	-1.1151284
35	0x3df7eff1	0.12106312
36	0xbefe3957	-0.49653122
37	0xbedc6bba	-0.4305094
38	0x3e2be888	0.16787922
39	0xbf58dbc8	-0.8471036
40	0x3e31e321	0.17371799
41	0x3d111eb7	0.035429683
42	0xbe33c43e	-0.17555329
43	0x3d97fc7e	0.07421206
44	0xbe2b8077	-0.16748224
45	0xbdae7bfd	-0.08519743
46	0xbdf1a5b9	-0.11799187
47	0x3df3bcf1	0.11901272
48	0x3e4b43bf	0.19850062
49	0x3eb6c958	0.35700488
50	0xbc61b9f2	-0.013777243
51	0x3e244ec1	0.16045667
52	0xbd2bf3c0	-0.041980505
53	0xbdc5c106	-0.09655957
54	0x3d32ab7e	0.04362058
55	0x3df6175a	0.12016173
56	0xbda7fd23	-0.08202579
57	0x3e161fad	0.14660521
58	0x3e8dcd81	0.2769585
59	0xbcc143e2	-0.02359194
60	0xbfd5da1b	-1.6707186
61	0x3f844ecb	1.0336546
62	0x3f8e06a3	1.1095775
63	0x3e4915ff	0.19637297
64	0xbf0a5406	-0.5403446
65	0xbde3e58b	-0.11127766
66	0xbf731c9c	-0.9496553
67	0x3f5cef50	0.8630266
68	0x3ea2b19f	0.3177614
69	0xc00cda5b	-2.2008274
70	0x3e0710b3	0.13189964
71	0xbf5fda52	-0.87442505
72	0x3ed4af55	0.41540018
73	0xbf3a6857	-0.7281546
74	0x3e0cb381	0.1374035
75	0xbfa5773b	-1.2927011
76	0x3dc26983	0.09492781
77	0x3e2e0d01	0.16997148
78	0x3f02782f	0.50964636
79	0x3f024500	0.50886536
80	0xbeabd0cb	-0.33557734
81	0x3ef7fec9	0.48436573
82	0xbdcb1dde	-0.09917806
83	0x3f06c0ae	0.52637756
84	0x3f151d9b	0.582483
85	0xbf135db3	-0.5756485
86	0xbd918465	-0.071053304
87	0x3f0c136f	0.54717153
88	0x3f0c0b04	0.5470431
89	0xbc4227af	-0.011850282
90	0xbecf1b2e	-0.40450424
91	0x3db49aeb	0.08818611
92	0xbeb5c8ba	-0.35504705
93	0x3e170ab6	0.1475018
94	0x3eb76b37	0.35823986
95	0x3ecdba2f	0.4018111
96	0x3ee4188e	0.44549984
97	0x3e3d6818	0.1849674
98	0xbf035471	-0.5130072
99	0xbd22972e	-0.039694957
100	0xbeef7eed	-0.46776524
101	0x3c0e0dcc	0.008670282
102	0x3db3e5e4	0.087840825
103	0xbe4deca9	-0.2010981
104	0x3c6616d7	0.014043531
105	0xbe800d6c	-0.2501024
106	0xbf334651	-0.7002917
107	0x3d743ec2	0.059630163
108	0xbd70a496	-0.05875071
109	0xbd881fb7	-0.06646674
110	0x3ef11fcc	0.47094572
111	0x3ec25108	0.37952447
112	0x3ea78cc3	0.3272458
113	0xbd71a0ea	-0.05899135
114	0x3daabe08	0.08337027
115	0x3cf6b1ac	0.030114017
116	0x3e9d7804	0.30755627
117	0x3ea0b76e	0.31389946
118	0xbcc99335	-0.024606327
119	0x3dac2d83	0.08407118
120	0xbe3289db	-0.174354
121	0xbffb59a6	-1.9636734
122	0x3eb48156	0.35254925
123	0xbdc70bbf	-0.09719037
124	0x3f974b07	1.1819772
125	0x3d92bb09	0.071645804
126	0x3b9dc2e6	0.0048144935
127	0x3eef2df4	0.46714747
128	0xbfe06e7f	-1.7533721
129	0x3f8641fc	1.0488887
130	0xbea6dea1	-0.32591727
131	0x3d60316e	0.05473464
132	0x3ecaeb71	0.39632753
133	0x3ec6877b	0.38775238
134	0xbdf1aa74	-0.118000895
135	0xbe65d1cc	-0.22443312
136	0x3f9a8a76	1.2073505
137	0xbf119428	-0.56866693
138	0x3f91ad77	1.1381062
139	0xbc0446d9	-0.008073532
140	0x3e140608	0.14455426
141	0xbedea770	-0.4348712
142	0xbd9f2347	-0.077704005
143	0x3b3d2bc0	0.0028865188
144	0xbd8b1001	-0.06790162
145	0xbd972bdc	-0.073814124
146	0x3cdca99f	0.02693635
147	0x3b3099b4	0.0026947083
148	0x3da31967	0.079638295
149	0xbd025822	-0.03182233
150	0xbd8b4947	-0.06801086
151	0xbe2f4158	-0.1711477
152	0xbd125369	-0.035724077
153	0x3e1bf0c9	0.15228571
154	0x3bed957f	0.0072504873
155	0xbba730c1	-0.0051022475
156	0xbd6e918c	-0.058244273
157	0x3c561dbc	0.013068613
158	0xbd96bb95	-0.07359997
159	0x3c0c5ca7	0.008567012
160	0xbfacceff	-1.350067
161	0x3ec7d617	0.39030525
162	0x3eaa75ef	0.332931
163	0x3d6694b3	0.056294154
164	0xbfcdc26b	-1.6074957
165	0xbe85a611	-0.2610326
166	0xbe655ee3	-0.22399478
167	0xbf114b47	-0.5675549
168	0xbf20fd55	-0.62886554
169	0x3f8f31c3	1.1187061
170	0x3f030d00	0.5119171
171	0x3e90302e	0.28161758
172	0x3e522c17	0.20524631
173	0x3d3a5838	0.04549429
174	0xbeb287b8	-0.3486917
175	0xbf85eab7	-1.0462254
176	0x3d6a9c95	0.057278235
177	0xbdb2f295	-0.08737675
178	0xbe879d1f	-0.2648706
179	0x3e123a58	0.14280069
180	0x3f5624f1	0.8365012
181	0xbf0dd9f7	-0.5541071
182	0x3f60ce98	0.8781524
183	0xbdd3ee56	-0.10348193
184	0xbf073707	-0.5281834
185	0x3fa42fe6	1.2827117
186	0xbf389a97	-0.72110885
187	0x3e273940	0.16330433
188	0x3f49e32f	0.7886228
189	0x3e82d638	0.2555406
190	0xbf9e81d8	-1.2383375
191	0xbf1fb364	-0.62383103
192	0xbf089c9d	-0.5336397
193	0x3f3d7252	0.74002564
194	0xbf9f64b2	-1.2452605
195	0xc00ee621	-2.232796
196	0xbf7d8e06	-0.99044836
197	0xc01c405d	-2.4414284
198	0xbd602673	-0.054724168
199	0x3fb090d7	1.3794202
200	0xbe0636e3	-0.13106875
201	0xbe8266e5	-0.25469127
202	0x3d9141bc	0.07092616
203	0x3e8c1c6c	0.27365434
204	0x3de0605b	0.10955878
205	0xbecf4531	-0.40482476
206	0xbe5a4104	-0.21313864
207	0xbec3fa15	-0.38276735
208	0x3f0670a4	0.52515626
209	0xbee12970	-0.43976927
210	0x3d015b47	0.03158119
211	0x3e892c63	0.26791677
212	0xbe9a97f9	-0.3019407
213	0x3d06f299	0.032946203
214	0x3da96dd9	0.08272905
215	0x3f0d8b40	0.55290604
216	0x3b84572c	0.004038712
217	0x3e8ba679	0.27275446
218	0xbefa0efe	-0.48839563
219	0xbef73e44	-0.48289692
220	0xbf043eb3	-0.5165817
221	0xbe04d358	-0.12971246
222	0xbf5ce20a	-0.8628241
223	0xbef5a27e	-0.47975534
224	0xbf2ad856	-0.6673635
225	0xbf878e90	-1.0590382
226	0xbda7b8ab	-0.081895195
227	0xbf2035b6	-0.62581956
228	0x3f8fccda	1.1234391
229	0x3eeb07b9	0.4590433
230	0x3fb85cd0	1.4403324
231	0xbeeb378b	-0.45940813
232	0xc066c893	-3.605992
233	0x3fe15163	1.7602962
234	0xbf02a5b8	-0.51034117
235	0xbeb801d2	-0.3593889
236	0xbed98540	-0.42484474
237	0xbf153356	-0.5828146
238	0xbf3752d9	-0.7161079
239	0xbe3120a2	-0.17297605
240	0xbec2c8d9	-0.3804386
241	0xbe4f72f4	-0.20258695
242	0x3e432e72	0.19060686
243	0x3e9e179a	0.30877382
244	0xbe7a291a	-0.24429742
245	0xbed51ac6	-0.4162199
246	0xbe855f18	-0.26049113
247	0xbe41f6eb	-0.18941848
248	0x3e1e0076	0.15429863
249	0xbde1ea84	-0.110310584
250	0x3e3b1a02	0.1827164
251	0x3db76b96	0.08956067
252	0xbd94e8a5	-0.07270936
253	0x3d1217d2	0.035667248
254	0xbce85048	-0.028358594
255	0xbee50c28	-0.44735837

weight_hh_l0 f4 [200, 50]
0	0xc09026fe	-4.50476
1	0xbf8f7940	-1.1208878
2	0xc07a0dcc	-3.907092
3	0x3da253d6	0.07926147
4	0x3e305405	0.17219551
5	0xc0a7424a	-5.226842
6	0xbfbfbfc5	-1.4980398
7	0x3fb5dba7	1.4207658
8	0xbe3dd71c	-0.18539089
9	0x40001c0c	2.0017118
10	0x3fbb61c6	1.4639213
11	0x3f1c1047	0.6096234
12	0xc01bcddd	-2.43444
13	0x3e9f9037	0.31164715
14	0x3ee1501c	0.4400643
15	0x4070ae97	3.760656
16	0x3f8c55e0	1.0963707
17	0x3f28b020	0.65893745
18	0xbfacd047	-1.3501061
19	0xc0087b31	-2.132519
20	0x3e7db2e3	0.24775271
21	0x4066be71	3.6053736
22	0x3f898d14	1.0746179
23	0x3ed4b706	0.41545886
24	0x3eda25d4	0.42606986
25	0xbe86fddf	-0.26365563
26	0xbfcd2728	-1.6027575
27	0xbfa3bafd	-1.2791439
28	0x402d8538	2.711256
29	0xbeb04fae	-0.3443579
30	0xc02cc17d	-2.6993096
31	0xc068ad54	-3.635579
32	0x3fbe3d66	1.4862487
33	0xbfaa06ba	-1.3283303
34	0x3e9f3b3f	0.3109989
35	0xbe2a4b93	-0.16630392
36	0xbf94cc81	-1.162491
37	0x3f620363	0.8828642
38	0x3f0d6832	0.55237114
39	0xbf88b8bc	-1.0681376
40	0xc0739b0f	-3.806339
41	0xbfb2736a	-1.3941472
42	0xbefed0c0	-0.4976864
43	0x3f4e5d3e	0.80611026
44	0xbfedc1ad	-1.857473
45	0x3df78554	0.12085977
46	0xbf04882e	-0.51770294
47	0x40012a8e	2.0182223
48	0xbf5957df	-0.84899706
49	0xbe857a73	-0.26069984
50	0xbf22e221	-0.63626295
51	0xbecd8cd4	-0.40146506
52	0x3fbeaf5b	1.4897264
53	0x3f895aa6	1.0730789
54	0x3f93f65b	1.1559557
55	0xbe7af849	-0.24508776
56	0xbebc720c	-0.3680576
57	0x3d7e8277	0.06213614
58	0xbfb09c5e	-1.379772
59	0xbd94a4f8	-0.07258028
60	0x3f03dded	0.51510507
61	0xbf41f17d	-0.75759107
62	0x3f091cc3	0.5355951
63	0xbf83ea72	-1.0305922
64	0x3f8c7412	1.0972922
65	0x3f0752f1	0.52860934
66	0x3f1e3610	0.6180124
67	0xbf4c6df0	-0.7985525
68	0xbf22f754	-0.6365864
69	0x3e99c030	0.3002944
70	0x40354203	2.832154
71	0x400a9636	2.1654181
72	0x3e21883d	0.15774627
73	0x3be1bce6	0.0068889735
74	0x3f78ba78	0.9715953
75	0xbff47bb9	-1.9100257
76	0xbd9240d9	-0.07141275
77	0x3f4db59e	0.8035525
78	0x3e8e458c	0.27787435
79	0xbf911047	-1.1333092
80	0xbd040fd1	-0.032241646
81	0xbd694c18	-0.056957334
82	0xbf2632dc	-0.64921355
83	0xbed94891	-0.42438176
84	0x3fbebeee	1.4902017
85	0x3fc1f2dc	1.515224
86	0xbf1c4970	-0.61049557
87	0x3e8e8884	0.27838528
88	0xbf063298	-0.5242095
89	0x3e96e9f0	0.29475355
90	0x401be5eb	2.435908
91	0x3fd0fd34	1.6327271
92	0xbf141a4f	-0.57852644
93	0x3ed7e289	0.4216502
94	0xbf3fb4bf	-0.7488517
95	0x3f3d975e	0.74059093
96	0x40389d93	2.8846176
97	0x3ec59bdd	0.38595477
98	0x3f4b4c72	0.7941352
99	0xbf08c9ae	-0.5343274
100	0xbee6c2cc	-0.45070493
101	0x3f00cba5	0.50310737
102	0xbf9fe9df	-1.2493247
103	0x3f8e5cc2	1.1122057
104	0xbf297de8	-0.6620774
105	0x3fc73d62	1.5565608
106	0xbeaa0604	-0.33207715
107	0x3ec40309	0.38283566
108	0xbf88df3d	-1.0693127
109	0x3e24f45d	0.16108842
110	0x3ea79ac2	0.32735258
111	0xbd639c91	-0.055569235
112	0xbe82b677	-0.25529835
113	0x3f25203a	0.645023
114	0x3f6eb6a4	0.9324744
115	0x3d70b524	0.0587665
116	0x3f301507	0.68782085
117	0x3cd83184	0.026390798
118	0x3ec253a6	0.37954444
119	0x3e966cde	0.29379934
120	0xbeee4ff5	-0.46545377
121	0xbd39d170	-0.04536575
122	0xbe8a5120	-0.27015018
123	0xbe36e1b3	-0.17859535
124	0xbe1456e8	-0.14486277
125	0x3e97fe12	0.29686028
126	0x3f70966d	0.9397953
127	0xbeb0bf2d	-0.34520856
128	0xbebf6c50	-0.37387323
129	0xbd061298	-0.032732576
130	0x3e178231	0.14795758
131	0x3e1c03d5	0.15235837
132	0xbea69507	-0.32535574
133	0x3f354a0a	0.708161
134	0x3e894110	0.2680745
135	0x3d893c7b	0.06700989
136	0x3f347b12	0.7050029
137	0xbe93c67a	-0.28862363
138	0x3dd84ee5	0.10561923
139	0x3f195c8e	0.5990685
140	0x403e2a3a	2.9713273
141	0x402e8196	2.7266593
142	0x3959aa1b	0.00020758102
143	0x3f8ee808	1.116456
144	0xbe7e497c	-0.2483272
145	0xbf601456	-0.8753103
146	0xbea31a39	-0.31855944
147	0x3f059208	0.5217595
148	0x3e581240	0.21100712
149	0xbec9f9b8	-0.39448333
150	0x3e809455	0.25113168
151	0x3e6386d6	0.22219405
152	0xbf7806e0	-0.9688549
153	0x3f9157ee	1.1354959
154	0xbf8b5a4c	-1.0886931
155	0x3ea885a4	0.3291446
156	0x3f903142	1.1265032
157	0x40073b9d	2.1130135
158	0x3eecf10d	0.46277657
159	0x3f84cd65	1.0375181
160	0x3fc9daa0	1.5769844
161	0x3edecc23	0.4351512
162	0xbebe2585	-0.37138
163	0xc02a183b	-2.657729
164	0x3ea7298a	0.3264888
165	0xbf2395b9	-0.63900334
166	0xc006bf32	-2.1054196
167	0xbef924ef	-0.4866099
168	0x3faea4f0	1.3644085
169	0xbfbb7635	-1.4645449
170	0x3fe16508	1.7608957
171	0xbfc511d7	-1.5396069
172	0xbe977813	-0.29583797
173	0x3f66f25c	0.9021356
174	0x3fc0dbe0	1.50671
175	0xbe342a9b	-0.17594378
176	0x3fff6884	1.9953771
177	0x3fc48d2f	1.5355586
178	0xc00b8b83	-2.1803901
179	0x3ee8fbc3	0.4550458
180	0x3f98cd3e	1.1937635
181	0xbf5387f8	-0.82629347
182	0xbe996eb8	-0.29967284
183	0x3f701a01	0.9378968
184	0xc0259acd	-2.5875733
185	0xbea69e8c	-0.32542837
186	0xbfc24f3a	-1.5180428
187	0x3fa94dae	1.3226831
188	0xbe34c16c	-0.1765191
189	0x3f9305e1	1.1486169
190	0x3f56cd4a	0.83906996
191	0xbed3fbf0	-0.4140315
192	0xbeb44a63	-0.35213003
193	0x405a70c6	3.4131331
194	0xbf81e9d7	-1.0149487
195	0xbf89646b	-1.073377
196	0xbe780659	-0.24221171
197	0xc02ddc4a	-2.7165704
198	0x3d8e8437	0.06958812
199	0x3f29ecab	0.6637675
200	0x3fd665c8	1.6749811
201	0xbeb10944	-0.34577382
202	0x3f952228	1.1651049
203	0xbe29ac82	-0.16569713
204	0xbfbd65c7	-1.4796685
205	0xbd8e98a3	-0.06962707
206	0x3f490762	0.7852689
207	0xbf6db99f	-0.9286136
208	0xbff0cf70	-1.8813305
209	0x40732f46	3.7997603
210	0xbf130c2b	-0.5744044
211	0xc0943e5c	-4.632612
212	0x3fd93004	1.6967778
213	0x403d3cf6	2.9568458
214	0x3fad05fb	1.351745
215	0x3db40276	0.08789532
216	0xbeb77360	-0.35830212
217	0xbd838d26	-0.06423406
218	0xc054dc7c	-3.3259573
219	0x3fa16225	1.2608076
220	0x40099548	2.1497364
221	0x3f7c48ce	0.9854859
222	0x3fd9c86a	1.7014287
223	0xbf495c9a	-0.78656924
224	0x3f82eac8	1.02279
225	0x3edb5ee5	0.42845836
226	0xbf145896	-0.5794767
227	0xbfefda05	-1.8738409
228	0x3fd1a261	1.6377679
229	0x3fc79244	1.5591512
230	0x3fd9ebef	1.7025126
231	0x3f1d883d	0.6153601
232	0x3e6e185f	0.23251484
233	0x3fb094c7	1.3795403
234	0xbc8f7b11	-0.017514737
235	0x40035b74	2.0524569
236	0xbf4a5847	-0.7904095
237	0xbf8e1295	-1.1099421
238	0x3dd2eeb3	0.102994345
239	0x3f2469c8	0.6422391
240	0x40442d37	3.0652597
241	0x3c974a73	0.018468117
242	0x3fe11fcb	1.7587827
243	0x3e979319	0.29604414
244	0x3dfc4d06	0.123193786
245	0x3ef8e8c6	0.48615092
246	0x3fb61b9d	1.4227177
247	0xbf44cc21	-0.76873976
248	0x3f8ea4ea	1.1144078
249	0x3efad037	0.4898698
250	0xbf5f51ad	-0.87234
251	0xbe4aeaa5	-0.19816072
252	0x3e281ab2	0.16416433
253	0x3e870dd1	0.2637773
254	0x4003bb41	2.058304
255	0xbf5fa900	-0.8736725

bias_ih_l0 f4 [200]
0	0x3f80bcac	1.0057578
1	0x3f428691	0.7598658
2	0x3fb70045	1.4296957
3	0x3f6fc43f	0.9365882
4	0x3e9b31d1	0.30311444
5	0x3f33aa36	0.70181596
6	0x3eed2db7	0.4632394
7	0x3e8d2f43	0.2757512
8	0x3f39dab9	0.7259937
9	0x3f4a26a0	0.7896519
10	0x3e2690ae	0.16266128
11	0x3f5bbc44	0.85834146
12	0x3e92a6d8	0.28642917
13	0xbe15c2d6	-0.14625105
14	0x3f872ea6	1.0561111
15	0x3fb1d3cd	1.3892761
16	0xbf3a0a81	-0.7267228
17	0x3ee1cd1d	0.44101802
18	0xbef4088b	-0.47662768
19	0x3f7be23f	0.983921
20	0xbf0c6f50	-0.5485735
21	0x3da25548	0.07926422
22	0x3f05be66	0.5224365
23	0x3e34f8a8	0.1767298
24	0x3dcd70bd	0.10031269
25	0x3ea707e1	0.326232
26	0x3f1f58f0	0.6224508
27	0x3eab958b	0.3351253
28	0x3ddbf084	0.10739234
29	0x3c570e1e	0.013125924
30	0x3ec88ac1	0.3916836
31	0x3f25f59c	0.64827895
32	0xbeb6e20a	-0.3571933
33	0x3e709983	0.2349606
34	0x3e8532a6	0.26015204
35	0x3f273c3c	0.65326285
36	0xbe851ed5	-0.26000085
37	0x3fad56a4	1.3542066
38	0x3e1a660f	0.15077995
39	0x3e9291d4	0.28626883
40	0xbe590984	-0.21195036
41	0xbe24e3c0	-0.16102505
42	0x3efc1346	0.49233454
43	0xbecac710	-0.39604998
44	0xbd9496b3	-0.07255306
45	0xbee3bb81	-0.44478992
46	0x3fd4c586	1.6622779
47	0x3f877d7d	1.0585171
48	0x3e0c8755	0.137235
49	0x3eb173dc	0.34658706
50	0x3ee3be92	0.4448133
51	0xbf4527b0	-0.77013683
52	0x3f17ebbb	0.5934407
53	0x3f442158	0.7661338
54	0x3e062b1f	0.13102387
55	0xbe6fc211	-0.23413874
56	0x3f56cdbb	0.8390767
57	0xbdef5654	-0.11686388
58	0x3d52b97e	0.05144643
59	0x3e29a031	0.16565014
60	0x3e054cfc	0.13017648
61	0x3d9b415b	0.07580825
62	0x3eedff30	0.46483755
63	0x3e63cec0	0.22246838
64	0x3be59b24	0.0070070196
65	0x3f21b6d0	0.63169575
66	0x3f2fb51f	0.68635744
67	0xbe9e8fa8	-0.30968976
68	0x3e405001	0.18780519
69	0xbeb55310	-0.35414934
70	0x3f1535f5	0.58285457
71	0x3f0d35fd	0.55160505
72	0x3edfa152	0.43677765
73	0x3d73f141	0.05955625
74	0xbea0c0e5	-0.31397167
75	0x3eb6cf0b	0.35704836
76	0x3db827eb	0.08991989
77	0xbe89596f	-0.26826045
78	0xbfd45ef4	-1.6591477
79	0x3f1d9847	0.6156048
80	0x3e0c596a	0.13705984
81	0xbeb3f1d9	-0.35145453
82	0xbe20baa0	-0.15696192
83	0xbeb96071	-0.3620639
84	0x3edd8c71	0.4327121
85	0x3f0159e7	0.50527805
86	0xbe1e61b1	-0.15466954
87	0xbf88f283	-1.0699009
88	0x3e17b2b5	0.14814265
89	0xbe972a17	-0.295243
90	0xbf11a4f6	-0.56892335
91	0xbf42e488	-0.7612996
92	0x3f01036d	0.5039585
93	0x3f2f6595	0.68514377
94	0x3f03253d	0.51228696
95	0xbefd5f15	-0.49486604
96	0x3f254bcb	0.64568776
97	0x3d57330e	0.052538924
98	0xbf637b79	-0.8886028
99	0xbe83e03e	-0.2575702
100	0xbf0c67b9	-0.5484577
101	0x3edd3e37	0.4321153
102	0xbe23e547	-0.16005431
103	0xbebd4d42	-0.36973006
104	0x3cae2889	0.021259563
105	0xbedc1680	-0.42985916
106	0x3f2c98eb	0.67420834
107	0x3f6331df	0.8874797
108	0xbecd7f4a	-0.40136176
109	0x3d77e196	0.06051787
110	0xbee8d176	-0.45472306
111	0xbe2c97d1	-0.16854788
112	0xbe9d6982	-0.3074456
113	0xbf2551ad	-0.6457775
114	0x3e28fa3f	0.16501711
115	0x3e09b2e1	0.13447143
116	0x3f875679	1.0573264
117	0xbeec5977	-0.46162006
118	0xbcfaa3b0	-0.03059563
119	0x3f3363b8	0.70074034
120	0x3e1c0f8d	0.15240307
121	0x3f218b0a	0.6310278
122	0x3b9ea8b0	0.0048418865
123	0x3eb1daa6	0.34737128
124	0x3f372521	0.7154103
125	0xbe6d3eab	-0.23168437
126	0xbf0b19af	-0.54336065
127	0x3f007e83	0.5019304
128	0x3cc7d0a3	0.024391478
129	0xbed8c08e	-0.42334408
130	0x3f0fb834	0.56140447
131	0x3e80d3c3	0.2516156
132	0xbd9d7af4	-0.07689467
133	0xbf920200	-1.140686
134	0x3dedc672	0.11610116
135	0x3e90505e	0.28186315
136	0xbe85c1a7	-0.26124308
137	0x3eb0f9d9	0.3456562
138	0xbdc6dd9c	-0.097102374
139	0x3eac4de5	0.3365318
140	0x3e1beded	0.1522748
141	0xbd804876	-0.06263821
142	0x3e346c9d	0.17619558
143	0x3eaa0640	0.33207893
144	0xbf5e7670	-0.8689947
145	0x3e30df68	0.17272723
146	0x3e07e9df	0.13272808
147	0xbeda87df	-0.42681786
148	0x3f29a8ee	0.6627339
149	0xbe72fe31	-0.23729779
150	0x3c88eab8	0.016713485
151	0x3f957c2a	1.1678517
152	0x3f8940a3	1.072285
153	0x3f29b5a3	0.6629278
154	0xbf04d28d	-0.51883775
155	0xbeded133	-0.4351898
156	0xbec9d2a8	-0.3941853
157	0x3f045aba	0.5170094
158	0x3f18fcf0	0.5976095
159	0xbf073853	-0.5282032
160	0xbe81151e	-0.25211424
161	0x3f891e55	1.0712382
162	0xbf9917f1	-1.1960431
163	0x3fe1a445	1.7628256
164	0x3ff092ea	1.8794835
165	0xbf527164	-0.8220427
166	0xbfcbd917	-1.5925626
167	0xbf3f4bba	-0.74724925
168	0xbfa020ca	-1.2510006
169	0xbf3b04e2	-0.73054326
170	0x3e8cd825	0.27508655
171	0x3f73f957	0.9530234
172	0x3e4ef77d	0.20211597
173	0xbe9f3d53	-0.31101474
174	0xbf8ab787	-1.0837258
175	0xbf3385dc	-0.7012613
176	0x3f828f0b	1.0199903
177	0x3f894911	1.0725423
178	0x3f148528	0.5801568
179	0x3f0ff82f	0.56238073
180	0x3e274aea	0.16337171
181	0x3dddbe1e	0.108272776
182	0x3f4beaf8	0.7965541
183	0xbf3789b2	-0.7169448
184	0x3fa6240d	1.2979752
185	0x3fbb24db	1.4620622
186	0x3f4b567a	0.7942883
187	0x3f9df854	1.2341409
188	0x3f77e557	0.9683432
189	0xbe5d9e70	-0.2164247
190	0xbe502dd3	-0.2032998
191	0x3f33c44d	0.70221406
192	0x3f367876	0.7127756
193	0xbf1df66d	-0.6170414
194	0xbcd6beb9	-0.02621399
195	0x3f179f4f	0.5922746
196	0x3d4e1a08	0.050317794
197	0xbe0fe6b6	-0.14052853
198	0x3fe838b5	1.8142306
199	0x3f376fb8	0.71654844

bias_hh_l0 f4 [200]
0	0x3f644373	0.8916542
1	0x3f41ccec	0.7570331
2	0x3f9b40c7	1.2129143
3	0x3f8d3cab	1.1034139
4	0x3ea35eda	0.31908303
5	0x3f69170f	0.9105081
6	0x3f07e9b0	0.53090954
7	0x3ed4d0e1	0.41565612
8	0x3f3de322	0.741747
9	0x3f3add83	0.7299425
10	0x3ebf7a98	0.3739822
11	0x3f247b30	0.6425047
12	0x3e87a6ee	0.26494545
13	0x3d2b12a5	0.041765828
14	0x3f864533	1.0489868
15	0x3fa107ec	1.2580543
16	0xbf5b7c08	-0.8573613
17	0x3e983a20	0.29731846
18	0xbead84c0	-0.33890343
19	0x3f6c6ac1	0.92350394
20	0xbee4d32a	-0.44692355
21	0xbbb74206	-0.0055925874
22	0x3f05220f	0.52005094
23	0x3eaae860	0.33380413
24	0x3debfa27	0.11522322
25	0x3ef47cb9	0.47751406
26	0x3f586a96	0.8453764
27	0x3e72a48b	0.2369558
28	0x3e287c20	0.164536
29	0x3da0f911	0.07860006
30	0x3ecd5878	0.4010656
31	0x3f2dd9db	0.67910546
32	0xbf0e61fd	-0.5561827
33	0x3d1449af	0.036203083
34	0x3ed6977b	0.41912445
35	0x3efe3fab	0.4965795
36	0xbec44534	-0.38334048
37	0x3f9ed512	1.2408774
38	0x3d723c61	0.059139613
39	0x3ee4ac9c	0.4466294
40	0xbea36783	-0.3191491
41	0x3da285ab	0.079356514
42	0x3f04b22b	0.5183436
43	0xbf143c76	-0.57904756
44	0xbcdddf5c	-0.027084045
45	0xbe5f8932	-0.2182968
46	0x3fcad1a0	1.5845222
47	0x3fa012b3	1.2505707
48	0x3da30750	0.07960379
49	0x3efdcd6a	0.4957078
50	0x3f249ad5	0.64298755
51	0xbf5f368f	-0.87192625
52	0x3f18b4f3	0.59651107
53	0x3f2ad518	0.66731405
54	0x3dbbffd9	0.091796584
55	0xbe9b8ab9	-0.30379274
56	0x3f564b40	0.8370857
57	0xbc612cd6	-0.0137436
58	0xbd694ec3	-0.05695988
59	0x3cb5ffac	0.02221664
60	0x3e69b801	0.22824098
61	0x3e9dbcee	0.30808204
62	0x3ef80721	0.4844294
63	0x3e2a60c6	0.16638479
64	0x3d971c71	0.07378472
65	0x3f1278e7	0.5721573
66	0x3f2056cc	0.6263244
67	0xbea82aaa	-0.3284505
68	0x3ecd1d0f	0.40061232
69	0xbe4b0805	-0.19827278
70	0x3f074743	0.5284311
71	0x3f0da18b	0.5532462
72	0x3f26c7de	0.65148723
73	0xbccd6d40	-0.025076509
74	0xbec81378	-0.39077353
75	0x3ee62e88	0.44957376
76	0x3d81b7c6	0.0633388
77	0xbeba69a8	-0.36408734
78	0xbfc2a5af	-1.5206813
79	0x3f18ad00	0.5963898
80	0x3ec02dec	0.37535036
81	0xbe3ee0bc	-0.18640417
82	0x3c8cb9e0	0.017178476
83	0xbf03de34	-0.5151093
84	0x3f12ecc7	0.57392544
85	0x3eccd352	0.40004975
86	0xbd8c5400	-0.06851959
87	0xbfa3aa38	-1.2786322
88	0x3e16536b	0.14680259
89	0xbf09f914	-0.5389569
90	0xbf3a4c4a	-0.7277266
91	0xbf28c8ef	-0.659316
92	0x3f118a00	0.56851196
93	0x3f18708a	0.5954672
94	0x3f2e2821	0.6802998
95	0xbf1caac8	-0.6119809
96	0x3f2950da	0.66138995
97	0x3e2c9645	0.16854198
98	0xbf646b72	-0.8922645
99	0xbe9373f0	-0.2879939
100	0xbf46739a	-0.77520144
101	0x3ed0c394	0.40774214
102	0xbcbfad76	-0.023398142
103	0xbe9a4ed0	-0.30138254
104	0x3e108b28	0.14115584
105	0xbed807a2	-0.42193323
106	0x3f0d9035	0.5529817
107	0x3f6a759c	0.9158571
108	0xbe79952d	-0.24373312
109	0x3ca68a6f	0.020329682
110	0xbeba88d6	-0.36432523
111	0xbdcbee69	-0.099575825
112	0xbe866815	-0.26251283
113	0xbf1125de	-0.56698406
114	0x3ea8d283	0.32973108
115	0x3d9bed12	0.07613577
116	0x3f94b20a	1.1616833
117	0xbe906f93	-0.28210124
118	0x3ca7de53	0.020491755
119	0x3f274a3e	0.6534766
120	0x3e3dcac0	0.18534374
121	0x3f124dfe	0.57150257
122	0x3e32f271	0.17475297
123	0x3ec432b1	0.38319924
124	0x3f66aa12	0.90103257
125	0xbee3dc65	-0.44504085
126	0xbec26f32	-0.3797546
127	0x3f1199f7	0.56875557
128	0xbe0ab949	-0.13547243
129	0xbef9df57	-0.48803207
130	0x3f0cc434	0.5498688
131	0x3e61aff6	0.2203978
132	0xbcd2c354	-0.025727905
133	0xbf77a7d8	-0.96740484
134	0xbbcd9ce1	-0.006274805
135	0x3e7061d4	0.23474818
136	0xbd51b5c9	-0.051198754
137	0x3dbf8666	0.09351806
138	0xbe03ca9b	-0.12870257
139	0x3e2de9d5	0.16983731
140	0x3cc4c690	0.024020463
141	0xbdcfbfd6	-0.10144012
142	0x3e9395e5	0.28825298
143	0x3e6a6362	0.22889474
144	0xbf5747c9	-0.8409391
145	0x3e96ef24	0.29479325
146	0x3e3285f8	0.17433918
147	0xbee893db	-0.45425305
148	0x3f0aefe3	0.5427229
149	0xbecd7b05	-0.4013292
150	0xbd686d97	-0.056745138
151	0x3f9cfd29	1.2264758
152	0x3f76a439	0.96344334
153	0x3f2365ed	0.638274
154	0xbf03ea19	-0.5152908
155	0xbecdc7e5	-0.4019157
156	0xbec48e34	-0.38389742
157	0x3efc873d	0.4932193
158	0x3f26735a	0.6501976
159	0xbef1d682	-0.4723397
160	0xbe73550d	-0.23762913
161	0x3f78cc31	0.9718657
162	0xbf9162c2	-1.1358263
163	0x3fd0a0b7	1.6299046
164	0x3fe1f33a	1.7652352
165	0xbf39a0a1	-0.72510725
166	0xbfcae5bb	-1.5851358
167	0xbf532a3d	-0.82486326
168	0xbf8b7927	-1.0896348
169	0xbf5204fc	-0.82038856
170	0x3eddd709	0.4332812
171	0x3f95e127	1.1709336
172	0x3e0d1a81	0.13779642
173	0xbee45e08	-0.4460299
174	0xbf833ad2	-1.0252326
175	0xbf02f34e	-0.51152503
176	0x3f81f7f5	1.0153795
177	0x3f848bf8	1.0355215
178	0x3efba2ea	0.4914773
179	0x3edbf91c	0.42963493
180	0x3e2cebcc	0.16886824
181	0x3b1c298e	0.002382848
182	0x3f52beb2	0.8232223
183	0xbf35df3f	-0.7104377
184	0x3f98c7a6	1.1935928
185	0x3fcdf52c	1.6090446
186	0x3f4be12c	0.7964046
187	0x3f8c2129	1.094762
188	0x3f865379	1.0494224
189	0xbec7a55c	-0.38993347
190	0xbdb8471a	-0.089979365
191	0x3f32e9b3	0.69887847
192	0x3f0e7ad7	0.5565619
193	0xbf45ee29	-0.7731653
194	0xbc97b957	-0.018520994
195	0x3eb34862	0.3501616
196	0x3b3eb6b1	0.0029100592
197	0xbc7372a3	-0.0148588745
198	0x3fe4a01b	1.786136
199	0x3f7c89fc	0.9864805

weight f4 [74, 50]
0	0x3e849aa0	0.2589922
1	0xbf5f9ad2	-0.8734561
2	0x3ee56e1c	0.4481057
3	0x3e69227f	0.22767065
4	0x3e025f60	0.12731695
5	0xbe9e4dd4	-0.30918753
6	0xbef61835	-0.48065343
7	0xbec08b12	-0.37606102
8	0x3e1bf1ea	0.15229002
9	0xbef98f8f	-0.4874234
10	0x3e7543f8	0.2395171
11	0xbede7481	-0.4344826
12	0x3e2dc18b	0.16968362
13	0x3e6cd159	0.23126735
14	0x3e5c3db7	0.21507917
15	0xbec83447	-0.39102384
16	0xbf0c6454	-0.5484059
17	0x3eb248a9	0.3482106
18	0xbe8724e9	-0.26395348
19	0xbe69559c	-0.22786564
20	0xbeab174b	-0.3341621
21	0xbf0139f9	-0.50479084
22	0x3e8c263e	0.27372926
23	0xbed39ead	-0.41331998
24	0x3c871e51	0.016493948
25	0x3f1f4fe7	0.62231296
26	0xbe5005f2	-0.20314768
27	0x3e8aa355	0.27077737
28	0xbe8d94ab	-0.27652487
29	0x3e8f743d	0.2801837
30	0xbe4aa917	-0.19791065
31	0xbeae25af	-0.34013125
32	0x3f12bded	0.57321054
33	0x3d0dc050	0.03460723
34	0xbde4faa2	-0.11180617
35	0x3e8bdc69	0.27316597
36	0xbee391c8	-0.4444716
37	0xbf2a0d64	-0.6642668
38	0x3e830939	0.25592974
39	0xbeb97816	-0.3622443
40	0xbecd6a37	-0.40120098
41	0xbeacea07	-0.337723
42	0x3f778ed2	0.967023
43	0xbe569899	-0.20956649
44	0x3e9523b6	0.29128808
45	0xbe5c987b	-0.21542542
46	0xbe036eae	-0.1283519
47	0xbec3f6c4	-0.38274205
48	0xbedcd957	-0.43134567
49	0x3eeb325c	0.4593686
50	0x3e87edd3	0.26548633
51	0xbf66bed8	-0.90134954
52	0x3eb2e287	0.34938452
53	0x3eac9170	0.3370471
54	0x3e8590e0	0.26087093
55	0xbe9fb2a9	-0.31190994
56	0xbe8d737c	-0.2762717
57	0xbe8cf891	-0.2753339
58	0x3db333c3	0.08750107
59	0xbef172d4	-0.4715792
60	0x3e92c4f8	0.286659
61	0xbf023586	-0.5086292
62	0x3e547ede	0.20751521
63	0x3ea60d9b	0.32432255
64	0x3e246f8d	0.16058178
65	0xbebcaa7f	-0.36848828
66	0xbf0712e6	-0.5276321
67	0x3e4d945e	0.20076129
68	0xbe4f49e5	-0.20243032
69	0xbe92bb26	-0.28658408
70	0xbecd37eb	-0.40081725
71	0xbf0fa9f1	-0.56118685
72	0x3e2bb2c4	0.16767412
73	0xbee25024	-0.44201767
74	0xbd864c15	-0.0655748
75	0x3f17dd22	0.59321797
76	0xbe07ca6f	-0.13260816
77	0x3eb25f1f	0.34838197
78	0xbeb15ab2	-0.34639508
79	0x3ecac3d0	0.39602518
80	0xbe39c8fc	-0.18143076
81	0xbec2eb7e	-0.3807029
82	0x3f06cd0b	0.5265662
83	0x3dee6019	0.11639423
84	0xbdb029ca	-0.08601721
85	0x3e4c1135	0.19928439
86	0xbe9b4ee3	-0.30333623
87	0xbf4392ff	-0.76396173
88	0x3e56e455	0.2098554
89	0xbed5af70	-0.4173541
90	0xbe9f20e7	-0.3107979
91	0xbf057e35	-0.521457
92	0x3f96339d	1.1734501
93	0xbe73fdb7	-0.23827253
94	0x3e8c09f9	0.2735136
95	0xbda435c7	-0.0801807
96	0xbe846d06	-0.25864428
97	0xbeedb4fb	-0.4642714
98	0xbea098db	-0.3136662
99	0x3efbb06b	0.49158034
100	0xbed1f64e	-0.41008228
101	0x3f31aa8f	0.69400877
102	0xc00c98f7	-2.1968362
103	0xbe9b0c4d	-0.30282822
104	0xbf803ecf	-1.0019168
105	0xbf2294bd	-0.63508207
106	0xc0167090	-2.3506203
107	0xbef20822	-0.4727183
108	0xbf06de9e	-0.52683437
109	0xc01de777	-2.4672525
110	0xbfbc7360	-1.472271
111	0xbf9e7a12	-1.2381003
112	0x3fd97963	1.6990169
113	0x3f022702	0.5084077
114	0xbf5de1ba	-0.86672556
115	0xbf4a77bf	-0.7908897
116	0xbf4e0202	-0.80471814
117	0xbff0f523	-1.882481
118	0x3f3b9836	0.7327913
119	0xbf3d14cb	-0.7385985
120	0x3f87de76	1.0614765
121	0x40cf217a	6.4728365
122	0x3ab68d9d	0.0013927702
123	0x3ef471fa	0.47743207
124	0x3f55f7d7	0.835813
125	0xbed38e48	-0.4131949
126	0xbda3aa45	-0.07991461
127	0x3d44e9c4	0.0480745
128	0xbec16813	-0.37774715
129	0x3eda12c1	0.42592433
130	0xbfc5ffc7	-1.5468682
131	0x3f1e02c4	0.6172297
132	0xbfe09a3e	-1.7547071
133	0xbe091e30	-0.13390422
134	0xbfb8aaec	-1.4427161
135	0x3df81a26	0.121143624
136	0xc0369944	-2.8531046
137	0xbfacefb6	-1.3510654
138	0x3cb8c266	0.022553634
139	0xbef79697	-0.48357078
140	0x3fa06679	1.2531272
141	0x3f2c15ed	0.67220956
142	0xbf747ea1	-0.9550572
143	0xbee3a0de	-0.4445867
144	0x3f42e4db	0.76130456
145	0xc04030aa	-3.0029702
146	0xbdbc8473	-0.0920495
147	0x3eb1fc13	0.3476263
148	0x3f0ffb15	0.56242496
149	0xbe45f637	-0.19332205
150	0x3eaef866	0.34173888
151	0x3f48b2e7	0.78397983
152	0x400d9909	2.2124655
153	0xbf4c7b00	-0.79875183
154	0x3fba5c18	1.4559355
155	0xbf8ce051	-1.1005956
156	0x402a2101	2.6582644
157	0xc012d3dd	-2.294181
158	0xbfc699af	-1.551565
159	0x3e8d545c	0.27603424
160	0x3e4762ec	0.1947133
161	0xc010020e	-2.2501254
162	0x4092c43f	4.586456
163	0x40a9d112	5.3067713
164	0x40214e8d	2.5204194
165	0xc000ea29	-2.014292
166	0xc0a449aa	-5.133992
167	0x3fae5bda	1.3621781
168	0xbff208e0	-1.8908958
169	0xbfb276ef	-1.3942546
170	0x3f6df14f	0.9294633
171	0x3eefe1ab	0.46851858
172	0x40717ddd	3.773307
173	0xc01d0839	-2.4536269
174	0xc0777b3d	-3.8668969
175	0x40c9bff8	6.3046837
176	0xbff82c15	-1.9388453
177	0x404023e9	3.0021918
178	0x3fe4446a	1.7833378
179	0xbf59bc41	-0.8505288
180	0x3fac9708	1.3483591
181	0x3f2c123d	0.6721533
182	0xbfa8ebd5	-1.319697
183	0xbf94dd2e	-1.1629999
184	0xc0170b1a	-2.3600526
185	0x4002fea9	2.0467932
186	0xc0b89e2c	-5.769308
187	0x403e76da	2.9760041
188	0xbe0ec2d3	-0.13941507
189	0xbfc23c6f	-1.5174693
190	0x3fb48bd3	1.4105171
191	0x3fb940cc	1.44729
192	0x4032a5ee	2.7913775
193	0xbf14de6b	-0.5815188
194	0x3ed1bae8	0.4096291
195	0x3ed42302	0.4143296
196	0xc1b862d3	-23.048254
197	0xc01f3786	-2.487764
198	0xbea2a233	-0.31764373
199	0x409024f1	4.5045094
200	0xbfc893de	-1.5670125
201	0x3cde72e1	0.027154388
202	0xbed3fcae	-0.41403717
203	0xbf514cb9	-0.81757694
204	0xbf990dd8	-1.195735
205	0x3ecf10cd	0.40442505
206	0x3f3331a2	0.6999761
207	0x3f9d71ef	1.2300395
208	0x3e1c4e9f	0.15264367
209	0xbf9841d9	-1.1895095
210	0x3f5bb981	0.8582993
211	0x3e862db4	0.26206744
212	0xc0004a62	-2.00454
213	0xbfd133da	-1.6343949
214	0x3ed66430	0.41873312
215	0x3f188f1e	0.5959338
216	0x3edfb527	0.43692896
217	0xbf81682b	-1.0109915
218	0xbe642a09	-0.2228166
219	0x3f956293	1.1670707
220	0x3f02d236	0.51102006
221	0xbf95dc73	-1.1707901
222	0x3deb4c83	0.11489203
223	0x3d68b1bc	0.056810126
224	0x408023ba	4.004361
225	0xbed096db	-0.40740094
226	0x3db4f7d0	0.08836329
227	0x403b4f24	2.9267054
228	0x3f8319a9	1.0242206
229	0x3cc221e6	0.023697805
230	0x3f2d5582	0.677086
231	0x3feaa6a0	1.83321
232	0x3f0a3ad9	0.53996044
233	0xbf2a14d8	-0.66438055
234	0xbf482e5d	-0.78195745
235	0x3d743142	0.05961729
236	0x3fb829b8	1.4387732
237	0xbeea61c2	-0.45777708
238	0xbd57f853	-0.052727055
239	0x4015747a	2.3352342
240	0x3fb0adbd	1.3803021
241	0x3f050993	0.51967734
242	0x3f6040d2	0.8759891
243	0x3fa854a0	1.3150826
244	0xbead9e73	-0.3390995
245	0x3fbc60e7	1.4717072
246	0x3ece8dfa	0.40342695
247	0x3f800deb	1.0004247
248	0xbe64013c	-0.22266096
249	0x3f831df9	1.0243522
250	0x3f9544d5	1.1661631
251	0xc08a9347	-4.330478
252	0x3fa5ab40	1.2942886
253	0x3cce767c	0.025202982
254	0xc0561057	-3.3447473
255	0xbff86726	-1.9406478

bias f4 [74]
0	0xbe67874b	-0.22610204
1	0xbeadc0d2	-0.33936173
2	0x3fa88a25	1.3167158
3	0xbc955dd5	-0.01823322
4	0x3f156f44	0.583729
5	0xbf29dcf6	-0.66352785
6	0xbe0b6404	-0.13612372
7	0x3f4a5982	0.7904283
8	0x3f7027ca	0.93810713
9	0x3c3e2d28	0.011607446
10	0xbeb2c604	-0.349167
11	0x3e4cda66	0.20005187
12	0x3dab3b63	0.083609365
13	0xbeb04b76	-0.34432572
14	0x3f37b427	0.71759266
15	0x3e97bb95	0.296353
16	0xbec2503c	-0.3795184
17	0xbe86dee1	-0.26341918
18	0x3eaf3cfe	0.3422622
19	0x3de3f097	0.11129873
20	0x3ae17267	0.0017200232
21	0xbf882b68	-1.0638247
22	0x3f43caf2	0.76481545
23	0x3ef03d21	0.46921638
24	0xbf51774d	-0.81822664
25	0x3f853f58	1.0409956
26	0xbe5f848f	-0.21827911
27	0x3eb81636	0.35954446
28	0xbf8f5031	-1.1196347
29	0x3f0b17c8	0.5433316
30	0xbf8a8293	-1.0821098
31	0xbf6f76ae	-0.93540466
32	0x3e21ce89	0.15801443
33	0xbf6f1090	-0.9338465
34	0xbf9255d7	-1.1432446
35	0xbf98d8d6	-1.1941173
36	0xbfc9c2a0	-1.576252
37	0xbe98d720	-0.29851627
38	0xbe8dcf93	-0.2769743
39	0xbeab0351	-0.33400968
40	0xbe699899	-0.22812118
41	0xbe56d152	-0.20978287
42	0xbda50d78	-0.080592096
43	0xbdd5ff4d	-0.104490854
44	0xbe31ac24	-0.17350823
45	0xbe231b88	-0.15928471
46	0xbe8bc557	-0.27298996
47	0xbeb12ca0	-0.3460436
48	0xbe9aa835	-0.30206457
49	0xbdca1ff3	-0.09869375
50	0xbe621303	-0.22077565
51	0xbe9034d8	-0.28165317
52	0xbe886e9c	-0.26646888
53	0xbe77b26e	-0.2418916
54	0xbe1eaeff	-0.15496443
55	0xbe9a4f76	-0.3013875
56	0xbe22cc8f	-0.15898345
57	0xbeb8553d	-0.36002532
58	0xbdc62661	-0.09675289
59	0xbdf81e7c	-0.121151894
60	0xbec7e252	-0.39039856
61	0xbe2dd3de	-0.16975352
62	0xbe75a492	-0.2398856
63	0xbdc9a7e1	-0.098464735
64	0xbe3753ea	-0.17903104
65	0xbeabfe99	-0.3359268
66	0xbe9efed9	-0.31053808
67	0xbe32af44	-0.17449671
68	0xbe4e02e7	-0.20118295
69	0xbe83953e	-0.256998
70	0xbea80b67	-0.328212
71	0xbdd38b43	-0.103292964
72	0xbe56bd96	-0.20970759
73	0xbe184ead	-0.14873762

weight f4 [35, 2]
0	0xbec664e8	-0.3874886
1	0x3e083b2c	0.13303822
2	0x3ecdcc32	0.4019485
3	0x3e54e8d4	0.20791942
4	0x3ecbf282	0.39833456
5	0xbe2447a8	-0.1604296
6	0xbf10eed8	-0.56614447
7	0x3ecb281e	0.39679044
8	0xbf293ccf	-0.6610841
9	0x3d225e30	0.039640605
10	0x3f1dd7bf	0.6165733
11	0x3ed4b42a	0.41543704
12	0x3dd1e420	0.102485895
13	0xbeb2421c	-0.34816062
14	0xbec00e89	-0.3751109
15	0x3f227183	0.63454455
16	0xbccfa7e0	-0.025348604
17	0xbf10b1d6	-0.56521356
18	0x3f060ccb	0.5236327
19	0xbf12d796	-0.5736021
20	0x3e09eecc	0.1347
21	0xbe84e93d	-0.25959197
22	0x3f1e2137	0.6176943
23	0x3eccb93a	0.39985067
24	0xbc957100	-0.01824236
25	0xbf226574	-0.63436055
26	0xbcccf980	-0.025021315
27	0xbd7a2200	-0.06106758
28	0xbf2630c4	-0.6491816
29	0x3d501260	0.050798774
30	0x3dfd8168	0.12378198
31	0x3e1dae08	0.15398419
32	0x3c09e000	0.008415222
33	0x3f30884b	0.68957967
34	0xbe38f99c	-0.18063968
35	0xbef73830	-0.48285055
36	0x3e313c9c	0.17308277
37	0xbe3deaec	-0.18546647
38	0x3ea233a6	0.3168003
39	0x3ed0533e	0.4068851
40	0xbe76b8e6	-0.2409397
41	0x3f1af071	0.60523134
42	0x3e8f8960	0.28034496
43	0x3ed8219a	0.42213136
44	0x3f19ac67	0.6002869
45	0xbf1a9b5a	-0.603933
46	0x3de89e48	0.11358315
47	0x3ec0155a	0.3751629
48	0x3e637cc8	0.22215569
49	0xbf1a9b87	-0.60393566
50	0x3ddbf9e8	0.10741025
51	0xbee03bc2	-0.43795592
52	0xbe896698	-0.26836085
53	0xbf27603d	-0.6538122
54	0x3f162cdd	0.58662206
55	0xbd51e6a0	-0.05124533
56	0x3f1c6b8d	0.6110161
57	0xbee1a1a7	-0.44068643
58	0xbee532e7	-0.44765398
59	0x3f0afadd	0.54289037
60	0xbddbb128	-0.10727149
61	0xbf0c8555	-0.5489095
62	0xbf160f1f	-0.5861682
63	0x3e3be8ac	0.18350476
64	0xbef7f77c	-0.48431003
65	0xbe8a7a9c	-0.2704667
66	0x3e9bcfd6	0.30432004
67	0x3e0292f8	0.12751377
68	0xbe95c3b2	-0.29250866
69	0x3f134bc5	0.5753749

bias f4 [35]
0	0xbee4f132	-0.44715267
1	0x3bec1180	0.0072042346
2	0xbead122f	-0.33802935
3	0xbece568e	-0.4030041
4	0x3e9122da	0.28346902
5	0xbe7ea948	-0.24869263
6	0xbf16008a	-0.5859457
7	0xbbb11e80	-0.005405247
8	0xbde36eb0	-0.11105096
9	0xbe03eba0	-0.12882853
10	0x3e8ffd3e	0.28122896
11	0xbf295f14	-0.661607
12	0x3ee511ee	0.44740242
13	0x3ed918c6	0.42401713
14	0x3d81ce50	0.06338179
15	0xbe4bf71c	-0.19918483
16	0xbf24ff28	-0.6445184
17	0x3e89825c	0.2685727
18	0x3e91fd9e	0.28513807
19	0x3eee91a6	0.46595496
20	0x3de32988	0.11091906
21	0x3cb88480	0.022524118
22	0xbebd9849	-0.37030247
23	0x3ec4ee8a	0.3846324
24	0x3f2fe6b9	0.6871143
25	0x3d7cd080	0.06172228
26	0x3ef6120e	0.4806065
27	0x3ee32b8e	0.44369167
28	0xbf06e1d7	-0.52688354
29	0x3f2668cb	0.6500365
30	0xbe4ccb44	-0.19999415
31	0xbf2f295e	-0.68422496
32	0xbf1023c6	-0.56304586
33	0x3eb445d2	0.3520952
34	0xbe92b66b	-0.286548

weight f4 [50, 35]
0	0x3e0902d0	0.13379979
1	0x3e2adcd8	0.16685808
2	0xbccfaef8	-0.025351986
3	0xbd8a7636	-0.06760828
4	0xbd4e0d60	-0.050305724
5	0xbd9bcf7f	-0.07607936
6	0x3e153cd8	0.14573991
7	0xbdb6ca88	-0.089253485
8	0xbce53588	-0.027979627
9	0xbdc95aaf	-0.0983175
10	0xbdabae66	-0.08382873
11	0xbc8186c8	-0.015811339
12	0xbddff6cc	-0.10935745
13	0x3be679e0	0.0070335716
14	0xbc1cdc00	-0.009573936
15	0xbdec9afd	-0.11552999
16	0xbd68fb30	-0.056880176
17	0x3db626c0	0.0889411
18	0xbdc0c74b	-0.09413012
19	0x3d082670	0.03323978
20	0xbdd4543e	-0.103676304
21	0x3d211e9c	0.039335832
22	0x3da949c8	0.08266026
23	0xbddc4b60	-0.10756564
24	0xbdd657b4	-0.10465947
25	0xbe1f5042	-0.1555796
26	0xbe18efd9	-0.14935245
27	0xbe1d6768	-0.15371478
28	0x3d402d30	0.046918094
29	0xbdd3d67c	-0.10343644
30	0xbdda69cf	-0.10664713
31	0xbdec74cc	-0.11545715
32	0x3db6c9c4	0.089252025
33	0xbdd14f97	-0.10220259
34	0x3d0c2e98	0.034224123
35	0xbcb3aae8	-0.02193208
36	0xbe0abbd1	-0.13548209
37	0xbdbb2f6c	-0.091399044
38	0xbd24c1f4	-0.04022403
39	0xbe10a812	-0.14126614
40	0x3e1c931a	0.1529049
41	0x3e228e22	0.15874532
42	0xbe261a03	-0.1622086
43	0x3de85fdc	0.11346409
44	0x3e04df74	0.12975866
45	0xbbfda260	-0.007740304
46	0x3dd639b0	0.10460222
47	0x3d7654e8	0.060139567
48	0x3d645050	0.055740654
49	0x3dff6ecc	0.12472305
50	0xbe0490a1	-0.12945797
51	0x3df62328	0.12018424
52	0x3cf57258	0.02996175
53	0xbce2d528	-0.027689531
54	0xbb127f80	-0.0022353828
55	0x3e24d838	0.16098106
56	0xbe144d36	-0.14482579
57	0x3cb0c6c0	0.021579146
58	0x3c977800	0.018489838
59	0xbe038765	-0.12844618
60	0xbe2c9ac1	-0.16855909
61	0xbdd8c0c8	-0.10583645
62	0xbd909034	-0.070587546
63	0x3db9df80	0.09075832
64	0xbde4c29b	-0.111699305
65	0x3e1349a6	0.14383563
66	0xbd564fa2	-0.052322038
67	0xbdd815ab	-0.10551008
68	0x3cac1e00	0.021010399
69	0xbdaebdf0	-0.085323215
70	0x3debafd8	0.11508149
71	0xbd90ae3b	-0.07064482
72	0x3e14ec3c	0.14543241
73	0xbe1c3778	-0.15255535
74	0xbdac7e97	-0.084225826
75	0x3c9d69d0	0.019215494
76	0xbd7d4540	-0.06183362
77	0x3ddc0a20	0.10744119
78	0x3d4f1eb8	0.050566405
79	0xbe250bc8	-0.16117775
80	0x3dd9a488	0.10627085
81	0x3e196238	0.14978874
82	0x3dfea694	0.12434116
83	0xbd6f4462	-0.058414824
84	0xbe0f07a2	-0.13967755
85	0x3d1de5f8	0.038549393
86	0x3c870358	0.016481087
87	0x3d9d5b12	0.07683386
88	0xbdd4e077	-0.10394376
89	0xbdb92e74	-0.09042063
90	0x3c716670	0.014733896
91	0xbe1e0a3e	-0.15433595
92	0x3d9b87a8	0.07594234
93	0xbbdbe3e0	-0.0067105144
94	0x3de8e980	0.113726616
95	0xbe22a320	-0.1588254
96	0xbd48e7d2	-0.049049206
97	0x3d25b990	0.04046017
98	0x3e0cf7b2	0.13766363
99	0x3e1d68ac	0.1537196
100	0xbdc387d8	-0.095473945
101	0x3d67668c	0.05649428
102	0xbc387c50	-0.011260107
103	0x3e1be6d2	0.1522477
104	0xbd9bc6f3	-0.07606306
105	0x3e004314	0.12525588
106	0xbc1bec50	-0.0095167905
107	0xbdcf3828	-0.10118133
108	0x3d8d5e42	0.06902744
109	0x3d90187a	0.070359185
110	0x3df14954	0.11781564
111	0xbda61aa5	-0.08110551
112	0xbe28fd6c	-0.16502923
113	0x3cbd1920	0.02308327
114	0xbdf9d4f6	-0.12198822
115	0xbdda2678	-0.106518686
116	0xbd9ae9a3	-0.07564094
117	0x3e0bc106	0.13647851
118	0x3b6c6e00	0.0036076307
119	0xbcfbde48	-0.03074564
120	0x3cabc010	0.020965606
121	0xbd6f329e	-0.05839788
122	0x3e05333e	0.13007829
123	0x3cae1570	0.021250457
124	0x3dd6ffb8	0.10497993
125	0x3d48dee8	0.049040705
126	0x3dc2f5bc	0.09519526
127	0x3d775d14	0.0603915
128	0x3dcb5284	0.09927848
129	0xbd267f54	-0.040648773
130	0x3dbebda4	0.09313515
131	0x3d3f1f94	0.046660975
132	0xbe049596	-0.12947688
133	0xbe0a4276	-0.13501915
134	0x3e07de04	0.13268286
135	0xbd677604	-0.056509033
136	0x3e2d0d3a	0.16899577
137	0x3d9c93bc	0.076453656
138	0x3e0e9d04	0.13927084
139	0xbdc64204	-0.0968056
140	0xbe0ea854	-0.139314
141	0xbe0076ee	-0.12545368
142	0xbe291ed1	-0.16515662
143	0xbda1c635	-0.07899133
144	0x3dbd84a0	0.09253812
145	0xbd5554aa	-0.052082695
146	0x3ccaa6a8	0.024737671
147	0xbda22251	-0.079167016
148	0xbde2de78	-0.11077589
149	0x3d8202b0	0.06348169
150	0x3d0abf14	0.033873633
151	0x3d92a700	0.07160759
152	0x3d915cd4	0.07097784
153	0x3d50ef2c	0.051009342
154	0xbe080572	-0.13283327
155	0x3e12bcea	0.14329877
156	0xbcb99b28	-0.022656992
157	0x3dd4fb7c	0.10399529
158	0x3c05b860	0.008161634
159	0x3dcb962c	0.099407524
160	0xbe1a9a5b	-0.15097944
161	0xbca1f0d8	-0.019768164
162	0x3e1c9442	0.15290931
163	0x3dfd7b1c	0.12376997
164	0xbd9ac92f	-0.07557904
165	0xbdf6884e	-0.12037717
166	0x3d40af74	0.047042325
167	0xbd9a608b	-0.07537945
168	0xbdc04e11	-0.0938989
169	0xbdda31e7	-0.10654049
170	0xbe263a88	-0.16233265
171	0xbdf69e16	-0.12041871
172	0x3d728114	0.05920513
173	0xbc37aa60	-0.011210054
174	0xbc0824d0	-0.008309558
175	0x3c7bc3a0	0.015366465
176	0xbe0db4b0	-0.13838458
177	0xbd126d90	-0.03574902
178	0xbe283d91	-0.16429736
179	0xbe18219b	-0.1485657
180	0x3d86b918	0.065782726
181	0x3cfb1ba8	0.030652836
182	0xbd5a913a	-0.053361155
183	0xbe263ee6	-0.16234931
184	0xbe2befcc	-0.16790694
185	0x3d222f28	0.039595753
186	0xbe12d672	-0.14339617
187	0xbe017ac8	-0.12644494
188	0xbe27d71b	-0.1639065
189	0xbdc52ab9	-0.09627289
190	0xbd047f60	-0.032348037
191	0xbc5bf990	-0.0134262
192	0xbcff0c18	-0.031133696
193	0xbd92ec14	-0.071739346
194	0x3df24644	0.11829808
195	0x3dd8b638	0.105816305
196	0x3dce425c	0.10071251
197	0xbe07c5e2	-0.1325908
198	0x3b0e0b40	0.0021674186
199	0xbe1a724c	-0.15082663
200	0x3e12d74e	0.14339945
201	0x3bfeee80	0.0077798963
202	0xbcb24160	-0.021759689
203	0xbd5c6a68	-0.053812414
204	0x3d8bae38	0.06820339
205	0x3d915236	0.070957586
206	0x3e171844	0.1475535
207	0xbdeff5e0	-0.11716819
208	0x3deeae04	0.116542846
209	0x3d7e6124	0.06210436
210	0xbdd3b14f	-0.10336553
211	0xbcc17b18	-0.023618266
212	0xbd8d36b9	-0.06895203
213	0x3d532568	0.051549345
214	0xbcf00f88	-0.02930428
215	0xbe233c0c	-0.15940875
216	0x3b0fd300	0.0021945834
217	0x3d901896	0.070359394
218	0x3dcb9564	0.099406034
219	0xbd8fc09a	-0.07019158
220	0x3dcb8310	0.099371076
221	0xbe227e99	-0.15868606
222	0xbd83c2e6	-0.06433658
223	0xbdf949ef	-0.12172305
224	0xbe244dae	-0.16045257
225	0xbdb1e967	-0.08687096
226	0xbab13600	-0.0013520122
227	0xbc9c3830	-0.019069761
228	0xbe1e7b0f	-0.1547663
229	0x3deba00c	0.11505136
230	0x3be8aa40	0.0071003735
231	0x3dfa2e9c	0.12215921
232	0x3d1b4be4	0.03791417
233	0x3d764e1c	0.060133085
234	0xbdca85d1	-0.09888805
235	0x3e1a9a04	0.15097815
236	0xbd34aa22	-0.044107564
237	0xbd1aa640	-0.037756205
238	0x3de9240c	0.113838285
239	0xbe095bd2	-0.13413933
240	0xbe2be5db	-0.16786902
241	0xbd5f9e8a	-0.054594554
242	0xbe11f889	-0.14254965
243	0xbd000f58	-0.031264633
244	0x3be82920	0.0070849806
245	0x3e1db208	0.15399945
246	0xbd222e64	-0.039595023
247	0x3dc65d48	0.09685761
248	0x3e2c93be	0.16853234
249	0x3e17fcdc	0.14842552
250	0xbdf1a468	-0.11798936
251	0xbd8541f4	-0.0650672
252	0x3e1f2b12	0.15543774
253	0xbe206d81	-0.15666772
254	0x3d5c1260	0.05372846
255	0xbcef6578	-0.029223189

bias f4 [50]
0	0xbdf2ec6f	-0.118615024
1	0xbe06c3d6	-0.13160643
2	0x3e0701cc	0.13184279
3	0xbbfdf160	-0.0077497214
4	0x3db07278	0.08615583
5	0x3e12e87e	0.14346501
6	0xbd7cd00e	-0.061721854
7	0x3ddfe9e4	0.10933283
8	0xbe2d0573	-0.1689661
9	0xbd982cb0	-0.074303985
10	0x3d7b8ae0	0.06141174
11	0x3d181a74	0.037134603
12	0x3e1ef06c	0.15521401
13	0xbd2a2cf0	-0.041546762
14	0x3e2b523c	0.16730589
15	0xbde4c0e5	-0.11169604
16	0xbe1c9262	-0.15290216
17	0x3dec0148	0.11523682
18	0x3db10bcc	0.08644828
19	0x3e198338	0.14991462
20	0x3d919952	0.07109322
21	0x3deacff4	0.11465445
22	0xbe1e8ad2	-0.15482643
23	0x3cfa9078	0.030586466
24	0x3e24231e	0.16029021
25	0x3dbfedd4	0.09371534
26	0xbdc58b9c	-0.09645769
27	0xbcd50500	-0.02600336
28	0x3e29b404	0.16572577
29	0xbd1eb264	-0.038744345
30	0xbd27a210	-0.04092604
31	0xbd1f0660	-0.03882444
32	0x3d171614	0.03688629
33	0x3bb7b800	0.0056066513
34	0xbd8a10d3	-0.0674149
35	0x3daf1fd0	0.0855099
36	0x3c85dd38	0.016340837
37	0xbc79f060	-0.015255064
38	0x3d419a00	0.047266006
39	0x3cd491a0	0.025948346
40	0x3e285ff6	0.16442856
41	0x3cd25978	0.025677428
42	0x3e0a2b12	0.13492993
43	0x3d7df2c8	0.061999112
44	0x3d51a444	0.051182047
45	0xbe02c0a6	-0.12768802
46	0x3d96c30c	0.07361421
47	0x3d8b2686	0.06794457
48	0xbe1ecd5a	-0.15508023
49	0x3d32fd60	0.04369867
