model/saved_models/fr_encoder/model_epoch_15.pt (torch_old, 115280 bytes, 11 tensors)

weight f4 [74, 20]
000000 30 1c 39 3e eb 55 8f bd 92 20 b8 be d7 4a 6a bf
       0.18077159 -0.069988094 -0.3596235 -0.91520447
000010 28 32 20 3f 30 fa d0 3c 02 5b 74 3f 29 c9 83 3d
       0.6257653 0.025509924 0.95451367 0.06434853
000020 ba e8 b8 3e 08 7d 95 3f 4d c9 ac bf f1 9a 02 bf
       0.36115056 1.1678782 -1.3498932 -0.5101767
000030 e5 9e 71 3e 76 88 75 be 2c ce 6b bf c2 8a c5 3f
       0.2359577 -0.23977837 -0.9211147 1.543297
000040 53 a6 ac 3f 3a fe 0e be 04 54 92 3e 23 12 77 3f
       1.3488258 -0.13964167 0.28579724 0.9651205
000050 a4 22 1f bf 83 f9 04 3b d3 e3 73 bb fc 19 41 bc
       -0.6216223 0.0020290322 -0.0037214651 -0.01178598
000060 21 5f 6a 3b e1 a4 3b bb 92 21 a5 bd fa 70 60 bb
       0.0035762268 -0.002863221 -0.08063044 -0.0034247027
000070 c9 bb 33 3c 66 60 06 3c 14 e4 f5 3c 54 00 81 3d
       0.010970064 0.008201694 0.030015983 0.06298891
000080 af 74 28 bc da 26 37 bb 67 8f e5 3c 3b 24 a1 ba
       -0.010281726 -0.0027946741 0.028022481 -0.0012294123
000090 4b 12 c6 bb 22 15 dc 3c ba 20 09 bd 7c 52 1e 3c
       -0.006044661 0.026865546 -0.033478476 0.0096632205
0000a0 d9 e3 d0 3e 39 b5 c3 3e 0f 18 29 3f 6a f1 03 bf
       0.40798834 0.382242 0.66052336 -0.51540244
0000b0 93 7b 92 be e3 1f fd 3e f2 1b e8 bc e7 1f b5 3e
       -0.28609905 0.4943839 -0.028333638 0.35375902
0000c0 38 a3 d3 3b 6d 3a 04 bf ad e6 bd 3e 48 5d 0b bf
       0.006458666 -0.5165165 0.37090054 -0.5443921
0000d0 5d f0 f4 bd 28 fd 07 bd 93 0d 9c 3f 18 fa 2d be
       -0.11959908 -0.033200413 1.2191643 -0.16989934
0000e0 5b 6c a2 3e 9f 0e aa be 97 95 82 3e 15 b2 92 be
       0.31723294 -0.3321428 0.25504753 -0.2865149
0000f0 d8 7d bf bd f1 54 e9 3d bf 58 92 3b 14 f3 cf 3c
       -0.09350175 0.113931544 0.0044661458 0.025384463
000100 2f cd 90 3c 44 36 d4 3b 6e cf 53 38 59 66 a0 3b
       0.017675964 0.0064761955 5.0499504e-05 0.0048950133
000110 cd 14 e2 bc 0c 94 f5 bb 09 17 b9 ba 24 5e 40 3c
       -0.02759781 -0.007494455 -0.0014121245 0.011741195
000120 a1 ad ae 3e 9e 1c 38 bd c9 3d 18 3b 48 29 87 bb
       0.34116843 -0.044949166 0.0023230186 -0.004124794
000130 fd 83 35 bc 35 19 a0 3c 48 a6 17 3b 56 7a 0a bc
       -0.011078832 0.01954327 0.0023139883 -0.008452019
000140 0f 4e 34 3f ba 4b 6e bd db 60 13 3d af 81 08 bc
       0.7043161 -0.058177687 0.03598104 -0.0083317
000150 5c fd 65 bd 68 77 7a 3c 96 c6 42 3c 99 0b 66 bc
       -0.056149825 0.015287258 0.011888167 -0.014040851
000160 2d 6a db 3d 3f 3a a4 3c b1 ff b4 bc ee 86 13 bd
       0.10713611 0.020047305 -0.02209458 -0.03601735
000170 6b 30 92 be 16 98 a3 3b 6e 64 33 bb fd b6 f1 bb
       -0.28552565 0.0049924953 -0.0027373093 -0.00737655
000180 0d 4e 94 bd 34 82 7d bc 56 73 be bc 3e 1d 8c 3c
       -0.072414495 -0.015472937 -0.023248356 0.017103788
000190 69 33 dc bf 41 26 9c bf 26 2f 1a be 2d 20 1d bf
       -1.7203189 -1.2199174 -0.15057048 -0.6137722
0001a0 50 80 9c 3f a0 92 27 c0 44 42 24 bf 68 aa 8b 3f
       1.2226658 -2.6183243 -0.64163613 1.0911379
0001b0 25 08 9f 3d ad dc c2 3f 9b 42 23 bf 50 78 3e be
       0.07765225 1.5223595 -0.63773507 -0.18600583
0001c0 e6 13 04 3f 99 48 0c bf 5e a7 fd 3e 18 36 d6 bf
       0.5159286 -0.54798275 0.49541754 -1.6735258
0001d0 73 99 c7 3f ba 4c 6b 3f 2b d8 cb bf 1e a3 18 3d
       1.5593704 0.9191395 -1.5925344 0.037264936
0001e0 ad 73 64 3f 64 8d 2f 3e a7 6f e5 3c 22 90 e5 be
       0.8923901 0.1714378 0.028007342 -0.44836527
0001f0 58 38 04 be 39 4a 64 3d ba 68 0c bd e6 f8 ae bb
       -0.12912118 0.055734847 -0.034279563 -0.0053397296
000200 b3 bf a3 be 63 ec 0d 3e 0b 2f 3c 3e c6 1c da 3d
       -0.31982192 0.13859706 0.1837732 0.10650019
000210 70 a5 21 3d 50 45 94 3e c0 40 c2 bc ba 2c 46 bd
       0.039464414 0.2895913 -0.023712516 -0.0483825
000220 83 d0 76 3c 98 12 1a bd ab d2 6f 3e 7a 6c 25 3d
       0.0150643615 -0.03761539 0.23420207 0.040386654
000230 90 6c 70 3f 18 5e d8 bd 0e e5 5b 3e 50 c7 24 bd
       0.93915653 -0.10564822 0.21474096 -0.04022914
000240 39 0f 6b 3e 00 0c b4 3e 0c cd 6e bf 39 40 77 be
       0.22955026 0.35165405 -0.93281627 -0.24145593
000250 b8 52 6b 3e b2 fe 46 be 08 80 9a bf 24 f6 10 3e
       0.22980773 -0.19433096 -1.2070322 0.14156395
000260 48 7a 4c 3d 74 e4 26 3f f8 b2 98 be b0 49 00 be
       0.049921304 0.6519234 -0.29824042 -0.1252811
000270 fb 51 21 bf 3a 45 2e 3e ed e7 2f bd ca 70 c9 be
       -0.6301572 0.17018595 -0.04294579 -0.39343864
000280 84 48 aa 3e 5f 60 74 bd 11 4f fd 3d 1f 1d 23 3f
       0.3325845 -0.05966222 0.12368596 0.6371631
000290 4f 5c de bf f6 b0 d4 3d e7 24 1a be 27 63 85 3d
       -1.737192 0.10385315 -0.1505314 0.065130524
0002a0 ff b0 5c 3e 81 a7 29 3f e1 c3 4b bb af 3c 86 3d
       0.21551894 0.66271216 -0.0031092095 0.06554543
0002b0 02 21 5d be 08 c1 40 3c 02 eb 43 be da 9f 67 be
       -0.21594623 0.011764772 -0.19132617 -0.22619572
0002c0 c1 3b 3a 3d 39 5f ef bd 73 88 dc bc 1f 49 0f bd
       0.045467142 -0.11688084 -0.026920533 -0.034981843
0002d0 07 b2 e4 3e 0e 9c 16 be b5 82 b6 be ac 0f 8a 3d
       0.44667074 -0.14707968 -0.35646597 0.067412704
0002e0 5e 41 09 3e 6a 7d ad bd c7 44 55 bc ea 20 dd 3d
       0.13403842 -0.084711865 -0.013016886 0.107972935
0002f0 8e ca 2a be 52 96 70 3e 61 23 45 bc 47 c5 86 3e
       -0.16678831 0.23494843 -0.012032361 0.26322386
000300 57 a2 11 3e 6f 47 e4 3d 2b 55 88 3d 93 03 30 3f
       0.14222084 0.111464374 0.066568695 0.68755454
000310 d1 2e b6 3d 0e 08 47 3f e9 b4 19 3e 24 ae 56 bd
       0.08895648 0.77746665 0.15010418 -0.052412167
000320 6a 6a b3 3e 4a d8 55 c0 16 81 8e 3c 3e 1d 9a 3b
       0.35042125 -3.3413262 0.017395537 0.004703193
000330 64 2b ca bd 46 f3 99 3d e0 08 0e 3e e7 3b 59 bd
       -0.09871557 0.07517104 0.13870573 -0.053035643
000340 f5 07 35 3d 40 3a 68 be 90 b3 05 bf 73 7c 95 bd
       0.04419704 -0.2267847 -0.52227116 -0.072991274
000350 fc 6b 5f 3d 17 56 69 3e ac 15 13 3c f3 8e 15 3e
       0.05454634 0.22786747 0.008977335 0.14605312
000360 d4 82 6a bd 2a 22 b1 3d a5 9a 05 3c e4 d0 92 3b
       -0.057253674 0.086490944 0.008154546 0.004480468
000370 79 36 00 3e 7d 5a 32 bd 32 1b b4 bc 77 12 d0 3c
       0.1252078 -0.043543328 -0.021985624 0.02539943
000380 00 6b 3d 3d d1 98 23 bd 06 7d c5 3c dc c7 87 be
       0.04624462 -0.03994066 0.024107467 -0.26519668
000390 d4 2d 58 3d 83 21 c9 bc 81 4b be bc 96 85 54 bd
       0.05277808 -0.024552112 -0.023229362 -0.05188521
0003a0 fe 81 83 bd 84 99 c4 bc c7 ea 80 3c 0c e2 66 be
       -0.064212784 -0.023998983 0.01573695 -0.22547168
0003b0 48 12 94 bd 24 e3 fd bd 25 d8 ed 3c b5 b0 9d 3a
       -0.07230049 -0.12396839 0.02903373 0.0012030812
0003c0 9f 15 ff 3e e7 65 ed 3e 8a a1 c0 bd d4 a0 f7 bd
       0.49821183 0.46366808 -0.09405811 -0.120912224
0003d0 a9 08 4e 3e 7a 97 0a 3f 87 72 bb be 9b 49 a1 bf
       0.20120491 0.54137385 -0.36610815 -1.2600588
0003e0 57 41 02 3f 36 08 be 3e 6c d5 f7 bd 2c 54 6a be
       0.5088095 0.3711564 -0.12101254 -0.22883672
0003f0 fa 72 04 be 6a b5 24 bf 7f 04 28 3e af 6b b3 3f
       -0.12934485 -0.64339316 0.16407965 1.4017237

weight_ih_l0 f4 [200, 20]
000000 ab 23 d1 bf 4d c0 70 bf e2 dc 2c be 71 31 a0 be
       -1.633901 -0.9404343 -0.16881135 -0.3128772
000010 34 94 0c 3f db bb 67 bf 49 cd 17 be 36 97 92 3e
       0.5491364 -0.9052102 -0.14824404 0.2863099
000020 62 db 2b 3f a3 5d 07 3f a6 99 0f 3f ee 65 50 bf
       0.67131627 0.52877253 0.56093824 -0.8140553
000030 0a 93 1a c0 06 bd b9 3f 83 e0 94 bd 7c 15 00 bf
       -2.4152246 1.451081 -0.07269385 -0.5003278
000040 78 7c 28 bd b9 1e eb 3e a8 0b 1e bf 7c 57 bc 3c
       -0.041134328 0.45921877 -0.61736536 0.022990935
000050 fb 87 08 bb 3c ff 24 3f 5c 4b 84 3f 29 0e 17 be
       -0.0020833004 0.64451957 1.0335498 -0.14751495
000060 ec 7b 9b bf 6f 42 3f 3c 8d e3 33 be e6 c6 2f bf
       -1.2147193 0.011673554 -0.17567272 -0.6866287
000070 04 95 92 3e 93 91 80 bf 5b ee ae 3f bc fc 9c 3f
       0.28629315 -1.0044426 1.366649 1.2264628
000080 2a 17 72 bd 5d f6 39 3d a3 d8 bd bf 0c 38 bf 3c
       -0.059104122 0.045400966 -1.4831737 0.023342155
000090 62 97 4f bf 4f e8 1f bf 8f 09 9b 3c e1 9f 79 bf
       -0.81090367 -0.6246385 0.018925456 -0.9750958
0000a0 46 08 85 3e 2b 2c e6 ba ef f5 0c be b2 01 1a 3e
       0.25982875 -0.001756077 -0.13765691 0.15039709
0000b0 de 78 67 be 8c 6d e3 bd f6 05 e2 bd d1 50 12 3e
       -0.22604701 -0.11104879 -0.11036293 0.14288642
0000c0 d5 64 60 3e 35 f1 c9 3e e3 5a 80 bb 87 12 17 3e
       0.21913464 0.3944184 -0.0039170845 0.14753161
0000d0 5d e9 f4 bc 1b d8 18 be 13 3d 2c 3d e3 f3 2e 3e
       -0.029896433 -0.14926188 0.042050432 0.17085223
0000e0 9e f5 e7 bd 9c f3 44 3e fc a9 a7 3e 4d 02 ee bb
       -0.11326145 0.19233555 0.32746875 -0.007263458
0000f0 a8 c7 e3 bf fa 94 7d 3f b9 bc 98 3f 7c ff 15 3d
       -1.7795305 0.99055445 1.1932594 0.036620602
000100 2a 3b 31 be 66 68 61 be db d6 17 bf 81 fc 9c 3f
       -0.17307726 -0.22012481 -0.5931222 1.2264558
000110 2f 62 f6 3e f1 76 02 c0 25 06 5a 3e 89 b7 7d bf
       0.48121783 -2.0385096 0.21291406 -0.9910818
000120 0a 26 6a 3f 2b 4a 70 bf 47 cc 3b 3d c6 19 61 bf
       0.91464293 -0.9386317 0.04584911 -0.8792995
000130 06 e8 68 be 2f 18 02 3c 65 ed 17 3f f0 73 40 3f
       -0.2274476 0.007940336 0.5934661 0.75176907
000140 ab 05 bc be 8f b8 aa 3e e7 4e 86 bb 21 68 05 3f
       -0.36723074 0.33343932 -0.0040987614 0.52112013
000150 f6 45 2e 3f c7 27 04 bf e3 90 6c be fc 4f 32 3f
       0.680755 -0.51623195 -0.23102145 0.69653296
000160 e9 f4 11 3f a5 3f a5 be a0 c7 24 bf 47 23 8d 3d
       0.5701433 -0.3227512 -0.64367104 0.06891494
000170 6b 12 e0 be f7 e0 3d 3d e5 aa d5 3e ed b2 a4 3e
       -0.43764052 0.04635712 0.41731945 0.3216776
000180 39 7d fd 3e 92 08 3c 3e ca cf b6 be b6 45 9e be
       0.495096 0.18362644 -0.35705405 -0.3091256
000190 c2 ec eb be 02 92 8e be 5d c5 3d 3d 8d f9 3c bd
       -0.4607907 -0.2784577 0.0463308 -0.046136428
0001a0 7c 6e fc bc 23 a5 74 be be e7 22 bf 8c 96 9b 3c
       -0.030814402 -0.2389112 -0.6363486 0.018992685
0001b0 4f b7 65 bd 10 30 d8 bd 91 d4 c2 3e a2 1c 98 3e
       -0.05608302 -0.10556042 0.380528 0.29709345
0001c0 d2 42 9e 3e ef fc f5 3b bb 3f 87 3d d0 84 8a 3d
       0.30910355 0.0075069587 0.066039525 0.06763613
0001d0 b3 5c 79 3e 59 d5 83 3e 7f c9 99 bd 5a 33 58 3d
       0.24351768 0.2574871 -0.075091355 0.052783348
0001e0 b2 fc 13 be 79 50 d9 bf fc c6 d6 3e b6 b2 1a be
       -0.14451864 -1.6977683 0.41948688 -0.15107235
0001f0 1a 12 8b 3f 90 ae 23 bb bd 46 ef 3d 49 d8 81 3e
       1.0864899 -0.0024975874 0.11683414 0.25360325
000200 b3 7c cf bf 2c e9 47 3f 96 9c be be 21 bc 13 bd
       -1.620993 0.7809017 -0.3722884 -0.036068086
000210 24 81 ce 3e 08 c8 8c 3e 4c 91 6c be fe 48 74 bd
       0.403329 0.27496362 -0.23102301 -0.059639923
000220 24 dc 83 3f fc 1b 00 bf 13 81 6d 3f 16 a8 46 be
       1.0301557 -0.500427 0.92775077 -0.19400057
000230 a5 31 01 3e 13 34 eb be a9 dd 58 bd c2 83 3f bd
       0.12616594 -0.45938167 -0.052945767 -0.046756513
000240 c7 7d 84 bd e6 51 aa bd 8a c6 03 3d 6f 6f 32 3c
       -0.064693026 -0.08316402 0.032171763 0.010890826
000250 a9 ca b8 3d 48 50 6a 3b bd 80 58 bd 12 cb 2c be
       0.09023029 0.0035753418 -0.05285715 -0.1687434
000260 ac e4 a4 bd ae 2c df 3d bb 1b b1 bb ce 2a 47 bd
       -0.08051428 0.10897194 -0.005404917 -0.048624806
000270 45 68 02 3c 45 70 93 bb 9c 47 bd bd c7 20 f8 ba
       0.00795943 -0.0044994676 -0.09242174 -0.0018930667
000280 9a 52 a8 bf f4 d8 b9 3e 7c 38 50 3e a9 68 1c 3e
       -1.3150208 0.36298335 0.20334047 0.152743
000290 11 6f d4 bf 71 49 24 be 9e 43 4e be de 4a 1a bf
       -1.6596395 -0.1604364 -0.20142981 -0.6027049
0002a0 c8 04 51 bf 20 48 62 3f c2 7d bd 3e 7e 3a 5f 3e
       -0.8164792 0.88391304 0.37010008 0.21799657
0002b0 8a ab 6b 3e 20 c2 d4 3d f5 a1 a1 be cd e3 6b bf
       0.23014656 0.10388589 -0.31568876 -0.9214447
0002c0 1c d6 0f be d9 26 88 3c a7 34 20 be b2 db a8 3e
       -0.1404652 0.016620087 -0.15645085 0.32980114
0002d0 39 f5 64 3f 69 52 05 bf b3 b9 77 3f 86 49 26 be
       0.8943668 -0.5207887 0.9676773 -0.16238984
0002e0 98 ff 00 bf 72 88 be 3f 8f 26 6a bf af 64 d1 3e
       -0.50390005 1.488539 -0.91465086 0.40897128
0002f0 a0 2c 40 3f 8c 13 c6 3d 7b 7a af bf 0c 83 3a bf
       0.7506809 0.09671697 -1.3709253 -0.7285621
000300 71 ed db be df 2b 3c 3f 83 20 91 bf db c8 1c c0
       -0.4295459 0.7350444 -1.1338047 -2.4497592
000310 06 c7 76 bf a9 00 2e c0 6e 92 1d 3d a3 9e a5 3f
       -0.96397436 -2.7187903 0.038469724 1.2939037
000320 85 88 60 bd 4d 59 da be c7 6e 95 bd d5 63 7d ba
       -0.054817695 -0.42646256 -0.0729652 -0.000966606
000330 5a 85 6d 3d a1 6d fb be 3e 3b 40 3d 6b 82 dc be
       0.057988502 -0.49107078 0.046931498 -0.4306825
000340 9c 31 66 3f 26 62 0d bf c1 d1 05 3e 0c d7 08 3e
       0.8991945 -0.5522789 0.13068296 0.13363284
000350 e9 c5 28 bf 12 f5 57 be d2 80 98 3d ac 77 c6 3e
       -0.65926987 -0.2108958 0.074464455 0.38763177
000360 19 70 80 bd 2b 95 b8 be 4f eb 89 bf 50 75 2f bf
       -0.06271381 -0.36051306 -1.0774935 -0.6853838
000370 40 f7 16 bf a2 d7 8b be 39 56 73 bf 2f 60 ac be
       -0.58971024 -0.27312952 -0.9505344 -0.33667132
000380 ec 1f ea be f3 59 9c bf 70 c7 c2 39 c8 f0 29 bf
       -0.4572748 -1.221495 0.00037151156 -0.6638303
000390 2c 1e 7f 3f 98 3e 5f 3e 29 59 89 3f 0f 27 03 bf
       0.99655414 0.21801221 1.0730335 -0.51231474
0003a0 53 0f 74 c0 4f 7a eb 3f 08 26 67 be 2c 70 7d be
       -3.8134353 1.8396701 -0.22573102 -0.24749821
0003b0 3d 61 b2 be 1e 89 37 bf c1 7e 13 bf 35 74 14 be
       -0.34839812 -0.716936 -0.57615286 -0.14497454
0003c0 06 aa a4 be db 3b c0 be 03 88 18 3e 7b 54 f7 3d
       -0.32160968 -0.37545666 0.14895634 0.1207666
0003d0 3e f2 d3 be b0 3d 10 bf 79 4d cf be 78 3a b9 bd
       -0.41395754 -0.5634413 -0.40488794 -0.09044355
0003e0 5a ac 2d 3e 4e af ad 3d 13 11 1c 3e bb b7 c0 3d
       0.16960278 0.08480702 0.15240888 0.09410044
0003f0 d1 c1 98 be 69 8e 0b 3e 04 48 c3 bc 07 20 d4 be
       -0.2983537 0.13628544 -0.02383805 -0.41430685

weight_hh_l0 f4 [200, 50]
000000 8e 8c 95 c0 62 7a a5 bf a3 a2 86 c0 47 17 4a 3d
       -4.6734076 -1.2927973 -4.207353 0.049338605
000010 66 82 3d 3e 2b 46 b4 c0 de 3e d9 bf fb 1d a6 3f
       0.18506774 -5.6335654 -1.697231 1.2977899
000020 cd 64 8f 3d a6 e1 fb 3f 05 39 cb 3f 30 27 fe 3e
       0.07001648 1.9678237 1.5876776 0.49639273
000030 fb 0a 1a c0 d8 c3 90 3e f3 25 09 3f 8a df 7f 40
       -2.4069202 0.28274417 0.5357353 3.9980187
000040 4a a4 8b 3f 5d c4 14 3f 7b 58 c2 bf 90 2c 17 c0
       1.0909512 0.58112127 -1.5183252 -2.3620949
000050 c6 b0 fd 3e b7 0f 6d 40 af 9d 65 3f 19 6f cd 3e
       0.4954893 3.7040842 0.8969373 0.40123823
000060 45 4f e3 3e f1 36 eb be 4c 72 d5 bf b8 a0 9c bf
       0.44396415 -0.45940354 -1.6675506 -1.2236547
000070 9a 6d 30 40 f5 fc 06 bf 9f 7c 32 c0 b0 cd 73 c0
       2.7566895 -0.5272973 -2.7888563 -3.8094292
000080 32 01 c6 3f 09 4f 98 bf ef 24 fc 3e 5a eb ba be
       1.5469115 -1.189912 0.49246928 -0.36507684
000090 a6 dc a8 bf 1a 5f 5c 3f 88 dd 0b 3f b1 f1 a4 bf
       -1.3192337 0.86082613 0.54634905 -1.2886258
0000a0 d9 5c 7e c0 07 ed 96 bf 0c c4 03 bf bf 10 6b 3f
       -3.974417 -1.1791085 -0.5147102 0.9182243
0000b0 4b 3d db bf 81 e2 78 be 50 ea 06 bf 59 3a fc 3f
       -1.712808 -0.24305154 -0.5270128 1.9705306
0000c0 ec e5 86 bf 75 2f 48 be 93 01 9a bf f5 aa 47 be
       -1.0538917 -0.19549353 -1.203173 -0.19498809
0000d0 95 c5 dd 3f 41 b8 ec 3f 2c a8 83 3f 8a 66 b9 be
       1.7325922 1.849373 1.0285697 -0.36211044
0000e0 ad cb cc be 3a 93 0b 3f d5 af c8 bf 82 ec 5a 3d
       -0.39999142 0.54521525 -1.567866 0.053448208
0000f0 b2 11 8f 3f 05 fc 9c bf 94 c5 63 3f 86 09 5b bf
       1.1177275 -1.226441 0.88973355 -0.85561407
000100 1d 77 8a 3f ef 08 f7 3e 4d 33 4c 3f ec 62 82 bf
       1.08176 0.48249003 0.7976578 -1.0186439
000110 24 b0 08 bf fd 35 81 3e 96 ca 39 40 00 e9 29 40
       -0.5339377 0.25236502 2.9029899 2.6548462
000120 0c 99 51 3e 18 62 ab bd 24 a2 a8 3f b0 2f 15 c0
       0.20468539 -0.08368319 1.3174481 -2.3310356
000130 4b 8f 36 bd f6 96 43 3f 3b ff 48 3d c9 0a bb bf
       -0.04457025 0.76402223 0.04907153 -1.4612666
000140 d0 c5 05 3e fc 98 e2 be 22 53 92 bf 05 9a 06 bf
       0.1306374 -0.44257343 -1.143162 -0.52578765
000150 85 68 d8 3f 5c ac bb 3f 83 62 14 bf 29 91 0f 3f
       1.6906897 1.4661975 -0.57962817 0.5608087
000160 e4 f7 20 bf 38 d3 85 be f6 3b 30 40 a2 b2 ae 3f
       -0.6287825 -0.2613771 2.7536597 1.3648264
000170 50 fb 46 bf db 69 c8 3e 87 80 7a bf 4a 43 55 3f
       -0.7772722 0.3914326 -0.9785237 0.833058
000180 25 ad 30 40 ac 1e 29 3f fc 2f 51 3f 57 3d 32 bf
       2.760568 0.66062427 0.81713843 -0.6962485
000190 cb c6 de be 13 5b 10 3f 48 d6 a8 bf 29 59 8d 3f
       -0.43511042 0.5638897 -1.3190393 1.1042835
0001a0 7d cf 2a bf 05 dd d8 3f dc fa 82 be 7e b5 b6 3e
       -0.6672285 1.694245 -0.25582016 0.35685343
0001b0 a2 fd 88 bf aa 11 cd 3d 90 08 8e 3e b7 b2 d1 bc
       -1.0702403 0.10013135 0.27740908 -0.025597913
0001c0 9a aa b8 be f4 49 1f 3f 6d 51 5a 3f c6 e0 a0 bc
       -0.3606766 0.6222222 0.85280496 -0.01963843
0001d0 7d f8 73 3f 48 24 ac bd 9d 61 b1 3e 72 7a f7 3e
       0.9530104 -0.084053576 0.34644786 0.48335606
0001e0 32 98 01 bf eb f3 b2 bd 84 c0 cb be 2a d5 4e be
       -0.50622857 -0.0873793 -0.39795315 -0.20198503
0001f0 64 6b c4 be c0 9c 30 3e 65 34 81 3f 9b cc bb be
       -0.38363183 0.17247295 1.0094115 -0.3667954
000200 01 51 0b bf f0 45 5c bd bf a6 4f 3e 1b d8 7e 3e
       -0.5442048 -0.053777635 0.20278452 0.24887125
000210 cd 2b 85 be 7f 92 52 3f 51 0b 15 3e 1f b1 cf 3c
       -0.2600998 0.82254785 0.14555098 0.025353013
000220 92 c3 5a 3f e4 ca a4 be e8 a8 ce 3d 7c f2 05 3f
       0.85454667 -0.32186043 0.1009081 0.52323127
000230 36 06 56 40 39 c9 2d 40 9c 58 02 bd c0 2e 81 3f
       3.344129 2.7154067 -0.031822786 1.0092392
000240 04 9b 75 be a0 21 96 bf 61 6f 94 be 0b e5 13 3f
       -0.23984915 -1.1729012 -0.28991225 0.57771367
000250 22 02 6b 3e f0 b1 8e be 9f 20 1f 3e 80 af d8 3e
       0.22950032 -0.2787013 0.15539788 0.42321396
000260 f7 e3 76 bf 9d 13 9e 3f 4a 55 98 bf b7 8d 98 3d
       -0.96441597 1.2349735 -1.1901028 0.07448905
000270 45 88 8f 3f 56 51 24 40 be 48 3d 3f da 47 72 3f
       1.1213461 2.5674644 0.7393912 0.94640887
000280 78 df b5 3f 1e bc 21 3f 83 28 d7 be 1a a6 2d c0
       1.4208822 0.6317767 -0.42023095 -2.713263
000290 17 d1 18 3f a5 d5 2d bf 2e c4 1b c0 1d 17 63 bf
       0.59694046 -0.6790412 -2.4338489 -0.88707143
0002a0 b5 d9 8a 3f 68 af b2 bf 83 b1 f1 3f 98 bb ef bf
       1.0847689 -1.395978 1.8882297 -1.8729124
0002b0 73 6a 21 bf 77 c5 b5 3f 17 f4 e2 3f 0a b8 95 be
       -0.63053054 1.4200886 1.773074 -0.29241973
0002c0 3f 0f 11 40 45 72 d4 3f 1a d7 02 c0 4d 74 5d 3f
       2.2665555 1.6597372 -2.0443788 0.86505586
0002d0 d6 ae a4 3f 0e 05 55 bf 2e ea 45 bf e4 86 8b 3f
       1.2865856 -0.8321084 -0.77310455 1.090054
0002e0 25 cc 51 c0 b7 1b 03 be 5e e0 f0 bf 3d c7 ae 3f
       -3.278085 -0.12803541 -1.8818471 1.3654553
0002f0 e3 08 50 3d 50 7c 78 3f ff c6 f7 3c 05 b7 19 bf
       0.050789725 0.97064686 0.030246256 -0.6004489
000300 0f ea 91 be c9 a7 6f 40 7c d5 87 bf 07 28 86 bf
       -0.28498885 3.7446158 -1.0612025 -1.0480965
000310 d5 9e 36 be 51 c4 45 c0 dc e9 cb be 45 a8 29 3f
       -0.17834027 -3.0901072 -0.39826858 0.66272384
000320 1b ff c8 3f 38 d0 ad be ef b1 af 3f 0c 89 96 be
       1.5702852 -0.3394792 1.3726176 -0.29401433
000330 a7 a8 f6 bf 37 16 2b be 9e c3 3d 3f 20 1d 7d bf
       -1.9270219 -0.16707693 0.74126613 -0.98872566
000340 29 8e f3 bf 55 fb 7c 40 09 ae 24 bf a8 4a 96 c0
       -1.9027759 3.95284 -0.64328057 -4.6966133
000350 34 0c 02 40 94 d3 4b 40 40 0a aa 3f a9 9a 5f bb
       2.0319948 3.1847887 1.3284378 -0.0034119284
000360 c2 da e8 be 87 89 0d 3e be a0 66 c0 aa a1 b6 3f
       -0.454794 0.13821994 -3.603561 1.4268086
000370 c0 1e 1a 40 58 52 62 3f 35 b4 e5 3f 76 f0 31 bf
       2.4081268 0.88406897 1.794562 -0.6950754
000380 89 3f 8a 3f 10 8d f4 3e 98 01 f2 be b1 20 ed bf
       1.0800639 0.47763872 -0.4726684 -1.8525602
000390 a5 69 fe 3f 42 90 f5 3f 35 e8 ef 3f a2 5c 3a 3f
       1.987599 1.9184649 1.8742739 0.72797596
0003a0 35 b8 66 3e 2e ca d0 3f d5 0f 99 bd 2e c7 09 40
       0.22531207 1.63117 -0.07473723 2.152782
0003b0 27 1f 89 bf 65 44 a3 bf a8 a7 df 3c 34 b1 27 3f
       -1.0712632 -1.2755247 0.027301624 0.65504766
0003c0 a8 d8 3d 40 75 c7 8f 3d d5 dc ea 3f f6 92 dd 3e
       2.9663486 0.07020465 1.8348643 0.43276185
0003d0 c3 13 30 3e 6d f7 14 3f 5f 94 b0 3f d4 f9 3d bf
       0.17195038 0.5819004 1.3795279 -0.7420933
0003e0 97 93 d2 3f 4d e9 0d 3f 6b a4 65 bf f0 98 51 be
       1.6451291 0.55434114 -0.89704007 -0.20468497
0003f0 1f 11 ef 3d 99 5d 8c 3e 46 c0 06 40 2b 89 65 bf
       0.116731875 0.2741516 2.1054854 -0.89662427

bias_ih_l0 f4 [200]
000000 63 18 91 3f ee 57 57 3f 89 7e c3 3f 31 52 83 3f
       1.1335567 0.84118545 1.527299 1.0259458
000010 59 76 90 3e ed af 39 3f 49 2a 06 3f 36 66 9a 3e
       0.28215292 0.72534066 0.5240827 0.30156106
000020 70 b3 62 3f 0b c7 63 3f ad 05 73 bc ad bc 7f 3f
       0.8855505 0.8897559 -0.014832896 0.9989727
000030 28 65 db 3e b3 9f 37 be c0 07 96 3f f8 39 c5 3f
       0.42850614 -0.17932014 1.1721115 1.5408316
000040 64 26 81 bf b3 bc c2 3e 67 95 11 bf b6 65 87 3f
       -1.0089841 0.3803459 -0.56868595 1.0577915
000050 53 11 35 bf 5d 05 fa 3d 19 97 10 3f ba dd 41 3e
       -0.7072956 0.12208054 0.56480557 0.18932238
000060 f7 f4 00 3e 44 68 e3 3e f2 90 37 3f ce a3 bc 3e
       0.12593447 0.44415486 0.71705544 0.36843723
000070 16 4e fa 3d ea ac fd bc 9e cc 98 3e a1 e5 28 3f
       0.12221925 -0.03096624 0.2984361 0.65975386
000080 c5 6f ce be 86 bb e9 3d 54 42 97 3e 52 95 47 3f
       -0.40319648 0.114127204 0.29542792 0.7796222
000090 96 63 98 be 0c 2f bd 3f ad 17 51 3e 83 fa e1 3e
       -0.29763478 1.4779983 0.20419188 0.44136438
0000a0 86 da 75 be 6b 40 31 be 07 9d ff 3e 06 b3 e0 be
       -0.24009141 -0.1730973 0.4992449 -0.43886584
0000b0 fd 53 40 be 42 60 07 bf 46 ee ec 3f 94 90 8c 3f
       -0.18782039 -0.5288125 1.8510215 1.0981622
0000c0 8e 90 41 3e 04 ea d5 3e ce 25 00 3f 47 b4 57 bf
       0.189028 0.41780102 0.50057685 -0.84259456
0000d0 ac 5f 1e 3f 19 72 4f 3f c4 52 c3 3d 27 8f 76 be
       0.61864734 0.81033474 0.09537271 -0.24078046
0000e0 89 2c 65 3f ab 3e 21 be 0d 26 c2 3d 3e e8 1f 3e
       0.8952108 -0.15746562 0.09479914 0.15615937
0000f0 5d 43 2c 3e 8a 3a 22 3d 39 6e c8 3e e9 2c 5b 3e
       0.16822572 0.03960661 0.39146593 0.2140385
000100 20 41 b4 3c 1c c7 3b 3f a6 64 69 3f 7a 4b 4a be
       0.02200371 0.7335069 0.911692 -0.19755355
000110 57 f1 8f 3e 70 68 bb be 29 3b 3d 3f 1f 57 05 3f
       0.28113815 -0.36603117 0.73918396 0.5208606
000120 98 3d f0 3e 9d 41 91 3d f4 1b b0 be 34 c4 e2 3e
       0.46921992 0.07092593 -0.34396327 0.44290316
000130 26 4d 27 3e 90 7c cb be c7 f2 e6 bf c6 d2 47 3f
       0.16338024 -0.3974347 -1.804284 0.7805599
000140 29 63 40 3e a0 6d ef be b6 be 3d be 22 48 d9 be
       0.18787827 -0.46763325 -0.18529782 -0.42437845
000150 2c 5c e4 3e b7 b3 09 3f 04 79 1c be b7 9b 96 bf
       0.44601572 0.5378985 -0.15280539 -1.176627
000160 6e ef ce bc 3d e1 c8 be 9e 2f 20 bf 19 a0 39 bf
       -0.025260653 -0.39234343 -0.6257266 -0.72509915
000170 09 88 1d 3f a2 d0 51 3f 0d 1b 04 3f 7d 53 2d bf
       0.615357 0.81958973 0.51603776 -0.6770552
000180 1b b6 33 3f 32 97 20 3c f2 8b 78 bf 00 3f 5e be
       0.70199746 0.009801673 -0.9708854 -0.2170372
000190 4e f4 26 bf ad 1e e7 3e 80 a0 64 be 87 af d5 be
       -0.6521653 0.4514059 -0.22326851 -0.4173548
0001a0 64 df 2e 3d 48 d9 f9 be 09 af 34 3f d5 53 7e 3f
       0.04269351 -0.48798585 0.7057958 0.9934667
0001b0 bb 03 ea be 20 09 3b 3e 6e b0 da be 15 ff 07 be
       -0.4570597 0.182652 -0.4271273 -0.132809
0001c0 84 3a b9 be ab 1e 26 bf 7a 1f 3b 3e 7c 68 4f 3e
       -0.36177456 -0.64890546 0.18273726 0.20254701
0001d0 85 f2 8d 3f 83 66 06 bf 1a 48 16 bc e7 66 55 3f
       1.1089636 -0.5250017 -0.009172464 0.8336014
0001e0 88 f0 4d 3e de 09 0c 3f e5 1b 29 3d fe cb b9 3e
       0.20111287 0.54702556 0.041286368 0.36288446
0001f0 21 b7 4d 3f c0 3b 71 be 7c d4 17 bf 8b e2 08 3f
       0.8035756 -0.23557949 -0.593086 0.5347068
000200 5c 14 3e 3b 8d 03 eb be 12 1c 11 3f 5b 52 7f 3e
       0.0029003834 -0.45901147 0.56683457 0.2493376
000210 4e 4d 54 bd b2 14 a4 bf 0f 28 8c 3d ce df a8 3e
       -0.051831536 -1.2818816 0.06843578 0.3298325
000220 6e 54 8a be 5d 79 e8 3e 75 4f be bd cb 61 b5 3e
       -0.2701754 0.45405093 -0.09292499 0.35426173
000230 bd f9 0b 3e 6d cf f6 bd 31 12 48 3e ad e0 8c 3e
       0.13669486 -0.12051282 0.1953819 0.27515164
000240 81 bc 63 bf de 4e 2b 3e 9b e7 f8 3d 97 3b e8 be
       -0.8895951 0.16729304 0.1215355 -0.45357963
000250 10 3d 37 3f 7f 36 8f be 06 a2 92 bd ff 98 9d 3f
       0.7157755 -0.27971265 -0.0715981 1.2312316
000260 02 e0 8e 3f 3a c4 34 3f 29 14 13 bf 4a 26 e7 be
       1.1162112 0.7061192 -0.57452637 -0.451464
000270 d8 2f b5 be 20 f1 0e 3f f5 de 22 3f b8 ee 07 bf
       -0.35388064 0.5583668 0.63621455 -0.5309863
000280 ec 77 a1 be aa b1 9d 3f dd de a6 bf 03 c1 fa 3f
       -0.31536806 1.2319844 -1.3036762 1.9590153
000290 57 43 ff 3f 4b 57 61 bf 0f 65 f5 bf 53 ab 5e bf
       1.9942425 -0.88023823 -1.9171466 -0.8698017
0002a0 0d 6c c1 bf 00 53 3c bf 13 70 af 3e 07 25 89 3f
       -1.51111 -0.7356415 0.34265193 1.0714425
0002b0 ce d5 7c 3e 8c f7 9a be 66 9c 93 bf 12 5e 47 bf
       0.24690935 -0.30266988 -1.1532104 -0.77877915
0002c0 2e ab 96 3f 9e d9 85 3f 03 14 1f 3f 40 01 18 3f
       1.177099 1.0457036 0.6213991 0.5937691
0002d0 61 17 85 3e f5 15 89 bd 8d c0 65 3f 1a bb 19 bf
       0.259944 -0.06693641 0.89746934 -0.6005112
0002e0 29 01 a7 3f 82 0f cc 3f 16 77 50 3f 7b 61 b0 3f
       1.3047229 1.5942233 0.8143171 1.3779749
0002f0 ad ee 82 3f 83 59 87 be e9 b1 2c be c6 51 46 3f
       1.0229088 -0.2643548 -0.16864742 0.77468526
000300 14 84 4a 3f 1a e2 34 bf b4 7e 6a bd d4 07 37 3f
       0.79107785 -0.70657504 -0.05724974 0.7149632
000310 b2 d7 71 3d 94 11 36 be 1d ac ff 3f 3e 1d 46 3f
       0.059043594 -0.17780143 1.99744 0.7738837

bias_hh_l0 f4 [200]
000000 65 7d 82 3f 49 9e 56 3f 0b bf a7 3f 91 ac 98 3f
       1.0194517 0.83835274 1.3105177 1.1927663
000010 62 a3 98 3e c6 1c 6f 3f f1 7c 17 3f d4 07 e2 3e
       0.2981215 0.9340328 0.5917502 0.44146597
000020 d9 bb 66 3f ee 7d 54 3f 48 34 49 3e a4 7b 48 3f
       0.9013038 0.83004653 0.1964885 0.7831366
000030 44 65 d0 3e a9 76 0e 3c 4d 1e 95 3f 17 6e b4 3f
       0.4070226 0.008695283 1.1649872 1.4096097
000040 50 df 91 bf 67 53 72 3e 1f a7 dc be 04 54 7f 3f
       -1.1396275 0.23664628 -0.43096253 0.9973757
000050 a2 0b 1b bf 4b 78 18 3d c2 fa 0f 3f e4 5a b1 3e
       -0.60564625 0.037224095 0.56242 0.34639657
000060 9b 39 10 3e 97 6e 18 3f 98 a2 70 3f 9c 60 8a 3e
       0.14084475 0.59543747 0.939981 0.27026832
000070 f8 aa 37 3e 02 58 0d 3d 4f 9a 9d 3e e0 c9 30 3f
       0.17936313 0.03450776 0.3078179 0.69058037
000080 e3 28 1a bf 96 53 ad bd 32 a7 e8 3e e9 78 1f 3f
       -0.6021864 -0.084632084 0.4544006 0.6229387
000090 f8 89 d7 be 7a ad ae 3f a4 81 e6 3d 9f 0a 1a 3f
       -0.4209745 1.3646691 0.11255196 0.60172457
0000a0 0e d0 b1 be 6d cc 89 3d 1b 77 06 3f 71 32 1f bf
       -0.34729046 0.06728444 0.5252549 -0.6218634
0000b0 93 c4 11 be f0 c9 9a be 60 fa e2 3f c1 25 a5 3f
       -0.14235143 -0.3023219 1.7732658 1.2902147
0000c0 ce 8c 06 3e a3 21 11 3f 57 e1 32 3f 26 c3 71 bf
       0.1313965 0.5669195 0.6987509 -0.944384
0000d0 e4 28 1f 3f d9 25 36 3f 89 f8 65 3d 19 f1 9e be
       0.6217177 0.711515 0.056145225 -0.31043318
0000e0 0e aa 64 3f 7b 98 5e bd 58 ee 5e bc 1b 84 50 3c
       0.8932198 -0.054344635 -0.01360663 0.012726809
0000f0 5b 57 88 3e df 33 8b 3e ed 75 d2 3e e4 be 21 3e
       0.26629147 0.27188012 0.41105595 0.15795475
000100 2c d3 b5 3d 33 89 2c 3f 53 06 5a 3f 5d 81 5d be
       0.088781685 0.6739685 0.851659 -0.2163138
000110 55 e6 fc 3e 9f 32 57 be 79 4c 2f 3f b0 c2 05 3f
       0.4939448 -0.21015404 0.68476063 0.52250195
000120 c7 15 2f 3f a3 94 60 bc 87 6e d7 be c7 11 09 3f
       0.68392605 -0.013707313 -0.42076513 0.5354275
000130 07 15 0c 3e c5 8c fc be 82 39 d5 bf 7f e7 42 3f
       0.13679896 -0.4932615 -1.6658175 0.76134485
000140 ca 32 da 3e 2a ec 9a be ed cb 36 bc dd d1 13 bf
       0.42616874 -0.30258304 -0.011157018 -0.577421
000150 a2 54 16 3f 6f 87 dd 3e d7 81 88 bd 6c 53 b1 bf
       0.5872289 0.4326739 -0.0666539 -1.3853583
000160 96 e9 d9 bc 7f d4 22 bf f2 d6 48 bf 80 84 1f bf
       -0.02660064 -0.63605493 -0.7845298 -0.62311554
000170 9d 0e 2e 3f 97 db 3a 3f fa 1d 2f 3f be 4e 4b bf
       0.6799105 0.7299132 0.68405116 -0.79417026
000180 2a bb 37 3f 54 d3 00 3e e9 7b 79 bf 8d 66 7d be
       0.71769965 0.12580615 -0.97454697 -0.24746151
000190 2f 00 61 bf 0a a4 da 3e 4b 61 b1 bd 1d b1 b2 be
       -0.87890905 0.42703277 -0.08661135 -0.34900752
0001a0 18 7e 26 3e 6a ca f5 be 53 a6 15 3f 9f cb 82 3f
       0.16259038 -0.48005992 0.58456916 1.021839
0001b0 0c 4f 99 be 2c e2 11 3e ce 67 ac be d7 bc 82 bd
       -0.2994312 0.14246434 -0.33672947 -0.063836746
0001c0 1a 39 a2 be dc f2 11 bf 26 e5 b1 3e 64 ac 13 3e
       -0.3168419 -0.570112 0.3474514 0.1442123
0001d0 16 4e 9b 3f 3f e3 b0 be 15 af 2b 3d 6d 4d 49 3f
       1.2133205 -0.34548375 0.041915018 0.7863377
0001e0 c1 ab 6f 3e 80 99 f9 3e 55 44 58 3e 09 24 cc 3e
       0.23405363 0.48749924 0.21119817 0.39871243
0001f0 00 3c 7d 3f 73 da e5 be 2d e5 db be e8 fd 19 3f
       0.9891968 -0.44893226 -0.42948285 0.60153055
000200 e2 ba 20 be 3c 11 06 bf 12 28 0e 3f 91 5a 5f 3e
       -0.1569629 -0.5237005 0.5552989 0.21811892
000210 a7 65 2e ba ac e6 8d bf e3 ef 5c bd 56 c0 90 3e
       -0.00066527206 -1.108602 -0.05393971 0.2827174
000220 99 4d 76 bd 81 c2 4e 3e 0a 07 ff bd 0d 11 40 3e
       -0.060132597 0.20191385 -0.124525145 0.18756504
000230 0e 4c 0a 3c 99 23 23 be 60 68 9d 3e b6 17 30 3e
       0.008440984 -0.15931548 0.30743694 0.17196545
000240 da 8d 5c bf d9 26 94 3e b5 0f 27 3e 97 47 f6 be
       -0.8615395 0.28935888 0.16314586 -0.48101494
000250 05 84 18 3f 57 32 e3 be cc 89 14 be fe 19 a5 3f
       0.59576446 -0.44374344 -0.1450569 1.2898557
000260 4c f1 80 3f 84 74 2e 3f b4 2b 12 bf fa 1c d6 be
       1.0073638 0.6814654 -0.57097936 -0.41818982
000270 64 eb af be 15 da 08 3f 5f 55 30 3f 08 43 f3 be
       -0.34359276 0.53457767 0.68880266 -0.47512078
000280 42 0d 9a be 7e f9 90 3f ae 29 9f bf 75 bd e9 3f
       -0.3008824 1.1326139 -1.2434595 1.8260943
000290 a1 a3 f0 3f 88 86 48 bf b3 71 f4 bf d6 89 72 bf
       1.8799936 -0.7833028 -1.9097198 -0.9474157
0002a0 6a c4 ac bf 1a 53 53 bf 7d 37 00 3f 9b 09 a5 3f
       -1.3497441 -0.8254868 0.5008467 1.2893556
0002b0 ad f8 3a 3e 41 18 e0 be b1 1f 8c bf 89 cb 16 bf
       0.18258925 -0.43768504 -1.0947171 -0.5890432
0002c0 1c 14 96 3f 60 1c 81 3f 59 60 08 3f 2b 0b ec 3e
       1.1724887 1.0086784 0.53272015 0.4610227
0002d0 c7 e7 87 3e 4f f9 30 be 47 94 6c 3f a7 10 18 bf
       0.2654402 -0.17282604 0.92413753 -0.5940041
0002e0 c2 a4 99 3f d3 df de 3f c8 01 51 3f 50 8a 9e 3f
       1.2003405 1.7412056 0.8164334 1.238596
0002f0 5c 4f 8d 3f f5 2f e0 be 06 9e 62 bd 2c 77 45 3f
       1.1039844 -0.43786588 -0.055326484 0.77134967
000300 75 86 22 3f d6 d9 5c bf fc fb 4a bd e1 18 f2 3e
       0.63486415 -0.8626989 -0.049556717 0.47284606
000310 2d a3 3e 3c 24 89 55 bd 72 13 fc 3f 9e 9b 85 3f
       0.011635584 -0.05213274 1.9693434 1.0438116

weight f4 [74, 50]
000000 ea 1c 85 3e 7b a1 61 bf 67 9b e8 3e f3 b1 69 3e
       0.25998622 -0.88137025 0.45431063 0.22821788
000010 ce 76 02 3e f1 a5 9e be f1 d3 f7 be dc 3e c1 be
       0.12740633 -0.30985978 -0.48403886 -0.3774327
000020 6e e5 16 3e 13 d6 f8 be 84 a0 77 3e 97 55 e3 be
       0.14735958 -0.48600826 0.24182326 -0.44401237
000030 fa 95 2e 3e 8d 2d 6d 3e a7 c1 5d 3e 06 47 cb be
       0.17049399 0.23161907 0.21655904 -0.39702624
000040 ea 70 0d bf 65 b3 b2 3e d4 de 86 be c9 85 69 be
       -0.5525042 0.34902492 -0.2634188 -0.22804941
000050 a5 ba ab be ee 3d 02 bf 4f 40 8c 3e 2c 83 d5 be
       -0.33540836 -0.5087575 0.27392814 -0.4170164
000060 2e b2 87 3c b7 ba 20 3f 27 c0 52 be 75 0e 8b 3e
       0.016564455 0.62784904 -0.20581113 0.27159467
000070 59 7a 8d be 08 91 8f 3e a0 b1 4b be cf 7f ae be
       -0.27632406 0.28040338 -0.19891977 -0.34081885
000080 68 6f 13 3f 51 3a 15 3d aa 29 ec bd 50 31 8c 3e
       0.5759187 0.036432568 -0.11531384 0.27381372
000090 00 6d e6 be 04 1e 2b bf 3f cf 82 3e f8 d2 b9 be
       -0.45005035 -0.66842675 0.2554874 -0.3629377
0000a0 37 6a cd be 9c c1 ad be 40 46 7a 3f 1d 9e 58 be
       -0.40120098 -0.33936775 0.97763443 -0.21154065
0000b0 bc 8c 96 3e a3 36 5c be bd 61 03 be 68 e5 c4 be
       0.29404247 -0.21505217 -0.12830253 -0.38456273
0000c0 3d 3f dd be c0 a4 ec 3e a1 8a 88 3e 99 e6 68 bf
       -0.4321231 0.46219444 0.26668265 -0.90976864
0000d0 6a a9 b6 3e f7 c3 ac 3e 3d 91 85 3e d6 0a a0 be
       0.35676128 0.3374326 0.2608737 -0.31258267
0000e0 2d 7b 8f be 5b ca 8d be 72 0a a8 3d 28 d9 f0 be
       -0.28023663 -0.27693447 0.08205117 -0.47040677
0000f0 dd f1 93 3e 28 98 04 bf 97 5f 55 3e fd 27 a6 3e
       0.28895465 -0.5179467 0.20837246 0.32452384
000100 1a 31 26 3e 12 00 c0 be 7a 3e 08 bf c9 9e 4e 3e
       0.16229668 -0.37500054 -0.5322033 0.20177759
000110 d4 ca 4e be 08 a4 92 be f0 d5 cd be de a6 10 bf
       -0.2019456 -0.2864077 -0.40202284 -0.5650462
000120 66 13 2c 3e 5a 6b e4 be b0 36 86 bd e4 6d 19 3f
       0.16804275 -0.44613153 -0.065533996 0.59933305
000130 6c 4e 0a be f2 cc b2 3e 7d 2a b1 be cb ca ca 3e
       -0.13506478 0.34921986 -0.34602728 0.39607844
000140 e7 e2 3a be b4 44 c3 be 56 8b 07 3f 7d ec f1 3d
       -0.18250619 -0.38138354 0.52946985 0.11812685
000150 9b fd b6 bd 0c 34 4d 3e f8 10 9e be 23 ad 44 bf
       -0.0893509 0.20039386 -0.3087232 -0.76826686
000160 99 76 56 3e 2f 20 d6 be e7 20 9f be e3 e2 05 bf
       0.20943679 -0.4182143 -0.3107979 -0.52299327
000170 89 b8 97 3f 4d 0a 76 be 17 9b 8d 3e 2f 61 a3 bd
       1.1853191 -0.24027367 0.27657387 -0.07977521
000180 88 3f 84 be 67 b7 ee be cc 0f a1 be 4b 24 fd 3e
       -0.2582972 -0.466243 -0.31457365 0.49441752
000190 61 65 09 bf bd 53 58 3f 21 53 13 c0 d2 5b a7 be
       -0.53670317 0.84502774 -2.3019488 -0.3268724
0001a0 2f ca 8b bf 3a f4 49 bf 88 75 19 c0 9a c5 08 bf
       -1.0921077 -0.78888285 -2.3977985 -0.53426516
0001b0 da 9b 0f bf 3f 98 21 c0 a5 a9 c2 bf 5d 84 ac bf
       -0.56097186 -2.5249174 -1.5208021 -1.3477894
0001c0 4c 61 fe 3f 65 df 01 3f f2 f2 6d bf 85 20 56 bf
       1.9873443 0.507315 -0.9294883 -0.8364337
0001d0 5c 08 81 bf c1 4d 02 c0 e5 5c 23 3f 95 13 3d bf
       -1.0080676 -2.0359957 0.6381362 -0.73858005
0001e0 bc 33 81 3f 14 35 d9 40 fc e6 8a 3d 50 2b 3f 3f
       1.0093913 6.7877293 0.06782338 0.74675465
0001f0 53 91 48 3f 02 05 07 bf 05 8e ba bd a1 77 aa 3d
       0.7834675 -0.52742016 -0.09109119 0.08323599
000200 c2 f9 d5 be 29 0b c3 3e 1b 6e d4 bf 3d 83 0f 3f
       -0.41792113 0.38094452 -1.6596102 0.5605963
000210 09 9d cb bf 0b f7 7b bd b9 e1 b7 bf b0 97 55 3e
       -1.5907298 -0.061514895 -1.436576 0.20858645
000220 b2 84 39 c0 9f 0d b9 bf d0 f7 8e 3c 24 ee cf be
       -2.898724 -1.4457282 0.01745215 -0.40611374
000230 3e c8 b0 3f a6 01 11 3f 7e 81 77 bf d1 45 19 bf
       1.3811109 0.5664314 -0.96681964 -0.59872156
000240 1b 05 31 3f cf fa 54 c0 16 4b 25 bd 58 26 c0 3e
       0.69148415 -3.3278081 -0.04035481 0.37529254
000250 e5 f5 01 3f b8 81 91 be 9c cf e6 3e 71 68 38 3f
       0.5076583 -0.2841928 0.45080268 0.72034365
000260 4c f2 1c 40 a6 6c 58 bf 8f e8 c6 3f 85 b0 94 bf
       2.4522886 -0.84540784 1.5539721 -1.161637
000270 b7 45 39 40 db a7 12 c0 5d d5 e3 bf ea 49 9b 3d
       2.89488 -2.291495 -1.7799488 0.07582457
000280 fa 90 d1 3e 75 33 1c c0 ab 98 9f 40 64 ed bd 40
       0.4093092 -2.4406407 4.987386 5.9352283
000290 34 67 33 40 cf 6f 06 c0 a6 e8 ae c0 a1 c8 c1 3f
       2.803174 -2.1005743 -5.4658995 1.5139352
0002a0 01 4d 0b c0 d0 0c bc bf 75 28 7d 3f a1 89 89 3e
       -2.176575 -1.469141 0.9888986 0.26862815
0002b0 3d b7 80 40 58 0c 26 c0 48 bc 80 c0 6a 65 dd 40
       4.022368 -2.5945034 -4.0229836 6.9186296
0002c0 f7 3a 04 c0 98 27 54 40 25 26 e5 3f 6f ba 8e bf
       -2.066099 3.3149166 1.7902266 -1.1150645
0002d0 33 e8 b9 3f 8e 3d 1c 3f d8 40 c1 bf c6 27 b2 bf
       1.4523987 0.61031425 -1.5097914 -1.3918388
0002e0 2d 18 27 c0 a2 ab 10 40 08 3b c8 c0 f1 de 45 40
       -2.6108506 2.2604756 -6.257206 3.0917323
0002f0 de c0 6c be a9 fa e0 bf 10 d2 c3 3f 90 48 c3 3f
       -0.23120448 -1.7576495 1.5298481 1.5256519
000300 28 30 41 40 c4 e4 5e bf 21 ee 19 3f ba f2 b4 3e
       3.0185642 -0.8706782 0.6012898 0.35341436
000310 29 d1 ca c1 35 2f 2c c0 7b fa d1 be 71 fb 94 40
       -25.352129 -2.6903813 -0.41011414 4.6556935
000320 eb 74 c1 bf 43 a4 64 3d 52 a0 9b be 7b 4c 5a bf
       -1.5113806 0.055820715 -0.30395752 -0.8527295
000330 b2 b7 a3 bf cd 07 97 3e 16 70 5d 3f 58 fe ad 3f
       -1.2790434 0.2949814 0.86499155 1.3593245
000340 34 af e9 3d 21 00 80 bf 08 3b 6b 3f a7 61 5d 3e
       0.114103705 -1.0000039 0.9188695 0.21619283
000350 b8 9e 00 c0 3c 40 dd bf 8b 94 ef 3e 22 12 2a 3f
       -2.0096874 -1.7285228 0.46793017 0.6643392
000360 13 51 e3 3e 07 e9 9b bf d4 21 9f be 7a 51 91 3f
       0.44397792 -1.2180489 -0.31080496 1.135299
000370 6e 32 f9 3e cc 75 a4 bf a3 e5 d8 3d 51 fc 16 bd
       0.48671287 -1.2848449 0.10590675 -0.03686172
000380 9f c1 88 40 b0 39 c8 be 49 93 ca 3c 2b 01 45 40
       4.2736354 -0.39106512 0.024728434 3.0781963
000390 ef 38 85 3f 9b 97 12 3d ed 1d 16 3f ec 5e 06 40
       1.0408 0.035789113 0.58639413 2.0995436
0003a0 d2 08 e1 3e 3a fc 38 bf 50 03 2b bf dc 66 8b bc
       0.43952042 -0.7225987 -0.6680193 -0.01701682
0003b0 4d f6 b3 3f 03 04 09 bf ee 2b 86 bd 83 24 22 40
       1.405954 -0.53521746 -0.06551348 2.5334785
0003c0 24 b4 b6 3f 1f 7e 25 3f fa ae 6b 3f d6 e1 be 3f
       1.4273725 0.6464557 0.9206387 1.491267
0003d0 be 65 8d be 4f 0b d4 3f 63 73 cb 3e 98 8d 84 3f
       -0.27616686 1.6565951 0.3973647 1.0355711
0003e0 29 6b 77 be 5a 30 96 3f 74 9a 97 3f fb ac 95 c0
       -0.24161972 1.1733506 1.184401 -4.677366
0003f0 e6 92 d6 3f 17 d8 67 3e e9 fb 4b c0 4a e8 ea bf
       1.676358 0.22641025 -3.1872504 -1.8352139

bias f4 [74]
000000 45 d8 68 be 1d 68 ae be 5d d9 b4 3f 90 77 8c bd
       -0.2273875 -0.34063807 1.4128834 -0.06858742
000010 1d 1f 31 3f 3c 38 43 bf 1f 0f 67 be 45 fa 7e 3f
       0.691881 -0.7625768 -0.22564362 0.9960063
000020 6d 5b 84 3f 14 cd a1 39 02 74 d8 be 32 56 b7 3e
       1.0340401 0.00030861108 -0.42276007 0.3580795
000030 64 3e 45 3e 1b 8c 05 bf f8 1a 3f 3f 9e c7 d2 3e
       0.19262081 -0.5216691 0.74650526 0.4116792
000040 eb 3c af be 54 5e 57 be 37 53 61 3e a7 3b 2c 3e
       -0.34226164 -0.21032077 0.220044 0.1681963
000050 7c d1 f8 b9 83 8d b2 bf 3a 2e 4c 3f 84 e6 39 3f
       -0.00047458324 -1.3949436 0.79758036 0.72617364
000060 fd 0a 73 bf b6 b4 a6 3f 7e a6 87 be 5c 1e be 3e
       -0.9493864 1.3023899 -0.2649421 0.37132537
000070 7d 30 a8 bf 13 d9 17 3f ca 10 ad bf c8 d5 7c bf
       -1.3139797 0.59315604 -1.3520749 -0.98763704
000080 ee 5a 9b 3c 95 b6 90 bf c7 33 af bf 68 8f b3 bf
       0.018964257 -1.130572 -1.3687676 -1.4028139
000090 4d 24 d1 bf 4e 87 99 be c7 86 8e be 8f b5 ab be
       -1.6339203 -0.29986042 -0.27837202 -0.33536956
0000a0 f7 f0 6a be 78 3d 58 be 75 b4 a7 bd fc a9 d8 bd
       -0.22943483 -0.21117198 -0.08188716 -0.10579297
0000b0 28 14 33 be 7b 56 24 be 22 7c 8c be d7 e7 b1 be
       -0.17488158 -0.16048615 -0.27438456 -0.34747192
0000c0 32 5b 9b be 13 e4 cc bd d5 70 63 be 9a f6 90 be
       -0.30343014 -0.10004439 -0.22211011 -0.28313142
0000d0 48 10 89 be 52 0b 79 be 3c 24 20 be 9f 13 9b be
       -0.26770234 -0.24320725 -0.15638822 -0.30288407
0000e0 ba 29 24 be a1 06 b9 be 95 eb c8 bd fd 0a fb bd
       -0.16031542 -0.3613787 -0.09810559 -0.12257955
0000f0 1a a0 c8 be 0a 2d 2f be 15 f9 76 be 64 58 cc bd
       -0.39184648 -0.17107025 -0.24118455 -0.09977797
000100 28 bc 38 be fc bd ac be ad ad 9f be ab 08 34 be
       -0.18040526 -0.33738697 -0.31187192 -0.17581432
000110 71 47 4f be 50 40 84 be 76 c3 a8 be 52 74 d6 bd
       -0.20242096 -0.25830317 -0.32961625 -0.10471405
000120 be 2c 58 be 80 a9 19 be
       -0.21110818 -0.15006065

weight f4 [35, 2]
000000 e8 64 c6 be 2c 3b 08 3e 32 cc cd 3e d4 e8 54 3e
       -0.3874886 0.13303822 0.4019485 0.20791942
000010 82 f2 cb 3e a8 47 24 be d8 ee 10 bf 1e 28 cb 3e
       0.39833456 -0.1604296 -0.56614447 0.39679044
000020 cf 3c 29 bf 30 5e 22 3d bf d7 1d 3f 2a b4 d4 3e
       -0.6610841 0.039640605 0.6165733 0.41543704
000030 20 e4 d1 3d 1c 42 b2 be 89 0e c0 be 83 71 22 3f
       0.102485895 -0.34816062 -0.3751109 0.63454455
000040 e0 a7 cf bc d6 b1 10 bf cb 0c 06 3f 96 d7 12 bf
       -0.025348604 -0.56521356 0.5236327 -0.5736021
000050 cc ee 09 3e 3d e9 84 be 37 21 1e 3f 3a b9 cc 3e
       0.1347 -0.25959197 0.6176943 0.39985067
000060 00 71 95 bc 74 65 22 bf 80 f9 cc bc 00 22 7a bd
       -0.01824236 -0.63436055 -0.025021315 -0.06106758
000070 c4 30 26 bf 60 12 50 3d 68 81 fd 3d 08 ae 1d 3e
       -0.6491816 0.050798774 0.12378198 0.15398419
000080 00 e0 09 3c 4b 88 30 3f 9c f9 38 be 30 38 f7 be
       0.008415222 0.68957967 -0.18063968 -0.48285055
000090 9c 3c 31 3e ec ea 3d be a6 33 a2 3e 3e 53 d0 3e
       0.17308277 -0.18546647 0.3168003 0.4068851
0000a0 e6 b8 76 be 71 f0 1a 3f 60 89 8f 3e 9a 21 d8 3e
       -0.2409397 0.60523134 0.28034496 0.42213136
0000b0 67 ac 19 3f 5a 9b 1a bf 48 9e e8 3d 5a 15 c0 3e
       0.6002869 -0.603933 0.11358315 0.3751629
0000c0 c8 7c 63 3e 87 9b 1a bf e8 f9 db 3d c2 3b e0 be
       0.22215569 -0.60393566 0.10741025 -0.43795592
0000d0 98 66 89 be 3d 60 27 bf dd 2c 16 3f a0 e6 51 bd
       -0.26836085 -0.6538122 0.58662206 -0.05124533
0000e0 8d 6b 1c 3f a7 a1 e1 be e7 32 e5 be dd fa 0a 3f
       0.6110161 -0.44068643 -0.44765398 0.54289037
0000f0 28 b1 db bd 55 85 0c bf 1f 0f 16 bf ac e8 3b 3e
       -0.10727149 -0.5489095 -0.5861682 0.18350476
000100 7c f7 f7 be 9c 7a 8a be d6 cf 9b 3e f8 92 02 3e
       -0.48431003 -0.2704667 0.30432004 0.12751377
000110 b2 c3 95 be c5 4b 13 3f
       -0.29250866 0.5753749

bias f4 [35]
000000 32 f1 e4 be 80 11 ec 3b 2f 12 ad be 8e 56 ce be
       -0.44715267 0.0072042346 -0.33802935 -0.4030041
000010 da 22 91 3e 48 a9 7e be 8a 00 16 bf 80 1e b1 bb
       0.28346902 -0.24869263 -0.5859457 -0.005405247
000020 b0 6e e3 bd a0 eb 03 be 3e fd 8f 3e 14 5f 29 bf
       -0.11105096 -0.12882853 0.28122896 -0.661607
000030 ee 11 e5 3e c6 18 d9 3e 50 ce 81 3d 1c f7 4b be
       0.44740242 0.42401713 0.06338179 -0.19918483
000040 28 ff 24 bf 5c 82 89 3e 9e fd 91 3e a6 91 ee 3e
       -0.6445184 0.2685727 0.28513807 0.46595496
000050 88 29 e3 3d 80 84 b8 3c 49 98 bd be 8a ee c4 3e
       0.11091906 0.022524118 -0.37030247 0.3846324
000060 b9 e6 2f 3f 80 d0 7c 3d 0e 12 f6 3e 8e 2b e3 3e
       0.6871143 0.06172228 0.4806065 0.44369167
000070 d7 e1 06 bf cb 68 26 3f 44 cb 4c be 5e 29 2f bf
       -0.52688354 0.6500365 -0.19999415 -0.68422496
000080 c6 23 10 bf d2 45 b4 3e 6b b6 92 be
       -0.56304586 0.3520952 -0.286548

weight f4 [50, 35]
000000 d0 02 09 3e d8 dc 2a 3e f8 ae cf bc 36 76 8a bd
       0.13379979 0.16685808 -0.025351986 -0.06760828
000010 60 0d 4e bd 7f cf 9b bd d8 3c 15 3e 88 ca b6 bd
       -0.050305724 -0.07607936 0.14573991 -0.089253485
000020 88 35 e5 bc af 5a c9 bd 66 ae ab bd c8 86 81 bc
       -0.027979627 -0.0983175 -0.08382873 -0.015811339
000030 cc f6 df bd e0 79 e6 3b 00 dc 1c bc fd 9a ec bd
       -0.10935745 0.0070335716 -0.009573936 -0.11552999
000040 30 fb 68 bd c0 26 b6 3d 4b c7 c0 bd 70 26 08 3d
       -0.056880176 0.0889411 -0.09413012 0.03323978
000050 3e 54 d4 bd 9c 1e 21 3d c8 49 a9 3d 60 4b dc bd
       -0.103676304 0.039335832 0.08266026 -0.10756564
000060 b4 57 d6 bd 42 50 1f be d9 ef 18 be 68 67 1d be
       -0.10465947 -0.1555796 -0.14935245 -0.15371478
000070 30 2d 40 3d 7c d6 d3 bd cf 69 da bd cc 74 ec bd
       0.046918094 -0.10343644 -0.10664713 -0.11545715
000080 c4 c9 b6 3d 97 4f d1 bd 98 2e 0c 3d e8 aa b3 bc
       0.089252025 -0.10220259 0.034224123 -0.02193208
000090 d1 bb 0a be 6c 2f bb bd f4 c1 24 bd 12 a8 10 be
       -0.13548209 -0.091399044 -0.04022403 -0.14126614
0000a0 1a 93 1c 3e 22 8e 22 3e 03 1a 26 be dc 5f e8 3d
       0.1529049 0.15874532 -0.1622086 0.11346409
0000b0 74 df 04 3e 60 a2 fd bb b0 39 d6 3d e8 54 76 3d
       0.12975866 -0.007740304 0.10460222 0.060139567
0000c0 50 50 64 3d cc 6e ff 3d a1 90 04 be 28 23 f6 3d
       0.055740654 0.12472305 -0.12945797 0.12018424
0000d0 58 72 f5 3c 28 d5 e2 bc 80 7f 12 bb 38 d8 24 3e
       0.02996175 -0.027689531 -0.0022353828 0.16098106
0000e0 36 4d 14 be c0 c6 b0 3c 00 78 97 3c 65 87 03 be
       -0.14482579 0.021579146 0.018489838 -0.12844618
0000f0 c1 9a 2c be c8 c0 d8 bd 34 90 90 bd 80 df b9 3d
       -0.16855909 -0.10583645 -0.070587546 0.09075832
000100 9b c2 e4 bd a6 49 13 3e a2 4f 56 bd ab 15 d8 bd
       -0.111699305 0.14383563 -0.052322038 -0.10551008
000110 00 1e ac 3c f0 bd ae bd d8 af eb 3d 3b ae 90 bd
       0.021010399 -0.085323215 0.11508149 -0.07064482
000120 3c ec 14 3e 78 37 1c be 97 7e ac bd d0 69 9d 3c
       0.14543241 -0.15255535 -0.084225826 0.019215494
000130 40 45 7d bd 20 0a dc 3d b8 1e 4f 3d c8 0b 25 be
       -0.06183362 0.10744119 0.050566405 -0.16117775
000140 88 a4 d9 3d 38 62 19 3e 94 a6 fe 3d 62 44 6f bd
       0.10627085 0.14978874 0.12434116 -0.058414824
000150 a2 07 0f be f8 e5 1d 3d 58 03 87 3c 12 5b 9d 3d
       -0.13967755 0.038549393 0.016481087 0.07683386
000160 77 e0 d4 bd 74 2e b9 bd 70 66 71 3c 3e 0a 1e be
       -0.10394376 -0.09042063 0.014733896 -0.15433595
000170 a8 87 9b 3d e0 e3 db bb 80 e9 e8 3d 20 a3 22 be
       0.07594234 -0.0067105144 0.113726616 -0.1588254
000180 d2 e7 48 bd 90 b9 25 3d b2 f7 0c 3e ac 68 1d 3e
       -0.049049206 0.04046017 0.13766363 0.1537196
000190 d8 87 c3 bd 8c 66 67 3d 50 7c 38 bc d2 e6 1b 3e
       -0.095473945 0.05649428 -0.011260107 0.1522477
0001a0 f3 c6 9b bd 14 43 00 3e 50 ec 1b bc 28 38 cf bd
       -0.07606306 0.12525588 -0.0095167905 -0.10118133
0001b0 42 5e 8d 3d 7a 18 90 3d 54 49 f1 3d a5 1a a6 bd
       0.06902744 0.070359185 0.11781564 -0.08110551
0001c0 6c fd 28 be 20 19 bd 3c f6 d4 f9 bd 78 26 da bd
       -0.16502923 0.02308327 -0.12198822 -0.106518686
0001d0 a3 e9 9a bd 06 c1 0b 3e 00 6e 6c 3b 48 de fb bc
       -0.07564094 0.13647851 0.0036076307 -0.03074564
0001e0 10 c0 ab 3c 9e 32 6f bd 3e 33 05 3e 70 15 ae 3c
       0.020965606 -0.05839788 0.13007829 0.021250457
0001f0 b8 ff d6 3d e8 de 48 3d bc f5 c2 3d 14 5d 77 3d
       0.10497993 0.049040705 0.09519526 0.0603915
000200 84 52 cb 3d 54 7f 26 bd a4 bd be 3d 94 1f 3f 3d
       0.09927848 -0.040648773 0.09313515 0.046660975
000210 96 95 04 be 76 42 0a be 04 de 07 3e 04 76 67 bd
       -0.12947688 -0.13501915 0.13268286 -0.056509033
000220 3a 0d 2d 3e bc 93 9c 3d 04 9d 0e 3e 04 42 c6 bd
       0.16899577 0.076453656 0.13927084 -0.0968056
000230 54 a8 0e be ee 76 00 be d1 1e 29 be 35 c6 a1 bd
       -0.139314 -0.12545368 -0.16515662 -0.07899133
000240 a0 84 bd 3d aa 54 55 bd a8 a6 ca 3c 51 22 a2 bd
       0.09253812 -0.052082695 0.024737671 -0.079167016
000250 78 de e2 bd b0 02 82 3d 14 bf 0a 3d 00 a7 92 3d
       -0.11077589 0.06348169 0.033873633 0.07160759
000260 d4 5c 91 3d 2c ef 50 3d 72 05 08 be ea bc 12 3e
       0.07097784 0.051009342 -0.13283327 0.14329877
000270 28 9b b9 bc 7c fb d4 3d 60 b8 05 3c 2c 96 cb 3d
       -0.022656992 0.10399529 0.008161634 0.099407524
000280 5b 9a 1a be d8 f0 a1 bc 42 94 1c 3e 1c 7b fd 3d
       -0.15097944 -0.019768164 0.15290931 0.12376997
000290 2f c9 9a bd 4e 88 f6 bd 74 af 40 3d 8b 60 9a bd
       -0.07557904 -0.12037717 0.047042325 -0.07537945
0002a0 11 4e c0 bd e7 31 da bd 88 3a 26 be 16 9e f6 bd
       -0.0938989 -0.10654049 -0.16233265 -0.12041871
0002b0 14 81 72 3d 60 aa 37 bc d0 24 08 bc a0 c3 7b 3c
       0.05920513 -0.011210054 -0.008309558 0.015366465
0002c0 b0 b4 0d be 90 6d 12 bd 91 3d 28 be 9b 21 18 be
       -0.13838458 -0.03574902 -0.16429736 -0.1485657
0002d0 18 b9 86 3d a8 1b fb 3c 3a 91 5a bd e6 3e 26 be
       0.065782726 0.030652836 -0.053361155 -0.16234931
0002e0 cc ef 2b be 28 2f 22 3d 72 d6 12 be c8 7a 01 be
       -0.16790694 0.039595753 -0.14339617 -0.12644494
0002f0 1b d7 27 be b9 2a c5 bd 60 7f 04 bd 90 f9 5b bc
       -0.1639065 -0.09627289 -0.032348037 -0.0134262
000300 18 0c ff bc 14 ec 92 bd 44 46 f2 3d 38 b6 d8 3d
       -0.031133696 -0.071739346 0.11829808 0.105816305
000310 5c 42 ce 3d e2 c5 07 be 40 0b 0e 3b 4c 72 1a be
       0.10071251 -0.1325908 0.0021674186 -0.15082663
000320 4e d7 12 3e 80 ee fe 3b 60 41 b2 bc 68 6a 5c bd
       0.14339945 0.0077798963 -0.021759689 -0.053812414
000330 38 ae 8b 3d 36 52 91 3d 44 18 17 3e e0 f5 ef bd
       0.06820339 0.070957586 0.1475535 -0.11716819
000340 04 ae ee 3d 24 61 7e 3d 4f b1 d3 bd 18 7b c1 bc
       0.116542846 0.06210436 -0.10336553 -0.023618266
000350 b9 36 8d bd 68 25 53 3d 88 0f f0 bc 0c 3c 23 be
       -0.06895203 0.051549345 -0.02930428 -0.15940875
000360 00 d3 0f 3b 96 18 90 3d 64 95 cb 3d 9a c0 8f bd
       0.0021945834 0.070359394 0.099406034 -0.07019158
000370 10 83 cb 3d 99 7e 22 be e6 c2 83 bd ef 49 f9 bd
       0.099371076 -0.15868606 -0.06433658 -0.12172305
000380 ae 4d 24 be 67 e9 b1 bd 00 36 b1 ba 30 38 9c bc
       -0.16045257 -0.08687096 -0.0013520122 -0.019069761
000390 0f 7b 1e be 0c a0 eb 3d 40 aa e8 3b 9c 2e fa 3d
       -0.1547663 0.11505136 0.0071003735 0.12215921
0003a0 e4 4b 1b 3d 1c 4e 76 3d d1 85 ca bd 04 9a 1a 3e
       0.03791417 0.060133085 -0.09888805 0.15097815
0003b0 22 aa 34 bd 40 a6 1a bd 0c 24 e9 3d d2 5b 09 be
       -0.044107564 -0.037756205 0.113838285 -0.13413933
0003c0 db e5 2b be 8a 9e 5f bd 89 f8 11 be 58 0f 00 bd
       -0.16786902 -0.054594554 -0.14254965 -0.031264633
0003d0 20 29 e8 3b 08 b2 1d 3e 64 2e 22 bd 48 5d c6 3d
       0.0070849806 0.15399945 -0.039595023 0.09685761
0003e0 be 93 2c 3e dc fc 17 3e 68 a4 f1 bd f4 41 85 bd
       0.16853234 0.14842552 -0.11798936 -0.0650672
0003f0 12 2b 1f 3e 81 6d 20 be 60 12 5c 3d 78 65 ef bc
       0.15543774 -0.15666772 0.05372846 -0.029223189
