model/saved_models/fr_encoder/model_epoch_7.pt (torch_old, 115280 bytes, 11 tensors)

weight f4 [74, 20]
00000000: 301c 393e eb55 8fbd 9220 b8be d74a 6abf
00000010: 2832 203f 30fa d03c 025b 743f 29c9 833d
00000020: bae8 b83e 087d 953f 4dc9 acbf f19a 02bf
00000030: e59e 713e 7688 75be 2cce 6bbf c28a c53f
00000040: 53a6 ac3f 3afe 0ebe 0454 923e 2312 773f
00000050: af3d 92bf 213b 29bb cb13 eb39 b70c f93b
00000060: b1ae e539 d7e3 67bc 1d56 95be 7ae1 e5bb
00000070: 54df bebb 86c5 523c aa2a 223e 7475 793e
00000080: 0a03 10bd cee4 843b 8f40 1f3b df40 f4ba
00000090: fa02 843b f2ef 113d ef82 093c d132 94ba
000000a0: 8faf 823e b846 be3d 064d 003f 1e53 0fbf
000000b0: 6a8f 13bf 226e 153f 8ad1 80bd d4ce 883e
000000c0: 30b4 963e 1be4 c9be e06e 023f a655 0abf
000000d0: c983 00be 3b8f 453f cf56 ce3f db3a 9abe
000000e0: 03d7 c03e 2cad c1be afa8 7a3e 333b 3ebe
000000f0: b852 53bd 1f7d 2c3e 2288 3d3d e31b 013d
00000100: e4ca c23b 75be 3f3d 4042 083c 64ed aeba
00000110: e4ff 92bd 1b40 093b 3b4a f5bc 266e 283c
00000120: 1718 053f 35a6 3ebd 07e3 253b 2c1d 613c
00000130: 39fc f6bb d6c8 e83c 4e59 9b3c 3acf 7ebb
00000140: cae4 933f 40cb 53be b5ec 93bb 5902 e03b
00000150: 283e d0bd 7801 c4bb 7ba5 433d b34a 443c
00000160: c5d1 433e 6afc 793c 08bd 153d ffa0 9fbd
00000170: f862 e6be 1066 b53b a70f 8b3c cf34 9fbc
00000180: 5b97 0cbe 9c72 0dbd fa9b b6bd 80c7 bfbb
00000190: 440b c3bf 574d 61bf f56c aebe 47d2 34bf
000001a0: b426 8e3f 1751 1bc0 8de0 14bf bf41 983f
000001b0: b44a 113d cfcd ba3f 4a1a 0cbf 0d45 92be
000001c0: 69ba 353f b4fe 42bf 5873 e53e 45c9 edbf
000001d0: bbf2 893f 7e03 9d3f 5747 debf e0ce 92bb
000001e0: 9dd1 6b3f c74d 1e3e 9888 24bd a358 01bf
000001f0: 7952 89bd 2698 b7bc e2fb db3c efb6 c6bd
00000200: 503e 21bf 6ead ce3e d0ed 643e 75c7 b93c
00000210: 84c1 b43d 6709 e03e 6873 81bd 566a 40be
00000220: 5f8c 8a3d 6cda d0bd 5870 873e 6e77 0b3d
00000230: abab 473f ab19 173e 1e30 353e a9b6 503e
00000240: 91aa 253f af27 fb3e 756a b9be bafc bc3d
00000250: cb3e 653e e67d 7bbd 00e2 54bf 5b9c 003f
00000260: b273 dbbd ca3b 7d3e a18e 853d bb9a 65bd
00000270: 7b27 73bf e854 25be 8c18 aebe 6971 e4be
00000280: 3e1b d43d 463d c4bd 0956 ab3e afd1 623f
00000290: 1164 00c0 c943 993e 4a8f 0bbe c36d 91bc
000002a0: f9c0 833c 88b9 a43f 6ef8 5dbe c0a8 a13c
000002b0: d8d7 85be 457a 2a3e 5a86 21bf c76a ddbe
000002c0: 82b5 763d b96c 5ebd cc2a c43d 1505 58bd
000002d0: 1fda 0c3f 0740 dcbd 5506 f0be 300e 9b3e
000002e0: 3a05 213e 46d2 3dbd d3a6 85b9 fb52 21be
000002f0: c035 cfbe 87d6 bd3e 3b59 843d 49c9 483e
00000300: 0e44 e43d e7cd 963e 44af 9d3e 7db3 553f
00000310: 365c 3a3e cd26 183f eaad 3cbd 06ea 2fbd
00000320: a5dd 403e 3914 52c0 2991 90bc 420d 033e
00000330: 0b93 cdbd f316 5d3d e677 403e c474 943c
00000340: c5bb 123e 37e6 a3be 07de 86bf a6e8 9cbe
00000350: e66a 183e e2bb f83e 725a d83c 5f97 963e
00000360: ba3a 5dbe 41e3 a23e 015e 1a3e ffe3 703c
00000370: 0433 d73d adaf 5dbd f0fe 14be e1f0 6ebd
00000380: 2493 283e a47c d73c 2954 8f3d 0975 c8be
00000390: bbf9 393e 4e10 eb3d cc1f 0ebe d782 8abd
000003a0: db63 21be 45ce c9bd f281 b23c 77ea 42be
000003b0: 9872 59bd fc1d 98bd 45ec b63d 1f4a 773d
000003c0: ca8d 243f aa54 82be b217 71be 259d 303f
000003d0: 567c 343f 8afd ef3e 89f5 adbe 6715 01c0
000003e0: a40a 863e accc 78be d299 f93d 7c40 00bf
000003f0: e303 aa3e 72a3 9bbf 3861 1cbe 92e8 883f
0.18077159 -0.069988094 -0.3596235 -0.91520447 0.6257653 0.025509924 0.95451367 0.06434853
0.36115056 1.1678782 -1.3498932 -0.5101767 0.2359577 -0.23977837 -0.9211147 1.543297
1.3488258 -0.13964167 0.28579724 0.9651205 -1.1425074 -0.0025822597 0.0004483744 0.0076003927
0.0004380844 -0.014153442 -0.29167262 -0.0070154043 -0.0058249626 0.012864476 0.15836588 0.24361211
-0.03515915 0.004055596 0.0024299955 -0.0018635056 0.004028675 0.03562922 0.008393033 -0.0011306648
0.25524566 0.09290832 0.5011753 -0.559862 -0.5764071 0.58371174 -0.062899664 0.26720297
0.29434347 -0.39431843 0.5095043 -0.5403694 -0.12550272 0.7717168 1.6120242 -0.30123028
0.3766404 -0.37827432 0.2447841 -0.1857727 -0.05159256 0.16844605 0.046272404 0.031520735
0.0059445966 0.046812493 0.0083165765 -0.0013345894 -0.071777135 0.002094275 -0.029942622 0.010280168
0.51989883 -0.046545226 0.002531232 0.013739865 -0.0075373915 0.028416079 0.018963482 -0.003888084
1.1554196 -0.20683002 -0.0045143017 0.0068362174 -0.10168105 -0.0059816204 0.047765236 0.0119807
0.1912299 0.015257934 0.036557227 -0.077943794 -0.44997382 0.0055358484 0.016975237 -0.01943436
-0.13729613 -0.03453313 -0.08916469 -0.0058526397 -1.5237813 -0.88008636 -0.34067503 -0.7063336
1.1105561 -2.4268243 -0.5815514 1.1895064 0.035471633 1.4594058 -0.54727614 -0.28568307
0.70987564 -0.76169896 0.44814563 -1.8577048 1.07772 1.2266691 -1.7365521 -0.004480228
0.9211672 0.15459357 -0.04016933 -0.50525874 -0.067051835 -0.022411417 0.026853506 -0.097028606
-0.62985706 0.4036669 0.22356343 0.022678116 0.08825973 0.43757173 -0.0632084 -0.18790564
0.06765055 -0.10197911 0.264529 0.034049444 0.7799632 0.14755885 0.17694137 0.2038218
0.6471339 0.49053714 -0.36214033 0.09227891 0.22387235 -0.061399363 -0.8315735 0.5023858
-0.107154265 0.24729839 0.06521345 -0.056055766 -0.9498212 -0.1614567 -0.34003103 -0.44617775
0.103567585 -0.095819995 0.33464077 0.886012 -2.0061076 0.29934528 -0.13628879 -0.017752534
0.016083227 1.286912 -0.216768 0.019733787 -0.26141238 0.16648205 -0.6309563 -0.43245527
0.060231693 -0.054302905 0.09578475 -0.05273922 0.55020326 -0.107544 -0.4687983 0.30284262
0.1572465 -0.04634311 -0.0002549203 -0.15754311 -0.40470695 0.37077734 0.06462332 0.19608034
0.11145793 0.29453966 0.3079778 0.83477 0.18199238 0.59434205 -0.046064295 -0.04294779
0.1883455 -3.2824843 -0.017647343 0.12798026 -0.10037812 0.053976964 0.18795738 0.018122084
0.14329441 -0.32011577 -1.0536507 -0.30646247 0.14884529 0.48580843 0.026410315 0.29412362
-0.21604434 0.31814006 0.15074922 0.014702796 0.10507777 -0.054122616 -0.14550376 -0.05833519
0.1646238 0.02630455 0.06998474 -0.3915179 0.18161671 0.11477719 -0.13879317 -0.06763237
-0.15760748 -0.09853796 0.021790478 -0.19034754 -0.0530878 -0.07427594 0.089317836 0.06037342
0.6427885 -0.2545522 -0.23544195 0.68989784 0.7050222 0.46873122 -0.3397639 -2.0169313
0.26179993 -0.24296826 0.12187542 -0.50098395 0.3320609 -1.2159255 -0.15271461 1.0695975

weight_ih_l0 f4 [200, 20]
00000000: 9c93 95bf bcc3 48bf 87cb c73b 66a0 aebe
00000010: df42 293f a064 86bf c49f aabe 1e13 013f
00000020: 7c82 a23e e2e8 193e 736c 1c3f 72c4 e93e
00000030: f056 e2bf 3d6f 5e3f 2f5b 5cbe fd95 623e
00000040: 854a 4a3f 42b1 8c3d bfb8 f3be 2411 06be
00000050: 1a28 b8bd 109a 033f 5d92 5e3f 01d3 1d3e
00000060: a168 52bf 8330 7c3d be0c 0dbe 3018 53bf
00000070: 234d 483f 60b7 dbbe 44cb 9e3f 6670 853f
00000080: aeb9 edbe 2115 4f3e 06cd a4bd 3e94 6f3e
00000090: d34a c6bd 718e d8bd b9f9 ef3e 4603 25bf
000000a0: 864d 8f3d a6b8 353e bfdf a0be 656a ea3d
000000b0: d66d 0cbe b1bd ac3d 2857 d0bd 095a 6dbe
000000c0: 3f86 303e 8f7d 753e 04b1 983d f515 223d
000000d0: 7a03 75bd ae4f dcbd 8931 ce3d 32ff 713d
000000e0: 929f ddbc 53e6 ff3d cce4 803e 6f7b 48bd
000000f0: 7e9a 8bbf 13ad ea3e 94b9 5c3d 50f6 913e
00000100: 0ade c33d 467a 5fbe 788e 54bf 1f9b 9abe
00000110: a9e2 07be 075e d8bf 3dda bc3d 4484 0e3e
00000120: c491 773d 0efc 8bbf a9e9 adbe eef9 61bf
00000130: 0b96 2a3e 5c24 9a3e 5649 97bd 4962 9a3d
00000140: 35bf 98be 02df 143f 98d6 4cbe a3cb 213f
00000150: d3fc 143f 1578 1cbf 1155 e7be 4e2d 853e
00000160: b17d f03e 41f1 9cbe ec60 6bbe 0a23 593c
00000170: be3d 5bbe 20a6 4c3e 730a 463e 218e 0c3f
00000180: 17bb 033f 82b7 cf3e 552b 5dbf ab78 f23d
00000190: 228d cebe 580a a9bd 6c19 813e 8709 9bbe
000001a0: 4635 d8bc 61e4 87be 28c4 3dbf a739 0f3c
000001b0: b622 273d d75e f8bc 66f1 133f e634 ed3e
000001c0: cd8e 843c a566 c7bd ad11 1fbc 02a4 07be
000001d0: 8509 113e 523b b33e 8d48 0ebe 4637 89bc
000001e0: b238 54be 3040 bcbf 4b3e 02bf 7e51 3dbe
000001f0: 6b37 423f f389 a03e b4cb 5ebe 3f0d 183d
00000200: 86ba 94bf db56 6f3f 96fa bfbd 5965 363e
00000210: c626 383e eba0 033f bf38 ff3e 7790 e7be
00000220: f2fd 8e3e d6ef 0cbf 43e6 cc3f b1c1 953c
00000230: bad1 0b3e 3409 0bbf fc18 34bd 47a4 113d
00000240: 4390 aebc b1c9 a3bd 13aa 02bd 4e44 49bb
00000250: 1867 103e 7905 d3bb 7b41 4abc 90b1 f7bd
00000260: 12d0 8bbc 4fcb 673e 32cc aabc bfac c03c
00000270: ad94 efbd 2d45 8a3b 72f5 dcbd 89aa da3b
00000280: f638 a1bf cd7e 9b3e da7d 6b3e 2a72 523c
00000290: 5604 9fbf 0dcc babd edde 89be 583e 1bbf
000002a0: 2709 683e e5af c43f b6f2 943e d79e 433f
000002b0: 6a72 39be d509 04be d53b ff3c 98cc b0bf
000002c0: 0ea2 793e 5acd 6cbd e314 61be 6950 23be
000002d0: acc5 2f3f f1fb 91be a3fa 973f 416e 8abe
000002e0: d520 02bf 6416 353f 7371 10bf 813f be3e
000002f0: 6b53 463f 6135 f13d b296 38bf 1919 febd
00000300: d220 e0be 756f 0b3f c482 49bf 7445 b0bf
00000310: f740 1abf 0869 01c0 170d 163e da87 8e3f
00000320: 0b34 cdbd 57f8 f9bd a189 f83d ea67 593e
00000330: c5d3 e2bd 9c67 b7be 5dbd b1bd f7fe ecbd
00000340: 2c97 833e 8043 98be 4d28 be3c 2d19 8f3e
00000350: a772 a0be 2a12 fc3d ea33 b03d 8696 223e
00000360: b8e4 c6bd 3c49 d23d 732b 77be 71e9 92bd
00000370: 61ce 99be 39ab 32be a87e 4abf 4baa dabe
00000380: 7a1e 50bf 24d6 03bf 99f5 aebe 2c1e 8bbe
00000390: 920a 903f de35 fe3e 4c5f ce3f 79ae bbbe
000003a0: 3e87 39c0 c8be ba3f 6e34 6abf 82e4 19bf
000003b0: f972 dabe a1d3 813c 7c91 94be fa7e 99bd
000003c0: 481d ccbe d3ac b2bc 5c90 623e ac18 1d3a
000003d0: 3198 87be dfff b1be 345e 6ebe 50a6 4dbe
000003e0: eb92 743d 0e91 23bd bf09 743e 8e51 343e
000003f0: df97 80bc b376 913d 88ca 00bc 84c6 d1bd
-1.1685672 -0.78423667 0.0060972604 -0.3410675 0.6611766 -1.0499458 -0.33325016 0.50419796
0.31740177 0.15030244 0.6110298 0.45657688 -1.7682781 0.86888486 -0.21519159 0.22127528
0.7901996 0.06869747 -0.47601888 -0.13092476 -0.08992024 0.51406956 0.8694208 0.15412523
-0.821909 0.061569702 -0.13774392 -0.8245878 0.782427 -0.42913342 1.2405782 1.0424926
-0.46430725 0.20222904 -0.080469176 0.23396394 -0.0968224 -0.105740435 0.4687021 -0.6445812
0.06997208 0.17746219 -0.31420705 0.114460744 -0.13713774 0.08434618 -0.10172874 -0.23178877
0.17238711 0.23973678 0.07455638 0.03957172 -0.05981777 -0.10757385 0.10068042 0.059081264
-0.027053628 0.12495103 0.25174558 -0.04894584 -1.0906522 0.4583517 0.05388792 0.28508234
0.09563835 -0.21823987 -0.8302989 -0.30196473 -0.13270058 -1.6903695 0.09221313 0.13917643
0.060441747 -1.0936296 -0.3396733 -0.8827199 0.166588 0.30105865 -0.073870346 0.07538278
-0.2983338 0.5815278 -0.20003736 0.6320135 0.5819828 -0.6112073 -0.45182088 0.26011127
0.46970895 -0.30652812 -0.22986192 0.013252983 -0.21410272 0.19985247 0.19339924 0.5490437
0.5145735 0.40569693 -0.86394244 0.11839422 -0.4034205 -0.08253926 0.25214708 -0.30280706
-0.02639259 -0.26541427 -0.74127436 0.008741773 0.040804587 -0.03031866 0.5779022 0.4632942
0.016181374 -0.09736375 -0.009708804 -0.13246158 0.14163788 0.35006195 -0.13894863 -0.01674999
-0.20724753 -1.4707088 -0.508763 -0.18488118 0.7586581 0.31355247 -0.21757394 0.037122007
-1.1619422 0.93491906 -0.09373967 0.17812099 0.17983541 0.51417416 0.4984798 -0.45227405
0.2792812 -0.5505346 1.600777 0.018280836 0.13654223 -0.5431092 -0.04396914 0.035557058
-0.021309024 -0.07997454 -0.031900477 -0.0030710879 0.14101827 -0.0064398614 -0.012344713 -0.12094414
-0.01706699 0.2263615 -0.020849321 0.023519872 -0.116982795 0.004219672 -0.107890025 0.0066731614
-1.2595508 0.3037018 0.22997227 0.012844602 -1.2423198 -0.09120951 -0.2692789 -0.60642004
0.22659741 1.5366179 0.29091424 0.76414245 -0.18110052 -0.12894376 0.03115646 -1.3812437
0.24378225 -0.057813026 -0.21980624 -0.15948643 0.68661 -0.2851253 1.1873363 -0.27037242
-0.5083135 0.7073729 -0.5642311 0.37157825 0.77471036 0.11777759 -0.7210494 -0.12407131
-0.4377504 0.54466945 -0.7871516 -1.3771195 -0.6025538 -2.0220356 0.14653431 1.1135209
-0.10019692 -0.1220557 0.12135626 0.21231046 -0.11075548 -0.35821235 -0.08678696 -0.11572068
0.25701272 -0.29738998 0.023212576 0.27948895 -0.31337473 0.12308152 0.08603652 0.15877733
-0.097115934 0.102678746 -0.24137668 -0.07173432 -0.30040267 -0.17448129 -0.7909951 -0.42708048
-0.81296504 -0.5149863 -0.3417175 -0.27171457 1.1253226 0.49650472 1.6122832 -0.3665655
-2.8988795 1.4589472 -0.9148625 -0.601143 -0.42665842 0.015847983 -0.29017246 -0.07494922
-0.3986609 -0.021810925 0.22125381 0.0005992751 -0.264833 -0.34765527 -0.23278123 -0.20082974
0.059710424 -0.039933257 0.23831843 0.17609236 -0.015697418 0.07102718 -0.007860787 -0.10242942

weight_hh_l0 f4 [200, 50]
00000000: 63a3 84c0 7bfb 3abf dbf3 56c0 8838 023d
00000010: ef3c c23e 9af5 8dc0 1b33 94bf 704c 8d3f
00000020: 32b2 18bf 46b2 f33f 947b 633f 4698 7e3e
00000030: 34e0 e6bf 6011 fe3e 4b67 e13e 7dc6 5c40
00000040: b4da 8a3f 8112 4d3f 637c 92bf 574a c8bf
00000050: 52e4 16be f595 3a40 c787 a53f a4fe 7f3d
00000060: 9936 0e3f f843 b4bc aa59 b8bf 8eeb 62bf
00000070: 2f7d d93f 95db 95be ced1 04c0 0b62 3fc0
00000080: 01e6 903f 8e20 dbbf bc8a 713e 32b4 583d
00000090: dcbf 0bbf a0d9 253f 1d5a a63e 79a9 00bf
000000a0: 51f6 66c0 c2ed 93bf 4ca1 01bf 952d 133f
000000b0: 5553 e2bf 4b83 90be c972 c0be 4e3e 0040
000000c0: 96c4 6bbf 6da7 353e bf60 04bf 6b47 bcbe
000000d0: f63b 953f 95d8 25be 6cde a23f 0581 5cbe
000000e0: eecc 64bd 95cb d8bd 2827 cdbf 6df7 4b3d
000000f0: 1b21 25bf 0b7d c1be 5578 bb3e 9f2a 7fbf
00000100: 8290 7f3f fb3f 193f 5874 313f 9570 1abf
00000110: b9a4 8abe f2a9 27be 66a9 a43f 769b b73f
00000120: 34e0 d83d 4156 603e 6142 d23e 010c c3bf
00000130: 9827 053e 104d 163f 6657 103f 3023 32bf
00000140: 3ae2 ca3d e347 803e 2ac6 15be 8d5a 0e3e
00000150: 0ee6 853f 6bd3 933f df6a ebbe 8e44 533d
00000160: 1baa f7be 0fc2 053f a957 913f 6f65 9d3f
00000170: b7d0 75be 600a d53e b215 15bf 8bff 3a3f
00000180: fad0 1e40 680e 92bc 2d05 b43e 613b dabd
00000190: aa79 8cbf 33f7 9e3e cd94 a4bf e268 683f
000001a0: 8929 29bf 5aaa ab3f 5ad7 02bf dbfe 183f
000001b0: 922d 74bf cbbc e33e 4f04 81be de73 22be
000001c0: 250d e1bd 4121 a33e 82a2 963f 5837 1fbe
000001d0: 2c6c 843e 2240 c03d b147 3c3e 5477 813d
000001e0: 84a7 8cbe 2b47 36bd f315 54bd 6f2c 3ebe
000001f0: 4fbd a63e cca4 6c3d 74be 553f 64ac d0be
00000200: b34e 21be 8b93 c3bc cc1f 3d3e ac2b 10bc
00000210: b8a8 08bf 7576 073f 9b27 953e a911 513e
00000220: 6f53 d13e cfcf 95be af5c 243e f49d 4e3f
00000230: b266 1040 67fd 2d40 2eb1 2b3e 5209 b43f
00000240: c96d eabd 773c d0be 3fbd b0be 9ac6 b13e
00000250: 91d8 963e da74 21bf 8645 bc3e aa74 5cbe
00000260: ac2d 7abf 19d6 0a3f c2eb a2be 5ba6 d83e
00000270: 70c5 843f 870d bc3f 347b febe 8c8d 2f3f
00000280: dad7 0940 a364 e23d bd46 07bf e2a2 08c0
00000290: fc12 7ebd 0cef 34be e73e bebf 23ee 18bf
000002a0: 7709 c93f a865 64bf 18e5 723f 3139 3ebf
000002b0: b033 7c3d 5e01 cd3e a75c 773f 57c4 01be
000002c0: e42e 3a3f 0711 883f e41d f4bf ee98 fc3d
000002d0: 6214 6f3f 4e63 c1be 2e24 0a3f 3db1 483f
000002e0: 47ac c8bf 1f2c eebe f428 a5bf 4c1f d03f
000002f0: 0e17 113f 52dd 933f 3128 6d3f f09d f03d
00000300: ac5f cdbe 3380 0e40 25f2 8abf d0e4 91bf
00000310: 0687 80be 38bb b1bf 53a5 acbd fbba 243f
00000320: 1438 f43f fec6 edbe 78a1 803f e5ae e0bc
00000330: a8e5 a4bf 7004 033e 358f 483f c14b 56bf
00000340: 4323 d8bf 9418 4a40 9eef c8be b034 7cc0
00000350: 2eb0 6f3f ee99 0140 3b6a cd3f a4ed 6dbe
00000360: e82c acbe 8bbf 1dbe 4005 2ec0 66e6 833f
00000370: 0736 c43f a306 8f3f ccc2 773f 15b9 58bf
00000380: a135 f73e 33bf 663e 19ef 1cbe ffb9 dbbf
00000390: 4ac2 483f 6720 563f e2ee 8c3f d045 6b3f
000003a0: c9c0 8b3e 6f24 903f 20f8 e1be 1088 d73f
000003b0: 6c11 c5bb 016b 02bf 88fe f5bb 5ed0 d73e
000003c0: a614 2840 b18f 393e 5394 d63f 7491 6c3e
000003d0: 240c 703b 322d b63d 3771 b83f 8c92 49bf
000003e0: 683e 723e 33fd b03e 13a9 46bf c581 05be
000003f0: fe39 133e 65a7 4d3e 333b f23f c253 5dbf
-4.1449447 -0.7303998 -3.3586338 0.031792194 0.37937114 -4.4362307 -1.1578096 1.1038952
-0.59646904 1.903878 0.8886044 0.24862775 -1.8037171 0.4962263 0.4402412 3.4496148
1.0847993 0.8010636 -1.144421 -1.5647687 -0.14735535 2.9154027 1.2932061 0.062498704
0.5555206 -0.022005066 -1.4402363 -0.8864068 1.6991328 -0.2926909 -2.0753055 -2.990359
1.1320192 -1.711931 0.23588079 0.052906223 -0.5458963 0.64785194 0.32490626 -0.50258595
-3.608784 -1.1556933 -0.50636744 0.5749143 -1.7681681 -0.2822517 -0.37587574 2.0038028
-0.9209684 0.17739649 -0.5171012 -0.36773238 1.1658924 -0.161959 1.2724128 -0.21533592
-0.0558595 -0.10585705 -1.6027575 0.04979651 -0.6450364 -0.37790713 0.36615244 -0.9967441
0.99829876 0.5986325 0.6931815 -0.60328037 -0.27078798 -0.16373423 1.2864196 1.4344318
0.10589638 0.21907903 0.41066268 -1.5238038 0.13003385 0.5871134 0.5638336 -0.6958494
0.099064305 0.25054845 -0.14626375 0.1390173 1.0460832 1.1548895 -0.45979974 0.05157905
-0.48371968 0.52249235 1.1354877 1.229658 -0.240054 0.41609478 -0.5823623 0.7304618
2.481505 -0.017829135 0.351602 -0.10655857 -1.0974629 0.31047973 -1.285791 0.9078504
-0.66079 1.3411362 -0.5110985 0.5976388 -0.95382035 0.44479975 -0.251986 -0.15864512
-0.10988835 0.31861308 1.1768343 -0.15548456 0.2586378 0.09387232 0.18386723 0.06321588
-0.27471554 -0.044501465 -0.051778745 -0.18571638 0.32566306 0.05777435 0.83493733 -0.40756524
-0.15752678 -0.023874065 0.18469161 -0.008799475 -0.53382444 0.52915126 0.2913178 0.20416893
0.40883967 -0.29260108 0.16050981 0.8070977 2.256268 2.7185915 0.16766807 1.4065344
-0.11446721 -0.4067113 -0.34519383 0.34721833 0.29462102 -0.63068926 0.36771792 -0.21528879
-0.9772594 0.5423294 -0.31820494 0.4231442 1.0372753 1.4691628 -0.49703372 0.6857536
2.1537995 0.11054351 -0.52842313 -2.1349416 -0.062029824 -0.17669314 -1.4862946 -0.5973837
1.5706013 -0.89217615 0.9488082 -0.7430602 0.06157273 0.40040106 0.9662575 -0.12672554
0.727278 1.0630196 -1.9071622 0.123338565 0.93390477 -0.37771076 0.53961456 0.78395444
-1.5677575 -0.46518037 -1.2903123 1.6259551 0.56675804 1.1551917 0.9263945 0.11748874
-0.40112054 2.2265747 -1.0855147 -1.1397953 -0.25103015 -1.388526 -0.084299706 0.6434781
1.9079614 -0.46440881 1.0049276 -0.027427146 -1.2882586 0.12794662 0.78343517 -0.8370934
-1.6885761 3.1577501 -0.39245313 -3.9407158 0.93628204 2.0250201 1.6048044 -0.23235184
-0.3362801 -0.15405099 -2.7190704 1.0304687 1.5328988 1.11739 0.9678161 -0.8465741
0.48283103 0.22533874 -0.15325584 -1.7166137 0.7842146 0.8364319 1.1010401 0.919034
0.2729552 1.1261119 -0.44134617 1.6838398 -0.0060140397 -0.50944525 -0.007507149 0.4215116
2.6262603 0.1812122 1.6764015 0.23102361 0.003662833 0.08895339 1.440955 -0.7873924
0.23656619 0.34568176 -0.77601737 -0.13037784 0.14377591 0.20083387 1.8924316 -0.8645593

bias_ih_l0 f4 [200]
00000000: 40f4 363f ecd7 4f3f b3d0 943f 9706 fc3e
00000010: 1dfe 823e 086b 1b3f 93e1 b43e f0b9 703e
00000020: 8502 ef3e e774 223f f635 c33d ab28 f13e
00000030: 0b24 383e 9332 a6bd eb0a 303f 775b 9a3f
00000040: c301 a2be 2186 a53e 9ba9 4ebe f724 513f
00000050: 3fbc 9dbe 6f86 8fbc b3b4 d13e 50eb 173e
00000060: f505 553d f40f e93e 15b4 e73e 434f 4e3e
00000070: 135a aa3d 97cd 0d3e 8f93 fa3e e4d5 113f
00000080: 2e8c 7dbe 7f6e 113f 84ff 9e3e 4f3a fd3e
00000090: b866 f4bd 4023 833f 0cf5 1a3e 7738 e63d
000000a0: 51ca 27be 412e 8fbc 62b7 f53e 0ebd 60be
000000b0: 8306 613e 29fd 6ebe d884 973f 695d 3e3f
000000c0: 16c9 073e b984 503e 990b a73e 863c 1ebf
000000d0: 56b1 0c3f 2118 253f 6419 393e b11d 8abe
000000e0: 5143 3a3f 49c5 0cbd 0667 8bbc c220 fe3d
000000f0: 1dca a03d d056 0c3e 341e fb3e 69f0 6b3e
00000100: 84f8 273d ad16 dc3e 5c06 1a3f 1051 6a3d
00000110: 5166 e43d 9840 8bbe 6990 ef3e 2b53 203f
00000120: 5270 af3e 5d6f 273d a59f 80be a179 0a3e
00000130: f6b0 80bd c66d 54be 2d0d 9fbf 17f9 d23e
00000140: 150f d13d 070c 0abe 0726 d5bd ad33 65be
00000150: 924e ae3e 4ede d83e 11a1 88bd b257 3abf
00000160: 2b77 b23e 5d1a 22be 6bf4 f8be 130b 19bf
00000170: 6a28 9a3e 541a f53e cceb f53e a0d8 85be
00000180: d45f 113f 4e1f 203e 98a6 25bf 8006 4fbe
00000190: b6e6 dfbe 080c b73e c802 bfbd e32f 8fbe
000001a0: a9dc 34bd 0b34 a5be 7027 013f b31c 243f
000001b0: 68e2 74be b326 0bbd 58b1 a4be 0d40 01be
000001c0: 847a 81be 19fa d7be f89b af3d 0b92 a13d
000001d0: 8540 573f 00ac bebe 3cf0 9bbd 1c8c 063f
000001e0: 1057 4f3e 6578 283f 4c7a bfbd a4af a23e
000001f0: f65b 0c3f b63b 34be b857 d3be 0c6d 7f3e
00000200: 5335 5e3d 195a afbe 3f13 c33e 70e3 6b3e
00000210: 865b e7bd b1a5 4abf fc66 443e 697c 323e
00000220: 4ad4 60be 05b1 153e 9f41 d1bd cf41 a13e
00000230: 4e0a 6a3e 8dfa 9dbc 4dca c13d 0a88 9c3e
00000240: eb33 65bf ad98 263e f469 2e3e ab9a bcbe
00000250: 5ff4 0f3f f7f7 09be fb78 0b3d 9294 853f
00000260: c069 743f 2eb0 223f 26a9 8dbe 6812 7bbe
00000270: a0d1 b4be 54dd df3e 7c82 093f 74dd adbe
00000280: d548 8fbd 8938 663f 72e6 78bf 80e0 a23f
00000290: cafd bf3f c0ef 31bf 0104 76bf 7acd 0bbf
000002a0: 301c 40bf d748 2cbf e817 013e 2079 363f
000002b0: 230e d73c a296 b5be bdc5 52bf 850e f1be
000002c0: 66cb 213f 2946 5a3f be88 063f 2e20 f53e
000002d0: f14e 50ba ddb6 de3e bfba 153f 0e1b 1fbf
000002e0: 1164 963f 124f 913f f750 723f 3847 6c3f
000002f0: 58b3 533f 11d6 2bbe 89c0 56be a994 023f
00000300: de18 043f bca9 01bf 2c9d 5fbc d353 0d3f
00000310: 1ae0 6e3d 40aa a8bd ce8d b13f c017 1f3f
0.71466446 0.81188846 1.162619 0.49223778 0.25584498 0.6071019 0.3532835 0.2350843
0.4668161 0.6345963 0.095317766 0.4710134 0.179825 -0.08115115 0.6876666 1.2059163
-0.3164197 0.32328895 -0.20181887 0.8169703 -0.30807683 -0.017520158 0.40958175 0.14835858
0.052007634 0.45519984 0.4525458 0.20147423 0.083179615 0.13847958 0.48940703 0.56966996
-0.24760506 0.5680923 0.31054318 0.49458548 -0.119336545 1.0245132 0.1513254 0.112412386
-0.16385771 -0.01747811 0.47991472 -0.21947119 0.2197514 -0.2333876 1.1837416 0.7436128
0.13260302 0.2036313 0.32626036 -0.618111 0.54958093 0.6448994 0.18076092 -0.26975778
0.72758967 -0.034367833 -0.017016899 0.12408592 0.0785105 0.13704991 0.4904648 0.23040928
0.041008487 0.4298605 0.60165954 0.057206213 0.11152328 -0.2719772 0.46789864 0.62626904
0.3426538 0.04087769 -0.251218 0.1352296 -0.062837526 -0.20745 -1.2425896 0.41205665
0.10207955 -0.1348115 -0.10407644 -0.22382994 0.3404432 0.42357105 -0.06671346 -0.7279006
0.34856543 -0.1583037 -0.48623976 -0.5978252 0.30108958 0.4787165 0.4803146 -0.26141834
0.5678685 0.15636942 -0.64707327 -0.20217323 -0.43730706 0.35751367 -0.09326702 -0.27966222
-0.04415575 -0.32266268 0.504508 0.6410629 -0.23914492 -0.033972453 -0.32166553 -0.1262209
-0.25288785 -0.42182997 0.085746706 0.078891836 0.84082824 -0.372406 -0.076141804 0.5255754
0.20248055 0.6580871 -0.09349498 0.31774628 0.5482782 -0.17600903 -0.41277862 0.24943942
0.054250073 -0.34248427 0.3810062 0.2303598 -0.112967536 -0.79159075 0.1917991 0.17430271
-0.21955982 0.14618309 -0.10217594 0.3149552 0.22855493 -0.019284511 0.09462414 0.3057254
-0.89532346 0.16269179 0.17032605 -0.36836752 0.56232256 -0.13473497 0.034050923 1.0435965
0.9547386 0.6355008 -0.27668113 -0.2451874 -0.3531618 0.43723547 0.5371473 -0.33958018
-0.069963135 0.89930016 -0.9722663 1.2724762 1.4999325 -0.69506454 -0.9609986 -0.5461041
-0.7504301 -0.67298645 0.12606776 0.7127857 0.026251858 -0.35466486 -0.82332975 -0.4708139
0.63200986 0.85263306 0.525524 0.47876114 -0.00079463335 0.4349889 0.58488077 -0.6215066
1.1749288 1.1352255 0.9465479 0.9229617 0.8269553 -0.16780879 -0.20971884 0.5100809
0.51600444 -0.5064962 -0.013648313 0.5520603 0.05831919 -0.082355976 1.38714 0.62145615

bias_hh_l0 f4 [200]
00000000: 74be 193f 471e 4f3f 3f22 723f a0b8 283f
00000010: 1d2b 8b3e e1d7 503f 5d87 d73e 6dfe bf3e
00000020: 2c13 f73e ca2b 133f e2ff 9c3e e6a6 823e
00000030: 4d24 223e ebdb da3d 0638 2e3f 968f 893f
00000040: 93e4 e4be 30e6 373e fc43 83bd 49ad 413f
00000050: 5762 53be 1cab d1bd f67b d03e 2362 9c3e
00000060: 520c 893d 3c42 1b3f aaeb 2c3f 2a90 d33d
00000070: 88b0 0f3e 5fd9 503e 4861 ff3e 23ba 193f
00000080: efa7 e4be 6519 bd3e 7664 f03e 9400 ad3e
00000090: 917f 78be 7243 693f 7178 743d 99a8 8b3e
000000a0: 39c8 8abe 0f41 643e 7184 013f 0211 cebe
000000b0: 06cb 873e 6f00 e2bb f290 8d3f b287 6f3f
000000c0: c68a 993d 0b9c b43e 5141 063f 654b 38bf
000000d0: 8e7a 0d3f e1cb 0b3f 7eed 103e 54c7 adbe
000000e0: d6c0 393f f3cd 8c3d e36e 00be b37d 9ebc
000000f0: 5dd0 343e 1018 bd3e 3593 023f 6582 323e
00000100: abbf dc3d e09a bd3e 09a8 0a3f ee78 1d3d
00000110: c90e a63e 11c6 edbd dfb3 d33e b9be 203f
00000120: 30af 0e3f 3438 33bd 2df2 a7be 8e38 693e
00000130: 4f21 b7bd cc46 9bbe e853 8dbf c022 c93e
00000140: 4c45 ae3e 1bb7 f73c bf7d 8f3d 98f5 c0be
00000150: 6e9b f63e b4fd a23e 5c38 9f3c 78c7 6fbf
00000160: 87c7 b13e 49d5 cdbe 6f21 25bf 03df fdbe
00000170: 2635 bb3e a830 c73e c1f8 253f fbcf c1be
00000180: e364 153f 5474 8b3e 9196 26bf fa2d 6ebe
00000190: 33ff 29bf 6591 aa3e 31b9 313d 4662 58be
000001a0: 811d 9b3d 2d25 a1be e73d c43e 7060 2b3f
000001b0: 3df2 a6bd bce1 97bd c4d1 6cbe aa7e 6abd
000001c0: 98f2 54be 6da2 afbe 3a3c 803e 4564 a83c
000001d0: 3af8 713f 0284 45be 483f cdbc aae5 f43e
000001e0: 3812 713e 593b 193f 3380 9c3d af07 b53e
000001f0: e7e0 3b3f e15a c7be 1427 7fbe 55ed a13e
00000200: 3c4c d8bd e278 d0be 3c2b bd3e 9deb 4b3e
00000210: f522 7dbd 1f4a 1ebf 3e2e 8e3d 643d 023e
00000220: a0e8 1bbc e9ff d8bd affc 08be 5ed1 173e
00000230: f769 cd3d 2cec 6dbd ada4 533e 4f67 4f3e
00000240: 4405 5ebf e4cb 913e 0e06 593e a7a6 cabe
00000250: 0a77 e23e 87f7 98be fb6a 21bd 9115 8d3f
00000260: 238d 583f 7860 1c3f 60d8 8bbe d2ff 58be
00000270: 2c8d afbe 57af d33e e6f8 163f 1f43 91be
00000280: 113d 63bd 53c8 4c3f 4f7c 69bf f2dc 913f
00000290: 1a5e b13f fd1e 19bf 4f1d 74bf f9ab 1fbf
000002a0: 99cc 16bf f148 43bf b18a 913e 7741 6e3f
000002b0: 97eb 1bbd 54b7 fabe 6ccc 43bf 07e9 8fbe
000002c0: 3b9d 203f a2cb 503f 2ca9 df3e 5928 b13e
000002d0: a114 9a3b 8c7f a83e 798e 1c3f 9b70 1dbf
000002e0: aa07 893f 631f a43f a9db 723f 4e98 483f
000002f0: c774 683f 92c1 aebe 3a6d c5bd 0fba 013f
00000300: a636 b83e 78a1 29bf b625 c3bb 61b1 9e3e
00000310: 8fc5 323c 1b69 313d 34f5 ad3f 1632 643f
0.60056233 0.80905575 0.94583505 0.65906715 0.2718133 0.81579405 0.4209546 0.374988
0.48256814 0.5748869 0.30663973 0.25517958 0.1583416 0.10686477 0.68054235 1.0746944
-0.44705638 0.17958903 -0.06409451 0.7565504 -0.20642982 -0.10237715 0.40719575 0.30543622
0.06691803 0.6064794 0.67547095 0.103302315 0.14032185 0.2039542 0.49878907 0.6004965
-0.44659373 0.36933437 0.46951646 0.33789504 -0.24267413 0.9111854 0.059685174 0.27277067
-0.27105883 0.22290443 0.50592715 -0.4024735 0.26522082 -0.0068970243 1.1059859 0.9356643
0.07497172 0.352753 0.52443415 -0.7199004 0.5526513 0.5460797 0.14153096 -0.33941138
0.7255987 0.06875219 -0.125423 -0.019347047 0.1765761 0.3693242 0.5100587 0.17432554
0.10778745 0.37032223 0.5416265 0.038445406 0.32433155 -0.11610044 0.41348168 0.6279102
0.55736065 -0.04375477 -0.32801953 0.2277548 -0.089419 -0.3032745 -1.1041231 0.39284325
0.34037244 0.030238679 0.07006406 -0.37687373 0.48165458 0.31834185 0.019436054 -0.9366374
0.3472254 -0.40201786 -0.6450414 -0.49584207 0.36563987 0.3890431 0.64832693 -0.3785399
0.58357066 0.2723719 -0.65073496 -0.23259726 -0.6640503 0.33314052 0.043389503 -0.21131238
0.07573987 -0.31473675 0.38328478 0.66944027 -0.08151672 -0.07416102 -0.23126894 -0.057249703
-0.20795667 -0.3430361 0.2504595 0.020555625 0.9451939 -0.19288638 -0.025054589 0.4783147
0.23542106 0.5985618 0.076416396 0.35357425 0.7339005 -0.38936523 -0.24917251 0.31626382
-0.105614156 -0.40717226 0.36947048 0.19914098 -0.061800916 -0.6183185 0.06942414 0.12718731
-0.009515911 -0.10595686 -0.13377641 0.14825961 0.10029977 -0.05808656 0.20668288 0.20254253
-0.86726785 0.2847587 0.21193716 -0.3958027 0.44231445 -0.29876348 -0.039408665 1.1022207
0.8459036 0.610847 -0.2731352 -0.21191338 -0.34287393 0.4134471 0.5897354 -0.28371522
-0.05547816 0.7999317 -0.91205305 1.1395552 1.3856843 -0.5981291 -0.9535722 -0.62371784
-0.5890594 -0.76283175 0.28426126 0.9306864 -0.038066473 -0.48967993 -0.764838 -0.28107473
0.62739915 0.8156072 0.43683755 0.34601095 0.004702166 0.3290981 0.61154896 -0.6149995
1.0705464 1.2822078 0.94866425 0.783574 0.9080319 -0.34132057 -0.09639974 0.5067453
0.35979193 -0.66262007 -0.005955423 0.30994704 0.010911359 0.043313127 1.3590455 0.89138925

weight f4 [74, 50]
00000000: ac68 823e d50b 59bf 7fdd da3e 3e73 663e
00000010: 7f31 023e cba0 9dbe dbd8 efbe 28dc bdbe
00000020: 1a0a 2a3e 0601 fabe 9d42 6c3e bfdd d3be
00000030: e134 2b3e 0c85 6b3e 175a 593e 8f6a bebe
00000040: 4748 09bf c1b9 b03e 953b 88be a291 67be
00000050: 92c0 a8be e486 fabe c9c1 8b3e 3b74 cebe
00000060: 1934 863c ff05 1b3f 29df 47be 31dc 893e
00000070: 8598 8ebe 5b6c 8e3e 1ace 46be 54a8 acbe
00000080: 30cd 103f 5bd0 043d 32b9 cfbd 8d02 8d3e
00000090: b35d ddbe 58d5 25bf 971b 843e 431f b8be
000000a0: d904 cdbe 48a9 a9be f2fc 6f3f 254e 4fbe
000000b0: e974 903e 3e1f 5ebe 13a4 02be 2cf3 c0be
000000c0: 52f5 dabe b3dc e63e e352 853e d4ca 5fbf
000000d0: 9841 a63e 2483 ab3e 7181 853e abf6 9ebe
000000e0: 6c40 86be 67dd 89be 708c d23d d0c6 f1be
000000f0: d525 8e3e e5a6 f9be 93a7 513e b662 a53e
00000100: 82bf 203e 0e15 b2be 1b7c 03bf e1ce 493e
00000110: 1f77 51be b94f 92be af05 cbbe 6fbe 0bbf
00000120: 91c7 2a3e 0a91 dcbe 7b8c 86bd ed1d 133f
00000130: 4330 00be b483 b13e 42be b2be c9f6 c93e
00000140: 0dc9 35be 4f66 c1be dbbc 043f d505 ea3d
00000150: f23b 9bbd 657a 4c3e 2400 95be 0588 3fbf
00000160: 6d0e 593e 870f d4be feb9 9ebe 4fd9 03bf
00000170: 27ed 913f 23a0 6cbe 54d4 863e f281 a7bd
00000180: 5e7a 84be 513e eabe 7183 9ebe f359 f73e
00000190: 8b26 b2be eb58 ef3e 9753 05c0 fe5f 97be
000001a0: cd77 88bf 5894 a7be b032 26c0 e4bd a3be
000001b0: 2777 bbbe 5940 e9bf cd2e a0bf 0fcd b9bf
000001c0: 0bd5 913f 7d75 193f 7738 61bf af5c 37bf
000001d0: 21ba 19bf 50b3 d7bf edcc 203f b038 f0be
000001e0: 5c7c 8f3f 1bfe ad40 959e 2fbb 2c04 193e
000001f0: da66 843f ba1e 95be 25aa d3be ab4a d0bd
00000200: 063a eebe 1da4 ff3e ca3d adbf 5ae2 2a3f
00000210: ed6f 01c0 b50d bcbe 39bf c7bf bbed 6b3d
00000220: 4aa1 25c0 428e b9bf 3c6c 2e3e 27b9 4bbf
00000230: 1399 903f bfd1 9e3f 45f0 6dbf 4aa1 32be
00000240: 4a46 5c3f d4d3 14c0 d672 d4bd 4399 2b3e
00000250: 689f 303f c31b 09be 164f 913d 691f 553f
00000260: 0112 db3f 925b 47bf 2583 9e3f c9f7 8fbf
00000270: b8c7 0840 9256 10c0 b5f4 99bf ab71 2c3f
00000280: 7f2f 75be 13d7 e9bf ac34 6640 441f 8340
00000290: 8254 f43f e4e8 eebf e9ed 89c0 317b 763f
000002a0: be3b a5bf f95a 9cbf 3429 453f 7ed5 203f
000002b0: b527 4940 a50a 0ac0 19fd 57c0 3415 9d40
000002c0: 7e93 d8bf 3aee 1540 1b68 ca3f 82d2 4cbe
000002d0: dc58 983f 8447 443f 3c83 3abf 860e 45bf
000002e0: d761 eabf 61dc d03f 227f 92c0 bffd 2440
000002f0: 45e1 8fbd fd0c 81bf 81ad 823f 7965 a33f
00000300: 012d 1040 22b1 743d 9103 dc3c 3221 f23e
00000310: 03cb 93c1 296c 02c0 74e6 3fbe fa92 8240
00000320: c51a a8bf 8821 36be 664f efbe 2223 47bf
00000330: 5e31 69bf 1bc4 1b3f 78de f43e 99c3 683f
00000340: 0882 5c3e 75b5 b8bf 4efe 0f3f f4a7 a13e
00000350: ee7a 02c0 674b a4bf 7747 4a3e 2e82 093f
00000360: 3482 2b3f 10a5 0dbf a541 3dbe 5fbf 883f
00000370: 0882 433f 3c24 86bf fec6 c73d 2238 c43d
00000380: 185d 4c40 ebfa 18bf 49bf ef3d d676 3a40
00000390: a2fe 683f eeda 5bbe f3ab 743f 2938 953f
000003a0: 6e98 353f c83c e2be f223 7fbf aafe 143e
000003b0: 1c22 b53f 69c8 ecbe f05f 08bd fc7b 0140
000003c0: 7f96 853f c635 8d3e dac8 653f 8051 5c3f
000003d0: e9e6 a2be 985e 943f edc4 f03e b573 693f
000003e0: 9f52 60be 30a8 163f 50bc ec3f 2f5e 5fc0
000003f0: 50ec de3e f3c7 c6be 0aa8 47c0 3a71 d2bf
0.25470483 -0.8478368 0.42747113 0.22504899 0.12714194 -0.30786738 -0.46845135 -0.37082028
0.16605416 -0.48828906 0.23072286 -0.41380116 0.1671939 0.22999972 0.21225773 -0.37190673
-0.5362591 0.3451672 -0.26607957 -0.22614148 -0.3295942 -0.48931038 0.27296284 -0.40323052
0.016382264 0.60556024 -0.19518723 0.26925805 -0.27850738 0.27817044 -0.19414559 -0.33722174
0.5656309 0.032425266 -0.10142745 0.2754101 -0.4323555 -0.6477866 0.258023 -0.3596135
-0.4004276 -0.33136964 0.9374534 -0.20244654 0.28214195 -0.21691605 -0.12757902 -0.37685525
-0.4276529 0.45090255 0.260398 -0.87418866 0.3247192 0.3349849 0.26075318 -0.31047568
-0.26221025 -0.2692673 0.102806926 -0.47221994 0.2776324 -0.48760143 0.2047408 0.32301873
0.15698054 -0.34781688 -0.51361245 0.19707824 -0.20455597 -0.2857645 -0.39652774 -0.54587454
0.16677691 -0.43079406 -0.06569763 0.5746754 -0.1251841 0.34670794 -0.3491078 0.39446095
-0.17752476 -0.37773368 0.5185067 0.114268936 -0.07579793 0.19968565 -0.2910167 -0.74816924
0.21196909 -0.41418096 -0.31001276 -0.5150346 1.1400498 -0.23107962 0.26333869 -0.08179082
-0.2587461 -0.4575067 -0.30959657 0.48310813 -0.3479503 0.46747527 -2.083227 -0.29565424
-1.066156 -0.32730365 -2.5968437 -0.31980813 -0.36614344 -1.8222762 -1.2514282 -1.4515704
1.139314 0.599449 -0.87976784 -0.716258 -0.60049635 -1.6851597 0.6281269 -0.4691825
1.1209826 5.4372687 -0.0026797403 0.14942998 1.0343888 -0.29125005 -0.41340747 -0.10170492
-0.46528643 0.49929896 -1.3534482 0.66751635 -2.0224564 -0.36729208 -1.5605232 0.057599764
-2.5879693 -1.4496539 0.17033476 -0.79579395 1.1296715 1.240776 -0.9294475 -0.1744434
0.8604475 -2.325429 -0.10373466 0.16757683 0.68993235 -0.13389497 0.070951626 0.83251053
1.7114869 -0.778741 1.2383772 -1.1247493 2.1371899 -2.2552838 -1.2027804 0.67360944
-0.239439 -1.826876 3.5969648 4.0975666 1.908829 -1.8664823 -4.310292 0.96281725
-1.2908857 -1.2215263 0.77015996 0.62825763 3.1430485 -2.1568997 -3.3748229 4.9088383
-1.6920011 2.3426652 1.581302 -0.20002177 1.1902118 0.76671624 -0.728565 -0.76975286
-1.8311108 1.6317254 -4.578019 2.5779874 -0.07025389 -1.0082089 1.0209199 1.2765342
2.2527468 0.05973924 0.02685717 0.4729095 -18.474127 -2.0378516 -0.18740255 4.0804415
-1.313317 -0.17786229 -0.46740264 -0.77787983 -0.91090953 0.6084611 0.4782598 0.9092346
0.21533978 -1.4430376 0.56247413 0.3157345 -2.038753 -1.2835511 0.19753824 0.53714263
0.6699555 -0.5532999 -0.18482073 1.0683402 0.76370287 -1.0479808 0.097547516 0.09581019
3.193182 -0.5975787 0.117064066 2.9135032 0.9101354 -0.21470234 0.95574874 1.1657764
0.70935714 -0.44186997 -0.99664223 0.14550272 1.4151034 -0.4624665 -0.033294618 2.0231924
1.0436553 0.27580088 0.897596 0.8606186 -0.31816795 1.1591368 0.47025242 0.9119218
-0.21906517 0.58850384 1.8494968 -3.4901235 0.43539667 -0.38824424 -3.1196313 -1.6440804

bias f4 [74]
00000000: 6422 63be aa91 abbe 804c 873f 3432 8b3d
00000010: 8a92 ae3e deda eabe 24bd 923d c493 a63e
00000020: fa6c 2c3f 138a 123e 3c45 50be 6aac 843d
00000030: 9b16 1ebe b2f5 173d f050 1c3f 59e1 883d
00000040: fd7e d1be a514 87be c265 013f c2a1 933d
00000050: 8085 01be 10fa 27bf 0703 1d3f 9d6a dabd
00000060: ae8c 10bf 4e55 143f bee0 f5bd 1410 be3e
00000070: a373 34bf bd6f f33e 2d2c 42bf f7f3 4bbf
00000080: e951 e83e fbf5 f8be 0427 43bf 25e5 39bf
00000090: ac19 a0bf 7a9b 96be 7d7b 8bbe 7cbd a8be
000000a0: 1533 65be 4837 52be a06b 9cbd 1257 cdbd
000000b0: dd15 2dbe 8cf5 1ebe 9b63 89be d3c1 aebe
000000c0: cc60 98be 08ea c0bd 16a2 5dbe 13c5 8dbe
000000d0: c849 86be b03d 73be 7bf1 19be 63c7 97be
000000e0: f64b 1ebe 9e15 b6be 040c bdbd 5757 eebd
000000f0: a88a c5be 3f6a 29be 6e59 71be 3de6 c0bd
00000100: c0ac 32be cc96 a9be b9bf 9cbe 9735 2ebe
00000110: 95e8 49be b76d 81be bdb8 a5be 450e cabd
00000120: d825 52be 3bf4 13be
-0.22181088 -0.3350957 1.0570221 0.06796685 0.34096175 -0.45870107 0.07164982 0.3253461
0.67353785 0.14310484 -0.20338911 0.06478198 -0.15438311 0.037099548 0.61061 0.06683607
-0.40917197 -0.26382938 0.50545895 0.07208587 -0.12648582 -0.6561594 0.61332744 -0.10664866
-0.5646466 0.57942665 -0.12005757 0.37121642 -0.7048895 0.47546187 -0.75848657 -0.79669136
0.45374992 -0.48625168 -0.7623141 -0.7261527 -1.2507834 -0.29415494 -0.27242652 -0.32957065
-0.22382767 -0.205289 -0.07637715 -0.10026373 -0.16902871 -0.15523356 -0.26833805 -0.3413225
-0.2976135 -0.09419638 -0.21643862 -0.27689418 -0.26228166 -0.23754 -0.15033524 -0.29644307
-0.15458664 -0.35563368 -0.092308074 -0.116377525 -0.3858235 -0.16544436 -0.23569271 -0.094189145
-0.17448711 -0.3312286 -0.30615023 -0.1701263 -0.19717629 -0.25279018 -0.32367507 -0.09866003
-0.20522249 -0.14448635

weight f4 [35, 2]
00000000: e864 c6be 2c3b 083e 32cc cd3e d4e8 543e
00000010: 82f2 cb3e a847 24be d8ee 10bf 1e28 cb3e
00000020: cf3c 29bf 305e 223d bfd7 1d3f 2ab4 d43e
00000030: 20e4 d13d 1c42 b2be 890e c0be 8371 223f
00000040: e0a7 cfbc d6b1 10bf cb0c 063f 96d7 12bf
00000050: ccee 093e 3de9 84be 3721 1e3f 3ab9 cc3e
00000060: 0071 95bc 7465 22bf 80f9 ccbc 0022 7abd
00000070: c430 26bf 6012 503d 6881 fd3d 08ae 1d3e
00000080: 00e0 093c 4b88 303f 9cf9 38be 3038 f7be
00000090: 9c3c 313e ecea 3dbe a633 a23e 3e53 d03e
000000a0: e6b8 76be 71f0 1a3f 6089 8f3e 9a21 d83e
000000b0: 67ac 193f 5a9b 1abf 489e e83d 5a15 c03e
000000c0: c87c 633e 879b 1abf e8f9 db3d c23b e0be
000000d0: 9866 89be 3d60 27bf dd2c 163f a0e6 51bd
000000e0: 8d6b 1c3f a7a1 e1be e732 e5be ddfa 0a3f
000000f0: 28b1 dbbd 5585 0cbf 1f0f 16bf ace8 3b3e
00000100: 7cf7 f7be 9c7a 8abe d6cf 9b3e f892 023e
00000110: b2c3 95be c54b 133f
-0.3874886 0.13303822 0.4019485 0.20791942 0.39833456 -0.1604296 -0.56614447 0.39679044
-0.6610841 0.039640605 0.6165733 0.41543704 0.102485895 -0.34816062 -0.3751109 0.63454455
-0.025348604 -0.56521356 0.5236327 -0.5736021 0.1347 -0.25959197 0.6176943 0.39985067
-0.01824236 -0.63436055 -0.025021315 -0.06106758 -0.6491816 0.050798774 0.12378198 0.15398419
0.008415222 0.68957967 -0.18063968 -0.48285055 0.17308277 -0.18546647 0.3168003 0.4068851
-0.2409397 0.60523134 0.28034496 0.42213136 0.6002869 -0.603933 0.11358315 0.3751629
0.22215569 -0.60393566 0.10741025 -0.43795592 -0.26836085 -0.6538122 0.58662206 -0.05124533
0.6110161 -0.44068643 -0.44765398 0.54289037 -0.10727149 -0.5489095 -0.5861682 0.18350476
-0.48431003 -0.2704667 0.30432004 0.12751377 -0.29250866 0.5753749

bias f4 [35]
00000000: 32f1 e4be 8011 ec3b 2f12 adbe 8e56 cebe
00000010: da22 913e 48a9 7ebe 8a00 16bf 801e b1bb
00000020: b06e e3bd a0eb 03be 3efd 8f3e 145f 29bf
00000030: ee11 e53e c618 d93e 50ce 813d 1cf7 4bbe
00000040: 28ff 24bf 5c82 893e 9efd 913e a691 ee3e
00000050: 8829 e33d 8084 b83c 4998 bdbe 8aee c43e
00000060: b9e6 2f3f 80d0 7c3d 0e12 f63e 8e2b e33e
00000070: d7e1 06bf cb68 263f 44cb 4cbe 5e29 2fbf
00000080: c623 10bf d245 b43e 6bb6 92be
-0.44715267 0.0072042346 -0.33802935 -0.4030041 0.28346902 -0.24869263 -0.5859457 -0.005405247
-0.11105096 -0.12882853 0.28122896 -0.661607 0.44740242 0.42401713 0.06338179 -0.19918483
-0.6445184 0.2685727 0.28513807 0.46595496 0.11091906 0.022524118 -0.37030247 0.3846324
0.6871143 0.06172228 0.4806065 0.44369167 -0.52688354 0.6500365 -0.19999415 -0.68422496
-0.56304586 0.3520952 -0.286548

weight f4 [50, 35]
00000000: d002 093e d8dc 2a3e f8ae cfbc 3676 8abd
00000010: 600d 4ebd 7fcf 9bbd d83c 153e 88ca b6bd
00000020: 8835 e5bc af5a c9bd 66ae abbd c886 81bc
00000030: ccf6 dfbd e079 e63b 00dc 1cbc fd9a ecbd
00000040: 30fb 68bd c026 b63d 4bc7 c0bd 7026 083d
00000050: 3e54 d4bd 9c1e 213d c849 a93d 604b dcbd
00000060: b457 d6bd 4250 1fbe d9ef 18be 6867 1dbe
00000070: 302d 403d 7cd6 d3bd cf69 dabd cc74 ecbd
00000080: c4c9 b63d 974f d1bd 982e 0c3d e8aa b3bc
00000090: d1bb 0abe 6c2f bbbd f4c1 24bd 12a8 10be
000000a0: 1a93 1c3e 228e 223e 031a 26be dc5f e83d
000000b0: 74df 043e 60a2 fdbb b039 d63d e854 763d
000000c0: 5050 643d cc6e ff3d a190 04be 2823 f63d
000000d0: 5872 f53c 28d5 e2bc 807f 12bb 38d8 243e
000000e0: 364d 14be c0c6 b03c 0078 973c 6587 03be
000000f0: c19a 2cbe c8c0 d8bd 3490 90bd 80df b93d
00000100: 9bc2 e4bd a649 133e a24f 56bd ab15 d8bd
00000110: 001e ac3c f0bd aebd d8af eb3d 3bae 90bd
00000120: 3cec 143e 7837 1cbe 977e acbd d069 9d3c
00000130: 4045 7dbd 200a dc3d b81e 4f3d c80b 25be
00000140: 88a4 d93d 3862 193e 94a6 fe3d 6244 6fbd
00000150: a207 0fbe f8e5 1d3d 5803 873c 125b 9d3d
00000160: 77e0 d4bd 742e b9bd 7066 713c 3e0a 1ebe
00000170: a887 9b3d e0e3 dbbb 80e9 e83d 20a3 22be
00000180: d2e7 48bd 90b9 253d b2f7 0c3e ac68 1d3e
00000190: d887 c3bd 8c66 673d 507c 38bc d2e6 1b3e
000001a0: f3c6 9bbd 1443 003e 50ec 1bbc 2838 cfbd
000001b0: 425e 8d3d 7a18 903d 5449 f13d a51a a6bd
000001c0: 6cfd 28be 2019 bd3c f6d4 f9bd 7826 dabd
000001d0: a3e9 9abd 06c1 0b3e 006e 6c3b 48de fbbc
000001e0: 10c0 ab3c 9e32 6fbd 3e33 053e 7015 ae3c
000001f0: b8ff d63d e8de 483d bcf5 c23d 145d 773d
00000200: 8452 cb3d 547f 26bd a4bd be3d 941f 3f3d
00000210: 9695 04be 7642 0abe 04de 073e 0476 67bd
00000220: 3a0d 2d3e bc93 9c3d 049d 0e3e 0442 c6bd
00000230: 54a8 0ebe ee76 00be d11e 29be 35c6 a1bd
00000240: a084 bd3d aa54 55bd a8a6 ca3c 5122 a2bd
00000250: 78de e2bd b002 823d 14bf 0a3d 00a7 923d
00000260: d45c 913d 2cef 503d 7205 08be eabc 123e
00000270: 289b b9bc 7cfb d43d 60b8 053c 2c96 cb3d
00000280: 5b9a 1abe d8f0 a1bc 4294 1c3e 1c7b fd3d
00000290: 2fc9 9abd 4e88 f6bd 74af 403d 8b60 9abd
000002a0: 114e c0bd e731 dabd 883a 26be 169e f6bd
000002b0: 1481 723d 60aa 37bc d024 08bc a0c3 7b3c
000002c0: b0b4 0dbe 906d 12bd 913d 28be 9b21 18be
000002d0: 18b9 863d a81b fb3c 3a91 5abd e63e 26be
000002e0: ccef 2bbe 282f 223d 72d6 12be c87a 01be
000002f0: 1bd7 27be b92a c5bd 607f 04bd 90f9 5bbc
00000300: 180c ffbc 14ec 92bd 4446 f23d 38b6 d83d
00000310: 5c42 ce3d e2c5 07be 400b 0e3b 4c72 1abe
00000320: 4ed7 123e 80ee fe3b 6041 b2bc 686a 5cbd
00000330: 38ae 8b3d 3652 913d 4418 173e e0f5 efbd
00000340: 04ae ee3d 2461 7e3d 4fb1 d3bd 187b c1bc
00000350: b936 8dbd 6825 533d 880f f0bc 0c3c 23be
00000360: 00d3 0f3b 9618 903d 6495 cb3d 9ac0 8fbd
00000370: 1083 cb3d 997e 22be e6c2 83bd ef49 f9bd
00000380: ae4d 24be 67e9 b1bd 0036 b1ba 3038 9cbc
00000390: 0f7b 1ebe 0ca0 eb3d 40aa e83b 9c2e fa3d
000003a0: e44b 1b3d 1c4e 763d d185 cabd 049a 1a3e
000003b0: 22aa 34bd 40a6 1abd 0c24 e93d d25b 09be
000003c0: dbe5 2bbe 8a9e 5fbd 89f8 11be 580f 00bd
000003d0: 2029 e83b 08b2 1d3e 642e 22bd 485d c63d
000003e0: be93 2c3e dcfc 173e 68a4 f1bd f441 85bd
000003f0: 122b 1f3e 816d 20be 6012 5c3d 7865 efbc
0.13379979 0.16685808 -0.025351986 -0.06760828 -0.050305724 -0.07607936 0.14573991 -0.089253485
-0.027979627 -0.0983175 -0.08382873 -0.015811339 -0.10935745 0.0070335716 -0.009573936 -0.11552999
-0.056880176 0.0889411 -0.09413012 0.03323978 -0.103676304 0.039335832 0.08266026 -0.10756564
-0.10465947 -0.1555796 -0.14935245 -0.15371478 0.046918094 -0.10343644 -0.10664713 -0.11545715
0.089252025 -0.10220259 0.034224123 -0.02193208 -0.13548209 -0.091399044 -0.04022403 -0.14126614
0.1529049 0.15874532 -0.1622086 0.11346409 0.12975866 -0.007740304 0.10460222 0.060139567
0.055740654 0.12472305 -0.12945797 0.12018424 0.02996175 -0.027689531 -0.0022353828 0.16098106
-0.14482579 0.021579146 0.018489838 -0.12844618 -0.16855909 -0.10583645 -0.070587546 0.09075832
-0.111699305 0.14383563 -0.052322038 -0.10551008 0.021010399 -0.085323215 0.11508149 -0.07064482
0.14543241 -0.15255535 -0.084225826 0.019215494 -0.06183362 0.10744119 0.050566405 -0.16117775
0.10627085 0.14978874 0.12434116 -0.058414824 -0.13967755 0.038549393 0.016481087 0.07683386
-0.10394376 -0.09042063 0.014733896 -0.15433595 0.07594234 -0.0067105144 0.113726616 -0.1588254
-0.049049206 0.04046017 0.13766363 0.1537196 -0.095473945 0.05649428 -0.011260107 0.1522477
-0.07606306 0.12525588 -0.0095167905 -0.10118133 0.06902744 0.070359185 0.11781564 -0.08110551
-0.16502923 0.02308327 -0.12198822 -0.106518686 -0.07564094 0.13647851 0.0036076307 -0.03074564
0.020965606 -0.05839788 0.13007829 0.021250457 0.10497993 0.049040705 0.09519526 0.0603915
0.09927848 -0.040648773 0.09313515 0.046660975 -0.12947688 -0.13501915 0.13268286 -0.056509033
0.16899577 0.076453656 0.13927084 -0.0968056 -0.139314 -0.12545368 -0.16515662 -0.07899133
0.09253812 -0.052082695 0.024737671 -0.079167016 -0.11077589 0.06348169 0.033873633 0.07160759
0.07097784 0.051009342 -0.13283327 0.14329877 -0.022656992 0.10399529 0.008161634 0.099407524
-0.15097944 -0.019768164 0.15290931 0.12376997 -0.07557904 -0.12037717 0.047042325 -0.07537945
-0.0938989 -0.10654049 -0.16233265 -0.12041871 0.05920513 -0.011210054 -0.008309558 0.015366465
-0.13838458 -0.03574902 -0.16429736 -0.1485657 0.065782726 0.030652836 -0.053361155 -0.16234931
-0.16790694 0.039595753 -0.14339617 -0.12644494 -0.1639065 -0.09627289 -0.032348037 -0.0134262
-0.031133696 -0.071739346 0.11829808 0.105816305 0.10071251 -0.1325908 0.0021674186 -0.15082663
0.14339945 0.0077798963 -0.021759689 -0.053812414 0.06820339 0.070957586 0.1475535 -0.11716819
0.116542846 0.06210436 -0.10336553 -0.023618266 -0.06895203 0.051549345 -0.02930428 -0.15940875
0.0021945834 0.070359394 0.099406034 -0.07019158 0.099371076 -0.15868606 -0.06433658 -0.12172305
-0.16045257 -0.08687096 -0.0013520122 -0.019069761 -0.1547663 0.11505136 0.0071003735 0.12215921
0.03791417 0.060133085 -0.09888805 0.15097815 -0.044107564 -0.037756205 0.113838285 -0.13413933
-0.16786902 -0.054594554 -0.14254965 -0.031264633 0.0070849806 0.15399945 -0.039595023 0.09685761
0.16853234 0.14842552 -0.11798936 -0.0650672 0.15543774 -0.15666772 0.05372846 -0.029223189

bias f4 [50]
00000000: 6fec f2bd d6c3 06be cc01 073e 60f1 fdbb
00000010: 7872 b03d 7ee8 123e 0ed0 7cbd e4e9 df3d
00000020: 7305 2dbe b02c 98bd e08a 7b3d 741a 183d
00000030: 6cf0 1e3e f02c 2abd 3c52 2b3e e5c0 e4bd
00000040: 6292 1cbe 4801 ec3d cc0b b13d 3883 193e
00000050: 5299 913d f4cf ea3d d28a 1ebe 7890 fa3c
00000060: 1e23 243e d4ed bf3d 9c8b c5bd 0005 d5bc
00000070: 04b4 293e 64b2 1ebd 10a2 27bd 6006 1fbd
00000080: 1416 173d 00b8 b73b d310 8abd d01f af3d
00000090: 38dd 853c 60f0 79bc 009a 413d a091 d43c
000000a0: f65f 283e 7859 d23c 122b 0a3e c8f2 7d3d
000000b0: 44a4 513d a6c0 02be 0cc3 963d 8626 8b3d
000000c0: 5acd 1ebe 60fd 323d
-0.118615024 -0.13160643 0.13184279 -0.0077497214 0.08615583 0.14346501 -0.061721854 0.10933283
-0.1689661 -0.074303985 0.06141174 0.037134603 0.15521401 -0.041546762 0.16730589 -0.11169604
-0.15290216 0.11523682 0.08644828 0.14991462 0.07109322 0.11465445 -0.15482643 0.030586466
0.16029021 0.09371534 -0.09645769 -0.02600336 0.16572577 -0.038744345 -0.04092604 -0.03882444
0.03688629 0.0056066513 -0.0674149 0.0855099 0.016340837 -0.015255064 0.047266006 0.025948346
0.16442856 0.025677428 0.13492993 0.061999112 0.051182047 -0.12768802 0.07361421 0.06794457
-0.15508023 0.04369867
