model/saved_models/fr_encoder/model_epoch_16.pt (torch_old, 115280 bytes, 11 tensors)

weight f4 [74, 20]
000000 30 1c 39 3e eb 55 8f bd 92 20 b8 be d7 4a 6a bf
       0.18077159 -0.069988094 -0.3596235 -0.91520447
000010 28 32 20 3f 30 fa d0 3c 02 5b 74 3f 29 c9 83 3d
       0.6257653 0.025509924 0.95451367 0.06434853
000020 ba e8 b8 3e 08 7d 95 3f 4d c9 ac bf f1 9a 02 bf
       0.36115056 1.1678782 -1.3498932 -0.5101767
000030 e5 9e 71 3e 76 88 75 be 2c ce 6b bf c2 8a c5 3f
       0.2359577 -0.23977837 -0.9211147 1.543297
000040 53 a6 ac 3f 3a fe 0e be 04 54 92 3e 23 12 77 3f
       1.3488258 -0.13964167 0.28579724 0.9651205
000050 f0 ac 16 bf d2 32 88 3b ad e9 8a bb 98 a4 d1 bb
       -0.5885763 0.004156449 -0.004239282 -0.006397795
000060 f3 9a 03 bb d9 1e 22 bb e4 d9 97 bd df 1a 37 bc
       -0.002008137 -0.0024737625 -0.07414606 -0.01117584
000070 9b c4 77 3a 97 08 57 ba 54 ca f2 3c 44 2f 7e 3d
       0.0009451599 -0.0008202879 0.029637493 0.062056795
000080 3b 06 64 bc fe b2 92 b8 97 13 b6 3a bc 11 0b 3b
       -0.013917501 -6.9951624e-05 0.0013891336 0.0021220287
000090 d8 bb 9d bb 1a ec 91 3c 5f ef 30 bb 99 70 d7 3b
       -0.0048136525 0.017812777 -0.0026998145 0.006574702
0000a0 63 85 c7 3e 46 b9 9d 3e 54 25 27 3f 6b 3e f4 be
       0.38968953 0.30805415 0.65291333 -0.4770387
0000b0 ab cc be be 3e 50 eb 3e 5f 07 12 3d 78 c6 af 3e
       -0.37265524 0.45959657 0.03565156 0.34331107
0000c0 3d b3 4b 3d 56 0a 11 bf 92 52 b8 3e de 3a f6 be
       0.04973148 -0.56656396 0.36000496 -0.48091787
0000d0 1c 02 c4 bd 91 d9 4e bd fe 5d 93 3f 4a b6 a4 bd
       -0.09570715 -0.050500456 1.1513059 -0.080425814
0000e0 17 5b 99 3e 5b 2b 83 be 70 88 a4 3e a8 5b 8e be
       0.2995231 -0.25619015 0.32135344 -0.27804303
0000f0 9b 2e ae bd 3d a0 bf 3d 79 0f bf 3a b8 d3 42 3d
       -0.08504983 0.09356735 0.0014576755 0.047565192
000100 6f 53 5a 3b d7 ab 9f 3b 2a ff 00 bc e2 d7 73 3b
       0.003331389 0.00487278 -0.007873336 0.0037207534
000110 b7 39 18 bd 01 35 a5 3b 9b ed c0 3a 8f a5 14 3c
       -0.037164416 0.005041719 0.001471925 0.009072675
000120 cd 84 bc 3e 65 fa 3a bd 19 6a c2 3b 49 f9 4c 3c
       0.3682007 -0.04564895 0.005933058 0.012510606
000130 c1 2b 91 3b 16 5a d7 3c 22 ea ea 3c 6f 3b 45 ba
       0.0044302647 0.026288074 0.028676096 -0.000752381
000140 ac 4f 32 3f f2 1f 7d bd 1d cd 2d 3d 76 bc a8 3b
       0.6965282 -0.061798044 0.04243194 0.0051494194
000150 88 93 8d bd 58 01 8a 3c c8 9e 80 3c c1 54 94 bc
       -0.06912905 0.016846344 0.015700713 -0.01810682
000160 07 4a c9 3d ee 58 61 3c 92 43 87 b9 5e 50 0e bd
       0.09828573 0.013754113 -0.0002579955 -0.034744613
000170 10 b9 8d be 8a d8 c5 bc 1a f5 e3 bc 8e aa 4d bd
       -0.27680254 -0.024151105 -0.027826834 -0.05021148
000180 15 04 b5 bd b5 3b ec bc 7b 25 9a bc e1 6b f1 ba
       -0.08838669 -0.028837064 -0.0188167 -0.0018418991
000190 83 ce e2 bf ad ec 9e bf 59 7b 38 be 2e 87 12 bf
       -1.7719272 -1.2415978 -0.18015803 -0.5723752
0001a0 35 fd 9e 3f d0 b5 28 c0 9a fc 21 bf c6 af 87 3f
       1.2421023 -2.636097 -0.63276064 1.0600517
0001b0 3f 9b 7d 3d 56 84 c9 3f 8b 38 26 bf 78 5a 45 be
       0.061915632 1.5743511 -0.6493003 -0.19272792
0001c0 ba 71 f9 3e db 56 0c bf 95 60 ff 3e 7a 64 db bf
       0.4871958 -0.5482003 0.49878374 -1.7140038
0001d0 3b 14 cc 3f 9b fd 60 3f 88 fd cf bf 2d 35 9a 3b
       1.5943674 0.8788697 -1.6249247 0.004706046
0001e0 88 5b 5d 3f 0d f7 28 3e 9c 96 9c bd 4e 02 e5 be
       0.8646779 0.16500492 -0.07645914 -0.4472832
0001f0 f1 8e e4 bd 60 2b cd 3d ce 5b 5e bd 26 c1 19 bd
       -0.111600764 0.10018039 -0.05428677 -0.037537716
000200 45 23 a0 be f4 26 2e 3e 76 e7 64 3e 35 bd b7 3d
       -0.3127691 0.17007047 0.2235392 0.08971635
000210 01 23 19 3c 70 8a 87 3e da 63 25 bc 08 4e e7 bd
       0.0093467245 0.26472807 -0.010094607 -0.1129418
000220 f5 e3 15 3d 3f e1 a3 bd 47 b7 7b 3e 05 6a 06 3c
       0.03659435 -0.08001947 0.24581634 0.008203988
000230 f6 b8 78 3f e7 5f 91 bd 16 9c 3d 3e 7b 7e 01 bc
       0.9715723 -0.0709837 0.18516573 -0.00790369
000240 06 89 76 3e e1 25 f2 3e 61 79 68 bf cc 59 84 be
       0.24075708 0.47294524 -0.9081021 -0.2584976
000250 e2 38 65 3e 8a 78 03 be de 06 ab bf 5d f4 5c bc
       0.2238498 -0.12838951 -1.3361471 -0.013485995
000260 b2 8f 05 bd 52 a5 1b 3f 29 72 b2 be 49 67 2a be
       -0.03260774 0.60799134 -0.34852722 -0.16640963
000270 9f 14 2b bf f4 a5 99 3e 72 e1 10 bd 54 16 5c be
       -0.6682834 0.30009425 -0.03537125 -0.21492893
000280 0b 82 86 3e d2 e5 07 bd c5 c3 33 3e 16 3f 22 3f
       0.2627109 -0.033178158 0.17555149 0.6337751
000290 76 7c e2 bf ee 3e a9 3c 0d 71 25 be c2 72 02 3e
       -1.7694232 0.02065989 -0.16156407 0.12739089
0002a0 53 eb 6e 3e c3 57 33 3f e7 a3 3c 3d c7 ab 90 3d
       0.23331957 0.7005579 0.046054747 0.07064014
0002b0 51 ed 85 be 31 bf 3a 3c 0d 00 23 be 28 76 88 be
       -0.2615762 0.011398123 -0.15917988 -0.26652646
0002c0 d8 48 4a bd 51 ff b3 bd 4d c6 e3 bc 1f df 4e bd
       -0.049385875 -0.08788932 -0.027804518 -0.050505754
0002d0 dd 6a e7 3e 89 df 05 be 42 1e b6 be a0 07 55 3a
       0.45198718 -0.13073553 -0.3556996 0.00081264414
0002e0 4f 9b c1 3d 7f d0 f7 bd 70 52 0c bd 05 a2 b5 3d
       0.09453451 -0.12100314 -0.034258306 0.088687934
0002f0 4a af db bd b8 31 1d 3e 4a ed 5d bc 7b 35 7e 3e
       -0.10726793 0.15350997 -0.013545344 0.24825089
000300 1e df 27 3e 75 0e b8 3d fe 5b 82 3d d0 29 21 3f
       0.16393706 0.089871325 0.06365202 0.62954426
000310 4a 73 0a 3e f4 5b 40 3f 21 9d 00 3e 4e 0a 9f bb
       0.13520542 0.7514031 0.1255994 -0.0048535233
000320 58 81 cd 3e b1 fa 5a c0 b5 3d 0b bd ad a4 5c bd
       0.40137744 -3.421551 -0.033994395 -0.053867985
000330 85 c9 cc bd d9 85 e2 3c 8c a8 b2 3d 6d aa 89 bc
       -0.09999374 0.027651714 0.08723554 -0.016804898
000340 83 6c 34 3d 36 da 54 be 39 fb 04 bf eb 48 b3 bd
       0.044048797 -0.20786366 -0.51945835 -0.087541424
000350 54 81 a5 3d c1 ed 66 3e 2e 72 0f 3d 1c d5 ec 3d
       0.08081308 0.22551633 0.035021 0.11564085
000360 7c a9 26 bd 8f e9 c2 3d dc f6 cd 3b 61 a5 cb bb
       -0.040688977 0.09517204 0.0062855314 -0.006214783
000370 97 63 18 3e 51 c2 b5 bb 86 e9 02 be c4 f8 e3 3c
       0.1488174 -0.005546846 -0.12784395 0.027828582
000380 fa d2 83 b8 57 65 55 bd 58 11 0b 3d 0a 00 61 be
       -6.285864e-05 -0.0520986 0.033952087 -0.21972671
000390 1f 03 bf 3a a5 50 0c bd 17 4d e4 bd 95 a0 be 3b
       0.0014573074 -0.034256596 -0.11147516 0.0058174827
0003a0 e3 09 12 bd f6 12 ce 3b 33 87 87 3d 1e b7 82 bd
       -0.03565396 0.0062888814 0.06617584 -0.06382583
0003b0 54 44 91 bd 42 01 af bd 2a 21 1f 3d 44 c4 ba 3d
       -0.07093111 -0.08545162 0.038849987 0.09119466
0003c0 3e d2 26 3f 90 b1 b8 3e 34 64 75 bd 9c f1 b0 bd
       0.65164554 0.3607297 -0.059910014 -0.08639833
0003d0 e7 68 b7 ba 2f 43 e4 3e 93 5b c0 be 01 7d 78 bf
       -0.0013993055 0.44582507 -0.37569866 -0.9706574
0003e0 1e 22 ad 3e bf 97 cb 3e 80 33 df bd dc 17 7f be
       0.33815092 0.3976421 -0.10898495 -0.24911445
0003f0 d2 ea 14 be 82 2f d6 be bf 39 35 3d 93 c8 a5 3f
       -0.14542702 -0.4183312 0.044244524 1.2951835

weight_ih_l0 f4 [200, 20]
000000 63 9c d2 bf 0f c9 7d bf 0d bb 3b be 72 c9 75 be
       -1.6453975 -0.99134916 -0.18333073 -0.24002627
000010 4b 55 32 3f df df 55 bf d6 e4 01 3e 16 8c 5a 3e
       0.69661397 -0.83544725 0.1268495 0.21342501
000020 08 b2 46 3f 6c f1 27 3f 54 2d e0 3e d2 bd 53 bf
       0.77615404 0.65602756 0.43784583 -0.8271152
000030 97 81 1e c0 c0 75 b3 3f 06 b5 d9 3c d9 9f 06 bf
       -2.4766595 1.402031 0.026575577 -0.5258766
000040 c5 4a 2b 3c d1 89 9c 3e f3 f9 0b bf b6 b7 5b bd
       0.010454838 0.30573896 -0.5467827 -0.053641997
000050 fc 2f af 3d 7e 6d 3a 3f 1b c9 8b 3f 75 e2 5b bd
       0.08554074 0.7282332 1.0920748 -0.053682763
000060 19 af 95 bf 4f fd 91 3d ae 5e 10 be 51 21 2f bf
       -1.169406 0.07128393 -0.14098617 -0.6841021
000070 ec 09 37 3e d6 2c 85 bf 95 29 af 3f d6 21 91 3f
       0.17874879 -1.0404308 1.3684565 1.1338451
000080 97 05 be bd 1a 72 c0 bc 81 de c6 bf 14 62 cd 3d
       -0.0927841 -0.023491908 -1.5536653 0.100284725
000090 5f d5 58 bf 30 37 26 bf 3e 61 05 3c 2b fd 6c bf
       -0.8470058 -0.6492796 0.00814086 -0.92573804
0000a0 f4 64 91 3e b2 33 80 bd c0 3e eb bd 0a 08 17 3e
       0.28397334 -0.0625986 -0.11486578 0.1474916
0000b0 c8 20 4b be 85 8a b7 bd e8 34 14 be 91 a9 e4 3d
       -0.19836724 -0.089619674 -0.14473307 0.11165155
0000c0 4a ec 50 3e bb 67 b9 3e f0 7c 3d bd 0d f0 f9 3d
       0.20402637 0.36211953 -0.046261728 0.12203989
0000d0 8e 00 b0 bc e6 56 20 be 82 76 3a 3d ea bc 18 3e
       -0.02148464 -0.15658149 0.045523174 0.14915815
0000e0 94 df c0 bd 69 35 67 3e fc 57 8c 3e 3d 32 4d bc
       -0.09417644 0.22578968 0.27410877 -0.012524185
0000f0 d8 8b c5 bf ca 16 82 3f ff 66 9a 3f 66 99 29 3e
       -1.5433302 1.0163205 1.2062682 0.16562423
000100 10 d0 85 3d 40 7b 63 be fe 05 21 bf ba ec b0 3f
       0.065338254 -0.22214985 -0.6289977 1.3822243
000110 c5 ad fb 3e cc f0 11 c0 41 12 8a 3e 81 be 83 bf
       0.49156013 -2.280322 0.26967052 -1.0292512
000120 bf ef 82 3f b0 64 7b bf 98 79 30 3e 0a d9 58 bf
       1.0229415 -0.9820051 0.17233884 -0.84706175
000130 6f da ac 3d 48 01 74 bd 3a 6c 53 3f c7 80 01 3f
       0.084401004 -0.059571534 0.82587016 0.50587124
000140 c0 a2 cc be e6 66 a4 3e a6 d9 00 3c 49 7b f8 3e
       -0.39967918 0.32109755 0.007864391 0.4853156
000150 3d ab 40 3f 78 88 0c bf 69 60 89 3c 4c 2c 11 3f
       0.7526129 -0.54895735 0.016769605 0.56708217
000160 5f a0 04 3f 4a 5c 75 be 53 1d 08 bf 5a 03 ff bc
       0.51807207 -0.23960987 -0.53169745 -0.031129528
000170 46 20 de be 86 a8 af 3d 12 c1 03 3f 93 42 11 3e
       -0.43383998 0.08577065 0.51466477 0.14185552
000180 bd ac c3 3e be 0a 34 3e ac 57 bb be e0 0d ba be
       0.38217726 0.17582223 -0.36590326 -0.3633871
000190 48 16 ed be b1 6f be be ad 13 4f 3d e6 2c 04 be
       -0.46306062 -0.3719459 0.050555874 -0.12907752
0001a0 d8 0b 28 bd fc 1c 79 be c9 19 1f bf 95 c6 7e 3d
       -0.04102692 -0.24327463 -0.6214872 0.0622011
0001b0 4c 78 34 bd 0e 9c 41 bd 26 f0 b4 3e d9 cc 88 3e
       -0.044060037 -0.047267966 0.3533947 0.26718786
0001c0 53 e0 8e 3e 14 2b 3c 3d 12 a3 c9 3d 7e 99 76 3b
       0.2790552 0.04593952 0.09845556 0.003762811
0001d0 b5 d1 6d 3e 14 c9 85 3e c6 f4 c6 bd 6d ff a3 3d
       0.23224528 0.26129973 -0.097146556 0.08007703
0001e0 83 c1 1a be d3 a9 d1 bf c6 73 d4 3e 98 5d 38 be
       -0.15112881 -1.6379951 0.41494578 -0.18004453
0001f0 43 37 8b 3f ed 95 af 3c 25 86 05 3e 29 c5 a0 3e
       1.087624 0.021433795 0.13039453 0.3140042
000200 ec 15 cb bf d3 94 25 3f df b3 b9 be 9d 3a 23 bd
       -1.5866065 0.6468021 -0.36270043 -0.03985082
000210 3b 81 dd 3e d7 fa 87 3e c4 4e 78 be 4c e4 ac bd
       0.43262658 0.26558563 -0.24248797 -0.08441982
000220 91 7b 7d 3f 09 fe 03 bf 91 43 7d 3f 04 47 b3 bd
       0.9901667 -0.515595 0.98931223 -0.087537795
000230 d9 97 07 3e 89 23 db be a3 71 68 bd b3 f4 b2 bd
       0.13241519 -0.4280055 -0.056748997 -0.08738079
000240 00 3f 65 bd f0 26 80 bd 5e b8 04 3d 16 b2 fc 3c
       -0.055968285 -0.06257427 0.03240239 0.030846637
000250 a5 b2 94 3d ca 5f a8 3c 93 93 27 bd 2e 44 2a be
       0.07260636 0.020553488 -0.040912222 -0.16627571
000260 22 84 7d bd 5d 5d 18 3e aa 3a db 3b e2 e9 f7 bc
       -0.06189359 0.14879365 0.006690343 -0.030262891
000270 bf e2 28 bd b2 90 81 3b f2 f3 89 bd 27 73 c7 ba
       -0.041231867 0.0039540166 -0.06735982 -0.0015216813
000280 5b a5 a5 bf 25 6e da 3e bc 80 7a 3e 57 e2 00 3e
       -1.2941087 0.4266216 0.24463171 0.12586342
000290 88 8c d4 bf 26 e6 58 be ed 24 9f bd e0 91 03 bf
       -1.6605387 -0.21181545 -0.07770715 -0.5139446
0002a0 e8 84 51 bf 4c af 3a 3f dd e2 b5 3e fc 96 2c 3e
       -0.81843424 0.7292373 0.35524645 0.16854471
0002b0 9d 62 2f 3e 49 b4 13 3e a8 e2 33 be 4a 82 5e bf
       0.17127462 0.14424242 -0.17566931 -0.86917555
0002c0 51 91 2f be 85 38 bc bd 7d 7e 5a bc 49 28 d7 3e
       -0.17145278 -0.09190468 -0.013335821 0.42022923
0002d0 3b 5a 5b 3f 36 04 25 bf fa cf 85 3f b2 2c 16 be
       0.85684556 -0.6445955 1.0454094 -0.14665487
0002e0 22 04 d8 be 33 f9 cb 3f 2f 6b 81 bf b7 82 8c 3e
       -0.42190653 1.5935425 -1.0110835 0.27443478
0002f0 02 17 41 3f 45 43 46 3c 66 50 bd bf e6 4c 4a bf
       0.7542573 0.012100999 -1.4790161 -0.7902359
000300 9a 29 e3 be e0 65 3e 3f 55 9a 8a bf 5f 43 19 c0
       -0.44367677 0.743742 -1.0828348 -2.394737
000310 eb 4b 6f bf 3c b8 27 c0 5e 03 7e 3c 3e 53 a2 3f
       -0.93475217 -2.6206198 0.0155037325 1.2681653
000320 79 36 89 bd 0d 85 0a bf a5 2f 18 3d bb 2e 95 be
       -0.06699843 -0.5410927 0.037154812 -0.29137215
000330 cd 00 38 3e 5c 53 0b bf a1 e0 18 3f f5 5e 90 be
       0.17969055 -0.5442407 0.59717757 -0.28197446
000340 d7 63 88 3f 10 32 20 bf 46 24 31 3e 3c c8 2b 3e
       1.0655469 -0.6257639 0.17298993 0.16775602
000350 80 22 16 bf 9f 94 c6 be 03 ae b6 3d e2 85 a8 3e
       -0.5864639 -0.38785264 0.08919909 0.32914644
000360 4e 4c 91 be 05 96 72 bf 56 4f 87 bf d6 87 d5 be
       -0.28378528 -0.9476016 -1.0571086 -0.41705197
000370 d7 59 34 bf 02 0f 74 be 48 d5 75 bf b6 ef b5 be
       -0.70449585 -0.2383385 -0.96028566 -0.35534447
000380 e4 71 41 be be df 9a bf dd b7 2d bd 90 71 1c bf
       -0.18891102 -1.2099531 -0.042411674 -0.6111078
000390 ca f3 7e 3f 3d 4c 06 3e ac 94 7f 3f 76 42 ea be
       0.9959074 0.1311502 0.9983623 -0.4575383
0003a0 2b 49 74 c0 53 c7 e5 3f 1b 6c 99 bc ee e6 8c be
       -3.8169658 1.7951454 -0.018728307 -0.27519935
0003b0 c1 dc b1 be 86 ee 1a bf 71 ba 1a bf 34 35 27 be
       -0.34738734 -0.6052021 -0.60440737 -0.16328889
0003c0 26 37 ba be 7a 97 da be 03 ea 0a 3e 6a 8b ae 3e
       -0.363702 -0.42693692 0.13565831 0.3409074
0003d0 96 7a 0c bf d9 6f 1e bf e9 bb fd be b7 1a 9a bd
       -0.5487455 -0.61889416 -0.49557427 -0.07524627
0003e0 89 a0 2e 3e 36 e8 3c 3e e4 5b f3 3d 69 e4 d0 3d
       0.17053427 0.18447956 0.11882761 0.10199816
0003f0 1a 2a b8 be 56 96 30 3e 96 22 de bc 52 88 99 be
       -0.3596962 0.17244849 -0.027116101 -0.29986817

weight_hh_l0 f4 [200, 50]
000000 e7 2a 95 c0 49 e5 a9 bf 31 be 87 c0 18 6d 95 3d
       -4.661487 -1.3273097 -4.2419667 0.072961986
000010 e8 e1 33 3e b2 ca b8 c0 ca 86 cb bf e1 43 a1 3f
       0.17566645 -5.774743 -1.5900509 1.259884
000020 a3 74 0a 3a ca e7 07 40 8b 87 d8 3f 68 bb ea 3e
       0.00052816625 2.1235223 1.6916364 0.45846105
000030 45 a3 1b c0 b5 da b3 3e 53 19 f4 3e b8 ee 7e 40
       -2.4318402 0.35127798 0.4767557 3.9833202
000040 41 8b 84 3f c6 a7 9d 3e df c7 c5 bf 6f 6c 1c c0
       1.0354997 0.30792063 -1.5451621 -2.4441183
000050 46 f0 dc 3e 40 8c 74 40 f5 0e 48 3f 48 37 9d 3e
       0.43152064 3.8210602 0.7814782 0.3070624
000060 74 fd bb 3e 7f 96 f0 be 3c 94 d4 bf d5 30 9f bf
       0.36716807 -0.4698982 -1.6607738 -1.2436777
000070 33 49 38 40 26 dd 26 bf 3e ea 2e c0 33 0a 74 c0
       2.8794677 -0.65181196 -2.733047 -3.8131225
000080 b1 f7 e1 3f 29 0d 90 bf d6 92 10 3f e6 20 bc be
       1.7653714 -1.1254016 0.56474054 -0.3674385
000090 3e 9c ac bf 5f 97 6a 3f 58 d8 2a 3f c7 68 9d bf
       -1.3485181 0.91637224 0.66736364 -1.22976
0000a0 ab 47 86 c0 90 f9 8c bf 73 98 1d bf 56 41 87 3f
       -4.1962485 -1.101366 -0.61560744 1.0566814
0000b0 72 5b d8 bf 26 5d a6 be b5 94 a8 be 3e 65 fe 3f
       -1.6902907 -0.32492942 -0.32925954 1.9874647
0000c0 02 67 86 bf 56 69 31 be 31 5b 9d bf ac a8 83 bd
       -1.0500185 -0.17325339 -1.2293454 -0.06428656
0000d0 83 59 f6 3f 63 99 17 40 df b4 7b 3f 93 8e ae be
       1.9246067 2.368737 0.9832286 -0.3409315
0000e0 88 85 e2 be 27 a6 33 3f 2e c9 be bf 3a 33 fb 3d
       -0.442425 0.70175403 -1.4905145 0.1226563
0000f0 44 95 9c 3f f1 55 aa bf 7d ec 5b 3f 71 7d 4e bf
       1.2233052 -1.3307477 0.8590773 -0.8066016
000100 85 52 92 3f 92 2b 13 3f 25 f5 4a 3f b6 57 92 bf
       1.1431433 0.5748836 0.7928031 -1.1433017
000110 f8 95 1b bf 16 ad 9d 3e dc 18 49 40 4a 16 31 40
       -0.6077571 0.30796117 3.1421423 2.7669854
000120 a8 4a 4f 3e 6c 87 c2 bd 57 88 b6 3f b5 24 19 c0
       0.20243323 -0.09498486 1.4260358 -2.3928654
000130 8e ed cd bd 50 5f 3e 3f 15 85 91 bd 6f c9 ae bf
       -0.100550756 0.74364185 -0.071054615 -1.3655223
000140 ef 27 19 3e 5a cc 10 bf f3 df ab bf 03 fd 10 bf
       0.1495664 -0.56561816 -1.3427719 -0.56636065
000150 7e a5 e4 3f d6 a7 b7 3f c3 7a 08 bf dc b8 13 3f
       1.7863004 1.4348094 -0.5331232 0.5770395
000160 ad 98 17 bf 53 38 a9 be bf 9e 40 40 0f 81 a9 3f
       -0.5921734 -0.33050784 3.009689 1.324251
000170 8c 9e 61 bf 03 50 cb 3e c5 c1 59 bf 45 b5 3e 3f
       -0.8813255 0.39709482 -0.85061294 0.74495345
000180 62 04 30 40 a9 e0 1c 3f 0f 11 7a 3f 6f 49 48 bf
       2.7502675 0.61280304 0.9768228 -0.7823705
000190 51 43 ea be f2 00 10 3f 05 69 ac bf 9d e9 8d 3f
       -0.45754483 0.5625144 -1.346955 1.1086918
0001a0 a6 e8 2b bf 10 2b e1 3f 73 5e 7a be 32 2d a9 3e
       -0.6715187 1.7591267 -0.24450092 0.33042294
0001b0 69 d8 87 bf 07 85 00 3e 52 2f 96 3e 85 b9 a4 bc
       -1.0612918 0.12550746 0.29332978 -0.020107994
0001c0 74 9e c7 be 00 98 1a 3f 4c bd 54 3f 9d a8 03 bd
       -0.38988078 0.60388184 0.83101344 -0.032143224
0001d0 fd 4d 7f 3f f1 82 f9 bd 1e ef 8a 3e 11 08 02 3f
       0.99728376 -0.12183178 0.27135557 0.5079356
0001e0 b1 cd 01 bf b6 64 1b be 72 d1 da be 53 4a 52 be
       -0.50704485 -0.15175137 -0.4273792 -0.20536165
0001f0 b7 fc d7 be 56 fa e6 3d 60 18 85 3f 3d ac bf be
       -0.42184994 0.112782165 1.0398064 -0.37436095
000200 11 03 23 bf dd ee 27 bd df 83 64 3e d3 84 89 3e
       -0.63676554 -0.040999282 0.2231593 0.2685915
000210 b4 7d 75 be 9d 43 5d 3f e9 43 d9 3d 15 55 bb 3c
       -0.23973733 0.86431295 0.10608656 0.022867719
000220 2d da 64 3f b1 10 ae be c7 62 2e 3d bf bd 07 3f
       0.8939541 -0.3399711 0.04257467 0.53023905
000230 d4 56 5c 40 85 7e 2d 40 20 a3 0c bd ab dc 73 3f
       3.4427996 2.7108471 -0.034335256 0.9525859
000240 54 d9 51 be b0 c9 a2 bf 03 53 7e be 2e f2 17 3f
       -0.2049306 -1.27178 -0.24836354 0.5935391
000250 e1 6e 4c 3e 66 f7 83 be 4e 64 19 3e f0 d1 08 3f
       0.19964172 -0.25774688 0.1497967 0.5344534
000260 4f 66 5f bf c4 12 99 3f 4b 03 9b bf fa 57 96 bd
       -0.87265486 1.1958852 -1.211038 -0.07340999
000270 92 87 85 3f 14 52 28 40 d5 b0 5d 3f 69 9f 92 3f
       1.0431998 2.6300097 0.8659795 1.1454898
000280 fb fe a7 3f 70 cf 28 3f ff b0 f4 be b9 4b 36 c0
       1.3124689 0.65941525 -0.47791287 -2.8483717
000290 f5 a0 1b 3f 74 de 3f bf 96 f7 1c c0 d2 9d 87 bf
       0.60792476 -0.7494881 -2.4526114 -1.0595038
0002a0 9c f6 a9 3f c1 b6 9f bf a8 c3 d4 3f b7 c8 ea bf
       1.3278384 -1.2477647 1.662221 -1.8342503
0002b0 18 e1 64 bf aa 0a ce 3f 22 3b 00 40 bf 8e 8c be
       -0.89405966 1.6097004 2.0036092 -0.27452657
0002c0 fa 9e 18 40 18 06 c9 3f 59 9a fd bf b6 61 89 3f
       2.3847032 1.5704985 -1.9812728 1.0732944
0002d0 e4 81 9d 3f 07 f1 45 bf 15 ec 73 bf 3b 04 8d 3f
       1.2305264 -0.77320904 -0.9528211 1.1016916
0002e0 f0 7a 59 c0 e1 1b 1b be b9 9a 04 c0 16 d4 aa 3f
       -3.3981285 -0.15147354 -2.0719435 1.3345973
0002f0 96 5d 7c bd f6 84 3e 3f bf a5 92 bd c8 30 1a bf
       -0.061612688 0.7442163 -0.0716052 -0.60230684
000300 4b a5 a7 be e0 63 70 40 21 6a 8b bf 03 9a 88 bf
       -0.32743296 3.756096 -1.0891763 -1.0672001
000310 44 39 07 bf bb 84 4c c0 c7 1e ac be 44 f6 c7 3e
       -0.52821755 -3.1956012 -0.3361723 0.39055073
000320 d5 94 c7 3f 4a 92 a3 be 92 13 bd 3f 5e cd af be
       1.5592295 -0.31947547 1.4771597 -0.3433637
000330 02 26 0a c0 2b 83 4e be a6 7f 35 3f a2 26 83 bf
       -2.1585698 -0.20167224 0.708979 -1.0246165
000340 82 36 00 c0 a2 f4 81 40 b4 85 36 bf d7 1d 98 c0
       -2.003327 4.0611124 -0.71297765 -4.7536426
000350 66 82 0a 40 22 9a 4f 40 26 93 a4 3f 3d a5 24 bc
       2.164209 3.2437825 1.2857406 -0.0100491615
000360 3f 1f fd be 37 78 62 3e fa 4c 67 c0 eb 84 bf 3f
       -0.494379 0.22116171 -3.6140733 1.4962438
000370 39 b5 1a 40 a1 ed 75 3f 9f a1 db 3f e0 83 3a bf
       2.417311 0.9606572 1.7158698 -0.72857475
000380 00 fd 7f 3f 1d 42 f7 3e a0 ff d8 be 56 c3 ec bf
       0.9999542 0.48292628 -0.42382526 -1.8497112
000390 64 82 02 40 7b 91 03 40 ab 26 f5 3f 0d f2 60 3f
       2.0392084 2.0557544 1.9152426 0.8786934
0003a0 25 27 ab 3e 1a b4 d7 3f 50 a3 1e bd 30 a4 12 40
       0.33428302 1.6851838 -0.038729966 2.2912712
0003b0 ea 25 9d bf e4 9e a7 bf 0e a7 5a 3d 53 2a 2a 3f
       -1.2277195 -1.3095365 0.053381972 0.6647083
0003c0 8a 04 41 40 89 b9 aa 3d c0 61 ed 3f 8f a7 e6 3e
       3.015902 0.08336169 1.8545456 0.45049712
0003d0 03 fb 1f 3e 50 03 10 3f 7a 71 ac 3f 70 ac 34 bf
       0.15623097 0.56255054 1.347213 -0.7057562
0003e0 ff 67 e4 3f fe f4 0d 3f 63 7b 6a bf 43 8c 56 be
       1.7844237 0.55451953 -0.91594523 -0.20951943
0003f0 5e 83 bc 3d 0d 8a 8b 3e 93 0c 09 40 6a c1 66 bf
       0.09204744 0.27253762 2.1413925 -0.90138876

bias_ih_l0 f4 [200]
000000 30 c2 95 3f 77 37 63 3f f7 89 c5 3f aa 20 82 3f
       1.1699886 0.8875651 1.5432729 1.0166218
000010 fc c6 91 3e 15 0a 3e 3f b7 2b 0e 3f a4 2f 99 3e
       0.28472126 0.74234134 0.55535454 0.2991916
000020 36 a0 6c 3f 50 bc 55 3f da a8 ee bd a6 74 7d 3f
       0.9243196 0.8349047 -0.116533 0.99006116
000030 43 c7 b9 3e d8 93 08 be c0 f0 9c 3f d1 4f c6 3f
       0.36284837 -0.13337648 1.2260971 1.5493108
000040 f0 ae 87 bf 5c 46 d8 3e c2 03 13 bf 93 78 87 3f
       -1.0600262 0.4224118 -0.5742761 1.0583671
000050 ad 06 3f bf 71 29 b9 3d ef 1f 15 3f 73 db 51 3e
       -0.7461956 0.090411074 0.5825185 0.2049387
000060 19 11 05 3e 52 ee bc 3e 97 ef 3b 3f e0 dc c5 3e
       0.12994803 0.36900574 0.7341246 0.38645077
000070 97 5b 0a 3e 9b a7 85 bd 8b 2c 7c 3e c4 d4 31 3f
       0.13511501 -0.06526109 0.24626367 0.6946528
000080 85 5a d7 be 6f ee fe 3d 7c 29 9d 3e f6 18 55 3f
       -0.42061248 0.12447821 0.30695713 0.8324121
000090 6c 38 a6 be 38 ac c4 3f 35 ad 3a 3e 98 76 e4 3e
       -0.3246492 1.5365057 0.18230136 0.4462173
0000a0 fa 7c 71 be 76 ea 0c be 78 6a 02 3f e2 16 d2 be
       -0.23582831 -0.13761315 0.5094371 -0.41033083
0000b0 ce e7 54 be 9f 4e 11 bf 4f e9 f6 3f 53 5e 89 3f
       -0.20791551 -0.5676059 1.928995 1.073191
0000c0 c8 67 3e 3e 33 f2 d5 3e 62 d3 08 3f 31 ff 5c bf
       0.18594277 0.41786346 0.53447545 -0.8632689
0000d0 c4 b2 1f 3f 32 55 4f 3f ca 42 a7 3d 39 90 a8 be
       0.6238215 0.8098937 0.08167036 -0.32922533
0000e0 d0 e6 5f 3f f6 4c 1f be 98 e5 81 3d 41 39 2d 3e
       0.87461567 -0.15556702 0.0634262 0.16916372
0000f0 dc 07 5b 3e 83 8d 2a 3d 80 51 d8 3e ac 8f 66 3e
       0.21389717 0.041638862 0.4224968 0.22515744
000100 e3 15 e1 3c bf f6 43 3f d3 e8 72 3f a6 c8 36 be
       0.027476257 0.7654838 0.9488651 -0.17849979
000110 d3 1d 9c 3e 59 bb b1 be cb 26 4e 3f 2a 81 fc 3e
       0.30491504 -0.34713247 0.80527943 0.49317294
000120 db 8d fe 3e 9f 67 38 3d 09 d6 b9 be 43 a3 e0 3e
       0.49717602 0.045020696 -0.36296108 0.4387456
000130 01 ee 45 3e 5b 88 ec be e8 70 f0 bf bf 4f 5b 3f
       0.19329073 -0.4619778 -1.8784456 0.8566856
000140 74 14 4f 3e 3d 17 c5 be 15 00 2f be 32 15 e5 be
       0.20222646 -0.38494292 -0.17089875 -0.44742733
000150 cf ab d2 3e e5 e9 11 3f 39 64 26 be 7b 36 9d bf
       0.41146705 0.5699752 -0.1624917 -1.2282251
000160 04 21 c2 bc 81 b2 a6 be 9d c2 1d bf 94 ce 31 bf
       -0.023697384 -0.32558063 -0.6162508 -0.6945584
000170 b6 a1 22 3f f4 17 6a 3f 73 ae 04 3f b0 99 34 bf
       0.63528 0.914428 0.5182869 -0.7054701
000180 17 f0 3a 3f 52 c3 ae b8 4c 8f 7b bf bd d2 55 be
       0.730226 -8.333348e-05 -0.9826553 -0.20881172
000190 f1 5f 25 bf c9 2f f4 3e ff 9a 7b be 14 a3 d3 be
       -0.6459952 0.47692707 -0.24570845 -0.41335356
0001a0 32 d1 49 3d 62 f8 01 bf 20 82 3a 3f cb 6b 80 3f
       0.04927177 -0.5076963 0.72854805 1.0032896
0001b0 06 24 03 bf f6 8c 7d 3e 6b 6e db be 46 4b 14 be
       -0.5122684 0.24760804 -0.4285768 -0.1448184
0001c0 66 e8 ad be 29 4f 32 bf 8e 09 5c 3e 3d 83 71 3e
       -0.33966368 -0.6965204 0.2148802 0.2358522
0001d0 ab a0 90 3f af b6 0b bf 6e 01 a2 bb 38 45 5a 3f
       1.1299032 -0.5457563 -0.004944018 0.8526187
0001e0 38 c3 80 3e 66 72 05 3f 93 17 4d 3d 22 fb bb 3e
       0.2514894 0.52127683 0.05007131 0.36715037
0001f0 63 cd 5a 3f 33 fa 34 be 6e d7 1b bf 46 f2 0b 3f
       0.85469645 -0.17673568 -0.60875595 0.54666555
000200 48 bf 12 bc df 86 f0 be cd ff 0f 3f 8e af 81 3e
       -0.008956738 -0.46977898 0.56249696 0.2532925
000210 41 8a 33 bd 44 32 a9 bf de 81 01 3e a4 11 ab 3e
       -0.04383302 -1.3218465 0.12647197 0.33411896
000220 a7 c7 9d be 4d 5d f1 3e 23 d3 b5 bd 70 f2 b9 3e
       -0.30816385 0.47141495 -0.08878162 0.36317778
000230 30 92 17 3e 2b d4 d1 bd b2 e0 40 3e 83 94 8a 3e
       0.1480186 -0.10245546 0.18835714 0.2706643
000240 f1 5b 5f bf 71 4c 2f 3e f3 f3 f0 3d 38 c3 e3 be
       -0.87249666 0.17119004 0.117652796 -0.44484878
000250 16 37 3d 3f 5d 91 9c be b2 56 f0 bd b0 be a0 3f
       0.7391218 -0.30579653 -0.11735286 1.2558193
000260 12 3e 93 3f 5c 1d 40 3f 8e 86 15 bf 3b f7 dd be
       1.1503317 0.750448 -0.5840844 -0.43352684
000270 8d 57 bc be 1e 79 11 3f 5e 11 29 3f b7 d7 13 bf
       -0.36785546 0.56825435 0.66042125 -0.5775103
000280 e9 5c a2 be b2 9e aa 3f e9 3e ab bf b9 2f 02 40
       -0.3171151 1.332968 -1.3378574 2.0341628
000290 da c8 02 40 c3 c7 65 bf 18 10 02 c0 0b 9c 67 bf
       2.043509 -0.8975794 -2.0322323 -0.9047248
0002a0 2a 46 cb bf 61 49 40 bf 7a 75 bb 3e c0 94 8b 3f
       -1.5880787 -0.7511197 0.36613065 1.090477
0002b0 97 8f 8f 3e f8 8e 98 be 0a 0b 9a bf 7e 77 4e bf
       0.28039238 -0.29796576 -1.2034619 -0.8065108
0002c0 19 cf 98 3f 6f 11 88 3f b4 63 1f 3f 24 00 17 3f
       1.1938201 1.063032 0.6226151 0.5898459
0002d0 57 b0 a1 3e 60 cb fa bd c4 f7 69 3f 57 6f 19 bf
       0.3157985 -0.12245822 0.91393685 -0.59935516
0002e0 d5 6d a0 3f 37 87 cd 3f 00 a5 54 3f 0b 63 b7 3f
       1.2533518 1.6056889 0.8306427 1.43271
0002f0 4f c2 86 3f 43 e8 97 be 86 c5 13 be b7 d8 4a 3f
       1.0528048 -0.2966939 -0.14430818 0.7923693
000300 b2 de 57 3f 4a e2 39 bf 8a ba a1 bd 8e 84 44 3f
       0.8432418 -0.72610915 -0.07896908 0.7676476
000310 b9 41 04 3d 5a 9c 1b be b7 3c 02 40 29 2f 4a 3f
       0.03228924 -0.15196362 2.0349557 0.7897821

bias_hh_l0 f4 [200]
000000 2f 27 87 3f d2 7d 62 3f 79 ca a9 3f 07 7b 97 3f
       1.0558833 0.88473237 1.3264915 1.183442
000010 05 f4 99 3e ee 76 73 3f 5f 7e 1f 3f 42 d1 e0 3e
       0.30068985 0.9510335 0.623022 0.4390965
000020 9e a8 70 3f 33 73 46 3f 6d 20 c2 3d 99 33 46 3f
       0.9400729 0.7751953 0.09478841 0.7742248
000030 5f c7 ae 3e b9 cc 5f 3d 4d 07 9c 3f f0 83 b5 3f
       0.34136483 0.054638598 1.2189728 1.4180889
000040 de 67 98 bf 58 b3 8e 3e 6c 83 df be 9d 79 7f 3f
       -1.1906698 0.27871203 -0.43654954 0.9979494
000050 fc 00 25 bf a9 04 b6 3b 98 83 14 3f dd 59 b9 3e
       -0.6445463 0.0055547548 0.58013296 0.36201373
000060 c1 55 14 3e bb 31 05 3f 3d 01 75 3f ae 99 93 3e
       0.14485838 0.5202901 0.95705014 0.28828186
000070 82 df 44 3e cd 15 5f 39 fd e3 82 3e 03 b9 39 3f
       0.19225886 0.00021275059 0.25564566 0.7254793
000080 22 9e 1e bf f5 20 98 bd 5a 8e ee 3e 8d fc 2c 3f
       -0.6196004 -0.07428161 0.4659298 0.6757286
000090 bb 5e e5 be a6 2a b6 3f df ac b9 3d b0 48 1b 3f
       -0.44798836 1.4231765 0.09066176 0.6065779
0000a0 47 a1 af be 3e 78 d2 3d ef 12 09 3f 7f e4 17 bf
       -0.34302732 0.102768406 0.53544515 -0.5933303
0000b0 65 58 26 be d4 a6 ae be 69 f5 ec 3f 80 f3 a1 3f
       -0.16244657 -0.34111655 1.8512393 1.2652435
0000c0 02 64 03 3e c4 25 11 3f ea 8e 3b 3f 1a 0e 77 bf
       0.12831119 0.5669825 0.73264945 -0.9650589
0000d0 fc 7b 20 3f f2 08 36 3f 42 d8 2d 3d b8 39 cc be
       0.62689185 0.711074 0.042442568 -0.39887786
0000e0 55 64 5f 3f 90 d1 56 bd 9e 3c 38 bd 25 c9 d2 3c
       0.8726247 -0.052445948 -0.044979684 0.025730679
0000f0 a5 b9 9f 3e 20 3e 8c 3e 34 59 e2 3e b1 21 2d 3e
       0.31196323 0.27391148 0.44208682 0.16907384
000100 66 08 c1 3d d6 b8 34 3f 81 8a 63 3f 71 fe 49 be
       0.0942543 0.7059454 0.88883215 -0.19725968
000110 51 89 04 3f 2d d8 43 be 1b 38 40 3f 43 58 fd 3e
       0.5177203 -0.19125433 0.7508561 0.494814
000120 f4 3d 36 3f cc 40 22 bd 9c 28 e1 be 67 01 08 3f
       0.7118828 -0.039612576 -0.43976295 0.5312714
000130 e2 b5 2a 3e 47 cc 0e bf a3 b7 de bf 78 64 56 3f
       0.16670945 -0.5578045 -1.7399791 0.83747053
000140 aa 8b e1 3e 97 2b 61 be 06 69 54 3b 83 b8 19 bf
       0.44051868 -0.21989284 0.0032411232 -0.6004717
000150 45 7c 0d 3f bc f3 ed 3e 34 58 9c bd 30 ee b7 bf
       0.55267745 0.46475017 -0.07634011 -1.4369564
000160 35 1b cd bc 21 bd 11 bf f1 69 46 bf fb b2 17 bf
       -0.025037387 -0.5692921 -0.77505404 -0.5925748
000170 4a 28 33 3f e9 22 53 3f 5f b1 2f 3f f1 94 52 bf
       0.6998335 0.82475144 0.6863002 -0.82258517
000180 26 f5 3e 3f ba 67 ed 3d 35 7f 7c bf 9c fa 74 be
       0.74592817 0.1159205 -0.986316 -0.23923725
000190 d2 6b 5f bf 26 b5 e7 3e ea 55 df bd a4 a4 b0 be
       -0.87273896 0.45255393 -0.10905059 -0.3450061
0001a0 5b 3a 2d 3e f5 e1 ff be 6a 79 1b 3f 73 0d 84 3f
       0.16916792 -0.4997708 0.6073214 1.0316604
0001b0 71 93 b5 be 09 66 54 3e cb 25 ad be ee 54 9b bd
       -0.3546405 0.20742048 -0.33817896 -0.075845584
0001c0 fc e6 96 be 5a 23 1e bf 2a 5a c2 3e 22 c7 35 3e
       -0.29473102 -0.6177269 0.37959415 0.17751744
0001d0 3c fc 9d 3f 52 83 bb be f7 00 3d 3d be 2b 4e 3f
       1.2342601 -0.36623627 0.0461435 0.80535495
0001e0 e3 a0 91 3e f0 6a ec 3e 55 43 61 3e 2d 53 ce 3e
       0.2844306 0.46175337 0.21998341 0.40297833
0001f0 22 29 85 3f 9d b9 c7 be 48 eb e3 be a3 0d 1d 3f
       1.0403178 -0.390088 -0.44515443 0.61348933
000200 2e df 2c be f4 d2 08 bf cd 0b 0d 3f 33 67 63 3e
       -0.16882011 -0.5344689 0.5509613 0.22207336
000210 ea 4b f0 3b 3e 04 93 bf b5 3e 86 3b 2c f2 92 3e
       0.0073332684 -1.148567 0.0040968307 0.28700387
000220 87 f3 c8 bd a4 8a 60 3e af 8a f6 bd eb 31 49 3e
       -0.09812074 0.21927887 -0.120381705 0.19647948
000230 b9 e9 a1 3c 18 a6 10 be b1 cf 99 3e a9 7f 2b 3e
       0.019764768 -0.1412586 0.30041268 0.16747917
000240 4a 2d 58 bf b0 25 96 3e 1f 16 23 3e 31 cf f1 be
       -0.84444106 0.29325628 0.15926407 -0.47228387
000250 0b 7e 1e 3f 35 8d f0 be fe 63 43 be af 3f a8 3f
       0.61911076 -0.46982732 -0.19081113 1.3144435
000260 61 4f 85 3f a6 cd 39 3f 19 9e 14 bf eb ed cc be
       1.041485 0.7257942 -0.5805374 -0.40025267
000270 19 13 b7 be 13 62 0b 3f c8 87 36 3f 9a 8a 05 bf
       -0.35756758 0.54446524 0.71300936 -0.52164614
000280 3f f2 9a be 86 e6 9d 3f ba 89 a3 bf db 5b f3 3f
       -0.30262944 1.2335975 -1.2776406 1.9012407
000290 f9 f1 f6 3f 00 f7 4c bf 6a 96 01 c0 8f 7a 7b bf
       1.9292594 -0.8006439 -2.0248055 -0.98233885
0002a0 87 9e b6 bf 7b 49 57 bf 65 3a 06 3f 54 79 a7 3f
       -1.4267129 -0.840965 0.52432853 1.3083901
0002b0 b4 41 5d 3e ad af dd be 55 8e 92 bf f5 e4 1d bf
       0.21607095 -0.43298092 -1.1449686 -0.61677486
0002c0 07 38 98 3f 3c 54 83 3f 0a b0 08 3f 7c 09 ea 3e
       1.1892098 1.0260081 0.53393614 0.4571036
0002d0 bd 80 a4 3e 01 d4 69 be 7e cb 70 3f e4 c4 17 bf
       0.3212947 -0.2283478 0.94060504 -0.59284806
0002e0 6e 11 93 3f 88 57 e0 3f b2 2f 55 3f e0 8b a5 3f
       1.1489694 1.7526712 0.832759 1.2933311
0002f0 fe 22 91 3f b7 be f0 be 38 da fd bc 1d fe 49 3f
       1.1338804 -0.47020504 -0.030987844 0.7890337
000300 13 e1 2f 3f 06 da 61 bf 32 f9 91 bd 29 89 06 3f
       0.6870281 -0.882233 -0.07127608 0.5255304
000310 1e b5 77 bc b5 67 d7 bc 63 70 00 40 89 a4 87 3f
       -0.015118865 -0.026294569 2.0068595 1.0597087

weight f4 [74, 50]
000000 f8 3c 85 3e bf 2e 62 bf fd 6e e9 3e 31 d6 69 3e
       0.26023078 -0.8835258 0.4559249 0.22835614
000010 10 7a 02 3e 76 bf 9e be 97 45 f8 be 4d 68 c1 be
       0.12741876 -0.31005448 -0.48490593 -0.37774888
000020 cd 64 15 3e 4a 90 f8 be 3f 3c 78 3e a5 d8 e4 be
       0.14589234 -0.48547584 0.24241732 -0.44696537
000030 26 cf 2e 3e 4a 44 6d 3e f1 31 5e 3e c6 19 cc be
       0.17071208 0.23170581 0.21698739 -0.39863414
000040 b2 ba 0d bf 6d d2 b2 3e a4 cc 86 be cf 8d 69 be
       -0.55363 0.34926167 -0.26328003 -0.22808002
000050 e1 e8 ab be 55 83 02 bf 8c 45 8c 3e 5d 0c d6 be
       -0.3357611 -0.50981647 0.2739681 -0.41806307
000060 5e dd 87 3c c3 1f 21 3f 1d 71 53 be 6c 2f 8b 3e
       0.016585048 0.6293909 -0.20648618 0.27184618
000070 e1 77 8d be 9d 94 8f 3e bc f4 4b be fc 8e ae be
       -0.27630523 0.2804307 -0.19917578 -0.34093463
000080 da a4 13 3f e7 c6 17 3d 45 22 ee bd 63 53 8c 3e
       0.5767342 0.037054922 -0.1162763 0.2740737
000090 0f 51 e7 be fc 5d 2b bf a5 c2 82 3e 8e e7 b9 be
       -0.4517903 -0.66940284 0.25539127 -0.36309475
0000a0 37 6a cd be 64 fb ad be 8c 0d 7b 3f c6 22 59 be
       -0.40120098 -0.33980858 0.98067546 -0.21204671
0000b0 eb ed 96 3e 6e 17 5c be 29 58 03 be c3 24 c5 be
       0.29478392 -0.21493313 -0.12826599 -0.3850461
0000c0 08 57 dd be 69 0e ed 3e 30 b0 88 3e c3 7b 69 bf
       -0.43230462 0.46300057 0.2669692 -0.9120447
0000d0 a7 a3 b7 3e fe ce ac 3e 3d 91 85 3e 13 23 a0 be
       0.35867044 0.33751673 0.2608737 -0.3127676
0000e0 16 00 90 be 76 fc 8d be 21 c9 a4 3d 1b 9e f0 be
       -0.28125066 -0.27731675 0.08046175 -0.46995625
0000f0 6f 3e 94 3e 29 52 05 bf 2d 9b 55 3e d1 28 a6 3e
       0.28953883 -0.5207849 0.20859976 0.32453015
000100 3d b0 26 3e 69 e3 c0 be 97 8f 08 bf ad e1 4e 3e
       0.16278167 -0.376735 -0.533441 0.20203276
000110 d0 aa 4e be dc 9b 92 be d0 03 ce be d6 e9 10 bf
       -0.20182347 -0.28634536 -0.40237284 -0.56606805
000120 6a 32 2c 3e 07 02 e5 be ba 31 86 bd e6 db 19 3f
       0.16816106 -0.4472811 -0.06552453 0.60101163
000130 07 f0 0a be 8b ee b2 3e 2e 24 b1 be 83 c8 ca 3e
       -0.13568126 0.3494762 -0.34597915 0.39606103
000140 33 2a 3b be 8f 53 c3 be 75 c4 07 3f bf 1a f3 3d
       -0.18277816 -0.38149688 0.53034145 0.11870336
000150 a8 d8 b8 bd ad 95 4d 3e 82 e8 9e be 1e f1 44 bf
       -0.09025699 0.20076628 -0.31036764 -0.76930416
000160 63 60 56 3e 0d 3a d6 be e7 20 9f be 17 02 06 bf
       0.20935206 -0.41841164 -0.3107979 -0.5234694
000170 78 26 98 3f 35 8f 76 be 5d 06 8e 3e ea 2e a3 bd
       1.188674 -0.24078067 0.2773923 -0.079679325
000180 cc 2f 84 be 9f fa ee be fa 2b a1 be 87 8d fd 3e
       -0.25817716 -0.46675584 -0.31478864 0.4952204
000190 dd db 03 bf 86 3f 64 3f 9b 24 13 c0 bb 39 8e be
       -0.5150736 0.8915943 -2.2991092 -0.2777842
0001a0 ae b0 90 bf fc e0 60 bf db 95 17 c0 35 3e 14 bf
       -1.1303918 -0.878433 -2.3685215 -0.5790742
0001b0 08 2f 1a bf 8c b3 21 c0 1f 21 c5 bf e2 8c ab bf
       -0.60228014 -2.5265837 -1.5400733 -1.3402369
0001c0 db 8a 07 40 54 30 ff 3e 44 b9 75 bf ed 56 59 bf
       2.11785 0.4984156 -0.9598582 -0.84898263
0001d0 9c ab 89 bf dc ad 03 c0 96 8f 2d 3f e2 ce 44 bf
       -1.0755496 -2.0574865 0.6779722 -0.7687818
0001e0 71 1e 7d 3f 8e e6 db 40 b8 96 ba 3d 0c 5a 54 3f
       0.98874575 6.871894 0.091107786 0.829499
0001f0 c8 46 65 3f 0c 15 18 bf 7e 78 00 be 95 07 e8 3d
       0.8956113 -0.59407115 -0.12545964 0.11329571
000200 9f c3 ce be 4a 7f a3 3e 8c ce d4 bf 26 00 12 3f
       -0.40383622 0.3193305 -1.6625533 0.57031476
000210 cc 4a c7 bf 71 ca a1 bd 1d 77 b4 bf a4 3b 70 3e
       -1.5569701 -0.07899941 -1.409885 0.23460251
000220 51 62 3a c0 08 17 be bf f5 69 2c 3d e3 c4 be be
       -2.9122508 -1.4850779 0.042093236 -0.37259588
000230 3f d7 b4 3f e4 43 06 3f 54 22 72 bf 87 91 10 bf
       1.4128188 0.5244734 -0.9458363 -0.5647206
000240 78 4d 26 3f 63 fd 59 c0 d7 e7 4b 3c d7 ca a7 3e
       0.6496196 -3.4060905 0.012445412 0.32771942
000250 33 0b e8 3e 10 db 99 be 93 50 f7 3e b8 73 2c 3f
       0.45321044 -0.30049944 0.4830366 0.6736407
000260 a9 4b 20 40 a8 4a 59 bf 9a 04 ca 3f 6e c9 94 bf
       2.504618 -0.8487954 1.5782654 -1.1623971
000270 c2 fe 3b 40 61 c1 14 c0 32 b4 eb bf 0f 03 da 3b
       2.9374242 -2.324303 -1.8414366 0.0066531966
000280 df 24 f0 3e 70 29 20 c0 46 d2 a3 40 19 76 c5 40
       0.4690313 -2.5025291 5.119418 6.170666
000290 e8 ef 38 40 74 3e 09 c0 32 50 b3 c0 83 58 ca 3f
       2.8896427 -2.1444368 -5.6035395 1.5808262
0002a0 89 7c 11 c0 80 f6 c1 bf 6f cb 7c 3f a0 f9 65 3e
       -2.273226 -1.5153351 0.98747915 0.22458506
0002b0 32 3c 83 40 63 4a 2b c0 09 91 80 c0 77 99 e3 40
       4.101098 -2.6764152 -4.0177045 7.1124835
0002c0 c0 0e 07 c0 d0 ec 59 40 25 58 dc 3f 53 65 94 bf
       -2.1102753 3.405079 1.72144 -1.1593422
0002d0 12 e3 bb 3f 75 58 15 3f da d8 c8 bf fc 40 bb bf
       1.4678671 0.583381 -1.5691178 -1.4629207
0002e0 e4 39 2b c0 1c b4 14 40 78 48 cd c0 68 3b 47 40
       -2.6754084 2.323493 -6.4150963 3.1130009
0002f0 00 70 7d be e2 ba ea bf fa fc d2 3f b8 89 c5 3f
       -0.24749756 -1.8338282 1.6483452 1.5432653
000300 3f e2 45 40 5d ae 74 bf e9 f1 29 3f c5 52 ab 3e
       3.091934 -0.9557856 0.6638475 0.33461586
000310 30 33 d0 c1 51 a5 2f c0 cf 76 e6 be f1 44 97 40
       -26.024994 -2.744465 -0.4501252 4.7271657
000320 61 a5 c2 bf 13 26 8a 3d e2 4d ae be a3 87 5f bf
       -1.520672 0.06745543 -0.34043795 -0.8731634
000330 3c e0 aa bf 34 bb 78 3e 7c ad 6c 3f 23 7f aa 3f
       -1.3349681 0.24290162 0.92452216 1.3320049
000340 bd 16 c9 3d e7 55 6a bf ba 58 66 3f ab 1c 2c 3e
       0.0981879 -0.91537327 0.89979136 0.16807811
000350 52 88 01 c0 46 c0 dd bf 4d 7d da 3e ee 73 24 3f
       -2.0239453 -1.7324302 0.42673722 0.64239395
000360 f0 2a ec 3e b3 f9 a5 bf 65 62 9f be 87 d3 94 3f
       0.4612651 -1.2966827 -0.31129757 1.1627053
000370 21 d2 f9 3e 10 e4 a9 bf f7 64 f9 3d fd 4e 0d bd
       0.48793128 -1.3272724 0.12177461 -0.034499157
000380 b4 66 8b 40 3d 4b c2 be ad 4d 87 3c 16 83 47 40
       4.356287 -0.37948027 0.01651653 3.1173759
000390 7e 4c 87 3f e7 b3 b3 3d 33 fd 0e 3f a2 ba 08 40
       1.0570219 0.08774548 0.558551 2.1363912
0003a0 8f 26 de 3e c1 29 47 bf fa 19 20 bf 17 3c 9e bc
       0.43388793 -0.77798086 -0.6253964 -0.019315762
0003b0 4a 02 b1 3f dc 39 16 bf 79 6c 25 bd 98 32 25 40
       1.3828824 -0.58682036 -0.04038665 2.581213
0003c0 74 f3 b2 3f a3 a0 27 3f 6f aa 72 3f 0e 3d c6 3f
       1.3980546 0.6547949 0.9479131 1.5487382
0003d0 29 d9 61 be d0 08 dd 3f 5a 0d b1 3e 0f 2b 87 3f
       -0.22055496 1.7268314 0.345805 1.0560015
0003e0 42 34 66 be e0 74 97 3f 34 4b 9a 3f 6a cd 98 c0
       -0.22480872 1.1832542 1.20542 -4.775075
0003f0 f8 f1 e6 3f a3 38 8f 3e 71 42 4d c0 c4 62 e6 bf
       1.8042593 0.27972898 -3.2071803 -1.7998891

bias f4 [74]
000000 9b 33 69 be c8 93 ae be e8 18 b9 3f 4f 37 c5 bd
       -0.22773592 -0.34097123 1.4460726 -0.0962969
000010 c1 9b 3c 3f 6f ea 4c bf 1c 2c 90 be 5d 7b 89 3f
       0.7367516 -0.8004522 -0.28158653 1.0740772
000020 c1 49 85 3f 61 a2 42 bc 76 3d e9 be 06 62 cb 3e
       1.0413133 -0.011879534 -0.45554703 0.39723223
000030 70 e4 76 3e 1c 2b 10 bf c9 7f 41 3f 71 f0 eb 3e
       0.2411058 -0.5631578 0.7558561 0.4608188
000040 ba f5 a1 be 11 6f 5e be 7e da 2b 3e db c2 27 3e
       -0.31632787 -0.21722056 0.16782567 0.16382925
000050 7c 23 3d bb cb 45 bb bf f8 06 46 3f 29 05 59 3f
       -0.0028860262 -1.4630674 0.77354383 0.847735
000060 e3 a0 7d bf a8 c4 ae 3f e9 f1 81 be fa 3a d2 3e
       -0.9907362 1.3653765 -0.25379875 0.4106062
000070 93 5b ac bf a5 97 1c 3f 19 d9 b7 bf cd f5 80 bf
       -1.3465446 0.6116889 -1.4363128 -1.0075012
000080 ea d4 c8 bc d1 ee 97 bf 2a 9d b8 bf 9e c0 b9 bf
       -0.024515588 -1.1869756 -1.4422963 -1.4511907
000090 e5 46 cd bf d4 b6 99 be b1 b7 8e be e1 e4 ab be
       -1.603726 -0.300223 -0.2787452 -0.33573058
0000a0 23 4f 6b be 74 a2 58 be e4 6b a8 bd 5f 63 d9 bd
       -0.22979407 -0.21155721 -0.082237035 -0.10614657
0000b0 94 76 33 be 6c ab 24 be 67 ac 8c be 82 19 b2 be
       -0.17525703 -0.16081017 -0.27475283 -0.34785086
0000c0 94 8a 9b be 1c a4 cd bd d2 cf 63 be a7 2a 91 be
       -0.30379164 -0.10041067 -0.22247246 -0.28352854
0000d0 ae 3a 89 be e7 68 79 be 81 89 20 be 08 48 9b be
       -0.26802582 -0.24356423 -0.15677454 -0.30328393
0000e0 15 88 24 be 32 36 b9 be 06 ac c9 bd 2c d5 fb bd
       -0.16067536 -0.3617416 -0.09847264 -0.12296519
0000f0 f1 d2 c8 be 9d 8a 2f be 6c 56 77 be ef 11 cd bd
       -0.39223436 -0.1714272 -0.24154061 -0.10013186
000100 98 1d 39 be 98 f1 ac be 33 dc 9f be 69 66 34 be
       -0.18077695 -0.3377807 -0.31222686 -0.17617191
000110 78 a0 4f be 82 6d 84 be 54 f4 a8 be 31 3e d7 bd
       -0.20276058 -0.25864798 -0.32998908 -0.10509909
000120 17 92 58 be e1 08 1a be
       -0.21149479 -0.1504245

weight f4 [35, 2]
000000 e8 64 c6 be 2c 3b 08 3e 32 cc cd 3e d4 e8 54 3e
       -0.3874886 0.13303822 0.4019485 0.20791942
000010 82 f2 cb 3e a8 47 24 be d8 ee 10 bf 1e 28 cb 3e
       0.39833456 -0.1604296 -0.56614447 0.39679044
000020 cf 3c 29 bf 30 5e 22 3d bf d7 1d 3f 2a b4 d4 3e
       -0.6610841 0.039640605 0.6165733 0.41543704
000030 20 e4 d1 3d 1c 42 b2 be 89 0e c0 be 83 71 22 3f
       0.102485895 -0.34816062 -0.3751109 0.63454455
000040 e0 a7 cf bc d6 b1 10 bf cb 0c 06 3f 96 d7 12 bf
       -0.025348604 -0.56521356 0.5236327 -0.5736021
000050 cc ee 09 3e 3d e9 84 be 37 21 1e 3f 3a b9 cc 3e
       0.1347 -0.25959197 0.6176943 0.39985067
000060 00 71 95 bc 74 65 22 bf 80 f9 cc bc 00 22 7a bd
       -0.01824236 -0.63436055 -0.025021315 -0.06106758
000070 c4 30 26 bf 60 12 50 3d 68 81 fd 3d 08 ae 1d 3e
       -0.6491816 0.050798774 0.12378198 0.15398419
000080 00 e0 09 3c 4b 88 30 3f 9c f9 38 be 30 38 f7 be
       0.008415222 0.68957967 -0.18063968 -0.48285055
000090 9c 3c 31 3e ec ea 3d be a6 33 a2 3e 3e 53 d0 3e
       0.17308277 -0.18546647 0.3168003 0.4068851
0000a0 e6 b8 76 be 71 f0 1a 3f 60 89 8f 3e 9a 21 d8 3e
       -0.2409397 0.60523134 0.28034496 0.42213136
0000b0 67 ac 19 3f 5a 9b 1a bf 48 9e e8 3d 5a 15 c0 3e
       0.6002869 -0.603933 0.11358315 0.3751629
0000c0 c8 7c 63 3e 87 9b 1a bf e8 f9 db 3d c2 3b e0 be
       0.22215569 -0.60393566 0.10741025 -0.43795592
0000d0 98 66 89 be 3d 60 27 bf dd 2c 16 3f a0 e6 51 bd
       -0.26836085 -0.6538122 0.58662206 -0.05124533
0000e0 8d 6b 1c 3f a7 a1 e1 be e7 32 e5 be dd fa 0a 3f
       0.6110161 -0.44068643 -0.44765398 0.54289037
0000f0 28 b1 db bd 55 85 0c bf 1f 0f 16 bf ac e8 3b 3e
       -0.10727149 -0.5489095 -0.5861682 0.18350476
000100 7c f7 f7 be 9c 7a 8a be d6 cf 9b 3e f8 92 02 3e
       -0.48431003 -0.2704667 0.30432004 0.12751377
000110 b2 c3 95 be c5 4b 13 3f
       -0.29250866 0.5753749

bias f4 [35]
000000 32 f1 e4 be 80 11 ec 3b 2f 12 ad be 8e 56 ce be
       -0.44715267 0.0072042346 -0.33802935 -0.4030041
000010 da 22 91 3e 48 a9 7e be 8a 00 16 bf 80 1e b1 bb
       0.28346902 -0.24869263 -0.5859457 -0.005405247
000020 b0 6e e3 bd a0 eb 03 be 3e fd 8f 3e 14 5f 29 bf
       -0.11105096 -0.12882853 0.28122896 -0.661607
000030 ee 11 e5 3e c6 18 d9 3e 50 ce 81 3d 1c f7 4b be
       0.44740242 0.42401713 0.06338179 -0.19918483
000040 28 ff 24 bf 5c 82 89 3e 9e fd 91 3e a6 91 ee 3e
       -0.6445184 0.2685727 0.28513807 0.46595496
000050 88 29 e3 3d 80 84 b8 3c 49 98 bd be 8a ee c4 3e
       0.11091906 0.022524118 -0.37030247 0.3846324
000060 b9 e6 2f 3f 80 d0 7c 3d 0e 12 f6 3e 8e 2b e3 3e
       0.6871143 0.06172228 0.4806065 0.44369167
000070 d7 e1 06 bf cb 68 26 3f 44 cb 4c be 5e 29 2f bf
       -0.52688354 0.6500365 -0.19999415 -0.68422496
000080 c6 23 10 bf d2 45 b4 3e 6b b6 92 be
       -0.56304586 0.3520952 -0.286548

weight f4 [50, 35]
000000 d0 02 09 3e d8 dc 2a 3e f8 ae cf bc 36 76 8a bd
       0.13379979 0.16685808 -0.025351986 -0.06760828
000010 60 0d 4e bd 7f cf 9b bd d8 3c 15 3e 88 ca b6 bd
       -0.050305724 -0.07607936 0.14573991 -0.089253485
000020 88 35 e5 bc af 5a c9 bd 66 ae ab bd c8 86 81 bc
       -0.027979627 -0.0983175 -0.08382873 -0.015811339
000030 cc f6 df bd e0 79 e6 3b 00 dc 1c bc fd 9a ec bd
       -0.10935745 0.0070335716 -0.009573936 -0.11552999
000040 30 fb 68 bd c0 26 b6 3d 4b c7 c0 bd 70 26 08 3d
       -0.056880176 0.0889411 -0.09413012 0.03323978
000050 3e 54 d4 bd 9c 1e 21 3d c8 49 a9 3d 60 4b dc bd
       -0.103676304 0.039335832 0.08266026 -0.10756564
000060 b4 57 d6 bd 42 50 1f be d9 ef 18 be 68 67 1d be
       -0.10465947 -0.1555796 -0.14935245 -0.15371478
000070 30 2d 40 3d 7c d6 d3 bd cf 69 da bd cc 74 ec bd
       0.046918094 -0.10343644 -0.10664713 -0.11545715
000080 c4 c9 b6 3d 97 4f d1 bd 98 2e 0c 3d e8 aa b3 bc
       0.089252025 -0.10220259 0.034224123 -0.02193208
000090 d1 bb 0a be 6c 2f bb bd f4 c1 24 bd 12 a8 10 be
       -0.13548209 -0.091399044 -0.04022403 -0.14126614
0000a0 1a 93 1c 3e 22 8e 22 3e 03 1a 26 be dc 5f e8 3d
       0.1529049 0.15874532 -0.1622086 0.11346409
0000b0 74 df 04 3e 60 a2 fd bb b0 39 d6 3d e8 54 76 3d
       0.12975866 -0.007740304 0.10460222 0.060139567
0000c0 50 50 64 3d cc 6e ff 3d a1 90 04 be 28 23 f6 3d
       0.055740654 0.12472305 -0.12945797 0.12018424
0000d0 58 72 f5 3c 28 d5 e2 bc 80 7f 12 bb 38 d8 24 3e
       0.02996175 -0.027689531 -0.0022353828 0.16098106
0000e0 36 4d 14 be c0 c6 b0 3c 00 78 97 3c 65 87 03 be
       -0.14482579 0.021579146 0.018489838 -0.12844618
0000f0 c1 9a 2c be c8 c0 d8 bd 34 90 90 bd 80 df b9 3d
       -0.16855909 -0.10583645 -0.070587546 0.09075832
000100 9b c2 e4 bd a6 49 13 3e a2 4f 56 bd ab 15 d8 bd
       -0.111699305 0.14383563 -0.052322038 -0.10551008
000110 00 1e ac 3c f0 bd ae bd d8 af eb 3d 3b ae 90 bd
       0.021010399 -0.085323215 0.11508149 -0.07064482
000120 3c ec 14 3e 78 37 1c be 97 7e ac bd d0 69 9d 3c
       0.14543241 -0.15255535 -0.084225826 0.019215494
000130 40 45 7d bd 20 0a dc 3d b8 1e 4f 3d c8 0b 25 be
       -0.06183362 0.10744119 0.050566405 -0.16117775
000140 88 a4 d9 3d 38 62 19 3e 94 a6 fe 3d 62 44 6f bd
       0.10627085 0.14978874 0.12434116 -0.058414824
000150 a2 07 0f be f8 e5 1d 3d 58 03 87 3c 12 5b 9d 3d
       -0.13967755 0.038549393 0.016481087 0.07683386
000160 77 e0 d4 bd 74 2e b9 bd 70 66 71 3c 3e 0a 1e be
       -0.10394376 -0.09042063 0.014733896 -0.15433595
000170 a8 87 9b 3d e0 e3 db bb 80 e9 e8 3d 20 a3 22 be
       0.07594234 -0.0067105144 0.113726616 -0.1588254
000180 d2 e7 48 bd 90 b9 25 3d b2 f7 0c 3e ac 68 1d 3e
       -0.049049206 0.04046017 0.13766363 0.1537196
000190 d8 87 c3 bd 8c 66 67 3d 50 7c 38 bc d2 e6 1b 3e
       -0.095473945 0.05649428 -0.011260107 0.1522477
0001a0 f3 c6 9b bd 14 43 00 3e 50 ec 1b bc 28 38 cf bd
       -0.07606306 0.12525588 -0.0095167905 -0.10118133
0001b0 42 5e 8d 3d 7a 18 90 3d 54 49 f1 3d a5 1a a6 bd
       0.06902744 0.070359185 0.11781564 -0.08110551
0001c0 6c fd 28 be 20 19 bd 3c f6 d4 f9 bd 78 26 da bd
       -0.16502923 0.02308327 -0.12198822 -0.106518686
0001d0 a3 e9 9a bd 06 c1 0b 3e 00 6e 6c 3b 48 de fb bc
       -0.07564094 0.13647851 0.0036076307 -0.03074564
0001e0 10 c0 ab 3c 9e 32 6f bd 3e 33 05 3e 70 15 ae 3c
       0.020965606 -0.05839788 0.13007829 0.021250457
0001f0 b8 ff d6 3d e8 de 48 3d bc f5 c2 3d 14 5d 77 3d
       0.10497993 0.049040705 0.09519526 0.0603915
000200 84 52 cb 3d 54 7f 26 bd a4 bd be 3d 94 1f 3f 3d
       0.09927848 -0.040648773 0.09313515 0.046660975
000210 96 95 04 be 76 42 0a be 04 de 07 3e 04 76 67 bd
       -0.12947688 -0.13501915 0.13268286 -0.056509033
000220 3a 0d 2d 3e bc 93 9c 3d 04 9d 0e 3e 04 42 c6 bd
       0.16899577 0.076453656 0.13927084 -0.0968056
000230 54 a8 0e be ee 76 00 be d1 1e 29 be 35 c6 a1 bd
       -0.139314 -0.12545368 -0.16515662 -0.07899133
000240 a0 84 bd 3d aa 54 55 bd a8 a6 ca 3c 51 22 a2 bd
       0.09253812 -0.052082695 0.024737671 -0.079167016
000250 78 de e2 bd b0 02 82 3d 14 bf 0a 3d 00 a7 92 3d
       -0.11077589 0.06348169 0.033873633 0.07160759
000260 d4 5c 91 3d 2c ef 50 3d 72 05 08 be ea bc 12 3e
       0.07097784 0.051009342 -0.13283327 0.14329877
000270 28 9b b9 bc 7c fb d4 3d 60 b8 05 3c 2c 96 cb 3d
       -0.022656992 0.10399529 0.008161634 0.099407524
000280 5b 9a 1a be d8 f0 a1 bc 42 94 1c 3e 1c 7b fd 3d
       -0.15097944 -0.019768164 0.15290931 0.12376997
000290 2f c9 9a bd 4e 88 f6 bd 74 af 40 3d 8b 60 9a bd
       -0.07557904 -0.12037717 0.047042325 -0.07537945
0002a0 11 4e c0 bd e7 31 da bd 88 3a 26 be 16 9e f6 bd
       -0.0938989 -0.10654049 -0.16233265 -0.12041871
0002b0 14 81 72 3d 60 aa 37 bc d0 24 08 bc a0 c3 7b 3c
       0.05920513 -0.011210054 -0.008309558 0.015366465
0002c0 b0 b4 0d be 90 6d 12 bd 91 3d 28 be 9b 21 18 be
       -0.13838458 -0.03574902 -0.16429736 -0.1485657
0002d0 18 b9 86 3d a8 1b fb 3c 3a 91 5a bd e6 3e 26 be
       0.065782726 0.030652836 -0.053361155 -0.16234931
0002e0 cc ef 2b be 28 2f 22 3d 72 d6 12 be c8 7a 01 be
       -0.16790694 0.039595753 -0.14339617 -0.12644494
0002f0 1b d7 27 be b9 2a c5 bd 60 7f 04 bd 90 f9 5b bc
       -0.1639065 -0.09627289 -0.032348037 -0.0134262
000300 18 0c ff bc 14 ec 92 bd 44 46 f2 3d 38 b6 d8 3d
       -0.031133696 -0.071739346 0.11829808 0.105816305
000310 5c 42 ce 3d e2 c5 07 be 40 0b 0e 3b 4c 72 1a be
       0.10071251 -0.1325908 0.0021674186 -0.15082663
000320 4e d7 12 3e 80 ee fe 3b 60 41 b2 bc 68 6a 5c bd
       0.14339945 0.0077798963 -0.021759689 -0.053812414
000330 38 ae 8b 3d 36 52 91 3d 44 18 17 3e e0 f5 ef bd
       0.06820339 0.070957586 0.1475535 -0.11716819
000340 04 ae ee 3d 24 61 7e 3d 4f b1 d3 bd 18 7b c1 bc
       0.116542846 0.06210436 -0.10336553 -0.023618266
000350 b9 36 8d bd 68 25 53 3d 88 0f f0 bc 0c 3c 23 be
       -0.06895203 0.051549345 -0.02930428 -0.15940875
000360 00 d3 0f 3b 96 18 90 3d 64 95 cb 3d 9a c0 8f bd
       0.0021945834 0.070359394 0.099406034 -0.07019158
000370 10 83 cb 3d 99 7e 22 be e6 c2 83 bd ef 49 f9 bd
       0.099371076 -0.15868606 -0.06433658 -0.12172305
000380 ae 4d 24 be 67 e9 b1 bd 00 36 b1 ba 30 38 9c bc
       -0.16045257 -0.08687096 -0.0013520122 -0.019069761
000390 0f 7b 1e be 0c a0 eb 3d 40 aa e8 3b 9c 2e fa 3d
       -0.1547663 0.11505136 0.0071003735 0.12215921
0003a0 e4 4b 1b 3d 1c 4e 76 3d d1 85 ca bd 04 9a 1a 3e
       0.03791417 0.060133085 -0.09888805 0.15097815
0003b0 22 aa 34 bd 40 a6 1a bd 0c 24 e9 3d d2 5b 09 be
       -0.044107564 -0.037756205 0.113838285 -0.13413933
0003c0 db e5 2b be 8a 9e 5f bd 89 f8 11 be 58 0f 00 bd
       -0.16786902 -0.054594554 -0.14254965 -0.031264633
0003d0 20 29 e8 3b 08 b2 1d 3e 64 2e 22 bd 48 5d c6 3d
       0.0070849806 0.15399945 -0.039595023 0.09685761
0003e0 be 93 2c 3e dc fc 17 3e 68 a4 f1 bd f4 41 85 bd
       0.16853234 0.14842552 -0.11798936 -0.0650672
0003f0 12 2b 1f 3e 81 6d 20 be 60 12 5c 3d 78 65 ef bc
       0.15543774 -0.15666772 0.05372846 -0.029223189
