model/saved_models/end2end/model_en_1_epoch_3.pt (torch_old, 242560 bytes, 25 tensors)

weight f4 [20, 74]
0	0xbe6f5f73	-0.23376255
1	0xbe642097	-0.22278057
2	0xbdc113a7	-0.094275765
3	0x3f2261bf	0.634304
4	0x402d10fc	2.7041616
5	0xbd7eca25	-0.0622045
6	0x3ef208aa	0.47272235
7	0x3eae3488	0.34024453
8	0xbf8d648c	-1.104631
9	0x3ea78ba4	0.32723725
10	0xbf0b3492	-0.5437709
11	0xbf43ffad	-0.76562005
12	0x3fd2cc89	1.6468669
13	0x3ec9b58b	0.3939632
14	0xbefd08e3	-0.49420843
15	0x3f5573a2	0.83379567
16	0x3fec448d	1.845842
17	0xbfc5a128	-1.5439806
18	0x3d305f33	0.04305954
19	0xbf47c00a	-0.78027403
20	0x3b91de4f	0.00445155
21	0x3f84b08e	1.036638
22	0x4002b66b	2.042384
23	0xbf6bedb8	-0.92159605
24	0x3f1e9cec	0.61958194
25	0x3fceda6e	1.616041
26	0x3f57c116	0.84279
27	0xbf1ffef8	-0.62498426
28	0x3f588eae	0.8459271
29	0x3e251d0e	0.16124365
30	0x3f55a99c	0.8346193
31	0x3b997d42	0.0046841213
32	0xbf79232b	-0.9731929
33	0x3ebefba5	0.37301365
34	0xc00eb2c4	-2.229661
35	0x3e84a0b7	0.25903866
36	0xbbc65206	-0.0060522584
37	0xbf848551	-1.0353185
38	0xbe9b1587	-0.30289862
39	0xbf333b50	-0.7001238
40	0xbf0de7d9	-0.55431896
41	0xbdf55b32	-0.11980285
42	0x3ea3e88c	0.32013357
43	0x3e33d569	0.17561878
44	0x3e89cdc0	0.26914787
45	0x3eafcf08	0.3433764
46	0xbf702178	-0.9380107
47	0xbe944cdd	-0.28964892
48	0xbf0ea7e7	-0.5572495
49	0x3de5f5f3	0.11228552
50	0x3fa41f69	1.2822086
51	0xbeae27a5	-0.3401462
52	0x3e5e5fd4	0.21716243
53	0x3f433207	0.7624821
54	0xbf4cc2fe	-0.79985034
55	0xbc4810cc	-0.012211036
56	0xbd90d1dc	-0.070712775
57	0xbf4433c2	-0.76641476
58	0xbfd86a32	-1.6907408
59	0xbf4a29f2	-0.78970253
60	0xbea1941d	-0.31558314
61	0xbf602319	-0.87553555
62	0x3dc87957	0.09788769
63	0x3ece417d	0.4028434
64	0x3ebd9d2b	0.37033972
65	0xbf9279c6	-1.1443412
66	0xbf88641c	-1.0655551
67	0xbeeb0fae	-0.459104
68	0x3ee07339	0.43837908
69	0xbe0edefc	-0.1395225
70	0xbf4083b0	-0.7520094
71	0xbf38f465	-0.72247916
72	0x3edb0a8b	0.4278148
73	0xbe367509	-0.17818083
74	0x3e5c5652	0.21517304
75	0x3cad2bf5	0.021139124
76	0xbf3f25e0	-0.7466717
77	0x3fd6c440	1.6778641
78	0xbfaf1b1b	-1.3680147
79	0xbee11bdf	-0.43966576
80	0x3e5e804b	0.21728627
81	0xbf2a97ce	-0.66637886
82	0xbca4428b	-0.020051261
83	0x3f758899	0.95911556
84	0xbfd68408	-1.6759043
85	0x3f1af093	0.6052334
86	0xbe409791	-0.18807818
87	0x3e2a6923	0.16641669
88	0xbfdb9149	-1.7153713
89	0xbfa82216	-1.3135402
90	0xbe23685b	-0.15957777
91	0x3f54341d	0.8289202
92	0x3dfc2110	0.12310994
93	0x3f15ecc1	0.5856438
94	0x3e9a1d66	0.30100554
95	0x405d095e	3.4536967
96	0x3e128711	0.14309336
97	0x3e256530	0.16151881
98	0xbe1c6dec	-0.15276307
99	0x3d5f2af6	0.05448433
100	0x3f141e50	0.57858753
101	0x3f809794	1.0046258
102	0x3e4fff57	0.20312248
103	0xc011aced	-2.2761796
104	0x3e9e3e9e	0.30907148
105	0xbd9ad52b	-0.0756019
106	0xbddab096	-0.10678212
107	0xbf90350b	-1.1266187
108	0xc0071694	-2.110753
109	0xbffb328e	-1.9624803
110	0xbfaba910	-1.3410969
111	0x3cd81f10	0.026382
112	0xbe4be134	-0.19910127
113	0x3edd55c6	0.43229502
114	0x3f6d134c	0.9260757
115	0x3e18b029	0.1491095
116	0x3f608a35	0.8771089
117	0x3c554783	0.013017538
118	0x3e6c41a6	0.23071918
119	0xbc7778e7	-0.015104509
120	0x3f166c5c	0.58759093
121	0xbee2aa0b	-0.44270357
122	0x3ef5d7bf	0.48016164
123	0xc00f23ae	-2.2365527
124	0xbee80ffc	-0.45324695
125	0x3caa6bf3	0.020803427
126	0xbf3af96a	-0.73036826
127	0x3f6996d5	0.91245776
128	0x3e759dba	0.23985949
129	0xbfcdee55	-1.6088358
130	0x3d9d4ab8	0.07680267
131	0x40260da2	2.594582
132	0x3f3c7c5b	0.7362725
133	0x3d8d2274	0.06891337
134	0xbf94da72	-1.1629164
135	0x3f12d2bf	0.57352823
136	0x3f1a2867	0.602179
137	0x3e894c9d	0.26816264
138	0xbe95971d	-0.29216853
139	0xbf4699ab	-0.7757823
140	0x3ef5d25b	0.4801205
141	0x3e747446	0.2387248
142	0xbebe810f	-0.3720784
143	0x3f0a2098	0.53955984
144	0x3fdd16a2	1.7272532
145	0x3f171e37	0.5903048
146	0x3f6e61c1	0.9311791
147	0xbdc8f877	-0.09813016
148	0x3e3ddb77	0.1854075
149	0xbea35de5	-0.31907573
150	0x3ef0f45b	0.47061428
151	0x3fbb89bb	1.4651407
152	0x3f83257e	1.0245817
153	0xbf2e5ba7	-0.681086
154	0xbf02299b	-0.50844735
155	0x3f6c39f1	0.9227591
156	0xbe2c6b30	-0.16837764
157	0xbf9e68f4	-1.2375779
158	0x3f4707e9	0.77746445
159	0x3ebeab02	0.37239844
160	0xbf73d0e8	-0.9524064
161	0x400f9356	2.2433677
162	0xc04f2c28	-3.23707
163	0x3e9ad632	0.30241543
164	0x3f5a0a6a	0.8517214
165	0xbfdee689	-1.7414104
166	0xbf985bf1	-1.1903058
167	0x3d9ca788	0.076491416
168	0xbf9d1395	-1.2271601
169	0xc060fd01	-3.5154421
170	0xbde9f9bf	-0.114245884
171	0x3e1f9549	0.15584292
172	0xbf406268	-0.75150156
173	0xbda3060d	-0.079601385
174	0xc0179522	-2.3684773
175	0x3f5e0834	0.86731267
176	0x3e8bd1df	0.27308556
177	0xbe5c1445	-0.21492107
178	0x38c864eb	9.5555406e-05
179	0xc0107390	-2.2570534
180	0x3f9649e2	1.1741297
181	0xbfa86fef	-1.315916
182	0x3f1ea3bb	0.6196858
183	0xbf9b7b3c	-1.2146983
184	0xbf890482	-1.0704501
185	0x3f36dc95	0.7143033
186	0x3fa7edc3	1.3119434
187	0xbe3dcdc9	-0.18535532
188	0xbe867f12	-0.26268822
189	0x3ee5611c	0.4480065
190	0x3f87915a	1.0591233
191	0xbe8ec7cf	-0.27886817
192	0xbe251f79	-0.16125287
193	0xbf32a502	-0.6978303
194	0xbf6951a6	-0.9114021
195	0x3fa87d71	1.3163282
196	0xbf813c9b	-1.009662
197	0x3ed1a9a9	0.40949753
198	0x3e9603cf	0.2929978
199	0xbcf7edf3	-0.03026483
200	0xbecec43d	-0.40384093
201	0x3e246688	0.16054738
202	0xbec0659c	-0.37577522
203	0x3ea32b9a	0.31869203
204	0xbfaf0bd1	-1.3675481
205	0xbf36a43e	-0.71344364
206	0x3ee62206	0.44947833
207	0xbee61c60	-0.44943523
208	0x3ee78841	0.4522114
209	0xbeffd018	-0.4996345
210	0x3e5fb726	0.2184721
211	0xbf94ccd4	-1.1625009
212	0xc02053a5	-2.5051053
213	0xbf05b157	-0.52223724
214	0xbecb7404	-0.3973695
215	0xbf6c65a2	-0.9234258
216	0xbf800dbb	-1.000419
217	0xbf595637	-0.8489718
218	0xbefe321d	-0.49647608
219	0xbfacfcfb	-1.3514704
220	0xbf1b51a8	-0.6067147
221	0xbf1b7e20	-0.60739326
222	0x3e1d7a67	0.15378724
223	0x3f243485	0.6414264
224	0xbef8a0dd	-0.4856023
225	0xbf0c3e03	-0.5478212
226	0x3f4581d2	0.77151215
227	0xbd00b125	-0.03141894
228	0x3f001372	0.5002967
229	0x3f3d5a41	0.7396584
230	0x4011ca23	2.2779624
231	0x3fe50669	1.7892581
232	0x3f30c223	0.6904623
233	0xbedbc9ee	-0.42927498
234	0xbf81d37f	-1.0142668
235	0x3e2ce76b	0.16885154
236	0xc045308c	-3.081088
237	0xbcbf15f4	-0.023325898
238	0x4038113d	2.8760521
239	0xbe82febd	-0.25584975
240	0xbf49af2f	-0.78782934
241	0xbe789e6b	-0.24279182
242	0xbf6f0f6a	-0.93382895
243	0xbece57ab	-0.4030126
244	0xbe3385f4	-0.17531568
245	0x3e738269	0.23780216
246	0x3f2c4a5c	0.67300963
247	0x3fa1c80e	1.2639177
248	0xbfa8fcaf	-1.3202113
249	0x3d98b2f3	0.07456007
250	0xbe8568dd	-0.26056567
251	0x3fb7b2ac	1.4351401
252	0x3f5bbc27	0.8583397
253	0x3bbef2a7	0.0058272663
254	0xbf682645	-0.90683395
255	0x3f4eaa11	0.8072825

bias f4 [20]
0	0xbf4cd33f	-0.80009836
1	0x3d3ce8aa	0.046120323
2	0x3e8caaab	0.2747396
3	0x3f154abe	0.5831717
4	0x3d083ea3	0.03326286
5	0xbd3f6440	-0.046726465
6	0x3e810b91	0.25204137
7	0x3ee046d1	0.4380403
8	0x3de5b316	0.112157986
9	0xbf265cfa	-0.6498562
10	0xbf73007b	-0.9492261
11	0xbf03f70d	-0.51548845
12	0x3ecf8d50	0.405375
13	0x3e43c6e0	0.19118834
14	0xbe8e110d	-0.27747384
15	0x3ea9abf7	0.3313901
16	0xbe1e115f	-0.15436314
17	0x3e3a36c1	0.1818495
18	0xbf41d540	-0.7571602
19	0x3f0861cb	0.5327422

weight f4 [74, 20]
0	0x00000000	0.0
1	0x00000000	0.0
2	0x00000000	0.0
3	0x00000000	0.0
4	0x00000000	0.0
5	0x00000000	0.0
6	0x00000000	0.0
7	0x00000000	0.0
8	0x00000000	0.0
9	0x00000000	0.0
10	0x00000000	0.0
11	0x00000000	0.0
12	0x00000000	0.0
13	0x00000000	0.0
14	0x00000000	0.0
15	0x00000000	0.0
16	0x00000000	0.0
17	0x00000000	0.0
18	0x00000000	0.0
19	0x00000000	0.0
20	0xbd1a62f7	-0.037692036
21	0x3ca1690a	0.019703407
22	0xbc4043d4	-0.0117349215
23	0x3cc604c6	0.024172198
24	0xb851cfdd	-5.002307e-05
25	0x3ab53acf	0.001382673
26	0x3bd0f14a	0.00637642
27	0x3c79f581	0.015256287
28	0x3bdbb075	0.006704385
29	0xbd122808	-0.035682708
30	0x3d1c0936	0.03809472
31	0x3bd6b0d0	0.0065518394
32	0xb8dbd16e	-0.00010481743
33	0xba6b1bd0	-0.0008968683
34	0xbbfaa566	-0.0076491116
35	0x3bb413c8	0.005495522
36	0x3cb3f564	0.021967597
37	0x3c3328e6	0.010935044
38	0xbcdf375d	-0.027248079
39	0x3cc1e013	0.023666417
40	0xbde4cb20	-0.111715555
41	0xbf564c90	-0.83710575
42	0x3f336b5c	0.7008569
43	0xbe3ed16f	-0.1863458
44	0xbee3b8e5	-0.44477
45	0xbeb991b6	-0.3624398
46	0x3f7642c9	0.96195656
47	0xbf7851cf	-0.9699983
48	0x3e897f4b	0.2685493
49	0xbf77dbfd	-0.9682005
50	0x3e4674aa	0.19380441
51	0xbf836db9	-1.026786
52	0x3df679bb	0.12034937
53	0x3f71c9d3	0.94448584
54	0x3f8085dc	1.0040851
55	0xbf3d3dd6	-0.7392248
56	0x3e4a23fa	0.19740286
57	0xbf3f0313	-0.74614066
58	0xbe375df3	-0.17906933
59	0xbcf95ba9	-0.030439215
60	0x3f4765e1	0.7788983
61	0x3fc44227	1.5332688
62	0x3fce0bd8	1.6097364
63	0xbece73eb	-0.40322813
64	0xbf559fd7	-0.8344702
65	0x3f190979	0.5978008
66	0xbd528f01	-0.05140591
67	0xbd84376c	-0.064558834
68	0xbefe7787	-0.49700567
69	0x3eee779c	0.4657563
70	0xbe83b766	-0.2572586
71	0xbf889bf3	-1.0672592
72	0x4000927f	2.0089414
73	0xbf097750	-0.5369768
74	0x3e64257b	0.22279923
75	0x3f32722b	0.69705456
76	0xbfb69ce9	-1.4266635
77	0x3f67ebd8	0.90594244
78	0x3e1410a5	0.14459474
79	0x3e6978f2	0.22800043
80	0x401cd60f	2.450565
81	0xbf978d9a	-1.1840088
82	0x3f867d94	1.0507073
83	0x3f0f8dcd	0.56075746
84	0xbfd11409	-1.6334239
85	0xbf9f6cf4	-1.2455125
86	0x3f296125	0.66163856
87	0xbe41bdc6	-0.18920049
88	0x3ec3f6ab	0.3827413
89	0xbec2d0da	-0.38049966
90	0x3f03a040	0.514164
91	0xbf41ab91	-0.75652415
92	0xbee36a10	-0.44416857
93	0xbeebaf16	-0.46032017
94	0xbf762f2c	-0.9616573
95	0xbede1d3c	-0.4338168
96	0xbfd09c4d	-1.6297699
97	0xbfa9d56d	-1.3268257
98	0xbe31acf4	-0.17351133
99	0x3f7fea08	0.9996648
100	0x3d013969	0.03154889
101	0xbf3ded43	-0.7419016
102	0xbe9877e0	-0.29778957
103	0x3c8c9f03	0.017165666
104	0xbe357a2f	-0.1772239
105	0xbe08a1bf	-0.13342951
106	0x3e968194	0.29395735
107	0x3fb1462d	1.3849541
108	0x3df7a11c	0.12091276
109	0x4022aca4	2.5417871
110	0xbf23f530	-0.64046
111	0xbffcac60	-1.9740105
112	0xbea8bd4d	-0.32956925
113	0x3c0265d7	0.007958851
114	0x3f6d1db9	0.9262348
115	0xbff1391e	-1.8845556
116	0x3e2af7fb	0.1669616
117	0x3eead08c	0.45862234
118	0xbfe2130e	-1.7662065
119	0x3f160331	0.5859862
120	0x3ead9921	0.3390589
121	0x3de9eb5b	0.114218436
122	0x3cd2b95a	0.025723148
123	0xbd916fc8	-0.07101399
124	0x3e0c53a3	0.1370378
125	0x3de13f10	0.10998356
126	0xbc0f572c	-0.008748811
127	0xbe8cf7cd	-0.27532807
128	0xbea37ab0	-0.3192954
129	0x3f42a976	0.76039827
130	0x3e5cd497	0.21565472
131	0xbd9d74e0	-0.07688308
132	0xbbe4016c	-0.0069581773
133	0x3e55508c	0.20831507
134	0xbc59e0c9	-0.013298222
135	0xbf18a509	-0.59626824
136	0xbc4c5e61	-0.012473674
137	0xbe2f050b	-0.17091767
138	0x3c7e5713	0.01552369
139	0xbc4d4023	-0.012527498
140	0x3e9d01da	0.30665475
141	0xbf3f4aae	-0.7472333
142	0x3f3e55a4	0.7434943
143	0x3f633d88	0.88765764
144	0x4012655c	2.2874365
145	0x3f760d2d	0.96113855
146	0xbfc3cce4	-1.5296903
147	0xbe951b65	-0.29122463
148	0xbde95faf	-0.11395203
149	0xbea09916	-0.31366795
150	0xbf211a92	-0.6293117
151	0x3f91ba97	1.1385068
152	0xbf7dc421	-0.99127394
153	0x3e2e11a6	0.1699892
154	0x3f9cc8a8	1.2248735
155	0xbe702afb	-0.23453896
156	0xbf875109	-1.0571605
157	0xbf277e14	-0.65426755
158	0x3fcba21f	1.590885
159	0xbf3311e0	-0.6994915
160	0xbf6563f1	-0.89605623
161	0x3d878f4e	0.0661913
162	0xbd66861d	-0.056280244
163	0x4015d699	2.341223
164	0xc02e4cba	-2.723433
165	0x3f0279ee	0.509673
166	0xbf508105	-0.8144687
167	0xbe7bf204	-0.2460404
168	0x3b93bc67	0.0045085433
169	0x40030917	2.0474298
170	0xbe2153a3	-0.15754561
171	0xbe5feb2a	-0.21867052
172	0xbfad0c0c	-1.3519301
173	0xbd6a9f0e	-0.057280593
174	0xbfed4f27	-1.853978
175	0xbfb14413	-1.38489
176	0xbeb0d83a	-0.34539968
177	0xbf94ccec	-1.1625037
178	0x3e13f2c5	0.14448078
179	0x3e2a509c	0.16632313
180	0x3f391e5b	0.72311944
181	0x3f62b358	0.88554907
182	0xbfd99c9c	-1.7000918
183	0x3faaa60c	1.3331923
184	0x3f6e8163	0.9316618
185	0x3f8b36e0	1.0876122
186	0x3f284723	0.65733546
187	0xbfa83065	-1.3139769
188	0xbf36fb1f	-0.7147693
189	0x40071399	2.1105711
190	0x3f09fe77	0.5390391
191	0x3f9f9073	1.2465957
192	0x3e27446e	0.16334698
193	0xbebd86b2	-0.37016827
194	0x3fe95d8d	1.8231674
195	0x3fae91ef	1.3638285
196	0x3f86841d	1.0509068
197	0xbf165981	-0.5873032
198	0xbedcd345	-0.43129936
199	0x3f18581f	0.5950946
200	0xbbe03777	-0.0068425494
201	0xbfcf863c	-1.621284
202	0x3f8a477f	1.0803069
203	0x3ef65f99	0.4811981
204	0xbfa42583	-1.2823948
205	0xbf7fec44	-0.9996989
206	0xbdf9005a	-0.1215827
207	0x3e0aa5b9	0.1353978
208	0x3ea23d9d	0.31687632
209	0xbf3d2a7f	-0.7389297
210	0xbe8c4abb	-0.27400765
211	0xbedadba9	-0.42745712
212	0x3f2ea1ac	0.6821544
213	0x3f186105	0.5952304
214	0x3fa3bb56	1.2791545
215	0x3f44f369	0.76933914
216	0x3f0b0710	0.5430765
217	0x3f60efce	0.8786591
218	0xbe7dfb9e	-0.24803016
219	0xbf35c35a	-0.7100121
220	0xbf154f27	-0.583239
221	0x3ebd618c	0.36988485
222	0xbf0e3d70	-0.55562496
223	0xbecbeb76	-0.3982808
224	0xbf14f5fd	-0.5818785
225	0xbe622263	-0.2208343
226	0x3c5dca9a	0.0135370735
227	0xbe9c8964	-0.3057357
228	0xbcf8e763	-0.030383771
229	0x3f5254cc	0.8216064
230	0x39cabe7c	0.00038670364
231	0xbee51471	-0.44742158
232	0x3f520572	0.8203956
233	0xbfc245ba	-1.5177529
234	0x3f1da9cf	0.6158723
235	0xbfeeb19a	-1.864795
236	0xbf7a4c50	-0.97772694
237	0x3d817b59	0.06322355
238	0xbee8dfb1	-0.45483163
239	0xbed458d4	-0.4147402
240	0x3fbfd56c	1.4987006
241	0xbd234b62	-0.039866813
242	0xbf4e1b27	-0.8051018
243	0xbf94cb0c	-1.1624465
244	0x3edab4b6	0.42715997
245	0xbe905876	-0.2819249
246	0xbc514702	-0.012773277
247	0xbf60bf1e	-0.8779162
248	0xbea51c49	-0.32248142
249	0x3e3b6283	0.18299298
250	0xbf6e2847	-0.9303021
251	0xbf9fd7ae	-1.2487695
252	0x3f8f4118	1.119174
253	0xbff436d7	-1.9079236
254	0xbf070e65	-0.5275634
255	0x3f8a52e9	1.0806552

weight_ih_l0 f4 [200, 20]
0	0xbd965e29	-0.073421784
1	0x3f38aac4	0.7213557
2	0xbf2bef09	-0.67161614
3	0xbfb48d32	-1.4105589
4	0xbff8c22d	-1.9434258
5	0xbd921e18	-0.07134646
6	0x3e8e07da	0.27740365
7	0x3df7a41a	0.12091847
8	0xbea3e8b6	-0.32013482
9	0x3d88a678	0.066723764
10	0x3f5dd0e0	0.8664684
11	0x3d5db9b9	0.054132197
12	0xbf442380	-0.7661667
13	0x3e1f2f3d	0.15545364
14	0x3dd060a8	0.10174686
15	0xbea42cb1	-0.32065347
16	0xbf054acf	-0.52067274
17	0x3e8383ad	0.25686398
18	0xbdadcbb7	-0.08486121
19	0xbbf6015d	-0.0075074867
20	0x3ef32b52	0.47493988
21	0xbf8f84b3	-1.1212372
22	0x3d4691e9	0.048478995
23	0x3e9b9cad	0.30392972
24	0xbf887d9f	-1.0663337
25	0xbeeea538	-0.46610427
26	0xbefd70c7	-0.49500105
27	0xbf444d57	-0.7668051
28	0x3e9aa3d7	0.30203125
29	0x3ea71b21	0.32637885
30	0x3f953045	1.1655356
31	0x3ee06b03	0.43831643
32	0xbe7bec77	-0.24601923
33	0xbf32c686	-0.6983417
34	0x3f2e021f	0.67971987
35	0xbf0378b8	-0.5135608
36	0x3d828567	0.06373101
37	0x3e2cceac	0.16875714
38	0x3eab0207	0.33399984
39	0xbd72fc4b	-0.059322637
40	0xbdc719a1	-0.09721685
41	0x3eab3e5e	0.3344602
42	0x3c999857	0.0187494
43	0x3bf1cf19	0.0073794243
44	0xbe857aec	-0.26070344
45	0x3f7bedbd	0.98409635
46	0x3f041ad6	0.5160345
47	0x3ed319d1	0.41230634
48	0xbeeccbf1	-0.46249345
49	0xbf4e793b	-0.80653733
50	0xbf449212	-0.76785386
51	0x3e4859cc	0.19565505
52	0x3e9cc78c	0.30620992
53	0xbec422b3	-0.38307723
54	0x3ed92c8b	0.42416796
55	0x3f3d5833	0.73962706
56	0xbe9f44f2	-0.3110729
57	0xbf1461d4	-0.57961774
58	0x3ef40c69	0.47665718
59	0x3e9abd23	0.30222425
60	0xbec50de1	-0.3848715
61	0x3de39674	0.11112681
62	0xbf855b22	-1.0418437
63	0x3e12c49e	0.14332816
64	0xbf87d628	-1.061223
65	0x3f1c158c	0.6097038
66	0x3ec4d7f9	0.38446024
67	0x3f2f8bf4	0.68572927
68	0x3e73c57e	0.23805806
69	0xbf88fd62	-1.0702326
70	0x3f5decc2	0.8668939
71	0x3fbfa86c	1.4973273
72	0x3e281774	0.16415197
73	0xbfabce2e	-1.3422296
74	0x3f426a8b	0.7594382
75	0x3eb729de	0.3577413
76	0xbe87da05	-0.26533523
77	0xbf8e1ea9	-1.1103107
78	0xbfac7657	-1.3473614
79	0x3f680aaa	0.9064127
80	0xbf60f21a	-0.8786942
81	0xbfca390e	-1.5798662
82	0xbea2434b	-0.31691965
83	0x3ec28904	0.3799516
84	0xbdeef732	-0.116682425
85	0xbf9bc194	-1.216845
86	0xbf1e12d8	-0.61747503
87	0x3e0654e0	0.13118315
88	0xbf04a3d9	-0.5181251
89	0xbf72d556	-0.94856775
90	0xc020c807	-2.5122087
91	0xbe1b1aa3	-0.1514688
92	0xbcfa1d51	-0.030531557
93	0x3f2574c8	0.6463132
94	0x3c3dc6f5	0.01158308
95	0xbfdb2d73	-1.7123245
96	0xc0026d3d	-2.0379174
97	0x4037af2d	2.870067
98	0x3f835779	1.026107
99	0x3fcd705b	1.6049913
100	0x3f04df31	0.51903063
101	0xbeb78a25	-0.35847583
102	0xbf898077	-1.0742329
103	0xbe25eaac	-0.16202801
104	0xbfc6d651	-1.5534154
105	0xbf146cc7	-0.5797848
106	0xbf3a8cc3	-0.72871035
107	0xbfbe729b	-1.4878725
108	0xbf9ccbe1	-1.2249719
109	0x3f60c658	0.8780265
110	0x3f289b57	0.6586203
111	0x3f29fb9e	0.6639956
112	0xbf7247a4	-0.94640565
113	0x3f858600	1.0431519
114	0x3f839e97	1.0282773
115	0x3ea3242a	0.31863528
116	0xbd999322	-0.074987665
117	0x3e6e9461	0.2329879
118	0x3eb736d7	0.35784027
119	0xbf342587	-0.7036976
120	0xbed76bd5	-0.42074457
121	0x3e471d01	0.19444658
122	0xbe7ca592	-0.24672535
123	0xbf814ef6	-1.0102222
124	0xbf11303d	-0.5671423
125	0x3d957692	0.07298006
126	0x3e437d63	0.190908
127	0x3e8427e5	0.25811687
128	0x3cc51e6b	0.024062356
129	0xbf919d66	-1.1376159
130	0x3f8f2586	1.1183326
131	0x3f676479	0.90387684
132	0x3f57198a	0.84023345
133	0xc002a144	-2.0410929
134	0xbe87d2f1	-0.26528123
135	0x3fa24589	1.267747
136	0xbe1b294e	-0.15152475
137	0x3ec8bccc	0.3920654
138	0xc0009902	-2.0093389
139	0xbe8cb30b	-0.2748035
140	0xbfa9145b	-1.3209337
141	0x3faea889	1.3645183
142	0x3e90b73f	0.28264806
143	0xbfe66091	-1.799822
144	0xbec539ee	-0.3852076
145	0xbc8bffd1	-0.017089756
146	0x3f50d7b0	0.81579113
147	0xbf1e75b3	-0.61898345
148	0x3eb78850	0.35846186
149	0xbe4faf9a	-0.2028183
150	0x3f054c3b	0.52069443
151	0x3db7f530	0.08982313
152	0x3e84b741	0.25921062
153	0xbf32aed8	-0.6979804
154	0xbe9c38f9	-0.30512217
155	0xbe33d488	-0.17561543
156	0x3f88a021	1.0673867
157	0x3f097433	0.5369293
158	0xc002005f	-2.0312726
159	0x3fa6372c	1.2985587
160	0xbf8d28ca	-1.1028073
161	0xbf324ae4	-0.69645524
162	0xbfea670b	-1.8312696
163	0x3eef2824	0.46710312
164	0xbf76f647	-0.9646954
165	0x3f0c2c5c	0.5475519
166	0xbe7f64a4	-0.24940735
167	0xbd96afd5	-0.07357756
168	0x3e67b899	0.22629012
169	0xbf350688	-0.7071309
170	0xbfd12fc0	-1.6342697
171	0x3fb1e5eb	1.389829
172	0xbfeb4ccc	-1.8382812
173	0x3f705ddd	0.93893224
174	0xbdfbe68c	-0.12299833
175	0x3f4fdc67	0.8119568
176	0xbe787574	-0.24263555
177	0x3e9aba13	0.30220088
178	0xbf13900a	-0.5764166
179	0x3f9ad8b9	1.2097389
180	0xbf29185e	-0.66052806
181	0x400c266f	2.1898458
182	0x3e13fab4	0.14451104
183	0x3d843e09	0.06457145
184	0x3d62b8bc	0.055351958
185	0x3eff84d0	0.49906015
186	0x40147ccf	2.3201177
187	0x3eac1c6e	0.3361544
188	0x3dd5ec63	0.10445478
189	0xbeb9af4a	-0.36266547
190	0xbfc9fbd9	-1.5779983
191	0xbf986dff	-1.1908568
192	0x3dab2e62	0.08358456
193	0x3fb01e52	1.3759253
194	0xbf22a263	-0.6352903
195	0x3f7b7d9f	0.9823856
196	0x3f4beeb3	0.796611
197	0x3eb7a88f	0.35870788
198	0xbf3bedfe	-0.7341002
199	0x3f64c4d5	0.8936284
200	0x3ec8de83	0.39232263
201	0x3f5edc7b	0.87055176
202	0xbe244086	-0.16040239
203	0xbf49c85b	-0.78821343
204	0xbb945d11	-0.004527696
205	0x3ccd0344	0.025025971
206	0xbe811c1a	-0.25216752
207	0xbe285de8	-0.16442072
208	0xbeb462a8	-0.3523152
209	0x3f8b5db0	1.0887966
210	0x3fadb34c	1.3570342
211	0xbde0e39a	-0.109809116
212	0xbe815d92	-0.252667
213	0x3f05df7d	0.5229414
214	0x3e8ab455	0.27090707
215	0xbf8da8d1	-1.1067144
216	0x3f4491d7	0.76785034
217	0x3ebea0d4	0.37232077
218	0xbdf9bb07	-0.12193876
219	0x3e84d5f5	0.25944486
220	0xbf826ff6	-1.0190418
221	0xbeb3ae01	-0.35093692
222	0xbf0d9243	-0.553013
223	0xbf220128	-0.63283014
224	0x3f73ea51	0.95279413
225	0x3f005522	0.501299
226	0xbd8ccb83	-0.06874754
227	0x3f072b6f	0.5280065
228	0x3f94d9fa	1.1629021
229	0xbf9774ff	-1.1832579
230	0xbff6b9e3	-1.9275478
231	0xbfa2a039	-1.2705146
232	0xbe6229c4	-0.22086245
233	0xbf167c6f	-0.5878362
234	0xbe6add4e	-0.22935984
235	0x3ff73187	1.931199
236	0xbf679592	-0.904626
237	0xbed24788	-0.410702
238	0xbd305e2b	-0.043058556
239	0xbf47d577	-0.78060097
240	0xbdd41319	-0.10355205
241	0x3f2dce51	0.6789294
242	0xbf0503f2	-0.51959145
243	0x3f0418eb	0.5160052
244	0xbdf1d8a0	-0.11808896
245	0x3f92daf5	1.147307
246	0x3e3b9c83	0.18321423
247	0x3f1e38f0	0.6180563
248	0x3f028010	0.5097666
249	0xbf50f483	-0.81623095
250	0xbeae8c25	-0.34091297
251	0x3ed5c963	0.41755208
252	0xbca69bd3	-0.020337975
253	0x3f70f32e	0.9412106
254	0xbeb870d6	-0.36023587
255	0x3fb7eeb7	1.4369725

weight_hh_l0 f4 [200, 50]
0	0x3f806c19	1.0032989
1	0xbeda7d67	-0.426738
2	0xc07e045a	-3.9690156
3	0xbf9f8b1b	-1.2464327
4	0x3fdff50a	1.7496655
5	0xc0a6b0a2	-5.2090616
6	0x3ec01e24	0.37522995
7	0x3ead5190	0.3385129
8	0x407e85e7	3.9769228
9	0x406475f2	3.5696988
10	0xbf36d3d5	-0.7141698
11	0xbf2e3a79	-0.6805797
12	0x3e1451a8	0.14484274
13	0x3f9b06c3	1.2111439
14	0xbf044cb1	-0.5167952
15	0xc00cf360	-2.2023544
16	0xc0660b6a	-3.5944467
17	0xc0395c64	-2.896264
18	0x3fcbf143	1.5933002
19	0xbe59fe93	-0.21288519
20	0x40ae4055	5.445353
21	0x3e80375c	0.25042236
22	0x40587319	3.382025
23	0x3d1d0497	0.038334455
24	0x3ff65fad	1.9247948
25	0x3fe5e6a5	1.7961012
26	0xbfe0eba2	-1.757191
27	0xc0aee886	-5.465884
28	0x4094e839	4.6533475
29	0xc05e006e	-3.4687762
30	0x3ea9b9f4	0.33149683
31	0x3fa72e63	1.3061031
32	0x401960af	2.396526
33	0xbee6ff3f	-0.45116612
34	0xbf810aa5	-1.0081373
35	0xc01b6451	-2.4279978
36	0x3ff2081a	1.8908722
37	0xbfa2ba62	-1.271313
38	0xbfb7ae60	-1.435009
39	0x3f70ba0e	0.94033897
40	0x40156756	2.3344321
41	0xbf3b7ac0	-0.73234177
42	0x400720db	2.1113803
43	0xbfe0a445	-1.7550131
44	0xbfff2fc9	-1.9936458
45	0xbfa9fc2e	-1.3280084
46	0xbfb0f689	-1.3825237
47	0x3df27248	0.11838204
48	0xc034b63a	-2.8236222
49	0x40dea54d	6.9576783
50	0x4020d218	2.512823
51	0xbfe21aa6	-1.7664382
52	0x3e7f0302	0.24903491
53	0x3f30c6bc	0.69053245
54	0x3fa29528	1.2701769
55	0xbf5e9daa	-0.86959326
56	0xbc3d0979	-0.011537903
57	0x3fccd9fd	1.6004025
58	0xbf665963	-0.89980143
59	0x3e410dd9	0.18852939
60	0xbfb4de31	-1.4130307
61	0xbf80007b	-1.0000147
62	0xbf961a69	-1.172681
63	0xc02c5986	-2.692964
64	0x408101d8	4.031475
65	0x3e29622a	0.16541353
66	0xc006df1c	-2.1073675
67	0xbf060465	-0.52350456
68	0x3dc53d91	0.096308835
69	0xbd8f1ed0	-0.06988299
70	0x3f00c47d	0.5029982
71	0xbf5d2cc9	-0.8639646
72	0xbeac02d6	-0.33595914
73	0xbfe214ec	-1.7662635
74	0x3f00010c	0.500016
75	0xbf105834	-0.5638459
76	0xbf70b89a	-0.9403168
77	0xbe81a4eb	-0.25321135
78	0x3f4b50bc	0.79420066
79	0x3fd2c9e4	1.6467862
80	0x3f1438ca	0.57899153
81	0xbe82b08a	-0.25525314
82	0x3e758368	0.23975909
83	0x400e211e	2.2207713
84	0x3dc4ef14	0.09615913
85	0xbe2013d8	-0.1563257
86	0xc01f5319	-2.4894469
87	0xc01a487f	-2.4106748
88	0xbd8005ea	-0.06251128
89	0x3fe15000	1.7602539
90	0x403b4919	2.9263365
91	0x3f535d68	0.825644
92	0xc0859fb4	-4.175745
93	0xc0575a2e	-3.3648791
94	0xc026e543	-2.607743
95	0x3f49c29e	0.7881259
96	0xbe9901fd	-0.2988433
97	0x3e8e1bd3	0.27755603
98	0x3feccb2b	1.8499502
99	0x3ec71f8c	0.38891256
100	0x3f9c5e8b	1.2216352
101	0x3e0b5450	0.13606381
102	0x3ebbe357	0.36696884
103	0xbc9875b9	-0.018610822
104	0x3f06c81c	0.5264909
105	0x3fb86d23	1.4408306
106	0xc01fc371	-2.4963038
107	0xbd697747	-0.056998517
108	0x3f6a8749	0.9161268
109	0x400d1c90	2.2048683
110	0xbfb1523a	-1.3853219
111	0x3fc74db4	1.5570588
112	0x3e9fbf37	0.31200573
113	0xbf529bf3	-0.8226921
114	0xbf359422	-0.7092916
115	0x3f8cb6e6	1.0993316
116	0xbf9c31e8	-1.220273
117	0xbf873c0c	-1.05652
118	0x3f97812e	1.1836298
119	0x3f81b7ac	1.0134177
120	0x3e99d6bf	0.3004665
121	0xbfa2569e	-1.2682683
122	0x3f0e8a90	0.5568018
123	0x3ed753a9	0.42056015
124	0x3f7cdb68	0.9877229
125	0x3fa5d983	1.2957004
126	0xbf31e6d4	-0.6949284
127	0x3ea1aba7	0.31576273
128	0x3d8102c9	0.06299359
129	0x3fcf9ec6	1.6220329
130	0x3f5a4ec1	0.8527642
131	0x3c312f78	0.01081454
132	0x3fbec1f1	1.4902936
133	0x3faed1aa	1.3657734
134	0xbf6043a1	-0.87603194
135	0xbe79369f	-0.24337243
136	0xbe613ba8	-0.21995413
137	0x3f0a6902	0.5406648
138	0x3f622ba7	0.8834786
139	0xbfb882c9	-1.4414912
140	0x3fbabe55	1.4589335
141	0x3fc26d08	1.5189524
142	0xbffc92d7	-1.9732312
143	0xbe5ff8ee	-0.21872303
144	0xbc045b9f	-0.008078485
145	0x3fafcbf2	1.3734114
146	0xbe329e12	-0.17443112
147	0x406b47cf	3.6762578
148	0x3f837299	1.0269347
149	0xbe58326f	-0.21112989
150	0x3f20b6a6	0.627787
151	0x3fedb34e	1.8570344
152	0x3ea44c5e	0.32089514
153	0xbd0cc43e	-0.03436684
154	0xc01a0cb6	-2.4070258
155	0x3fe31c29	1.7742969
156	0x3ecbc5a8	0.39799237
157	0xbf8f17e1	-1.1179162
158	0x3fb2e1e0	1.3975182
159	0x3e2471b6	0.16059002
160	0xbfeb0867	-1.8361939
161	0x3fbd37bb	1.4782633
162	0x402c23d3	2.6896865
163	0x3f91075c	1.1330371
164	0x3f47af64	0.78002
165	0xbf2a4c18	-0.6652236
166	0xbf488e1e	-0.78341854
167	0x3f80cd1c	1.0062594
168	0x3e97630c	0.29567754
169	0x3d7c820d	0.061647464
170	0xbfda3d31	-1.7049924
171	0xbfc6ffc8	-1.5546808
172	0xbf948467	-1.1602906
173	0xbf9dc8f9	-1.2326957
174	0xc0213df1	-2.5194056
175	0x3f677f58	0.90428686
176	0x3e4e4dc3	0.20146851
177	0xbf9f79b9	-1.2459022
178	0x3fe5274e	1.790262
179	0xbcd43d43	-0.025908118
180	0x3f895b59	1.0731002
181	0xbff4bd71	-1.9120313
182	0x40086d26	2.131662
183	0xbfb65e40	-1.4247513
184	0xc016bee6	-2.3554015
185	0xbf88111c	-1.0630221
186	0xbeed4bb9	-0.46346834
187	0x3ffc0f50	1.9692173
188	0xbe88e81a	-0.2673958
189	0x3f0bc183	0.5459215
190	0xc0b08d3d	-5.517241
191	0x3fbe65e5	1.4874846
192	0xc00e103f	-2.2197416
193	0x40972393	4.7230926
194	0x3f1cc1a6	0.61232984
195	0xbe948a0f	-0.2901158
196	0x400ea254	2.2286577
197	0xbfb7ce4c	-1.4359832
198	0xbed68cd6	-0.41904324
199	0xbffa7cfe	-1.9569395
200	0x3fbc055a	1.4689133
201	0x3e84abd5	0.25912347
202	0x4087bece	4.2420416
203	0xbfae8896	-1.3635433
204	0x3fa27df0	1.2694683
205	0x401c73f6	2.4445777
206	0x3f45ecb8	0.7731433
207	0x3f307971	0.68935305
208	0x3e2a15a4	0.16609818
209	0x3e8b187c	0.27167118
210	0x3fdfd55f	1.7486991
211	0xbf45ccbd	-0.7726553
212	0x3ee0cf74	0.43908274
213	0xbfd465a6	-1.6593521
214	0x3fa4f4c9	1.2887203
215	0xc00e5886	-2.224153
216	0xc056366c	-3.3470716
217	0xc0c442ac	-6.1331387
218	0xbeb70615	-0.35746828
219	0x40d27565	6.5768304
220	0x406ff544	3.7493448
221	0x400c7067	2.1943605
222	0xc0227fe3	-2.5390556
223	0x400acd02	2.1687627
224	0xbf18f506	-0.59748876
225	0x40d646d3	6.6961455
226	0x40cccdab	6.400106
227	0xbee7e127	-0.45288965
228	0xc090a8e5	-4.520617
229	0x4015ea3e	2.342422
230	0x3fefc269	1.8731204
231	0x3fbd99ac	1.4812522
232	0xbf2c618f	-0.6733636
233	0x3f869088	1.0512857
234	0xbf05f8d5	-0.5233281
235	0x3c2bb0d3	0.01047917
236	0xc011f54e	-2.2805972
237	0xbffa903a	-1.9575264
238	0x40090506	2.1409316
239	0x402b97c6	2.6811385
240	0x3f270b24	0.65251374
241	0xbe6b30c4	-0.22967821
242	0xbe8737d2	-0.26409775
243	0x404217ad	3.032695
244	0xbfc13d40	-1.5096817
245	0xbfc3ac9d	-1.5287052
246	0x4066c9f5	3.6060765
247	0x4098caa0	4.7747345
248	0x4088193c	4.2530804
249	0xc024c9b1	-2.5748103
250	0x400a2dc3	2.159043
251	0x3f15f31f	0.585741
252	0x3f9ade73	1.2099136
253	0x3f437a71	0.76358706
254	0x3f40d2e1	0.75321776
255	0x406c9850	3.6967964

bias_ih_l0 f4 [200]
0	0x3fae26db	1.3605608
1	0x3f1e7ae6	0.6190628
2	0x3f21d783	0.6321947
3	0x3c894a49	0.016759055
4	0x3f87ac12	1.0599387
5	0x3f017874	0.5057442
6	0xbdaccf4e	-0.08437978
7	0x3fe30578	1.7736044
8	0x3e8a4d26	0.27011985
9	0x3f688879	0.9083324
10	0xbe179822	-0.14804128
11	0x3f5cee6e	0.86301315
12	0x3fee784b	1.863046
13	0x3fd0f6ca	1.6325314
14	0xc0200e18	-2.5008602
15	0xbe85ccea	-0.261329
16	0x3f81802e	1.0117242
17	0x3ebb9c2b	0.36642584
18	0x40229f03	2.5409553
19	0xbe9f5791	-0.31121495
20	0xba68a68e	-0.0008874916
21	0x3ed2a713	0.41143093
22	0x3ec442c5	0.3833219
23	0x4002be39	2.0428603
24	0xbf9dbe92	-1.2323782
25	0x3fbf04f6	1.4923389
26	0xbd79703a	-0.060898043
27	0x3f5433ed	0.8289173
28	0x3f59fea8	0.851542
29	0x3f8d372f	1.1032466
30	0xbe577ff8	-0.2104491
31	0x40290625	2.641
32	0x3fca58a8	1.5808306
33	0xbf567fc3	-0.837887
34	0x3eb311be	0.34974474
35	0x4002f1cf	2.0460088
36	0x3fcac883	1.5842441
37	0x3fb67bb4	1.4256501
38	0x3f5abf13	0.85447806
39	0x3fa260ca	1.2685788
40	0x3fb42896	1.4074886
41	0xbe315772	-0.17318514
42	0x3f6d500d	0.9270027
43	0x3fd1c1f3	1.6387314
44	0x407a4e52	3.9110303
45	0xbe8b88ba	-0.27252752
46	0xbf5bb2f6	-0.8581995
47	0x3ff609b5	1.9221712
48	0x3f856ba5	1.0423476
49	0x4015fbb0	2.3434868
50	0x3f15667a	0.5835949
51	0xbe70a577	-0.2350062
52	0x3d30d87e	0.043175213
53	0x3ed3a1ea	0.41334468
54	0x3e2dc5a3	0.16969924
55	0xbfcf0ce1	-1.6175805
56	0x405c838d	3.4455292
57	0xbf6a40db	-0.9150521
58	0xbf8f90a5	-1.1216017
59	0x3f6fdd05	0.93696624
60	0xbe89d392	-0.26919228
61	0x3ff0f015	1.8823267
62	0x3d33eff8	0.043930024
63	0x3d825759	0.063643165
64	0xbe27da92	-0.16391972
65	0x3f5a4c70	0.85272884
66	0xbf37d583	-0.7181017
67	0x3f6b97aa	0.92028296
68	0x3e9804a2	0.29691035
69	0x3c9c9f15	0.019118825
70	0xbe864078	-0.2622106
71	0x3d615eb0	0.05502194
72	0x3fb97dad	1.4491478
73	0x3e1a6d71	0.15080811
74	0x3efa8a06	0.4893343
75	0x400d5cee	2.208797
76	0x3e1be0f8	0.15222538
77	0xbe940383	-0.2890893
78	0x3fcf6642	1.6203082
79	0x3e694ebb	0.2278394
80	0xbe01861c	-0.12648815
81	0x3fa4f15a	1.2886155
82	0x3e0e30e1	0.13885833
83	0x3fd8902c	1.6918998
84	0x3f171102	0.59010327
85	0xbea674e3	-0.32511052
86	0x3d9390b8	0.07205337
87	0x3f4b0321	0.7930165
88	0x3e8f527d	0.2799262
89	0xbf47c257	-0.78030914
90	0xbe83b0e1	-0.25720885
91	0xbea1231e	-0.31472105
92	0x3f8456c9	1.0338985
93	0x3f9af5a6	1.2106216
94	0xbeac2db7	-0.33628628
95	0x3d90643f	0.070503704
96	0x3f834e8e	1.0258348
97	0x3ecc0d5a	0.39853936
98	0xbe0cfb9f	-0.13767861
99	0x3f59f5ab	0.85140485
100	0x3e38b10a	0.18036285
101	0x3f177bc9	0.59173256
102	0x3e62784b	0.221162
103	0x3eb194e0	0.34683895
104	0x3f1e6d89	0.6188589
105	0x3f6fb4ac	0.9363506
106	0xbeb298b3	-0.34882125
107	0x3f052108	0.52003527
108	0xbf6a075a	-0.9141747
109	0x3f94860e	1.160341
110	0x3f16b302	0.58866894
111	0x3f2c99ac	0.67421985
112	0xbf17eb66	-0.59343565
113	0xbf6f22d7	-0.93412536
114	0xbf6014c7	-0.87531704
115	0xbe21a642	-0.15786079
116	0xbf780d39	-0.96895176
117	0xbf0a1984	-0.53945184
118	0x3f890a05	1.0706183
119	0x3f096888	0.5367513
120	0x3fbb4317	1.4629849
121	0xbf1a682f	-0.6031522
122	0x3f1cfe8c	0.6132591
123	0x3f516075	0.81787807
124	0x3ce3e1d9	0.027817653
125	0x3e2e5706	0.17025384
126	0x3e900bf6	0.28134125
127	0x3ecee1ea	0.40406734
128	0xbeffc1bc	-0.49952495
129	0x3ef9694f	0.48713157
130	0xbe6ca983	-0.23111539
131	0x3f0ba977	0.5455546
132	0x3f1604f1	0.5860129
133	0xbe3e0456	-0.18556342
134	0xbfb00f0a	-1.375459
135	0x3e896971	0.26838258
136	0xbf4083cd	-0.7520111
137	0x3f1c7217	0.6111159
138	0xbd065819	-0.03279886
139	0xbf912367	-1.1338929
140	0x3fb2d78c	1.397203
141	0xbda00a03	-0.078144096
142	0x3f9288db	1.1448015
143	0x3f8f015b	1.1172289
144	0xbf4a3132	-0.78981316
145	0x3eabcc24	0.33554184
146	0x3faf5dbb	1.3700479
147	0xbf02d8d0	-0.5111208
148	0x3f99d593	1.2018303
149	0xbeda5ba3	-0.42648038
150	0x3f497d85	0.7870715
151	0x4007f0b3	2.124066
152	0x3fb80b86	1.4378517
153	0x400430e5	2.0654843
154	0x40202b60	2.5026474
155	0x3fd963d6	1.6983593
156	0x3ecedc8a	0.40402633
157	0x400a6962	2.162682
158	0x401efc87	2.484163
159	0x3fc75fc3	1.5576099
160	0xbe86f518	-0.26358867
161	0x3e3b6756	0.18301138
162	0x4000381d	2.003425
163	0x3ec36b84	0.38167965
164	0xbec5b002	-0.38610846
165	0x3f0985e2	0.53719914
166	0x3f1146b2	0.567485
167	0x3f9fff05	1.2499701
168	0x3fdb0f4b	1.7114042
169	0x3f27e6d9	0.6558662
170	0x40280b0b	2.625674
171	0xbf74e432	-0.956607
172	0xbc0d8dc5	-0.0086397575
173	0x3fe454d0	1.7838383
174	0x3ede1c1a	0.43380815
175	0x3e4532a9	0.19257607
176	0x3d1f9b2a	0.038966335
177	0x3feb7e0a	1.8397839
178	0x3fdaeba1	1.7103158
179	0x3e9b6193	0.3034788
180	0x3fb92949	1.4465724
181	0x3f582463	0.8443052
182	0x3f876a89	1.0579387
183	0x3e83792a	0.25678378
184	0x3e359527	0.17732678
185	0x3cd9a433	0.026567554
186	0xbf0e3cfd	-0.5556181
187	0x3f543c97	0.8290495
188	0x3eb00d71	0.34385255
189	0x3f95cacd	1.1702515
190	0x3effb09e	0.49939436
191	0x40064ba0	2.0983658
192	0x3f0c6d65	0.5485442
193	0x3ede6455	0.43435922
194	0x3f977a4b	1.1834196
195	0x3ed16921	0.4090052
196	0x3ff1020c	1.882875
197	0x3e5262da	0.20545521
198	0xbe4a925c	-0.19782394
199	0x3e5f7b85	0.21824463

bias_hh_l0 f4 [200]
0	0x3fb03ebf	1.3769149
1	0x3f03a45a	0.51422656
2	0x3f592ad0	0.8483095
3	0xbcee24d4	-0.029070295
4	0x3f9503c7	1.1641778
5	0x3efade91	0.4899793
6	0xbde5c12b	-0.112184845
7	0x3fdbc672	1.7169936
8	0x3e8a0dfc	0.26963794
9	0x3f8962f2	1.0733321
10	0xbde8320f	-0.11337673
11	0x3f3e6b7c	0.7438276
12	0x3feea872	1.8645155
13	0x3fc57b53	1.542826
14	0xc0147691	-2.3197367
15	0xbe056c47	-0.13029586
16	0x3f9324d5	1.1495615
17	0x3eef8a92	0.46785408
18	0x40269b18	2.6032162
19	0xbe83c0df	-0.25733086
20	0xbe59aa85	-0.21256454
21	0x3edfc952	0.43708283
22	0x3f1afec7	0.6054501
23	0x4003c12a	2.0586648
24	0xbfa16053	-1.2607521
25	0x3fbecbad	1.4905907
26	0x3d982d8a	0.07430561
27	0x3f3f647d	0.7476271
28	0x3f2db3e4	0.67852616
29	0x3f9853c5	1.1900564
30	0xbe285e43	-0.16442208
31	0x4022f157	2.5459802
32	0x3fcf4b32	1.6194823
33	0xbf51d7ce	-0.81969917
34	0x3e945ca1	0.2897692
35	0x3ff763b0	1.9327297
36	0x3fbfd084	1.4985509
37	0x3fa7545a	1.3072617
38	0x3f619ac2	0.88126767
39	0x3f814246	1.009835
40	0x3fb2d902	1.3972476
41	0xbea844f4	-0.32865107
42	0x3f8a177d	1.0788418
43	0x3fc3ef07	1.530732
44	0x40744304	3.8165903
45	0xbded6cfd	-0.115930535
46	0xbf2530d7	-0.6452765
47	0x3ff7bb4e	1.9354036
48	0x3f860e79	1.0473167
49	0x40111b6a	2.2672982
50	0x3f23f2a7	0.64042133
51	0xbeb57d4e	-0.35447162
52	0x3da79e62	0.08184506
53	0x3eea1fdd	0.45727435
54	0xbc8ae3d5	-0.016954342
55	0xbfd07453	-1.6285499
56	0x4063d63d	3.559951
57	0xbf5ace98	-0.8547149
58	0xbf85ee38	-1.0463324
59	0x3f86417f	1.0488738
60	0xbef96a5b	-0.48713955
61	0x3fe73b1e	1.8064916
62	0xbcdbef67	-0.026847554
63	0xbd563651	-0.052297894
64	0xbe8d20cf	-0.27564093
65	0x3f6aabf0	0.91668606
66	0xbf4dbf47	-0.8036999
67	0x3f4e45c6	0.80575216
68	0x3e35fbf6	0.17771897
69	0x3e556bdd	0.20841928
70	0xbedfce4c	-0.4371208
71	0xbca75e55	-0.020430723
72	0x3fbb1589	1.4615947
73	0x3e91531f	0.2838373
74	0x3eb0875f	0.3447828
75	0x4002c81a	2.0434632
76	0x3dba4df5	0.090969004
77	0xbe83f1d8	-0.2577045
78	0x3fd64dfd	1.674255
79	0x3eb18c6a	0.3467744
80	0xbe2ee339	-0.17078866
81	0x3f9cb7fc	1.2243648
82	0xbc042115	-0.008064528
83	0x3fe4fc71	1.7889539
84	0x3eb55f58	0.35424304
85	0xbe83792c	-0.25678384
86	0x3d5a102b	0.053238075
87	0x3f4c9117	0.7990889
88	0x3df07bfb	0.117423974
89	0xbf4589e9	-0.7716356
90	0xbedb9b94	-0.42892134
91	0xbe93343a	-0.28750783
92	0x3f82d32d	1.0220696
93	0x3fb92267	1.4463624
94	0xbeb8a5d4	-0.36064017
95	0x3d8bc0c3	0.06823876
96	0x3f980a3f	1.1878127
97	0x3f0ebe5f	0.55759233
98	0xbe2cbe4a	-0.16869465
99	0x3f436418	0.76324606
100	0x3e117446	0.14204511
101	0x3f11b2cd	0.56913453
102	0x3e920935	0.2852265
103	0x3e6bfc4e	0.23045465
104	0x3f38ef25	0.72239906
105	0x3f69ec7f	0.9137649
106	0xbec89a6c	-0.39180315
107	0x3f117099	0.56812435
108	0xbf571bba	-0.8402668
109	0x3f9737fd	1.1813961
110	0x3ee44bac	0.44588983
111	0x3f3e6060	0.74365807
112	0xbf2e4916	-0.6808027
113	0xbf8322af	-1.024496
114	0xbf5b4754	-0.85655713
115	0xbe2d927b	-0.16950409
116	0xbf8a86f5	-1.0822436
117	0xbf02cdbe	-0.5109519
118	0x3f755717	0.95836014
119	0x3eb404d0	0.35159922
120	0x3fba1db2	1.4540312
121	0xbf20b764	-0.6277983
122	0x3ee7ed56	0.4529826
123	0x3f679622	0.9046346
124	0x3dac16c0	0.08402777
125	0x3d510114	0.05102642
126	0x3e9563b5	0.29177633
127	0x3e97a8e5	0.29621044
128	0xbee86235	-0.45387426
129	0x3f2b7b63	0.6698515
130	0xbe414a1d	-0.18875928
131	0x3f0a56f2	0.5403892
132	0x3f06e618	0.52694845
133	0xbd9e8d3e	-0.077417836
134	0xbfc50cef	-1.5394572
135	0x3eb54f93	0.35412273
136	0xbf15beef	-0.58494467
137	0x3f1a20e8	0.6020646
138	0x3d3a3a33	0.04546566
139	0xbfa8fa9c	-1.320148
140	0x3fae4d20	1.3617287
141	0x3be4e942	0.0069858143
142	0x3fac846f	1.3477916
143	0x3f7bfab7	0.98429435
144	0xbf30cc4e	-0.69061744
145	0x3ea664ca	0.3249877
146	0x3fb4eba4	1.4134412
147	0xbe9bb1e4	-0.30409157
148	0x3f92d2a3	1.1470531
149	0xbf11b74b	-0.5692031
150	0x3f7eeac5	0.9957698
151	0x400a3aa6	2.1598296
152	0x3fa9b837	1.3259343
153	0x40031e92	2.0487409
154	0x4029a153	2.6504714
155	0x3fd75831	1.6823789
156	0x3ec054d6	0.37564725
157	0x4003eb4a	2.061236
158	0x4027d929	2.6226294
159	0x3fcbb792	1.5915396
160	0xbea0f91b	-0.31440052
161	0x3e74ce82	0.23906901
162	0x400864d8	2.131155
163	0x3e3bb692	0.18331364
164	0xbee6b72c	-0.45061624
165	0x3ed5423c	0.41652095
166	0x3ef52646	0.47880763
167	0x3f9c53b9	1.221305
168	0x3feb0d25	1.8363386
169	0x3f435f45	0.76317245
170	0x402969a9	2.647074
171	0xbf932a9d	-1.149738
172	0xbe76be16	-0.2409595
173	0x3fd495f9	1.6608268
174	0x3eb0d1dd	0.34535113
175	0x3e8845e3	0.2661582
176	0x3e329e0d	0.17443104
177	0x3fe4ad51	1.7865392
178	0x3fc57b60	1.5428276
179	0x3eaea5d7	0.341109
180	0x3fac1853	1.3444923
181	0x3f38fcc0	0.72260666
182	0x3f8826d6	1.0636852
183	0x3e259385	0.16169555
184	0x3dbe247b	0.09284302
185	0x3d9fd5c1	0.07804442
186	0xbef3d878	-0.4762609
187	0x3f5644ed	0.8369892
188	0x3e8344fe	0.25638574
189	0x3f836688	1.0265665
190	0x3f0d2295	0.55130893
191	0x40074d15	2.1140797
192	0x3edd3e76	0.43211716
193	0x3e94c54b	0.29056773
194	0x3fb814e1	1.4381372
195	0x3f06ba01	0.5262757
196	0x3fe1f84c	1.7653899
197	0x3e1c883b	0.15286343
198	0xbe4f12fb	-0.20222084
199	0x3b680fca	0.0035409802

weight f4 [74, 50]
0	0xbd6ed31c	-0.0583068
1	0xbdbf6745	-0.09345869
2	0xbf05e576	-0.52303255
3	0x3f15158d	0.5823601
4	0x3e1e0c96	0.15434489
5	0xbf7e31ca	-0.9929472
6	0xbe383a4d	-0.1799099
7	0xbea1faa2	-0.3163653
8	0xbe56a0cc	-0.20959777
9	0xbd926583	-0.07148268
10	0xbf3da87e	-0.74085224
11	0x3dfefecf	0.12450945
12	0x3f08e00c	0.5346687
13	0x3f6105d1	0.878995
14	0x3e84ba4c	0.25923383
15	0xbef76900	-0.48322296
16	0x3f08ee8b	0.5348899
17	0x3ecdb7a0	0.40179157
18	0xbf05b292	-0.522256
19	0x3f723d03	0.94624346
20	0x3c1ed25b	0.009693707
21	0x3eb62f85	0.3558313
22	0xbf36cb44	-0.7140391
23	0x3eda6953	0.4265848
24	0x3ecae28a	0.3962596
25	0xbd3d9415	-0.0462838
26	0x3c16ad73	0.009196627
27	0xbe90d6f8	-0.28289008
28	0x3f1ce632	0.6128875
29	0xbe5fbc30	-0.21849132
30	0x3e7107c2	0.23538116
31	0xbf7ea1ae	-0.99465454
32	0xbeb9a519	-0.36258772
33	0x3efcc4d5	0.4936892
34	0x3f1a7abb	0.6034352
35	0xbf3ed18a	-0.7453848
36	0x3ef94229	0.4868329
37	0x3f445f83	0.7670824
38	0xbf2aaa9c	-0.6666658
39	0xbea5062b	-0.32231268
40	0xbf627184	-0.8845446
41	0xbdea0290	-0.1142627
42	0xbe5c27ec	-0.21499604
43	0xbebeb5df	-0.37248132
44	0x3f29cbff	0.663269
45	0xbe6329a1	-0.22183849
46	0xbf262b15	-0.6490949
47	0x3f13ddae	0.5776013
48	0xbed7cddb	-0.42149243
49	0x3e8c7a10	0.27436876
50	0xbf4d70bf	-0.8025016
51	0x3e8b279a	0.2717865
52	0xbe68d00e	-0.22735617
53	0x3f4218bd	0.75819
54	0x3ee10ca8	0.43954968
55	0xbf671e0e	-0.90280235
56	0xbe84676c	-0.25860155
57	0x3f495427	0.7864403
58	0xbf773bf1	-0.9657584
59	0xbe8c55c4	-0.27409184
60	0xbf223c8a	-0.63373625
61	0xbe1e3344	-0.15449244
62	0x3f37e0fa	0.7182766
63	0x3f3c6b9d	0.73601705
64	0xbed5807c	-0.41699588
65	0xbea14af6	-0.31502503
66	0x3f31bf1e	0.69432247
67	0x3e6c429e	0.23072287
68	0xbf173da2	-0.5907842
69	0x3fa58a00	1.2932739
70	0x3f92afb2	1.1459868
71	0xbdee3e89	-0.116330214
72	0xbf206910	-0.6266031
73	0xbe58c3bf	-0.21168421
74	0x3f2e2c17	0.68036026
75	0xbec38512	-0.38187462
76	0x3e47f6fe	0.19527814
77	0xbf8bb05d	-1.0913197
78	0xbe043e9d	-0.1291451
79	0x3eb93156	0.36170453
80	0x3f232d3d	0.63740903
81	0xbf2debb1	-0.6793776
82	0x3ed44e84	0.41466153
83	0x3f541756	0.8284811
84	0x3ee234c6	0.44180888
85	0x3ce61a32	0.028088663
86	0x3f06c41e	0.52643
87	0x3dbaf9cc	0.09129676
88	0xbef4ffbc	-0.4785136
89	0xbf93b0ad	-1.1538292
90	0xbf7ec63c	-0.9952123
91	0x3f32fd8c	0.6991813
92	0xbdc50041	-0.09619189
93	0x3d0efc70	0.034908712
94	0x3f080dac	0.5314586
95	0x3f0f3ab3	0.5594894
96	0x3df684e9	0.12037069
97	0x3e70c799	0.2351364
98	0xbeff0047	-0.498049
99	0xbdc16473	-0.09442987
100	0x3ef795b1	0.48356393
101	0xbf835ee9	-1.0263339
102	0x3ef278a3	0.47357664
103	0xbfa25077	-1.2680806
104	0xbe951b9e	-0.29122633
105	0xbf03025b	-0.5117547
106	0xbe141e59	-0.14464702
107	0xbf6775d5	-0.9041417
108	0xbf985f15	-1.1904017
109	0x3fe4eb51	1.7884313
110	0xbf1a387c	-0.6024244
111	0xc001a2e8	-2.025568
112	0xbebbf1dd	-0.36707965
113	0xbfb6b3c1	-1.4273607
114	0xc00c78e3	-2.1948783
115	0x3ea03806	0.31292742
116	0xbe6757b0	-0.22592044
117	0xbf0d3d8f	-0.55172056
118	0xbf495a68	-0.78653574
119	0xbed28e0c	-0.41123998
120	0xbe206bef	-0.15666173
121	0xbe8918cd	-0.26776734
122	0x3fd0a095	1.6299006
123	0x3e093f18	0.13402975
124	0xbf78d1a0	-0.9719486
125	0x3e7a2095	0.24426492
126	0xbf93fd6c	-1.1561713
127	0x3f10461f	0.56356996
128	0x40265e3a	2.5995011
129	0xbf4a6e29	-0.7907434
130	0xbf816bf5	-1.0111071
131	0x401a3387	2.409395
132	0xbee10108	-0.439461
133	0x3dd3e631	0.1034664
134	0x3e525503	0.20540242
135	0xbc4b56f9	-0.012410873
136	0xbf7584ed	-0.95905954
137	0xbdd6c87f	-0.1048746
138	0xbf20ad79	-0.627647
139	0xbf61fd59	-0.882772
140	0xc002235c	-2.0334082
141	0xc00292ab	-2.040202
142	0xbfb2f1ad	-1.3980004
143	0x3f91007b	1.1328272
144	0xbec92708	-0.3928759
145	0xbfe0af81	-1.755356
146	0xbeff7339	-0.49892595
147	0xbf105c23	-0.5639059
148	0xbf04ee70	-0.51926327
149	0xbe851dbe	-0.25999254
150	0xbe2cad03	-0.16862874
151	0x3e4c1742	0.19930747
152	0xbe6cb45a	-0.23115674
153	0x3eb1fc2e	0.3476271
154	0x3f0cabad	0.54949456
155	0xbf14fc54	-0.5819752
156	0xbe70ffe4	-0.23535115
157	0x3e8244e7	0.25443193
158	0xbf91189e	-1.1335638
159	0xbc844e0f	-0.016150502
160	0xbf50244c	-0.81305385
161	0x3e78a09e	0.2428002
162	0x3f1ba02c	0.6079128
163	0x3ecddcc2	0.40207487
164	0x3e950985	0.29108825
165	0xbf2c7afc	-0.6737516
166	0x3d46be1c	0.048521146
167	0xbdf6d096	-0.12051503
168	0xbf2d8f4d	-0.67796785
169	0x3f8b3f02	1.0878603
170	0x3f7d36de	0.98911846
171	0x3dcacde4	0.09902552
172	0xbf50c307	-0.8154759
173	0xbdff3497	-0.124612026
174	0x3ee8b252	0.45448548
175	0xbf2ee48e	-0.68317497
176	0xbd55cabb	-0.052195292
177	0xbf9a631a	-1.2061493
178	0x3e5b7383	0.21430783
179	0x3e0f5fa9	0.14001335
180	0x3f248a58	0.64273596
181	0xbeae2564	-0.34012902
182	0x3e5ad47d	0.2137012
183	0x3f188c60	0.59589195
184	0x3f66629f	0.89994234
185	0xbeacf430	-0.3378005
186	0x3f8ebbda	1.1151078
187	0x3f5f6847	0.8726849
188	0xbf7e693b	-0.9937932
189	0xbf1af86e	-0.60535324
190	0xbf90fece	-1.132776
191	0x3f098018	0.5371108
192	0xbe01bfe5	-0.12670858
193	0x3e65a613	0.22426634
194	0x3f9dc31d	1.2325169
195	0xbddf8c1e	-0.10915397
196	0x3ba51a09	0.005038504
197	0x3f033d88	0.51265764
198	0xbf0d344e	-0.55157936
199	0x3e9bb042	0.30407912
200	0xbf43ad54	-0.7643635
201	0xbe30a3d5	-0.17249997
202	0x3d4a1f16	0.049346052
203	0x3f08a357	0.53374237
204	0xbec16238	-0.37770247
205	0xbe86b421	-0.26309302
206	0xbf30cafe	-0.6905974
207	0xbe1ae716	-0.15127215
208	0xbe7b234a	-0.2452518
209	0xbebf7f55	-0.37401834
210	0xbef79c51	-0.48361447
211	0x3e8263e7	0.25466844
212	0x3e8c4ac5	0.27400795
213	0x3ea2e8c8	0.31818223
214	0xbdd288c4	-0.10279992
215	0x3d495c0d	0.049160052
216	0x3d81f45a	0.063454345
217	0x3e95b064	0.29236138
218	0x3e4d6e7e	0.2006168
219	0x3f00365f	0.50082964
220	0x3f462646	0.7740215
221	0x3da5674a	0.080763415
222	0xbf0f85f8	-0.56063795
223	0xbd067f61	-0.03283632
224	0x3f14c8fd	0.58119184
225	0x3c80d983	0.015728718
226	0x3e412d8e	0.18865034
227	0xbf805faf	-1.00292
228	0x3f233fcb	0.63769215
229	0xbe76c899	-0.2409996
230	0x3eab7067	0.33484194
231	0xbdb6f5cc	-0.08933601
232	0xbe4c271a	-0.19936791
233	0x3f2453c0	0.6419029
234	0x3f037b7b	0.5136029
235	0xbc8d5480	-0.017252207
236	0x3e9587e0	0.29205227
237	0x3e6d97e0	0.23202467
238	0xbf70f222	-0.94119465
239	0xbf3e6571	-0.7437354
240	0xbf5d322a	-0.8640467
241	0x3f0b70d5	0.54469043
242	0x3c2e09f8	0.010622494
243	0xbeefa233	-0.46803436
244	0x3e8902e8	0.2676003
245	0x3c25eeee	0.010127766
246	0xbcbdcb94	-0.023168363
247	0x3f0d44d3	0.5518314
248	0xbe0a7660	-0.13521719
249	0x3e46eb05	0.1942559
250	0xbecdf8a9	-0.40228775
251	0xbe164c78	-0.14677608
252	0xbea6df5a	-0.3259228
253	0x3f3a53ae	0.72783935
254	0xbf3f2ecd	-0.7468079
255	0xbe98548d	-0.29752007

bias f4 [74]
0	0xbf8a2e6a	-1.0795414
1	0x3d093856	0.03350099
2	0x3f3ac492	0.7295619
3	0xbe8f0e0c	-0.27940404
4	0xbe4a4128	-0.19751418
5	0xbcaf4b19	-0.021398114
6	0x3f4bf80d	0.7967537
7	0xbe857681	-0.26066974
8	0xbd4e4418	-0.050357908
9	0xbe4cb51a	-0.1999096
10	0xbe8eaca7	-0.27866098
11	0x3c2a73f3	0.010403621
12	0xbf3c0e55	-0.7345937
13	0x3ed11e9b	0.40843663
14	0x3a884e2a	0.0010399271
15	0xbe10fa1f	-0.14157914
16	0xbe9d5eb4	-0.30736315
17	0xbe831a22	-0.25605875
18	0xbf717289	-0.9431539
19	0x3f1e40ae	0.61817443
20	0xbd4df4c8	-0.05028227
21	0xbe9c594d	-0.3053688
22	0xbeb92617	-0.36161873
23	0xbf27ed0a	-0.6559607
24	0xbebe941f	-0.37222382
25	0xbf0ba947	-0.5455517
26	0x3f2c8bfc	0.674011
27	0xbec24c9a	-0.37949067
28	0xbea4cca5	-0.3218738
29	0xbe743db9	-0.2385167
30	0xbf4fe44b	-0.8120772
31	0xbeaac2f7	-0.3335187
32	0xbf0c403c	-0.54785514
33	0xbeabfb87	-0.33590338
34	0xbf46bb6b	-0.7762973
35	0xbeafebe5	-0.3435966
36	0xbf07f59c	-0.53109145
37	0x3f8c024d	1.0938202
38	0x3f0990c1	0.537365
39	0xbcaa1852	-0.02076355
40	0x3e807705	0.25090805
41	0x3dc11494	0.09427753
42	0x3e767522	0.2406812
43	0x3f6bc690	0.9209986
44	0xbd6ad9e6	-0.05733671
45	0x3faca9a3	1.3489269
46	0xbeac09dc	-0.33601272
47	0xbf0c64dc	-0.548414
48	0x3d98764c	0.07444438
49	0xc07232df	-3.784355
50	0xbf551a83	-0.8324358
51	0x3ce13e72	0.027495597
52	0xc0448a05	-3.070924
53	0xbf83b3f3	-1.0289291
54	0x3dc023a2	0.093817964
55	0xbee536d7	-0.44768402
56	0xbed2d115	-0.41175142
57	0xbf6bfdd8	-0.9218421
58	0x4075347e	3.8313289
59	0xbfab22e8	-1.3370028
60	0x3c4afa38	0.012388758
61	0xbe87975f	-0.26482674
62	0xbf999438	-1.1998358
63	0x3f1afe37	0.6054415
64	0x3fe8d5ff	1.8190306
65	0x3feb266b	1.8371099
66	0xbf3c25a9	-0.73494965
67	0xbf695470	-0.91144466
68	0xbef5c7e3	-0.48004064
69	0xbf8c1429	-1.0943652
70	0xbec28167	-0.3798935
71	0xbfb36429	-1.4014941
72	0x3f0dc548	0.5537915
73	0xbf32f160	-0.6989956

weight f4 [50, 2]
0	0x3f092ba5	0.5358222
1	0x3f152367	0.58257145
2	0x3e94411a	0.2895592
3	0x3f2ac6f9	0.6670986
4	0xbd77ed90	-0.06052929
5	0xbe884520	-0.26615238
6	0x3e08ca78	0.13358486
7	0x3d1dbd90	0.03851086
8	0xbe4324f0	-0.1905706
9	0xbf2e2467	-0.68024296
10	0x3f2bdec7	0.67136806
11	0x3e550ab0	0.20804858
12	0xbe38514c	-0.17999762
13	0x3e164100	0.14673233
14	0x3f0ee773	0.55821913
15	0x3ef666c6	0.48125285
16	0xbe660900	-0.2246437
17	0x3d497c80	0.049190998
18	0xbf31c192	-0.6943599
19	0xbece04e5	-0.4023811
20	0x3ccb6640	0.02482903
21	0xbecc26e1	-0.39873412
22	0xbe1428e4	-0.14468724
23	0xbe800e4c	-0.25010908
24	0x3d674d50	0.056470215
25	0xbea6b4c1	-0.3255978
26	0xbec46a98	-0.38362575
27	0xbe9ad4e7	-0.30240557
28	0x3e144284	0.14478499
29	0x3de872f8	0.113500535
30	0xbe1a2140	-0.15051746
31	0xbdff12f0	-0.12454784
32	0x3f1b2a91	0.60611826
33	0xbf21b3ca	-0.6316496
34	0xbd83f700	-0.06443596
35	0xbf0d9aa7	-0.55314106
36	0xbe6fc25a	-0.23413983
37	0xbf231a7f	-0.63712305
38	0x3ef33d62	0.4750777
39	0x3f1ad0ad	0.60474664
40	0xbebaa469	-0.3645356
41	0xbf0e5591	-0.55599314
42	0x3ed5ee3e	0.41783327
43	0xbefd1d0b	-0.4943622
44	0xbf1971d5	-0.5993932
45	0xbeedb0c5	-0.46423927
46	0xbf0483ee	-0.5176381
47	0xbf07b262	-0.53006566
48	0xbe39d294	-0.18146735
49	0x3ea8bff6	0.32958955
50	0xbe6cff10	-0.23144174
51	0xbf11658e	-0.56795585
52	0x3ef7f5a2	0.4842959
53	0xbf23aace	-0.639325
54	0x3ee2dc0a	0.443085
55	0x3e233e40	0.15941715
56	0xbef97552	-0.4872232
57	0xbf07a280	-0.5298233
58	0x3f266f6f	0.65013784
59	0x3d324930	0.04352683
60	0x3e4e547c	0.20149416
61	0xbce1db60	-0.027570426
62	0xbd841eb0	-0.06451166
63	0x3f21f1a1	0.6325932
64	0xbee604c5	-0.44925514
65	0x3d7ffb60	0.06249559
66	0xbd8afae0	-0.06786132
67	0xbecbfd78	-0.3984182
68	0x3ebb9c4a	0.36642677
69	0xbf19ece1	-0.60127074
70	0x3e852b1a	0.26009446
71	0xbee2c24b	-0.4428886
72	0xbf0b5139	-0.5442081
73	0xbe44e390	-0.19227433
74	0x3cd988e0	0.026554525
75	0xbea83648	-0.32853913
76	0x3e8db4aa	0.27676898
77	0xbeb0e2e0	-0.34548092
78	0xbee4a471	-0.4465671
79	0xbeb2dc69	-0.34933785
80	0xbdea48b8	-0.11439651
81	0x3dd50e80	0.10403156
82	0x3eb3af66	0.35094756
83	0xbf11ad5e	-0.5690516
84	0xbf2a7f19	-0.66600186
85	0xbf253452	-0.6453296
86	0x3e4abd88	0.19798863
87	0xbe6f6004	-0.23376471
88	0xbe5e992e	-0.21738121
89	0xbf1e088d	-0.617318
90	0x3e6c973c	0.23104566
91	0x3f0f9505	0.5608676
92	0x3eef6aa2	0.46761042
93	0xbde84e98	-0.113431156
94	0xbf09625d	-0.53665715
95	0x3f1b98d7	0.6078009
96	0x3dd71e50	0.105038285
97	0xbe4eb724	-0.2018705
98	0xbf34111e	-0.7033862
99	0x3ed1d79a	0.40984803

bias f4 [50]
0	0x3f2d7dd9	0.67770153
1	0x3f01789b	0.50574654
2	0x3c020200	0.007935047
3	0x3ebde09a	0.3708542
4	0xbec885da	-0.3916462
5	0x3e7a3ed4	0.2443803
6	0x3f2ea179	0.6821514
7	0xbec4e9e8	-0.38459706
8	0x3ed128ce	0.40851444
9	0x3ea1f332	0.31630856
10	0xbf348354	-0.7051289
11	0x3f24f1e9	0.64431626
12	0x3f0e72cf	0.55643934
13	0xbee665da	-0.44999582
14	0x3eb3931a	0.35073167
15	0xbeb5e9d5	-0.35529962
16	0xbf23b9f8	-0.6395564
17	0xbd8d6c40	-0.06905413
18	0x3e9eefca	0.3104232
19	0xbd33e130	-0.043915927
20	0x3e4a71d4	0.19769984
21	0x3b372000	0.0027942657
22	0x3eda803a	0.42675954
23	0xbe8104bc	-0.25198925
24	0x3f03dfb5	0.51513225
25	0x3e04f5d8	0.12984407
26	0xbf1e6dfa	-0.6188656
27	0xbee15c55	-0.44015756
28	0x3db98750	0.09059012
29	0x3df98300	0.121831894
30	0xbf0ae566	-0.54256284
31	0xbedacd8a	-0.4273494
32	0x3caa2ec0	0.020774245
33	0xbf2b6734	-0.6695435
34	0x3dfd3ab8	0.12364715
35	0xbf250aa0	-0.6446934
36	0x3f082d8f	0.53194517
37	0x3eb94862	0.36188036
38	0x3f0c6d73	0.54854506
39	0xbee28c06	-0.44247454
40	0xbeed59da	-0.46357614
41	0x3f22dbbf	0.63616556
42	0xbf1f309d	-0.62183553
43	0x3e004b68	0.12528765
44	0x3e32a65c	0.17446274
45	0x3ef7e00e	0.48413128
46	0x3f30d16d	0.6906956
47	0x3ee7b162	0.4525252
48	0xbec095f5	-0.37614408
49	0x3f1b7fdd	0.6074198
