model/saved_models/end2end/model_fr_1_epoch_7.pt (torch_old, 242560 bytes, 25 tensors)

weight f4 [20, 74]
00000000: 767f 593e d9f2 39bf 0f60 413f 4c46 1fbf
00000010: 6295 40bf 1b47 e7be 1fd1 51be 8f50 e43f
00000020: 40b9 cabe 1e41 b43e 4e85 c2bf 9724 21bf
00000030: 0b59 633e 0984 fe3d c88c 6d3c 37cc 953f
00000040: 22c5 c63e 23af 0fbf f203 4e3f 986b 2abf
00000050: 19bb 783e 8d27 cf3e 045a 3a3f b3fd e1be
00000060: 3931 803f ef46 953f 7e36 723f 7457 973e
00000070: 73e7 5c3f 1ca2 c03f 6472 773e 4f87 2dc0
00000080: 54c1 74be 5ce3 0c3f 3a10 01bc 0280 413e
00000090: 25e1 9c3f 03e5 05bf 6cf6 1d3e 5264 f0bf
000000a0: 400e 8ebf 9b9e 3ebf a4d5 8fbf 1a0f 09c0
000000b0: 01d4 12be 1a29 48bf 967f fbbf 27e8 7bbe
000000c0: d47a efbe 4a7b 4b3f 45a0 373f 1ba8 80bf
000000d0: eb85 f5bf f0ba 9d3f e2ba 143e 9b55 f4bf
000000e0: bf5c 29bd f66d 1bbf d6ad 443f c170 8cbf
000000f0: 9d2d 10bf afef 1140 16f5 2d3e b32f 423e
00000100: da00 223d 315f d1bf 1e83 29be 8e16 d7bf
00000110: dbb7 f1bf 76ef c3bf 0d4f 863f 6f0a 4c3f
00000120: bebe 8e3e bc9a 73bf b667 743e 52ac 9d3f
00000130: c934 e2bd 4520 0cbf eb3e 073e 02de 24bf
00000140: 483e b7bd 7a97 1c3f 72fb 8f3e dd9a 823f
00000150: 581b 2ec0 1702 3cbf f47e 49bf 423c 823f
00000160: 1fd7 51bd 1a09 4fbf 7540 94be 5988 043f
00000170: 048e f9be 1965 4cbe c8d8 043e c873 09bf
00000180: 18dd e13f 484f debe 8c6c eeba b67d 673f
00000190: 70cf 2b3f b049 22be d62e 03bf 3968 02bf
000001a0: a362 02bf 99e7 4b3f a505 ecbe a978 f13c
000001b0: d313 e1be 80ee 06bf 6295 43c0 210a 6bbf
000001c0: 0725 d43e 9bf7 5bbf 162f 803f d2c4 9a3e
000001d0: 1a8e f33f 230a e9be 0940 8a3f 9f21 88be
000001e0: 6e3a a7be 2a93 8d3f da2e 50bf 4b52 4abf
000001f0: 3ff7 1dc0 b8d4 133e d204 323d 44ef 4d3f
00000200: 7d07 f2be 0682 f8bf e4bd a5be 494c ea3f
00000210: 10b6 e83f ef06 523f cba5 a03e 9f66 57bf
00000220: b056 d83f bcfc ad3f 2d0a 2cbf 1745 adbf
00000230: df87 1ebe 4826 19bf 6bca aabf bab7 973e
00000240: 3eae 53bd ad28 77bf 00cd 7d3f 4408 013f
00000250: 2fb0 7f3e 24ba e33e d647 143f 68a8 453f
00000260: 48ab aabe ad65 4bbf 9125 80be 98bf 20bf
00000270: 5d59 9cbd f517 ba3d 096c 793f 9978 053f
00000280: 73fb 80bf 8c5f 5f3f 451c 1e3d eec7 103f
00000290: 547c d03e 8498 833e 3176 1fbf e799 a33e
000002a0: 8e26 d6be b7fa 3bbf d047 debe f403 98be
000002b0: e67d 87bf 01f0 ba3e dffa 58bf 15e5 493f
000002c0: 7699 953f 02b2 02c0 08b8 5fbe ec6c c3bf
000002d0: 9024 34bf 7736 94be 7009 01bf bca5 f0bf
000002e0: 81aa 62bf 0ab6 4c3f 3195 453f 7651 dbbc
000002f0: 9ce6 e1bf 34ac a73f 6400 393e be01 8abd
00000300: ef5e babe 6af3 49bf 5a89 e93e c339 0a40
00000310: 0667 d83e f985 bd3f 6618 2e3f c95d e2be
00000320: 2848 c2be 1578 ca3e 0a7d 683f e0a1 343f
00000330: 0d9a 53bf 8e89 a23e 5d38 e03f b22e 50bf
00000340: 5cba 2ebe 00be e8be 5146 63bf 3071 a5bd
00000350: 97e2 cabf bc9f 2bbf 8f15 3dbf 7d60 803f
00000360: 0d87 b53f 1f99 bf3d 8c4d 89bf 28be 0c3f
00000370: aa19 243f c13b 1bbf 8470 98bd f06d 913f
00000380: 2f6b 133f 6ade 333f 9aaa 2f3f a973 b2bf
00000390: d4d6 bfbd 280c cf3f 2e7e 7a3f 9284 033f
000003a0: 7562 183f fec1 e4be dd6c 10be e0c8 4f3e
000003b0: 1254 e5be e9f4 2bbf 8c9e ea3f c9a7 2c3f
000003c0: fff6 d83e cc82 14bf aa81 3cbf 0a99 dabe
000003d0: 0e33 bdbf dab2 c03e e7a4 1f3f 394e 8d3f
000003e0: fdb4 57bf ca8d 63bf be8c ce3f fe0d 7e3e
000003f0: 2afe bf3d 621e a6bf ad46 7d3f 0138 a73f
0.21240029 -0.7263618 0.755372 -0.6221664 -0.7522794 -0.45171437 -0.2048993 1.7837085
-0.3959446 0.3520593 -1.5196931 -0.62946457 0.22201936 0.124275275 0.014498897 1.1702946
0.38822275 -0.5612661 0.8047477 -0.66570425 0.24290122 0.40459862 0.727936 -0.4413887
1.0015022 1.1662272 0.946144 0.2955891 0.86290663 1.5049472 0.2416473 -2.7113836
-0.23901874 0.5503442 -0.007877404 0.18896487 1.2256209 -0.5230257 0.15426034 -1.8780615
-1.1098099 -0.7446076 -1.1237073 -2.1415467 -0.14338686 -0.78187716 -1.9648311 -0.24600278
-0.46773398 0.79485 0.71728927 -1.0051302 -1.9181494 1.2322674 0.14524415 -1.9088625
-0.041348215 -0.6071466 0.7682775 -1.097191 -0.563196 2.2802541 0.16988024 0.18963508
0.039551593 -1.6357175 -0.16553923 -1.6803758 -1.8884233 -1.5307453 1.0492874 0.7970342
0.278799 -0.9515798 0.23867688 1.2318213 -0.11045224 -0.5473674 0.13207595 -0.6440126
-0.08947426 0.61168635 0.28121525 1.020351 -2.720419 -0.7344069 -0.7870934 1.0174639
-0.051230546 -0.8087326 -0.28955427 0.5177055 -0.48741162 -0.1996044 0.1297332 -0.53692293
1.7645597 -0.43419862 -0.0018190308 0.90426195 0.671134 -0.15848422 -0.5124334 -0.5094028
-0.5093176 0.79650265 -0.46098056 0.02947648 -0.43960437 -0.5270767 -3.0559926 -0.9181233
0.414345 -0.8592469 1.001437 0.30228287 1.9027741 -0.45515546 1.0800792 -0.2658815
-0.32661766 1.1060536 -0.8132149 -0.7903182 -2.4682157 0.14436615 0.04346163 0.80443215
-0.47271338 -1.941468 -0.32371438 1.830453 1.8180561 0.8204183 0.3137649 -0.8414096
1.6901455 1.3592753 -0.67203027 -1.353671 -0.15481518 -0.5982404 -1.3343023 0.2963236
-0.051679842 -0.9654644 0.9914093 0.5040324 0.24969552 0.44477952 0.5792211 0.7721009
-0.33333802 -0.7945202 -0.2502866 -0.6279235 -0.07634232 0.09086601 0.97430474 0.5213714
-1.0076736 0.8725517 0.03860118 0.5655507 0.40719855 0.25702298 -0.6228972 0.31953356
-0.4182629 -0.73429435 -0.43414164 -0.29690516 -1.0585296 0.36511233 -0.847578 0.78865176
1.1687458 -2.0421147 -0.21847546 -1.5267615 -0.7036829 -0.28947803 -0.50405025 -1.8800578
-0.8854142 0.7996527 0.77180773 -0.026772242 -1.7648501 1.3099427 0.18066555 -0.067386135
-0.36400554 -0.78887045 0.45612603 2.1597755 0.422661 1.480651 0.6800598 -0.44212177
-0.37945676 0.3954474 0.90815794 0.705595 -0.8265694 0.3174557 1.7517201 -0.8132125
-0.17063278 -0.45457458 -0.8877917 -0.080782294 -1.58504 -0.6704061 -0.7386102 1.0029446
1.4181839 0.093553774 -1.072679 0.54977655 0.6410166 -0.6063805 -0.07443336 1.1361675
0.57585424 0.7026125 0.6861969 -1.3941547 -0.09367147 1.6175585 0.97848785 0.5137416
0.59525234 -0.44679254 -0.14104028 0.20291471 -0.44790703 -0.6717058 1.8329635 0.6744352
0.42375943 -0.5801208 -0.7363535 -0.42694885 -1.4781206 0.37636453 0.62360996 1.1039497
-0.8426054 -0.8888823 1.6136701 0.24810025 0.0937465 -1.2978022 0.9893597 1.3063966

bias f4 [20]
00000000: 6e57 91bf 8d99 d1ba f248 be3e e6f7 803f
00000010: 1892 4abd d836 af3e c093 5ebf 6be2 0abf
00000020: e022 82bf 7d51 26bf 5c45 c23e b7fb 9e3e
00000030: 3664 393e 4e21 08bf 60f8 903e df04 4b3f
00000040: 0243 1bbe 827e 7cbe 77a8 2fbf 4bda 0cbf
-1.1354806 -0.0015991196 0.37165028 1.0075653 -0.049455732 0.3422153 -0.869442 -0.54251736
-1.0166893 -0.6496809 0.37943542 0.31051418 0.18104634 -0.5317582 0.28314495 0.7930431
-0.1516228 -0.24657634 -0.6861643 -0.5502059

weight f4 [74, 20]
00000000: 0000 0000 0000 0000 0000 0000 0000 0000
00000010: 0000 0000 0000 0000 0000 0000 0000 0000
00000020: 0000 0000 0000 0000 0000 0000 0000 0000
00000030: 0000 0000 0000 0000 0000 0000 0000 0000
00000040: 0000 0000 0000 0000 0000 0000 0000 0000
00000050: 877d 1cbd 517c 75bd ef65 153d de77 c83c
00000060: 1a8f e3bc f3f7 c2bc e58e 21bd 603d 84bc
00000070: 3b37 0abd 07d6 6d3c 5ae9 d03c 4254 973f
00000080: 9cd8 f6bd a6a2 09bd c82d 59bc 612e b13c
00000090: 4a58 13ba 5041 3ebd c59f 4bba 03a5 44bd
000000a0: 6ddf 2c3e 90cd e1bd a4bf 583f ae89 7a3d
000000b0: 4dd2 a4bd 27e4 363f 9a10 b1be 25a7 bcbe
000000c0: 1442 2d3f e87c b23d 71e7 613f a49c aebe
000000d0: ff4a 53bf c38f 36bd 0a05 813f cd15 eabe
000000e0: f7c5 d5bc a6c9 04be 1019 883f b65d a9bd
000000f0: acce 07bb 5169 493d c62d 1b3c f4a8 a8bb
00000100: 86de a23b 6bae 2a3d 22c2 0f3d e016 9d3c
00000110: dc07 dbbc c98a 8c3a a445 67bb 383a acbe
00000120: b359 d13e 2314 0abd f6aa 38bd 8c80 8cbc
00000130: f7dd 38bd 9f5f 26bd 5658 8f3d 179e 563c
00000140: 2394 673d 75b0 333b ac37 e3bc 9da2 8dbd
00000150: 24cf 13be 032f 54bd 0bbc 203c 2672 cdbc
00000160: 9cd3 5e3e ed96 f7bc 1bb0 46bd f8b7 da3d
00000170: 0905 c4be 5abf db3c 7470 88bd be5e 12bd
00000180: f8f0 ccbd 3cf5 823c 1893 023c 90d7 933c
00000190: aafe 93bf 028c e2be e1af 88be c412 35bf
000001a0: b379 053f ff65 8ebf 6e8b d23e 02af fb3f
000001b0: dd87 75be 05e8 613f cd54 3fbf 3e3a 18bf
000001c0: d4a0 773f 4031 39bf 5946 e43f b5e6 12bf
000001d0: 70cb d13f 75cc d1be 5ef0 443e 4cc6 bb3d
000001e0: e8c6 bb3c dccc 02be 85cc 8bbd 64e8 8fbe
000001f0: d758 bebd 8013 0b3d b72d 913b c746 24bd
00000200: b603 1abf 3d60 893e a157 293e e6d2 dabd
00000210: bfa5 95bd 4ca0 dd3d c337 cdbe 4fe1 26be
00000220: 58be cf3c 179f 823d dc6c c13d ae87 1e3e
00000230: 18b2 ab3f 9d39 053e 6393 9abe cc85 3b3f
00000240: b39b 843f b10f 083f 2027 75bf ce52 0a3f
00000250: e0f7 a43d dbec d33d 4a1f 6cbe a769 423d
00000260: 1d43 64bf 2194 37be abe4 603f ea77 23bf
00000270: f4c6 513d ee0a dcbf 0241 e03d ed71 b93e
00000280: 7d34 aabe 80e2 933e 4200 8cbe e7e1 8b3f
00000290: eb37 94bf 8cc6 70be acce 1fbd e73a 8f3e
000002a0: 74bc 383f 5b9e a23f 96c7 1cbe 01a7 903c
000002b0: b13b 1cbf 7d96 96bc 5b4f 67bf ee72 fbbe
000002c0: 4ad7 e3be 8fc0 1d3e 36c9 9b3e 49c9 95be
000002d0: 91e9 053f 64a4 6a3f 0bdb ebbe bc06 413f
000002e0: dec5 3d3e f9ac 123f 8b93 173e b64b 653e
000002f0: bab3 9ebe 992f 123e 6a42 6cbe a859 a4be
00000300: 707a 1e3d ade1 0cbf c287 be3f 7de6 ba3f
00000310: 6c81 4fbe 495c d43d 5272 f6be 1ed1 673e
00000320: 54e9 1ebe c81a 18c0 a618 303f 842d 4c3f
00000330: 31c3 59be 31aa 09be c168 47bf b7d7 babe
00000340: aec4 5bbe bf46 723d 0855 e7bd 5ff0 8bbd
00000350: da34 223f 7a06 4ebe 63ce 1f3f 599f 4d3f
00000360: 62e2 903f 9382 32be 3268 f4bd ab04 95be
00000370: 403d 8dbe 84ac 23be 7fcb 533e cd12 00bf
00000380: 8a73 1dbe ea34 e33d f474 223d a1c6 21be
00000390: b39b 193d d44e c53e 5583 543e 9429 90be
000003a0: bf9c 9abe 7007 ccbe 7dd8 9fbd 250f 48be
000003b0: 6576 e93c 3fd9 d43d 720c a7bd c0a4 3fbe
000003c0: 2228 933e fb8b f2be 8634 debe bac0 403e
000003d0: ea89 5e3f cbf0 163f ddc9 97bd 4203 5cbf
000003e0: d363 073f 20fe 86bf ec63 35bd 1d7f 79be
000003f0: 1ef4 58bd 942a b9bf 297a e9be e368 803c
0.0 0.0 0.0 0.0 0.0 0.0 0.0 0.0
0.0 0.0 0.0 0.0 0.0 0.0 0.0 0.0
0.0 0.0 0.0 0.0 -0.03820565 -0.05993301 0.036474165 0.02447122
-0.027778197 -0.023799872 -0.039442915 -0.016142547 -0.033744078 0.01451636 0.025501896 1.1822588
-0.12053034 -0.03360238 -0.013255544 0.02162856 -0.0005620761 -0.046449006 -0.0007767643 -0.04800893
0.16882105 -0.11025536 0.8466742 0.061166458 -0.08047924 0.7144188 -0.34582978 -0.3684627
0.6767895 0.0871523 0.88243777 -0.34103882 -0.8253631 -0.044570696 1.0079663 -0.45719758
-0.026095374 -0.12967548 1.0632648 -0.08269827 -0.0020722551 0.049172703 0.009471362 -0.005147094
0.0049703745 0.041670244 0.03509725 0.019175947 -0.026737146 0.0010722514 -0.0035289312 -0.33638167
0.40888748 -0.03371061 -0.045084916 -0.01715114 -0.045133557 -0.040618535 0.069992706 0.013099215
0.05653776 0.002741841 -0.027736507 -0.06915782 -0.14434487 -0.051802646 0.009810458 -0.025078844
0.2176041 -0.030223334 -0.04850779 0.106796205 -0.38285092 0.026824642 -0.06662074 -0.035734884
-0.10006899 0.015986077 0.00796964 0.018047124 -1.1562092 -0.44247442 -0.26696685 -0.7073176
0.52138823 -1.1124877 0.41122 1.9662783 -0.23977609 0.8824466 -0.7473877 -0.5946387
0.9672978 -0.72340775 1.7833968 -0.5738328 1.6390209 -0.409763 0.19232318 0.091686815
0.022921994 -0.1277346 -0.068261184 -0.28106987 -0.092942886 0.033954144 0.0044304985 -0.04010656
-0.6016191 0.26831236 0.16537334 -0.10684757 -0.07307004 0.1082159 -0.40081605 -0.16296886
0.025359318 0.06378 0.094445914 0.15481445 1.3413725 0.13010259 -0.30190572 0.7325103
1.0360016 0.53148943 -0.95762825 0.540326 0.08055091 0.10347911 -0.23058811 0.04746404
-0.89164907 -0.179276 0.8784892 -0.6385485 0.051215127 -1.7190835 0.10949899 0.3621973
-0.3324317 0.28883743 -0.27343947 1.0928315 -1.1579565 -0.2351324 -0.039015457 0.27974626
0.72162557 1.2704576 -0.15310511 0.017657759 -0.6102858 -0.018382305 -0.9035546 -0.49111122
-0.4450019 0.15405487 0.3042695 -0.2925513 0.5230952 0.9165709 -0.46065554 0.754009
0.18532512 0.57295185 0.14802377 0.22392163 -0.30996495 0.1427597 -0.2307221 -0.32099652
0.038690984 -0.55031854 1.488518 1.460159 -0.20264214 0.103691645 -0.48134094 0.22638366
-0.15518695 -2.3766346 0.6878761 0.7975695 -0.21265866 -0.13443829 -0.77894217 -0.36492702
-0.21461746 0.0591495 -0.11295515 -0.068329565 0.63361895 -0.20119658 0.62424296 0.8032127
1.1319087 -0.17432623 -0.11933936 -0.29105124 -0.27585793 -0.15983778 0.20683096 -0.5002869
-0.15376106 0.11094077 0.039662316 -0.15798427 0.037502002 0.38536704 0.20753224 -0.28156722
-0.30197713 -0.39849424 -0.07804964 -0.19537027 0.028498838 0.10392999 -0.08156671 -0.18715191
0.28741556 -0.47372422 -0.43399447 0.1882352 0.8692919 0.5896117 -0.07411549 -0.8594247
0.52886695 -1.0546303 -0.044284746 -0.24364896 -0.052967183 -1.4466119 -0.45601013 0.015675014

weight_ih_l0 f4 [200, 20]
00000000: 2a5b 21bf 030c c93f c1ae 3bbe 165d 4940
00000010: b396 15c0 1052 f23c a407 a6bc a407 5ebf
00000020: 6685 cfbf f497 53bf 4708 433e 95fd 983f
00000030: 7509 c33f 3887 c13f 80f4 5abe d853 0ebf
00000040: 4024 99bf b113 3d3f c849 453e 1c02 10be
00000050: 557a 0f3f ea8a e5bf 98ca 22bf 0c3d 7ebf
00000060: 3bf7 74bc 1a73 d53e 4098 8dbf 48d8 6bbe
00000070: 420c 523e 75a8 0cbf bd32 b13f d589 0d40
00000080: 0ec3 31bd f34e d03e b404 693f 7495 cabe
00000090: 912a 053f 9eac 1740 a6c8 f53e 455f 6dbe
000000a0: 06c7 14bd 8176 c8be bf0d 0cbf dd1f 8e3f
000000b0: 3241 bb3d 9927 0dbf 7cac 7cbe 51dd 373e
000000c0: 4576 353f 2790 30be bbe6 36be 902f 933f
000000d0: c7de 3d3f 1f65 6dbf d4c3 f73e de33 993f
000000e0: d26b 033f f5e0 d1bf fc19 2a3f 6244 333d
000000f0: 17b2 ae3d 4dc8 d23f d7a9 223f 93a1 f3bf
00000100: 705b da3e da14 d13e b430 243f 6da0 953f
00000110: 1054 2f3e 341d 7d3f 5587 18bf eaec 183f
00000120: ba1f a43e cbc5 1c3f d14f 86bd 00a1 bb3e
00000130: fa2f f83e 28b2 ec3f dcb7 803e 214e 723e
00000140: 68ad 8abf daf4 653f bb9c d93f 79e1 b93e
00000150: 7239 5cbd 1ca2 67be a189 56bf 6300 42bf
00000160: 59db 753f 1bbb 033f 6daa 733c 1af6 d03c
00000170: 08fe 33be ebc6 b63e ad33 b6bf 75b3 2f3f
00000180: 7122 24be 4cab 5ebe 09ef 08bf 551d 85be
00000190: d732 903f 08ac 0b3f b388 66be 5136 e83e
000001a0: 967a f63e 81d3 ad3f 8c18 873e 8270 cfbe
000001b0: 9ed9 8bbf f2a5 9ebf dd79 943d 5e4b fd3e
000001c0: d43d 5dbf 746f d23e 4b72 bdbe 56f4 9fbe
000001d0: 3b91 00bf e51d cf3e e987 033f 271b b33f
000001e0: 202d 5fbf 63b3 4d3f c3e1 163e fbfd 5e3f
000001f0: 7b74 d4be 7b8f bebd f294 a3be 030e 01bf
00000200: b3cb 67bf 4852 92bd fe6d 433f ab13 9d3e
00000210: 3090 c23e 899c 14be d841 bcbd 5d91 cfbe
00000220: 96d6 33be b258 3e3e c91b 8fbe 273e 21bf
00000230: 07d8 4fbf 6458 5dbf ac94 c03f 1402 bd3e
00000240: b204 32be c9b5 58bf 967d f3be 0a61 b93f
00000250: 4698 973c 2af6 a53e fabd 59bf a683 1340
00000260: f078 e83e c4de 0cbf 30c0 1640 7352 0240
00000270: 1053 063f 7fcd 0bbe 6b47 9cbf 59ba 64be
00000280: 59d2 60bf 5176 81bf 6f2d d0be 67db aebe
00000290: ff40 9a3f ab6d 28be d0cb 95bf 04d8 af3d
000002a0: 52e9 8b3f f17f 93bf 359a 883f 908b e0be
000002b0: f924 ca3d 8520 37bf ab37 be3f 04c1 a83f
000002c0: 0dd6 96be 8f36 93be 8909 bfbf 309e 94be
000002d0: b509 8abf 2504 e0be cee8 a33e 5a64 18bf
000002e0: 74f0 6dbf 909a c7bd 44da 96bf e4ee 9cbe
000002f0: f79a 5dbf de68 fcbd 5d4d 63be 6cb8 3b3f
00000300: d8f8 b5be 7a33 10bd e10f 30bf 8397 0b3f
00000310: 8d24 86bb c9e6 7b3e 04c0 b0bd bb38 4cbf
00000320: d4b7 b0be 2db6 72bf be1d 2fbd 4b68 45be
00000330: aa47 b73f cbba b63e 270e 79be e41b d23c
00000340: a6ce 22be ff7c fbbe 27d5 15bf af18 813e
00000350: e142 c73d d3ad 0dbf 9653 343f 0269 dd3d
00000360: b082 363f e91c fcbe 4716 cebe 0359 993e
00000370: 4a3a 023f 74e6 04c0 26d6 903f 112e 90be
00000380: bdca 92be 5c87 cebe ebe7 d0bf 408f 98be
00000390: 2d13 8a40 d9cd d53e b6ae 1e3f 2dd4 e03f
000003a0: d6aa 25c0 e363 31bf bd80 0dbf 7398 833e
000003b0: b4c4 2ebf c489 433f 43ef e03e f092 74bf
000003c0: 82ae edbf 7de3 15bf 9c4c 9cbd 0ca7 6abf
000003d0: 3561 21bf d497 003f 932a a1bf dfbb c1be
000003e0: 880d 86bf a6b1 70bf feda 633f 68a7 713f
000003f0: 955e 683f 4963 d0be d872 273f 3812 993f
-0.6302973 1.5706791 -0.18328382 3.1463065 -2.337323 0.029580146 -0.020267315 -0.8673041
-1.6212585 -0.8265374 0.19046126 1.1952387 1.5237261 1.511939 -0.21382332 -0.55596685
-1.1964188 0.7385817 0.19266427 -0.14063305 0.5604604 -1.7933018 -0.63590384 -0.993119
-0.014951522 0.41689378 -1.1062088 -0.23031723 0.20512488 -0.54944545 1.3843609 2.2115376
-0.04339891 0.40685233 0.910228 -0.3956715 0.52018076 2.3699107 0.48004645 -0.23180874
-0.036322616 -0.3915291 -0.54708475 1.1103474 0.091432944 -0.55138546 -0.24675173 0.1795552
0.7088359 -0.1724249 -0.17861454 1.149889 0.74168056 -0.92732424 0.48391593 1.1968954
0.51336396 -1.6396776 0.664459 0.043766387 0.08530062 1.6467377 0.63540405 -1.9033684
0.42647886 0.4083622 0.64136815 1.1689583 0.17121911 0.98872685 -0.595815 0.597365
0.32055455 0.6123931 -0.065581925 0.3664627 0.48474103 1.8491869 0.25140274 0.23662616
-1.0834169 0.8982674 1.7000955 0.36304834 -0.05376572 -0.22620434 -0.83803755 -0.7578184
0.9603782 0.51457375 0.014872176 0.025507975 -0.17577374 0.35698637 -1.423452 0.68633205
-0.16028763 -0.21745032 -0.5348974 -0.2599894 1.1265515 0.54559374 -0.22513084 0.4535394
0.481404 1.3580171 0.26385915 -0.40515524 -1.0925786 -1.2394392 0.07249806 0.49471563
-0.8642247 0.41100657 -0.3700126 -0.312411 -0.50221604 0.40452495 0.5137926 1.3992661
-0.8717823 0.8035185 0.14734559 0.87106293 -0.41495118 -0.093047105 -0.31949574 -0.50412005
-0.90545195 -0.071446 0.7633971 0.30679068 0.3800063 -0.14512838 -0.09192246 -0.4054059
-0.17562327 0.18588522 -0.27950886 -0.6298546 -0.81189007 -0.86463 1.5045371 0.36915648
-0.17384604 -0.8465238 -0.47556752 1.4482739 0.018505227 0.3241437 -0.85055506 2.3049102
0.45404768 -0.55027413 2.3554802 2.0362823 0.52470493 -0.1365261 -1.2209295 -0.22336711
-0.87820965 -1.0114232 -0.40659663 -0.34151766 1.2051085 -0.16448085 -1.1702824 0.085861236
1.0930579 -1.152342 1.067206 -0.43856478 0.09870333 -0.71533996 1.4860739 1.3183904
-0.29460183 -0.28752562 -1.4924785 -0.29026937 -1.0784212 -0.43753162 0.32013553 -0.59528124
-0.9294503 -0.09746277 -1.1785359 -0.3065101 -0.8656458 -0.12324689 -0.2219748 0.7332828
-0.35541415 -0.035205342 -0.6877423 0.54528064 -0.0040937127 0.24599756 -0.08630374 -0.79774064
-0.3451525 -0.9480923 -0.042752974 -0.19278066 1.4318745 0.35689387 -0.24321805 0.025648065
-0.15899143 -0.49118802 -0.5852837 0.25214145 0.09729553 -0.5534336 0.7044004 0.10811044
0.71293163 -0.49240807 -0.4025137 0.29950723 0.5087019 -2.0765657 1.1315353 -0.28160146
-0.28670302 -0.40337646 -1.6320776 -0.2979679 4.314841 0.41758612 0.6198534 1.7564751
-2.588552 -0.6929304 -0.55274564 0.25702247 -0.68268895 0.7638209 0.43932542 -0.9553671
-1.856888 -0.58550245 -0.076317996 -0.91661143 -0.6303895 0.5023167 -1.2591118 -0.37838647
-1.047288 -0.9402107 0.8900603 0.94396067 0.9076932 -0.4070075 0.6540961 1.1958685

weight_hh_l0 f4 [200, 50]
00000000: d93b 0dc0 6c40 d0bf c48b 0bbd 61fc d3be
00000010: 0a70 14c0 42fc 77c0 eebc 30c0 8dff 03c0
00000020: d312 15bd 188f d23f 9a11 bebf 6a17 6ebe
00000030: ddcc 9c3f 383e 02c1 dba7 2a40 6dcd 8540
00000040: 87a1 aabf a8f0 7c3f e983 8440 fd85 20bf
00000050: 2ee5 7d3f a698 d53f 1232 c23f 2590 c4bf
00000060: 4ad8 2640 2d20 a2c0 e9e9 a4bd 294e be3e
00000070: 4833 84bf 3d4b 80be a677 08c0 ba6c fabf
00000080: de62 2b3e aed0 d2be ce45 7c40 d201 6740
00000090: fc2e 9f3e e3d0 c53e a143 1b3f 77b3 3f40
000000a0: a187 cb3e 30b1 4240 bb7a 853f b249 643f
000000b0: d019 5740 0e35 bdbf 0385 f93d 702f e03e
000000c0: cd39 9fc0 dc30 b33f c023 2ebf 4a72 a0bf
000000d0: 383e ce3e 3280 c03f 41ce 3c3f fa2d 583f
000000e0: 699f 293e b8ae 62c0 d5f7 673f 5fe7 7c3f
000000f0: b32d 4e3e d2c7 c0be 8b40 d33e 8a15 563f
00000100: 5668 0740 c3f6 ffbe 1f43 d0bf ee7a a13f
00000110: 5a47 1b40 ada7 b93f 9219 643f f7ca 173d
00000120: 9725 8a3e 08f3 9fbe d0e5 853f b181 163e
00000130: 6c2a e8bf 4352 8a3f c094 9b3f a7b5 893e
00000140: 6894 00c0 865c ecbf f0d7 3a3f d440 ccbf
00000150: 4029 84bf ef0e 833d d4bd cd3f 8de5 8f3f
00000160: b410 af3e 2aa7 5c3e 782a afbf d5b2 453f
00000170: 6dfb b9bd 596f afbc 9056 be3f d016 823e
00000180: 3625 673f efcd ed3f ec27 63bf f50a 3840
00000190: 03b8 68bf 9e68 c4be 13fd 9e3b 033c 3c3e
000001a0: ef44 ecbf f92d edbe 51ba a23f 708c 22c0
000001b0: 76a6 8cbf a69d 883f 392e fbbf 3152 98be
000001c0: 6d2a 2e3e 47ce d23f f41a e3bf 90a0 523f
000001d0: d991 30be 84ea 97bf 5977 cc3f 9bc4 003f
000001e0: 0934 3a3f cefe 35bf 464a e83f cb89 b83e
000001f0: 08fe ce3e 089f ca3e 8df7 30bf 8bf4 b6bf
00000200: c0d4 d63f a9ce 0c3f 1563 493e 5d29 743f
00000210: 4373 a03f c95b 04c0 9375 a43e c1e9 4840
00000220: b927 77bf a755 62c0 9014 a23f cce6 39bf
00000230: 5974 c83e 41f1 4abe b2a6 07c0 5f8c 1b3e
00000240: 92ad 8a40 4c8a 4f40 23ab bc3f 8d55 8240
00000250: fd90 74bf ecb3 ba3c d733 f4be fa38 06bf
00000260: 935e 91bf f230 c93f 21de e0be 93bf 0d3d
00000270: cef8 29c0 5d34 8bbf 49c3 2fbf 06f3 efbe
00000280: 6f91 ac3e 3ba1 5abf 6511 a3bf 223d e83f
00000290: e5cd d23f 686d 06bf f8eb 75be de54 613e
000002a0: 9ed3 80bf eb41 3abf 27a3 e5bf 3713 c4be
000002b0: 4189 803f dba5 d13e 1f11 44bf b2f7 9dbf
000002c0: f2e1 823d d04d 36bd 9ef8 debf b586 28bd
000002d0: 6e8f f3bd 0960 453f 4c10 6d3f 4974 813f
000002e0: ce24 963f 1630 103f d50a 92bf 019d e33f
000002f0: b7d0 873d d280 7f3e c114 7140 5334 5ebf
00000300: 6d52 9d3f 57c7 36bf 184a 06be 5ae3 433e
00000310: fb86 83bd 9391 943f cf84 2740 6ad1 a6bf
00000320: 6e69 84bf 38c3 e2bf eed6 7fbd 4387 413f
00000330: 3460 3b3f 7ca4 eabe eca1 42bd bbba c5bd
00000340: a70e 803e 295a 3540 9f83 55bf 591c 29bf
00000350: 17d0 16c0 cb09 0dc1 7ff6 ad3e 0206 81bf
00000360: ae4c f9bf 2e63 103f 0b87 0040 952c c23f
00000370: 8d1c 243f 133d 68bf b243 88be 02b1 48bd
00000380: 73cd 0c40 a7ac b0bf 211e 34bf 3b0d 393f
00000390: 19a7 3cbf d93d 853f 4d28 193d 4090 aabf
000003a0: d62f e33f 6a3c 02bf 958a 3040 3902 83bf
000003b0: 9e4d 9d3e d154 5d3f b6e4 393f a5a5 843f
000003c0: 512e 9b3d fc49 263e 2813 b5be d440 873e
000003d0: aa83 0640 ae49 62bf e690 c6bd d555 033f
000003e0: a237 05bf 4a73 613e 7724 54be 72b9 483f
000003f0: 7fb3 a7bf c238 ed3f ec0f 043c 1591 e03e
-2.2067778 -1.626966 -0.034068838 -0.41403487 -2.3193383 -3.8747716 -2.7615314 -2.0624726
-0.036394905 1.6449919 -1.4849122 -0.2325112 1.2250019 -8.14019 2.666495 4.1813264
-1.3330544 0.9880471 4.1411023 -0.6270445 0.99177825 1.668721 1.517153 -1.535649
2.6069512 -5.0664277 -0.08052427 0.37169006 -1.032815 -0.25057402 -2.1323028 -1.9564431
0.16736934 -0.41174835 3.9417605 3.609486 0.31090534 0.3863593 0.6065007 2.9953287
0.39751914 3.0420647 1.0428079 0.8917495 3.3609505 -1.4781816 0.12183573 0.43786192
-4.9758058 1.3999286 -0.680233 -1.2534878 0.40281844 1.5039122 0.7375222 0.84445155
0.16564716 -3.541914 0.90612537 0.98790544 0.2013462 -0.3765245 0.4126018 0.83626616
2.1157432 -0.49992952 -1.6270484 1.261564 2.42623 1.4504296 0.8910152 0.037058797
0.26981804 -0.31240106 1.0460758 0.14697911 -1.8137946 1.0806354 1.215477 0.26896402
-2.009058 -1.8465736 0.72985744 -1.5957284 -1.0325089 0.06399333 1.6073556 1.1241928
0.3419243 0.21548143 -1.3684835 0.77226 -0.09081159 -0.0214154 1.4870167 0.2540803
0.90291154 1.8578471 -0.8873279 2.8756688 -0.9090578 -0.38361067 0.004851946 0.18382268
-1.8458537 -0.46324137 1.2713109 -2.5398216 -1.09883 1.067311 -1.9623481 -0.29750207
0.17008372 1.6469201 -1.77426 0.8227625 -0.17243136 -1.1868443 1.5973922 0.50299996
0.7273565 -0.71091926 1.8147666 0.36042628 0.40428185 0.39574456 -0.6912773 -1.4293379
1.6783676 0.5500284 0.19666703 0.95375615 1.2535175 -2.0681021 0.32120952 3.1392672
-0.96544987 -3.5364778 1.2662525 -0.72617793 0.39151266 -0.19818594 -2.1195493 0.15190266
4.333688 3.242816 1.4739727 4.072943 -0.95533735 0.022790872 -0.476958 -0.5243069
-1.1356987 1.5718062 -0.4391947 0.034606528 -2.6558108 -1.0875355 -0.68657357 -0.468651
0.33704707 -0.8540227 -1.2739683 1.8143656 1.6469084 -0.5251069 -0.24015796 0.2200503
-1.006458 -0.7275683 -1.7940415 -0.3829591 1.0041887 0.4094685 -0.76588625 -1.2341216
0.06390752 -0.0445078 -1.7419622 -0.04114409 -0.118925914 0.77099663 0.9260299 1.0113612
1.1729982 0.56323373 -1.1409556 1.7782289 0.06631606 0.24951485 3.7668917 -0.8679859
1.2290779 -0.7139792 -0.13114202 0.19129696 -0.0642223 1.1606926 2.617481 -1.3032658
-1.0344675 -1.7715826 -0.062460832 0.7559702 0.7319367 -0.45828617 -0.047517702 -0.09654757
0.2501118 2.833628 -0.8340396 -0.6605888 -2.3564508 -8.814891 0.33977124 -1.0079958
-1.9476526 0.56401336 2.0082424 1.5169855 0.64106065 -0.9071819 -0.26614147 -0.048996933
2.2000396 -1.3802689 -0.70358473 0.72285813 -0.7369247 1.04095 0.03739195 -1.3325272
1.7748973 -0.50873435 2.7584584 -1.0235053 0.3072328 0.86457545 0.7261461 1.0363051
0.075771935 0.1623916 -0.35366178 0.26416647 2.1017861 -0.88393676 -0.09695606 0.51302844
-0.52038014 0.22016636 -0.20717035 0.7840797 -1.3101653 1.8532946 0.008060437 0.4386069

bias_ih_l0 f4 [200]
00000000: 2408 a3bd 1b83 5ebd dd90 fa3f ee76 aebf
00000010: 7166 be3f 1cf0 e93f 2bd3 cfbd a2fb 7f3f
00000020: 6503 413f d97e 0f3f ca0b 0b40 dc4c 6c3d
00000030: b6b9 b53d 3f20 9f3e a8fd 5c3d 107e e93e
00000040: 6613 0f40 3dba 0dbd cbd8 9ebd e98b 163f
00000050: 0a6a 36bf 76fe 503f 1f3d 903f fd2d 21bf
00000060: 71d7 a4be 86af dc3e d2a8 29bf 0b34 043f
00000070: 261d b4be 5e29 d9be cea4 803f d58b 2e3f
00000080: 4dbb 62be e9dd 153f 3f5a 48be bed9 853f
00000090: 4894 e03f 9970 bb3f 3b04 503f 98a4 e03f
000000a0: 3258 be3e de37 80bd 56c1 f8be 887e aabe
000000b0: 1079 d83d 4735 b93f 71a8 b83d df86 58bd
000000c0: cf19 3540 e90e 7ebe 9088 a8bf 73c3 fbbd
000000d0: 19a7 d83f 9321 2dbf e271 363f 7ef7 553f
000000e0: 5a46 463f 7ee7 36bf 46e0 59be 1078 4b3e
000000f0: 7563 bc3d 7a26 183f c04a 163e 882c 9d3f
00000100: 3aef cf3d 740d ea3f 16ec babe d0d0 d93f
00000110: 3532 d3bb 0f25 07c0 1e63 b83e 0797 2c3f
00000120: 68ac e63e 019d 333f 5c66 183f 35f8 443f
00000130: 6505 f63f aac9 dd3e 98d3 953d 7ec2 903e
00000140: 6759 91bf aba0 903f d7bf e3be 7963 0bbf
00000150: 5e39 da3e 0746 79bf 6c50 233f 2e78 d63d
00000160: b6b5 b5be 0b11 33c0 dc0e 423f 19c8 383f
00000170: dfa1 a63f 7570 fbbe d93a 213f cbc1 fe3e
00000180: 8f9c 68bf bc6e 8dbf 4724 233f 4f55 233f
00000190: 944d a7bf fefc 72bf 416a c3be 5b31 173e
000001a0: cc69 0a3f f4c8 5cbf c501 33bf 78c7 aa3d
000001b0: 63c6 a4be 15d1 a13e 627d 53bf d28b fabd
000001c0: ad00 2fbf 76cd df3e bbd2 18bf 8eb6 a13f
000001d0: c9e6 2dbe 3cd3 063e aaa0 113f c93c fd3e
000001e0: 4a16 d8bf eeab 3bbe 9bea e33e c240 2d3f
000001f0: d838 f73e 104c 8cbf 62e1 203e 4611 82be
00000200: d422 063c 83a3 383e ec72 01bf b142 5fbc
00000210: 95d3 9f3e 6856 233f 20bb 03bf 38a3 f7be
00000220: aaf3 063f dddf 363f f491 e93f 58a2 733f
00000230: 6829 7ebe 3d26 6cbf 7265 88bf 4609 683f
00000240: defb d0be ce55 26bd 85dc 423f a11b 983f
00000250: a61c e83e f529 0a3f ffaa b8be 85ae 6b3e
00000260: 35f7 b23e e7b3 563f e0c7 7c3f ea99 7a3f
00000270: 8f9e 8bbe 6820 733f c47b 143c a2a6 5b3e
00000280: 8a0a b53f 443c 8ebe ff8b 97bf 965b f7be
00000290: 6285 ad3e feed 8f3e 8be1 edbe 8f76 013f
000002a0: bffa 783e 5e9d 893f 8531 abbe 33e7 983f
000002b0: 5164 d13d afd3 3abd ceff 6cbf c23a a4bf
000002c0: 7dca 21bf af8c 1b3f c4f6 9b3e ce19 af3e
000002d0: fdd1 493f 5e29 983f e86d 3c3d d708 ac3f
000002e0: cb22 8d3f c48d 0cbf f0c5 4b3f 6dcf 0b3f
000002f0: 3c17 2c40 f553 b53f 8925 13bf 57d1 a0bf
00000300: 27e1 f7be 63fc 2a3f be8e f13e 558d f7be
00000310: caa3 12bf aad1 413e 3631 483f 82e3 a53f
-0.07960537 -0.05432425 1.9575459 -1.3630044 1.4875013 1.82764 -0.10147699 0.99993336
0.75395805 0.5605293 2.1725945 0.057690486 0.08873312 0.3107929 0.053952843 0.4560399
2.235559 -0.03460144 -0.07756194 0.58807236 -0.7125555 0.81638277 1.1268653 -0.629608
-0.3219562 0.43102664 -0.66273224 0.5164191 -0.35178488 -0.42414373 1.0050294 0.68182117
-0.22141762 0.58541733 -0.19565676 1.0457075 1.7545252 1.4643737 0.81256455 1.755023
0.37176663 -0.06260656 -0.48585004 -0.3329966 0.10569966 1.4469384 0.09016503 -0.052862998
2.8297002 -0.24810375 -1.3166676 -0.12293138 1.6925994 -0.67629355 0.7126752 0.8358077
0.774511 -0.7144698 -0.2127696 0.19870019 0.091986574 0.5943371 0.14676952 1.2279215
0.10153051 1.8285356 -0.36508244 1.701685 -0.006445194 -2.1116369 0.3601312 0.6741795
0.4505341 0.70161444 0.5953119 0.76941234 1.9220396 0.4331792 0.07315749 0.28273386
-1.1355408 1.1299032 -0.444823 -0.5444866 0.42621893 -0.9737248 0.6379459 0.10472141
-0.35490197 -2.7979152 0.75803924 0.72180325 1.3018149 -0.49109235 0.6298042 0.49757227
-0.9086389 -1.1049418 0.6372723 0.63802046 -1.307055 -0.94917285 -0.38167003 0.14764921
0.54067683 -0.8624413 -0.69924575 0.08338827 -0.32182607 0.3160483 -0.82613194 -0.122337
-0.68360406 0.43711442 -0.5969655 1.2633836 -0.16982569 0.13166517 0.5688578 0.49460438
-1.6881802 -0.18327305 0.44514927 0.6767694 0.48285556 -1.0960712 0.15710977 -0.25403804
0.008187015 0.18031125 -0.5056598 -0.01362674 0.31216112 0.6380372 -0.51457405 -0.48366714
0.5271555 0.7143534 1.8247666 0.9516959 -0.24820483 -0.92245847 -1.0655959 0.9063915
-0.4081716 -0.040609173 0.76117736 1.1883432 0.45334357 0.5397027 -0.3606796 0.23015793
0.3495423 0.8386826 0.98742485 0.97891104 -0.27269408 0.94971323 0.009062711 0.21450284
1.4143841 -0.27780354 -1.1839598 -0.48312062 0.33890826 0.2811126 -0.46461138 0.5057153
0.24314402 1.075115 -0.33436218 1.1945556 0.10224212 -0.045612033 -0.92577827 -1.2830431
-0.631996 0.6076154 0.30461705 0.34199375 0.7883604 1.1887624 0.046003252 1.3440198
1.1026243 -0.5490382 0.79598904 0.5461338 2.688918 1.4166247 -0.5747915 -1.2563885
-0.48413965 0.6679136 0.47179216 -0.48350015 -0.5728117 0.18927637 0.7820009 1.2960055

bias_hh_l0 f4 [200]
00000000: e489 81bd 67fa 22be ae1c 0b40 9554 b4bf
00000010: 00be cb3f aeeb e73f 1962 04be 0e7d 713f
00000020: d1e3 403f 73bc 393f b243 0d40 23eb 7bbd
00000030: 78bc b83d 4066 623e 6bba 703e 494a 163f
00000040: 8de5 1740 bbde 883d efd0 7abc 1358 243f
00000050: 2d9a 6cbf 7a8f 573f beab ac3f b921 1dbf
00000060: 805e b3be a2ca db3e bd0b 07bf 79c8 de3e
00000070: e358 06bf a6b6 acbe 4589 863f ee37 163f
00000080: 0027 3bbe e485 1a3f 5fe1 82be 47b3 6e3f
00000090: be9b d53f 2049 ac3f 7ce0 563f eb86 bf3f
000000a0: c419 b93e 2d4f 5fbe a801 abbe 91c9 e1be
000000b0: 737d 383c b740 cd3f ef2e 9b3e 9853 22bd
000000c0: 456b 3540 6109 a6be 7642 a1bf b438 78be
000000d0: 4c9a dd3f 90e2 21bf 9aa8 063f a828 533f
000000e0: f690 633f 5775 27bf d7cb 0cbe be07 9f3e
000000f0: 82fb 00be e7bb 043f 02a2 9b3d d355 8e3f
00000100: 95e9 26bc 783d f23f 26c1 e6be 8527 cb3f
00000110: d8a6 00be 630e f6bf 2ea8 3d3e 8e45 193f
00000120: 280c ed3e 23ab 553f 36ca e63e 46a6 1a3f
00000130: 3b2e ee3f 55db ed3e 6d27 023e 60a8 cd3e
00000140: 0c05 97bf 7867 883f 0a7d 17bf ca16 e5be
00000150: 63ef 423e 7ac8 67bf 897f 1e3f 4ee9 e23d
00000160: 5b74 04bf f782 32c0 f519 163f 8fbf 3f3f
00000170: 4e1e a53f 88be 82be fafe 1a3f dd98 fd3e
00000180: 4f25 3fbf 7c25 72bf 9b33 1b3f 9ec3 0c3f
00000190: 1035 acbf fcc5 78bf 019d a2be 2c07 003d
000001a0: 23eb 243f fa90 62bf c402 3ebf c5a1 063e
000001b0: 42dd 7dbe ee98 ac3e a00a 78bf a6b5 58bd
000001c0: 6e5d 45bf 8b88 b13e 3e05 14bf f838 a03f
000001d0: 5df2 90be 0b02 243e 23c8 e93e 2d70 9e3e
000001e0: bb3b d9bf 44e9 54be 45dd 913e 3e76 433f
000001f0: 9bff 093f 718f 9bbf 2a91 2b3e c24a b9be
00000200: 9889 5c3d c7df b93e 7236 edbe fff4 99bc
00000210: c695 813e cc05 3f3f 14b6 2dbf 65bc cbbe
00000220: c2b8 313f a38e 343f aa96 f33f fff3 433f
00000230: 573e 91be 115b 56bf ebd4 5cbf 6d00 463f
00000240: 2332 9ebe ad91 51bd 20f8 4d3f 329c b23f
00000250: de0e cc3e 2b41 cb3e 209e 1bbe a926 883e
00000260: 4650 733e 636a 523f 0150 913f 9b82 763f
00000270: ba25 9abe f827 593f cb0e 173e 9066 7e3e
00000280: 6389 ae3f 4312 63be ee31 87bf 7c75 2ebf
00000290: ab7f 8c3e 0449 243e 39a5 0dbf 2a40 f43e
000002a0: 8d73 bc3e a75a 973f 873c a0be 052f 803f
000002b0: e833 05be e9ac 2cbe 7dd2 81bf 7acf 9abf
000002c0: 193b febe 7ceb 0d3f 3a6c 0c3e 9f5f c23e
000002d0: 35b0 2f3f 6495 883f ddf6 533d c5dc 9f3f
000002e0: 7152 823f 05bf febe b916 603f cdd7 0d3f
000002f0: 157e 2640 1bef a23f 0fdb 05bf 0fce 9ebf
00000300: acbe 19bf e52c 063f 00fc 393f ab80 bbbe
00000310: 7fb7 30bf 31f7 0b3e 1f11 473f b167 8a3f
-0.06325129 -0.15915833 2.1736255 -1.4088312 1.5917358 1.8118799 -0.12928046 0.94331443
0.7534762 0.72553176 2.2072568 -0.06150354 0.090203226 0.22109318 0.23508613 0.587071
2.3733857 0.066831075 -0.015308603 0.6419689 -0.92422754 0.842033 1.3489912 -0.6137958
-0.35033035 0.42928034 -0.52752286 0.43512323 -0.5247938 -0.337331 1.0510641 0.5867909
-0.18276596 0.6036055 -0.2556257 0.93242306 1.6688154 1.3459816 0.83936286 1.4963049
0.3615247 -0.21807547 -0.333997 -0.44099095 0.011260378 1.6035374 0.30309245 -0.039630502
2.8346722 -0.3242903 -1.2598407 -0.2424038 1.7312713 -0.6323633 0.52601016 0.8248391
0.8889307 -0.6541342 -0.13749634 0.31060594 -0.12595943 0.51849216 0.0759926 1.1119941
-0.010187526 1.8925009 -0.45069236 1.5871435 -0.12563646 -1.922314 0.18521187 0.5987176
0.46298337 0.8346426 0.4507615 0.60409963 1.8607858 0.464564 0.12710352 0.40167522
-1.1798415 1.0656576 -0.5917517 -0.4474395 0.19036631 -0.9054028 0.61913353 0.110796556
-0.51740044 -2.7892435 0.5863336 0.7490167 1.2899873 -0.2553599 0.60545313 0.49530688
-0.74666303 -0.94588447 0.6062562 0.5498599 -1.3453693 -0.971771 -0.3176041 0.03125684
0.6442129 -0.88502467 -0.7422297 0.13147648 -0.24791434 0.33710426 -0.9689121 -0.05290761
-0.7709569 0.34674487 -0.578205 1.2517385 -0.28309909 0.16016404 0.45660505 0.30944958
-1.6971353 -0.20792109 0.28489128 0.763523 0.5390565 -1.215315 0.16754594 -0.36189848
0.053842157 0.3630354 -0.463306 -0.018793581 0.2530958 0.7461822 -0.67855954 -0.3979217
0.69422543 0.70530146 1.9030354 0.76544183 -0.28367874 -0.83732706 -0.8626239 0.773444
-0.30897626 -0.051164318 0.80456734 1.3953917 0.39855093 0.39698157 -0.15197039 0.26591995
0.2376109 0.82193583 1.135254 0.9629304 -0.30106908 0.8482661 0.14751737 0.24843812
1.3635677 -0.22174935 -1.0562112 -0.68148017 0.27441153 0.16043478 -0.55330235 0.47705203
0.36806908 1.182454 -0.3129618 1.0014349 -0.13008082 -0.16862835 -1.0142361 -1.2094567
-0.49654463 0.55437446 0.1371316 0.37963578 0.68628246 1.067059 0.0517491 1.2489249
1.0181409 -0.4975511 0.8753467 0.5540741 2.6014454 1.2729219 -0.5228738 -1.2406634
-0.6005657 0.52412254 0.72650146 -0.36621603 -0.6902999 0.13668515 0.777605 1.0812894

weight f4 [74, 50]
00000000: f644 413d 6e25 203e 8276 393f 1012 7abf
00000010: 274d 963f fbf8 96bf b126 933e 4f9c 0c3e
00000020: 6953 50bf a36c 103f 8586 64bf 9be8 323f
00000030: 22b5 303f b646 b1be bd54 0c3f 0d81 94be
00000040: 6e27 c83f c569 8abf de9c 8ebf 319f c93e
00000050: 85c6 cd3e 35c8 453f c972 06c0 4b62 c93e
00000060: a98d 60bf 2c82 b1bf bec0 ed3e 3779 a9bd
00000070: f684 0b3f f540 76bd c193 253d 831b 1dbf
00000080: ba8d b4bd 6a88 87be b0bc 823d 9a03 b83f
00000090: 08b0 533f 927b f83b 749d 25bf fe4d 083e
000000a0: 6f8e d3bd 51ee ac3f d182 b93f b247 c23e
000000b0: 9e70 9dbc beee 6e3d 47ec ce3d deb7 723e
000000c0: 2aa8 b13e 057e fc3f ec1f aabe e9f5 0a3e
000000d0: 9ab9 353f 87c6 8fbe 3a79 273f 1404 80bf
000000e0: 0bce 8abe b1b9 46be 9c49 de3d b2b6 fb3e
000000f0: d762 eebe 866e 1b3c 7f83 c5be 9890 973f
00000100: f256 3a3f 2df3 6ebf 526c 2a3e 6cc8 80be
00000110: 66c1 20bf e866 96be 5630 fb3e 0016 bb3e
00000120: 4e3f 80bf 11ac 90be 2fee 83bf 9d0e 24bf
00000130: f4cc 143f 1fb3 a4be eb79 d8be b116 96bf
00000140: 90aa 4a3f 3fc9 8abc d03d fcbe c6d4 ccbe
00000150: d30c d2be 41c1 fd3f 40ed bc3c f7d8 8abe
00000160: fe63 ddbe 9644 afbe 293c e3be e06d b5bc
00000170: f46a 4d3f 0cf2 1c3f aac9 00be 28d5 023d
00000180: 1edd 2fbf e6c2 873e 5d48 083d 0a13 0340
00000190: 4dfc 643f 0fe6 7ebe 2544 cebe cec9 f33e
000001a0: 3b31 f4bf cf8f de3e 7f05 9abf 9fef 83be
000001b0: 1d04 c13e 3a11 d5be fb5b 8740 c7f3 1140
000001c0: 7e5b 8bc0 f4f3 ffbe 609b 7fbe cdcb 9a3d
000001d0: ad06 a2bf 00d9 f4bf 4ce5 8fbe 33e8 31bd
000001e0: fdbb 9b3f d55a cfbd d282 313f 37e9 65bd
000001f0: 76bb 0cc0 a39f 183f 730c d73e 3e44 4cbe
00000200: 543c b5be 96eb 0b3f 9c21 a73f 034e c43e
00000210: cd63 63bf 6916 07bf 3e86 8cbf d371 123f
00000220: fb03 4e3f d9e7 653f 99aa 6dbe 5e6e 4c3f
00000230: d537 033f 2398 07bf 0fc0 f73d f211 e83e
00000240: 264f 94bf abcd d53f 971e 1d3e 5a3c f03e
00000250: 567e 29bf 7d25 cf3e b467 c83f 4ebf 83bf
00000260: 3b4c 8bbd d4a4 88bf c79f 77bf f914 4abf
00000270: f090 4240 9926 b1c1 c27c 3a3f dda0 8b3e
00000280: 7dd9 44bf c675 7f3f ea86 bebe 8868 843f
00000290: 0c7a 863f 7b3e 2bc1 249a d33e 1514 c8c0
000002a0: 756b 8d3f 6a15 0040 d0a4 3b41 4af4 09c0
000002b0: d4f3 53c0 d4b9 35bf 02b6 0b40 6023 a73e
000002c0: 21e5 1040 3575 1d40 ff43 2dbf 8309 6ebf
000002d0: 0950 8cbf 37b2 f7c0 89cc 5d3f baf9 f23e
000002e0: 9126 fe3f d4f3 8c3e 2151 8840 53b5 d2bf
000002f0: 4f07 053f 1c0f c3be d342 cfbf 7719 ab3f
00000300: 2bf4 8abf a43e 2c41 521a 99c0 b3da c0bf
00000310: 19d9 4fbf fc5d 533f 311f 33be 0b7f 1340
00000320: e73c f6bd 8fd8 033d 6825 3ac0 6418 79bf
00000330: 9c96 ef3f baa4 0dbe b2ad 5dbf 88f6 423e
00000340: b1eb 2d3f 96fd 7d3f 0ed1 fabf a4ab a3bf
00000350: a827 c33f ae9d 63be 7106 033f f354 993f
00000360: 5114 f4be 23d7 94bf 83c7 4a40 cf06 663e
00000370: 2c89 71bf e212 25bf 2f5f 643e 049d f43f
00000380: 4d31 d3be 67f6 e8bf c9db e1be 5258 4d3f
00000390: 9d44 e43f 09af 00bf 8770 febe 1ae8 683e
000003a0: 2013 0740 2e17 a8bf 5633 88c0 2851 3ebf
000003b0: 3ed6 0f3f 1363 4abf 35db 943f 2959 0040
000003c0: 1c16 8a3f 241f c73f 5314 93be e985 f43e
000003d0: a673 ee3f 07e5 4ac0 1a9c c33f 2b69 bd3f
000003e0: 001c a7bf 6ad7 2240 3199 3ebf 6c4d 86bf
000003f0: f600 7ac0 06de 7540 8e56 d83e 3dc3 e23f
0.047184907 0.15639278 0.72446454 -0.9768381 1.1742295 -1.1794733 0.28740457 0.13731502
-0.81377274 0.56415766 -0.8926776 0.6988618 0.69026387 -0.3462426 0.548168 -0.29004708
1.5637033 -1.0813528 -1.1141622 0.39379266 0.4019052 0.77258617 -2.100756 0.39332804
-0.87716156 -1.386785 0.46436113 -0.08275073 0.5449976 -0.06012054 0.040424112 -0.61370105
-0.08816095 -0.26471263 0.063836455 1.4376099 0.8269048 0.00758309 -0.6469338 0.13311002
-0.103299014 1.3510228 1.4493047 0.37945324 -0.01921874 0.05833315 0.1010366 0.23702952
0.34698611 1.9725958 -0.3322748 0.1357037 0.7098633 -0.28081152 0.6541935 -1.0001245
-0.27110323 -0.19406773 0.108538836 0.49162823 -0.46559784 0.0094868 -0.38576886 1.1841002
0.7278892 -0.93339807 0.16642883 -0.2515291 -0.627951 -0.29375386 0.49060315 0.36540222
-1.0019319 -0.28256276 -1.0307063 -0.640848 0.58125234 -0.3216791 -0.42280516 -1.1725675
0.7916651 -0.016941665 -0.4926591 -0.40006083 -0.4102541 1.9824601 0.023062348 -0.27118656
-0.4324035 -0.34232014 -0.44381836 -0.022147119 0.8024132 0.61306834 -0.12576929 0.031941563
-0.68696773 0.26515883 0.033272136 2.048037 0.8944748 -0.24892448 -0.40286365 0.47614902
-1.9077524 0.43469092 -1.2032927 -0.25768754 0.3769845 -0.41614705 4.229978 2.280504
-4.3549185 -0.4999081 -0.24961615 0.07558403 -1.2658287 -1.9128723 -0.28104627 -0.043434333
1.2166744 -0.10124747 0.6934024 -0.056130614 -2.1989417 0.59618586 0.42001686 -0.19947907
-0.3539759 0.5465635 1.3057132 0.38340768 -0.8882416 -0.5276857 -1.0978467 0.5720493
0.80474824 0.89806896 -0.23209609 0.79855907 0.5125707 -0.5296652 0.12097179 0.4532619
-1.1586654 1.670339 0.153437 0.46921045 -0.662084 0.4045829 1.5656648 -1.0292757
-0.06801649 -1.0675302 -0.96728176 -0.7893825 3.0400963 -22.143847 0.72846615 0.27271166
-0.7689436 0.99789083 -0.37212306 1.03444 1.0505996 -10.702754 0.41328537 -6.2524514
1.1048418 2.001307 11.727737 -2.1555352 -3.311757 -0.70986676 2.1829839 0.32644176
2.263985 2.4602787 -0.6768188 -0.92983264 -1.0961925 -7.7405047 0.8664022 0.4745615
1.985552 0.27529776 4.2599034 -1.6461586 0.5196428 -0.38097465 -1.6192268 1.3367146
-1.0855764 10.765293 -4.784463 -1.5066742 -0.8119064 0.82565284 -0.17492367 2.304629
-0.12023335 0.03218895 -2.908533 -0.9730284 1.8717837 -0.1383237 -0.86593163 0.19039357
0.6793776 0.99215066 -1.9595048 -1.2786756 1.5246477 -0.22228119 0.51181704 1.197905
-0.4767175 -1.1628155 3.1684272 0.22463535 -0.9434993 -0.6448194 0.22301935 1.9110417
-0.4124855 -1.8200196 -0.44112995 0.8021289 1.7833439 -0.5026708 -0.49695227 0.2274479
2.1105423 -1.3132074 -4.2562666 -0.74342585 0.5618628 -0.79057425 1.1629397 2.005442
1.0787997 1.5556378 -0.28726444 0.47758415 1.8629043 -3.1702287 1.5282013 1.479772
-1.305542 2.5443978 -0.744525 -1.0492377 -3.9063087 3.8416762 0.42253536 1.7715832

bias f4 [74]
00000000: f8b2 9e3d 6f74 66be 8fb5 383f 4187 d8bf
00000010: cfd6 2a40 aba9 56c0 5b89 2740 2e88 a2bd
00000020: 2474 07c0 202a 653d 3a33 4fbf 9444 9a3e
00000030: 8761 7cbf 8b37 6ebf 5e96 d83f 5f07 1340
00000040: c525 7f3f 2ccb 063e 1b34 85be 1149 2ebf
00000050: 845c 02bf 22f5 90bf 43af 9abf ed53 923f
00000060: 52de 823e a04b e13f e858 3fc0 2140 1abe
00000070: 1955 0b40 dd9e e7bf 1f56 46bf 7924 27c0
00000080: d833 cd3e 7c2e f93d 1e0f 10bf 682a 8ebf
00000090: aabf 63c0 0cc2 9ebf cb1d 21bf 2ff2 92be
000000a0: eed1 febe f7bc acbe 0046 47bf 6da5 f4be
000000b0: bb6f 7cbf fe33 e6be da3a 2bbf 205d 15bf
000000c0: c868 00bd 7628 70bf 4a93 04bf 5b51 babe
000000d0: 0907 79bf 48f8 f9be f252 3bbe 9068 a3bf
000000e0: d990 7fbf 4945 08bf 2f7a 923d b3e1 0340
000000f0: 57ef 82bf f4a7 63bf 65cd 54bf 09a3 b2bf
00000100: 85d8 a0be fd80 69bf c9cb 4bbf 2da0 96be
00000110: a03f 323e 39a3 91bf 937f 5dbf 5611 8ebe
00000120: aad9 ffbd 411a 6bbe
0.07748979 -0.22505353 0.72152036 -1.6916276 2.6693609 -3.3541057 2.6177585 -0.079361305
-2.1164637 0.055948377 -0.8093754 0.30130446 -0.98586315 -0.930535 1.6920888 2.297325
0.99667007 0.13163441 -0.26016316 -0.6808024 -0.5092242 -1.1324809 -1.2084736 1.1431862
0.25560242 1.7601204 -2.9898014 -0.15063526 2.177069 -1.8095356 -0.7747516 -2.611601
0.40078616 0.12167069 -0.56273067 -1.1106691 -3.5585732 -1.2402968 -0.62936085 -0.28700396
-0.4976954 -0.3373792 -0.77841187 -0.4778246 -0.9860799 -0.44961542 -0.66886675 -0.5834522
-0.031349927 -0.9381174 -0.51787245 -0.36390194 -0.9727636 -0.48822236 -0.1829336 -1.2766285
-0.99830395 -0.5323072 0.07152211 2.0606506 -1.0229291 -0.8892815 -0.8312591 -1.3956004
-0.3141519 -0.91212445 -0.79607826 -0.2941908 0.17407084 -1.1377937 -0.8652279 -0.277476
-0.12492688 -0.22959234

weight f4 [50, 2]
00000000: a52b 093f 6723 153f 1a41 943e f9c6 2a3f
00000010: 90ed 77bd 2045 88be 78ca 083e 90bd 1d3d
00000020: f024 43be 6724 2ebf c7de 2b3f b00a 553e
00000030: 4c51 38be 0041 163e 73e7 0e3f c666 f63e
00000040: 0009 66be 807c 493d 92c1 31bf e504 cebe
00000050: 4066 cb3c e126 ccbe e428 14be 4c0e 80be
00000060: 504d 673d c1b4 a6be 986a c4be e7d4 9abe
00000070: 8442 143e f872 e83d 4021 1abe f012 ffbd
00000080: 912a 1b3f cab3 21bf 00f7 83bd a79a 0dbf
00000090: 5ac2 6fbe 7f1a 23bf 623d f33e add0 1a3f
000000a0: 69a4 babe 9155 0ebf 3eee d53e 0b1d fdbe
000000b0: d571 19bf c5b0 edbe ee83 04bf 62b2 07bf
000000c0: 94d2 39be f6bf a83e 10ff 6cbe 8e65 11bf
000000d0: a2f5 f73e ceaa 23bf 0adc e23e 403e 233e
000000e0: 5275 f9be 80a2 07bf 6f6f 263f 3049 323d
000000f0: 7c54 4e3e 60db e1bc b01e 84bd a1f1 213f
00000100: c504 e6be 60fb 7f3d e0fa 8abd 78fd cbbe
00000110: 4a9c bb3e e1ec 19bf 1a2b 853e 4bc2 e2be
00000120: 3951 0bbf 90e3 44be e088 d93c 4836 a8be
00000130: aab4 8d3e e0e2 b0be 71a4 e4be 69dc b2be
00000140: b848 eabd 800e d53d 66af b33e 5ead 11bf
00000150: 197f 2abf 5234 25bf 88bd 4a3e 0460 6fbe
00000160: 2e99 5ebe 8d08 1ebf 3c97 6c3e 0595 0f3f
00000170: a26a ef3e 984e e8bd 5d62 09bf d798 1b3f
00000180: 501e d73d 24b7 4ebe 1e11 34bf 9ad7 d13e
0.5358222 0.58257145 0.2895592 0.6670986 -0.06052929 -0.26615238 0.13358486 0.03851086
-0.1905706 -0.68024296 0.67136806 0.20804858 -0.17999762 0.14673233 0.55821913 0.48125285
-0.2246437 0.049190998 -0.6943599 -0.4023811 0.02482903 -0.39873412 -0.14468724 -0.25010908
0.056470215 -0.3255978 -0.38362575 -0.30240557 0.14478499 0.113500535 -0.15051746 -0.12454784
0.60611826 -0.6316496 -0.06443596 -0.55314106 -0.23413983 -0.63712305 0.4750777 0.60474664
-0.3645356 -0.55599314 0.41783327 -0.4943622 -0.5993932 -0.46423927 -0.5176381 -0.53006566
-0.18146735 0.32958955 -0.23144174 -0.56795585 0.4842959 -0.639325 0.443085 0.15941715
-0.4872232 -0.5298233 0.65013784 0.04352683 0.20149416 -0.027570426 -0.06451166 0.6325932
-0.44925514 0.06249559 -0.06786132 -0.3984182 0.36642677 -0.60127074 0.26009446 -0.4428886
-0.5442081 -0.19227433 0.026554525 -0.32853913 0.27676898 -0.34548092 -0.4465671 -0.34933785
-0.11439651 0.10403156 0.35094756 -0.5690516 -0.66600186 -0.6453296 0.19798863 -0.23376471
-0.21738121 -0.617318 0.23104566 0.5608676 0.46761042 -0.113431156 -0.53665715 0.6078009
0.105038285 -0.2018705 -0.7033862 0.40984803

bias f4 [50]
00000000: d97d 2d3f 9b78 013f 0002 023c 9ae0 bd3e
00000010: da85 c8be d43e 7a3e 79a1 2e3f e8e9 c4be
00000020: ce28 d13e 32f3 a13e 5483 34bf e9f1 243f
00000030: cf72 0e3f da65 e6be 1a93 b33e d5e9 b5be
00000040: f8b9 23bf 406c 8dbd caef 9e3e 30e1 33bd
00000050: d471 4a3e 0020 373b 3a80 da3e bc04 81be
00000060: b5df 033f d8f5 043e fa6d 1ebf 555c e1be
00000070: 5087 b93d 0083 f93d 66e5 0abf 8acd dabe
00000080: c02e aa3c 3467 2bbf b83a fd3d a00a 25bf
00000090: 8f2d 083f 6248 b93e 736d 0c3f 068c e2be
000000a0: da59 edbe bfdb 223f 9d30 1fbf 684b 003e
000000b0: 5ca6 323e 0ee0 f73e 6dd1 303f 62b1 e73e
000000c0: f595 c0be dd7f 1b3f
0.67770153 0.50574654 0.007935047 0.3708542 -0.3916462 0.2443803 0.6821514 -0.38459706
0.40851444 0.31630856 -0.7051289 0.64431626 0.55643934 -0.44999582 0.35073167 -0.35529962
-0.6395564 -0.06905413 0.3104232 -0.043915927 0.19769984 0.0027942657 0.42675954 -0.25198925
0.51513225 0.12984407 -0.6188656 -0.44015756 0.09059012 0.121831894 -0.54256284 -0.4273494
0.020774245 -0.6695435 0.12364715 -0.6446934 0.53194517 0.36188036 0.54854506 -0.44247454
-0.46357614 0.63616556 -0.62183553 0.12528765 0.17446274 0.48413128 0.6906956 0.4525252
-0.37614408 0.6074198
