model/saved_models/end2end/model_from_en_epoch_8.pt (torch_old, 242560 bytes, 25 tensors)

weight f4 [20, 74]
000000 00 00 00 00 ee b4 b1 3e 0b 55 13 be 5e 16 d2 3e
       0.0 0.3470835 -0.1438791 0.4103269
000010 5f 8c 07 be b8 11 87 bf 21 2f 92 3d 58 b2 ef 3f
       -0.13237141 -1.0552282 0.071378954 1.8726301
000020 57 d2 b4 be 1d b0 b5 3e 0a b1 8c be d1 b9 36 bf
       -0.35316727 0.35485926 -0.2747882 -0.71377283
000030 4c 0b 7e 3d 4f ed 2c 3d dd 31 ae bd bb b2 de bc
       0.062022492 0.042218503 -0.085056044 -0.027184835
000040 35 94 fd 3d 72 0a c2 bd 30 cd ce 3e 36 46 8d be
       0.12381784 -0.094746485 0.4039092 -0.2759263
000050 7e 95 8b 3e 18 cd 27 3f b1 6a 7a 3f 67 c4 29 3f
       0.2726249 0.65547323 0.9781905 0.6631531
000060 83 b6 ac 3f 64 3d af 3f 5a dc 45 3f 46 e1 ba bd
       1.3493198 1.369061 0.77289355 -0.09124999
000070 80 03 65 3f 7a 52 2f 3f a8 df 37 3e 24 23 29 c0
       0.89458466 0.68485224 0.17956412 -2.6427698
000080 d9 cb 82 3e 97 cd 14 3f 7f ec b0 3e b5 b4 81 3f
       0.25546148 0.58126205 0.34555432 1.0133272
000090 34 6b 4d 3f ea de 9c bf a5 b1 99 bc 58 7e fc bf
       0.80241704 -1.2255528 -0.018761465 -1.9726057
0000a0 ea 3c 69 bf ad 8b af be 53 ac ee be 6e 8f e6 bf
       -0.9110857 -0.34286252 -0.46615848 -1.8012521
0000b0 06 30 e6 be 9e 3b 50 bf 00 80 0f c0 0b 9e 70 be
       -0.44958514 -0.8134097 -2.2421875 -0.23497789
0000c0 51 9f 06 bf 59 12 42 3d 6b a6 f4 3e 79 b2 31 be
       -0.5258685 0.04738078 0.47783217 -0.17353238
0000d0 24 9e 15 c0 f9 dd b9 3f b9 61 06 be de 59 02 c0
       -2.3377771 1.4520866 -0.13123216 -2.036735
0000e0 f2 9f 41 3e 89 0a da be eb cd ac 3e 05 9e 8d bf
       0.1890867 -0.42586163 0.33750853 -1.1063849
0000f0 9a 0e 4a bf 88 84 c8 3f 39 be 70 3f 40 b8 24 3c
       -0.7892853 1.5665445 0.94040257 0.010053694
000100 89 ac ce 3d 6d d5 ef bf 3c c2 95 bf a1 0b fb bf
       0.10091502 -1.8737007 -1.1699901 -1.9612924
000110 f4 6c d9 bf ed a0 17 c0 87 bd 49 3e d3 ec c2 3e
       -1.6986375 -2.3691971 0.19701205 0.38071308
000120 36 42 a6 3e 0a 30 93 bf 00 00 00 00 17 b2 bd be
       0.3247239 -1.1499035 0.0 -0.37049934
000130 a0 c9 90 be 8e f1 92 3e 36 98 ad bb eb 18 48 bf
       -0.28278828 0.28699917 -0.005297686 -0.7816302
000140 df d8 b7 3d 6f 6e 6f bd 70 59 f5 3d d1 27 6a 3f
       0.08976912 -0.058454927 0.119799495 0.91467005
000150 96 2a 1e c0 41 0c 38 bc ac a8 24 bf 62 7c 5f 3f
       -2.4713492 -0.01123339 -0.6431987 0.8729917
000160 24 82 49 be 05 26 cd be ad 89 31 bf 07 ba 5f 3f
       -0.19678551 -0.4006807 -0.693507 0.8739323
000170 39 9b 46 bd 7d 9e 84 be 4c 19 b9 be 77 c9 24 3e
       -0.048487876 -0.25902167 -0.36152112 0.16092478
000180 f7 a9 d9 3e aa 94 99 3e 29 eb 2b bf f3 9d 1c be
       0.42512485 0.29996234 -0.671557 -0.15294628
000190 70 d6 6f 3f 79 f9 52 3f 0c ce 13 bf a1 6b 82 3d
       0.9368658 0.82411915 -0.5773628 0.06368185
0001a0 35 67 8f 3e c1 89 be 3e 80 d4 a7 be 4b ca ab 3b
       0.28008428 0.37214473 -0.32779312 0.005242621
0001b0 48 d2 27 3e 12 18 9c be d6 93 26 c0 82 1b 6c bf
       0.1638881 -0.30487114 -2.6027732 -0.92229474
0001c0 e8 a3 b1 3f 43 ee 09 bf e6 f7 6d 3f 6a ae 69 3f
       1.3878145 -0.53879184 0.9295639 0.9128176
0001d0 66 d2 e3 3f ac 8a 5b bd b9 da ac 3f 14 46 6f 3f
       1.7798584 -0.053599045 1.3504249 0.93466306
0001e0 9b 13 1e 3f 10 dc a8 3f ad 4e 09 be f9 63 59 bf
       0.61748666 1.3192158 -0.13408919 -0.8491817
0001f0 8f fa 1a c0 f3 12 2b 3f 13 f3 0f be 33 39 c6 3f
       -2.421543 0.6682579 -0.14057569 1.5486206
000200 6f 48 72 bf 7f 8e 01 c0 96 a0 0e 3d 8c 88 f4 3f
       -0.94641775 -2.0243223 0.034821115 1.9104171
000210 79 e4 2e 40 27 5a 82 3f 1e 0a ef be b0 2a 62 bf
       2.7326949 1.0183762 -0.46687406 -0.88346386
000220 64 fe 1a 3f 18 40 ea 3f 39 e4 88 bf a3 46 de bf
       0.6054442 1.830081 -1.0694648 -1.7365307
000230 0b 12 1f 3f 6b 44 01 bf d5 5f 5e be 22 19 4b 3f
       0.62136906 -0.5049502 -0.21716245 0.79335225
000240 66 2b 14 bf 8f 4b 00 bf ea 2c e9 3e 1e 3a 38 3f
       -0.5787872 -0.50115293 0.4554208 0.7196368
000250 00 00 00 00 f9 71 a4 3d f2 c7 73 3f 1e 16 46 3e
       0.0 0.08029551 0.9522697 0.19344375
000260 bd 1c 50 3f ff 66 3b be 3b 7e ec be 26 f5 45 be
       0.8129385 -0.18301009 -0.46190056 -0.19331798
000270 9c ce 01 be 4f e3 bc be ab 78 13 3f ec d6 61 3f
       -0.12676471 -0.36892173 0.57606 0.8821857
000280 50 d7 e3 bd ed 6f 3e 3f 85 fb 01 bf 25 69 4c bb
       -0.11125052 0.74389535 -0.50774413 -0.00311906
000290 e9 e0 52 3e 3d fa 5c bf c7 d6 c5 be f6 ca 06 3f
       0.20593609 -0.86319333 -0.38640425 0.52653444
0002a0 7d ab d5 be e1 0f 74 bf f9 1c f4 be 01 ec 11 3f
       -0.41732398 -0.9533673 -0.47678354 0.5700074
0002b0 a2 80 f2 be 22 a0 20 3f d5 35 f9 be 63 4e 34 3f
       -0.47363764 0.62744343 -0.48673883 0.7043211
0002c0 0e 1f 78 3e 64 7a 15 bf d4 43 0c be bc 55 c0 bf
       0.24230596 -0.5838988 -0.1369775 -1.5026164
0002d0 e4 3f 21 bc bf 95 c3 be 94 e2 0f 3f 74 aa b9 3d
       -0.009841893 -0.38200185 0.56205106 0.090657145
0002e0 6d 67 54 bf 16 b5 6a bd 98 0c 15 3f 0c ab 23 3e
       -0.82970315 -0.057301603 0.5822234 0.15983218
0002f0 85 af 19 c0 a2 75 88 3f 85 9f b0 bb b8 1e 90 be
       -2.4013379 1.0660899 -0.00539011 -0.28148437
000300 f9 5b 2b be eb 01 91 bf d7 b4 5e 3e c3 9a 2d 40
       -0.16734304 -1.132871 0.21748672 2.712571
000310 a8 fd c1 3e a4 62 00 3f be 57 d7 3e db 60 c2 be
       0.37888837 0.50150514 0.4205913 -0.3796452
000320 37 ba 18 bf 51 39 3d 3f f9 1d 50 be 5e f2 5b 3f
       -0.5965914 0.7391558 -0.20323934 0.859167
000330 95 2c 9e bf 88 2a 25 3f e7 f4 a7 3f 08 ee af be
       -1.2357355 0.6451802 1.3121613 -0.3436129
000340 b6 fe a5 be 6d d9 b1 3d 22 a1 f2 be da ff 38 bf
       -0.32420892 0.08684049 -0.4738856 -0.722654
000350 10 04 9f bf 4e df 9b bf 80 3f 6f bf 65 51 97 3f
       -1.2423115 -1.2177522 -0.9345627 1.1821715
000360 e0 30 b7 3f e6 c0 76 3e a3 52 45 bf cf 2b ae 3f
       1.431179 0.24097022 -0.7707922 1.3607119
000370 6e 5c 23 3f e0 d0 3a bf 00 00 00 00 90 98 58 3e
       0.6381291 -0.7297497 0.0 0.21151948
000380 1a 93 b0 3e fd 26 be 3d 07 33 10 3f 6f b7 32 bf
       0.3448723 0.0928478 0.5632786 -0.6981115
000390 09 b6 73 be f8 ac 67 3f 17 e5 67 3f 39 a8 2f 3f
       -0.2379991 0.90498304 0.9058394 0.6861606
0003a0 82 37 86 3f 79 46 fd be a3 b8 95 3e ff d2 e3 3e
       1.048569 -0.4946783 0.2924243 0.44496915
0003b0 67 00 ea be 09 84 6c be c2 9e 12 40 43 ec e9 3d
       -0.45703432 -0.23097242 2.2909398 0.114220165
0003c0 8d d1 9d 3f 67 28 f8 be 57 4e 22 bf 29 88 80 be
       1.2329575 -0.48468325 -0.6340079 -0.25103882
0003d0 65 d6 83 bf 1d ce 03 3f a8 22 b3 3e ef 0e 43 3f
       -1.0299803 0.5148638 0.34987378 0.7619466
0003e0 a2 cf 4b bf ca 27 41 bf f0 6e d2 3f ab 28 8a 3f
       -0.796137 -0.7545134 1.6440105 1.0793661
0003f0 6d 49 b1 3d b7 7d c1 bf 2b bf ad 3f 8a a0 b4 3f
       0.08656583 -1.511649 1.3573965 1.4111493

bias f4 [20]
000000 b8 59 ed 3e 7b bd a5 bd f7 92 cd 3e 95 c5 0f 3f
       0.46357512 -0.08092781 0.40151188 0.5616086
000010 e0 20 07 be f0 53 fb 3d 8d 4e 0f be 7c 46 b9 be
       -0.13196135 0.12271869 -0.13994808 -0.36186588
000020 a3 e3 bc bd 42 a7 e9 be 9a be 1b be 6e 68 d3 be
       -0.09223106 -0.4563542 -0.15209427 -0.4129061
000030 6d f2 ee bd e0 ff 77 be a1 6a e7 3d 35 7d 9e 3e
       -0.11667333 -0.24218702 0.11299635 0.309549
000040 54 10 ab be 25 02 fa be 49 f3 a7 3d b3 0b 9d bd
       -0.33410895 -0.4882976 0.082007 -0.07668247

weight f4 [74, 20]
000000 00 00 00 00 00 00 00 00 00 00 00 00 00 00 00 00
       0.0 0.0 0.0 0.0
000010 00 00 00 00 00 00 00 00 00 00 00 00 00 00 00 00
       0.0 0.0 0.0 0.0
000020 00 00 00 00 00 00 00 00 00 00 00 00 00 00 00 00
       0.0 0.0 0.0 0.0
000030 00 00 00 00 00 00 00 00 00 00 00 00 00 00 00 00
       0.0 0.0 0.0 0.0
000040 00 00 00 00 00 00 00 00 00 00 00 00 00 00 00 00
       0.0 0.0 0.0 0.0
000050 87 7d 1c bd 51 7c 75 bd ef 65 15 3d de 77 c8 3c
       -0.03820565 -0.05993301 0.036474165 0.02447122
000060 1a 8f e3 bc f3 f7 c2 bc e5 8e 21 bd 60 3d 84 bc
       -0.027778197 -0.023799872 -0.039442915 -0.016142547
000070 3b 37 0a bd 07 d6 6d 3c 5a e9 d0 3c 42 54 97 3f
       -0.033744078 0.01451636 0.025501896 1.1822588
000080 9c d8 f6 bd a6 a2 09 bd c8 2d 59 bc 61 2e b1 3c
       -0.12053034 -0.03360238 -0.013255544 0.02162856
000090 4a 58 13 ba 50 41 3e bd c5 9f 4b ba 03 a5 44 bd
       -0.0005620761 -0.046449006 -0.0007767643 -0.04800893
0000a0 6d df 2c 3e 90 cd e1 bd a4 bf 58 3f ae 89 7a 3d
       0.16882105 -0.11025536 0.8466742 0.061166458
0000b0 4d d2 a4 bd 27 e4 36 3f 9a 10 b1 be 25 a7 bc be
       -0.08047924 0.7144188 -0.34582978 -0.3684627
0000c0 14 42 2d 3f e8 7c b2 3d 71 e7 61 3f a4 9c ae be
       0.6767895 0.0871523 0.88243777 -0.34103882
0000d0 ff 4a 53 bf c3 8f 36 bd 0a 05 81 3f cd 15 ea be
       -0.8253631 -0.044570696 1.0079663 -0.45719758
0000e0 f7 c5 d5 bc a6 c9 04 be 10 19 88 3f b6 5d a9 bd
       -0.026095374 -0.12967548 1.0632648 -0.08269827
0000f0 ac ce 07 bb 51 69 49 3d c6 2d 1b 3c f4 a8 a8 bb
       -0.0020722551 0.049172703 0.009471362 -0.005147094
000100 86 de a2 3b 6b ae 2a 3d 22 c2 0f 3d e0 16 9d 3c
       0.0049703745 0.041670244 0.03509725 0.019175947
000110 dc 07 db bc c9 8a 8c 3a a4 45 67 bb 38 3a ac be
       -0.026737146 0.0010722514 -0.0035289312 -0.33638167
000120 b3 59 d1 3e 23 14 0a bd f6 aa 38 bd 8c 80 8c bc
       0.40888748 -0.03371061 -0.045084916 -0.01715114
000130 f7 dd 38 bd 9f 5f 26 bd 56 58 8f 3d 17 9e 56 3c
       -0.045133557 -0.040618535 0.069992706 0.013099215
000140 23 94 67 3d 75 b0 33 3b ac 37 e3 bc 9d a2 8d bd
       0.05653776 0.002741841 -0.027736507 -0.06915782
000150 24 cf 13 be 03 2f 54 bd 0b bc 20 3c 26 72 cd bc
       -0.14434487 -0.051802646 0.009810458 -0.025078844
000160 9c d3 5e 3e ed 96 f7 bc 1b b0 46 bd f8 b7 da 3d
       0.2176041 -0.030223334 -0.04850779 0.106796205
000170 09 05 c4 be 5a bf db 3c 74 70 88 bd be 5e 12 bd
       -0.38285092 0.026824642 -0.06662074 -0.035734884
000180 f8 f0 cc bd 3c f5 82 3c 18 93 02 3c 90 d7 93 3c
       -0.10006899 0.015986077 0.00796964 0.018047124
000190 aa fe 93 bf 02 8c e2 be e1 af 88 be c4 12 35 bf
       -1.1562092 -0.44247442 -0.26696685 -0.7073176
0001a0 b3 79 05 3f ff 65 8e bf 6e 8b d2 3e 02 af fb 3f
       0.52138823 -1.1124877 0.41122 1.9662783
0001b0 dd 87 75 be 05 e8 61 3f cd 54 3f bf 3e 3a 18 bf
       -0.23977609 0.8824466 -0.7473877 -0.5946387
0001c0 d4 a0 77 3f 40 31 39 bf 59 46 e4 3f b5 e6 12 bf
       0.9672978 -0.72340775 1.7833968 -0.5738328
0001d0 70 cb d1 3f 75 cc d1 be 5e f0 44 3e 4c c6 bb 3d
       1.6390209 -0.409763 0.19232318 0.091686815
0001e0 e8 c6 bb 3c dc cc 02 be 85 cc 8b bd 64 e8 8f be
       0.022921994 -0.1277346 -0.068261184 -0.28106987
0001f0 d7 58 be bd 80 13 0b 3d b7 2d 91 3b c7 46 24 bd
       -0.092942886 0.033954144 0.0044304985 -0.04010656
000200 b6 03 1a bf 3d 60 89 3e a1 57 29 3e e6 d2 da bd
       -0.6016191 0.26831236 0.16537334 -0.10684757
000210 bf a5 95 bd 4c a0 dd 3d c3 37 cd be 4f e1 26 be
       -0.07307004 0.1082159 -0.40081605 -0.16296886
000220 58 be cf 3c 17 9f 82 3d dc 6c c1 3d ae 87 1e 3e
       0.025359318 0.06378 0.094445914 0.15481445
000230 18 b2 ab 3f 9d 39 05 3e 63 93 9a be cc 85 3b 3f
       1.3413725 0.13010259 -0.30190572 0.7325103
000240 b3 9b 84 3f b1 0f 08 3f 20 27 75 bf ce 52 0a 3f
       1.0360016 0.53148943 -0.95762825 0.540326
000250 e0 f7 a4 3d db ec d3 3d 4a 1f 6c be a7 69 42 3d
       0.08055091 0.10347911 -0.23058811 0.04746404
000260 1d 43 64 bf 21 94 37 be ab e4 60 3f ea 77 23 bf
       -0.89164907 -0.179276 0.8784892 -0.6385485
000270 f4 c6 51 3d ee 0a dc bf 02 41 e0 3d ed 71 b9 3e
       0.051215127 -1.7190835 0.10949899 0.3621973
000280 7d 34 aa be 80 e2 93 3e 42 00 8c be e7 e1 8b 3f
       -0.3324317 0.28883743 -0.27343947 1.0928315
000290 eb 37 94 bf 8c c6 70 be ac ce 1f bd e7 3a 8f 3e
       -1.1579565 -0.2351324 -0.039015457 0.27974626
0002a0 74 bc 38 3f 5b 9e a2 3f 96 c7 1c be 01 a7 90 3c
       0.72162557 1.2704576 -0.15310511 0.017657759
0002b0 b1 3b 1c bf 7d 96 96 bc 5b 4f 67 bf ee 72 fb be
       -0.6102858 -0.018382305 -0.9035546 -0.49111122
0002c0 4a d7 e3 be 8f c0 1d 3e 36 c9 9b 3e 49 c9 95 be
       -0.4450019 0.15405487 0.3042695 -0.2925513
0002d0 91 e9 05 3f 64 a4 6a 3f 0b db eb be bc 06 41 3f
       0.5230952 0.9165709 -0.46065554 0.754009
0002e0 de c5 3d 3e f9 ac 12 3f 8b 93 17 3e b6 4b 65 3e
       0.18532512 0.57295185 0.14802377 0.22392163
0002f0 ba b3 9e be 99 2f 12 3e 6a 42 6c be a8 59 a4 be
       -0.30996495 0.1427597 -0.2307221 -0.32099652
000300 70 7a 1e 3d ad e1 0c bf c2 87 be 3f 7d e6 ba 3f
       0.038690984 -0.55031854 1.488518 1.460159
000310 6c 81 4f be 49 5c d4 3d 52 72 f6 be 1e d1 67 3e
       -0.20264214 0.103691645 -0.48134094 0.22638366
000320 54 e9 1e be c8 1a 18 c0 a6 18 30 3f 84 2d 4c 3f
       -0.15518695 -2.3766346 0.6878761 0.7975695
000330 31 c3 59 be 31 aa 09 be c1 68 47 bf b7 d7 ba be
       -0.21265866 -0.13443829 -0.77894217 -0.36492702
000340 ae c4 5b be bf 46 72 3d 08 55 e7 bd 5f f0 8b bd
       -0.21461746 0.0591495 -0.11295515 -0.068329565
000350 da 34 22 3f 7a 06 4e be 63 ce 1f 3f 59 9f 4d 3f
       0.63361895 -0.20119658 0.62424296 0.8032127
000360 62 e2 90 3f 93 82 32 be 32 68 f4 bd ab 04 95 be
       1.1319087 -0.17432623 -0.11933936 -0.29105124
000370 40 3d 8d be 84 ac 23 be 7f cb 53 3e cd 12 00 bf
       -0.27585793 -0.15983778 0.20683096 -0.5002869
000380 8a 73 1d be ea 34 e3 3d f4 74 22 3d a1 c6 21 be
       -0.15376106 0.11094077 0.039662316 -0.15798427
000390 b3 9b 19 3d d4 4e c5 3e 55 83 54 3e 94 29 90 be
       0.037502002 0.38536704 0.20753224 -0.28156722
0003a0 bf 9c 9a be 70 07 cc be 7d d8 9f bd 25 0f 48 be
       -0.30197713 -0.39849424 -0.07804964 -0.19537027
0003b0 65 76 e9 3c 3f d9 d4 3d 72 0c a7 bd c0 a4 3f be
       0.028498838 0.10392999 -0.08156671 -0.18715191
0003c0 22 28 93 3e fb 8b f2 be 86 34 de be ba c0 40 3e
       0.28741556 -0.47372422 -0.43399447 0.1882352
0003d0 ea 89 5e 3f cb f0 16 3f dd c9 97 bd 42 03 5c bf
       0.8692919 0.5896117 -0.07411549 -0.8594247
0003e0 d3 63 07 3f 20 fe 86 bf ec 63 35 bd 1d 7f 79 be
       0.52886695 -1.0546303 -0.044284746 -0.24364896
0003f0 1e f4 58 bd 94 2a b9 bf 29 7a e9 be e3 68 80 3c
       -0.052967183 -1.4466119 -0.45601013 0.015675014

weight_ih_l0 f4 [200, 20]
000000 c8 52 ee be e6 e3 8e 3f fe 62 2a 3f 63 53 5a 40
       -0.46547532 1.1163299 0.665573 3.4113395
000010 6e 57 ad bf a5 1d bc be af 51 f7 be 04 b0 82 bf
       -1.3542306 -0.36741367 -0.48304507 -1.0209966
000020 20 d1 d4 bf 92 f8 82 bf 99 61 31 bd 87 03 58 3f
       -1.662632 -1.0232108 -0.043305967 0.8438038
000030 a9 60 ba 3f c1 d3 36 3f 3d e3 51 3f ce 52 22 3e
       1.4560748 0.7141686 0.81987363 0.158519
000040 f6 56 9e bf c6 7b f1 be 66 e7 a0 3d 39 5e 37 3f
       -1.2370288 -0.47164744 0.07856636 0.7162815
000050 2c f3 85 3f cf 6f f9 bf f7 9b 0f 3e 14 ac f5 be
       1.0464835 -1.9487246 0.1402434 -0.47982848
000060 30 fb 6a 3f 2f 4b c5 3d 90 01 c6 bd 69 4e 68 bf
       0.9178953 0.09633481 -0.09668267 -0.90744644
000070 1d d6 6f bf 20 36 f2 be 78 1e db 3e ef 46 2e 40
       -0.93686086 -0.4730692 0.42796683 2.7230794
000080 fe bd c5 3c 46 5f 82 3f 34 c8 d1 3e 8f b0 67 bf
       0.024138447 1.0185325 0.40973055 -0.9050378
000090 68 fa ef 3e fa 1d 03 40 19 f9 70 bd 7c 97 cd be
       0.46870732 2.0487046 -0.058831308 -0.40154636
0000a0 cd 8a 02 3f c0 50 f0 bd 70 ef 23 3e 64 fc 97 3e
       0.50993043 -0.11734152 0.16009307 0.29684746
0000b0 25 30 1c 3f ad 01 a1 be 82 97 f7 be ad ca 1b 3d
       0.6101096 -0.3144659 -0.4835778 0.038035084
0000c0 58 74 10 3f 1b ca 22 be 50 cb 1f 3f cc 85 1d 3f
       0.56427526 -0.1589741 0.62419605 0.6153228
0000d0 1d 9b 5c 3f 74 64 d3 bf 85 1f 9d 3d 65 8c c5 3f
       0.86174184 -1.6515031 0.076720275 1.543347
0000e0 7d 31 d2 be 3d 0c 05 c0 5a e9 68 3f 18 4b b4 be
       -0.41053382 -2.078872 0.90981066 -0.35213542
0000f0 4a a1 79 3f 96 2d 71 3f b8 b0 e4 3e d2 27 06 bf
       0.9751173 0.94210184 0.44666076 -0.5240451
000100 14 5b 34 3f 53 41 db 3e 96 7c ca bb 14 73 c6 3e
       0.70451474 0.42823276 -0.0061794026 0.38759673
000110 a5 c1 68 3c be 6e da 3e 65 17 b0 be 85 e4 83 be
       0.014206325 0.42662615 -0.3439285 -0.25760284
000120 eb 0a 49 3e ab bc 76 3e 4f 6f 99 3e 39 aa a2 3e
       0.19633071 0.24095409 0.29967734 0.31770495
000130 95 46 f4 3d 2e 60 35 3f 42 16 4a bd 9a b8 57 3d
       0.11927525 0.70849884 -0.049337633 0.052666284
000140 20 5a 5f bc 45 f3 67 3e 11 ff 14 3f df 81 92 3e
       -0.013632327 0.22651394 0.582017 0.2861471
000150 80 b7 65 3c 7b 57 15 bf ec af 2f be 3a 01 97 3d
       0.014020801 -0.5833661 -0.17156953 0.07373281
000160 04 98 8e 3f 9c d7 9d be 9d 4a 8e bf fe 48 2d be
       1.1140141 -0.3082856 -1.111652 -0.16922376
000170 87 77 85 be cc cc 90 be 13 dc a3 be 30 d0 62 3f
       -0.26067755 -0.28281248 -0.3200384 0.8859892
000180 b8 0f 1c bf e8 59 36 be b8 95 85 3d 02 db 52 3d
       -0.60961485 -0.17807734 0.06522697 0.051478393
000190 b3 1c 2e 3f d5 d0 12 3f 90 5c d7 be 8d 99 04 3f
       0.6801254 0.573499 -0.42062807 0.517968
0001a0 7d 35 61 3c 3c ab 59 3f a6 f5 7f bd b7 b4 0d bf
       0.013745663 0.8502691 -0.062490128 -0.55353874
0001b0 9e a2 e2 be ab bf 37 bf a5 00 39 3f 63 dc 8e be
       -0.44264692 -0.7177684 0.7226661 -0.27902517
0001c0 9f 37 1e be bc c1 13 3f 9a d3 91 be b1 4e ee be
       -0.15450905 0.5771749 -0.28481752 -0.46544412
0001d0 8b 93 08 3f 24 68 06 3e 91 2f 5b 3e fb 13 39 3f
       0.5335013 0.13125664 0.21404864 0.7229611
0001e0 41 40 8a bf 91 37 31 3f b6 4f d8 bb 78 60 a6 bd
       -1.0800859 0.6922541 -0.006601299 -0.08123869
0001f0 b1 25 09 bf a1 9c 00 be 0d a6 01 bf d4 f4 90 bf
       -0.5357314 -0.12559749 -0.50644 -1.1324716
000200 a7 71 93 bc 92 dd 10 bf bc 83 06 3e 34 24 02 3f
       -0.01799853 -0.5658809 0.1313619 0.5083649
000210 6b d5 11 3f df 0e f7 be 68 4e 81 be 8f 65 60 be
       0.56966275 -0.48253533 -0.25255132 -0.21913742
000220 f8 71 b4 bf 37 ba 97 3e d3 1c 81 3d 14 4b 3a 3d
       -1.409728 0.29634258 0.06304326 0.045481756
000230 49 b6 0c bf 93 6b c4 bf 23 60 b7 3f 3d e3 10 3f
       -0.54965645 -1.5345329 1.4326214 0.5659674
000240 41 f1 de be f7 7b 34 be 93 60 54 bf 93 2b 05 3f
       -0.43543437 -0.17625414 -0.8295986 0.52019614
000250 e2 b8 4b 3b 7b 35 bf be b6 2a b5 be e5 63 17 40
       0.003108554 -0.3734549 -0.35384148 2.365472
000260 d9 af 4c bf 99 38 05 bf 1a 78 5a 3f ca 96 86 3f
       -0.7995582 -0.52039486 0.8533951 1.0514767
000270 ca b6 6a be 7f e5 53 3e a4 55 80 3e 8a f2 4c 3e
       -0.22921291 0.20693015 0.2506534 0.20014396
000280 c7 ae 11 bf 3d 6c d6 bf 0e 6e c4 be fb e1 60 bf
       -0.56907314 -1.6751782 -0.38365215 -0.8784482
000290 a5 fc bc 3f 0a 7a 4b bf 67 3e 3f bf d7 eb 1c 3e
       1.4764601 -0.7948309 -0.74704593 0.15324341
0002a0 6c 4c c5 3f 92 bf a8 bf ce 69 9b 3f 9a da 0c bf
       1.5413947 -1.3183463 1.2141664 -0.5502106
0002b0 54 cf cf be 56 67 ea be ba 01 cf 3f 86 41 76 3f
       -0.40587866 -0.45781964 1.6172402 0.9619373
0002c0 a3 31 0d bf 62 15 9c be af 97 9e bf 60 2f 13 bd
       -0.55153865 -0.30485064 -1.239004 -0.035933852
0002d0 7a 95 d8 be 79 d3 90 3d dd e9 fb 3e 29 8d eb 3c
       -0.42301542 0.07071585 0.4920186 0.028753834
0002e0 81 1d 0f bf 81 ad 39 3f 70 21 1e 3e 7c 8b 25 3f
       -0.55904394 0.7253037 0.15442443 0.6466596
0002f0 e7 cf e9 be 38 c0 e3 3e 91 f1 31 bf ab a4 1c 3f
       -0.4566643 0.4448259 -0.69509226 0.61188763
000300 67 9c d7 3e c2 f3 2b be 1e 05 42 3d ac 35 44 3f
       0.42111513 -0.16792205 0.04736816 0.76644397
000310 ab 66 85 bd 25 d5 74 be 1f aa bd 3e 19 af 03 bf
       -0.06513723 -0.23909433 0.37043855 -0.5143905
000320 7d 3c b3 be 41 b8 78 bf c5 f7 a5 be df 8c f6 be
       -0.35007086 -0.9715615 -0.32415596 -0.4815435
000330 a6 d7 76 3f cb 54 3f 3e 84 24 57 3e 72 a5 23 3f
       0.96422803 0.1868469 0.21010023 0.63924325
000340 52 32 0b bf 3f 7c e1 3c 1f 53 17 bf 87 cb 1a 3e
       -0.5437366 0.027525065 -0.5911121 0.15116702
000350 4b c5 34 3d 84 06 77 be b9 87 b0 bd e7 48 8f be
       0.044133466 -0.2412358 -0.08619637 -0.27985308
000360 3c a3 bc 3e 93 25 3d 3e c0 bf c2 be 22 f3 ce bc
       0.36843288 0.18471365 -0.3803692 -0.02526242
000370 df b0 23 be 75 4e cd bf 99 bd ac 3f 8b 68 74 3e
       -0.1598544 -1.6039568 1.3495361 0.23868005
000380 ec b9 25 bf 2d 4e 2a bf 33 1a b7 bf 9d ef fc be
       -0.6473682 -0.66525537 -1.430487 -0.4940156
000390 5a 68 7f 40 30 91 7e 3e b3 dd 0f 3f 6a eb d9 3f
       3.990744 0.24860072 0.5619766 1.7024968
0003a0 cb 0d a8 bf 5e 9a af bf 5b e5 88 be 75 de 6c 3f
       -1.3129209 -1.3718984 -0.26737484 0.9252694
0003b0 f3 1e 1f bf a4 73 13 3e e6 6d 49 3e b3 ac 7f bf
       -0.621566 0.14399582 0.19670829 -0.99872893
0003c0 77 6c dd bd 68 4b 6b bf c6 fc 96 bf c6 b3 c8 bf
       -0.10811704 -0.91911936 -1.179589 -1.5679862
0003d0 a2 7b d9 3f 18 7e bc 3e df f8 9d bd f8 42 ff be
       1.6990855 0.36814952 -0.07713484 -0.4985578
0003e0 b8 58 da 3e 1e 2b 69 bf 25 c4 ee 3e b9 28 5a 3e
       0.42645812 -0.91081417 0.4663402 0.21304597
0003f0 c1 98 eb 3b 23 c3 86 bf 73 de 5d 3f 54 a9 3b bd
       0.0071898405 -1.0528301 0.86667556 -0.04581578

weight_hh_l0 f4 [200, 50]
000000 1b 5a 03 c0 d2 01 b7 bf e2 10 8a be bb 4a 28 bc
       -2.0523746 -1.429743 -0.26966006 -0.010271723
000010 b6 9e 3d c0 cf 33 72 c0 7d de 26 c0 1b 77 c2 bf
       -2.962812 -3.7844121 -2.6073296 -1.5192598
000020 c9 f0 3a 3f 7f 6d b8 3f ee 4a 79 bf 50 7e b0 be
       0.7302366 1.4408416 -0.9737996 -0.3447137
000030 a5 9b b3 3f df ad fc c0 0a 21 e0 3f 46 09 78 40
       1.4031874 -7.8962245 1.7510083 3.875566
000040 2e 38 dc bf a5 b0 e1 3f fd b0 6a 40 cc 09 87 3d
       -1.7204645 1.7632033 3.6670525 0.065936655
000050 36 4c a4 3f ce a5 b4 3f 95 4e ab 3f ee 07 44 bf
       1.2835758 1.41131 1.3383356 -0.765746
000060 45 63 31 40 0d 13 b3 c0 1e fa 01 bf 7f 83 4a be
       2.771684 -5.5960755 -0.50772274 -0.19776724
000070 1d 1b a4 bf 19 b9 8b bd 21 b3 cd bf 1b bf 0a c0
       -1.2820774 -0.06822414 -1.6070291 -2.1679142
000080 50 5d ec bd 83 54 10 bf 2e 5c 92 40 63 f1 62 40
       -0.115412354 -0.56378955 4.5737524 3.545983
000090 13 df f7 3e d8 05 0e bd 86 0c 5a 3f 9a 7d 58 40
       0.4841238 -0.03467354 0.8517536 3.382666
0000a0 f1 c2 41 3e ed b0 17 40 11 19 de 3f 13 17 26 3e
       0.1892202 2.3701737 1.73514 0.1621974
0000b0 37 ca 45 40 70 47 90 bf 28 fd 1c bf b0 f1 b9 3e
       3.0904672 -1.1271801 -0.61323786 0.36317205
0000c0 91 34 8b c0 92 4a 96 3f 3f 75 be bf cb ff 20 bf
       -4.350167 1.1741507 -1.4879531 -0.6289031
0000d0 3c a0 54 3f 64 08 b6 3f 3d 74 72 3f ee ee e4 3f
       0.83057 1.4221311 0.94708616 1.7885416
0000e0 21 e7 22 be 13 d4 2d c0 af 0e da 3d d0 7d 8f 3f
       -0.15908481 -2.716069 0.10647332 1.121027
0000f0 55 1f 98 3f ee a7 61 3e 3f a6 c7 3e 8a 89 bf 3e
       1.1884562 0.22036716 0.38994023 0.3740962
000100 39 ed 99 3f 4f 44 e1 be 45 73 5f bf 81 f7 c4 3f
       1.202552 -0.43997428 -0.8728526 1.5388032
000110 ad e9 02 40 b9 82 e0 3e c0 c9 aa bd 11 bc 95 bd
       2.0455124 0.43849733 -0.08339262 -0.073112614
000120 29 25 13 bf c2 06 a0 be 52 c3 45 3f 73 87 2a be
       -0.57478577 -0.31255156 0.7725116 -0.16653232
000130 be 03 ca bf a2 e3 d8 3f c7 9c 83 3f 25 9b c6 3e
       -1.5782392 1.6944468 1.028222 0.3879024
000140 32 47 1f 3e c6 b1 b6 bf 8f 83 8e 3f c6 14 bf bf
       0.15554503 -1.4273002 1.1133898 -1.4928215
000150 ac 47 d3 bf 42 3e ab bd 39 a7 6a 3f bc 6f 9a 3e
       -1.6506248 -0.08361484 0.9166141 0.30163372
000160 26 f9 65 bf 0d ea 1a bf 07 0b 1c bf 75 11 9a 3f
       -0.89833295 -0.60513383 -0.60954326 1.2036577
000170 f0 ec d7 bd ab de 78 bf a7 5f 04 40 38 d4 f4 3c
       -0.10543239 -0.97214764 2.0683382 0.02988635
000180 ab a1 03 3f 0b 28 ef 3f 2b 65 68 bf 57 fa 1c 40
       0.5141856 1.8684095 -0.9077937 2.4527795
000190 60 23 fb be c8 9c 81 3e 8e f9 0f 3e a0 06 5c bc
       -0.49050426 0.25314927 0.14060041 -0.013429314
0001a0 df de 13 c0 db 59 3d 3e 0c 77 3c 3f 64 aa 4d c0
       -2.310478 0.18491308 0.7361915 -3.2135248
0001b0 e1 fb 9e bf f7 7b 6f 3f 5f ac f1 bf 44 8d 5e 3d
       -1.2420617 0.9354853 -1.8880728 0.05433394
0001c0 37 3e ab be 0f c3 a3 3f e1 18 db bf 2d 35 77 3f
       -0.33445904 1.2793902 -1.7116967 0.96565515
0001d0 c0 9f 01 bd 40 a3 52 bf d2 eb a4 3f c9 b9 c2 3d
       -0.03164649 -0.8228035 1.2884467 0.09508092
0001e0 06 99 28 3f 2d ba 40 bf c7 d5 d4 3f 89 18 05 3e
       0.65858495 -0.7528408 1.662774 0.1299764
0001f0 0a 9c 1d bd 22 fe 96 3f 26 46 e9 be ec b4 4a bf
       -0.03847889 1.1796305 -0.45561332 -0.79182315
000200 04 25 ef 3f b0 b1 16 3f e3 02 b5 3e 53 a6 b3 3f
       1.8683171 0.5886488 0.35353765 1.4035133
000210 dd 20 8a 3f a4 32 3d bf d0 d9 f1 3e 6f 96 34 40
       1.0791279 -0.73905396 0.4723649 2.8216817
000220 77 da 81 bf d9 73 7e c0 8f 59 4d 3f 5f 15 6d bf
       -1.0144795 -3.9758208 0.8021478 -0.92610735
000230 84 8c be 3e db 21 9a 3b 41 57 a9 bf 3d 9f 58 3e
       0.3721658 0.004703743 -1.3229753 0.21154495
000240 d1 37 81 40 5f 0d 4a 40 39 59 79 3f c5 c7 83 40
       4.0380635 3.157066 0.9740177 4.118136
000250 76 b8 94 bf d7 5f 3d be 4c e9 39 bf d6 3c a3 bf
       -1.1618793 -0.18493591 -0.7262161 -1.2752941
000260 da b3 62 bf ce 9a 8d 3f ac 27 de bd 78 ed 94 be
       -0.8855568 1.1062868 -0.108474106 -0.29087424
000270 58 cd 44 c0 1c 2e 8b bf 5d 0c c6 3d 17 38 d6 bc
       -3.0750332 -1.0873446 0.09670327 -0.026149793
000280 7c d3 34 bf 36 b5 fc 3d 02 fb d9 bf 7e d1 12 40
       -0.706352 0.12339251 -1.7029727 2.2940364
000290 e9 47 a0 3f 60 34 66 be 4a 75 2a bf 7d 72 8d be
       1.2521945 -0.22480917 -0.6658522 -0.2762641
0002a0 34 7f dd be f7 a9 5b be 0c 3e 1c c0 fe da 56 3f
       -0.4326111 -0.21451555 -2.441287 0.83927906
0002b0 eb 8c 95 3f 52 5e 28 bb 69 c2 2f be 55 32 86 bf
       1.168363 -0.0025690985 -0.17164005 -1.048411
0002c0 43 92 1f be c6 b9 01 bf 1a 9e c3 bf f8 e0 f8 bd
       -0.15583138 -0.5067409 -1.5282624 -0.121522844
0002d0 22 4a 00 be 58 ab 52 3f ba 1b c1 3f 4b db b7 3e
       -0.1252828 0.822927 1.5086586 0.35909495
0002e0 38 7d cb 3b 70 42 9e 3f 86 12 41 3e 4c 95 2e 40
       0.0062099956 1.2364025 0.18854722 2.7278624
0002f0 3a 3c 30 3e ea 7c 84 3f c4 dc 5b 40 18 12 a5 bf
       0.17210475 1.0350621 3.4353495 -1.2896147
000300 af de 74 bd 70 04 b2 be 21 cd 80 3e 2d 47 bc 3d
       -0.05978268 -0.3476901 0.251565 0.09193263
000310 25 14 5d bf c8 d5 0d 40 ca e0 0b 40 92 0f 6b bf
       -0.86358863 2.2161732 2.185595 -0.91820633
000320 4b df 85 bf 7d ca cf bf f4 95 03 3f ce 06 4c 3f
       -1.0458769 -1.623367 0.51400685 0.79697883
000330 f4 fe 20 3f 43 3f 48 bf 81 4a b9 3e ba 17 4e 3e
       0.6288903 -0.7822153 0.36189654 0.20126238
000340 d1 d5 69 3f 08 38 45 40 41 e1 72 bf 22 c4 7f bf
       0.9134188 3.0815449 -0.9487496 -0.9990865
000350 39 25 e4 bf 5f 50 07 c1 26 4c a2 3e cf d0 c1 bf
       -1.782386 -8.457122 0.31698722 -1.5141848
000360 e1 9f 16 c0 cf 21 07 bd 97 e7 dc 3f 00 11 d0 3f
       -2.3535082 -0.032991227 1.7258176 1.6255188
000370 13 69 fb 3e c6 15 12 bf 55 5a 18 bf 3e ac 15 3f
       0.49103603 -0.57064474 -0.59512836 0.58465946
000380 9b 6f f5 3f 30 e4 21 bf 21 f1 31 bf d3 86 e4 3e
       1.9174684 -0.6323881 -0.6950856 0.44634113
000390 ed 96 8e be 5e 69 b3 3f 96 9b 98 3d 38 bd 75 bf
       -0.27849522 1.401653 0.07451551 -0.9599185
0003a0 9c 49 b8 3f 7c 44 70 bd 19 26 3b 40 62 33 aa bf
       1.4397464 -0.05865906 2.9242003 -1.3296931
0003b0 12 39 91 3e 85 9b 2a 3f e2 50 c7 3f 8a 65 8a 3f
       0.28363854 0.66643554 1.5571558 1.0812237
0003c0 13 fb e7 3e 75 b4 b6 bd a0 2f b5 be b7 75 b6 3e
       0.45308742 -0.08921138 -0.35387897 0.35636684
0003d0 ce af 00 40 c6 c2 4c be 3c 91 2d 3d 14 4b 20 3e
       2.0107303 -0.19996175 0.042374834 0.1565364
0003e0 fd cb 38 be d3 3b 09 bc ca 09 71 be 1e b4 95 3e
       -0.18046565 -0.00837608 -0.2353889 0.2923898
0003f0 c0 0b 8d bf 81 32 ad 3f f8 29 f7 be f2 b9 39 3e
       -1.1019211 1.3531038 -0.48274207 0.18137339

bias_ih_l0 f4 [200]
000000 c5 55 0d bd b1 bd 2b bf 4c df 95 3f be 5c 81 be
       -0.034505624 -0.6708632 1.170877 -0.2526607
000010 37 eb e0 3f 8e 3d a2 3f 06 9b d2 3d 90 bf 65 3f
       1.7571782 1.2675035 0.102834746 0.89745426
000020 04 2c 62 3e e2 99 cb 3e 79 17 91 3f 19 fb 89 3e
       0.22087103 0.3976584 1.1335288 0.26949385
000030 83 44 f3 be a1 03 ca 3e 3c a2 d4 3e e6 49 42 3e
       -0.47513208 0.39455894 0.41530025 0.18973503
000040 56 a5 c0 3f 47 94 e6 3e 22 ce 95 3f 31 dc 23 3f
       1.5050457 0.45035002 1.1703532 0.6400786
000050 c4 db 47 3f b9 9c 88 3e 1f 48 c0 3e 3d 89 2c be
       0.7806971 0.2668207 0.37555024 -0.16849227
000060 92 9d ce be a1 e4 68 3f 01 dd c5 be 55 d5 9b 3f
       -0.40354592 0.9097386 -0.38645175 1.2174479
000070 2b d6 39 3e ba 69 b5 3e b7 65 d9 3f cf d4 32 3f
       0.18148105 0.35432225 1.6984166 0.6985597
000080 fd d0 01 3e 49 79 80 3f c7 75 19 3f e6 56 c4 3e
       0.12677379 1.0037013 0.5994534 0.38347548
000090 10 71 66 3f da 16 80 3f 39 b2 10 3f 78 40 f1 3f
       0.9001627 1.0006974 0.56521946 1.8847799
0000a0 91 9f 89 3e f0 d6 a0 3e f0 1e 7d be 63 d8 0d bf
       0.26879552 0.31413984 -0.24718833 -0.55408305
0000b0 c5 84 8e 3f 73 43 03 3f 80 5a f2 3e d5 84 b6 be
       1.1134268 0.51274794 0.4733467 -0.35648218
0000c0 a6 eb 07 40 c3 b9 19 be a5 b6 3d bf 7f 9c 2a 3f
       2.1237578 -0.15012269 -0.7410682 0.66645044
0000d0 27 7a e5 3f 1c e7 68 be 0a 19 8c 3f 14 b6 d2 3f
       1.7927903 -0.22744411 1.0945141 1.6461816
0000e0 1d 8e 95 bd 9f f9 85 be 9d 18 25 3f 74 19 7b 3e
       -0.073024966 -0.26167008 0.6449068 0.24521428
0000f0 3f b2 c7 3e 54 20 52 3f f7 ac 66 bd c3 ad e0 3f
       0.39003178 0.8208058 -0.056317296 1.7553028
000100 ea 46 a6 bc 55 42 d7 3f d9 aa 94 3e c7 42 34 3f
       -0.020297486 1.6817118 0.29036596 0.70414394
000110 ac 15 ea 3e 3e 0b c8 bf df 0e 5e 3f fa 83 80 3d
       0.4571966 -1.5628431 0.8674144 0.062751725
000120 be 2b a2 3d 0b 7f 27 3b d1 fb 11 3f 16 1d 79 3e
       0.079184994 0.0025557901 0.57024866 0.24327502
000130 37 0c a6 3f f0 26 d7 3e a6 27 20 bd 51 a8 e0 3e
       1.2972478 0.42021894 -0.03910031 0.43878415
000140 10 80 b9 be 67 25 97 3e 33 a2 66 3f 64 b3 ec be
       -0.36230516 0.29520723 0.90091246 -0.46230614
000150 df 3e 2d bf 79 b4 2c bf 79 46 ac bd 7e 12 22 3f
       -0.6767406 -0.6746288 -0.08411879 0.63309467
000160 42 c1 c3 3e d0 21 bb bf 51 6d 06 3f 26 39 f0 3d
       0.38233382 -1.4619694 0.52510554 0.1172965
000170 b4 4d aa 3f aa 75 af 3e 93 8f 20 3f 5d 4c 06 3e
       1.3304963 0.34269458 0.62719077 0.13115068
000180 6a cb c9 bd f4 86 08 bf ff e4 81 3f 87 60 98 be
       -0.09853251 -0.5333092 1.0148009 -0.29761145
000190 e0 d8 f6 bd 8a 69 3b bf f8 d6 e1 3b 5e f0 8e 3f
       -0.120530844 -0.73207915 0.0068920814 1.1167104
0001a0 02 c0 4d 3e 44 2b 8a bf a2 21 67 bf 66 d5 30 bf
       0.20092776 -1.0794454 -0.90285695 -0.6907562
0001b0 db d0 81 3f 74 43 93 3e ae 05 85 be 40 3b 72 bf
       1.0141863 0.287624 -0.25980896 -0.9462166
0001c0 ee 74 d3 be 80 b9 45 3f 6c 79 40 bd 88 8b 39 3f
       -0.41300148 0.77236176 -0.046990797 0.7247853
0001d0 dd 1b 10 bf 6c f2 7f 3f fd ca a2 3e 0b c7 d3 3e
       -0.56292516 0.9997928 0.31795493 0.41362795
0001e0 4b e6 0c bf 0f 41 59 bf c0 05 76 3e af bc c8 bd
       -0.550389 -0.84864897 0.24025631 -0.098016135
0001f0 e6 c9 89 3f 57 10 27 bf 9c 52 a6 3d f8 92 f4 be
       1.076474 -0.6525931 0.08121225 -0.47768378
000200 70 18 32 be 03 2c 47 3f 43 00 0d bf ab 6e e9 3e
       -0.17392135 0.7780153 -0.55078524 0.45592245
000210 84 71 b6 bd 24 ed fc bd f1 85 88 3e fb 9a 66 bf
       -0.0890837 -0.123499185 0.2666469 -0.9008023
000220 f5 0c 35 bf 96 b8 e1 3e 04 b7 7a 3f 00 6b 6b 3f
       -0.70722896 0.4408614 0.9793551 0.91960144
000230 a8 a9 e6 3e da e3 8c bf 29 a1 1b bf 2b 36 ef 3e
       0.45051312 -1.1007035 -0.60792786 0.46721014
000240 4b 97 85 be 1a 65 11 3f f5 e1 44 3f d8 72 65 3f
       -0.2609199 0.56794894 0.76907283 0.8962836
000250 e0 53 6c 3f 54 82 cc bc be ae 10 bf 28 d3 71 3f
       0.92315483 -0.024964489 -0.56516635 0.94462824
000260 5e 76 3e 3f 2f 2e a7 3f 98 b9 e2 3f 77 3a fe 3e
       0.74399364 1.3060969 1.7712889 0.4965398
000270 26 dd 11 3e a0 b6 2f 3f 99 37 dc bd 94 47 23 3f
       0.14244518 0.6863804 -0.10752792 0.63781095
000280 1c 2f ab 3f 46 17 1c 3e 32 26 05 bf ed 4b 2d bf
       1.3373752 0.15243253 -0.52011406 -0.6769398
000290 fe c7 8d 3e 91 82 09 3f 53 64 82 3f 3d 95 38 3f
       0.27691644 0.53714854 1.0186867 0.7210272
0002a0 e3 6e 3d bf 61 d6 ca 3f 1c dd 63 3e ca de 7f 3f
       -0.73997325 1.5846673 0.22252315 0.99949324
0002b0 8f 16 37 bc 32 9c 22 bf d3 b9 8b bf 44 41 75 be
       -0.011174812 -0.63519585 -1.0916084 -0.23950678
0002c0 7f a2 b2 be 4a e9 fd 3e 8a dc e2 be f2 e6 82 3d
       -0.348896 0.49592048 -0.44308883 0.063917056
0002d0 68 30 e5 3e 4e 9c 21 3f 42 b0 8f 3e 68 44 97 3f
       0.44763494 0.6312913 0.28064162 1.1817751
0002e0 dc 5a 1f 3f 19 cd 0b bf a9 f4 82 3f 81 bf e2 3e
       0.62248015 -0.5460983 1.0230914 0.4428673
0002f0 41 37 04 40 54 88 d2 3f 7c bc 02 bf 3e a0 1d be
       2.0658724 1.6447854 -0.51068854 -0.15393159
000300 3d c3 5c 3e dc c0 11 3f 8e fc 3c 3f 82 94 3e bd
       0.21558852 0.56934905 0.7382287 -0.046528347
000310 c5 8a 1a be 96 21 70 bd 1e 94 6b 3e 62 2d 38 3f
       -0.15091999 -0.05862578 0.23005721 0.7194425

bias_hh_l0 f4 [200]
000000 c4 b2 94 bc 11 94 46 bf 1c 89 b1 3f 7f d3 98 be
       -0.018151648 -0.7756968 1.3869967 -0.2984886
000010 c6 42 ee 3f 20 39 a0 3f a1 a9 99 3d cb 40 57 3f
       1.8614128 1.2517433 0.07503057 0.8408324
000020 b5 ad 61 3e 36 0a 10 3f 52 87 95 3f 8f e9 19 3e
       0.2203892 0.5626558 1.1681921 0.15030502
000030 d3 83 f2 be b6 16 9c 3e 4c b0 18 3f 01 3b a4 3e
       -0.473662 0.30486077 0.5964401 0.32076266
000040 95 49 d2 3f 0e 42 0d 3f f5 c5 9d 3f 4a a8 31 3f
       1.6428705 0.55178916 1.2326037 0.69397414
000050 96 ab 11 3f f5 be 95 3e b0 00 19 3f 47 58 1c be
       0.56902444 0.2924725 0.59766674 -0.1526805
000060 96 24 dd be 24 72 68 3f af a2 80 be 95 6d 91 3f
       -0.43191975 0.90799165 -0.25124118 1.1361567
000070 a6 da 0a 3c 31 dc e1 3e 27 4a df 3f f3 80 1a 3f
       0.008474981 0.44113305 1.7444504 0.6035301
000080 40 65 29 3e 4a cd 82 3f 84 1b 0a 3f ba 55 8a 3e
       0.1654253 1.0218899 0.53948236 0.2701853
000090 fe 7f 50 3f 1d df 61 3f 43 8e 17 3f 9d 22 d0 3f
       0.814453 0.8823107 0.5920145 1.6260563
0000a0 2a 61 84 3e 7d 7b 22 3e 1c 3f c3 bd ce 7d 29 bf
       0.2585538 0.1586742 -0.095335215 -0.6620759
0000b0 22 6e 82 3f 05 5a 2b 3f 1e b0 2f 3f 7e be af be
       1.018986 0.66934234 0.6862811 -0.34325022
0000c0 1c 3d 08 40 e0 bd 67 be 68 2a 2f bf cc 06 0c 3f
       2.1287298 -0.22631025 -0.6842408 0.5469787
0000d0 36 6d ea 3f ec ea 3b be d1 68 68 3f ac 4e d1 3f
       1.8314579 -0.18351334 0.9078494 1.6352134
0000e0 d3 8f 29 3d 17 2a 4e be b8 5d 38 3f 42 d8 b6 3e
       0.041396927 -0.20133244 0.72018003 0.35711867
0000f0 fa 36 30 3e c7 b5 3e 3f a6 24 02 be 0e d7 d1 3f
       0.17208472 0.7449612 -0.12709293 1.6393754
000100 06 2f 07 be 28 72 df 3f eb ac 51 3e 54 f0 16 3f
       -0.13201532 1.7456713 0.20476119 0.5896046
000110 b0 0e ad 3e e8 cf af bf 39 47 31 3f 1d 48 50 bc
       0.33800268 -1.3735323 0.692493 -0.012712506
000120 cd aa bb 3d ea d5 0a 3e d3 f5 d9 3e ce aa 9f 3d
       0.09163437 0.13558164 0.42570361 0.0779625
000130 15 35 9e 3f 77 38 e7 3e 39 34 73 3c 04 c7 0e 3f
       1.2359949 0.45160267 0.014843994 0.55772424
000140 78 2e d0 be f7 80 6c 3e 62 05 41 3f 11 03 bb be
       -0.40660453 0.23096071 0.7539884 -0.36525777
000150 fe 9f 69 bf dc 36 1b bf ae cd d2 bd 94 a0 23 3f
       -0.91259754 -0.60630584 -0.102931365 0.639169
000160 e2 1c 61 3e 98 05 ba bf 53 f0 b4 3e ec fa 13 3e
       0.21983674 -1.4532957 0.35339603 0.14451188
000170 20 ca a8 3f 88 13 14 3f a7 53 1a 3f a5 fa 03 3e
       1.3186684 0.578423 0.60283893 0.12888582
000180 58 ee 81 3d db 9e bf be 10 d9 7b 3f 77 83 c5 be
       0.063442886 -0.37425885 0.98378086 -0.38576862
000190 e4 a7 22 be 86 32 41 bf 5c 51 91 3d 6e 0a 80 3f
       -0.15884358 -0.7546772 0.07095596 1.0003183
0001a0 a7 e2 9b 3e 44 0f 8d bf 9b 22 72 bf e4 85 24 bf
       0.3044636 -1.1020284 -0.94584054 -0.642668
0001b0 ae 46 8b 3f 4a 0b 9e 3e 48 20 ce be 13 75 60 bf
       1.0880945 0.30867988 -0.40259004 -0.8767864
0001c0 18 17 00 bf f2 96 2e 3f a4 42 e7 bc 58 90 36 3f
       -0.5003524 0.68199074 -0.028230019 0.71314
0001d0 57 1b 2d bf 07 9f 83 3f a5 9f 52 3e ae f4 69 3e
       -0.6761984 1.0282906 0.20568712 0.22847244
0001e0 12 31 0f bf 61 90 5f bf 50 d5 a3 3d 64 80 38 bc
       -0.5593425 -0.8732968 0.079996705 -0.011261079
0001f0 cf fb 90 3f 96 96 45 bf 59 b2 bb 3d 11 e6 15 bf
       1.1326846 -0.771829 0.091648765 -0.5855418
000200 7f 58 03 be f4 f2 75 3f e6 28 02 bf 75 c9 e6 3e
       -0.12826727 0.9607384 -0.50843656 0.45075575
000210 a1 b3 17 be 64 91 7b bc e8 3e d2 3d 60 a7 50 bf
       -0.14814617 -0.015354488 0.10265905 -0.81505394
000220 f0 47 0a bf 31 16 dd 3e 5e 60 87 3f d2 bc 3b 3f
       -0.5401602 0.43180993 1.0576284 0.7333499
000230 1d 80 d4 3e e8 fd 81 bf ca 55 cf be 67 24 ab 3e
       0.41503993 -1.0155611 -0.4049514 0.3342621
000240 92 9c 25 be 58 b1 0e 3f 80 fd 4f 3f a8 3a 8d 3f
       -0.16173008 0.55739355 0.81246185 1.1033525
000250 fa 4c 5e 3f 1b b6 2b be c6 82 b6 be 86 fa 7a 3f
       0.86836207 -0.16768686 -0.35646647 0.9803852
000260 cb ce 21 3f 6d 09 a5 3f a5 a5 f5 3f 48 0b f6 3e
       0.63206166 1.2893502 1.9191176 0.48055482
000270 a5 9c e9 3d 2d be 15 3f 76 58 fd 3c 9e f7 2b 3f
       0.11406831 0.5849331 0.03092597 0.6717471
000280 f7 ad a4 3f 1e 7d 55 3e a6 e4 c8 be ae 13 60 bf
       1.286559 0.2084851 -0.39236945 -0.8753003
000290 32 85 59 3e 32 3b d5 3e c1 13 6e 3f bc 3e 31 3f
       0.21242216 0.41646725 0.9299889 0.6923635
0002a0 a1 73 1d bf 7f 93 d8 3f bc c7 79 3e f9 6c 4e 3f
       -0.6150456 1.6920012 0.24392599 0.8063503
0002b0 be 57 79 be 3b 1a 42 bf 5c 0c 97 bf c2 e6 29 be
       -0.24349877 -0.75821275 -1.1800647 -0.16591933
0002c0 c6 91 5a be 19 a7 e2 3e aa 4e 1c bf 99 fd cf 3d
       -0.2134467 0.4426811 -0.6105753 0.10155792
0002d0 d0 ec b0 3e 75 74 02 3f 5d a1 92 3e 62 18 8b 3f
       0.34555674 0.5095895 0.28638735 1.0866816
0002e0 2b ba 09 3f 77 3e fd be e9 1c 8d 3f 82 d0 e6 3e
       0.53799695 -0.4946172 1.1024448 0.45080954
0002f0 27 3d fd 3f a6 23 c0 3f bd e3 ea be 41 86 0d be
       1.9784287 1.5010879 -0.45876876 -0.13820745
000300 1c 16 cb 3d 87 e2 d9 3e 36 32 7e 3f 04 e8 90 3d
       0.099163264 0.4255564 0.99295366 0.070755035
000310 ca 6c 89 be 48 c5 e3 bd 5f 13 67 3e 59 35 01 3f
       -0.26840812 -0.11121613 0.22565983 0.5047203

weight f4 [74, 50]
000000 ea a4 32 bf e3 1a fd 3e 17 3f 06 3f 89 af 2d bf
       -0.6978289 0.49434575 0.5244002 -0.6784597
000010 00 a4 31 3f 3d f7 08 bf c4 ae ac be 5f df 58 bf
       0.6939087 -0.53502256 -0.33727086 -0.8471584
000020 b0 7e 11 bf 56 68 87 3e 82 a5 10 be ab 4e b6 3e
       -0.56833935 0.2644679 -0.14125636 0.35606894
000030 dc 6c ae 3e f3 8c 8b 3e 81 f8 a1 3d 2b 1d 51 bf
       0.34067428 0.27255973 0.079087265 -0.8168513
000040 20 34 14 3f 0e dd 16 be a3 ab f8 be e4 56 35 be
       0.57892036 -0.14732763 -0.48568448 -0.17708927
000050 ae c5 85 3e f3 0a eb 3e eb f7 4a bf 77 a1 cb bc
       0.2612738 0.4590679 -0.7928454 -0.024857266
000060 f5 2b a0 be 5d a3 c9 bc c9 59 6d 3f eb 8d 56 3c
       -0.31283537 -0.02461403 0.92715126 0.013095359
000070 33 38 88 be 28 f5 1e bf 15 5f b5 3d 0e d9 11 bf
       -0.26605377 -0.6209283 0.08856026 -0.56971824
000080 83 56 78 3d c0 8b 75 be a6 5b 5c bb 6f 35 c0 3f
       0.06062938 -0.23979092 -0.0033623963 1.5016307
000090 90 02 1c 3f fa ab 24 bd 88 1d 64 bf 08 66 90 be
       0.6094141 -0.040203072 -0.8910756 -0.28202844
0000a0 21 c7 13 be 4f 22 39 3f 23 3a 75 3f 87 62 89 3e
       -0.1443143 0.72317976 0.95791835 0.26832983
0000b0 56 38 4f bd 9c 2d 11 bf 57 80 f3 be 48 87 21 bf
       -0.050590836 -0.5671022 -0.47558853 -0.6309705
0000c0 75 81 fd be 06 22 01 40 94 13 08 bf 66 fa 62 3e
       -0.4951283 2.0177016 -0.53154874 0.22165832
0000d0 33 5b 0f 3f 59 b6 f2 be a4 18 b1 3d b5 c6 60 bf
       0.55998534 -0.47404745 0.08647278 -0.878032
0000e0 04 8d d0 be 59 12 60 bf 8f 41 b8 be 17 cb c8 3e
       -0.40732586 -0.87527996 -0.35987517 0.39217445
0000f0 91 69 92 be 89 c5 30 be 5d f0 58 3e 37 9c c5 3e
       -0.28596166 -0.17262854 0.21185441 0.38595745
000100 01 40 8c 3e b9 31 4b bf c4 89 d0 3e fe ae 4d 3e
       0.2739258 -0.79372746 0.40730107 0.20086285
000110 91 b2 ae be e0 90 9e 3e d2 f5 39 be 94 dc c5 bd
       -0.3412061 0.30969906 -0.1816018 -0.096612126
000120 8a f8 3e bf 21 2d b7 be ee 0f 7b be 47 18 3d be
       -0.7459799 -0.35776618 -0.24517795 -0.18466292
000130 44 99 1b 3f ab d3 9c be a7 fa 5b 3e f4 41 91 bf
       0.6078074 -0.3063024 0.21482335 -1.1348252
000140 33 45 cf be d9 7b 32 bf f6 ad 45 3c fe fd a7 3d
       -0.40482482 -0.69720227 0.012065401 0.08202742
000150 ff d2 77 3e 8c 10 e4 3f fa f4 be 3e 88 9f 8f be
       0.24201582 1.781755 0.37296277 -0.280514
000160 3a 83 2d bf 4a 48 d0 3e 9a 12 49 be 86 9d ec 3e
       -0.6777836 0.40680152 -0.19636002 0.4621393
000170 27 c2 9a 3f fb 60 91 bd 65 51 b1 bd 9e 0c 9c be
       1.20905 -0.07098576 -0.08658103 -0.30478376
000180 ff 6d 01 bd f6 8b d0 be 41 c5 92 be 31 68 0f 40
       -0.03159904 -0.40731782 -0.28666118 2.2407343
000190 36 67 a6 3f c4 ff e0 be 50 4b cc be 34 7a 19 3f
       1.3000247 -0.43945134 -0.3990121 0.5995209
0001a0 54 91 05 c0 85 0e 44 3f 6f 27 74 bf cb 2a 97 3c
       -2.0869951 0.76584655 -0.9537267 0.018453022
0001b0 42 e5 33 3f a5 7b 85 be 46 0c 8d 40 d1 79 fb 3f
       0.70271695 -0.26070896 4.407748 1.964655
0001c0 00 2e 8e c0 52 f5 14 bf 83 72 27 3e 40 39 86 3e
       -4.443115 -0.5818683 0.16352277 0.26215553
0001d0 fa f5 af bf 99 53 d2 bf f0 19 9a be 2f 7f 94 3e
       -1.3746941 -1.6431762 -0.30097914 0.29003283
0001e0 84 18 95 3f 46 a8 c5 be a5 fd 7e 3f f1 7a 07 bd
       1.1648107 -0.38604945 0.9960578 -0.03307623
0001f0 b0 8a 09 c0 9b d0 46 3e 06 ed 4b 3e 37 b3 60 3d
       -2.1490898 0.19415514 0.19914636 0.054858413
000200 43 f7 16 bf 02 e2 63 3f 1e 49 a1 3f 12 24 1d 3f
       -0.5897104 0.89016736 1.2600439 0.61383164
000210 e2 c4 91 bf 08 16 f8 be 66 9e 98 bf d9 e0 7e 3f
       -1.1388209 -0.48454309 -1.1923339 0.9956184
000220 13 4e 9e 3f 51 6d 51 3f a5 a0 48 bc f7 68 48 3f
       1.2367576 0.8180743 -0.012245332 0.78285164
000230 57 26 0d 3f 82 cc 73 bf ae f3 f6 3d 8d 2c 79 3e
       0.55136627 -0.9523393 0.12058197 0.24333401
000240 52 6f b5 bf 43 b9 f0 3f eb 20 76 3e a6 5e 6e 3f
       -1.4174597 1.8806537 0.24035995 0.9311317
000250 67 90 07 bf 8d 3a 30 be f6 d8 f7 bd 32 34 f9 bf
       -0.52954715 -0.17209835 -0.12101929 -1.9469054
000260 dd 8a f0 bf 1d be 97 bf db b5 b2 bf c1 80 d1 bf
       -1.8792378 -1.1854893 -1.3961748 -1.6367418
000270 59 46 18 40 38 5d ba c1 8f 6d 18 bf de 65 3c 3f
       2.3792937 -23.295517 -0.59542173 0.73592937
000280 56 11 08 c0 22 31 c2 3e a2 db f4 3e 2a a0 d6 3f
       -2.126058 0.3792811 0.47823817 1.6767628
000290 96 7f 7c be 5a dd 0c c1 a3 b0 86 bf 10 e8 89 c0
       -0.24658045 -8.804041 -1.0522655 -4.309578
0002a0 65 74 6d 3f 64 c1 82 3f 49 dc 3f 41 53 02 c4 bf
       0.9275573 1.0215268 11.991281 -1.5313209
0002b0 93 54 1b c0 f2 0a a2 bf c0 ba 26 40 e6 7d aa 3c
       -2.427037 -1.265959 2.6051483 0.020811986
0002c0 8a 05 c6 3f ab a5 19 40 23 df 91 3e 39 98 21 bf
       1.547044 2.4007366 0.28490552 -0.631229
0002d0 1f 15 f0 bf 8a 09 fc c0 00 38 93 3f 07 6b 73 3f
       -1.8756446 -7.8761644 1.1501465 0.95085186
0002e0 8c a7 35 40 a8 25 40 3f 96 9f a3 40 24 62 32 3d
       2.8383512 0.7505746 5.1132307 0.043550625
0002f0 bc d1 21 3f b8 8b 56 bd bf a2 af bf 6a cb 0b 40
       0.63210654 -0.05237934 -1.3721541 2.1842904
000300 b9 97 58 bf 84 a4 2c 41 28 f0 97 c0 3d f1 02 c0
       -0.8460651 10.790165 -4.748066 -2.045974
000310 47 93 a1 bf 01 14 a8 3e 3b b5 d3 bf b1 d1 5d 40
       -1.262307 0.32827762 -1.6539682 3.4659235
000320 ee 51 10 bf 94 48 a5 3e 02 74 51 c0 fe 93 61 3e
       -0.56375015 0.32281935 -3.2727056 0.22029111
000330 42 af ec 3f 67 91 ca 3e 51 d5 6b be e8 4f 2f bf
       1.8490984 0.39564058 -0.23030593 -0.684813
000340 c5 bd 5e 3d f7 24 76 3f 2b cb 1b c0 3b 06 b4 bf
       0.054380197 0.96150154 -2.4342754 -1.4064401
000350 91 d8 50 3f 3f 45 3d bd 34 32 5d 3f f9 a6 a0 3f
       0.81580454 -0.046208616 0.8640473 1.2550956
000360 2f 9c 5f be 26 75 66 bf f8 42 40 40 f8 b6 68 be
       -0.21836923 -0.90022504 3.0040874 -0.22726047
000370 f4 61 74 bf 01 81 3b 3e 97 0b 83 3e 46 7f 21 40
       -0.95461965 0.1831093 0.2559478 2.5233932
000380 ec ea 67 3f 7d dc f2 be c9 86 cd be 10 79 d5 3d
       0.9059284 -0.47433844 -0.40141895 0.104234815
000390 af fc a4 3f 8a 2a 3b 3e f7 92 4e be 4a a2 a7 be
       1.2889613 0.18277946 -0.2017325 -0.32741004
0003a0 a5 61 19 40 7d 27 ca bf 88 0e 9d c0 a2 3e 1e bf
       2.3965847 -1.5793301 -4.908024 -0.6181432
0003b0 bd d7 a4 bd 3a 68 c4 be 14 a3 12 3f 62 13 0a 40
       -0.08048961 -0.3836077 0.5728009 2.157433
0003c0 6b f3 51 3f 4a 03 1c 40 5b 19 f5 be 40 95 13 bf
       0.8201205 2.4377007 -0.47870907 -0.5764961
0003d0 69 00 a7 3f 2c 90 6d c0 67 9a 94 3f ba ab 3d 3f
       1.3047 -3.7119246 1.160962 0.7409016
0003e0 42 f3 4b bf fb bc 33 40 c2 f8 c5 bf e1 96 a3 be
       -0.79668057 2.8084095 -1.546654 -0.3195105
0003f0 c1 2b 58 c0 54 f2 62 40 9d 54 19 3f 83 9c 11 40
       -3.3776705 3.5460405 0.59894735 2.2751777

bias f4 [74]
000000 54 4c 04 bf 41 9e e1 be 6d f6 75 3f 54 7d 4f bf
       -0.5167897 -0.4406605 0.9607914 -0.8105061
000010 fc 6d 45 40 16 0e 65 c0 15 a1 35 40 c3 96 ee be
       3.084838 -3.5789847 2.8379567 -0.46599397
000020 69 8c 00 c0 fd 4f 90 bc 72 72 d1 bf ad 35 92 3e
       -2.00857 -0.017616266 -1.6363051 0.28556576
000030 0d 2a 25 bf 76 e3 84 bf c4 6b e3 3f 5a 39 09 40
       -0.6451729 -1.0381916 1.7767262 2.1441255
000040 ca 7c b5 3f 73 fb 8f 3e 4b da a0 be d2 1a 6b bf
       1.4178708 0.28121528 -0.31416544 -0.918378
000050 37 61 c0 be 72 5e 5c be 24 90 73 bf d5 13 39 3f
       -0.3757417 -0.21520403 -0.95141816 0.72295886
000060 3d 32 45 be f8 8a ba be 3a 4b ed bf a9 e8 29 3f
       -0.19257446 -0.3643415 -1.8538582 0.66370636
000070 6c ba 66 3f ac 17 08 c0 43 01 1e bf 36 e5 02 c0
       0.9012821 -2.1264448 -0.61720675 -2.04524
000080 0c 36 b6 3e ef 17 2a 3d a3 a6 93 be 83 43 44 bd
       0.3558811 0.04152673 -0.2883807 -0.047915947
000090 86 21 66 c0 dd ea 66 bf d6 93 72 bf 80 53 0c bf
       -3.595796 -0.9020212 -0.9475683 -0.5481491
0000a0 50 73 1a bf b7 c0 19 bf f1 8d 03 bf cc de 51 bf
       -0.603322 -0.60059685 -0.5138846 -0.81980586
0000b0 ab ea 55 bf cf 47 26 bf 8c 44 1e bf 43 04 4d bf
       -0.835612 -0.6495332 -0.61823344 -0.8008463
0000c0 66 81 36 be a4 5b d5 be c6 05 90 bd 89 54 cf be
       -0.17822799 -0.4167148 -0.07032351 -0.40494183
0000d0 d0 59 51 bf 5d 5b 5f bf 33 1a 13 bf ae 3e dd be
       -0.8177767 -0.87248784 -0.5746185 -0.43211883
0000e0 00 c9 6d bf f0 a0 0c bf ce 08 26 bf a6 1f 15 bf
       -0.92884827 -0.5493307 -0.64857185 -0.58251417
0000f0 f9 59 3b bf c6 71 0c bf 23 61 16 bf 3b cb bd be
       -0.7318416 -0.54861104 -0.5874197 -0.37069115
000100 31 eb 1d bf 58 81 c5 be fc cc 10 bf 55 76 84 bf
       -0.61687 -0.38575244 -0.5656278 -1.0348612
000110 5a 98 10 bf 5e e2 1c bf 7d 84 07 3e 78 aa 40 bf
       -0.5648247 -0.6128291 0.13234134 -0.75260115
000120 d5 77 56 bf 17 00 bc 3d
       -0.837766 0.09179705

weight f4 [50, 2]
000000 a5 2b 09 3f 67 23 15 3f 1a 41 94 3e f9 c6 2a 3f
       0.5358222 0.58257145 0.2895592 0.6670986
000010 90 ed 77 bd 20 45 88 be 78 ca 08 3e 90 bd 1d 3d
       -0.06052929 -0.26615238 0.13358486 0.03851086
000020 f0 24 43 be 67 24 2e bf c7 de 2b 3f b0 0a 55 3e
       -0.1905706 -0.68024296 0.67136806 0.20804858
000030 4c 51 38 be 00 41 16 3e 73 e7 0e 3f c6 66 f6 3e
       -0.17999762 0.14673233 0.55821913 0.48125285
000040 00 09 66 be 80 7c 49 3d 92 c1 31 bf e5 04 ce be
       -0.2246437 0.049190998 -0.6943599 -0.4023811
000050 40 66 cb 3c e1 26 cc be e4 28 14 be 4c 0e 80 be
       0.02482903 -0.39873412 -0.14468724 -0.25010908
000060 50 4d 67 3d c1 b4 a6 be 98 6a c4 be e7 d4 9a be
       0.056470215 -0.3255978 -0.38362575 -0.30240557
000070 84 42 14 3e f8 72 e8 3d 40 21 1a be f0 12 ff bd
       0.14478499 0.113500535 -0.15051746 -0.12454784
000080 91 2a 1b 3f ca b3 21 bf 00 f7 83 bd a7 9a 0d bf
       0.60611826 -0.6316496 -0.06443596 -0.55314106
000090 5a c2 6f be 7f 1a 23 bf 62 3d f3 3e ad d0 1a 3f
       -0.23413983 -0.63712305 0.4750777 0.60474664
0000a0 69 a4 ba be 91 55 0e bf 3e ee d5 3e 0b 1d fd be
       -0.3645356 -0.55599314 0.41783327 -0.4943622
0000b0 d5 71 19 bf c5 b0 ed be ee 83 04 bf 62 b2 07 bf
       -0.5993932 -0.46423927 -0.5176381 -0.53006566
0000c0 94 d2 39 be f6 bf a8 3e 10 ff 6c be 8e 65 11 bf
       -0.18146735 0.32958955 -0.23144174 -0.56795585
0000d0 a2 f5 f7 3e ce aa 23 bf 0a dc e2 3e 40 3e 23 3e
       0.4842959 -0.639325 0.443085 0.15941715
0000e0 52 75 f9 be 80 a2 07 bf 6f 6f 26 3f 30 49 32 3d
       -0.4872232 -0.5298233 0.65013784 0.04352683
0000f0 7c 54 4e 3e 60 db e1 bc b0 1e 84 bd a1 f1 21 3f
       0.20149416 -0.027570426 -0.06451166 0.6325932
000100 c5 04 e6 be 60 fb 7f 3d e0 fa 8a bd 78 fd cb be
       -0.44925514 0.06249559 -0.06786132 -0.3984182
000110 4a 9c bb 3e e1 ec 19 bf 1a 2b 85 3e 4b c2 e2 be
       0.36642677 -0.60127074 0.26009446 -0.4428886
000120 39 51 0b bf 90 e3 44 be e0 88 d9 3c 48 36 a8 be
       -0.5442081 -0.19227433 0.026554525 -0.32853913
000130 aa b4 8d 3e e0 e2 b0 be 71 a4 e4 be 69 dc b2 be
       0.27676898 -0.34548092 -0.4465671 -0.34933785
000140 b8 48 ea bd 80 0e d5 3d 66 af b3 3e 5e ad 11 bf
       -0.11439651 0.10403156 0.35094756 -0.5690516
000150 19 7f 2a bf 52 34 25 bf 88 bd 4a 3e 04 60 6f be
       -0.66600186 -0.6453296 0.19798863 -0.23376471
000160 2e 99 5e be 8d 08 1e bf 3c 97 6c 3e 05 95 0f 3f
       -0.21738121 -0.617318 0.23104566 0.5608676
000170 a2 6a ef 3e 98 4e e8 bd 5d 62 09 bf d7 98 1b 3f
       0.46761042 -0.113431156 -0.53665715 0.6078009
000180 50 1e d7 3d 24 b7 4e be 1e 11 34 bf 9a d7 d1 3e
       0.105038285 -0.2018705 -0.7033862 0.40984803
