model/saved_models/end2end/model_fr_2_epoch_3.pt (torch_old, 242560 bytes, 25 tensors)

weight f4 [20, 74]
0	0x3e570c09	0.21000685
1	0x3d54400f	0.051818904
2	0x3eb9aa01	0.36262515
3	0xbf535f62	-0.8256742
4	0xbf4b8c28	-0.79510736
5	0xbee2b7a5	-0.44280735
6	0xbe560a3b	-0.2090234
7	0x3fec938b	1.8482527
8	0xbec93bdc	-0.39303482
9	0x3eb3f442	0.3514729
10	0xbfc4bc28	-1.5369921
11	0xbf24d842	-0.64392483
12	0x3eb4abc7	0.35287306
13	0x3df557c8	0.119796336
14	0x3ce2ebd5	0.027700344
15	0x3f317ab7	0.69327873
16	0x3eee0a98	0.46492457
17	0xbf0fcb0a	-0.5616919
18	0x3f4c0e67	0.79709476
19	0xbf2a67cd	-0.6656464
20	0x3e59a731	0.21255185
21	0x3ecd4401	0.40090945
22	0x3f3544f2	0.7080833
23	0xbee14c5e	-0.44003576
24	0x3f52e60c	0.82382274
25	0x3fa57410	1.2926044
26	0x3f4503e4	0.7695906
27	0x3e9a0dd6	0.3008868
28	0x3f80c11c	1.0058932
29	0x3fc1529a	1.5103333
30	0x3e762bfb	0.24040215
31	0xc01d92f9	-2.4620955
32	0xbe7520bc	-0.23938268
33	0x3f2cc651	0.67490107
34	0xbca6aca3	-0.020345991
35	0x3e4354b1	0.19075276
36	0x3f92aef8	1.1459646
37	0xbf05e503	-0.5230257
38	0x3e1df66c	0.15426034
39	0xbff06452	-1.8780615
40	0xbf8e0e40	-1.1098099
41	0xbf3e9e9b	-0.7446076
42	0xbf8e92b3	-1.1138519
43	0xc0090f1a	-2.1415467
44	0xbe12d401	-0.14338686
45	0xbf47b86d	-0.78015786
46	0xbffca1eb	-1.9736913
47	0xbe7be827	-0.24600278
48	0xbeef7ad4	-0.46773398
49	0x3f4b7b4a	0.79485
50	0x3f37a045	0.71728927
51	0xbf867f82	-1.0507662
52	0xbff585eb	-1.9181494
53	0x3f9dc1c2	1.2324755
54	0x3e155dff	0.14586638
55	0xbff4559b	-1.9088625
56	0xbd15a7aa	-0.03653685
57	0xbf1b6df6	-0.6071466
58	0x3f43fd7a	0.7655865
59	0xbf64c688	-0.89365435
60	0xbf142f22	-0.5788442
61	0x40120330	2.2814445
62	0x3e2df516	0.16988024
63	0x3e84eebd	0.25963393
64	0x3d2200da	0.039551593
65	0xbfd15f31	-1.6357175
66	0xbe29831e	-0.16553923
67	0xbfd8a86e	-1.6926401
68	0xbff1b7db	-1.8884233
69	0xbfc3ef76	-1.5307453
70	0x3f864f0d	1.0492874
71	0x3f4c0a6f	0.7970342
72	0x3e90ffc5	0.28320137
73	0xbf603adb	-0.87589806
74	0x3e74a641	0.23891546
75	0x3f74a9b7	0.95571464
76	0xbe951d10	-0.29123735
77	0xbf10e5ed	-0.5660084
78	0xbc0d1c11	-0.008612649
79	0xbf319f13	-0.69383353
80	0xbdc474c3	-0.09592583
81	0x3effe7f7	0.49981663
82	0x3e905d10	0.28196
83	0x3f833b8c	1.0252547
84	0xc02b46a4	-2.6761866
85	0xbf3cae4b	-0.7370345
86	0xbf4d1b92	-0.80120194
87	0x3f8206aa	1.0158284
88	0xbd36a948	-0.044595033
89	0xbf31b1fe	-0.6941222
90	0xbf219182	-0.6311265
91	0x3f02c6d2	0.51084626
92	0xbf028b1f	-0.5099353
93	0xbe4ce13f	-0.200078
94	0x3dcd339a	0.10019608
95	0xbf0c7a8f	-0.5487451
96	0x3fe20cc1	1.7660142
97	0xbee74981	-0.45173267
98	0xbdc3daa2	-0.09563185
99	0x3f577d20	0.841753
100	0x3f02eb88	0.5114064
101	0xbe0afda3	-0.13573317
102	0xbe990ab4	-0.29890978
103	0xbf08b121	-0.5339528
104	0xbf03ad94	-0.51436734
105	0x3e6f23e2	0.23353532
106	0xbeebaba6	-0.46029395
107	0xbe0d39e1	-0.1379161
108	0xbee3d97d	-0.44501868
109	0xbf0f906e	-0.5607976
110	0xc0476dcc	-3.1160765
111	0xbf6b0a21	-0.9181233
112	0x3ed42507	0.414345
113	0xbf5bf79b	-0.8592469
114	0x3f802f16	1.001437
115	0x3e9ac4d2	0.30228287
116	0x3ff27409	1.8941661
117	0xbee90a23	-0.45515546
118	0x3f8a4009	1.0800792
119	0xbe87dafb	-0.26534256
120	0xbebd5555	-0.36979166
121	0x3f8d932a	1.1060536
122	0xbf502eda	-0.8132149
123	0xbf4a524b	-0.7903182
124	0xc01df73f	-2.4682157
125	0x3e2928ac	0.16519421
126	0x3d3204d2	0.04346163
127	0x3f4ef667	0.8084473
128	0xbef20686	-0.47270602
129	0xbff88206	-1.941468
130	0xbea89ae9	-0.32930687
131	0x3fea4c49	1.830453
132	0x3fe73a07	1.8064584
133	0x3f4b7a8f	0.79483885
134	0x3e34b024	0.17645317
135	0xbf577ba3	-0.8417303
136	0x3fd856b0	1.6901455
137	0x3fef80e3	1.8711208
138	0xbf2c0a2d	-0.67203027
139	0xbfad4517	-1.353671
140	0xbe1e87df	-0.15481518
141	0xbf18397b	-0.5946271
142	0xbfaaca6b	-1.3343023
143	0x3e97b7ba	0.2963236
144	0xbd53ae3e	-0.051679842
145	0xbf7728ad	-0.9654644
146	0x3f7e00e8	0.9922013
147	0x3ede62a8	0.43434644
148	0x3e7d6882	0.24746898
149	0x3cc62d31	0.02419147
150	0x3f26c28d	0.6514061
151	0x3f5cf26a	0.86307395
152	0xbeb23967	-0.3480942
153	0xbf4fa927	-0.8111748
154	0xbe805ca2	-0.25070673
155	0xbf10462a	-0.5635706
156	0xbd9c3084	-0.07626441
157	0x3dc23b0c	0.094839185
158	0x3f7cd4cc	0.987622
159	0x3f04c188	0.51857805
160	0xbf5a5e68	-0.853003
161	0x3f5fed79	0.8747173
162	0x3d568ffd	0.05238341
163	0x3f1191e6	0.5686325
164	0x3f293c51	0.6610766
165	0x3e83eebf	0.25768086
166	0xbf20872d	-0.6270626
167	0x3ea3c274	0.31984293
168	0xbea80451	-0.32815793
169	0xbf3875f4	-0.7205498
170	0xbebf349e	-0.3734483
171	0xbe9f061a	-0.31059343
172	0xbf7c4422	-0.9854146
173	0x3e7c21b8	0.24622238
174	0xbf02badb	-0.5106637
175	0x3f50e542	0.8159982
176	0x3f8a5abf	1.0808944
177	0xc0009d3e	-2.0095973
178	0xbe5b0ec7	-0.21392356
179	0xbfbb238a	-1.4620221
180	0xbf3443a9	-0.7041574
181	0xbe0a6abc	-0.13517278
182	0xbefc4dd3	-0.49278125
183	0xbfeef278	-1.8667746
184	0xbf3853d7	-0.7200293
185	0x3f4cb60a	0.7996527
186	0x3f459531	0.77180773
187	0xbcdb5176	-0.026772242
188	0xbfe1e69c	-1.7648501
189	0x3fa7ac34	1.3099427
190	0x3e2b8b85	0.16752441
191	0xbd8a01be	-0.067386135
192	0xbeba5eef	-0.36400554
193	0xbf4a035f	-0.78911394
194	0x3eee7212	0.46571404
195	0x400a39c3	2.1597755
196	0x3ed86706	0.422661
197	0x3fbd85f9	1.480651
198	0x3f2e1866	0.6800598
199	0xbf014346	-0.50493276
200	0xbec24828	-0.37945676
201	0x3ec86452	0.39139038
202	0x3f68ad7d	0.9088972
203	0x3f34a1e0	0.705595
204	0xbf52603a	-0.8217808
205	0x3ea2898e	0.3174557
206	0x3fde5c80	1.7371979
207	0xbf4bd2ea	-0.79618704
208	0xbe24308f	-0.16034149
209	0xbee5ecd9	-0.44907263
210	0xbf634651	-0.8877917
211	0xbf072268	-0.52786875
212	0xbfcae297	-1.58504
213	0xbf2b9fbc	-0.6704061
214	0xbf3d158f	-0.7386102
215	0x3f7f6d7b	0.9977643
216	0x3fb5870d	1.4181839
217	0x3dbf991f	0.093553774
218	0xbf894d8c	-1.072679
219	0x3f0cbe28	0.54977655
220	0x3f22dc80	0.63617706
221	0xbf2f846e	-0.68561447
222	0xbda295d6	-0.07938735
223	0x3eb2be38	0.3491075
224	0x3eadaca2	0.3392077
225	0x3f13bcf7	0.5771021
226	0x3f36915b	0.71315545
227	0xbfb614a7	-1.4225053
228	0xbdbd6c85	-0.09249214
229	0x3fcd4398	1.6036253
230	0x3f7a7ef4	0.97849965
231	0x3f06bde9	0.5263353
232	0x3f2bc66f	0.6709966
233	0xbee46f8f	-0.44616362
234	0xbe060225	-0.13086756
235	0x3e4bec00	0.19914246
236	0xbee995d6	-0.45622128
237	0xbf053128	-0.5202813
238	0x400e1652	2.2201123
239	0x3f2d8090	0.67774296
240	0x3ed76436	0.42068642
241	0xbf14923e	-0.5803565
242	0xbf34877d	-0.7051924
243	0xbedd8011	-0.4326177
244	0xbfbaf98f	-1.4607409
245	0x3ea3338d	0.31875268
246	0x3ee8633f	0.4538822
247	0x3f66c422	0.90143025
248	0xbf508cf4	-0.8146508
249	0xbf60a557	-0.8775229
250	0x3fdfb5aa	1.7477314
251	0x3e667d13	0.2250865
252	0x3dc0641b	0.093940936
253	0xbf9eeb72	-1.2415602
254	0x3f7d2834	0.9888947
255	0x3f8b46ca	1.0880978

bias f4 [20]
0	0xbf83b47d	-1.0289456
1	0xbe6d72c9	-0.23188318
2	0x3eb94a4f	0.36189505
3	0x3f37daaa	0.7181803
4	0xbe088050	-0.13330197
5	0x3d810b3b	0.0630097
6	0xbf45f541	-0.7732735
7	0xbf011ddf	-0.50436205
8	0xbf4ee9a8	-0.8082528
9	0xbefc07e2	-0.49224764
10	0x3ef597b6	0.4796731
11	0x3e94391a	0.28949815
12	0x3e67b7b6	0.22628674
13	0xbdf4938e	-0.11942206
14	0x3e8771a0	0.26453876
15	0x3f3c8499	0.7363983
16	0x3c94eaaa	0.018178303
17	0xbe43f06c	-0.19134682
18	0xbf377a36	-0.71670854
19	0xbed45202	-0.41468817

weight f4 [74, 20]
0	0x00000000	0.0
1	0x00000000	0.0
2	0x00000000	0.0
3	0x00000000	0.0
4	0x00000000	0.0
5	0x00000000	0.0
6	0x00000000	0.0
7	0x00000000	0.0
8	0x00000000	0.0
9	0x00000000	0.0
10	0x00000000	0.0
11	0x00000000	0.0
12	0x00000000	0.0
13	0x00000000	0.0
14	0x00000000	0.0
15	0x00000000	0.0
16	0x00000000	0.0
17	0x00000000	0.0
18	0x00000000	0.0
19	0x00000000	0.0
20	0xbd1c7d87	-0.03820565
21	0xbd757c51	-0.05993301
22	0x3d1565ef	0.036474165
23	0x3cc877de	0.02447122
24	0xbce38f1a	-0.027778197
25	0xbcc2f7f3	-0.023799872
26	0xbd218ee5	-0.039442915
27	0xbc843d60	-0.016142547
28	0xbd0a373b	-0.033744078
29	0x3c6dd607	0.01451636
30	0x3cd0e95a	0.025501896
31	0x3f975442	1.1822588
32	0xbdf6d89c	-0.12053034
33	0xbd09a2a6	-0.03360238
34	0xbc592dc8	-0.013255544
35	0x3cb12e61	0.02162856
36	0xba13584a	-0.0005620761
37	0xbd3e4150	-0.046449006
38	0xba4b9fc5	-0.0007767643
39	0xbd44a503	-0.04800893
40	0x3e2cdf6d	0.16882105
41	0xbde1cd90	-0.11025536
42	0x3f58bfa4	0.8466742
43	0x3d7a89ae	0.061166458
44	0xbda4d24d	-0.08047924
45	0x3f36e427	0.7144188
46	0xbeb1109a	-0.34582978
47	0xbebca725	-0.3684627
48	0x3f2d4214	0.6767895
49	0x3db27ce8	0.0871523
50	0x3f61e771	0.88243777
51	0xbeae9ca4	-0.34103882
52	0xbf534aff	-0.8253631
53	0xbd368fc3	-0.044570696
54	0x3f81050a	1.0079663
55	0xbeea15cd	-0.45719758
56	0xbcd5c5f7	-0.026095374
57	0xbe04c9a6	-0.12967548
58	0x3f881910	1.0632648
59	0xbda95db6	-0.08269827
60	0xbb07ceac	-0.0020722551
61	0x3d496951	0.049172703
62	0x3c1b2dc6	0.009471362
63	0xbba8a8f4	-0.005147094
64	0x3ba2de86	0.0049703745
65	0x3d2aae6b	0.041670244
66	0x3d0fc222	0.03509725
67	0x3c9d16e0	0.019175947
68	0xbcdb07dc	-0.026737146
69	0x3a8c8ac9	0.0010722514
70	0xbb6745a4	-0.0035289312
71	0xbeac3a38	-0.33638167
72	0x3ed159b3	0.40888748
73	0xbd0a1423	-0.03371061
74	0xbd38aaf6	-0.045084916
75	0xbc8c808c	-0.01715114
76	0xbd38ddf7	-0.045133557
77	0xbd265f9f	-0.040618535
78	0x3d8f5856	0.069992706
79	0x3c569e17	0.013099215
80	0x3d679423	0.05653776
81	0x3b33b075	0.002741841
82	0xbce337ac	-0.027736507
83	0xbd8da29d	-0.06915782
84	0xbe13cf24	-0.14434487
85	0xbd542f03	-0.051802646
86	0x3c20bc0b	0.009810458
87	0xbccd7226	-0.025078844
88	0x3e5ed39c	0.2176041
89	0xbcf796ed	-0.030223334
90	0xbd46b01b	-0.04850779
91	0x3ddab7f8	0.106796205
92	0xbec40509	-0.38285092
93	0x3cdbbf5a	0.026824642
94	0xbd887074	-0.06662074
95	0xbd125ebe	-0.035734884
96	0xbdccf0f8	-0.10006899
97	0x3c82f53c	0.015986077
98	0x3c029318	0.00796964
99	0x3c93d790	0.018047124
100	0xbf93feaa	-1.1562092
101	0xbee28c02	-0.44247442
102	0xbe88afe1	-0.26696685
103	0xbf3512c4	-0.7073176
104	0x3f0579b3	0.52138823
105	0xbf8e65ff	-1.1124877
106	0x3ed28b6e	0.41122
107	0x3ffbaf02	1.9662783
108	0xbe7587dd	-0.23977609
109	0x3f61e805	0.8824466
110	0xbf3f54cd	-0.7473877
111	0xbf183a3e	-0.5946387
112	0x3f77a0d4	0.9672978
113	0xbf393140	-0.72340775
114	0x3fe44659	1.7833968
115	0xbf12e6b5	-0.5738328
116	0x3fd1cb70	1.6390209
117	0xbed1cc75	-0.409763
118	0x3e44f05e	0.19232318
119	0x3dbbc64c	0.091686815
120	0x3cbbc6e8	0.022921994
121	0xbe02ccdc	-0.1277346
122	0xbd8bcc85	-0.068261184
123	0xbe8fe864	-0.28106987
124	0xbdbe58d7	-0.092942886
125	0x3d0b1380	0.033954144
126	0x3b912db7	0.0044304985
127	0xbd2446c7	-0.04010656
128	0xbf1a03b6	-0.6016191
129	0x3e89603d	0.26831236
130	0x3e2957a1	0.16537334
131	0xbddad2e6	-0.10684757
132	0xbd95a5bf	-0.07307004
133	0x3ddda04c	0.1082159
134	0xbecd37c3	-0.40081605
135	0xbe26e14f	-0.16296886
136	0x3ccfbe58	0.025359318
137	0x3d829f17	0.06378
138	0x3dc16cdc	0.094445914
139	0x3e1e87ae	0.15481445
140	0x3fabb218	1.3413725
141	0x3e05399d	0.13010259
142	0xbe9a9363	-0.30190572
143	0x3f3b85cc	0.7325103
144	0x3f849bb3	1.0360016
145	0x3f080fb1	0.53148943
146	0xbf752720	-0.95762825
147	0x3f0a52ce	0.540326
148	0x3da4f7e0	0.08055091
149	0x3dd3ecdb	0.10347911
150	0xbe6c1f4a	-0.23058811
151	0x3d4269a7	0.04746404
152	0xbf64431d	-0.89164907
153	0xbe379421	-0.179276
154	0x3f60e4ab	0.8784892
155	0xbf2377ea	-0.6385485
156	0x3d51c6f4	0.051215127
157	0xbfdc0aee	-1.7190835
158	0x3de04102	0.10949899
159	0x3eb971ed	0.3621973
160	0xbeaa347d	-0.3324317
161	0x3e93e280	0.28883743
162	0xbe8c0042	-0.27343947
163	0x3f8be1e7	1.0928315
164	0xbf9437eb	-1.1579565
165	0xbe70c68c	-0.2351324
166	0xbd1fceac	-0.039015457
167	0x3e8f3ae7	0.27974626
168	0x3f38bc74	0.72162557
169	0x3fa29e5b	1.2704576
170	0xbe1cc796	-0.15310511
171	0x3c90a701	0.017657759
172	0xbf1c3bb1	-0.6102858
173	0xbc96967d	-0.018382305
174	0xbf674f5b	-0.9035546
175	0xbefb72ee	-0.49111122
176	0xbee3d74a	-0.4450019
177	0x3e1dc08f	0.15405487
178	0x3e9bc936	0.3042695
179	0xbe95c949	-0.2925513
180	0x3f05e991	0.5230952
181	0x3f6aa464	0.9165709
182	0xbeebdb0b	-0.46065554
183	0x3f4106bc	0.754009
184	0x3e3dc5de	0.18532512
185	0x3f12acf9	0.57295185
186	0x3e17938b	0.14802377
187	0x3e654bb6	0.22392163
188	0xbe9eb3ba	-0.30996495
189	0x3e122f99	0.1427597
190	0xbe6c426a	-0.2307221
191	0xbea459a8	-0.32099652
192	0x3d1e7a70	0.038690984
193	0xbf0ce1ad	-0.55031854
194	0x3fbe87c2	1.488518
195	0x3fbae67d	1.460159
196	0xbe4f816c	-0.20264214
197	0x3dd45c49	0.103691645
198	0xbef67252	-0.48134094
199	0x3e67d11e	0.22638366
200	0xbe1ee954	-0.15518695
201	0xc0181ac8	-2.3766346
202	0x3f3018a6	0.6878761
203	0x3f4c2d84	0.7975695
204	0xbe59c331	-0.21265866
205	0xbe09aa31	-0.13443829
206	0xbf4768c1	-0.77894217
207	0xbebad7b7	-0.36492702
208	0xbe5bc4ae	-0.21461746
209	0x3d7246bf	0.0591495
210	0xbde75508	-0.11295515
211	0xbd8bf05f	-0.068329565
212	0x3f2234da	0.63361895
213	0xbe4e067a	-0.20119658
214	0x3f1fce63	0.62424296
215	0x3f4d9f59	0.8032127
216	0x3f90e262	1.1319087
217	0xbe328293	-0.17432623
218	0xbdf46832	-0.11933936
219	0xbe9504ab	-0.29105124
220	0xbe8d3d40	-0.27585793
221	0xbe23ac84	-0.15983778
222	0x3e53cb7f	0.20683096
223	0xbf0012cd	-0.5002869
224	0xbe1d738a	-0.15376106
225	0x3de334ea	0.11094077
226	0x3d2274f4	0.039662316
227	0xbe21c6a1	-0.15798427
228	0x3d199bb3	0.037502002
229	0x3ec54ed4	0.38536704
230	0x3e548355	0.20753224
231	0xbe902994	-0.28156722
232	0xbe9a9cbf	-0.30197713
233	0xbecc0770	-0.39849424
234	0xbd9fd87d	-0.07804964
235	0xbe480f25	-0.19537027
236	0x3ce97665	0.028498838
237	0x3dd4d93f	0.10392999
238	0xbda70c72	-0.08156671
239	0xbe3fa4c0	-0.18715191
240	0x3e932822	0.28741556
241	0xbef28bfb	-0.47372422
242	0xbede3486	-0.43399447
243	0x3e40c0ba	0.1882352
244	0x3f5e89ea	0.8692919
245	0x3f16f0cb	0.5896117
246	0xbd97c9dd	-0.07411549
247	0xbf5c0342	-0.8594247
248	0x3f0763d3	0.52886695
249	0xbf86fe20	-1.0546303
250	0xbd3563ec	-0.044284746
251	0xbe797f1d	-0.24364896
252	0xbd58f41e	-0.052967183
253	0xbfb92a94	-1.4466119
254	0xbee97a29	-0.45601013
255	0x3c8068e3	0.015675014

weight_ih_l0 f4 [200, 20]
0	0xbf2254ce	-0.6341065
1	0x3fc50e86	1.5395057
2	0xbde4c65f	-0.11170649
3	0x40495b68	3.146204
4	0xc00f46b1	-2.2386897
5	0x3d142250	0.036165535
6	0xbde53a67	-0.1119278
7	0xbf6197c6	-0.8812221
8	0xbfc8e940	-1.5696182
9	0xbf64d388	-0.8938527
10	0x3e683355	0.22675832
11	0x3f92390e	1.1423662
12	0x3fb6fab1	1.4295255
13	0x3fc0ea23	1.5071453
14	0xbe2e6d8a	-0.17033973
15	0xbf036e10	-0.5133982
16	0xbfa460ef	-1.2842082
17	0x3f3c9cfc	0.7367704
18	0x3e0ff129	0.14056839
19	0xbe087507	-0.13325892
20	0x3eb38e49	0.35069492
21	0xbfc4134c	-1.5318389
22	0xbf439103	-0.76393145
23	0xbf290693	-0.66025656
24	0xbf3726af	-0.715434
25	0xbd2c8f1f	-0.04212868
26	0xbeeaef01	-0.4588547
27	0xbdae1010	-0.084991574
28	0xbc4ba94d	-0.012430501
29	0xbeb4098a	-0.35163528
30	0x3f2d73ee	0.6775502
31	0x4029af3f	2.6513212
32	0x3ea5b85c	0.32367218
33	0x3f0edc75	0.5580514
34	0x3f06cd04	0.5265658
35	0xbf20d4ec	-0.62824893
36	0x3f890263	1.0703853
37	0x401ccd71	2.4500391
38	0x3f2e4f7d	0.6809004
39	0xbf1c26ef	-0.6099691
40	0xbd1f61ea	-0.038911738
41	0xbecac326	-0.3960201
42	0xbf080ebd	-0.5314749
43	0x3f8e6296	1.1123836
44	0x3dd135b6	0.10215323
45	0xbf06b1d1	-0.52615076
46	0xbe85a09e	-0.26099104
47	0x3e307643	0.17232613
48	0x3f34fc00	0.7069702
49	0xbe463727	-0.19356976
50	0xbe31ad1f	-0.17351197
51	0x3f9297e2	1.1452601
52	0x3f38d4b8	0.72199583
53	0xbf6ea1b3	-0.93215483
54	0x3ef6fa74	0.48237956
55	0x3f9d5892	1.2292655
56	0x3ef7cf75	0.48400465
57	0xbfd1f03d	-1.640144
58	0x3f28e37c	0.65972114
59	0x3d3699db	0.04458032
60	0x3e61d010	0.22052026
61	0x3fbbf396	1.4683712
62	0x3f3802bc	0.7187917
63	0xbfe2983c	-1.7702708
64	0x3ea00c74	0.312595
65	0x3e29d54f	0.16585277
66	0x3f36cfc0	0.7141075
67	0x3f5bc17d	0.85842115
68	0x3e437fc2	0.19091704
69	0x3f5467f1	0.829711
70	0xbeac2a27	-0.3362591
71	0x3e8a5d6e	0.27024406
72	0x3e5de079	0.21667661
73	0x3f46f1b3	0.77712554
74	0xbda96d8e	-0.08272849
75	0x3e381ca5	0.17979677
76	0x3f0f22f9	0.5591274
77	0x3fe464dd	1.7843281
78	0x3e709ad6	0.23496565
79	0x3e298011	0.1655276
80	0xbf8f2598	-1.1183348
81	0x3f51aa39	0.81900364
82	0x3fd86b50	1.6907749
83	0x3ed1ff83	0.41015252
84	0xbdb38067	-0.08764725
85	0xbe73b3f8	-0.23799121
86	0xbf3f82d8	-0.74809027
87	0xbf37f6a2	-0.71860707
88	0x3f7c400d	0.98535234
89	0x3efcafc9	0.49352863
90	0xbd1d225d	-0.03836285
91	0x3ca6ba73	0.020352578
92	0xbdd50d7b	-0.10402962
93	0x3ec9ac2b	0.39389166
94	0xbfaff0dd	-1.3745381
95	0x3f347371	0.7048865
96	0xbe029b13	-0.12754469
97	0xbe199b0b	-0.1500055
98	0xbf031726	-0.51207197
99	0xbe4b67ca	-0.19863811
100	0x3f93722a	1.1519215
101	0x3f12cad9	0.5734077
102	0xbe8731a6	-0.26405066
103	0x3ecdf296	0.4022414
104	0x3ef1552b	0.4713529
105	0x3fae22ea	1.3604405
106	0x3e9fbece	0.3120026
107	0xbec8e50b	-0.39237246
108	0xbf873a4e	-1.0564668
109	0xbf991296	-1.1958797
110	0x3d7eed94	0.06223829
111	0x3efd4ef0	0.49474287
112	0xbf5f8ab0	-0.87320995
113	0x3ee3ae74	0.44469035
114	0xbed02c55	-0.40658823
115	0xbea81fb2	-0.32836682
116	0xbf036064	-0.51318955
117	0x3edbef47	0.42955992
118	0x3f0af4b8	0.5427966
119	0x3fb7cc5e	1.4359243
120	0xbf73cfd1	-0.9523898
121	0x3f3e09ef	0.7423391
122	0x3e566b74	0.20939428
123	0x3f6781f6	0.9043268
124	0xbe4f9bf8	-0.20274341
125	0x3d3faf69	0.046798144
126	0xbed69e6b	-0.41917738
127	0xbf25f9cd	-0.6483429
128	0xbf705827	-0.9388451
129	0xbe342984	-0.17593962
130	0x3f6d4de9	0.92697006
131	0x3e3b1e11	0.18273188
132	0x3ed525d5	0.41630426
133	0xbe71bd50	-0.23607373
134	0x3c36cf66	0.011157846
135	0xbe9856b0	-0.29753637
136	0xbe4ac5f9	-0.19802083
137	0x3dfaafb9	0.12240548
138	0xbed8f8e9	-0.42377403
139	0xbf1eeed7	-0.6208319
140	0xbf188e8c	-0.5959251
141	0xbf70c738	-0.94053984
142	0x3fc34160	1.5254326
143	0x3e749131	0.23883511
144	0xbe0305d8	-0.12795198
145	0xbf628be0	-0.8849468
146	0xbeeb1a7b	-0.4591864
147	0x3fc2cfb6	1.5219638
148	0x3e1f8784	0.15579039
149	0x3eda32a4	0.4261676
150	0xbf6f09f5	-0.9337457
151	0x400bff48	2.1874561
152	0x3ec1fb52	0.37887055
153	0xbf13a852	-0.5767871
154	0x4016b7c2	2.3549657
155	0x4003a1e9	2.0567572
156	0x3eed11d3	0.4630266
157	0xbe0b0a5c	-0.1357817
158	0xbf8ff689	-1.1247112
159	0xbe04d193	-0.12970571
160	0xbf1d4ef1	-0.6144858
161	0xbf898b58	-1.0745649
162	0xbef28f85	-0.47375122
163	0xbef7c549	-0.48392704
164	0x3f938998	1.1526365
165	0xbe4e27eb	-0.20132415
166	0xbf8af500	-1.0856018
167	0x3e20c07b	0.15698425
168	0x3fa8eaad	1.3196617
169	0xbf8b5834	-1.0886292
170	0x3f84c962	1.0373957
171	0xbf0f2a61	-0.5592404
172	0x3dfabc47	0.12242942
173	0xbf24ff6c	-0.6445224
174	0x3fbf830e	1.496187
175	0x3fa428e4	1.2824979
176	0xbea2d7e0	-0.31805325
177	0xbe5cb569	-0.21553577
178	0xbfa9590e	-1.3230302
179	0xbdeaedf0	-0.11471164
180	0xbf89bdd9	-1.0761062
181	0xbee167a3	-0.4402438
182	0x3e99b585	0.300213
183	0xbf192596	-0.59822977
184	0xbf6cf57b	-0.92562073
185	0xbd8cd2d2	-0.06876148
186	0xbf96e9dd	-1.179012
187	0xbea14c59	-0.3150356
188	0xbf54e78f	-0.8316583
189	0xbe1539dc	-0.14572853
190	0xbe5b7dd8	-0.21434724
191	0x3f395414	0.7239392
192	0xbeb44cdb	-0.35214886
193	0xbd234154	-0.039857224
194	0xbf2f3594	-0.6844113
195	0x3f0cfcd8	0.5507331
196	0xbc4a7641	-0.0123572955
197	0x3e7e5b78	0.2483958
198	0xbdba6b25	-0.091024674
199	0xbf45f551	-0.7732745
200	0xbecbcf67	-0.39806673
201	0xbf750174	-0.9570534
202	0xbc134bda	-0.008990252
203	0xbe3c0a87	-0.18363391
204	0x3fb5ade6	1.4193695
205	0x3eabb720	0.3353815
206	0xbe6de82d	-0.232331
207	0x3cd164e2	0.0255608
208	0xbe8590a7	-0.26086923
209	0xbefbcd06	-0.49179858
210	0xbf18769b	-0.5955598
211	0x3e62f5c0	0.22164059
212	0x3e2cd77a	0.16879073
213	0xbf0d849f	-0.5528049
214	0x3f362fff	0.71166986
215	0x3e0fc3db	0.14039557
216	0x3f4131ef	0.7546682
217	0xbefe54ea	-0.4967416
218	0xbecd646b	-0.40115675
219	0x3e8e40a2	0.27783686
220	0x3e535036	0.20636067
221	0xbff5f849	-1.9216396
222	0x3fa2451b	1.2677339
223	0x3d259b3f	0.040431257
224	0xbe78d1a2	-0.24298719
225	0xbe9a5095	-0.30139604
226	0xbfdb84e7	-1.7149934
227	0xbebee1b0	-0.3728156
228	0x40818805	4.047854
229	0x3e8074ea	0.25089198
230	0x3f41c885	0.75696594
231	0x3ff32bce	1.8997743
232	0xc022d38b	-2.5441616
233	0xbf654e03	-0.8957216
234	0xbf19dc2a	-0.6010157
235	0x3ea54146	0.32276362
236	0xbf2fef8a	-0.6872488
237	0x3f3234cb	0.69611806
238	0x3e1febfb	0.15617363
239	0xbf8b73d1	-1.0894719
240	0xbfedc35d	-1.8575245
241	0xbf1baebb	-0.6081349
242	0xbda6e419	-0.08148975
243	0xbf667720	-0.9002552
244	0xbf220fed	-0.6330555
245	0x3f01c453	0.5069019
246	0xbfa076df	-1.2536277
247	0xbec2a828	-0.38018918
248	0xbf856c73	-1.0423721
249	0xbf7425b9	-0.9537006
250	0x3f62d98b	0.88613194
251	0x3f7152fd	0.94267255
252	0x3f69a960	0.9127407
253	0xbec5cffe	-0.38635248
254	0x3f2b0669	0.66806656
255	0x3f997e77	1.1991719

weight_hh_l0 f4 [200, 50]
0	0xc00edbcf	-2.232166
1	0xbfd783bd	-1.6837078
2	0xbe35c500	-0.17750931
3	0xbed55051	-0.4166284
4	0xc01041b7	-2.254011
5	0xc07cf04e	-3.952167
6	0xc02fbfa0	-2.7460709
7	0xbff71bff	-1.9305419
8	0xbb2c9354	-0.0026332932
9	0x3fe4fe61	1.789013
10	0xbfc8e51f	-1.5694922
11	0xbe2b67b4	-0.16738778
12	0x3f90bbfe	1.1307371
13	0xc100c792	-8.048723
14	0x402b0b36	2.6725593
15	0x40899979	4.2999845
16	0xbfacca0b	-1.3499159
17	0x3f6cd69e	0.9251498
18	0x4087f92f	4.249168
19	0xbf145c31	-0.5795317
20	0x3f7d7ebf	0.99021524
21	0x3fde216a	1.7353947
22	0x3fcec6be	1.6154401
23	0xbfc0cc73	-1.5062393
24	0x402623dd	2.595939
25	0xc0a420aa	-5.1289873
26	0xbde7eb37	-0.113241605
27	0x3ea0695b	0.3133038
28	0xbf7cb7b4	-0.9871781
29	0xbe6b1d52	-0.22960404
30	0xc00a3d16	-2.1599784
31	0xbffde5b7	-1.9835728
32	0x3e6382ea	0.22217909
33	0xbecc1ac7	-0.3986418
34	0x407bdf62	3.9355092
35	0x40676143	3.6153114
36	0x3ec5faae	0.38667816
37	0x3ed1449e	0.40872663
38	0x3f2c2514	0.67244077
39	0x404097c7	3.0092638
40	0x3e96b1ce	0.2943253
41	0x4042c702	3.0433965
42	0x3f68cf52	0.90941346
43	0x3f6780dd	0.90431005
44	0x405aff7c	3.4218435
45	0xbfbd5876	-1.4792621
46	0x3df871c6	0.121310756
47	0x3f0964fb	0.5366971
48	0xc09d7ffb	-4.9218726
49	0x3fbc757d	1.4723355
50	0xbf25470f	-0.6456155
51	0xbf2ef361	-0.68340117
52	0x3f6e2db8	0.9303851
53	0x3fcbdc6a	1.592664
54	0x3e770430	0.24122691
55	0x3fb29b5a	1.395366
56	0x3e9c92ed	0.30580845
57	0xc05a740c	-3.413333
58	0x3f7b49ba	0.9815937
59	0x3ed28cd5	0.4112307
60	0x3f407230	0.75174236
61	0xbebaca71	-0.36482576
62	0x3e938c85	0.28818145
63	0x3f67670f	0.9039163
64	0x400e7b4b	2.2262752
65	0xbf9668eb	-1.1750768
66	0xbfdc2d61	-1.7201349
67	0x3faef464	1.3668332
68	0x4008fe74	2.1405306
69	0x3fa7b514	1.3102136
70	0x3f6714f7	0.90266365
71	0xbf42d5af	-0.76107305
72	0x3e6c3e4a	0.23070636
73	0xbed10b08	-0.4082873
74	0x3f883198	1.0640135
75	0xbe00f998	-0.12595212
76	0xbff7b488	-1.9351969
77	0x3fabfa55	1.343577
78	0x3f430658	0.76181555
79	0x3e7b39a8	0.24533713
80	0xbfa2fbfd	-1.2733151
81	0xbfd8787c	-1.6911769
82	0x3f8e5488	1.1119547
83	0xbff98c71	-1.9495984
84	0xbf9d4dea	-1.2289402
85	0xbdcbcc76	-0.09951107
86	0x3fa61b11	1.297701
87	0x3e5c1a96	0.21494517
88	0xbe91e6c9	-0.28496388
89	0xbee3ce84	-0.44493496
90	0xbf534568	-0.8252778
91	0x3f36f707	0.71470684
92	0x3e43d98f	0.19125961
93	0xbdbe8527	-0.093027405
94	0x3fa9f123	1.3276714
95	0x3f0f2645	0.5591777
96	0x3f9ec238	1.2403021
97	0x3fd19756	1.6374309
98	0xbf554df9	-0.833221
99	0x401ab0f5	2.4170506
100	0xbf66c1e1	-0.90139586
101	0xbec31c75	-0.38107648
102	0xbd3d0a83	-0.046152603
103	0x3e3ff2ac	0.18744916
104	0xbfe93ca8	-1.8221636
105	0xbef633f5	-0.48086515
106	0x3fa2406a	1.2675908
107	0xc0225b95	-2.5368397
108	0xbf94a917	-1.1614102
109	0x3f8b183f	1.0866774
110	0xbffe82fe	-1.9883726
111	0xbe96b744	-0.29436696
112	0x3e380c32	0.17973402
113	0x3fd0f0e5	1.6323515
114	0xbfe2f26d	-1.7730232
115	0x3f5ab0e2	0.8542615
116	0xbe2f4780	-0.17117119
117	0xbf9817ef	-1.1882304
118	0x3fcc74b4	1.5973115
119	0x3f00fa80	0.5038223
120	0x3f3a4db1	0.727748
121	0xbf31373e	-0.6922492
122	0x3feb6890	1.8391285
123	0x3eb50e83	0.35362634
124	0x3ecf5302	0.40493017
125	0x3ecb0bb6	0.39657372
126	0xbf22b251	-0.6355334
127	0xbfb6a729	-1.4269763
128	0x3fd59182	1.668503
129	0x3f0dfb3e	0.5546149
130	0x3e4bbea6	0.19896945
131	0x3f6b9d07	0.9203648
132	0x3fa0280a	1.2512219
133	0xc00355e3	-2.052117
134	0x3e9b92cf	0.30385444
135	0x4048fb67	3.1403444
136	0xbf726397	-0.9468321
137	0xc05eda52	-3.4820752
138	0x3fa242e3	1.2676662
139	0xbf3a794d	-0.7284134
140	0x3ec07ae3	0.37593755
141	0xbe43cea4	-0.19121796
142	0xc0080c74	-2.12576
143	0x3e219677	0.15780054
144	0x408a9194	4.330271
145	0x404d2af0	3.2057457
146	0x3fbdfe57	1.4843243
147	0x4082f3c9	4.092259
148	0xbf74ff70	-0.95702267
149	0x3d243c38	0.04009649
150	0xbeea8d10	-0.45810747
151	0xbef90f1c	-0.4864434
152	0xbf8d5dcb	-1.1044248
153	0x3fc45526	1.5338485
154	0xbf128dd2	-0.5724765
155	0x3d52b2d2	0.051440068
156	0xc0389309	-2.8839743
157	0xbf85ae88	-1.0443888
158	0xbf354c0a	-0.7081915
159	0xbf055e9c	-0.5209749
160	0x3ec3e651	0.38261655
161	0xbf6d3ef8	-0.9267421
162	0xbfa6e412	-1.3038352
163	0x3fece573	1.8507522
164	0x3fd598f8	1.6687307
165	0xbf1ee12b	-0.6206233
166	0xbe825904	-0.2545854
167	0x3d0fa2da	0.035067417
168	0xbf82d14d	-1.0220124
169	0xbf1f6ac1	-0.6227227
170	0xbfe6b0b0	-1.8022671
171	0xbef20fb9	-0.4727762
172	0x3f643c75	0.8915475
173	0x3ec5426f	0.38527247
174	0xbf42cd18	-0.760942
175	0xbf9d1ee6	-1.2275054
176	0x3c9abd81	0.01888919
177	0x3b5e782c	0.003394614
178	0xbfefd5c5	-1.8737112
179	0x3dbda821	0.09260584
180	0x3b4b7616	0.0031045727
181	0x3f38303a	0.7194859
182	0x3f6f514e	0.93483436
183	0x3f781f9d	0.9692324
184	0x3f9d731c	1.2300754
185	0x3efa53f7	0.48892185
186	0xbf92b0b0	-1.1460171
187	0x3fd54240	1.6660843
188	0x3e20f09a	0.15716782
189	0x3e72dcdf	0.23717068
190	0x407ea1ed	3.9786332
191	0xbf5ebdc9	-0.8700834
192	0x3f932b02	1.14975
193	0xbf27462c	-0.6534145
194	0xbe8c7728	-0.2743466
195	0x3e560055	0.20898564
196	0xbd8fb4c9	-0.07016904
197	0x3f994934	1.1975465
198	0x4029ce68	2.653223
199	0xbfabfc26	-1.3436325
200	0xbf805054	-1.0024514
201	0xbfe75b15	-1.8074671
202	0xbd9a84de	-0.07544874
203	0x3f4071fa	0.75173914
204	0x3f2bff30	0.6718626
205	0xbf006121	-0.50148207
206	0xbcd61081	-0.026130917
207	0xbd9e8b75	-0.07741443
208	0x3e828e6f	0.25499293
209	0x40367d5d	2.8514016
210	0xbf5660c3	-0.83741397
211	0xbf304066	-0.68848264
212	0xc01460b8	-2.3184032
213	0xc10c817b	-8.781611
214	0x3eb10f0a	0.34581786
215	0xbf845ef0	-1.0341473
216	0xbffcd185	-1.975144
217	0x3f17c38e	0.5928277
218	0x4001cf64	2.028283
219	0x3fce6f5d	1.6127735
220	0x3f237c3f	0.6386146
221	0xbf6aa9c0	-0.9166527
222	0xbe81d978	-0.25361228
223	0xbd4d63eb	-0.050144117
224	0x400cbca2	2.1990132
225	0xbfb0f005	-1.3823248
226	0xbf3df99e	-0.7420901
227	0x3f3c1b05	0.7347873
228	0xbf3c8534	-0.7364075
229	0x3f84cedf	1.0375632
230	0x3d178677	0.03699347
231	0xbfad4580	-1.3536835
232	0x3fe55c41	1.7918779
233	0xbeff9bc2	-0.4992352
234	0x4031cf4c	2.7782774
235	0xbf8068f0	-1.0032024
236	0x3ea55994	0.32294905
237	0x3f677962	0.9041959
238	0x3f345b79	0.70452076
239	0x3f876016	1.0576198
240	0x3d4d824a	0.05017308
241	0x3e1f66d9	0.15566577
242	0xbeb3a3fe	-0.35086054
243	0x3ea233b8	0.31680083
244	0x40070ae0	2.1100388
245	0xbf62e0a8	-0.8862405
246	0xbdc8c63e	-0.09803437
247	0x3f07a4f7	0.5298609
248	0xbf01717c	-0.5056379
249	0x3e4fa9b2	0.20279577
250	0xbe3fd94a	-0.18735233
251	0x3f4d574b	0.80211323
252	0xbfa081f4	-1.2539659
253	0x3fed5bb1	1.8543607
254	0x3ce6677a	0.028125513
255	0x3eef62da	0.46755105

bias_ih_l0 f4 [200]
0	0x3ab74a92	0.0013984016
1	0xbebb8558	-0.3662517
2	0x3ffcadd8	1.9740553
3	0xbfb361b9	-1.4014198
4	0x3fc082fd	1.5039974
5	0x3fe6a0cc	1.8017821
6	0x3d1dc264	0.038515463
7	0x3f732de7	0.94991916
8	0x3f26e335	0.6519044
9	0x3f1185df	0.56844896
10	0x400b511e	2.176826
11	0x3e678f81	0.22613336
12	0x3dc22d33	0.09481277
13	0x3ebbd4e6	0.36685866
14	0xbe9ddbcc	-0.30831754
15	0x3e6794b9	0.22615327
16	0x400f25fa	2.236693
17	0x3c878958	0.016544983
18	0x3d9afae3	0.07567384
19	0x3f587ac8	0.8456235
20	0xbf269245	-0.6506694
21	0x3f2254ea	0.6341082
22	0x3f8fa803	1.1223148
23	0xbf216e26	-0.630587
24	0xbe99f439	-0.3006914
25	0x3eab16e3	0.334159
26	0xbf2618a5	-0.64881355
27	0x3f42fb1d	0.7616442
28	0xbead7d2f	-0.3388457
29	0xbee767c8	-0.45196366
30	0x3f6cc587	0.924889
31	0x3ef92c8f	0.48666808
32	0xbe266da8	-0.16252768
33	0x3f2d8338	0.6777835
34	0xbe2653fc	-0.16242975
35	0x3f7b818f	0.98244566
36	0x3feb3dad	1.8378197
37	0x3f9e51be	1.2368696
38	0x3f65994d	0.89687043
39	0x3fd8ebd8	1.6946974
40	0x3e8a12ff	0.26967618
41	0xbd53786e	-0.051628523
42	0xbe9044ad	-0.28177395
43	0xbeaa64fc	-0.3328017
44	0xbc628341	-0.013825239
45	0x3fae02bf	1.3594588
46	0x3d730ce8	0.05933848
47	0x3ddb93a1	0.10721517
48	0x4028f3f5	2.63989
49	0xbe4f0988	-0.2021848
50	0xbfabac96	-1.3412044
51	0xbd95b5c8	-0.07310063
52	0x3fcd950f	1.6061114
53	0xbf26af4d	-0.6511124
54	0x3f227498	0.6345916
55	0x3f4c9fb9	0.7993122
56	0x3ee654d2	0.44986588
57	0xbf732e62	-0.9499265
58	0x3c715e71	0.014731989
59	0x3e68cb99	0.22733916
60	0x3d7bfe7a	0.061521985
61	0x3f1c04e9	0.6094499
62	0x3e85e524	0.26151383
63	0x3fa48b41	1.2854997
64	0x3e295c22	0.16539052
65	0x4015ca10	2.340458
66	0xbeada0ad	-0.33911648
67	0x3fdc7916	1.7224452
68	0xbc4f1710	-0.012639776
69	0xc0046bd9	-2.0690825
70	0x3ee3b41c	0.4447335
71	0x3f11a936	0.5689882
72	0x3ef5e2af	0.48024508
73	0x3f371984	0.7152331
74	0x3f2e93f1	0.6819449
75	0x3f456a4f	0.7711534
76	0x3fde80dc	1.7383075
77	0x3dbd7b64	0.092520505
78	0x3e1e2a65	0.1544586
79	0x3ea9d8b5	0.33173147
80	0xbf8622a3	-1.047932
81	0x3f9b81b1	1.2148954
82	0xbeea1fe1	-0.45727447
83	0xbf16b5a3	-0.58870906
84	0x3e1cb769	0.1530434
85	0xbf73dba1	-0.95257
86	0x3f415402	0.7551881
87	0x3cbb081d	0.022831017
88	0xbef7f3d2	-0.48428208
89	0xc02d277c	-2.705535
90	0x3f537b05	0.8260959
91	0x3f1e8ccc	0.6193359
92	0x3fa74efc	1.3070979
93	0xbeb258ac	-0.34833276
94	0x3f09bb6b	0.538016
95	0x3efecae9	0.49764183
96	0xbf6202f0	-0.8828573
97	0xbf8a4631	-1.0802671
98	0x3ef4e66a	0.47832042
99	0x3f0eda67	0.55802006
100	0xbfa0ab86	-1.2552345
101	0xbf51b526	-0.81917036
102	0xbeaa9fbc	-0.33324993
103	0x3e1d7e0a	0.15380111
104	0x3ee796d9	0.45232275
105	0xbf65a33d	-0.89702207
106	0xbf3c7687	-0.7361836
107	0x3e913d6b	0.2836717
108	0xbe9656e2	-0.2936316
109	0x3e92fda3	0.28709134
110	0xbf57e723	-0.8433706
111	0xbdf416bf	-0.11918401
112	0xbf14d955	-0.5814412
113	0x3ee7d831	0.45282128
114	0xbf176290	-0.5913477
115	0x3fa3fd69	1.281171
116	0xbe050b1b	-0.12992518
117	0x3d9fc923	0.07802036
118	0x3f4e6728	0.80626154
119	0x3edbc089	0.4292033
120	0xbfc95c14	-1.5731225
121	0xbeb764d7	-0.35819122
122	0x3edb913b	0.4288424
123	0x3f2a3400	0.66485596
124	0x3f004d3d	0.50117856
125	0xbf8d7a7b	-1.1053003
126	0x3dbcef49	0.092253275
127	0x3d900d21	0.07033754
128	0xbe36d402	-0.17854312
129	0x3e339abf	0.175395
130	0xbf09de19	-0.5385452
131	0x3dd11ecc	0.10210952
132	0x3e896693	0.2683607
133	0x3f21cbaf	0.6320142
134	0xbf000c65	-0.5001891
135	0xbf01eb16	-0.5074934
136	0x3f062e1e	0.5241412
137	0x3eb17c66	0.3466522
138	0x3fd1d9c4	1.6394582
139	0x3f58e764	0.84728074
140	0xbe4f48b2	-0.20242575
141	0xbf78c8a0	-0.9718113
142	0xbf887c4f	-1.0662936
143	0x3f5caa70	0.86197567
144	0xbed3b458	-0.4134853
145	0xbde18208	-0.110111296
146	0x3f424f3d	0.7590216
147	0x3f9b7025	1.2143599
148	0x3f18ad3c	0.59639335
149	0x3ea99818	0.3312385
150	0xbf20d896	-0.62830484
151	0x3e8e812c	0.27832925
152	0x3ec60acc	0.38680112
153	0x3f4d515e	0.8020228
154	0x3f9f9bc5	1.2469412
155	0x3f26650a	0.64997923
156	0xbe78792e	-0.24264976
157	0x3f22de24	0.6362021
158	0xbea6edfd	-0.32603446
159	0x3e677fb9	0.22607316
160	0x3fb2affb	1.3959955
161	0xbe4ec86a	-0.2019364
162	0xbf76a65d	-0.963476
163	0xbf175552	-0.59114563
164	0x3e9d9b27	0.30782434
165	0xbd3505de	-0.04419505
166	0x3b01d6d4	0.0019811885
167	0x3e3af5bf	0.18257807
168	0x3f087740	0.5330696
169	0x3f7c9b30	0.986743
170	0xbed10c8c	-0.40829885
171	0x3f8e4977	1.111617
172	0xbe1b7c71	-0.1518419
173	0x3d85ca1b	0.06532689
174	0xbf5f8641	-0.8731423
175	0xbfa06120	-1.252964
176	0xbf3f7e87	-0.7480244
177	0x3f16435b	0.58696526
178	0x3e79fca3	0.2441278
179	0x3ea20e67	0.31651613
180	0x3f5f4537	0.8721499
181	0x3f7700ca	0.9648558
182	0x3e62e038	0.22155845
183	0x3fb05dab	1.3778585
184	0x3f8c68ca	1.0969479
185	0xbeb04a85	-0.34431854
186	0x3f45bfd9	0.7724586
187	0x3eeddf40	0.4645939
188	0x4033a1f5	2.80676
189	0x3f9f9ece	1.2470338
190	0xbeefe5cb	-0.46855006
191	0xbf961f5a	-1.1728318
192	0xbef7bf29	-0.4838803
193	0x3f35739b	0.70879525
194	0x3eda8c85	0.42685333
195	0xbf23e077	-0.6401438
196	0xbf107e6b	-0.564429
197	0x3e3a3214	0.18183166
198	0x3f27fd6b	0.6562106
199	0x3f9fa591	1.2472402

bias_hh_l0 f4 [200]
0	0x3c916d3a	0.017752279
1	0xbef1323c	-0.47108638
2	0x400c2b64	2.1901484
3	0xbfb93f60	-1.4472466
4	0x3fcdda8c	1.608232
5	0x3fe49c5e	1.786022
6	0x3c2f809a	0.010711813
7	0x3f64af1c	0.89329696
8	0x3f26c3a1	0.65142256
9	0x3f3bc379	0.7334514
10	0x400d8906	2.2114882
11	0x3ddb0284	0.10693839
12	0x3dc52ff5	0.09628288
13	0x3e8de7ee	0.2771601
14	0xbe023ce9	-0.12718548
15	0x3eb6e0d9	0.3571842
16	0x4017f821	2.3745196
17	0x3df19e5b	0.11797782
18	0x3e0d3c78	0.13792598
19	0x3f6646f2	0.89952004
20	0xbf5cc276	-0.86234224
21	0x3f28e5f9	0.6597591
22	0x3fac16a2	1.3444407
23	0xbf1d61e2	-0.6147748
24	0xbea87b48	-0.32906556
25	0x3eaa31fe	0.33241266
26	0xbf037ba1	-0.5136052
27	0x3f2e2b6e	0.6803502
28	0xbf0308c7	-0.5118527
29	0xbebaf510	-0.36515093
30	0x3f788e57	0.97092193
31	0x3ec884d1	0.3916383
32	0xbdfdb2c7	-0.12387615
33	0x3f322b36	0.69597185
34	0xbe63bcc7	-0.22239982
35	0x3f5e8148	0.8691602
36	0x3fe04523	1.7521099
37	0x3f8f2a45	1.1184775
38	0x3f6c7553	0.9236652
39	0x3fb7ce2b	1.4359792
40	0x3e84d48e	0.25943416
41	0xbe541102	-0.20709613
42	0xbe0509be	-0.12991998
43	0xbee1b005	-0.44079605
44	0xbdddb96c	-0.10826382
45	0x3fc20e2f	1.5160578
46	0x3e8b662d	0.2722639
47	0x3df6ad22	0.12044741
48	0x4029456b	2.644862
49	0xbe8e867a	-0.27836972
50	0xbfa4667c	-1.2843776
51	0xbe4531b9	-0.19257249
52	0x3fd28842	1.6447833
53	0xbf1b704a	-0.60718215
54	0x3ee55715	0.44793
55	0x3f49d0e3	0.7883436
56	0x3f107508	0.56428576
57	0xbf63bc3b	-0.8895909
58	0x3db85443	0.09000447
59	0x3eadb132	0.33924252
60	0xbe202d9f	-0.15642403
61	0x3f089a56	0.533605
62	0x3e435070	0.19073653
63	0x3f95b48c	1.1695724
64	0x3d5bd675	0.05367132
65	0x4019e1fd	2.4044182
66	0xbed975bd	-0.4247264
67	0x3fcdcfcb	1.6079038
68	0xbe06ff24	-0.13183266
69	0xbff09c27	-1.8797654
70	0x3e8a24fe	0.26981348
71	0x3efcaf51	0.49352506
72	0x3efc4263	0.492694
73	0x3f5927a6	0.84826124
74	0x3f09928f	0.53739256
75	0x3f1b1860	0.6058407
76	0x3fd6a9b2	1.6770537
77	0x3dfdc239	0.12390561
78	0x3e5567cf	0.20840381
79	0x3ee6be97	0.45067284
80	0xbf8bce48	-1.0922327
81	0x3f934898	1.1506529
82	0xbf1aaccc	-0.6041992
83	0xbefbbad6	-0.49165982
84	0xbda99877	-0.082810335
85	0xbf625e14	-0.884248
86	0x3f3c831f	0.73637575
87	0x3ceccbcc	0.028905772
88	0xbf25930b	-0.64677495
89	0xc02c9968	-2.6968632
90	0x3f27861e	0.6543902
91	0x3f258442	0.64654934
92	0x3fa5cb6b	1.2952703
93	0xbde69ae5	-0.112600125
94	0x3f037f89	0.5136648
95	0x3efda200	0.4953766
96	0xbf388bb0	-0.72088146
97	0xbf6bd4f6	-0.9212183
98	0x3ee504e5	0.44730297
99	0x3ef091b6	0.4698617
100	0xbfa59302	-1.2935488
101	0xbf577e24	-0.8417685
102	0xbe89d27c	-0.269184
103	0x3d193514	0.037404135
104	0x3f0e4cb7	0.5558581
105	0xbf6b6b43	-0.91960543
106	0xbf477786	-0.77916753
107	0x3ea9dc74	0.33176005
108	0xbe60ff40	-0.2197237
109	0x3e9dc57c	0.3081473
110	0xbf7c7461	-0.9861508
111	0xbd4bcaf2	-0.04975409
112	0xbf2b3617	-0.6687941
113	0x3eb9934f	0.362452
114	0xbf129513	-0.5725872
115	0x3fa27fd3	1.2695259
116	0xbe7908ff	-0.24319838
117	0x3dda2665	0.106518544
118	0x3f31aa6d	0.69400674
119	0x3e79e816	0.2440494
120	0xbfca8185	-1.5820776
121	0xbec40380	-0.3828392
122	0x3e898403	0.2685853
123	0x3f40697c	0.75160956
124	0x3f0eb105	0.5573886
125	0xbf9cbddc	-1.224544
126	0x3dd24edd	0.10268948
127	0xbd19af7d	-0.037520874
128	0xbe0813c9	-0.13288797
129	0x3eb75b61	0.35811904
130	0xbefe0d31	-0.4961944
131	0x3dc689c5	0.09694246
132	0x3e56519a	0.20929566
133	0x3f3d7b13	0.7401592
134	0xbf2a0750	-0.6641741
135	0xbed7eefa	-0.42174512
136	0x3f30f338	0.6912112
137	0x3eacd9f8	0.33760047
138	0x3fdbde7a	1.717727
139	0x3f29390b	0.66102666
140	0xbe739be8	-0.23789942
141	0xbf62fd74	-0.8866799
142	0xbf5d0256	-0.8633169
143	0x3f3aa197	0.72902817
144	0xbea0ea9d	-0.31428996
145	0xbdf71fe8	-0.120666325
146	0x3f4d6ad8	0.80241156
147	0x3fb5f0b6	1.4214084
148	0x3f0aa656	0.5416006
149	0x3e410a71	0.1885164
150	0xbed6d53a	-0.41959554
151	0x3ea0d09b	0.31409153
152	0x3e8cbbd7	0.2748706
153	0x3f4907da	0.78527606
154	0x3fb287d2	1.3947699
155	0x3f224dcb	0.6339995
156	0xbe8ac409	-0.27102688
157	0x3f08e597	0.53475326
158	0xbe401538	-0.18758094
159	0x3e851fd8	0.26000857
160	0x3fac2ed4	1.3451791
161	0xbe15629d	-0.14588399
162	0xbf55f284	-0.83573174
163	0xbf4a1d01	-0.78950506
164	0x3e792b7a	0.24332991
165	0xbe28d4a2	-0.16487363
166	0xbdb19506	-0.08671002
167	0x3e1d9bb2	0.15391424
168	0x3f287274	0.6579964
169	0x3f8c0ac8	1.094079
170	0xbec6178e	-0.38689846
171	0x3f6b2282	0.9184953
172	0xbec4b11f	-0.38416383
173	0xbd6c4bbf	-0.057689425
174	0xbf762b66	-0.9615997
175	0xbf96f5d8	-1.1793776
176	0xbf1cd1a1	-0.6125737
177	0x3f08a228	0.5337243
178	0x3d9cf6d7	0.076642685
179	0x3eb55438	0.35415816
180	0x3f45236f	0.7700719
181	0x3f57d8ac	0.8431499
182	0x3e68c287	0.22730456
183	0x3fa43199	1.2827636
184	0x3f819864	1.0124631
185	0xbe95ee54	-0.29283392
186	0x3f5a10a2	0.8518163
187	0x3ef1f002	0.47253424
188	0x402e08ce	2.7192874
189	0x3f8d3a15	1.103335
190	0xbed550d7	-0.41663238
191	0xbf941c12	-1.1571066
192	0xbf19ad91	-0.60030466
193	0x3f10a3ce	0.56499946
194	0x3f2e7ae9	0.68156296
195	0xbf05da3b	-0.5228612
196	0xbf2e9220	-0.6819172
197	0x3e0457a4	0.12924057
198	0x3f26dd54	0.6518147
199	0x3f8429c0	1.0325241

weight f4 [74, 50]
0	0x3d41a1b2	0.047273345
1	0x3e1e3f55	0.15453847
2	0x3f39cbbb	0.72576493
3	0xbf7a5b0a	-0.97795165
4	0x3f968976	1.17607
5	0xbf970eef	-1.1801432
6	0x3e9253d9	0.28579596
7	0x3e0e9819	0.13925208
8	0xbf504c78	-0.8136668
9	0x3f117679	0.568214
10	0xbf649932	-0.8929626
11	0x3f32e941	0.6988717
12	0x3f16022c	0.58597064
13	0xbeb1a81b	-0.34698567
14	0x3f0c795c	0.5487268
15	0xbe929895	-0.28632036
16	0x3fca473c	1.5802989
17	0xbf8a8edf	-1.0824851
18	0xbf8e8d74	-1.1136918
19	0x3ec99da1	0.39378074
20	0x3ecd4a3f	0.40095708
21	0x3f459bbf	0.77190775
22	0xc0068814	-2.1020555
23	0x3eca6e88	0.39537454
24	0xbf609449	-0.87726265
25	0xbfb1d03a	-1.3891671
26	0x3eedc977	0.46442768
27	0xbdb31e71	-0.087460406
28	0x3f0b240b	0.5435187
29	0xbd6f4ecf	-0.058424767
30	0x3d25123a	0.040300585
31	0xbf1a820e	-0.603547
32	0xbdb464e9	-0.088083096
33	0xbe89c477	-0.26907703
34	0x3d7f6f9c	0.0623623
35	0x3fb798d1	1.4343511
36	0x3f54480f	0.8292245
37	0x3bd35f93	0.0064506023
38	0xbf27de25	-0.6557334
39	0x3e08f9ad	0.13376494
40	0xbded0abd	-0.11574314
41	0x3facec27	1.3509568
42	0x3fb99520	1.4498634
43	0x3ec23d51	0.37937406
44	0xbc96bf4d	-0.018401766
45	0x3d725fab	0.059173267
46	0x3dceea8a	0.101033285
47	0x3e74f83e	0.23922822
48	0x3eb2bfb0	0.3491187
49	0x3ffcbbfa	1.9744866
50	0xbeaa3212	-0.33241326
51	0x3e0b09d9	0.13577975
52	0x3f35bcfa	0.7099148
53	0xbe8fe695	-0.28105608
54	0x3f2775c1	0.65414053
55	0xbf800129	-1.0000354
56	0xbe8afcad	-0.271459
57	0xbe466d16	-0.1937755
58	0x3dde28c6	0.10847621
59	0x3efbaa39	0.49153307
60	0xbeee2d9c	-0.46519172
61	0x3c1b2f83	0.009471777
62	0xbec588c7	-0.38580915
63	0x3f97901a	1.1840851
64	0x3f3a5ac3	0.7279474
65	0xbf6f1a81	-0.93399817
66	0x3e2ac1ea	0.16675535
67	0xbe80cda6	-0.25156897
68	0xbf20e5c2	-0.6285058
69	0xbe96202c	-0.2932142
70	0x3efb18e7	0.49042436
71	0x3ebafcec	0.3652109
72	0xbf803cfe	-1.0018613
73	0xbe910e7d	-0.28331366
74	0xbf83f139	-1.030799
75	0xbf240abc	-0.6407888
76	0x3f14ce5d	0.58127385
77	0xbeab0e1e	-0.33409208
78	0xbed7e5ec	-0.42167604
79	0xbf9617c6	-1.1726005
80	0x3f4aacbf	0.7916984
81	0xbc8a9fcf	-0.016921906
82	0xbefc1c4a	-0.49240333
83	0xbecd0868	-0.40045476
84	0xbed1e50c	-0.4099506
85	0x3ffdc0e3	1.9824489
86	0x3cbb10f0	0.022835225
87	0xbe94fd28	-0.29099393
88	0xbedd6c54	-0.4324671
89	0xbeaf2614	-0.3420874
90	0xbee31d75	-0.4435841
91	0xbcb57d68	-0.022154525
92	0x3f4d6fd8	0.80248785
93	0x3f1cf195	0.61306125
94	0xbe00ff81	-0.12597467
95	0x3d02e56b	0.03195707
96	0xbf2fe489	-0.6870809
97	0x3e87b4bc	0.26505077
98	0x3d08f18d	0.033433486
99	0x40030ea4	2.0477686
100	0x3f53bfe3	0.8271467
101	0xbe9a836d	-0.30178395
102	0xbedfa607	-0.43681356
103	0x3ef40d1c	0.47666252
104	0xbff5d036	-1.9204166
105	0x3ed79f72	0.42113835
106	0xbf9d0c11	-1.2269307
107	0xbe684f36	-0.22686467
108	0x3ec146ef	0.3774943
109	0xbec4d101	-0.38440707
110	0x40885974	4.2609196
111	0x4011f0f0	2.2803307
112	0xc08cbfdb	-4.39842
113	0xbf001f51	-0.50047785
114	0xbe854ff4	-0.26037562
115	0x3d9e572a	0.07731469
116	0xbfa1cc22	-1.2640421
117	0xbff6b280	-1.9273224
118	0xbe906e52	-0.28209168
119	0xbd563d10	-0.052304327
120	0x3f9a3737	1.20481
121	0xbdd9e1b4	-0.106387526
122	0x3f316234	0.6929047
123	0xbd89333f	-0.066992275
124	0xc00cf3aa	-2.202372
125	0x3f17a07b	0.5922925
126	0x3ed6fe7b	0.41991028
127	0xbe917d36	-0.2841584
128	0xbeb83a73	-0.35982093
129	0x3f0b9c37	0.5453524
130	0x3fa5fff4	1.2968736
131	0x3ec41e9e	0.3830461
132	0xbf6781cd	-0.90432435
133	0xbf0da0db	-0.5532357
134	0xbf8b8451	-1.0899755
135	0x3f1746ca	0.5909239
136	0x3f55475c	0.8331201
137	0x3f652b1d	0.8951891
138	0xbe64bf52	-0.22338608
139	0x3f4f55b5	0.80990154
140	0x3f0c351c	0.5476854
141	0xbf077f88	-0.5292897
142	0x3df6f079	0.12057585
143	0x3ee841ab	0.453626
144	0xbf92d1d5	-1.1470286
145	0x3fd5d5f0	1.6705914
146	0x3e1c6a94	0.15275031
147	0x3ef200fd	0.4726638
148	0xbf2430ae	-0.6413678
149	0x3ecc90a2	0.39954096
150	0x3f378703	0.71690387
151	0xbfddfbac	-1.7342429
152	0xbfab729a	-1.3394349
153	0xbf90e619	-1.132022
154	0xbfcd88fc	-1.6057429
155	0xbfb75d5a	-1.4325364
156	0x4040da70	3.0133324
157	0xc1b8f537	-23.119734
158	0x3dd9bd3c	0.10631797
159	0x3f0f6e66	0.5602783
160	0xbfd41979	-1.6570274
161	0x3f091f25	0.5356315
162	0xbe73cc07	-0.23808299
163	0x3fda5809	1.7058116
164	0x3f5231b9	0.8210712
165	0xc11b8efa	-9.722406
166	0xbe9233f0	-0.2855525
167	0xc0c8f859	-6.280316
168	0x3fc33094	1.52492
169	0x3ffe8a5d	1.9885975
170	0x41355f9d	11.335843
171	0xbfd8c6ef	-1.693571
172	0xc034be15	-2.8241017
173	0xbf8d1738	-1.1022711
174	0x40154004	2.3320322
175	0x3ee07b2f	0.43843982
176	0x3fe2011b	1.7656587
177	0x400bcb14	2.18427
178	0x3f0c78b1	0.5487166
179	0xbf933ccc	-1.1502929
180	0xbffdbc47	-1.9823083
181	0xc0ea660c	-7.324957
182	0x3f838c85	1.0277258
183	0x3fcd9949	1.6062404
184	0x401ebd3c	2.4803
185	0x3f29bf0a	0.6630713
186	0x40b2c308	5.5863075
187	0xbf330fe2	-0.6994611
188	0x3f6ee9ed	0.9332569
189	0x3e6d24f7	0.23158632
190	0xbff3923f	-1.9029006
191	0x3facd634	1.350287
192	0xbfbb5501	-1.4635316
193	0x412fb2cd	10.981153
194	0xc0951b1c	-4.6595592
195	0xc011b52a	-2.2766824
196	0xbf47268f	-0.7779321
197	0x3f7abd75	0.9794534
198	0xbf63056f	-0.88680166
199	0x404bf5cc	3.1868773
200	0xbde66d24	-0.11251286
201	0xbd04fc5b	-0.032467227
202	0xc03bee2f	-2.9364126
203	0xbf6e2b80	-0.93035126
204	0x4000d477	2.0129678
205	0xbe415ece	-0.18883821
206	0xbf81e5db	-1.0148271
207	0x3d9abd0d	0.0755559
208	0x3f08e371	0.5347205
209	0x3f8c2aa6	1.0950515
210	0xc0041e9f	-2.064369
211	0xbf9f36a9	-1.2438556
212	0x3fbf137f	1.4927825
213	0xbe758163	-0.23975138
214	0x3f276147	0.6538281
215	0x3fb2e175	1.3975054
216	0xbec291d5	-0.38001886
217	0xbf9b092d	-1.2112175
218	0x4052f40e	3.296146
219	0x3d3122de	0.043246143
220	0xbf6a6ec7	-0.9157528
221	0xbedab201	-0.4271393
222	0x3ecb693a	0.3972872
223	0x400c3450	2.190693
224	0xbf078abc	-0.52946067
225	0xbff185a8	-1.8868914
226	0xbcbdf237	-0.023186786
227	0x3f21e971	0.6324683
228	0x3ffb6aa9	1.9641925
229	0xbef136a6	-0.47112006
230	0xbf06fc0c	-0.52728343
231	0x3e71dca2	0.23619321
232	0x40081a3f	2.126602
233	0xbf9abd4f	-1.2089022
234	0xc0854cee	-4.165641
235	0xbf521cc1	-0.82075125
236	0x3f39474d	0.7237442
237	0xbf242b07	-0.64128155
238	0x3f9edf4b	1.2411894
239	0x40000111	2.000065
240	0x3f7c3c88	0.98529863
241	0x3fbd7964	1.480267
242	0xbe5dcdaa	-0.21660486
243	0x3ef7709a	0.48328096
244	0x4005b570	2.089199
245	0xc0413dea	-3.019404
246	0x3fc6b73a	1.5524666
247	0x3fb3497c	1.4006801
248	0xbf9b79dd	-1.2146565
249	0x402d2f8e	2.7060275
250	0xbf3f0443	-0.7461588
251	0xbf860c37	-1.0472478
252	0xc07b71ab	-3.9288127
253	0x4075a4cf	3.838184
254	0x3ed5549b	0.4166611
255	0x3fdf92b5	1.7466646

bias f4 [74]
0	0x3da2343d	0.0792012
1	0xbe6698fc	-0.22519296
2	0x3f4046c0	0.75107956
3	0xbf37435f	-0.71587175
4	0x402fece2	2.7488332
5	0xc0560dc2	-3.3445897
6	0x4027ac30	2.6198845
7	0xbf2203e5	-0.6328719
8	0xc00757cf	-2.1147344
9	0x3da2728b	0.079320036
10	0xbf482a84	-0.78189874
11	0x3e9af7d2	0.30267197
12	0xbf53664a	-0.82577956
13	0xbf6e486c	-0.93079257
14	0x3fdc2db3	1.7201446
15	0x4008fa94	2.140294
16	0x3f552f20	0.8327503
17	0x3e079d20	0.13243532
18	0xbe846ada	-0.2586277
19	0xbf2e55b9	-0.6809955
20	0xbf00bd84	-0.5028918
21	0xbf8c8209	-1.0977184
22	0xbf8a0562	-1.0782893
23	0x3f925f81	1.1435395
24	0x3e2bf99c	0.16794437
25	0x3fae84d2	1.3634284
26	0xc039566f	-2.8959005
27	0xbd9f0ae7	-0.07765751
28	0x4007dd84	2.1228952
29	0xbfe6f771	-1.8044263
30	0xbf3fbf52	-0.74901307
31	0xc0253623	-2.5814292
32	0x3ec290c1	0.38001063
33	0x3e46c1f0	0.19409919
34	0xbf0f5c31	-0.5600005
35	0xbf8da116	-1.1064785
36	0xc067b140	-3.6201935
37	0xbf8a5029	-1.0805713
38	0xbf42b33b	-0.76054734
39	0xbe9097ad	-0.2824072
40	0xbf01c12b	-0.50685376
41	0xbee7dc7f	-0.45285413
42	0xbf477307	-0.7790989
43	0xbef48d48	-0.4776404
44	0xbf776ffc	-0.9665525
45	0xbee93a19	-0.45552137
46	0xbf2960f4	-0.66163564
47	0xbf1c97f9	-0.6116939
48	0xbcf06131	-0.02934322
49	0xbf6fc7d0	-0.93664265
50	0xbf03c2f1	-0.5146933
51	0xbe7bcd34	-0.24589998
52	0xbf77af1e	-0.9675158
53	0xbeeed615	-0.46647707
54	0xbe3b1a8b	-0.18271844
55	0xbfa33a43	-1.2752155
56	0xbf7f848a	-0.99811614
57	0xbf11edd4	-0.5700352
58	0x3d910c82	0.07082464
59	0x3fd7f827	1.6872605
60	0xbf83a6fc	-1.0285335
61	0xbf843003	-1.0327152
62	0xbf54e220	-0.8315754
63	0xbfb1785c	-1.3864856
64	0xbea40598	-0.32035518
65	0xbf68fac0	-0.91007614
66	0xbf45d44b	-0.7727706
67	0xbe94d2b2	-0.29066998
68	0x3e327bc9	0.17430033
69	0xbf93b55b	-1.153972
70	0xbf5dbc6d	-0.8661564
71	0xbe8bc01a	-0.27295
72	0xbdeb5ac5	-0.11491922
73	0xbe6cf7fc	-0.23141474

weight f4 [50, 2]
0	0x3f092ba5	0.5358222
1	0x3f152367	0.58257145
2	0x3e94411a	0.2895592
3	0x3f2ac6f9	0.6670986
4	0xbd77ed90	-0.06052929
5	0xbe884520	-0.26615238
6	0x3e08ca78	0.13358486
7	0x3d1dbd90	0.03851086
8	0xbe4324f0	-0.1905706
9	0xbf2e2467	-0.68024296
10	0x3f2bdec7	0.67136806
11	0x3e550ab0	0.20804858
12	0xbe38514c	-0.17999762
13	0x3e164100	0.14673233
14	0x3f0ee773	0.55821913
15	0x3ef666c6	0.48125285
16	0xbe660900	-0.2246437
17	0x3d497c80	0.049190998
18	0xbf31c192	-0.6943599
19	0xbece04e5	-0.4023811
20	0x3ccb6640	0.02482903
21	0xbecc26e1	-0.39873412
22	0xbe1428e4	-0.14468724
23	0xbe800e4c	-0.25010908
24	0x3d674d50	0.056470215
25	0xbea6b4c1	-0.3255978
26	0xbec46a98	-0.38362575
27	0xbe9ad4e7	-0.30240557
28	0x3e144284	0.14478499
29	0x3de872f8	0.113500535
30	0xbe1a2140	-0.15051746
31	0xbdff12f0	-0.12454784
32	0x3f1b2a91	0.60611826
33	0xbf21b3ca	-0.6316496
34	0xbd83f700	-0.06443596
35	0xbf0d9aa7	-0.55314106
36	0xbe6fc25a	-0.23413983
37	0xbf231a7f	-0.63712305
38	0x3ef33d62	0.4750777
39	0x3f1ad0ad	0.60474664
40	0xbebaa469	-0.3645356
41	0xbf0e5591	-0.55599314
42	0x3ed5ee3e	0.41783327
43	0xbefd1d0b	-0.4943622
44	0xbf1971d5	-0.5993932
45	0xbeedb0c5	-0.46423927
46	0xbf0483ee	-0.5176381
47	0xbf07b262	-0.53006566
48	0xbe39d294	-0.18146735
49	0x3ea8bff6	0.32958955
50	0xbe6cff10	-0.23144174
51	0xbf11658e	-0.56795585
52	0x3ef7f5a2	0.4842959
53	0xbf23aace	-0.639325
54	0x3ee2dc0a	0.443085
55	0x3e233e40	0.15941715
56	0xbef97552	-0.4872232
57	0xbf07a280	-0.5298233
58	0x3f266f6f	0.65013784
59	0x3d324930	0.04352683
60	0x3e4e547c	0.20149416
61	0xbce1db60	-0.027570426
62	0xbd841eb0	-0.06451166
63	0x3f21f1a1	0.6325932
64	0xbee604c5	-0.44925514
65	0x3d7ffb60	0.06249559
66	0xbd8afae0	-0.06786132
67	0xbecbfd78	-0.3984182
68	0x3ebb9c4a	0.36642677
69	0xbf19ece1	-0.60127074
70	0x3e852b1a	0.26009446
71	0xbee2c24b	-0.4428886
72	0xbf0b5139	-0.5442081
73	0xbe44e390	-0.19227433
74	0x3cd988e0	0.026554525
75	0xbea83648	-0.32853913
76	0x3e8db4aa	0.27676898
77	0xbeb0e2e0	-0.34548092
78	0xbee4a471	-0.4465671
79	0xbeb2dc69	-0.34933785
80	0xbdea48b8	-0.11439651
81	0x3dd50e80	0.10403156
82	0x3eb3af66	0.35094756
83	0xbf11ad5e	-0.5690516
84	0xbf2a7f19	-0.66600186
85	0xbf253452	-0.6453296
86	0x3e4abd88	0.19798863
87	0xbe6f6004	-0.23376471
88	0xbe5e992e	-0.21738121
89	0xbf1e088d	-0.617318
90	0x3e6c973c	0.23104566
91	0x3f0f9505	0.5608676
92	0x3eef6aa2	0.46761042
93	0xbde84e98	-0.113431156
94	0xbf09625d	-0.53665715
95	0x3f1b98d7	0.6078009
96	0x3dd71e50	0.105038285
97	0xbe4eb724	-0.2018705
98	0xbf34111e	-0.7033862
99	0x3ed1d79a	0.40984803

bias f4 [50]
0	0x3f2d7dd9	0.67770153
1	0x3f01789b	0.50574654
2	0x3c020200	0.007935047
3	0x3ebde09a	0.3708542
4	0xbec885da	-0.3916462
5	0x3e7a3ed4	0.2443803
6	0x3f2ea179	0.6821514
7	0xbec4e9e8	-0.38459706
8	0x3ed128ce	0.40851444
9	0x3ea1f332	0.31630856
10	0xbf348354	-0.7051289
11	0x3f24f1e9	0.64431626
12	0x3f0e72cf	0.55643934
13	0xbee665da	-0.44999582
14	0x3eb3931a	0.35073167
15	0xbeb5e9d5	-0.35529962
16	0xbf23b9f8	-0.6395564
17	0xbd8d6c40	-0.06905413
18	0x3e9eefca	0.3104232
19	0xbd33e130	-0.043915927
20	0x3e4a71d4	0.19769984
21	0x3b372000	0.0027942657
22	0x3eda803a	0.42675954
23	0xbe8104bc	-0.25198925
24	0x3f03dfb5	0.51513225
25	0x3e04f5d8	0.12984407
26	0xbf1e6dfa	-0.6188656
27	0xbee15c55	-0.44015756
28	0x3db98750	0.09059012
29	0x3df98300	0.121831894
30	0xbf0ae566	-0.54256284
31	0xbedacd8a	-0.4273494
32	0x3caa2ec0	0.020774245
33	0xbf2b6734	-0.6695435
34	0x3dfd3ab8	0.12364715
35	0xbf250aa0	-0.6446934
36	0x3f082d8f	0.53194517
37	0x3eb94862	0.36188036
38	0x3f0c6d73	0.54854506
39	0xbee28c06	-0.44247454
40	0xbeed59da	-0.46357614
41	0x3f22dbbf	0.63616556
42	0xbf1f309d	-0.62183553
43	0x3e004b68	0.12528765
44	0x3e32a65c	0.17446274
45	0x3ef7e00e	0.48413128
46	0x3f30d16d	0.6906956
47	0x3ee7b162	0.4525252
48	0xbec095f5	-0.37614408
49	0x3f1b7fdd	0.6074198
