model/saved_models/en_encoder/model_epoch_16.pt (torch_old, 115280 bytes, 11 tensors)

weight f4 [74, 20]
000000 30 1c 39 3e eb 55 8f bd 92 20 b8 be d7 4a 6a bf
       0.18077159 -0.069988094 -0.3596235 -0.91520447
000010 28 32 20 3f 30 fa d0 3c 02 5b 74 3f 29 c9 83 3d
       0.6257653 0.025509924 0.95451367 0.06434853
000020 ba e8 b8 3e 08 7d 95 3f 4d c9 ac bf f1 9a 02 bf
       0.36115056 1.1678782 -1.3498932 -0.5101767
000030 e5 9e 71 3e 76 88 75 be 2c ce 6b bf c2 8a c5 3f
       0.2359577 -0.23977837 -0.9211147 1.543297
000040 53 a6 ac 3f 3a fe 0e be 04 54 92 3e 23 12 77 3f
       1.3488258 -0.13964167 0.28579724 0.9651205
000050 7f 89 54 bc f9 ed ab 38 70 49 c1 3b 8d 69 3c 3b
       -0.012972235 8.198241e-05 0.005898647 0.0028749437
000060 64 54 a2 3b 23 e8 ee bd c8 e9 9a 3b 41 2e 71 bb
       0.004953908 -0.1166537 0.004727576 -0.003680125
000070 92 6b 76 3c 8d f5 26 3c ce 4a 2f 3e 24 59 f2 3e
       0.015040295 0.01019038 0.1711838 0.47333634
000080 4f 89 22 3a de 4b 82 3c 09 d9 00 ba ce f1 bb bb
       0.000620027 0.015905317 -0.0004915153 -0.0057356125
000090 06 11 60 bb 60 fd cf 3a fa cd 93 3b 98 f3 f1 3a
       -0.0034189834 0.0015868358 0.0045106383 0.0018459437
0000a0 ed 79 b3 3e d4 63 0a be bb 1e 13 3f d4 42 4d be
       0.3505396 -0.13514644 0.57468766 -0.20045024
0000b0 76 95 8c bf d7 89 53 bd 3c 59 22 3e 49 82 ee be
       -1.0983112 -0.051645126 0.15854353 -0.46583775
0000c0 7b 02 dd 3e 75 16 aa be 8e 9b e3 3e 5e c1 89 be
       0.43165955 -0.33220258 0.44454616 -0.2690534
0000d0 75 58 a4 be d6 7a ca 3f 0f 84 d0 3f 60 8c 17 bf
       -0.32098737 1.5818737 1.6290301 -0.5919857
0000e0 0d 68 8f 3e d3 d4 4b bf 97 9b 99 bf b0 ae 1c 3c
       0.28009072 -0.7962162 -1.2000607 0.009563133
0000f0 e1 65 47 3f 27 42 c4 3f d8 0b ce 3f eb 73 ce be
       0.7788983 1.5332688 1.6097364 -0.40322813
000100 d7 9f 55 bf 79 09 19 3f 01 8f 52 bd 6c 37 84 bd
       -0.8344702 0.5978008 -0.05140591 -0.064558834
000110 87 77 fe be 9c 77 ee 3e 66 b7 83 be f3 9b 88 bf
       -0.49700567 0.4657563 -0.2572586 -1.0672592
000120 7f 92 00 40 50 77 09 bf 7b 25 64 3e 2b 72 32 3f
       2.0089414 -0.5369768 0.22279923 0.69705456
000130 e9 9c b6 bf d8 eb 67 3f a5 10 14 3e f2 78 69 3e
       -1.4266635 0.90594244 0.14459474 0.22800043
000140 90 5b 1f 40 40 a1 9c bf 9b 5d 81 3f c8 55 0e 3f
       2.4899635 -1.223671 1.0106691 0.5559964
000150 7e f7 cb bf 86 a4 a2 bf 36 b9 30 3f 9f d7 48 be
       -1.5934904 -1.2706459 0.6903261 -0.19613503
000160 a0 98 b0 3e b1 0b af be 7a a5 f3 3e d9 2e 44 bf
       0.34491444 -0.34188607 0.47587186 -0.76633984
000170 4b 82 d6 be c9 bd df be 8c 27 80 bf 94 a0 d1 be
       -0.4189628 -0.43699482 -1.0012069 -0.40942824
000180 31 5e d5 bf 08 bd ae bf 26 7f 29 be 1e 56 76 3f
       -1.666937 -1.3651438 -0.1655241 0.96225154
000190 69 39 01 3d 43 ed 3d bf e0 77 98 be 03 9f 8c 3c
       0.03154889 -0.7419016 -0.29778957 0.017165666
0001a0 2f 7a 35 be bf a1 08 be 94 81 96 3e 2d 46 b1 3f
       -0.1772239 -0.13342951 0.29395735 1.3849541
0001b0 1c a1 f7 3d a4 ac 22 40 30 f5 23 bf 60 ac fc bf
       0.12091276 2.5417871 -0.64046 -1.9740105
0001c0 4d bd a8 be d7 65 02 3c b9 1d 6d 3f 1e 39 f1 bf
       -0.32956925 0.007958851 0.9262348 -1.8845556
0001d0 fb f7 2a 3e 8c d0 ea 3e 0e 13 e2 bf 31 03 16 3f
       0.1669616 0.45862234 -1.7662065 0.5859862
0001e0 fa 1f ed 3e e6 4a a7 bd c7 20 ee bd 97 39 62 3d
       0.4631346 -0.081685826 -0.116273455 0.055230703
0001f0 f5 9e 31 be 18 7a cc bc fa 39 be 3d c3 c2 19 bf
       -0.17345794 -0.024960563 0.09288402 -0.6006281
000200 5d 6c 16 be 58 96 5c 3f 7d 05 59 3e 27 71 12 be
       -0.14689775 0.86166906 0.211935 -0.14300977
000210 d0 13 18 3f e7 01 ca 3b 4d 18 95 3d 22 db 00 bf
       0.5940523 0.0061647776 0.07280026 -0.5033437
000220 8c 82 24 be b9 b3 64 bd ff 7c 43 3e 09 5f 8e bc
       -0.16065425 -0.05583546 0.19090651 -0.0173793
000230 da 01 9d 3e ae 4a 3f bf a4 55 3e 3f 88 3d 63 3f
       0.30665475 -0.7472333 0.7434943 0.88765764
000240 5c 65 12 40 2d 0d 76 3f e4 cc c3 bf 65 1b 95 be
       2.2874365 0.96113855 -1.5296903 -0.29122463
000250 af 5f e9 bd 16 99 a0 be 92 1a 21 bf 97 ba 91 3f
       -0.11395203 -0.31366795 -0.6293117 1.1385068
000260 21 c4 7d bf a6 11 2e 3e a8 c8 9c 3f fb 2a 70 be
       -0.99127394 0.1699892 1.2248735 -0.23453896
000270 09 51 87 bf 14 7e 27 bf 1f a2 cb 3f e0 11 33 bf
       -1.0571605 -0.65426755 1.590885 -0.6994915
000280 f1 63 65 bf 4e 8f 87 3d 1d 86 66 bd 99 d6 15 40
       -0.89605623 0.0661913 -0.056280244 2.341223
000290 ba 4c 2e c0 ee 79 02 3f 05 81 50 bf 04 f2 7b be
       -2.723433 0.509673 -0.8144687 -0.2460404
0002a0 67 bc 93 3b 17 09 03 40 a3 53 21 be 2a eb 5f be
       0.0045085433 2.0474298 -0.15754561 -0.21867052
0002b0 0c 0c ad bf 0e 9f 6a bd 27 4f ed bf 13 44 b1 bf
       -1.3519301 -0.057280593 -1.853978 -1.38489
0002c0 3a d8 b0 be ec cc 94 bf c5 f2 13 3e 9c 50 2a 3e
       -0.34539968 -1.1625037 0.14448078 0.16632313
0002d0 da 2d 40 3f b3 c5 69 3f 91 26 dd bf ee 1b a7 3f
       0.75069964 0.9131729 -1.7277395 1.3055398
0002e0 37 96 75 3f dd ac 87 3f bd 3e 21 3f 77 b1 a4 bf
       0.95932335 1.0599629 0.62986356 -1.2866658
0002f0 c4 fe 2f bf 94 d8 08 40 ea eb 02 3f 24 0b 9c 3f
       -0.68748116 2.1382189 0.51141226 1.21909
000300 49 90 43 3e 2f 5d af be 3b d3 e5 3f 58 1b b2 3f
       0.19098009 -0.3425078 1.7955087 1.3914595
000310 09 0d 8a 3f 78 6d 1d bf cd ee ea be 79 46 11 3f
       1.0785228 -0.6149516 -0.45885316 0.5674816
000320 f0 d2 95 3c b7 96 d4 bf 51 f7 8e 3f 07 08 05 3f
       0.01828906 -1.6608495 1.1169225 0.51965374
000330 e4 03 9f bf df 39 76 bf a0 13 ae bd 29 c6 f2 3d
       -1.2423062 -0.96182054 -0.08499837 0.11854202
000340 21 cc 98 3e 8b f2 39 bf 46 ad 9f be 37 7e e9 be
       0.29843238 -0.72635716 -0.31186885 -0.45604107
000350 07 e2 24 3f b6 76 1b 3f 24 ad 9e 3f bb 84 3b 3f
       0.6440739 0.60728014 1.2396588 0.73249406
000360 24 12 01 3f be 10 5f 3f 72 5e 8c be 5f 34 3f bf
       0.50418305 0.8713492 -0.27415806 -0.74689287
000370 27 4f 15 bf 8c 61 bd 3e 70 3d 0e bf 76 eb cb be
       -0.583239 0.36988485 -0.55562496 -0.3982808
000380 fd f5 14 bf 63 22 62 be 9a ca 5d 3c 64 89 9c be
       -0.5818785 -0.2208343 0.0135370735 -0.3057357
000390 63 e7 f8 bc cc 54 52 3f 7c be ca 39 71 14 e5 be
       -0.030383771 0.8216064 0.00038670364 -0.44742158
0003a0 72 05 52 3f ba 45 c2 bf cf a9 1d 3f 9a b1 ee bf
       0.8203956 -1.5177529 0.6158723 -1.864795
0003b0 50 4c 7a bf 59 7b 81 3d b1 df e8 be d4 58 d4 be
       -0.97772694 0.06322355 -0.45483163 -0.4147402
0003c0 6c d5 bf 3f 62 4b 23 bd 27 1b 4e bf 0c cb 94 bf
       1.4987006 -0.039866813 -0.8051018 -1.1624465
0003d0 b6 b4 da 3e 76 58 90 be 02 47 51 bc 1e bf 60 bf
       0.42715997 -0.2819249 -0.012773277 -0.8779162
0003e0 49 1c a5 be 83 62 3b 3e 47 28 6e bf ae d7 9f bf
       -0.32248142 0.18299298 -0.9303021 -1.2487695
0003f0 18 41 8f 3f d7 36 f4 bf 65 0e 07 bf e9 52 8a 3f
       1.119174 -1.9079236 -0.5275634 1.0806552

weight_ih_l0 f4 [200, 20]
000000 54 31 23 3f 9e 25 1d 40 52 ea a7 be 0f 84 f6 3f
       0.63747144 2.455421 -0.3279596 1.9259051
000010 14 a6 25 be 99 29 0d 40 f7 a1 a4 bf 1a 3d 3b bf
       -0.16176635 2.205664 -1.2861928 -0.7314011
000020 a7 fc 72 bf d9 fc 9a 3d c6 67 dd bf 03 83 9a c0
       -0.94916767 0.07567758 -1.7297294 -4.8284926
000030 96 69 11 c0 51 4c 07 3f 86 d2 a8 bf 28 ba ea 3f
       -2.2720695 0.52850825 -1.3189247 1.833806
000040 33 45 56 3f 8d de b5 bf 96 3d 07 c0 c2 f6 c4 3c
       0.8369934 -1.4208542 -2.113134 0.024043445
000050 9f d7 37 be b1 52 af 3e 46 31 86 3f 28 f2 14 be
       -0.17953347 0.34242776 1.0483787 -0.145455
000060 ed 96 35 3e 2e 4e 88 bf 46 71 e6 3d e1 44 87 bf
       0.17733355 -1.0648859 0.11252074 -1.0567895
000070 4d 0e 77 be 60 bf 2f be c4 da 54 3f 3e 51 49 3f
       -0.24126549 -0.17162848 0.8314631 0.7863959
000080 aa 55 f3 3e 9d af c8 3e 4f 58 a0 bd 34 44 a2 bd
       0.47526294 0.39196482 -0.078293435 -0.07923165
000090 9a fe 26 be 45 fc 67 3f 23 8b 00 3f c4 f8 a5 bf
       -0.1630806 0.9061931 0.50212306 -1.2966542
0000a0 37 c5 ac 3f 5b cf d6 3e 56 e5 0a 3f 24 83 85 bf
       1.3497685 0.41955075 0.5425619 -1.0430646
0000b0 c5 ec 9e 3f da 96 9f 3e 8f f5 84 3e 9e fd 03 be
       1.2416006 0.31169778 0.25968596 -0.12889716
0000c0 c9 94 73 bf bd fa a6 be 5a 2a b8 bf c2 07 3b bf
       -0.95148903 -0.32613173 -1.4387925 -0.7305871
0000d0 b1 56 b4 3e a6 f0 de 3f 8c 91 07 be ce 7c 77 3f
       0.3522239 1.741719 -0.13239115 0.9667481
0000e0 e2 06 b0 3f e8 47 84 bf ea 33 ce 3e 6b 2e bf be
       1.37521 -1.0334444 0.40273982 -0.37340102
0000f0 be 65 5f 3f 4e db 1d 3f 94 36 1f 3e 20 3f ca bd
       0.8726462 0.6166276 0.15548164 -0.098753214
000100 89 52 59 3e 58 00 9d bf b0 8a 56 3f 8b f8 06 bf
       0.21222891 -1.226573 0.8380537 -0.52722996
000110 b4 7f f7 3d 96 c2 17 3e be 44 9c 3e ba 7f dc 3e
       0.12084904 0.14820322 0.30521196 0.43066198
000120 9e a2 f1 3e f2 fa 89 3f e2 f9 a1 3e ce 6d cc be
       0.4719438 1.0779707 0.31635958 -0.39927524
000130 ee 4f ad 3f a7 77 4c 3e 4c 0e 43 bf fe 4f f6 be
       1.3540018 0.19967519 -0.7619369 -0.48107904
000140 97 55 c0 3e 38 64 8e bf 58 2e 00 bf c2 54 65 bf
       0.375653 -1.1124334 -0.50070715 -0.89582455
000150 cd 1b 92 3e f1 7d 0f 3f 69 af be be 07 0b d1 bc
       0.28536835 0.56051546 -0.37243202 -0.025517954
000160 c5 ce f6 3e 37 2c 9b 3f c7 a8 96 bf 69 f5 b8 bf
       0.48204628 1.2122868 -1.1770257 -1.4449893
000170 b5 7e 97 be 62 5e ea be 37 8f 04 bf e5 c8 37 bf
       -0.29588857 -0.45775133 -0.5178103 -0.71790916
000180 82 8e 05 be 8a c9 87 3d a8 d7 5b bf bd 38 33 3c
       -0.13042644 0.066302374 -0.8587594 0.01093882
000190 a9 c3 0b 3f 0d a1 d0 3e 5a 1d ea 3e ce 6a 9e be
       0.5459543 0.40747872 0.45725518 -0.3094086
0001a0 bb 7c a9 bf c8 6f 86 3d 0c d9 36 3f 8c ad 8a 3f
       -1.324119 0.06564289 0.7142494 1.0834212
0001b0 03 55 a9 3f 8a 02 0b c0 ad f8 92 be 24 bb de 3f
       1.3229069 -2.17203 -0.2870535 1.7400861
0001c0 af 12 6a c0 a5 a2 0b c0 32 c2 34 3f 90 29 91 bf
       -3.6573904 -2.181802 0.7060882 -1.1340809
0001d0 4c c6 4d 3f 62 e3 ec 3f 98 d9 36 3f af e7 f5 3e
       0.803807 1.8506892 0.7142577 0.48028323
0001e0 6b db 0c 3e 8a 47 aa 3e c8 bb f9 3e f8 bd 94 3c
       0.13755576 0.33257705 0.48776078 0.01815699
0001f0 f0 26 91 bf 8f a2 a3 bf fe bc 13 3f 65 fe 45 bf
       -1.1340008 -1.2783984 0.57710254 -0.773413
000200 c1 32 fa 3d c2 eb b4 bf df 54 9f 3f b1 70 c1 3e
       0.12216712 -1.4134448 1.2447776 0.3778129
000210 8b 51 bd bf d4 1d 94 be 43 ff e7 bf f7 cb 83 3f
       -1.479051 -0.28929007 -1.8124775 1.029662
000220 e4 24 e2 be e5 24 88 3d 09 01 8f 3d d1 87 a7 bf
       -0.4416877 0.06647662 0.06982619 -1.3088323
000230 39 b8 c6 3e 6e 97 4d 3f af a1 8a bf 9c 55 66 3e
       0.38812426 0.8030919 -1.0830592 0.22493595
000240 68 89 1b 3f 5f 02 db 3b 0c be 3b 3e 82 7d 4d bf
       0.6075654 0.0066836323 0.18334216 -0.80269635
000250 5e 68 53 bf 8b e7 84 3f f6 14 54 3e 0e e1 3a 3e
       -0.82581127 1.0383161 0.20711121 0.18249914
000260 24 e7 80 3e ab 85 6e be 5d e2 c7 bd d5 02 1e bf
       0.25176346 -0.23293178 -0.09759972 -0.6172307
000270 cb a7 08 3f 04 ae ea be 30 1a 95 bb 6a 11 8d 3e
       0.5338103 -0.45835888 -0.004550241 0.27552348
000280 94 c4 db be 5b 0b 32 3f c0 57 8c 3f ea fd b8 be
       -0.42923415 0.6954858 1.0964279 -0.3613122
000290 c1 b2 28 3e 6d 45 bb be bd 5e 1f be 7b 28 44 bf
       0.16474439 -0.36576405 -0.15563484 -0.7662427
0002a0 e3 74 03 bf 7c f6 b6 be cb 54 f2 3e 07 0c b4 bf
       -0.5135023 -0.35734928 0.47330317 -1.406617
0002b0 d5 d2 6f 3f 3a 7c c9 3e 30 e5 20 3b 09 e8 d2 3f
       0.9368108 0.3935259 0.002455067 1.6477062
0002c0 df 8c 05 3f 5f 24 f0 be 6a 9c c8 bf f2 8a b4 be
       0.5216808 -0.4690275 -1.5672734 -0.35262257
0002d0 29 a7 f4 be 6b 84 37 c0 f3 73 10 3f ef 96 78 3f
       -0.47783783 -2.8674572 0.56426924 0.97105306
0002e0 88 25 ef 3f 56 15 07 40 58 e7 32 c0 fb 25 ee bf
       1.8683329 2.1106772 -2.79537 -1.8605341
0002f0 c9 06 ef 3f 3c cd 4b 40 64 bd b5 bf 6d e1 95 be
       1.8673946 3.1844015 -1.4198422 -0.2927355
000300 2c 84 30 bf e8 52 6b 40 0a ae 99 3e 6c e8 ad 3f
       -0.6895168 3.6769352 0.30015594 1.3586555
000310 3f e9 a5 bf f8 59 00 40 a3 af cc 3f 9e 80 f0 3d
       -1.2961806 2.0054913 1.59911 0.11743282
000320 43 f0 21 bf 09 bf b4 bd 0e ba 6e be 30 82 99 be
       -0.63257235 -0.088254996 -0.23313162 -0.29982138
000330 90 0e aa 3f 04 9b 3d 3e ab 45 e5 3e 19 8b 75 3f
       1.3285694 0.18516165 0.44779715 0.9591537
000340 69 4a 32 3f a2 fe 1d 3e 20 9c 2c bf 49 12 4a 3e
       0.6964479 0.15429166 -0.6742573 0.19733538
000350 d9 7f 08 bf ae 53 28 3f bf 4f 43 be b6 74 cf 3e
       -0.5332008 0.65752685 -0.1907339 0.4051873
000360 74 d1 f7 be f0 27 5d 3d 1a bb 21 3e d0 4d 03 3e
       -0.48401988 0.053993165 0.1579403 0.12822652
000370 03 9e c2 be d8 85 8d 3f e7 0b 50 bd 78 2b 41 bf
       -0.38011178 1.1056471 -0.0507926 -0.75456953
000380 b6 12 36 3e 76 f9 79 bf 5a b1 dd 3f ba 79 11 3f
       0.17780575 -0.9764627 1.7319748 0.56826365
000390 91 e9 06 bd 31 4f 57 bf 4b 85 c7 3e a5 1d dc 3e
       -0.03293759 -0.8410521 0.38968882 0.42991367
0003a0 3d 6d 8d 3e 45 88 2b bf 1f 24 76 3e 56 34 45 be
       0.27622405 -0.67004806 0.24037217 -0.19258246
0003b0 30 2a 2d bc 21 1f 29 bd 5d 16 72 3e b2 51 a5 3e
       -0.01056914 -0.041289452 0.23641343 0.3228889
0003c0 65 7e 87 bc 39 30 b1 be a4 f5 25 bf 2d d6 87 bf
       -0.016539762 -0.34607103 -0.6482794 -1.0612236
0003d0 be 32 ae bb 49 42 05 3e 6d 31 26 3f 70 42 8e 3d
       -0.0053161075 0.13013567 0.6491917 0.06946266
0003e0 61 9e 10 bf ad d5 de be 85 3e 77 be 51 8d 67 be
       -0.5649167 -0.43522397 -0.24144943 -0.22612502
0003f0 dd 3a 6b be a9 f9 19 bf 5b 44 cb 3d f5 a6 bc 3c
       -0.22971673 -0.60146576 0.09925147 0.02302883

weight_hh_l0 f4 [200, 50]
000000 8e 6e 98 3f d1 61 43 40 d2 7e b7 3f 2e be a0 3e
       1.1908739 3.0528452 1.4335577 0.31395096
000010 53 ca dd bf ce 33 83 c0 53 46 c3 bf 36 fb a3 3f
       -1.732737 -4.100074 -1.5255836 1.2811038
000020 47 4d 0f 3e 54 e5 c7 bf 9f 7c 8d c0 87 ca d0 3e
       0.13994323 -1.561686 -4.4214625 0.40779516
000030 44 60 88 be b4 92 f1 be 1f 7c d1 3e 93 eb a0 bf
       -0.26635945 -0.47182238 0.4091501 -1.2571892
000040 ce 91 9b bf 7b e3 14 3d ee 30 cd 3e fd 54 af bf
       -1.2153871 0.036349755 0.40076393 -1.3697811
000050 99 30 6e be eb 10 05 3f 76 75 85 40 71 60 9d c0
       -0.23260726 0.5197894 4.1705885 -4.9180226
000060 9d c7 e4 3e 63 9b 26 40 6d 24 81 3e 2d 95 9d bf
       0.44683543 2.603234 0.25223103 -1.231115
000070 79 d4 25 3f ec 46 96 c0 dd 47 a1 3f 69 63 8f 40
       0.6477733 -4.6961575 1.2600056 4.480885
000080 4d 20 2e 40 73 5c 1c c0 8a ae c5 bf 16 6f b7 c0
       2.7207215 -2.4431427 -1.544389 -5.7323103
000090 cd db c2 bd d4 07 08 40 24 8e c5 3e f4 1f ef 3f
       -0.0951458 2.1254778 0.38585007 1.8681626
0000a0 ea f5 21 c0 36 b8 2e 3f a8 ae 9a 40 66 54 56 bf
       -2.5306344 0.68249834 4.8338203 -0.8372253
0000b0 d5 31 c4 c0 ae a0 0a 40 28 ec b0 be 13 6f ae 3f
       -6.131083 2.166057 -0.34555173 1.3627647
0000c0 76 d4 53 be 31 90 15 c0 ea 39 8b bf 40 35 9e be
       -0.20686516 -2.3369257 -1.0877049 -0.30900002
0000d0 9a c1 69 3f 90 6e 28 3d 64 48 d2 3f f3 95 6a bf
       0.9131104 0.041121066 1.6428342 -0.91635054
0000e0 e8 8c 42 3f 3e a7 01 bf c2 59 1b c1 01 74 44 40
       0.75996256 -0.50645816 -9.709414 3.0695803
0000f0 ab 31 0e c0 42 58 ae be c7 34 b3 3e 0e 57 b9 be
       -2.2217815 -0.3405171 0.35001203 -0.3619923
000100 47 e4 bc 3f 20 00 bf be 9d f6 39 bd d9 dc 1b bf
       1.4757165 -0.37304783 -0.045401204 -0.6088386
000110 99 03 c4 3f ce 5f 8c 3e 1b b1 de 3e b3 cb df 3f
       1.5313598 0.27416843 0.43494496 1.7484039
000120 9c 9a 56 bf 60 e4 6a bf 9c e0 da 3f c2 e6 23 bf
       -0.83829665 -0.9175472 1.7099795 -0.64023983
000130 ee 19 fa 3f 45 03 19 bf f0 10 a2 bf 4a bc 97 3f
       1.9539163 -0.59770614 -1.2661419 1.1854336
000140 19 e4 f5 bf a9 4a 3c bf 6c 0b 9e 3c 77 a2 19 3e
       -1.9210235 -0.7355142 0.019292556 0.15003382
000150 c6 82 25 3e 67 47 0f bd be 4a 82 be 01 51 5d 3f
       0.16163167 -0.034980204 -0.2544765 0.8645173
000160 dd e0 4a 3d 19 4a ba bf 3b 09 00 3f 79 c6 c0 3e
       0.049530853 -1.4553863 0.50014085 0.37651423
000170 f1 e2 a8 3f c1 c8 ce 3f ee 10 91 bf fb a8 82 bc
       1.3194257 1.6155015 -1.1333292 -0.015949717
000180 a4 6b ad bf fd 04 4c bf a1 38 4b bf 8f 3f a2 3c
       -1.3548474 -0.7969511 -0.79383284 0.019805698
000190 30 eb 50 bf b1 42 b1 3e b1 3a 17 bf a3 c8 61 3e
       -0.8160887 0.34621194 -0.5907393 0.22049193
0001a0 79 18 88 c0 41 a5 39 c0 7a c9 06 bf a2 24 92 3f
       -4.2529874 -2.9007113 -0.5265118 1.141743
0001b0 c5 b4 78 bf cb 76 2a bf 56 74 9f 3f 6e 8f 18 40
       -0.9715083 -0.66587514 1.2457378 2.3837543
0001c0 bd 30 d6 3f 04 46 a4 bd 9f 2f af bf 11 78 6a bf
       1.6733624 -0.08021167 -1.3686408 -0.91589457
0001d0 11 29 88 bf f2 42 e8 bf d6 2f cc be 1c 72 5a 40
       -1.0637532 -1.814543 -0.39880246 3.4132147
0001e0 70 e1 9f be e8 8b 5f 3e 99 20 ea 3f 3a 1c 97 3f
       -0.31226683 0.21830714 1.8291198 1.1805489
0001f0 5d 8d 01 bf e7 cf 9c bf 68 c4 ca be 0a 5c bd 3f
       -0.5060633 -1.2250947 -0.3960297 1.4793713
000200 7d 10 5a 3f 34 b4 72 bf 6a b3 de bf 33 ae b4 bf
       0.8518141 -0.9480622 -1.7398503 -1.4115661
000210 38 1d b7 be 6a 87 0b c0 da 71 cb 3e 37 dc c3 bf
       -0.3576448 -2.18014 0.397353 -1.5301579
000220 37 8e b8 bf 87 7f b5 3f cf 90 0c bf ac 1a 03 40
       -1.44184 1.4179543 -0.5490846 2.048503
000230 fe de 7f 40 46 d0 f5 be 82 ad 17 bf 77 72 26 3f
       3.9979854 -0.48010463 -0.59249127 0.6501841
000240 6b 2e 8e 3e a0 a6 c3 3f 6f 53 30 3f 7a d8 6d bf
       0.2776979 1.5285225 0.6887731 -0.9290844
000250 56 7a c5 bf c5 32 47 c0 3e 08 9a be 06 e0 fd 3e
       -1.5427959 -3.1124737 -0.30084413 0.4958498
000260 45 34 4a bf c1 a0 70 bf 03 d9 b6 3f cb db 88 bf
       -0.78986007 -0.9399529 1.4284977 -1.0692075
000270 a3 da fe bd 32 8a da bf be 02 6e c0 42 fc 83 3f
       -0.124440454 -1.7073424 -3.7189174 1.0311358
000280 61 91 0b 3e 0e 01 c2 3e 8e 7c fa 3f bd 92 9f be
       0.13629676 0.3789143 1.9569261 -0.3116664
000290 b6 83 a3 3d b0 ff 02 41 0f ca da be ae 02 a1 3f
       0.07984106 8.187424 -0.42732283 1.2578943
0002a0 9f c7 11 3f b3 1a 87 bd 4f 41 15 bf 0c c4 99 3f
       0.5694522 -0.06596889 -0.5830278 1.2012954
0002b0 33 7c 23 bf 5a 90 09 be 3d be 85 be 83 1c 8b bf
       -0.6386139 -0.13433972 -0.26121703 -1.0868076
0002c0 aa 8d 49 c0 d9 d7 f7 3f e5 85 ef be 28 d4 be 3f
       -3.1492715 1.9362746 -0.4678184 1.4908495
0002d0 85 e9 75 3e db e1 6c 40 c0 c0 9c 3f 73 90 59 be
       0.24014862 3.7012851 1.2246323 -0.21246509
0002e0 38 d9 81 be 4b 5d d8 bd 20 ed 57 bf 0a 71 2d be
       -0.25361037 -0.10564669 -0.843462 -0.16937652
0002f0 80 bc 41 bf 58 13 2d 3d 15 01 e3 3f e5 1a 25 3f
       -0.75678253 0.042254776 1.7734705 0.6449416
000300 fa fe ba bf dc f0 31 3e 0c 2d 96 ba 81 91 67 bf
       -1.4609063 0.17377037 -0.0011457517 -0.90456396
000310 01 07 62 bf bf 88 66 bf 2c 8a 24 3f 84 84 bf 3e
       -0.8829194 -0.9005241 0.64273334 0.3740579
000320 20 2d 5d 3e 4b 81 ec 3f a8 07 33 40 be cf d8 3e
       0.21599245 1.8476957 2.7973423 0.42345995
000330 4f 8a fe bf 55 ef 99 3e 87 a5 62 bf e3 0d 5c be
       -1.9885958 0.30065408 -0.88533825 -0.21489672
000340 71 8d 68 be 63 20 86 bf 03 ab 82 bf bd 63 f5 3e
       -0.22710206 -1.0478634 -1.0208439 0.47927657
000350 42 d6 1e bf f8 e3 1a be d4 11 fa bf af 69 80 bd
       -0.6204568 -0.15126026 -1.9536691 -0.062701575
000360 13 2e fd ba 20 57 94 3e 5b 99 09 bf 50 d4 90 3e
       -0.0019316099 0.2897272 -0.53749627 0.28286982
000370 29 c8 82 bf c1 fc 1b 40 50 2b f2 be 60 13 33 be
       -1.0217334 2.4373019 -0.4729867 -0.1748786
000380 fb d5 48 3f 57 23 8e bf 6f 6b 7f 3f eb 45 76 bc
       0.7845151 -1.1104535 0.99773306 -0.015031318
000390 cd bf 93 be 20 a4 01 bf e2 02 0a 40 aa d1 38 3f
       -0.2885727 -0.5064106 2.156426 0.7219492
0003a0 81 bd 8e 3f 7a f0 f5 be 4e ea 8c 3f 17 d6 7e be
       1.1151582 -0.48035032 1.1009004 -0.24886356
0003b0 3a 8f 0c 40 91 2f b5 3f 0c 15 86 be 54 94 a6 be
       2.1962419 1.4155141 -0.26187932 -0.3253504
0003c0 d3 24 49 3f 6f ad a3 3e cf c2 c2 be 74 51 91 bf
       0.78571814 0.31968257 -0.38039252 -1.1352983
0003d0 03 73 3c 40 4f cf fc 3f 64 cc 8e 3e d8 01 14 bf
       2.9445198 1.9750766 0.27890313 -0.57815313
0003e0 37 06 04 3f b5 39 3b c0 1c 81 e1 3f bd ab 22 3f
       0.51571983 -2.9253972 1.7617526 0.635433
0003f0 ce 7f c1 be 7e 1c 22 bf 28 33 c0 3e bf 8e e5 be
       -0.3779282 -0.63324726 0.3753903 -0.4483547

bias_ih_l0 f4 [200]
000000 84 f2 27 3f 07 24 a9 3f e9 b1 4a bf c8 28 80 3f
       0.65604424 1.321412 -0.7917772 1.0012445
000010 74 f1 97 be d5 7e d9 3f be ed f0 3e 11 fc bf 3f
       -0.29676402 1.6991831 0.47056383 1.49988
000020 c1 fa c9 3f b6 6c 54 3e 4b b1 4a 3f e5 c8 ad 3f
       1.5779649 0.20744595 0.7917678 1.3576933
000030 8d c7 bf 3e 84 dd ab 3f 87 fb 7c 3f 4b f6 85 3e
       0.37456933 1.3426976 0.988213 0.2616447
000040 4f af 32 3f f0 80 3f 3f 89 fd 13 bf 02 8f f3 3e
       0.6979875 0.7480612 -0.5780874 0.47570044
000050 8e ba 34 3f 7a 01 9a bd 0b 13 a1 3f 98 ec 1b 3f
       0.7059716 -0.07519813 1.2583936 0.6090789
000060 74 ae c0 3f 37 50 51 3f 10 8b 41 3e 3a f3 7b 3f
       1.5053239 0.81763023 0.18900704 0.9841801
000070 56 38 33 be d9 a2 a3 bf 75 9b a5 3e a3 51 e3 be
       -0.17501959 -1.2784072 0.32345167 -0.4439822
000080 a7 02 ad be ee 45 83 3f 07 8b 95 3f b7 c9 70 3f
       -0.33791086 1.0255716 1.1683053 0.9405779
000090 38 95 c3 3e f3 46 87 3f d3 81 f1 3e 74 e7 0c 3f
       0.38199782 1.0568527 0.4716936 0.5504067
0000a0 ca f6 e0 3f 90 78 00 be 7d 32 81 3f 66 ff 07 3f
       1.7575314 -0.12545991 1.0093533 0.5312408
0000b0 a1 26 8f 3f 3c da 9b 3d ea da b8 3f 6a 31 ec 3e
       1.1183664 0.07609984 1.4441807 0.4613145
0000c0 01 72 6a 3e ba 66 f4 3e 21 fb 69 bf be f4 8b 3f
       0.22895052 0.47734624 -0.9139882 1.0934064
0000d0 6c b0 d8 be 9c 31 f1 bc ac 0d 67 3f ac 4a 20 bf
       -0.423221 -0.0294426 0.90255237 -0.6261394
0000e0 4f 3f 61 3e c5 bc 78 3f 52 a8 28 3f ac 1d 2a 3f
       0.21996807 0.9716304 0.65881836 0.66451526
0000f0 08 ff 3d 3f 61 23 10 3f d1 d2 13 3f 6c a9 89 3f
       0.7421727 0.56303984 0.57743555 1.0754828
000100 a3 ec 5a 3e 67 b3 8b 3f f8 91 92 3e 72 ba 86 3e
       0.21379332 1.0914124 0.2862699 0.2631412
000110 ec 25 15 3e 09 b8 09 be 2e 76 9f 3d 13 f6 8b 3f
       0.14565247 -0.1344911 0.07786213 1.0934471
000120 17 55 b1 3e 50 ed 97 3f d9 03 dc 3e 0a 49 bf be
       0.3463523 1.1869297 0.42971686 -0.37360412
000130 c3 ab 32 3f cf 93 90 3d 08 ca 6a bf 2f 3b 32 3f
       0.6979334 0.07059442 -0.91714525 0.69621557
000140 21 62 26 be 4f 1d 46 3f 5b 30 e0 3e 75 92 10 40
       -0.1624837 0.7738847 0.43786892 2.258939
000150 3a e3 7f 3f 44 1e 55 bf d9 64 53 3f a8 2b 50 3d
       0.99956095 -0.83249307 0.82575756 0.050822884
000160 a7 33 b8 3d f4 00 53 bf 94 c9 5c 3e 15 0a 10 3d
       0.08994227 -0.8242333 0.21561271 0.035165865
000170 c3 6a 2f bf d0 a9 c3 3e af 8b 68 3f 80 d2 84 3f
       -0.6852228 0.38215494 0.9083814 1.037674
000180 70 f8 18 3e e0 79 0a 3f e8 61 e6 be 53 d4 05 3f
       0.14938521 0.54092216 -0.44996572 0.52277106
000190 af 74 42 be 03 e5 d6 3e 8e dc 23 3f fe 2b e7 be
       -0.18989824 0.41971597 0.64008415 -0.4515075
0001a0 0b 0f 38 3d 1d 11 a5 be d5 55 86 bf be ce bd 3e
       0.04493622 -0.3223962 -1.0494944 0.37071794
0001b0 45 35 27 bf bd f3 f6 3e 06 cc d9 3d 59 3b 8f 3f
       -0.6531566 0.48232833 0.106346175 1.1189986
0001c0 29 a1 c9 3e a9 1b 88 bf d7 e7 d0 3e fb 72 58 3f
       0.39380768 -1.0633441 0.4080188 0.84550446
0001d0 ce 58 1a bf 62 3a 19 bf 83 b0 11 3f fd 5a 98 3d
       -0.60291755 -0.5985471 0.5690996 0.0743923
0001e0 b2 6b ff 3c 85 6a 02 3f d3 ba 53 be ab 44 60 be
       0.031179283 0.50943786 -0.20676737 -0.21901195
0001f0 e0 d3 cc bd 47 af e1 be 28 26 90 be 59 d3 a6 3e
       -0.100013494 -0.44079039 -0.2815411 0.3258312
000200 e6 c1 1d 3f f0 04 b6 bd a3 25 01 3e 2e d0 2f 3f
       0.6162399 -0.088876605 0.12612014 0.6867703
000210 4d 88 16 be d8 a8 d4 bd 93 ef 44 3f 70 5b 95 bc
       -0.14700432 -0.10383767 0.7692806 -0.018232077
000220 97 39 be be ef 75 63 3f ef 7e 3e bf 14 05 23 3e
       -0.37153313 0.8885183 -0.74412435 0.15919906
000230 60 41 3e bd a9 85 1d 3f e4 7d 80 3f 78 ae 29 3e
       -0.046449065 0.61532074 1.0038419 0.16570461
000240 d9 d7 7b be 45 ff d9 3e 4e e8 c0 3d 0b 8d 87 3f
       -0.24594058 0.42577568 0.094193086 1.0589918
000250 4f b0 98 bf 4e 7b 2a be a7 14 2d 3e 0f 5c b0 3f
       -1.1928805 -0.166486 0.1690241 1.3778094
000260 66 97 3a bd 16 15 3d 3f ec 3b 27 3f 4a 9d 95 3f
       -0.04555454 0.738603 0.6532581 1.1688626
000270 22 99 b0 bd ae b5 18 3f ad 1a 8e 3e c3 d9 61 3f
       -0.08622958 0.5965222 0.27754727 0.88222903
000280 0c e2 c1 3f bb 8c e6 3e a9 86 f7 3e 41 30 3f be
       1.5147109 0.45029244 0.48344925 -0.18670751
000290 b8 cd bd be 9a 87 36 bf 20 cc 00 3e a1 18 0c 40
       -0.37071013 -0.7130066 0.12577868 2.1890032
0002a0 86 1a 62 bf e6 76 d7 3f 87 35 29 3e 28 6b b8 3f
       -0.8832172 1.683316 0.16524325 1.4407701
0002b0 1f 0f 3e bf 7f 37 06 3f c2 56 f6 3f 48 00 0e 3f
       -0.7424182 0.5242843 1.9245226 0.5546918
0002c0 d0 cd a6 be 6a 91 61 3f f4 c8 ea 3e db 73 58 3f
       -0.32578897 0.8811251 0.4585644 0.8455178
0002d0 c4 8f 1e 3f ff bf ac 3f 52 17 98 3f ff 8b 08 40
       0.6193812 1.3496093 1.1882117 2.1335447
0002e0 33 7b 92 3e 50 ee b5 3f b0 c0 c1 be bd d7 af 3e
       0.2860962 1.4213352 -0.3784232 0.34344283
0002f0 fa 0b cc be 2f 3f 3e 3f a9 e8 92 3f 9f 39 40 bf
       -0.39852887 0.7431516 1.1477252 -0.7508792
000300 76 6a 80 3f 2d c4 e2 bf 66 a4 fa 3e 86 2a 15 40
       1.0032489 -1.7716118 0.4895355 2.3307204
000310 a1 7f 9b 3f 9f bb f4 3e f4 2f c7 3e f7 c2 56 3f
       1.2148324 0.47799394 0.38903773 0.8389124

bias_hh_l0 f4 [200]
000000 ce bc 0a 3f 1e c7 a8 3f e1 18 81 bf 79 83 95 3f
       0.54194343 1.3185766 -1.0085717 1.1680747
000010 84 c4 8f be 3c 35 f4 3f af c9 09 3f 64 e4 d1 3f
       -0.28079617 1.9078746 0.5382337 1.6397824
000020 bf fe cb 3f 95 48 17 3e 43 65 80 3f 40 29 92 3f
       1.5937117 0.14773782 1.0030903 1.1418839
000030 ce c7 b4 3e 4c ee c3 3f a4 28 7b 3f 43 8d 05 3e
       0.3530869 1.5307097 0.9810889 0.13042168
000040 e8 3d 11 3f 9e b7 1a 3f ba 76 e1 be 90 9f d4 3e
       0.56735086 0.6043643 -0.44035894 0.41527987
000050 3b c0 4e 3f 72 e5 23 be dc c4 a0 3f 8e 22 44 3f
       0.8076207 -0.16005495 1.2560077 0.76615226
000060 10 97 c2 3f 69 0a 78 3f 73 e8 d2 3e 83 d1 62 3f
       1.5202351 0.96890885 0.4119297 0.8860094
000070 f3 68 f1 bd 90 41 9b bf 25 69 aa 3e 71 89 d3 be
       -0.117875956 -1.2129383 0.33283344 -0.41315797
000080 6f 72 09 bf 40 aa 53 3f 02 e4 a9 3f 02 ad 48 3f
       -0.53690237 0.82681656 1.3272707 0.7838899
000090 0b 6f 84 3e bb 8a 71 3f 5a 96 c2 3e d8 f4 35 3f
       0.2586597 0.9435231 0.38005334 0.71076727
0000a0 02 3e d3 3f ee 5b eb 3d ed 86 84 3f de 4b b2 3e
       1.6503298 0.114921436 1.0353676 0.34823507
0000b0 9f f8 94 3f 75 ed 9a 3e fa e6 ae 3f ba 42 27 3f
       1.1638373 0.3025929 1.3664238 0.6533619
0000c0 15 6e 2f 3e 81 60 20 3f b6 3f 37 bf 8d db 7d 3f
       0.17131837 0.62647253 -0.7158159 0.9916313
0000d0 ee 1d d7 be ce 56 03 be d0 02 5d 3f ad 1f 32 bf
       -0.42015022 -0.12826082 0.86332417 -0.69579583
0000e0 45 35 5f 3e 62 91 89 3f 58 e7 0c 3f f0 65 05 3f
       0.21797664 1.0747492 0.550405 0.5210867
0000f0 e0 19 57 3f 37 9a 4b 3f fa d6 18 3f 88 7b 82 3f
       0.8402386 0.7953219 0.5970303 1.0193949
000100 e6 a6 8f 3e 7a 14 84 3f 4f a9 67 3e 69 3e 7a 3e
       0.2805702 1.0318749 0.2262318 0.2443787
000110 a7 87 b7 3e b9 36 af 3c 05 0a c0 3c d4 2b 8c 3f
       0.35845682 0.021388398 0.023442278 1.0950875
000120 58 a1 0f 3f 0d 18 8d 3f 30 b1 b4 3e 56 e9 8f be
       0.56105566 1.1022965 0.35291433 -0.2810771
000130 6f dd 2b 3f a0 af ce bc 76 57 47 bf f1 4f 2d 3f
       0.67134756 -0.025230229 -0.7786783 0.67700106
000140 c4 3f 9b 3d 1c 5e 70 3f c1 ac 1c 3f 1d c7 06 40
       0.07580522 0.938936 0.612011 2.105903
000150 83 04 92 3f 63 0e 70 bf b6 72 69 3f 3a b3 21 be
       1.1407627 -0.9377195 0.9119066 -0.15791026
000160 23 75 b5 3d b0 b2 88 bf 01 b6 68 3d 84 70 0c 3e
       0.08860233 -1.0679531 0.056814197 0.13714796
000170 5a e4 1e bf 29 c0 95 3e 53 c7 89 3f 38 aa 6b 3f
       -0.62067187 0.2924817 1.0763954 0.9205661
000180 41 0c 29 3e f2 2b 28 3f e0 41 e8 be 48 15 fc 3e
       0.1650858 0.65692055 -0.4536276 0.49234986
000190 35 52 d5 be 08 6a ca 3e 4c d8 46 3f 38 2d c4 be
       -0.4166428 0.3953402 0.7767379 -0.3831575
0001a0 10 ca 28 3e 5d 02 a1 be 30 da 95 bf 30 56 cc 3e
       0.1648333 -0.31447116 -1.170721 0.39909506
0001b0 cb b4 fd be 04 60 e2 3e 10 78 49 3e 5e 0f 98 3f
       -0.49551997 0.4421388 0.19674706 1.187969
0001c0 4d a2 e0 3e 1c 0b 7c bf c2 9e 12 3f e4 83 49 3f
       0.43873826 -0.9845445 0.57273495 0.78716874
0001d0 ea 40 ff be 50 8b d6 be 55 c4 1e 3f af 40 de 3c
       -0.49854213 -0.41903162 0.6201833 0.027130453
0001e0 ca 51 83 3d 0a 5a e6 3e 19 f4 16 bd bb 94 3b be
       0.064120844 0.4499057 -0.036853883 -0.18318455
0001f0 d7 52 af 3d 38 76 27 bf b6 84 f1 bd 81 0a c9 3e
       0.08560722 -0.6541476 -0.11792891 0.39265826
000200 56 aa e9 3e 10 40 1d be bd aa ea 3d 30 d2 27 3f
       0.45637769 -0.15356469 0.11458347 0.65555096
000210 23 46 c4 bd 98 34 8e 3d 9c 9b 25 3f b0 d4 85 bd
       -0.0958369 0.06943625 0.64690566 -0.065347075
000220 d2 5c 25 be c0 e9 22 3f eb 95 46 bf be a5 f5 bb
       -0.1614869 0.63637924 -0.77572507 -0.0074965646
000230 54 e5 32 be 12 97 13 3f 74 d5 8e 3f 1b 0a 80 3d
       -0.17470294 0.5765239 1.1158891 0.062519275
000240 fd 1c 5f be 95 3f 0c 3f db 10 0b 3e 19 0a 84 3f
       -0.21788402 0.5478452 0.13580649 1.0315582
000250 e4 0c a8 bf e6 38 a9 be 3d b8 c3 3d 46 dd b7 3f
       -1.3128934 -0.33051223 0.09556625 1.4364402
000260 a8 18 1e be 3a c5 36 3f 43 24 28 3f c6 df 99 3f
       -0.15439093 0.71394694 0.6568033 1.2021415
000270 72 87 9b bd 8d 9e 12 3f 86 07 a9 3e fd 26 70 3f
       -0.075941935 0.5727318 0.33013552 0.9380949
000280 8f bc c3 3f 34 ac b3 3e 65 2d 0b 3f 26 a6 a3 be
       1.5291919 0.35092318 0.5436614 -0.319627
000290 79 4d f8 be 9b b6 1d bf 86 66 08 3e ef 20 07 40
       -0.48496607 -0.6160676 0.1332036 2.111385
0002a0 81 ca 38 bf 0c f7 cb 3f e9 98 a5 3e 9f 4f d4 3f
       -0.72183996 1.5934768 0.32343224 1.6586798
0002b0 a7 86 4e bf db 4e c7 3e 8e d3 fd 3f a9 93 3e 3f
       -0.80674213 0.3892735 1.9830186 0.7444406
0002c0 4b 2a a9 be 03 17 58 3f 4f 60 bd 3e ea 77 36 3f
       -0.3304008 0.84410113 0.3698754 0.71276724
0002d0 04 f8 1f 3f 1d 32 9f 3f 34 81 9b 3f ad f6 08 40
       0.62487817 1.2437168 1.2148805 2.140056
0002e0 9f 13 3a 3e 77 be c8 3f 45 ab c0 be a7 f3 50 3e
       0.18171547 1.5683125 -0.37630668 0.20405446
0002f0 33 89 a2 be dd d3 11 3f f5 69 a1 3f 3d 14 41 bf
       -0.317453 0.569639 1.261046 -0.75421506
000300 34 d7 58 3f a1 c0 f6 bf af 94 fe 3e 2e ac 05 40
       0.84703374 -1.9277536 0.49722812 2.088634
000310 37 6e 95 3f 81 89 1a 3f c5 cd b8 3e 15 ef 8d 3f
       1.167426 0.60366064 0.3609449 1.1088587

weight f4 [74, 50]
000000 5e be a8 3e 5f df ca be de 99 8d be 59 5f a4 be
       0.3295774 -0.39623544 -0.27656454 -0.32103994
000010 c7 ed b4 3d ad d1 05 3e 82 b2 4f 3e a3 be 34 be
       0.08834415 0.13068266 0.20282939 -0.17650847
000020 d4 71 cd 3e fa fa c0 be cb f3 62 3e ca 7c 46 be
       0.40125906 -0.3769148 0.22163312 -0.19383541
000030 4e 80 14 3f ba 1d a1 3e 74 de d0 bc 97 88 05 bf
       0.5800828 0.31467992 -0.025496699 -0.52161545
000040 5e 83 0f 3e 09 92 c0 3e 22 5b 14 bf 0d ee 0e 3f
       0.14014956 0.37611416 -0.5795156 0.55831987
000050 78 75 aa be 49 25 59 be 81 b2 b5 3e 08 5f c6 3e
       -0.33292747 -0.2120563 0.3548775 0.38744378
000060 14 7d 41 be bf c7 cc 3e 75 ea 7b 3e 95 d8 7a 3e
       -0.1889537 0.39996144 0.24601157 0.24496682
000070 0f 59 58 be 8e d2 af 3e 9e 83 3f be fd 97 a3 be
       -0.21127723 0.34340328 -0.18702552 -0.31951895
000080 f8 f3 c9 3e 82 0d 02 bf ed 6b 8e be 51 0b 88 3e
       0.39443946 -0.5080186 -0.27816716 0.26571134
000090 84 32 1e 3e e9 0c 32 bf 7c 80 aa 3e 0f d7 11 3c
       0.15448958 -0.6955095 0.3330115 0.008901372
0000a0 a7 6b f5 3d b5 01 66 be 9b 9e 90 be 23 28 17 be
       0.11983424 -0.22461589 -0.28246006 -0.14761405
0000b0 a0 75 c4 be 7b c1 f0 be 35 09 8e bd 29 16 60 be
       -0.3837099 -0.47022614 -0.0693535 -0.21883453
0000c0 62 32 8a 3e 22 4a 9e 3e f7 51 9a 3e 76 f1 d7 be
       0.26991564 0.30915934 0.3014066 -0.42176408
0000d0 57 77 e3 be 70 8e 4a be 57 63 b6 3d 44 5a fa 3d
       -0.44426987 -0.19780898 0.08905666 0.12224248
0000e0 81 5f e9 3e 1b e1 9a bd 19 8b be 3e b3 97 9e be
       0.45580676 -0.07562467 0.37215498 -0.30975112
0000f0 2c 66 92 3e 40 7c 8f be 10 06 10 3f 10 26 c8 3e
       0.28593576 -0.28024483 0.5625925 0.3909154
000100 05 25 c0 bd 97 b0 02 bf 90 4d 31 3e 39 ff 67 3e
       -0.09382061 -0.51050705 0.17314744 0.22655953
000110 fd 04 0f bf e6 df 0b 3f 42 7f d5 be d1 de a6 be
       -0.55866987 0.54638517 -0.41698653 -0.3259187
000120 97 99 8d 3e 54 e0 e0 3e bc c2 79 be 88 82 6c 3e
       0.27656242 0.4392115 -0.24390692 0.23096669
000130 52 61 98 3e 08 e5 b2 3e 3c 17 8e be 6a 6b f1 3e
       0.2976175 0.34940362 -0.277521 0.47152263
000140 23 2e 2b be 8a e7 bc be c2 47 9b 3e 2e 18 e1 be
       -0.16716819 -0.368954 0.30328184 -0.4396376
000150 94 ab aa be f0 b3 55 3e 91 ea 72 3e 18 eb 39 bf
       -0.3333403 0.20869422 0.23722292 -0.7262435
000160 f3 cf 8f 3e 12 f9 03 3c f0 19 35 3e 85 6e d4 be
       0.2808834 0.008054988 0.17685676 -0.4149057
000170 f0 35 44 be b8 51 39 be 5d a5 e0 be 43 f1 92 be
       -0.191612 -0.1809758 -0.43876162 -0.28699693
000180 03 2b 36 be 48 68 9f be e3 8f c7 3e 60 ed b2 3e
       -0.17789845 -0.31134248 0.38976964 0.34946728
000190 3f 47 83 c0 ec ec b1 3f 47 a4 c0 3f 2a 15 d7 3f
       -4.102447 1.3900428 1.5050133 1.6803334
0001a0 31 59 25 bf bf 1a 0f 3f 1e 08 d6 be f4 3c d4 3f
       -0.6458922 0.55900186 -0.41803068 1.6581101
0001b0 7a dc 26 3f 0f 59 43 3f 54 f7 94 3f 5d 64 3e be
       0.6518017 0.7630777 1.1637979 -0.18592973
0001c0 4f 10 31 c0 aa dd eb bd 37 27 f7 be 71 69 d2 3f
       -2.7666204 -0.115168884 -0.48272106 1.6438428
0001d0 07 43 17 c0 b8 20 fa bf 8b 56 54 bf c5 cd 64 3f
       -2.363466 -1.9541235 -0.82944554 0.8937648
0001e0 3a c5 35 bf f9 5b fb 3f 10 3f b2 bf d9 57 53 be
       -0.7100407 1.9637443 -1.3925495 -0.2063898
0001f0 23 de 7c 3e 47 e4 37 3f 10 a5 73 bf 3e d0 f5 bd
       0.24694113 0.718327 -0.9517374 -0.1200261
000200 d2 b9 fa bd 2b 6c 90 3e 3c e6 08 3f 26 8f d2 3f
       -0.12242474 0.28207526 0.5347631 1.6449935
000210 43 b3 69 bf 34 19 8b be 20 26 22 3e 39 5a 34 bf
       -0.91289157 -0.27167666 0.15834856 -0.7045017
000220 8d 02 ed bd a3 29 48 c0 48 43 71 bd f4 8d d8 bf
       -0.11572752 -3.1275413 -0.058902055 -1.6918321
000230 29 cf 4f bf c1 ff e0 bf 94 9c 42 3e 86 ac a9 bf
       -0.81175476 -1.757805 0.19005042 -1.3255775
000240 fb 0e 43 40 fa 4b 51 be 1f 50 6d 3f da dd 9c bf
       3.0477893 -0.20439139 0.9270038 -1.2255204
000250 41 18 f9 3f d7 d6 d2 3b 13 6d 65 3e 0b 42 77 be
       1.9460527 0.0064343023 0.2240489 -0.24146287
000260 93 99 ad be bd 22 94 be 5c 48 2a 3c e8 ac 20 3e
       -0.3390623 -0.28932753 0.010393228 0.15690958
000270 38 fa a5 3e e7 bd 10 be d5 e6 d3 3e 5f 1b 40 be
       0.32417464 -0.14134942 0.41387048 -0.18760441
000280 7e 15 63 3e 6f 2f b5 be 3e 5c 19 3f d2 11 e4 3e
       0.22176167 -0.3538775 0.59906375 0.44544846
000290 b3 76 a1 bd 96 4b cc be 37 39 58 3e 30 77 b4 3e
       -0.07883968 -0.39901417 0.21115576 0.35247183
0002a0 fc a5 f8 be d4 aa e5 3e da 93 8b be 6e 1b bc be
       -0.48564136 0.44856894 -0.2726124 -0.36739677
0002b0 ca e3 cd 3e bd dd e7 3e 03 4d ad be d6 4e af 3e
       0.40212852 0.4528636 -0.33847818 0.34239835
0002c0 e1 ff c1 3d b8 13 c9 3e 46 b6 a4 be f5 20 e0 3e
       0.09472633 0.39272857 -0.32170314 0.43775144
0002d0 39 03 19 be 2c 96 58 be ee c4 aa 3e 99 61 24 bf
       -0.14942636 -0.21151036 0.3335337 -0.6421142
0002e0 db 31 bb be 18 6b 86 3e aa 57 41 3e a7 79 1b bf
       -0.36561474 0.2625358 0.18881097 -0.607325
0002f0 c3 20 84 3e 78 af e6 3d 7e 91 6b 3e d1 5a 3d be
       0.25806245 0.11263937 0.2300472 -0.18491675
000300 90 b5 64 be 53 8f c0 be 07 ca cd be e7 06 9c be
       -0.22334886 -0.37609348 -0.40193197 -0.30474016
000310 87 fc 85 be dd 19 95 be 66 08 cf 3e 0b 9a 24 3e
       -0.26169226 -0.29121295 0.40436095 0.16074388
000320 32 25 77 3e 3f 78 b9 be 8f e6 02 bf 57 0c b3 be
       0.24135283 -0.36224553 -0.51133054 -0.34970352
000330 93 c2 67 3d 3c 73 7d 3e 05 b2 c4 3e 9a 6b 7b bd
       0.056582045 0.2475099 0.38417068 -0.061381914
000340 5d 39 07 3f 72 81 e2 be 2e 0e c7 3e 62 17 be be
       0.52821904 -0.44239384 0.38878006 -0.37127215
000350 4a 68 e0 3e e7 fa 87 3e ec de df bd ea 0a e6 be
       0.43829566 0.2655861 -0.10931191 -0.44930202
000360 9f c7 ab 3e 86 26 41 3e 0c 44 f5 be d3 c3 1b 3f
       0.33550736 0.18862352 -0.47903478 0.6084568
000370 09 04 3d be db 7a d7 be b1 45 c8 3e 97 41 f0 3e
       -0.1845857 -0.4208592 0.3911567 0.4692504
000380 e1 bf 3b be 4e a2 77 3e bd f3 82 3e 5c ad f5 3e
       -0.18334915 0.24183008 0.25576583 0.47983825
000390 c7 a0 9d be d2 8c bc 3e 49 70 e0 bd c4 50 af be
       -0.30786726 0.36826187 -0.10958917 -0.34241307
0003a0 e2 4e c6 3e 96 4e f5 be 22 c9 c1 be 41 f8 99 3e
       0.38732058 -0.4791152 -0.37848765 0.30072215
0003b0 c9 1c 97 3e fe 91 54 bf 28 3d 1d 3e b8 4a 50 3e
       0.2951415 -0.83035266 0.1535536 0.20341003
0003c0 02 64 70 3e 36 86 4c be 8a 91 4d be df 1b 67 be
       0.2347565 -0.19973072 -0.2007505 -0.22569226
0003d0 61 85 b0 be 23 5e 99 be 68 3f 23 be e6 f7 ac be
       -0.3447676 -0.29954633 -0.15942156 -0.33782881
0003e0 39 3e 94 3e 65 68 ca 3e 55 d0 ca 3e 40 3c 6e be
       0.28953722 0.39532772 0.3961207 -0.23265171
0003f0 31 4b c5 be 54 68 13 be fa 81 ef 3b 2d 7c dd 3d
       -0.3853393 -0.14395267 0.0073091956 0.108147

bias f4 [74]
000000 dc 1f 61 be a0 51 a3 be 76 f8 4e 3f 97 b6 b3 be
       -0.2198481 -0.31898212 0.8084787 -0.35100242
000010 11 a6 9f be 69 df 23 be 0c a9 ee 3e ac cb 93 be
       -0.31181386 -0.16003193 0.46613348 -0.28866327
000020 a6 b2 3c be ee e1 74 be f5 7f 48 be bd 1a 56 be
       -0.18427524 -0.2391431 -0.19580062 -0.20908637
000030 ef f6 93 be d5 b6 be bd 15 a9 7d be d4 b7 69 be
       -0.28899333 -0.09312216 -0.24771531 -0.22824031
000040 78 d6 65 be 12 52 f7 bd fb 22 2f 3f aa 5c d5 3e
       -0.22445095 -0.120762005 0.6841275 0.4167226
000050 b6 91 7f be 0c af f3 bd 66 b3 e1 bd 45 a6 9d be
       -0.24957928 -0.11898622 -0.11020546 -0.30790916
000060 08 37 20 be f1 1c 7b be bb 8d 02 be a9 4d 8b be
       -0.15645993 -0.24522759 -0.12749378 -0.27207687
000070 8c db 90 be ce 6f 29 be 0f 0a a2 be 00 27 88 be
       -0.282925 -0.16546556 -0.316483 -0.26592255
000080 44 96 95 be 76 45 8b bd 6a 79 79 be f2 c9 55 be
       -0.29216206 -0.06800358 -0.24362722 -0.20877817
000090 ee 11 4e be c2 c6 5d 3e 75 c1 d1 bf 62 41 b7 be
       -0.20124027 0.21657851 -1.6387163 -0.3579207
0000a0 1d fd 3e 3e e6 f8 71 3d c2 e1 dd 3e 7f 72 58 3f
       0.18651243 0.05907526 0.43336302 0.8454971
0000b0 22 d8 90 3f 54 8d b6 bd 35 8d db bf 01 0b 59 3f
       1.1315958 -0.08913675 -1.7152468 0.84782416
0000c0 5e f9 a4 bf 15 4b 56 bb 45 0f 3e be 0c 4a 94 3e
       -1.2888601 -0.003269856 -0.18560512 0.28962743
0000d0 f8 25 ab bf 8c fe d0 bf d4 f2 9a 3d d4 58 6f 3e
       -1.3370962 -1.6327682 0.07565847 0.23373729
0000e0 3c f2 ab 3f 99 e6 1b bf e8 71 26 40 09 30 19 bf
       1.3433299 -0.6089874 2.6007023 -0.5983892
0000f0 b9 93 69 3b 5b c8 e8 3d 12 f2 dc bd fd 95 34 bf
       0.0035641028 0.1136634 -0.10788359 -0.70541364
000100 24 4d 83 bf a5 31 a1 bd 42 4a 10 bf d4 b2 0c bf
       -1.0257916 -0.07870797 -0.5636331 -0.5496037
000110 f4 6c d5 3e 57 4b cb bf 5b 32 ef be 68 96 99 bf
       0.41684687 -1.5882367 -0.46718106 -1.1999025
000120 f2 c9 9b 3d da 5c 3e bf
       0.076068774 -0.7436043

weight f4 [35, 2]
000000 e8 64 c6 be 2c 3b 08 3e 32 cc cd 3e d4 e8 54 3e
       -0.3874886 0.13303822 0.4019485 0.20791942
000010 82 f2 cb 3e a8 47 24 be d8 ee 10 bf 1e 28 cb 3e
       0.39833456 -0.1604296 -0.56614447 0.39679044
000020 cf 3c 29 bf 30 5e 22 3d bf d7 1d 3f 2a b4 d4 3e
       -0.6610841 0.039640605 0.6165733 0.41543704
000030 20 e4 d1 3d 1c 42 b2 be 89 0e c0 be 83 71 22 3f
       0.102485895 -0.34816062 -0.3751109 0.63454455
000040 e0 a7 cf bc d6 b1 10 bf cb 0c 06 3f 96 d7 12 bf
       -0.025348604 -0.56521356 0.5236327 -0.5736021
000050 cc ee 09 3e 3d e9 84 be 37 21 1e 3f 3a b9 cc 3e
       0.1347 -0.25959197 0.6176943 0.39985067
000060 00 71 95 bc 74 65 22 bf 80 f9 cc bc 00 22 7a bd
       -0.01824236 -0.63436055 -0.025021315 -0.06106758
000070 c4 30 26 bf 60 12 50 3d 68 81 fd 3d 08 ae 1d 3e
       -0.6491816 0.050798774 0.12378198 0.15398419
000080 00 e0 09 3c 4b 88 30 3f 9c f9 38 be 30 38 f7 be
       0.008415222 0.68957967 -0.18063968 -0.48285055
000090 9c 3c 31 3e ec ea 3d be a6 33 a2 3e 3e 53 d0 3e
       0.17308277 -0.18546647 0.3168003 0.4068851
0000a0 e6 b8 76 be 71 f0 1a 3f 60 89 8f 3e 9a 21 d8 3e
       -0.2409397 0.60523134 0.28034496 0.42213136
0000b0 67 ac 19 3f 5a 9b 1a bf 48 9e e8 3d 5a 15 c0 3e
       0.6002869 -0.603933 0.11358315 0.3751629
0000c0 c8 7c 63 3e 87 9b 1a bf e8 f9 db 3d c2 3b e0 be
       0.22215569 -0.60393566 0.10741025 -0.43795592
0000d0 98 66 89 be 3d 60 27 bf dd 2c 16 3f a0 e6 51 bd
       -0.26836085 -0.6538122 0.58662206 -0.05124533
0000e0 8d 6b 1c 3f a7 a1 e1 be e7 32 e5 be dd fa 0a 3f
       0.6110161 -0.44068643 -0.44765398 0.54289037
0000f0 28 b1 db bd 55 85 0c bf 1f 0f 16 bf ac e8 3b 3e
       -0.10727149 -0.5489095 -0.5861682 0.18350476
000100 7c f7 f7 be 9c 7a 8a be d6 cf 9b 3e f8 92 02 3e
       -0.48431003 -0.2704667 0.30432004 0.12751377
000110 b2 c3 95 be c5 4b 13 3f
       -0.29250866 0.5753749

bias f4 [35]
000000 32 f1 e4 be 80 11 ec 3b 2f 12 ad be 8e 56 ce be
       -0.44715267 0.0072042346 -0.33802935 -0.4030041
000010 da 22 91 3e 48 a9 7e be 8a 00 16 bf 80 1e b1 bb
       0.28346902 -0.24869263 -0.5859457 -0.005405247
000020 b0 6e e3 bd a0 eb 03 be 3e fd 8f 3e 14 5f 29 bf
       -0.11105096 -0.12882853 0.28122896 -0.661607
000030 ee 11 e5 3e c6 18 d9 3e 50 ce 81 3d 1c f7 4b be
       0.44740242 0.42401713 0.06338179 -0.19918483
000040 28 ff 24 bf 5c 82 89 3e 9e fd 91 3e a6 91 ee 3e
       -0.6445184 0.2685727 0.28513807 0.46595496
000050 88 29 e3 3d 80 84 b8 3c 49 98 bd be 8a ee c4 3e
       0.11091906 0.022524118 -0.37030247 0.3846324
000060 b9 e6 2f 3f 80 d0 7c 3d 0e 12 f6 3e 8e 2b e3 3e
       0.6871143 0.06172228 0.4806065 0.44369167
000070 d7 e1 06 bf cb 68 26 3f 44 cb 4c be 5e 29 2f bf
       -0.52688354 0.6500365 -0.19999415 -0.68422496
000080 c6 23 10 bf d2 45 b4 3e 6b b6 92 be
       -0.56304586 0.3520952 -0.286548

weight f4 [50, 35]
000000 d0 02 09 3e d8 dc 2a 3e f8 ae cf bc 36 76 8a bd
       0.13379979 0.16685808 -0.025351986 -0.06760828
000010 60 0d 4e bd 7f cf 9b bd d8 3c 15 3e 88 ca b6 bd
       -0.050305724 -0.07607936 0.14573991 -0.089253485
000020 88 35 e5 bc af 5a c9 bd 66 ae ab bd c8 86 81 bc
       -0.027979627 -0.0983175 -0.08382873 -0.015811339
000030 cc f6 df bd e0 79 e6 3b 00 dc 1c bc fd 9a ec bd
       -0.10935745 0.0070335716 -0.009573936 -0.11552999
000040 30 fb 68 bd c0 26 b6 3d 4b c7 c0 bd 70 26 08 3d
       -0.056880176 0.0889411 -0.09413012 0.03323978
000050 3e 54 d4 bd 9c 1e 21 3d c8 49 a9 3d 60 4b dc bd
       -0.103676304 0.039335832 0.08266026 -0.10756564
000060 b4 57 d6 bd 42 50 1f be d9 ef 18 be 68 67 1d be
       -0.10465947 -0.1555796 -0.14935245 -0.15371478
000070 30 2d 40 3d 7c d6 d3 bd cf 69 da bd cc 74 ec bd
       0.046918094 -0.10343644 -0.10664713 -0.11545715
000080 c4 c9 b6 3d 97 4f d1 bd 98 2e 0c 3d e8 aa b3 bc
       0.089252025 -0.10220259 0.034224123 -0.02193208
000090 d1 bb 0a be 6c 2f bb bd f4 c1 24 bd 12 a8 10 be
       -0.13548209 -0.091399044 -0.04022403 -0.14126614
0000a0 1a 93 1c 3e 22 8e 22 3e 03 1a 26 be dc 5f e8 3d
       0.1529049 0.15874532 -0.1622086 0.11346409
0000b0 74 df 04 3e 60 a2 fd bb b0 39 d6 3d e8 54 76 3d
       0.12975866 -0.007740304 0.10460222 0.060139567
0000c0 50 50 64 3d cc 6e ff 3d a1 90 04 be 28 23 f6 3d
       0.055740654 0.12472305 -0.12945797 0.12018424
0000d0 58 72 f5 3c 28 d5 e2 bc 80 7f 12 bb 38 d8 24 3e
       0.02996175 -0.027689531 -0.0022353828 0.16098106
0000e0 36 4d 14 be c0 c6 b0 3c 00 78 97 3c 65 87 03 be
       -0.14482579 0.021579146 0.018489838 -0.12844618
0000f0 c1 9a 2c be c8 c0 d8 bd 34 90 90 bd 80 df b9 3d
       -0.16855909 -0.10583645 -0.070587546 0.09075832
000100 9b c2 e4 bd a6 49 13 3e a2 4f 56 bd ab 15 d8 bd
       -0.111699305 0.14383563 -0.052322038 -0.10551008
000110 00 1e ac 3c f0 bd ae bd d8 af eb 3d 3b ae 90 bd
       0.021010399 -0.085323215 0.11508149 -0.07064482
000120 3c ec 14 3e 78 37 1c be 97 7e ac bd d0 69 9d 3c
       0.14543241 -0.15255535 -0.084225826 0.019215494
000130 40 45 7d bd 20 0a dc 3d b8 1e 4f 3d c8 0b 25 be
       -0.06183362 0.10744119 0.050566405 -0.16117775
000140 88 a4 d9 3d 38 62 19 3e 94 a6 fe 3d 62 44 6f bd
       0.10627085 0.14978874 0.12434116 -0.058414824
000150 a2 07 0f be f8 e5 1d 3d 58 03 87 3c 12 5b 9d 3d
       -0.13967755 0.038549393 0.016481087 0.07683386
000160 77 e0 d4 bd 74 2e b9 bd 70 66 71 3c 3e 0a 1e be
       -0.10394376 -0.09042063 0.014733896 -0.15433595
000170 a8 87 9b 3d e0 e3 db bb 80 e9 e8 3d 20 a3 22 be
       0.07594234 -0.0067105144 0.113726616 -0.1588254
000180 d2 e7 48 bd 90 b9 25 3d b2 f7 0c 3e ac 68 1d 3e
       -0.049049206 0.04046017 0.13766363 0.1537196
000190 d8 87 c3 bd 8c 66 67 3d 50 7c 38 bc d2 e6 1b 3e
       -0.095473945 0.05649428 -0.011260107 0.1522477
0001a0 f3 c6 9b bd 14 43 00 3e 50 ec 1b bc 28 38 cf bd
       -0.07606306 0.12525588 -0.0095167905 -0.10118133
0001b0 42 5e 8d 3d 7a 18 90 3d 54 49 f1 3d a5 1a a6 bd
       0.06902744 0.070359185 0.11781564 -0.08110551
0001c0 6c fd 28 be 20 19 bd 3c f6 d4 f9 bd 78 26 da bd
       -0.16502923 0.02308327 -0.12198822 -0.106518686
0001d0 a3 e9 9a bd 06 c1 0b 3e 00 6e 6c 3b 48 de fb bc
       -0.07564094 0.13647851 0.0036076307 -0.03074564
0001e0 10 c0 ab 3c 9e 32 6f bd 3e 33 05 3e 70 15 ae 3c
       0.020965606 -0.05839788 0.13007829 0.021250457
0001f0 b8 ff d6 3d e8 de 48 3d bc f5 c2 3d 14 5d 77 3d
       0.10497993 0.049040705 0.09519526 0.0603915
000200 84 52 cb 3d 54 7f 26 bd a4 bd be 3d 94 1f 3f 3d
       0.09927848 -0.040648773 0.09313515 0.046660975
000210 96 95 04 be 76 42 0a be 04 de 07 3e 04 76 67 bd
       -0.12947688 -0.13501915 0.13268286 -0.056509033
000220 3a 0d 2d 3e bc 93 9c 3d 04 9d 0e 3e 04 42 c6 bd
       0.16899577 0.076453656 0.13927084 -0.0968056
000230 54 a8 0e be ee 76 00 be d1 1e 29 be 35 c6 a1 bd
       -0.139314 -0.12545368 -0.16515662 -0.07899133
000240 a0 84 bd 3d aa 54 55 bd a8 a6 ca 3c 51 22 a2 bd
       0.09253812 -0.052082695 0.024737671 -0.079167016
000250 78 de e2 bd b0 02 82 3d 14 bf 0a 3d 00 a7 92 3d
       -0.11077589 0.06348169 0.033873633 0.07160759
000260 d4 5c 91 3d 2c ef 50 3d 72 05 08 be ea bc 12 3e
       0.07097784 0.051009342 -0.13283327 0.14329877
000270 28 9b b9 bc 7c fb d4 3d 60 b8 05 3c 2c 96 cb 3d
       -0.022656992 0.10399529 0.008161634 0.099407524
000280 5b 9a 1a be d8 f0 a1 bc 42 94 1c 3e 1c 7b fd 3d
       -0.15097944 -0.019768164 0.15290931 0.12376997
000290 2f c9 9a bd 4e 88 f6 bd 74 af 40 3d 8b 60 9a bd
       -0.07557904 -0.12037717 0.047042325 -0.07537945
0002a0 11 4e c0 bd e7 31 da bd 88 3a 26 be 16 9e f6 bd
       -0.0938989 -0.10654049 -0.16233265 -0.12041871
0002b0 14 81 72 3d 60 aa 37 bc d0 24 08 bc a0 c3 7b 3c
       0.05920513 -0.011210054 -0.008309558 0.015366465
0002c0 b0 b4 0d be 90 6d 12 bd 91 3d 28 be 9b 21 18 be
       -0.13838458 -0.03574902 -0.16429736 -0.1485657
0002d0 18 b9 86 3d a8 1b fb 3c 3a 91 5a bd e6 3e 26 be
       0.065782726 0.030652836 -0.053361155 -0.16234931
0002e0 cc ef 2b be 28 2f 22 3d 72 d6 12 be c8 7a 01 be
       -0.16790694 0.039595753 -0.14339617 -0.12644494
0002f0 1b d7 27 be b9 2a c5 bd 60 7f 04 bd 90 f9 5b bc
       -0.1639065 -0.09627289 -0.032348037 -0.0134262
000300 18 0c ff bc 14 ec 92 bd 44 46 f2 3d 38 b6 d8 3d
       -0.031133696 -0.071739346 0.11829808 0.105816305
000310 5c 42 ce 3d e2 c5 07 be 40 0b 0e 3b 4c 72 1a be
       0.10071251 -0.1325908 0.0021674186 -0.15082663
000320 4e d7 12 3e 80 ee fe 3b 60 41 b2 bc 68 6a 5c bd
       0.14339945 0.0077798963 -0.021759689 -0.053812414
000330 38 ae 8b 3d 36 52 91 3d 44 18 17 3e e0 f5 ef bd
       0.06820339 0.070957586 0.1475535 -0.11716819
000340 04 ae ee 3d 24 61 7e 3d 4f b1 d3 bd 18 7b c1 bc
       0.116542846 0.06210436 -0.10336553 -0.023618266
000350 b9 36 8d bd 68 25 53 3d 88 0f f0 bc 0c 3c 23 be
       -0.06895203 0.051549345 -0.02930428 -0.15940875
000360 00 d3 0f 3b 96 18 90 3d 64 95 cb 3d 9a c0 8f bd
       0.0021945834 0.070359394 0.099406034 -0.07019158
000370 10 83 cb 3d 99 7e 22 be e6 c2 83 bd ef 49 f9 bd
       0.099371076 -0.15868606 -0.06433658 -0.12172305
000380 ae 4d 24 be 67 e9 b1 bd 00 36 b1 ba 30 38 9c bc
       -0.16045257 -0.08687096 -0.0013520122 -0.019069761
000390 0f 7b 1e be 0c a0 eb 3d 40 aa e8 3b 9c 2e fa 3d
       -0.1547663 0.11505136 0.0071003735 0.12215921
0003a0 e4 4b 1b 3d 1c 4e 76 3d d1 85 ca bd 04 9a 1a 3e
       0.03791417 0.060133085 -0.09888805 0.15097815
0003b0 22 aa 34 bd 40 a6 1a bd 0c 24 e9 3d d2 5b 09 be
       -0.044107564 -0.037756205 0.113838285 -0.13413933
0003c0 db e5 2b be 8a 9e 5f bd 89 f8 11 be 58 0f 00 bd
       -0.16786902 -0.054594554 -0.14254965 -0.031264633
0003d0 20 29 e8 3b 08 b2 1d 3e 64 2e 22 bd 48 5d c6 3d
       0.0070849806 0.15399945 -0.039595023 0.09685761
0003e0 be 93 2c 3e dc fc 17 3e 68 a4 f1 bd f4 41 85 bd
       0.16853234 0.14842552 -0.11798936 -0.0650672
0003f0 12 2b 1f 3e 81 6d 20 be 60 12 5c 3d 78 65 ef bc
       0.15543774 -0.15666772 0.05372846 -0.029223189
