model/saved_models/en_encoder/model_epoch_15.pt (torch_old, 115280 bytes, 11 tensors)

weight f4 [74, 20]
0.18077159 -0.069988094 -0.3596235 -0.91520447 0.6257653 0.025509924 0.95451367 0.06434853
0.36115056 1.1678782 -1.3498932 -0.5101767 0.2359577 -0.23977837 -0.9211147 1.543297
1.3488258 -0.13964167 0.28579724 0.9651205 0.007537098 -0.005622372 0.013489911 0.003608577
-0.014048665 -0.12654592 0.0055829594 -0.024666023 -0.004310009 0.02604332 0.18084475 0.4976637
0.0028286362 0.0045482097 0.0107220085 -0.0037064017 -0.0008906585 -0.0074074613 0.006566937 -8.334489e-05
0.3278307 -0.1910488 0.505042 -0.40213057 -1.0751585 0.15726344 0.07588423 -0.33657303
0.39626682 -0.375125 0.36954194 -0.17974338 -0.336387 1.6729147 1.6315486 -0.6827082
0.35592556 -0.7397051 -1.0731951 0.00629124 0.7788983 1.5332688 1.6097364 -0.40322813
-0.8344702 0.5978008 -0.05140591 -0.064558834 -0.49700567 0.4657563 -0.2572586 -1.0672592
2.0089414 -0.5369768 0.22279923 0.69705456 -1.4266635 0.90594244 0.14459474 0.22800043
2.4899635 -1.223671 1.0106691 0.5559964 -1.5934904 -1.2706459 0.6903261 -0.19613503
0.34491444 -0.34188607 0.47587186 -0.76633984 -0.4189628 -0.43699482 -1.0012069 -0.40942824
-1.666937 -1.3651438 -0.1655241 0.96225154 0.03154889 -0.7419016 -0.29778957 0.017165666
-0.1772239 -0.13342951 0.29395735 1.3849541 0.12091276 2.5417871 -0.64046 -1.9740105
-0.32956925 0.007958851 0.9262348 -1.8845556 0.1669616 0.45862234 -1.7662065 0.5859862
0.4113258 -0.11356951 -0.07967014 0.11229064 -0.18274106 -0.016304469 0.11422796 -0.62925225
-0.16824675 0.89170265 0.2457436 -0.17709264 0.60482234 -0.014564033 0.0965756 -0.5076764
-0.15322764 -0.11106247 0.187884 -0.048638616 0.30665475 -0.7472333 0.7434943 0.88765764
2.2874365 0.96113855 -1.5296903 -0.29122463 -0.11395203 -0.31366795 -0.6293117 1.1385068
-0.99127394 0.1699892 1.2248735 -0.23453896 -1.0571605 -0.65426755 1.590885 -0.6994915
-0.89605623 0.0661913 -0.056280244 2.341223 -2.723433 0.509673 -0.8144687 -0.2460404
0.0045085433 2.0474298 -0.15754561 -0.21867052 -1.3519301 -0.057280593 -1.853978 -1.38489
-0.34539968 -1.1625037 0.14448078 0.16632313 0.75069964 0.9131729 -1.7277395 1.3055398
0.95932335 1.0599629 0.62986356 -1.2866658 -0.68748116 2.1382189 0.51141226 1.21909
0.19098009 -0.3425078 1.7955087 1.3914595 1.0785228 -0.6149516 -0.45885316 0.5674816
0.01828906 -1.6608495 1.1169225 0.51965374 -1.2423062 -0.96182054 -0.08499837 0.11854202
0.29843238 -0.72635716 -0.31186885 -0.45604107 0.6440739 0.60728014 1.2396588 0.73249406
0.50418305 0.8713492 -0.27415806 -0.74689287 -0.583239 0.36988485 -0.55562496 -0.3982808
-0.5818785 -0.2208343 0.0135370735 -0.3057357 -0.030383771 0.8216064 0.00038670364 -0.44742158
0.8203956 -1.5177529 0.6158723 -1.864795 -0.97772694 0.06322355 -0.45483163 -0.4147402
1.4987006 -0.039866813 -0.8051018 -1.1624465 0.42715997 -0.2819249 -0.012773277 -0.8779162
-0.32248142 0.18299298 -0.9303021 -1.2487695 1.119174 -1.9079236 -0.5275634 1.0806552
00000000: 301c 393e eb55 8fbd 9220 b8be d74a 6abf
00000010: 2832 203f 30fa d03c 025b 743f 29c9 833d
00000020: bae8 b83e 087d 953f 4dc9 acbf f19a 02bf
00000030: e59e 713e 7688 75be 2cce 6bbf c28a c53f
00000040: 53a6 ac3f 3afe 0ebe 0454 923e 2312 773f
00000050: c3f9 f63b e03b b8bb ca04 5d3c e07d 6c3b
00000060: 5f2c 66bc 4195 01be 42f1 b63b 6610 cabc
00000070: fa3a 8dbb cd58 d53c 5e2f 393e c7cd fe3e
00000080: a460 393b 2609 953b 5dab 2f3c 1ae7 72bb
00000090: 157b 69ba 4aba f2bb 762f d73b 72c9 aeb8
000000a0: 6dd9 a73e 4ca2 43be 6f4a 013f 0fe4 cdbe
000000b0: cb9e 89bf ab09 213e 3169 9b3d 4d53 acbe
000000c0: 7ce3 ca3e 6210 c0be 9a34 bd3e a60e 38be
000000d0: eb3a acbe 1222 d63f 96d6 d03f f7c5 2ebf
000000e0: e03b b63e 505d 3dbf 755e 89bf bf26 ce3b
000000f0: e165 473f 2742 c43f d80b ce3f eb73 cebe
00000100: d79f 55bf 7909 193f 018f 52bd 6c37 84bd
00000110: 8777 febe 9c77 ee3e 66b7 83be f39b 88bf
00000120: 7f92 0040 5077 09bf 7b25 643e 2b72 323f
00000130: e99c b6bf d8eb 673f a510 143e f278 693e
00000140: 905b 1f40 40a1 9cbf 9b5d 813f c855 0e3f
00000150: 7ef7 cbbf 86a4 a2bf 36b9 303f 9fd7 48be
00000160: a098 b03e b10b afbe 7aa5 f33e d92e 44bf
00000170: 4b82 d6be c9bd dfbe 8c27 80bf 94a0 d1be
00000180: 315e d5bf 08bd aebf 267f 29be 1e56 763f
00000190: 6939 013d 43ed 3dbf e077 98be 039f 8c3c
000001a0: 2f7a 35be bfa1 08be 9481 963e 2d46 b13f
000001b0: 1ca1 f73d a4ac 2240 30f5 23bf 60ac fcbf
000001c0: 4dbd a8be d765 023c b91d 6d3f 1e39 f1bf
000001d0: fbf7 2a3e 8cd0 ea3e 0e13 e2bf 3103 163f
000001e0: 4c99 d23e 2297 e8bd 192a a3bd a3f8 e53d
000001f0: 7920 3bbe f390 85bc 59f0 e93d ad16 21bf
00000200: e048 2cbe a046 643f 36a4 7b3e c657 35be
00000210: a3d5 1a3f fb9d 6ebc 6ec9 c53d 15f7 01bf
00000220: b5e7 1cbe b874 e3bd aa64 403e 4939 47bd
00000230: da01 9d3e ae4a 3fbf a455 3e3f 883d 633f
00000240: 5c65 1240 2d0d 763f e4cc c3bf 651b 95be
00000250: af5f e9bd 1699 a0be 921a 21bf 97ba 913f
00000260: 21c4 7dbf a611 2e3e a8c8 9c3f fb2a 70be
00000270: 0951 87bf 147e 27bf 1fa2 cb3f e011 33bf
00000280: f163 65bf 4e8f 873d 1d86 66bd 99d6 1540
00000290: ba4c 2ec0 ee79 023f 0581 50bf 04f2 7bbe
000002a0: 67bc 933b 1709 0340 a353 21be 2aeb 5fbe
000002b0: 0c0c adbf 0e9f 6abd 274f edbf 1344 b1bf
000002c0: 3ad8 b0be eccc 94bf c5f2 133e 9c50 2a3e
000002d0: da2d 403f b3c5 693f 9126 ddbf ee1b a73f
000002e0: 3796 753f ddac 873f bd3e 213f 77b1 a4bf
000002f0: c4fe 2fbf 94d8 0840 eaeb 023f 240b 9c3f
00000300: 4990 433e 2f5d afbe 3bd3 e53f 581b b23f
00000310: 090d 8a3f 786d 1dbf cdee eabe 7946 113f
00000320: f0d2 953c b796 d4bf 51f7 8e3f 0708 053f
00000330: e403 9fbf df39 76bf a013 aebd 29c6 f23d
00000340: 21cc 983e 8bf2 39bf 46ad 9fbe 377e e9be
00000350: 07e2 243f b676 1b3f 24ad 9e3f bb84 3b3f
00000360: 2412 013f be10 5f3f 725e 8cbe 5f34 3fbf
00000370: 274f 15bf 8c61 bd3e 703d 0ebf 76eb cbbe
00000380: fdf5 14bf 6322 62be 9aca 5d3c 6489 9cbe
00000390: 63e7 f8bc cc54 523f 7cbe ca39 7114 e5be
000003a0: 7205 523f ba45 c2bf cfa9 1d3f 9ab1 eebf
000003b0: 504c 7abf 597b 813d b1df e8be d458 d4be
000003c0: 6cd5 bf3f 624b 23bd 271b 4ebf 0ccb 94bf
000003d0: b6b4 da3e 7658 90be 0247 51bc 1ebf 60bf
000003e0: 491c a5be 8362 3b3e 4728 6ebf aed7 9fbf
000003f0: 1841 8f3f d736 f4bf 650e 07bf e952 8a3f

weight_ih_l0 f4 [200, 20]
0.4093746 2.4040415 -0.36754376 1.7696705 -0.044164326 2.1644323 -1.1689941 -0.6651977
-0.7524778 0.20494957 -1.7772394 -4.860187 -2.281973 0.67761034 -1.3088163 1.9148241
0.8412677 -1.3929472 -2.0849557 -0.004882062 -0.26919043 0.40463978 1.2924109 -0.30516347
0.30844083 -1.0170591 0.21857734 -1.3393657 -0.28307372 -0.04724871 0.85476303 0.7433295
0.6640435 0.53075534 0.0058340505 -0.13955748 -0.48116374 0.9949835 0.500036 -1.5029594
1.3814558 0.43796945 0.50416905 -1.0757821 1.2709799 0.27842876 0.30127358 -0.058110204
-0.9234659 -0.30952638 -1.4722112 -0.7390692 0.37731743 1.7568057 -0.14911945 0.96432686
1.4183283 -1.028164 0.46795225 -0.3213915 0.98429066 0.6861997 0.1555177 -0.2287207
0.25649908 -1.278223 0.7283042 -0.4690783 0.19785164 0.2539439 0.2938564 0.41975307
0.37154678 1.1394256 0.2995148 -0.23779899 1.1461456 0.20236741 -0.7025561 -0.56143415
0.33395806 -1.1162986 -0.48858407 -0.944297 0.2531905 0.56895834 -0.3434365 -0.0479457
0.53352195 1.1730994 -1.1790133 -1.4362084 -0.3022264 -0.50048614 -0.5519572 -0.70538986
-0.21670935 0.05213899 -0.91970706 0.019898772 0.41579592 0.3866869 0.38397044 -0.36512518
-1.3007659 0.05990168 0.7614067 1.0650797 1.381949 -2.1314588 -0.33823442 1.7078686
-3.5846992 -2.0946643 0.8166784 -1.1186455 0.7800558 1.767471 0.6983186 0.46354252
0.23666096 0.3249459 0.48171997 0.0017218296 -1.3597115 -1.4033192 0.3972311 -0.7400811
0.15209794 -1.4571878 1.2684577 0.37825215 -1.5325577 -0.22955658 -1.7219877 0.9944974
-0.39451605 -0.0139004355 0.02101141 -1.2755 0.3847405 0.7514071 -1.26334 0.2513096
0.6281259 0.09440974 0.24201971 -0.77526057 -0.7852879 0.8529608 0.31056088 0.27840215
0.10904391 -0.19860956 -0.05179879 -0.7136562 0.461734 -0.5128662 0.13432315 -0.007739969
-0.27366605 0.672253 1.0689442 -0.35958853 0.08095949 -0.26920518 -0.12436129 -0.764658
-0.57018167 -0.45588318 0.4362559 -1.308418 0.88226825 0.35440865 0.029415788 1.5749036
0.42477384 -0.44538775 -1.5044823 -0.38679186 -0.4457505 -2.6912909 0.5323639 0.86652285
1.9866635 1.9182657 -2.620983 -1.7818483 1.8151935 3.1292922 -1.2980325 -0.27976122
-0.6544823 3.5041654 0.18395904 1.5099744 -1.3541846 1.8605285 1.7250277 0.105364084
-0.63319796 -0.1309782 -0.23622358 -0.27646938 1.2808056 0.16730818 0.40120116 0.92142963
0.72135913 0.15540995 -0.65278137 0.22236052 -0.56771004 0.64338225 -0.097791374 0.34655377
-0.33495957 0.14848313 0.22683847 0.1003879 -0.45523348 1.0622303 -0.1164253 -0.8118735
0.21251106 -0.96570516 1.7188715 0.63081753 -0.060683023 -0.856317 0.39215836 0.4231131
0.29350027 -0.62312204 0.111656435 -0.2540942 -0.0021694938 -0.008423806 0.08823843 0.32433143
0.13310699 -0.11357051 -0.48716104 -1.0231948 -0.07858162 0.13471884 0.64033735 4.2863583e-05
-0.59967464 -0.21157312 -0.23404853 -0.22646956 -0.057451334 -0.46860328 0.063019656 0.046037942
00000000: 8c99 d13e d1db 1940 b22e bcbe 9084 e23f
00000010: a7e5 34bd 0f86 0a40 99a1 95bf 654a 2abf
00000020: 63a2 40bf 4dde 513e 957c e3bf a786 9bc0
00000030: d80b 12c0 df77 2d3f 4b87 a7bf f518 f53f
00000040: 525d 573f 184c b2bf ea6f 05c0 b4f9 9fbb
00000050: 54d3 89be f22c cf3e b86d a53f 633e 9cbe
00000060: f5eb 9d3e fe2e 82bf bdd2 5f3e 5670 abbf
00000070: 0aef 90be dd87 41bd c0d1 5a3f d84a 3e3f
00000080: c1fe 293f 95df 073f 902b bf3b 28e8 0ebe
00000090: 185b f6be 3db7 7e3f 5c02 003f f960 c0bf
000000a0: 8bd3 b03f 883d e03e 3911 013f 3ab3 89bf
000000b0: 78af a23f 378e 8e3e 8840 9a3e f704 6ebd
000000c0: 4368 6cbf 3e7a 9ebe 6b71 bcbf a433 3dbf
000000d0: c02f c13e 02df e03f c5b2 18be 20de 763f
000000e0: c88b b53f e19a 83bf 7097 ef3e 6d8d a4be
000000f0: 79fa 7b3f c9aa 2f3f 0840 1f3e c235 6abe
00000100: d953 833e d09c a3bf 2572 3a3f 082b f0be
00000110: 9f99 4a3e ef04 823e 5974 963e e0e9 d63e
00000120: 613b be3e b3d8 913f 015a 993e 9481 73be
00000130: e6b4 923f 6739 4f3e b7da 33bf 26ba 0fbf
00000140: 8dfc aa3e dfe2 8ebf b127 fabe 73bd 71bf
00000150: 2fa2 813e 41a7 113f e9d6 afbe b662 44bd
00000160: e594 083f 1f28 963f e8e9 96bf add5 b7bf
00000170: 6bbd 9abe dc1f 00bf 114d 0dbf 6e94 34bf
00000180: 0ee9 5dbe b28f 553d ec71 6bbf c002 a33c
00000190: 34e3 d43e d3fb c53e c697 c43e b0f1 babe
000001a0: 7f7f a6bf 775b 753d 8deb 423f 8854 883f
000001b0: b4e3 b03f d269 08c0 102d adbe 709b da3f
000001c0: b66b 65c0 fb0e 06c0 d611 513f c72f 8fbf
000001d0: bdb1 473f 7d3c e23f 02c5 323f 7255 ed3e
000001e0: 4057 723e 4f5f a63e 00a4 f63e 04af e13a
000001f0: 070b aebf f79f b3bf e061 cb3e f475 3dbf
00000200: 90bf 1b3e 2185 babf d25c a23f 44aa c13e
00000210: da2a c4bf e110 6bbe 186a dcbf 6297 7e3f
00000220: 02fe c9be a7be 63bc 1f20 ac3c 9643 a3bf
00000230: b5fc c43e 375c 403f 20b5 a1bf a7ab 803e
00000240: dccc 203f e559 c13d 04d4 773e 7a77 46bf
00000250: a108 49bf a45b 5a3f d601 9f3e ba8a 8e3e
00000260: 6a52 df3d 4e60 4bbe f82a 54bd 2cb2 36bf
00000270: 6668 ec3e 334b 03bf 028c 093e 919f fdbb
00000280: f51d 8cbe c618 2c3f 2ad3 883f fd1b b8be
00000290: 17ce a53d 43d5 89be 22b1 febd a0c0 43bf
000002a0: 6df7 11bf 8569 e9be ef5c df3e 3e7a a7bf
000002b0: 55dc 613f 0d75 b53e 61f9 f03c 7196 c93f
000002c0: f57b d93e dd09 e4be e092 c0bf 9509 c6be
000002d0: 6939 e4be 1c3e 2cc0 0049 083f 71d4 5d3f
000002e0: fd4a fe3f bb89 f53f 2fbe 27c0 9b13 e4bf
000002f0: 4358 e83f 5346 4840 ee25 a6bf dd3c 8fbe
00000300: 278c 27bf 3f44 6040 c25f 3c3e d746 c13f
00000310: ec55 adbf cc25 ee3f b5cd dc3f 20c9 d73d
00000320: 4319 22bf 261f 06be 98e4 71be 658d 8dbe
00000330: 70f1 a33f d652 2b3e 3d6a cd3e d0e2 6b3f
00000340: feaa 383f c923 1f3e ae1c 27bf 7ab2 633e
00000350: 7255 11bf b3b4 243f d846 c8bd 7f6f b13e
00000360: d27f abbe f60b 183e 5848 683e 2c98 cd3d
00000370: 5d14 e9be 2af7 873f 6370 eebd f1d6 4fbf
00000380: 809c 593e 7438 77bf fb03 dc3f 427d 213f
00000390: c38e 78bd 9737 5bbf fbc8 c83e 48a2 d83e
000003a0: ab45 963e ed84 1fbf 21ac e43d a318 82be
000003b0: 112e 0ebb 0104 0abc 5ab6 b43d c50e a63e
000003c0: 334d 083e a897 e8bd 2c6d f9be 0cf8 82bf
000003d0: 66ef a0bd bcf3 093e 26ed 233f 6cc8 3338
000003e0: 4784 19bf a0a6 58be 6baa 6fbe a3e7 67be
000003f0: 1752 6bbd c5ec efbe 7310 813d 4892 3c3d

weight_hh_l0 f4 [200, 50]
1.0698677 2.9964106 1.4377061 0.32156613 -1.6452388 -3.999736 -1.5778086 1.2708755
0.1759193 -1.3523883 -4.272543 0.5143776 -0.5640093 -0.37388325 0.4372019 -0.99490166
-1.228193 -0.03117214 0.6439051 -1.4355052 -0.11075513 0.3414855 4.176623 -4.97762
0.4452322 2.4362805 0.3138716 -1.2257853 0.7068002 -4.9502206 1.1627774 4.506245
2.7646108 -2.5652492 -1.572614 -5.758593 -0.053130537 2.0905483 0.28051946 1.8126343
-2.3661556 0.75137186 4.791275 -0.7124776 -6.084611 2.1912475 -0.34870797 1.5234132
-0.20128451 -2.3730443 -1.1117465 -0.30945906 0.82497215 0.077875756 1.5688075 -0.91608673
0.7677662 -0.5180118 -9.413747 2.9674459 -2.258041 -0.31890383 0.3555354 -0.28011423
1.4130018 -0.12869309 -0.022134636 -0.61582595 1.4519482 0.2613796 0.3898708 1.7871615
-0.8490929 -0.9447883 1.6412526 -0.6016069 1.9600701 -0.59410536 -1.2761148 1.2242944
-1.8971993 -0.7640444 0.03939761 0.15619712 0.17136341 -0.0040680184 -0.26838565 0.73406047
0.057986625 -1.5223172 0.51842684 0.37623063 1.2802067 1.5592747 -1.0809816 0.010990851
-1.3480852 -0.77110827 -0.7844477 0.071395114 -0.7729633 0.37735432 -0.5576845 0.19330281
-4.033103 -2.8348987 -0.4859705 1.2430029 -1.0511031 -0.65813047 1.1975538 2.324217
1.5564559 -0.20592052 -1.3535684 -0.8288771 -1.0657603 -1.7465899 -0.35811883 3.3801026
-0.33073235 0.26470363 1.8725964 0.9468958 -0.44505885 -1.2521957 -0.2753773 1.4551122
0.80075455 -0.99835706 -1.7928566 -1.377217 -0.20046183 -2.1483226 0.48974118 -1.5237328
-1.4498323 1.3971617 -0.6507101 2.0299375 3.948249 -0.4397865 -0.5878532 0.68896043
0.26332483 1.5266316 0.74468607 -0.76036465 -1.5260522 -3.1709552 -0.34661874 0.42665023
-0.7537006 -0.9447914 1.5404713 -1.0930464 -0.10752362 -1.7414424 -3.67667 1.0067531
0.21358016 0.3217967 2.0158525 -0.2447041 0.066494375 8.061351 -0.41230628 1.3357174
0.39990535 -0.06496639 -0.59207666 1.2296206 -0.6008399 -0.17019655 -0.23238997 -1.121898
-3.1030998 1.9363353 -0.51738614 1.4506271 0.17498733 3.6237931 1.2169037 -0.29623842
-0.17936416 -0.049165655 -0.7940697 -0.21195586 -0.7833576 0.039951395 1.8304031 0.5923728
-1.4557029 0.04112028 0.07761915 -0.8337106 -0.8276898 -0.90861136 0.6799037 0.39340582
0.12832725 1.7994406 2.7626395 0.4811686 -1.8834556 0.34442028 -0.841845 -0.2133289
-0.18747656 -1.0028595 -0.94303966 0.4283322 -0.62442887 -0.14965272 -1.9715616 -0.06394305
0.004639632 0.3147287 -0.56210744 0.2616738 -1.0459778 2.3630047 -0.49408162 -0.1482009
0.7986198 -1.1191862 0.928487 0.009342332 -0.24092293 -0.33788535 2.0901062 0.78033966
1.0626557 -0.40396947 1.1111307 -0.18966773 2.101971 1.4057671 -0.25721493 -0.3079383
0.81414294 0.41993728 -0.39071113 -1.1265972 2.948398 1.9055761 0.25374055 -0.59985894
0.536983 -2.8929982 1.662556 0.7087351 -0.40125942 -0.6481196 0.47703022 -0.48052767
00000000: 6df1 883f 31c5 3f40 c106 b83f 51a4 a43e
00000010: 2f97 d2bf adfb 7fc0 a2f5 c9bf 0cac a23f
00000020: 3024 343e 0f1b adbf acb8 88c0 40ae 033f
00000030: ea62 10bf a06d bfbe edd8 df3e e0b1 7ebf
00000040: 6e35 9dbf b75c ffbc f7d6 243f a2be b7bf
00000050: 96d3 e2bd 30d7 ae3e e5a6 8540 aa48 9fc0
00000060: 7af5 e33e 05ec 1b40 c7b3 a03e 88e6 9cbf
00000070: dcf0 343f 3568 9ec0 e4d5 943f 2933 9040
00000080: 62ef 3040 0b2d 24c0 6a4b c9bf 6546 b8c0
00000090: 689f 59bd 8bcb 0540 3fa0 8f3e 6704 e83f
000000a0: 186f 17c0 e859 403f 2052 9940 ef64 36bf
000000b0: 22b5 c2c0 663d 0c40 da89 b2be 34ff c23f
000000c0: 871d 4ebe f5df 17c0 b64d 8ebf 6b71 9ebe
000000d0: 6031 533f 537d 9f3d afce c83f a984 6abf
000000e0: 538c 443f 6c9c 04bf b59e 16c1 a2ea 3d40
000000f0: be83 10c0 5d47 a3be bc08 b63e 226b 8fbe
00000100: 3edd b43f 1fc8 03be b253 b5bc c5a6 1dbf
00000110: 70d9 b93f 8cd3 853e 259d c73e b5c1 e43f
00000120: 275e 59bf a5dd 71bf 9114 d23f e902 1abf
00000130: 94e3 fa3f 4a17 18bf bb57 a3bf aeb5 9c3f
00000140: 6dd7 f2bf 6a98 43bf 635f 213d 23f2 1f3e
00000150: e479 2f3e 034d 85bb d869 89be 63eb 3b3f
00000160: 6283 6d3d 4adb c2bf 9fb7 043f 4da1 c03e
00000170: d0dd a33f 5096 c73f 9b5d 8abf f812 343c
00000180: 0e8e acbf 5a67 45bf 91d1 48bf 9a37 923d
00000190: ece0 45bf 9634 c13e 69c4 0ebf 2cf1 453e
000001a0: 2e0f 81c0 fb6e 35c0 20d1 f8be b81a 9f3f
000001b0: 8c8a 86bf 3d7b 28bf 7149 993f f9bf 1440
000001c0: f239 c73f d4dc 52be bb41 adbf 4a31 54bf
000001d0: d56a 88bf 4290 dfbf 5a5b b7be 9a53 5840
000001e0: c055 a9be 3c87 873e 3db1 ef3f c367 723f
000001f0: c1de e3be f347 a0bf 41fe 8cbe 1e41 ba3f
00000200: 40fe 4c3f 5494 7fbf 537c e5bf a648 b0bf
00000210: de45 4dbe 1e7e 09c0 5bbf fa3e ad09 c3bf
00000220: 1b94 b9bf 32d6 b23f f094 26bf 7fea 0140
00000230: 1db0 7c40 b22b e1be 8c7d 16bf b65f 303f
00000240: 83d2 863e aa68 c33f bfa3 3e3f 42a7 42bf
00000250: ae55 c3bf eef0 4ac0 0378 b1be e671 da3e
00000260: 86f2 40bf d9dd 71bf 2a2e c53f f2e8 8bbf
00000270: 5835 dcbd 96e7 debf 904e 6bc0 49dd 803f
00000280: c2b4 5a3e 89c2 a43e ba03 0140 b693 7abe
00000290: 342e 883d 4bfb 0041 cf19 d3be caf8 aa3f
000002a0: 65c0 cc3e 190d 85bd 5692 17bf 3564 9d3f
000002b0: a5d0 19bf 0148 2ebe a3f7 6dbe 5b9a 8fbf
000002c0: 3099 46c0 d6d9 f73f 6b73 04bf 26ae b93f
000002d0: e12f 333e 3aec 6740 80c3 9b3f 90ac 97be
000002e0: 3dab 37be ed61 49bd 2748 4bbf f50a 59be
000002f0: 208a 48bf 13a4 233d a64a ea3f bea5 173f
00000300: 7954 babf bd6d 283d caf6 9e3d 0f6e 55bf
00000310: 7be3 53bf c19a 68bf 2b0e 2e3f 7d6c c93e
00000320: 3868 033e 1254 e63f 16cf 3040 bb5b f63e
00000330: 1315 f1bf db57 b03e 2783 57bf e472 5abe
00000340: dbf9 3fbe b35d 80bf 0c6b 71bf 5c4e db3e
00000350: 92da 1fbf 903e 19be 215c fcbf 93f4 82bd
00000360: 0e08 983b 1f24 a13e 46e6 0fbf 1cfa 853e
00000370: 9ae2 85bf 783b 1740 44f8 fcbe fac1 17be
00000380: 5972 4c3f 7e41 8fbf 53b1 6d3f 9510 193c
00000390: 80b4 76be 4fff acbe 4dc4 0540 57c4 473f
000003a0: 1a05 883f 16d5 cebe 8839 8e3f 4238 42be
000003b0: b186 0640 2df0 b33f adb1 83be 17aa 9dbe
000003c0: ac6b 503f 0502 d73e 4a0b c8be 5634 90bf
000003d0: 8eb2 3c40 ebe9 f33f 48ea 813e 5b90 19bf
000003e0: b877 093f e226 39c0 a3ce d43f aa6f 353f
000003f0: e071 cdbe 2beb 25bf 4e3d f43e b907 f6be

bias_ih_l0 f4 [200]
0.67778516 1.2806253 -0.75281763 0.9423588 -0.30214006 1.6956729 0.40286714 1.4725002
1.486884 0.2035577 0.81058323 1.3161374 0.3745003 1.3323131 1.0115702 0.24988349
0.6739648 0.73349404 -0.5629218 0.46788684 0.70796967 -0.0928017 1.2852435 0.55609274
1.4765111 0.7990258 0.16984445 0.9681448 -0.1591185 -1.273644 0.3173728 -0.4233117
-0.3512925 1.0159128 1.095815 0.9216017 0.3743223 1.1153368 0.48220012 0.5747297
1.7976369 -0.2313894 0.96646154 0.41027853 1.1832048 0.07576996 1.4197686 0.43445137
0.2135692 0.4762756 -0.93626916 1.0972701 -0.39984673 0.0036317224 0.8572102 -0.62075967
0.12726843 0.9142269 0.6555899 0.59155095 0.74462724 0.5737039 0.6500628 1.0794128
0.16361493 0.9910429 0.27053586 0.26359618 0.16047251 -0.15166408 0.047720533 1.0396458
0.34166735 1.1944839 0.40668088 -0.34903696 0.6226783 0.05510934 -0.87157667 0.68444735
-0.12702598 0.7335736 0.41420528 2.234401 0.9529247 -0.79949296 0.7577439 0.0960508
0.124048576 -0.8278805 0.23608088 0.06643532 -0.6811509 0.34141284 0.9199932 1.0642356
0.14705388 0.5295079 -0.42964095 0.5476164 -0.19491753 0.4094101 0.62712 -0.41638467
0.050228335 -0.32381383 -1.0076421 0.36752993 -0.65166086 0.46245828 0.111444674 1.0165141
0.39407885 -1.0642194 0.40141505 0.8189293 -0.5814609 -0.57434964 0.5000382 0.07689804
0.0053526512 0.5175368 -0.20715739 -0.2873197 -0.11363295 -0.44851986 -0.27753606 0.32772532
0.596615 -0.07945507 0.12589024 0.6880184 -0.10824477 -0.11404684 0.71352494 -0.025337897
-0.36460915 0.90273875 -0.7225708 0.11711177 0.013837917 0.60738707 0.98066986 0.19356091
-0.24724485 0.41961554 0.09903521 1.0415337 -1.1481884 -0.16550407 0.14009005 1.3416948
-0.097784735 0.7138614 0.639751 1.1457988 -0.08873189 0.5766357 0.2767007 0.8553988
1.4932752 0.4427411 0.47097397 -0.19384646 -0.3661826 -0.69909817 0.16271175 2.1175966
-0.8547819 1.5819974 0.15649731 1.4254907 -0.6945942 0.5307335 1.8886566 0.5035744
-0.31492653 0.8896802 0.45407328 0.8473304 0.5613401 1.340895 1.1653101 2.0685275
0.32992923 1.4154595 -0.30696532 0.37902197 -0.393 0.7682421 1.1308604 -0.70890385
1.0163809 -1.7027359 0.46472946 2.2749753 1.1712768 0.4700253 0.33783504 0.796664
00000000: 5483 2d3f 88eb a33f a8b8 40bf 6d3e 713f
00000010: 1ab2 9abe cf0b d93f 9a44 ce3e e37a bc3f
00000020: 3752 be3f 6e71 503e 6282 4f3f 3177 a83f
00000030: 81be bf3e 3c89 aa3f 227b 813f 75e1 7f3e
00000040: f588 2c3f 44c6 3b3f a51b 10bf dd8e ef3e
00000050: 803d 353f d10e bebd dc82 a43f 185c 0e3f
00000060: 51fe bc3f f48c 4c3f b4eb 2d3e 56d8 773f
00000070: f6ef 22be c406 a3bf b07e a23e 50bc d8be
00000080: 9cdc b3be 6e09 823f aa43 8c3f 17ee 6b3f
00000090: 2ca7 bf3e 5bc3 8e3f efe2 f63e 7c21 133f
000000a0: f718 e63f 58f1 6cbe 066a 773f 0710 d23e
000000b0: 4173 973f 482d 9b3d faba b53f 6970 de3e
000000c0: e2b1 5a3e 65da f33e 56af 6fbf 5973 8c3f
000000d0: b6b8 ccbe 3102 6e3b 2172 5b3f 1bea 1ebf
000000e0: a852 023e c60a 6a3f bdd4 273f e26f 173f
000000f0: e49f 3e3f 42de 123f 846a 263f 332a 8a3f
00000100: ac8a 273e fdb4 7d3f ad83 8a3e 14f6 863e
00000110: e852 243e d44d 1bbe 9b76 433d 1d13 853f
00000120: 06ef ae3e d9e4 983f 7a38 d03e f9b4 b2be
00000130: d867 1f3f 55ba 613d a61f 5fbf f137 2f3f
00000140: 1913 02be 7bcb 3b3f b712 d43e 6d00 0f40
00000150: e0f2 733f 92ab 4cbf 81fb 413f 48b6 c43d
00000160: 2e0d fe3d faef 53bf 30bf 713e 3e0f 883d
00000170: e85f 2ebf aacd ae3e ad84 6b3f df38 883f
00000180: 4b95 163e d48d 073f e6f9 dbbe 9730 0c3f
00000190: 7698 47be 339e d13e f08a 203f 5f30 d5be
000001a0: 3abc 4d3d edca a5be 6bfa 80bf e22c bc3e
000001b0: 3fd3 26bf 55c7 ec3e 1b3d e43d 221d 823f
000001c0: b4c4 c93e 5738 88bf 4686 cd3e 5aa5 513f
000001d0: 9fda 14bf 9408 13bf 8102 003f b87c 9d3d
000001e0: 4b65 af3b 4b7d 043f 1121 54be 911b 93be
000001f0: 64b8 e8bd 65a4 e5be 3519 8ebe 9dcb a73e
00000200: c3bb 183f 57b9 a2bd 5fe9 003e f921 303f
00000210: 6faf ddbd 6491 e9bd 92a9 363f 6c91 cfbc
00000220: 0dae babe e319 673f 66fa 38bf 4cd8 ef3d
00000230: 6eb8 623c b87d 1b3f 2e0d 7b3f d534 463e
00000240: c12d 7dbe d9d7 d63e f9d2 ca3d fa50 853f
00000250: d6f7 92bf e679 29be c473 0f3e a8bc ab3f
00000260: 5d43 c8bd 9fbf 363f b9c6 233f 89a9 923f
00000270: 11b9 b5bd 669e 133f b7ab 8d3e 6afb 5a3f
00000280: a423 bf3f f6ae e23e 8023 f13e b07f 46be
00000290: 497c bbbe 19f8 32bf e99d 263e b486 0740
000002a0: fdd2 5abf e47e ca3f d540 203e 7b76 b63f
000002b0: edd0 31bf 27de 073f 80bf f13f 40ea 003f
000002c0: 0d3e a1be 15c2 633f 4b7c e83e a5ea 583f
000002d0: fcb3 0f3f 73a2 ab3f e228 953f c162 0440
000002e0: 7cec a83e c72d b53f 8f2a 9dbe 2b0f c23e
000002f0: 4c37 c9be 84ab 443f 09c0 903f b97a 35bf
00000300: c518 823f 40f3 d9bf 05f1 ed3e 3299 1140
00000310: 66ec 953f 28a7 f03e b7f8 ac3e 2cf2 4b3f

bias_hh_l0 f4 [200]
0.56368434 1.27779 -0.96961176 1.1091952 -0.2861724 1.9043643 0.47053465 1.6124027
1.5026308 0.14385006 1.0219058 1.100328 0.35301787 1.5203252 1.0044457 0.11866055
0.5433283 0.58979714 -0.42519256 0.40746626 0.8096188 -0.17765833 1.2828575 0.7131661
1.4914223 0.9503066 0.39276677 0.86997515 -0.10197524 -1.2081751 0.32675457 -0.39248747
-0.5502817 0.81715846 1.2547804 0.7649137 0.25098297 1.0020031 0.3905589 0.73509026
1.6904353 0.008992474 0.99247736 0.22727236 1.2286757 0.30226275 1.3420117 0.6264987
0.15593691 0.6254 -0.7380969 0.99548763 -0.39677596 -0.09518625 0.817982 -0.6904161
0.12527712 1.017347 0.54717654 0.44812262 0.8426931 0.8059859 0.6696575 1.0233246
0.2303926 0.93150634 0.21049829 0.24483424 0.37327567 0.004215148 -0.006699348 1.0412862
0.5563697 1.1098506 0.32987836 -0.25651157 0.59609246 -0.04071531 -0.7331097 0.66523284
0.111262806 0.8986249 0.58834636 2.0813649 1.094129 -0.9047194 0.84389293 -0.112682395
0.12270858 -1.071594 0.07728213 0.1684171 -0.6166 0.25174057 1.0880027 0.94712394
0.1627545 0.64550626 -0.43330282 0.5171952 -0.4216598 0.38503432 0.7637738 -0.34803465
0.17012586 -0.3158888 -1.1288688 0.39590704 -0.49402568 0.4222687 0.20184502 1.0854841
0.43900943 -0.9854239 0.56613094 0.7605936 -0.4770873 -0.3948354 0.55112296 0.02963617
0.03829388 0.45800593 -0.03724416 -0.25149158 0.07198786 -0.6618765 -0.11392391 0.39455238
0.4367526 -0.14414315 0.11435395 0.656799 -0.057077397 0.05922705 0.59115 -0.07245316
-0.15456232 0.6505997 -0.7541715 -0.04958366 -0.1144156 0.5685902 1.092716 0.09037566
-0.21918836 0.54168624 0.14064811 1.0141001 -1.2682012 -0.32953078 0.066632226 1.4003257
-0.20662051 0.68920535 0.64329624 1.1790777 -0.07844428 0.5528453 0.32928896 0.91126466
1.5077561 0.34337184 0.5311847 -0.32676694 -0.4804378 -0.60215914 0.1701365 2.0399804
-0.6934047 1.4921582 0.31468755 1.6434004 -0.7589181 0.39572075 1.9471494 0.6933232
-0.31953835 0.85265625 0.36538428 0.7145798 0.5668371 1.2350026 1.1919789 2.0750387
0.22554864 1.5624368 -0.3048488 0.23963478 -0.31192413 0.59472954 1.2441813 -0.7122397
0.8601662 -1.8588777 0.4724224 2.032888 1.1238704 0.5956928 0.3097422 1.0666032
00000000: 9e4d 103f 9f8e a33f 7a38 78bf 1cfa 8d3f
00000010: 3085 92be 36c2 f33f ebe9 f03e 3663 ce3f
00000020: 3556 c03f 6e4d 133e cfcd 823f 8cd7 8c3f
00000030: c2be b43e 049a c23f ad91 803f 4d04 f33d
00000040: 9017 0b3f f2fc 163f d7b2 d9be 6b9f d03e
00000050: 2d43 4f3f 11ec 35be ad34 a43f 0e92 363f
00000060: ede6 be3f 4b47 733f ba18 c93e b1b6 5e3f
00000070: 65d8 d0bd 7ba5 9abf 604c a73e 1ef4 c8be
00000080: 43df 0cbf 4c31 513f a59c a03f 62d1 433f
00000090: d780 803e a341 803f 56f7 c73e e02e 3c3f
000000a0: 2f60 d83f 2b55 133c ff12 7e3f 16ba 683e
000000b0: 3f45 9d3f 2fc2 9a3e 0ac7 ab3f 3862 203f
000000c0: edad 1f3e 371a 203f ebf3 3cbf 47d8 7e3f
000000d0: 3826 cbbe 02f1 c2bd 4567 513f 1cbf 30bf
000000e0: a548 003e 6d38 823f c313 0c3f 5470 e53e
000000f0: bcba 573f 1855 4e3f ad6e 2b3f 4dfc 823f
00000100: 0aec 6b3e 3377 6e3f dd8c 573e d4b5 7a3e
00000110: fd1d bf3e 391f 8a3b 3486 dbbb de48 853f
00000120: 3f6e 0e3f 960f 8e3f d1e5 a83e 7c55 83be
00000130: 8499 183f 19c5 26bd 14ad 3bbf b34c 2a3f
00000140: c1dd e33d 480c 663f de9d 163f 1535 0540
00000150: 6b0c 8c3f b19b 67bf 5e09 583f 07c6 e6bd
00000160: a34e fb3d fe29 89bf 1846 9e3d 8875 2c3e
00000170: 7fd9 1dbf 24e4 803e ac43 8b3f b776 723f
00000180: 1ea9 263e e63f 253f ded9 ddbe e866 043f
00000190: cbe3 d7be 3823 c53e ae86 433f 9931 b2be
000001a0: 7935 2e3e 2dbc a1be c67e 90bf 54b4 ca3e
000001b0: eff0 fcbe 9a33 d83e 76b0 4e3e 25f1 8a3f
000001c0: d8c5 e03e be44 7cbf f5ed 103f 43b6 423f
000001d0: c944 f4be de27 cabe 6516 0d3f 8ec7 f23c
000001e0: 0bda 1c3d c17f ea3e 558d 18bd 81c3 80be
000001f0: 5f6e 933d bd70 29bf f050 e9bd c502 ca3e
00000200: 099e df3e 439a 13be 6732 ea3d fb23 283f
00000210: fdc9 69bd 1098 723d 9b55 173f 5362 94bd
00000220: 9645 1ebe b48d 263f 6211 41bf 3c18 4bbd
00000230: ba52 eabd 218f 113f 1ede 8b3f e016 b93d
00000240: ea72 60be f3ab 0a3f 0f06 103e 08ce 813f
00000250: 6b54 a2bf 42b8 a8be 7a76 883d df3d b33f
00000260: 5494 53be c36f 303f 10af 243f 05ec 963f
00000270: 65a7 a0bd 4587 0d3f 9098 a83e a448 693f
00000280: 27fe c03f 6fce af3e b8fb 073f ff4d a7be
00000290: f1fb f5be 1a27 1abf 4338 2e3e 0a8f 0240
000002a0: f882 31bf 0aff be3f ba1e a13e f25a d23f
000002b0: 7548 42bf e99b ca3e 313c f93f a17d 313f
000002c0: 889a a3be ae47 5a3f a613 bb3e b4ee 363f
000002d0: 3c1c 113f 9114 9e3f c492 983f 6fcd 0440
000002e0: 39f6 663e eefd c73f 2415 9cbe d262 753e
000002f0: 85b4 9fbe 3240 183f 5541 9f3f 5755 36bf
00000300: da33 5c3f b4ef edbf 59e1 f13e d61a 0240
00000310: fcda 8f3f 537f 183f 8896 9e3e 7486 883f

weight f4 [74, 50]
0.32959875 -0.39599678 -0.2762375 -0.32078093 0.08837799 0.13085306 0.2027062 -0.1766798
0.4010778 -0.37691313 0.221406 -0.19376919 0.5789436 0.31467786 -0.025801364 -0.5212948
0.14021242 0.3761488 -0.5789542 0.5582533 -0.3326776 -0.21199894 0.35453677 0.38744313
-0.18869285 0.3994824 0.24612089 0.24462567 -0.21106744 0.34311318 -0.18685529 -0.3192938
0.39443946 -0.5075117 -0.2781671 0.26548973 0.15483622 -0.694658 0.3329303 0.00850789
0.11900207 -0.22442655 -0.28216022 -0.14761275 -0.38341406 -0.46995547 -0.06969598 -0.21894895
0.269751 0.3091228 0.3014246 -0.42152324 -0.44385985 -0.1975324 0.089102104 0.12243443
0.455735 -0.07580662 0.37196207 -0.30974877 0.28568804 -0.28023416 0.5616634 0.39091063
-0.09407347 -0.5101643 0.17321444 0.22662832 -0.5580422 0.5463249 -0.41672564 -0.32591328
0.27619943 0.4392096 -0.24362077 0.23046005 0.297758 0.34903404 -0.2772812 0.47121802
-0.16698599 -0.3687221 0.30328184 -0.43905252 -0.33333993 0.20848407 0.23757268 -0.7252893
0.28079706 0.007688503 0.17614976 -0.41467848 -0.19130822 -0.18097436 -0.43844807 -0.28670242
-0.17830987 -0.31146756 0.38960356 0.34942743 -3.9965608 1.3746327 1.4564064 1.644004
-0.6487121 0.55122846 -0.33406445 1.5760092 0.6161175 0.82124007 1.0881807 -0.20948194
-2.6470802 -0.08926228 -0.43719316 1.6005095 -2.2821155 -1.889133 -0.83520216 0.85195965
-0.64011246 1.8741759 -1.3647931 -0.15234242 0.22929025 0.7514262 -0.8646306 -0.13862759
-0.08600301 0.3120105 0.526438 1.5124876 -0.98378175 -0.31067914 0.087186515 -0.7339627
-0.09337852 -2.9528208 -0.10199751 -1.598683 -0.7957695 -1.7913328 0.17757179 -1.2752863
2.9621189 -0.17596649 0.87991834 -1.1649749 1.9697793 -0.013794329 0.22410916 -0.24120751
-0.33863717 -0.28898877 0.010484198 0.15712842 0.3241231 -0.14159188 0.41364047 -0.18756594
0.22149383 -0.35387257 0.59778696 0.44544753 -0.07909336 -0.39863116 0.21119566 0.3525799
-0.48495308 0.4484378 -0.27231765 -0.3673953 0.40167388 0.4528621 -0.3381517 0.34182706
0.094791524 0.39228547 -0.3214383 0.43735477 -0.14921282 -0.21129598 0.3335337 -0.6414849
-0.36561406 0.26231554 0.189232 -0.60636306 0.25791228 0.112186715 0.22907457 -0.18468127
-0.22306302 -0.37609348 -0.4016468 -0.30441222 -0.26218244 -0.29140142 0.40423182 0.16063222
0.24141772 -0.36199847 -0.51084 -0.34938076 0.056608193 0.24771209 0.38406667 -0.061598543
0.52811086 -0.44239292 0.3885162 -0.37126812 0.43729338 0.26558217 -0.10959765 -0.44894508
0.3355442 0.18869881 -0.47832176 0.60837656 -0.18428406 -0.42084843 0.3907295 0.46924844
-0.18302777 0.2413667 0.2558752 0.4793961 -0.30761087 0.36789587 -0.10939081 -0.3421781
0.38732058 -0.47845343 -0.37848705 0.300473 0.29552814 -0.8294008 0.15342136 0.20300278
0.2340241 -0.19951485 -0.20045395 -0.22569148 -0.34436467 -0.2992321 -0.15989201 -0.33800954
0.28934187 0.39527717 0.39614376 -0.23242614 -0.38496414 -0.14367528 0.007375795 0.10833459
00000000: 2bc1 a83e 17c0 cabe 006f 8dbe 663d a4be
00000010: 85ff b43d 58fe 053e 3792 4f3e 8deb 34be
00000020: 125a cd3e c2fa c0be 41b8 623e 6e6b 46be
00000030: a635 143f 751d a13e 625d d3bc 9373 05bf
00000040: d893 0f3e 9396 c03e 5836 14bf b0e9 0e3f
00000050: b854 aabe 4016 59be d885 b53e f25e c63e
00000060: b338 41be f588 cc3e 1d07 7c3e 277f 7a3e
00000070: 1022 58be 88ac af3e fe56 3fbe 7a7a a3be
00000080: f8f3 c93e 49ec 01bf eb6b 8ebe 45ee 873e
00000090: 638d 1e3e 1bd5 31bf d775 aa3e ad64 0b3c
000000a0: 5bb7 f33d 13d0 65be 4e77 90be cc27 17be
000000b0: d94e c4be 019e f0be c4bc 8ebd 2734 60be
000000c0: ce1c 8a3e 5845 9e3e 5354 9a3e e5d1 d7be
000000d0: 9941 e3be ef45 4abe 2a7b b63d e7be fa3d
000000e0: 1956 e93e 8040 9bbd d071 be3e 6497 9ebe
000000f0: b445 923e da7a 8fbe 2cc9 0f3f 7025 c83e
00000100: 97a9 c0bd 219a 02bf 205f 313e 4111 683e
00000110: dbdb 0ebf f3db 0b3f 105d d5be 1bde a6be
00000120: 036a 8d3e 15e0 e03e b977 79be b8fd 6b3e
00000130: bd73 983e 97b4 b23e cdf7 8dbe 7d43 f13e
00000140: 60fe 2abe 25c9 bcbe c247 9b3e 7ecb e0be
00000150: 88ab aabe d97c 553e 4146 733e 8fac 39bf
00000160: a2c4 8f3e d6ef fb3b 9a60 343e bd50 d4be
00000170: 4de6 43be 5851 39be 447c e0be a9ca 92be
00000180: dd96 36be ad78 9fbe 1e7a c73e 27e8 b23e
00000190: a7c7 7fc0 f7f3 af3f 866b ba3f b96e d23f
000001a0: ff11 26bf 4f1d 0d3f 7f0a abbe abba c93f
000001b0: e0b9 1d3f ca3c 523f 8149 8b3f 6f82 56be
000001c0: c369 29c0 24cf b6bd c8d7 dfbe 7fdd cc3f
000001d0: 2e0e 12c0 1ccf f1bf cfcf 55bf 071a 5a3f
000001e0: 69de 23bf ffe4 ef3f 8ab1 aebf a7ff 1bbe
000001f0: 10cb 6a3e 785d 403f 6e58 5dbf 64f4 0dbe
00000200: 5922 b0bd d7bf 9f3e a4c4 063f 3299 c13f
00000210: 1fd9 7bbf 5611 9fbe d88e b23d fbe4 3bbf
00000220: 3d3d bfbd 04fb 3cc0 12e4 d0bd a5a1 ccbf
00000230: 8db7 4bbf 654a e5bf 61d5 353e 953c a3bf
00000240: 5b93 3d40 8f30 34be 5442 613f e61d 95bf
00000250: ba21 fc3f 9c01 62bc df7c 653e 1aff 76be
00000260: da61 adbe 56f6 93be eac5 2b3c 46e6 203e
00000270: 77f3 a53e 76fd 10be afc8 d33e 4911 40be
00000280: 47cf 623e c92e b5be 9108 193f b311 e43e
00000290: b3fb a1bd 6219 ccbe ad43 583e 5a85 b43e
000002a0: c54b f8be a499 e53e 386d 8bbe 3d1b bcbe
000002b0: 33a8 cd3e 8bdd e73e 3822 adbe f503 af3e
000002c0: 0f22 c23d a4d9 c83e 9093 a4be f7ec df3e
000002d0: 3fcb 18be f95d 58be eec4 aa3e 5b38 24bf
000002e0: c431 bbbe 394e 863e 09c6 413e 9c3a 1bbf
000002f0: 140d 843e 26c2 e53d 8692 6a3e 161d 3dbe
00000300: a26a 64be 538f c0be a6a4 cdbe ebdb 9bbe
00000310: c73c 86be 9132 95be 79f7 ce3e c67c 243e
00000320: 3536 773e dd57 b9be 69c6 02bf 09e2 b2be
00000330: fedd 673d 3da8 7d3e 63a4 c43e c14e 7cbd
00000340: 4632 073f 5381 e2be 98eb c63e db16 bebe
00000350: ebe4 df3e 63fa 873e bc74 e0bd 21dc e5be
00000360: 73cc ab3e 433a 413e 97e6 f4be 91be 1b3f
00000370: f6b4 3cbe 7279 d7be b20d c83e 5541 f03e
00000380: a26b 3bbe d528 773e 1302 833e 6873 f53e
00000390: 2c7f 9dbe d95c bc3e 4a08 e0bd f831 afbe
000003a0: e24e c63e d9f7 f4be 0ec9 c1be 99d7 993e
000003b0: 774f 973e 9c53 54bf 7d1a 1d3e f6df 4f3e
000003c0: 03a4 6f3e 9f4d 4cbe cd43 4dbe ab1b 67be
000003d0: 9150 b0be f334 99be bbba 23be 960f adbe
000003e0: 9e24 943e c561 ca3e 5bd3 ca3e 1e01 6ebe
000003f0: 051a c5be 9d1f 13be a7b0 f13b 87de dd3d

bias f4 [74]
-0.21972951 -0.31895798 0.73711646 -0.3509235 -0.311783 -0.1599141 0.4858786 -0.28861383
-0.18415977 -0.23902753 -0.195683 -0.20896679 -0.288899 -0.093035564 -0.24759693 -0.22813188
-0.22433825 -0.120652564 0.6705441 0.4160027 -0.24946511 -0.11890182 -0.11010772 -0.3078329
-0.15634364 -0.24511129 -0.12738137 -0.2720458 -0.2829016 -0.16535121 -0.3164742 -0.26587576
-0.29213926 -0.06791384 -0.24350998 -0.20866032 -0.20112556 0.21411851 -1.5760968 -0.2899152
0.20627803 0.03966657 0.43401778 0.82846147 1.0885503 -0.06703981 -1.6176592 0.83624417
-1.2477478 -0.0071613705 -0.18544446 0.28201756 -1.3194801 -1.5762194 0.10546342 0.23495945
1.2444971 -0.5856564 2.486368 -0.6007455 -0.01713936 0.16092686 -0.12403422 -0.6155447
-1.0277514 -0.0712201 -0.5321011 -0.5533897 0.38912562 -1.5075227 -0.4413106 -1.1570133
0.08470553 -0.7186859
00000000: c600 61be 764e a3be aab3 3c3f 3fac b3be
00000010: 05a2 9fbe 86c0 23be 14c5 f83e 31c5 93be
00000020: 6194 3cbe a2c3 74be 2061 48be 64fb 55be
00000030: 92ea 93be 6e89 bebd 0d8a 7dbe 679b 69be
00000040: edb8 65be b118 f7bd c7a8 2b3f 4efe d43e
00000050: c873 7fbe cc82 f3bd 2880 e1bd 469c 9dbe
00000060: 8c18 20be 74fe 7abe 4370 02be 9649 8bbe
00000070: 7ad8 90be d451 29be e808 a2be de20 88be
00000080: 4793 95be 6916 8bbd ae5a 79be 0dab 55be
00000090: dcf3 4dbe e241 5b3e 8abd c9bf c46f 94be
000000a0: 8c3a 533e 6a79 223d 9437 de3e 0d16 543f
000000b0: 9e55 8b3f 2b4c 89bd 750f cfbf 1914 563f
000000c0: 33b6 9fbf eea9 eabb 27e5 3dbe 9b64 903e
000000d0: b9e4 a8bf 8fc1 c9bf 35fd d73d 3699 703e
000000e0: ae4b 9f3f 94ed 15bf a720 1f40 75ca 19bf
000000f0: d867 8cbc 03ca 243e a705 febd 5694 1dbf
00000100: 5c8d 83bf d8db 91bd c737 08bf f3aa 0dbf
00000110: 793b c73e 81f6 c0bf 77f3 e1be 0319 94bf
00000120: 187a ad3d cdfb 37bf

weight f4 [35, 2]
-0.3874886 0.13303822 0.4019485 0.20791942 0.39833456 -0.1604296 -0.56614447 0.39679044
-0.6610841 0.039640605 0.6165733 0.41543704 0.102485895 -0.34816062 -0.3751109 0.63454455
-0.025348604 -0.56521356 0.5236327 -0.5736021 0.1347 -0.25959197 0.6176943 0.39985067
-0.01824236 -0.63436055 -0.025021315 -0.06106758 -0.6491816 0.050798774 0.12378198 0.15398419
0.008415222 0.68957967 -0.18063968 -0.48285055 0.17308277 -0.18546647 0.3168003 0.4068851
-0.2409397 0.60523134 0.28034496 0.42213136 0.6002869 -0.603933 0.11358315 0.3751629
0.22215569 -0.60393566 0.10741025 -0.43795592 -0.26836085 -0.6538122 0.58662206 -0.05124533
0.6110161 -0.44068643 -0.44765398 0.54289037 -0.10727149 -0.5489095 -0.5861682 0.18350476
-0.48431003 -0.2704667 0.30432004 0.12751377 -0.29250866 0.5753749
00000000: e864 c6be 2c3b 083e 32cc cd3e d4e8 543e
00000010: 82f2 cb3e a847 24be d8ee 10bf 1e28 cb3e
00000020: cf3c 29bf 305e 223d bfd7 1d3f 2ab4 d43e
00000030: 20e4 d13d 1c42 b2be 890e c0be 8371 223f
00000040: e0a7 cfbc d6b1 10bf cb0c 063f 96d7 12bf
00000050: ccee 093e 3de9 84be 3721 1e3f 3ab9 cc3e
00000060: 0071 95bc 7465 22bf 80f9 ccbc 0022 7abd
00000070: c430 26bf 6012 503d 6881 fd3d 08ae 1d3e
00000080: 00e0 093c 4b88 303f 9cf9 38be 3038 f7be
00000090: 9c3c 313e ecea 3dbe a633 a23e 3e53 d03e
000000a0: e6b8 76be 71f0 1a3f 6089 8f3e 9a21 d83e
000000b0: 67ac 193f 5a9b 1abf 489e e83d 5a15 c03e
000000c0: c87c 633e 879b 1abf e8f9 db3d c23b e0be
000000d0: 9866 89be 3d60 27bf dd2c 163f a0e6 51bd
000000e0: 8d6b 1c3f a7a1 e1be e732 e5be ddfa 0a3f
000000f0: 28b1 dbbd 5585 0cbf 1f0f 16bf ace8 3b3e
00000100: 7cf7 f7be 9c7a 8abe d6cf 9b3e f892 023e
00000110: b2c3 95be c54b 133f

bias f4 [35]
-0.44715267 0.0072042346 -0.33802935 -0.4030041 0.28346902 -0.24869263 -0.5859457 -0.005405247
-0.11105096 -0.12882853 0.28122896 -0.661607 0.44740242 0.42401713 0.06338179 -0.19918483
-0.6445184 0.2685727 0.28513807 0.46595496 0.11091906 0.022524118 -0.37030247 0.3846324
0.6871143 0.06172228 0.4806065 0.44369167 -0.52688354 0.6500365 -0.19999415 -0.68422496
-0.56304586 0.3520952 -0.286548
00000000: 32f1 e4be 8011 ec3b 2f12 adbe 8e56 cebe
00000010: da22 913e 48a9 7ebe 8a00 16bf 801e b1bb
00000020: b06e e3bd a0eb 03be 3efd 8f3e 145f 29bf
00000030: ee11 e53e c618 d93e 50ce 813d 1cf7 4bbe
00000040: 28ff 24bf 5c82 893e 9efd 913e a691 ee3e
00000050: 8829 e33d 8084 b83c 4998 bdbe 8aee c43e
00000060: b9e6 2f3f 80d0 7c3d 0e12 f63e 8e2b e33e
00000070: d7e1 06bf cb68 263f 44cb 4cbe 5e29 2fbf
00000080: c623 10bf d245 b43e 6bb6 92be

weight f4 [50, 35]
0.13379979 0.16685808 -0.025351986 -0.06760828 -0.050305724 -0.07607936 0.14573991 -0.089253485
-0.027979627 -0.0983175 -0.08382873 -0.015811339 -0.10935745 0.0070335716 -0.009573936 -0.11552999
-0.056880176 0.0889411 -0.09413012 0.03323978 -0.103676304 0.039335832 0.08266026 -0.10756564
-0.10465947 -0.1555796 -0.14935245 -0.15371478 0.046918094 -0.10343644 -0.10664713 -0.11545715
0.089252025 -0.10220259 0.034224123 -0.02193208 -0.13548209 -0.091399044 -0.04022403 -0.14126614
0.1529049 0.15874532 -0.1622086 0.11346409 0.12975866 -0.007740304 0.10460222 0.060139567
0.055740654 0.12472305 -0.12945797 0.12018424 0.02996175 -0.027689531 -0.0022353828 0.16098106
-0.14482579 0.021579146 0.018489838 -0.12844618 -0.16855909 -0.10583645 -0.070587546 0.09075832
-0.111699305 0.14383563 -0.052322038 -0.10551008 0.021010399 -0.085323215 0.11508149 -0.07064482
0.14543241 -0.15255535 -0.084225826 0.019215494 -0.06183362 0.10744119 0.050566405 -0.16117775
0.10627085 0.14978874 0.12434116 -0.058414824 -0.13967755 0.038549393 0.016481087 0.07683386
-0.10394376 -0.09042063 0.014733896 -0.15433595 0.07594234 -0.0067105144 0.113726616 -0.1588254
-0.049049206 0.04046017 0.13766363 0.1537196 -0.095473945 0.05649428 -0.011260107 0.1522477
-0.07606306 0.12525588 -0.0095167905 -0.10118133 0.06902744 0.070359185 0.11781564 -0.08110551
-0.16502923 0.02308327 -0.12198822 -0.106518686 -0.07564094 0.13647851 0.0036076307 -0.03074564
0.020965606 -0.05839788 0.13007829 0.021250457 0.10497993 0.049040705 0.09519526 0.0603915
0.09927848 -0.040648773 0.09313515 0.046660975 -0.12947688 -0.13501915 0.13268286 -0.056509033
0.16899577 0.076453656 0.13927084 -0.0968056 -0.139314 -0.12545368 -0.16515662 -0.07899133
0.09253812 -0.052082695 0.024737671 -0.079167016 -0.11077589 0.06348169 0.033873633 0.07160759
0.07097784 0.051009342 -0.13283327 0.14329877 -0.022656992 0.10399529 0.008161634 0.099407524
-0.15097944 -0.019768164 0.15290931 0.12376997 -0.07557904 -0.12037717 0.047042325 -0.07537945
-0.0938989 -0.10654049 -0.16233265 -0.12041871 0.05920513 -0.011210054 -0.008309558 0.015366465
-0.13838458 -0.03574902 -0.16429736 -0.1485657 0.065782726 0.030652836 -0.053361155 -0.16234931
-0.16790694 0.039595753 -0.14339617 -0.12644494 -0.1639065 -0.09627289 -0.032348037 -0.0134262
-0.031133696 -0.071739346 0.11829808 0.105816305 0.10071251 -0.1325908 0.0021674186 -0.15082663
0.14339945 0.0077798963 -0.021759689 -0.053812414 0.06820339 0.070957586 0.1475535 -0.11716819
0.116542846 0.06210436 -0.10336553 -0.023618266 -0.06895203 0.051549345 -0.02930428 -0.15940875
0.0021945834 0.070359394 0.099406034 -0.07019158 0.099371076 -0.15868606 -0.06433658 -0.12172305
-0.16045257 -0.08687096 -0.0013520122 -0.019069761 -0.1547663 0.11505136 0.0071003735 0.12215921
0.03791417 0.060133085 -0.09888805 0.15097815 -0.044107564 -0.037756205 0.113838285 -0.13413933
-0.16786902 -0.054594554 -0.14254965 -0.031264633 0.0070849806 0.15399945 -0.039595023 0.09685761
0.16853234 0.14842552 -0.11798936 -0.0650672 0.15543774 -0.15666772 0.05372846 -0.029223189
00000000: d002 093e d8dc 2a3e f8ae cfbc 3676 8abd
00000010: 600d 4ebd 7fcf 9bbd d83c 153e 88ca b6bd
00000020: 8835 e5bc af5a c9bd 66ae abbd c886 81bc
00000030: ccf6 dfbd e079 e63b 00dc 1cbc fd9a ecbd
00000040: 30fb 68bd c026 b63d 4bc7 c0bd 7026 083d
00000050: 3e54 d4bd 9c1e 213d c849 a93d 604b dcbd
00000060: b457 d6bd 4250 1fbe d9ef 18be 6867 1dbe
00000070: 302d 403d 7cd6 d3bd cf69 dabd cc74 ecbd
00000080: c4c9 b63d 974f d1bd 982e 0c3d e8aa b3bc
00000090: d1bb 0abe 6c2f bbbd f4c1 24bd 12a8 10be
000000a0: 1a93 1c3e 228e 223e 031a 26be dc5f e83d
000000b0: 74df 043e 60a2 fdbb b039 d63d e854 763d
000000c0: 5050 643d cc6e ff3d a190 04be 2823 f63d
000000d0: 5872 f53c 28d5 e2bc 807f 12bb 38d8 243e
000000e0: 364d 14be c0c6 b03c 0078 973c 6587 03be
000000f0: c19a 2cbe c8c0 d8bd 3490 90bd 80df b93d
00000100: 9bc2 e4bd a649 133e a24f 56bd ab15 d8bd
00000110: 001e ac3c f0bd aebd d8af eb3d 3bae 90bd
00000120: 3cec 143e 7837 1cbe 977e acbd d069 9d3c
00000130: 4045 7dbd 200a dc3d b81e 4f3d c80b 25be
00000140: 88a4 d93d 3862 193e 94a6 fe3d 6244 6fbd
00000150: a207 0fbe f8e5 1d3d 5803 873c 125b 9d3d
00000160: 77e0 d4bd 742e b9bd 7066 713c 3e0a 1ebe
00000170: a887 9b3d e0e3 dbbb 80e9 e83d 20a3 22be
00000180: d2e7 48bd 90b9 253d b2f7 0c3e ac68 1d3e
00000190: d887 c3bd 8c66 673d 507c 38bc d2e6 1b3e
000001a0: f3c6 9bbd 1443 003e 50ec 1bbc 2838 cfbd
000001b0: 425e 8d3d 7a18 903d 5449 f13d a51a a6bd
000001c0: 6cfd 28be 2019 bd3c f6d4 f9bd 7826 dabd
000001d0: a3e9 9abd 06c1 0b3e 006e 6c3b 48de fbbc
000001e0: 10c0 ab3c 9e32 6fbd 3e33 053e 7015 ae3c
000001f0: b8ff d63d e8de 483d bcf5 c23d 145d 773d
00000200: 8452 cb3d 547f 26bd a4bd be3d 941f 3f3d
00000210: 9695 04be 7642 0abe 04de 073e 0476 67bd
00000220: 3a0d 2d3e bc93 9c3d 049d 0e3e 0442 c6bd
00000230: 54a8 0ebe ee76 00be d11e 29be 35c6 a1bd
00000240: a084 bd3d aa54 55bd a8a6 ca3c 5122 a2bd
00000250: 78de e2bd b002 823d 14bf 0a3d 00a7 923d
00000260: d45c 913d 2cef 503d 7205 08be eabc 123e
00000270: 289b b9bc 7cfb d43d 60b8 053c 2c96 cb3d
00000280: 5b9a 1abe d8f0 a1bc 4294 1c3e 1c7b fd3d
00000290: 2fc9 9abd 4e88 f6bd 74af 403d 8b60 9abd
000002a0: 114e c0bd e731 dabd 883a 26be 169e f6bd
000002b0: 1481 723d 60aa 37bc d024 08bc a0c3 7b3c
000002c0: b0b4 0dbe 906d 12bd 913d 28be 9b21 18be
000002d0: 18b9 863d a81b fb3c 3a91 5abd e63e 26be
000002e0: ccef 2bbe 282f 223d 72d6 12be c87a 01be
000002f0: 1bd7 27be b92a c5bd 607f 04bd 90f9 5bbc
00000300: 180c ffbc 14ec 92bd 4446 f23d 38b6 d83d
00000310: 5c42 ce3d e2c5 07be 400b 0e3b 4c72 1abe
00000320: 4ed7 123e 80ee fe3b 6041 b2bc 686a 5cbd
00000330: 38ae 8b3d 3652 913d 4418 173e e0f5 efbd
00000340: 04ae ee3d 2461 7e3d 4fb1 d3bd 187b c1bc
00000350: b936 8dbd 6825 533d 880f f0bc 0c3c 23be
00000360: 00d3 0f3b 9618 903d 6495 cb3d 9ac0 8fbd
00000370: 1083 cb3d 997e 22be e6c2 83bd ef49 f9bd
00000380: ae4d 24be 67e9 b1bd 0036 b1ba 3038 9cbc
00000390: 0f7b 1ebe 0ca0 eb3d 40aa e83b 9c2e fa3d
000003a0: e44b 1b3d 1c4e 763d d185 cabd 049a 1a3e
000003b0: 22aa 34bd 40a6 1abd 0c24 e93d d25b 09be
000003c0: dbe5 2bbe 8a9e 5fbd 89f8 11be 580f 00bd
000003d0: 2029 e83b 08b2 1d3e 642e 22bd 485d c63d
000003e0: be93 2c3e dcfc 173e 68a4 f1bd f441 85bd
000003f0: 122b 1f3e 816d 20be 6012 5c3d 7865 efbc

bias f4 [50]
-0.118615024 -0.13160643 0.13184279 -0.0077497214 0.08615583 0.14346501 -0.061721854 0.10933283
-0.1689661 -0.074303985 0.06141174 0.037134603 0.15521401 -0.041546762 0.16730589 -0.11169604
-0.15290216 0.11523682 0.08644828 0.14991462 0.07109322 0.11465445 -0.15482643 0.030586466
0.16029021 0.09371534 -0.09645769 -0.02600336 0.16572577 -0.038744345 -0.04092604 -0.03882444
0.03688629 0.0056066513 -0.0674149 0.0855099 0.016340837 -0.015255064 0.047266006 0.025948346
0.16442856 0.025677428 0.13492993 0.061999112 0.051182047 -0.12768802 0.07361421 0.06794457
-0.15508023 0.04369867
00000000: 6fec f2bd d6c3 06be cc01 073e 60f1 fdbb
00000010: 7872 b03d 7ee8 123e 0ed0 7cbd e4e9 df3d
00000020: 7305 2dbe b02c 98bd e08a 7b3d 741a 183d
00000030: 6cf0 1e3e f02c 2abd 3c52 2b3e e5c0 e4bd
00000040: 6292 1cbe 4801 ec3d cc0b b13d 3883 193e
00000050: 5299 913d f4cf ea3d d28a 1ebe 7890 fa3c
00000060: 1e23 243e d4ed bf3d 9c8b c5bd 0005 d5bc
00000070: 04b4 293e 64b2 1ebd 10a2 27bd 6006 1fbd
00000080: 1416 173d 00b8 b73b d310 8abd d01f af3d
00000090: 38dd 853c 60f0 79bc 009a 413d a091 d43c
000000a0: f65f 283e 7859 d23c 122b 0a3e c8f2 7d3d
000000b0: 44a4 513d a6c0 02be 0cc3 963d 8626 8b3d
000000c0: 5acd 1ebe 60fd 323d
