model/saved_models/fr_transfer/model_en_to_fr_epoch_11.pt (torch_old, 234884 bytes, 23 tensors)

weight f4 [74, 20]
0	0x00000000	0.0
1	0x00000000	0.0
2	0x00000000	0.0
3	0x00000000	0.0
4	0x00000000	0.0
5	0x00000000	0.0
6	0x00000000	0.0
7	0x00000000	0.0
8	0x00000000	0.0
9	0x00000000	0.0
10	0x00000000	0.0
11	0x00000000	0.0
12	0x00000000	0.0
13	0x00000000	0.0
14	0x00000000	0.0
15	0x00000000	0.0
16	0x00000000	0.0
17	0x00000000	0.0
18	0x00000000	0.0
19	0x00000000	0.0
20	0xbddfce07	-0.109279685
21	0x3d8c4aca	0.068502024
22	0x3dc18c21	0.094505556
23	0xbc9391ce	-0.018013861
24	0x3dedf1ae	0.11618362
25	0xbd95479c	-0.07289049
26	0x3cc47b17	0.023984475
27	0x3cd3a8f7	0.025837405
28	0xbd380e11	-0.04493529
29	0xbbe77456	-0.007063429
30	0x3d64651d	0.05576049
31	0x3d64ea69	0.055887613
32	0x3dfd6ce1	0.12374283
33	0xbd4703c7	-0.048587587
34	0x3bf4fb23	0.007476227
35	0x3a1b8bb0	0.0005933596
36	0x3c235779	0.009969586
37	0x3d34c29c	0.044130906
38	0xbd917757	-0.071028404
39	0x3df260c3	0.11834862
40	0xbf66c022	-0.9013692
41	0xbde44aee	-0.11147104
42	0x3f00f302	0.503708
43	0x3f18aabf	0.5963554
44	0xbe7d00bc	-0.24707311
45	0x3c29cf13	0.010364312
46	0x3f5ce090	0.86280155
47	0xbf3e32ba	-0.7429615
48	0xbf7b2054	-0.98096204
49	0x3e03349b	0.12813036
50	0x3e13bd3f	0.1442766
51	0xbf941661	-1.156933
52	0x3eb74c96	0.35800618
53	0x3f64a13e	0.89308536
54	0x3c86b65f	0.016444383
55	0xbf2838c5	-0.65711623
56	0x3eb26484	0.34842312
57	0xb9b51ab5	-0.00034542909
58	0x3e38c2cc	0.18043059
59	0xbea53097	-0.32263634
60	0x3eb30731	0.34966424
61	0x3fc9e8d8	1.5774183
62	0x3fa3236f	1.2745188
63	0xbc3aeeeb	-0.011409502
64	0xbf4cb5a8	-0.79964685
65	0x3f037fb0	0.5136671
66	0x3c764155	0.015030225
67	0xbe03107c	-0.12799257
68	0xbe31dd11	-0.17369486
69	0x3ef35c25	0.47531238
70	0xbe9901f8	-0.29884315
71	0xbeb916e2	-0.3615027
72	0x3fbbd2b2	1.4673674
73	0xbedfcc0a	-0.43710357
74	0xbde47af9	-0.11156268
75	0x3f32549c	0.69660354
76	0xbf51db78	-0.8197551
77	0x3f1084bf	0.56452554
78	0x3e84f8c0	0.2597103
79	0xbdd15182	-0.102206245
80	0x4008a8c5	2.1353009
81	0xbf8afab4	-1.0857759
82	0x3f17009f	0.5898532
83	0x3e02ad15	0.12761338
84	0xbf911d1c	-1.1337008
85	0xbf356473	-0.708564
86	0x3f47f126	0.7810234
87	0x3b97168c	0.004610842
88	0x3eed6514	0.4636618
89	0xbcb22f57	-0.021751089
90	0x3ee04ccd	0.43808594
91	0xbf3c382b	-0.73523206
92	0xbeac8a8d	-0.33699456
93	0xbec48a75	-0.38386884
94	0xbeb5bd7a	-0.35496122
95	0xbf0b47ea	-0.5440661
96	0xbfcb0f87	-1.5864114
97	0xbf969c34	-1.176642
98	0xba8efed9	-0.0010909691
99	0x3f833365	1.0250059
100	0xbf2e67b2	-0.68126976
101	0x3f56a008	0.8383794
102	0xbf32eb17	-0.6988997
103	0xbeb1242f	-0.34597918
104	0xbf28dbe8	-0.6596055
105	0xbf8c84d4	-1.0978036
106	0xbf3e03d3	-0.74224585
107	0x407baa05	3.9322522
108	0xbe427569	-0.18990101
109	0x3f920373	1.1407303
110	0x3f5ec7dc	0.8702371
111	0xbfbcd23b	-1.4751657
112	0xbf56b610	-0.83871555
113	0xbfaf09d2	-1.3674872
114	0x3fb848c1	1.4397203
115	0xc04055af	-3.0052297
116	0xbeaaa9dd	-0.3333272
117	0xbf1af55d	-0.60530645
118	0xbfe88e80	-1.8168488
119	0x3f17fa60	0.59366417
120	0x3e4c4236	0.19947132
121	0xbc161c12	-0.009161966
122	0xbc30387d	-0.010755655
123	0xbcb5bbeb	-0.022184333
124	0x3dfc4c04	0.12319186
125	0x3e89c8ee	0.2691111
126	0x3e904270	0.28175688
127	0xbe9f3941	-0.3109837
128	0xbe911f08	-0.28343987
129	0x3f02e5b6	0.5113176
130	0x3e741c8b	0.23839013
131	0xbea047cd	-0.3130478
132	0x3e0784c2	0.13234237
133	0x3eed0587	0.4629328
134	0xbe092991	-0.13394763
135	0xbf30b389	-0.6902395
136	0x3c85e4d7	0.01634447
137	0xbcd1500b	-0.025550863
138	0x3eef7165	0.467662
139	0x3e3937db	0.18087713
140	0x3f918cba	1.1371071
141	0xbeef76ee	-0.46770424
142	0x3e29c1ab	0.16577785
143	0xbe6b9c50	-0.23008847
144	0x3ec4c2ea	0.38429958
145	0x3fb4698d	1.4094712
146	0xbee3eae6	-0.4451515
147	0x3db8121a	0.089878276
148	0x3dfb3f05	0.122678794
149	0xbf2c3308	-0.6726537
150	0x3ef10692	0.47075325
151	0xbde1ea1f	-0.11030983
152	0x3dd88cbf	0.1057372
153	0x3f3ff8ee	0.7498921
154	0xbde8c485	-0.11365608
155	0xbd6390e3	-0.055558097
156	0xbce81d33	-0.028334236
157	0xbf6f5b5f	-0.93498796
158	0xbf8a5a78	-1.0808859
159	0x3b1548ca	0.0022778981
160	0xbf6dc1a0	-0.92873573
161	0x3e9b1cd3	0.3029543
162	0xbf01a52a	-0.50642645
163	0x4008130f	2.1261632
164	0xc024341e	-2.565681
165	0x3eb3c54f	0.35111472
166	0xbe78a393	-0.24281149
167	0xbfa324f9	-1.2745658
168	0x3e84ba33	0.2592331
169	0x4014d97a	2.3257737
170	0xbd078406	-0.03308489
171	0xbd6fc012	-0.058532782
172	0xbf8ee378	-1.1163168
173	0xba44b72e	-0.00075041025
174	0xc0069a82	-2.1031804
175	0xbf81f471	-1.0152723
176	0xbec75d91	-0.38938573
177	0xbf6e0725	-0.9297965
178	0xbde7da44	-0.11320928
179	0x3e39edd0	0.18157125
180	0x3f7aa27b	0.97904176
181	0xbf2839f0	-0.65713406
182	0xc0086ce1	-2.1316454
183	0x3f2bb23d	0.67068845
184	0x3f1070b9	0.56422
185	0x3fa6dedd	1.3036762
186	0x3c982616	0.018572848
187	0xbf569b16	-0.8383039
188	0xbf6b1f69	-0.91844803
189	0x3fb43edb	1.4081682
190	0x3ebd1b3c	0.3693484
191	0x3f177e01	0.5917664
192	0xbe2c51d4	-0.1682809
193	0xbfde246a	-1.7354863
194	0x3fe97058	1.823741
195	0x3fd900bd	1.695335
196	0x3ef7b18e	0.4837765
197	0xbeb2744f	-0.3485436
198	0xbf30f7bf	-0.6912803
199	0x3fb8e5bb	1.4445108
200	0xbf1c2a38	-0.6100192
201	0xbfb17a5f	-1.386547
202	0x3fa6d223	1.3032879
203	0x3eea48a1	0.45758536
204	0xbfaf266f	-1.3683604
205	0xbf32a1b8	-0.69778013
206	0x3e84c9cc	0.2593521
207	0x3fca07e9	1.5783664
208	0x3f1b3eca	0.60642684
209	0xbf597f2e	-0.84959686
210	0xbe350473	-0.17677478
211	0x3c330d31	0.010928438
212	0x3f4741a1	0.77834517
213	0x3d7fa0ca	0.0624092
214	0x3fb75782	1.432358
215	0x3f1c36f2	0.6102134
216	0x3eb549a5	0.3540775
217	0x3effd8ab	0.49969992
218	0x3df6c130	0.12048566
219	0xbf85e8a0	-1.0461617
220	0xbfbbc1ed	-1.4668556
221	0xbf499e9e	-0.78757656
222	0xbf4eeaf8	-0.80827284
223	0x3ded162a	0.11576493
224	0xbe7e3bed	-0.24827547
225	0x3ef5e5c4	0.4802686
226	0x3edfcacc	0.4370941
227	0xbec96bd1	-0.3934007
228	0x3d3f8fcb	0.04676799
229	0x3fbf8bc1	1.4964525
230	0x3e8d1c14	0.27560484
231	0xbefc6998	-0.49299312
232	0xbde18691	-0.11011995
233	0x3ee23359	0.441798
234	0x3daaa223	0.083317064
235	0xbf716ab4	-0.9430344
236	0x3e248442	0.16066077
237	0xbf49f24b	-0.78885335
238	0xbe311b7a	-0.17295638
239	0x3edae3c9	0.4275191
240	0x3f689d6e	0.9086522
241	0xbe112153	-0.14172868
242	0x3d36ded2	0.04464609
243	0x3df6302e	0.12020908
244	0x3f012149	0.50441414
245	0x3fc888a0	1.5666695
246	0xbe8b03a6	-0.2715122
247	0xbdc4fff3	-0.09619131
248	0x3f28a529	0.65877014
249	0xbf6f4ebf	-0.9347953
250	0x3ec8ad4c	0.39194715
251	0xbddb733b	-0.10715338
252	0x3ece057e	0.40238565
253	0x3f7f1c07	0.9965214
254	0xbe3856ef	-0.18001913
255	0xbf1d53a2	-0.6145574

weight_ih_l0 f4 [200, 20]
0	0x3e84e2fb	0.25954422
1	0x3f73eaa8	0.9527993
2	0xbf1081e5	-0.56448203
3	0xbf847e56	-1.0351055
4	0xbf9dbb71	-1.2322828
5	0xbeadf369	-0.3397477
6	0x3f56e39f	0.8394107
7	0x3f1848a3	0.59485835
8	0x3e31ba17	0.17356144
9	0xbea54534	-0.3227936
10	0x3f79c09d	0.9755953
11	0xbd92fcbf	-0.07177114
12	0xbf3a8ef1	-0.7287436
13	0xbeb753b2	-0.35806042
14	0x3e54510a	0.20734039
15	0xbe985ac9	-0.29756764
16	0x3e6b371a	0.22970238
17	0xbdacfd52	-0.084467545
18	0xbe649de4	-0.22325855
19	0x3eb79f8d	0.35863915
20	0x3f9498d0	1.1609135
21	0x3ec81a6f	0.39082667
22	0xbed98e9e	-0.4249162
23	0xbeb6d85c	-0.35711944
24	0x3f686a5b	0.90787286
25	0x3e361258	0.17780435
26	0xbf59583f	-0.8490028
27	0x3c86b6bd	0.016444558
28	0x3e57a0d2	0.21057442
29	0xbe24f6e8	-0.16109812
30	0x3f035c33	0.5131256
31	0x3f8ad575	1.0846392
32	0xbdb71d25	-0.08941106
33	0xbee82a7e	-0.4534492
34	0x3c8ed468	0.017435268
35	0xbe17d96c	-0.14829034
36	0x3d87a955	0.066240944
37	0xbe392c3c	-0.1808328
38	0x3dd5f469	0.10447008
39	0xbeaa7fa6	-0.33300513
40	0xbed16ef9	-0.40904978
41	0x3ed511d5	0.41615167
42	0xbea69c7e	-0.3254127
43	0xbe91f65c	-0.2850827
44	0xbec6c5bd	-0.38822737
45	0x3efd20c6	0.49439067
46	0x3f86d47e	1.0533597
47	0x3ec492dc	0.38393295
48	0xbecb33ee	-0.39688057
49	0xbf499174	-0.7873757
50	0xbf20de76	-0.6283945
51	0x3cff4625	0.031161377
52	0x3e3a3c75	0.18187125
53	0xbe894b01	-0.26815036
54	0xbf042578	-0.5161967
55	0x3e862a91	0.2620435
56	0xbe839c1e	-0.25705045
57	0xbe836452	-0.25662476
58	0xbebe2b50	-0.3714242
59	0x3e0a3d0b	0.13499849
60	0xbed3e761	-0.41387466
61	0x3f00c20b	0.50296086
62	0x3f146b43	0.5797617
63	0x3ec86225	0.39137378
64	0xbf8ab5eb	-1.0836767
65	0xbe113db6	-0.14183697
66	0x3f40a204	0.75247216
67	0x3fcabbe1	1.5838586
68	0xbdd9c122	-0.1063254
69	0xbf6563c0	-0.8960533
70	0x3f083dff	0.532196
71	0x3e677199	0.22601928
72	0x3f9f4633	1.2443298
73	0xc027f76c	-2.6244764
74	0xbe1fd952	-0.15610245
75	0x3ec88241	0.39161876
76	0xbe1bc2ba	-0.15211001
77	0xbf4722bc	-0.77787375
78	0xbf99a310	-1.2002888
79	0x3fa95622	1.3229411
80	0xbc4780bc	-0.012176689
81	0xbfd80a67	-1.6878175
82	0xbf7492aa	-0.9553629
83	0x3ee900c1	0.45508388
84	0x3dc63911	0.09678853
85	0xbfc00257	-1.5000714
86	0xbf3b3828	-0.7313256
87	0x3e0a54f0	0.13508964
88	0xbe535dc8	-0.20641243
89	0xbf46b502	-0.77619946
90	0xbfbf667b	-1.495315
91	0xbc19b415	-0.009381314
92	0xbeec6bcf	-0.46176
93	0xbe278127	-0.16357861
94	0x3e64a706	0.2232934
95	0xc0088c42	-2.1335607
96	0xbffb9cc3	-1.9657215
97	0x401ad42c	2.4192
98	0x3f39f383	0.72637194
99	0x3f7d4091	0.98926646
100	0x3ef20884	0.47272122
101	0x3f116ab0	0.5680342
102	0xbf79337d	-0.9734419
103	0x3f85f576	1.0465534
104	0xbf83053e	-1.0235975
105	0xbed47602	-0.41496283
106	0xbf158d0b	-0.5841834
107	0xbe622ce8	-0.22087443
108	0xbb343a7a	-0.0027500675
109	0x3d388f5f	0.045058604
110	0xbf532b30	-0.82487774
111	0x3f1b70dc	0.60719085
112	0xbf933355	-1.150004
113	0x3f76f621	0.9646931
114	0xbe854e4d	-0.260363
115	0x3f4452bd	0.7668875
116	0x3e7380d8	0.23779619
117	0xbe0d56c0	-0.13802624
118	0x3ead9b43	0.33907518
119	0xbd087759	-0.033316944
120	0xbe3a58dc	-0.1819796
121	0xbe2bd68f	-0.16781066
122	0xbde7fdde	-0.11327718
123	0xbfd0c90c	-1.6311355
124	0xbe8632d3	-0.2621065
125	0xbed65698	-0.4186294
126	0xbefa3629	-0.48869446
127	0xbe847d5d	-0.25876895
128	0xbee3a486	-0.4446146
129	0xbf46c9f0	-0.7765188
130	0x3f898a8b	1.0745405
131	0x3f1a70b9	0.6032825
132	0xbdaaaf3f	-0.08334207
133	0xbf99d67f	-1.2018584
134	0xbfdd889e	-1.7307317
135	0x3faade9a	1.3349183
136	0xbe556309	-0.2083856
137	0x3e59007a	0.21191588
138	0xc0180d4b	-2.3758113
139	0x3b81033e	0.003937154
140	0xbe122c78	-0.14274776
141	0x3ee8bd94	0.45457137
142	0x3ebe44c7	0.37161848
143	0xbf8490eb	-1.0356725
144	0xbd56ba64	-0.05242385
145	0x3ef3a6af	0.47588107
146	0xbc75b362	-0.0149963815
147	0x3f273cf7	0.653274
148	0x3d8196fe	0.063276276
149	0x3ed62611	0.41825917
150	0x3f6db0db	0.92847985
151	0x3ea203ae	0.31643432
152	0xbe81e78c	-0.2537197
153	0xbf88d537	-1.0690068
154	0x3ecd7d82	0.40134817
155	0xbe1e90ea	-0.15484968
156	0x3f461fa3	0.77392024
157	0x3ca3600c	0.01994326
158	0xbf7acb4f	-0.97966474
159	0x3f1eaf94	0.6198666
160	0xbf73844a	-0.9512373
161	0xbf17f1e6	-0.5935348
162	0xbf96f8e0	-1.1794701
163	0x3d96de80	0.07366657
164	0xbf9a8674	-1.2072282
165	0x3f7028fa	0.93812525
166	0xbea25f95	-0.31713548
167	0x3f17b308	0.59257555
168	0x3f4534d1	0.77033716
169	0xbf10a4c4	-0.5650141
170	0xbf9aa894	-1.2082696
171	0x3fa469e6	1.2844818
172	0xbff9b737	-1.9509038
173	0x3f08a5e6	0.5337814
174	0x3e7fad4b	0.2496845
175	0x3fad4ce8	1.3539095
176	0xbe513205	-0.20429237
177	0xbe163bc9	-0.14671244
178	0xbf0de3c5	-0.55425674
179	0x3fb0a120	1.3799171
180	0x3e16950b	0.14705293
181	0x3fe64ebc	1.7992778
182	0x3e812304	0.25222027
183	0xbcbf9241	-0.023385169
184	0x3f12c638	0.5733371
185	0x3e8a4e07	0.27012655
186	0x3fcdf858	1.6091413
187	0xbdff9614	-0.12479797
188	0xbedf9680	-0.4366951
189	0x3f40b0f4	0.7527001
190	0xbf75016d	-0.957053
191	0xbf05a0eb	-0.52198666
192	0xbec280f5	-0.3798901
193	0x3f9cb989	1.2244121
194	0x3e1a82dc	0.15088981
195	0x3cd1dc3d	0.025617713
196	0x3f291525	0.6604789
197	0x3f41cc89	0.7570272
198	0x3f5f8597	0.87313217
199	0xbf2c22c9	-0.6724058
200	0x3d1f02ed	0.03882115
201	0x3f89104f	1.0708102
202	0xbf1593d6	-0.58428705
203	0xbbae2516	-0.0053144796
204	0x3e7e000f	0.2480471
205	0x3f9cc285	1.2246863
206	0x3e3db690	0.18526673
207	0xbf49eef6	-0.7888025
208	0xbf2646d7	-0.64951843
209	0x3f064f64	0.5246489
210	0x3ef24015	0.47314516
211	0xbe522043	-0.2052012
212	0x3eb954f6	0.36197633
213	0xbf6dc21c	-0.9287431
214	0xbe784826	-0.24246272
215	0xbed360b3	-0.41284713
216	0x3f48e4f5	0.7847436
217	0x3e6f5205	0.23371132
218	0xbeb13b8b	-0.3461574
219	0x3e009946	0.12558469
220	0xbe7099e9	-0.23496212
221	0xbe9ca4e8	-0.30594563
222	0xbf7fb01a	-0.99878085
223	0xbe10f8d9	-0.14157428
224	0x3f98260d	1.1886612
225	0xbe852353	-0.26003513
226	0x3f178468	0.5918641
227	0x3eb4415e	0.3520612
228	0x3f4901f2	0.78518593
229	0xbf42d011	-0.76098734
230	0xbfd291e1	-1.6450769
231	0xbf3b671b	-0.732042
232	0xbf1ead8a	-0.6198355
233	0xbf4639d2	-0.77431977
234	0x3e3b3b81	0.18284418
235	0x4000ef67	2.014612
236	0xbe11a39c	-0.14222568
237	0xbf7b7e24	-0.9823935
238	0x3f450279	0.769569
239	0xbf4bedf0	-0.7965994
240	0x3ecbaf72	0.39782292
241	0x3f28f101	0.6599274
242	0x3e2ae804	0.1669007
243	0x3f4a2ac8	0.7897153
244	0xbf1d8bbc	-0.6154134
245	0x3fa22204	1.2666631
246	0x3e961637	0.29313824
247	0x3fb00b15	1.3753382
248	0x3f53721a	0.8259598
249	0x3e9c0372	0.3047138
250	0xbe94c628	-0.2905743
251	0x3f182b5a	0.5944115
252	0xbe456b10	-0.19279122
253	0x3f00aeb5	0.5026658
254	0x3e913f41	0.2836857
255	0x3f9257f4	1.1433091

weight_hh_l0 f4 [200, 50]
0	0x3fb61422	1.4224894
1	0x3eab4028	0.33447385
2	0xc0807030	-4.013695
3	0xbfbbc95b	-1.4670824
4	0x3fa854e4	1.3150907
5	0xc08d21c1	-4.4103703
6	0x3f86e3ec	1.0538306
7	0xbea717e7	-0.32635424
8	0x4092a79a	4.582959
9	0x4049a910	3.1509438
10	0xbfa236b5	-1.2672945
11	0xbf3862e3	-0.7202589
12	0xbe37cb14	-0.17948562
13	0x3cdb4c04	0.026769646
14	0x3ea537cc	0.32269132
15	0xc00e7080	-2.2256165
16	0xc03f0a43	-2.9850013
17	0xc04abb54	-3.1676836
18	0x3f87de0e	1.0614641
19	0xb86f4007	-5.704167e-05
20	0x40b6fa73	5.7180724
21	0x3f465d4d	0.77486116
22	0x404e7c09	3.2263205
23	0xbe7ccde1	-0.24687912
24	0x3faff552	1.3746741
25	0x4002c6aa	2.0433755
26	0xbfe95585	-1.8229223
27	0xc0bfb47f	-5.990783
28	0x409fec8a	4.9976244
29	0xc049237a	-3.1427903
30	0xbef8e27b	-0.4861029
31	0x3f8d135b	1.1021532
32	0x3fea965d	1.8327137
33	0xbf9c7535	-1.2223269
34	0xbec7a428	-0.3899243
35	0xc023122d	-2.5479844
36	0x3fd7683f	1.6828688
37	0xbeb0ea90	-0.34553957
38	0xbf9836c0	-1.1891708
39	0x3f6d2718	0.9263778
40	0x401279af	2.288677
41	0xbf107d9d	-0.5644167
42	0x3fe90df8	1.8207388
43	0xbffc6b79	-1.9720298
44	0xbfe9f122	-1.8276713
45	0xbfb72f15	-1.4311243
46	0xc0059db4	-2.0877504
47	0xbf8aa08e	-1.0830247
48	0xc07933ad	-3.893779
49	0x40df4eaf	6.978355
50	0x402f89ed	2.7427933
51	0xbffcd493	-1.9752373
52	0x3f16a0b8	0.5883899
53	0x3f7212d5	0.94559985
54	0x3fa30643	1.2736286
55	0xbea3005f	-0.3183622
56	0x3f23be00	0.6396179
57	0x3fa5bec6	1.2948844
58	0xbfb1992e	-1.3874872
59	0xbeca69cd	-0.39533845
60	0xbfb12099	-1.3838073
61	0xbef8bd8e	-0.4858212
62	0xbfb6bed5	-1.4276987
63	0xc038c0eb	-2.8867748
64	0x400cc623	2.1995933
65	0xbf083ff3	-0.5322258
66	0xbfe394c0	-1.777977
67	0xbf3c0567	-0.73445743
68	0x3eaa9d79	0.33323267
69	0xbda2d038	-0.07949871
70	0x3ec2fbef	0.38082835
71	0x3f2261c7	0.63430446
72	0xbf563e0f	-0.83688444
73	0xbf7718c4	-0.96522164
74	0x3f552235	0.8325532
75	0x3c10f3f6	0.008847227
76	0x3e6c81ed	0.23096438
77	0x3e0cb1fc	0.1373977
78	0x3f690757	0.91026825
79	0x4056d70c	3.3568754
80	0x3f7db5d9	0.991056
81	0xbdfbf905	-0.12303356
82	0xbe8760ab	-0.2644094
83	0x3f6972c2	0.9119073
84	0x3f1c7ff7	0.6113276
85	0xbd760303	-0.060061466
86	0xc013c270	-2.3087425
87	0xbf59782c	-0.8494899
88	0x3ec8adef	0.391952
89	0x3f5133c4	0.81719613
90	0x3fd8c135	1.6933962
91	0x3f457a64	0.7713988
92	0xc0a12a87	-5.0364413
93	0xc03316b1	-2.79826
94	0xc0197112	-2.3975263
95	0x3f89fa3a	1.0779488
96	0xbe1c976a	-0.15292135
97	0xbf5078f8	-0.81434584
98	0x400353d2	2.051991
99	0x3ed44b4b	0.41463694
100	0x3f48d618	0.7845168
101	0xbea24090	-0.31689882
102	0x3d06f716	0.032950483
103	0xbc72d602	-0.014821531
104	0x3ab2c46f	0.0013638864
105	0x3fc7c1d2	1.5606024
106	0xc01bef00	-2.4364624
107	0x3d95e65e	0.0731933
108	0x3f20766b	0.6268069
109	0x400294c4	2.04033
110	0xbf400495	-0.7500699
111	0x3f7e3e78	0.9931407
112	0x3eff7668	0.49895024
113	0xbe424ed5	-0.18975385
114	0xbeb8fd09	-0.3613055
115	0x3f77adb3	0.9674942
116	0xbf636db6	-0.8883928
117	0xbf88bcc5	-1.0682608
118	0x3fb54ff6	1.4165027
119	0x3f5cc04d	0.8623093
120	0x3edc1329	0.42983368
121	0xbddc6518	-0.107614696
122	0x3f92d09f	1.1469916
123	0xbdb89ba8	-0.09014064
124	0x3fc8884c	1.5666595
125	0x3f5353c6	0.82549703
126	0xbf601e62	-0.8754636
127	0x3e57f931	0.21091153
128	0xbee0a4b5	-0.43875661
129	0x3f89d598	1.0768309
130	0x3f419b17	0.75627273
131	0xbef24b39	-0.47323015
132	0x3f8a494f	1.0803622
133	0x3fc86502	1.5655825
134	0x3d489182	0.048966892
135	0xbf47da30	-0.780673
136	0x3de699fa	0.112598374
137	0x3e878558	0.2646892
138	0x3f566c2c	0.8375881
139	0xbf83b45c	-1.0289416
140	0x3f8c983f	1.0983962
141	0x400a490a	2.160708
142	0xbfc9ac2c	-1.5755668
143	0xbf439749	-0.7640272
144	0x3d52c8ad	0.05146091
145	0x3fa0670a	1.2531445
146	0xbed0f04a	-0.40808326
147	0x406f8cbc	3.7429647
148	0x3f8a4f66	1.080548
149	0xbf4fd4ee	-0.8118428
150	0x3f6c3780	0.92272186
151	0x3fe05084	1.7524571
152	0x3ee9bc44	0.45651448
153	0x3daf851d	0.08570311
154	0xc01e8175	-2.4766514
155	0x3f7d71a8	0.9900155
156	0x3f24bfdf	0.6435527
157	0xbf94ee40	-1.1635208
158	0x3ff28eee	1.8949869
159	0x3f4fa3fb	0.8110959
160	0xbfbb5313	-1.4634727
161	0x3feb0384	1.8360448
162	0x4005376d	2.081508
163	0x3e46b559	0.19405116
164	0xbefd79f4	-0.49507105
165	0x3e28e37a	0.16493025
166	0xbfa27f03	-1.2695011
167	0x3efba87f	0.4915199
168	0x3f8aee50	1.0853977
169	0xbe00ee5f	-0.12590931
170	0xbfb83ede	-1.4394186
171	0xc015f9fc	-2.3433828
172	0xbf700f7f	-0.93773645
173	0xbf238c7a	-0.63886225
174	0xc0116235	-2.271619
175	0x3fdeae8c	1.7397017
176	0xbef36a74	-0.47542155
177	0xbf8ee837	-1.1164616
178	0x3f8b57b1	1.0886136
179	0x3daddcdb	0.084893905
180	0x3fc688e7	1.5510529
181	0xbf9b9c8c	-1.2157149
182	0x3fd0e789	1.6320659
183	0xbfb80b3f	-1.4378432
184	0xc007dd6c	-2.1228895
185	0xbf166604	-0.58749413
186	0xbdcd5d44	-0.10027555
187	0x3ffe54e8	1.9869661
188	0xbdce739f	-0.10080647
189	0x3ec9fff8	0.394531
190	0xc0ad4c8c	-5.415594
191	0x3f5dadec	0.8659351
192	0xbfee101b	-1.8598665
193	0x40847810	4.139656
194	0x3e726aee	0.23673603
195	0x3efa2387	0.4885523
196	0x400d9e88	2.212801
197	0xbe8adc42	-0.27121168
198	0x3e7e8c6c	0.24858254
199	0xbfadcf32	-1.3578856
200	0x400ce2f9	2.2013533
201	0xbe02b793	-0.1276534
202	0x3eaac3ed	0.33352605
203	0x3f47f783	0.7811205
204	0x4034ddc1	2.8260348
205	0x40378989	2.8677695
206	0x3fa6417c	1.2988734
207	0x3fdfa9e3	1.747372
208	0x3feb5d6e	1.8387887
209	0x40124fa1	2.2861102
210	0x3ff218cc	1.8913817
211	0xbed8e158	-0.42359424
212	0x3fdefc84	1.7420812
213	0xc009de58	-2.1541958
214	0x3f1cc9ec	0.6124561
215	0xc036cd23	-2.8562706
216	0xc05aa810	-3.4165077
217	0xc07114d7	-3.766897
218	0x3f96ee9a	1.1791565
219	0x40de2f8d	6.9433045
220	0x408ae5d2	4.340554
221	0x403fcc99	2.9968626
222	0xc086b228	-4.2092476
223	0x3fb1ad8f	1.3881091
224	0xbf388f94	-0.7209408
225	0x40d1936e	6.549247
226	0x40b52516	5.660777
227	0xbfa47d72	-1.2850783
228	0xc05b0457	-3.42214
229	0x400665b5	2.0999577
230	0x4029729e	2.6476207
231	0x3e34e247	0.17664443
232	0x3e91922f	0.28431842
233	0x3f80b7e4	1.0056119
234	0xbf8903fe	-1.0704343
235	0xbdc3e0ef	-0.09564387
236	0xc045e13a	-3.0918717
237	0xc03496bf	-2.8217008
238	0x400b1cb7	2.1736276
239	0x4027fbbf	2.6247404
240	0x3fa8151e	1.3131444
241	0xbef432af	-0.4769492
242	0xbee92c1d	-0.45541468
243	0x4029e0a9	2.6543372
244	0xbfe863ab	-1.8155416
245	0xc082c080	-4.0859985
246	0x3fe43656	1.7829082
247	0x40876de0	4.2321625
248	0x403433d7	2.815664
249	0xbec035be	-0.37541002
250	0x403418ca	2.814013
251	0x3f9bb683	1.2165073
252	0x3fb240be	1.3926008
253	0x3f8152b2	1.0103362
254	0x3edf4263	0.43605337
255	0x40811f71	4.035088

bias_ih_l0 f4 [200]
0	0x3f81638a	1.0108502
1	0x3f1e2ddc	0.61788726
2	0x3e7cc593	0.24684744
3	0x3eec555e	0.4615888
4	0x3fef1fd5	1.8681589
5	0x3f8c59e0	1.0964928
6	0xbf30ceb0	-0.6906538
7	0x3fb673fb	1.4254144
8	0xbcc5545d	-0.02408808
9	0xbec74528	-0.3891995
10	0x3e10e2a9	0.14148964
11	0x3ed10b72	0.40829045
12	0x3fc0dbe1	1.5067102
13	0x3fca1a2f	1.5789241
14	0xbfdde264	-1.7334714
15	0x3f128280	0.5723038
16	0x3d0b823c	0.034059748
17	0x3f3ae1fc	0.73001075
18	0x3febd5b5	1.8424593
19	0xbe4354ea	-0.19075361
20	0x3ce8ecd8	0.028433248
21	0x3f152dd4	0.58273053
22	0x3d9003c3	0.070319675
23	0x3fc955f7	1.5729359
24	0xbfa7c25a	-1.3106186
25	0x3f9873b3	1.1910309
26	0x3f405e61	0.7514401
27	0x3f437877	0.7635569
28	0x3fc04acc	1.5022826
29	0x3f00e973	0.50356215
30	0x3f087620	0.53305244
31	0x401c66e4	2.44378
32	0x3fc89391	1.5670034
33	0xbf41ac8a	-0.756539
34	0x3f8d53fc	1.1041255
35	0x400d267b	2.2054737
36	0x3fb4b75e	1.4118459
37	0x3f2a3c0b	0.6649787
38	0x3f5e6565	0.86873466
39	0x3f8d3286	1.1031044
40	0x3fa0940b	1.2545179
41	0x3dc1c53b	0.09461447
42	0x3ea3aabf	0.31966206
43	0x3fb3c3ab	1.4044088
44	0x40664bf8	3.5983868
45	0xbf13aa98	-0.5768218
46	0xbf0ed3f4	-0.55792165
47	0x3ff16a82	1.8860629
48	0x3f918c3b	1.137092
49	0x3ff6f686	1.9293983
50	0x3e1e8b83	0.15482907
51	0xbd5f61bc	-0.054536566
52	0x3e9e087b	0.30865845
53	0xbe213008	-0.15740979
54	0x3e6c3839	0.23068322
55	0xbfb6b0ef	-1.4272746
56	0x4076a2c7	3.8536851
57	0xbf40ae42	-0.75265896
58	0xbe9436d6	-0.28948087
59	0x3f022b6b	0.508475
60	0xbd8a07a4	-0.067397386
61	0x3f53e81f	0.82776064
62	0xbe6bf9b4	-0.23044473
63	0x3eb47b28	0.3525021
64	0x3da38dad	0.07986007
65	0x3f8e0796	1.1096065
66	0xbeb7b27a	-0.35878354
67	0x3f34842e	0.7051419
68	0x3ef501da	0.47852975
69	0x3e9a9818	0.30194163
70	0x3ce20ccc	0.027593993
71	0x3e9565cd	0.2917923
72	0x3fc88abc	1.5667338
73	0xbe6730a9	-0.22577156
74	0x3e17d2bc	0.14826483
75	0x3fed55e7	1.854184
76	0x3edc9ca6	0.43088263
77	0xbf3eee43	-0.7458231
78	0x3f690bd1	0.91033655
79	0xbe4f9aff	-0.2027397
80	0xbe86f5c4	-0.2635938
81	0x3f9e51dd	1.2368733
82	0xbd9f17de	-0.07768224
83	0x3faef1f6	1.3667591
84	0x3f8d2dd5	1.1029612
85	0xbe5b1201	-0.21393587
86	0x3e49fe3b	0.19725887
87	0x3f246ced	0.6422871
88	0x3e10105b	0.14068739
89	0xbf3985b6	-0.7246965
90	0xbf12c528	-0.57332087
91	0xbfe55684	-1.7917027
92	0x3f2dd533	0.6790344
93	0x3fb5c6a8	1.420125
94	0xbec1414d	-0.37745133
95	0xbdddecd3	-0.10836186
96	0x3eeb7752	0.45989472
97	0xbe00a3c2	-0.12562469
98	0xbd21581b	-0.039390665
99	0x3f5c0297	0.8594145
100	0x3e033434	0.12812883
101	0x3dca3d97	0.098750286
102	0x3e92c09e	0.2866258
103	0x3da48675	0.08033458
104	0x3f6daaba	0.92838633
105	0x3faa431f	1.3301734
106	0xbf6474ad	-0.89240533
107	0x3ea22694	0.31670058
108	0xbdd08366	-0.10181312
109	0x3f58204b	0.84424275
110	0x3e3e66d0	0.18593907
111	0x3e1fcc25	0.15605219
112	0xbee3d3fa	-0.44497663
113	0xbfa713da	-1.3052933
114	0xbf957c94	-1.1678643
115	0x3ef42f7f	0.47692487
116	0xbf87ed91	-1.0619375
117	0xbf1e7e35	-0.61911327
118	0x3f01d912	0.5072185
119	0x3ee88dd1	0.45420697
120	0x3efdce4f	0.49571463
121	0xbf984c68	-1.1898317
122	0x3f58f47b	0.8474805
123	0x3f1de8ee	0.6168355
124	0x3e61e4d0	0.22059941
125	0x3ef02288	0.46901345
126	0xbe2dc56a	-0.16969839
127	0xbf3405b4	-0.703212
128	0xbe8e161a	-0.27751237
129	0x3ec7377c	0.3890952
130	0xbebf49b8	-0.3736093
131	0x3f56fbbd	0.8397787
132	0x3d91e55e	0.071238264
133	0xbead03e4	-0.3379203
134	0xbfdacedd	-1.709438
135	0x3e84928f	0.25893065
136	0xbf35fef7	-0.7109217
137	0x3c8f0a76	0.017461043
138	0x3f51d8c2	0.8197137
139	0xbf8de793	-1.1086296
140	0x3fc386cf	1.5275515
141	0xbf4ab169	-0.79176956
142	0x3ef57cee	0.47946876
143	0x3f464b7e	0.7745894
144	0xbf067cdf	-0.5253429
145	0x3e69304f	0.22772335
146	0x3fabb58a	1.3414776
147	0xbf900dcb	-1.1254209
148	0x3f99e0f6	1.2021778
149	0xbeff1c11	-0.498261
150	0x3f9e318b	1.2358869
151	0x3ff9127f	1.945877
152	0x3f827737	1.0192631
153	0x40083390	2.1281471
154	0x403e1128	2.9697971
155	0x3f420551	0.7578936
156	0xbf4764c2	-0.7788812
157	0x3fbedbeb	1.4910864
158	0x4024bad9	2.5739043
159	0x3fc3571d	1.526096
160	0xbf7497d9	-0.955442
161	0x3dfca273	0.12335672
162	0x3ff792ff	1.9341735
163	0x3f28963e	0.6585425
164	0xbdf32238	-0.11871761
165	0x3f024509	0.5088659
166	0x3fa2b41f	1.2711219
167	0x3fc1c4a7	1.5138139
168	0x3fe83b15	1.814303
169	0x3f4847e8	0.7823472
170	0x4001be4b	2.0272396
171	0xbe7a0a7b	-0.2441806
172	0x3e6771df	0.22602032
173	0x3fe96413	1.8233665
174	0x3e110eec	0.14165848
175	0x3e66023f	0.22461794
176	0x3eb4f31a	0.35341722
177	0x3fcaa1e9	1.5830661
178	0x3fc94e86	1.5727088
179	0x3f770b4f	0.9650163
180	0x3f8868bb	1.0656961
181	0x3fa0ac15	1.2552515
182	0x3f703e1c	0.9384477
183	0x3ecfd0b2	0.4058891
184	0x3ea20bf6	0.3164975
185	0x3f3db31b	0.7410142
186	0x3f111928	0.5667901
187	0x3f2b181f	0.6683368
188	0x3db0b3d6	0.08628051
189	0x3f8db01c	1.1069369
190	0x3f02c8c3	0.5108759
191	0x40115ad8	2.2711697
192	0x3f3725fd	0.7154234
193	0x3ede12d7	0.4337375
194	0x3f6efa83	0.93351
195	0x3df7803d	0.120850064
196	0x4023cc6a	2.5593514
197	0x3d20bb09	0.03924087
198	0x3e414c57	0.18876778
199	0x3f755c1c	0.9584367

bias_hh_l0 f4 [200]
0	0x3f837b24	1.0271955
1	0x3f0357a3	0.513056
2	0x3eed099f	0.46296403
3	0x3ed4de6f	0.41575953
4	0x3ffc7785	1.9723974
5	0x3f8a556c	1.0807319
6	0xbf37ecf4	-0.71845937
7	0x3faf34f5	1.3688036
8	0xbcc946ef	-0.024569957
9	0xbe6594dd	-0.22420068
10	0x3e346145	0.1761523
11	0x3e94058e	0.28910488
12	0x3fc10c09	1.5081798
13	0x3fbe9ebc	1.4892192
14	0xbfc6b35d	-1.5523487
15	0x3f340e02	0.70333874
16	0x3e300550	0.17189527
17	0x3f54d936	0.8314394
18	0x3ff3cd91	1.9047109
19	0xbe0c2780	-0.13686943
20	0xbe3ba44a	-0.1832439
21	0x3f1bbed6	0.6083807
22	0x3e95bb48	0.29244447
23	0x3fcb5c14	1.5887475
24	0xbfab641b	-1.3389925
25	0x3f983a6a	1.1892827
26	0x3f62fb0e	0.8866433
27	0x3f2ea910	0.6822672
28	0x3faa255b	1.329265
29	0x3f172265	0.59036857
30	0x3f143e87	0.5790791
31	0x40165226	2.348764
32	0x3fcd861b	1.6056551
33	0xbf3d048b	-0.7383506
34	0x3f85a6c8	1.0441523
35	0x4005e68e	2.092197
36	0x3fa9bf5f	1.3261527
37	0x3f0bed82	0.54659283
38	0x3f6540ed	0.89552194
39	0x3f582745	0.8443492
40	0x3f9f4477	1.2442769
41	0xbd793b84	-0.060847774
42	0x3ef169ea	0.4715112
43	0x3fa5f0bf	1.2964095
44	0x406040a9	3.5039465
45	0xbed727da	-0.42022592
46	0xbeb0a307	-0.3449938
47	0x3ff31c18	1.8992949
48	0x3f922f13	1.1420616
49	0x3fed3600	1.8532104
50	0x3e58bc9d	0.211657
51	0xbe322e1e	-0.17400405
52	0x3eb1d4f4	0.34732783
53	0xbde8698b	-0.11348256
54	0x3d3453bb	0.044025164
55	0xbfb8186a	-1.438245
56	0x407df57b	3.968108
57	0xbf313bfc	-0.69232154
58	0xbe5b5966	-0.21420822
59	0x3f1ed141	0.62038046
60	0xbe921826	-0.2853405
61	0x3f407e34	0.7519257
62	0xbe9a39ad	-0.30122128
63	0x3e723c7c	0.23655885
64	0xbd027ff1	-0.031860296
65	0x3f963758	1.173564
66	0xbee38604	-0.44438183
67	0x3f17324a	0.5906111
68	0x3eb7fae7	0.3593361
69	0x3efb835f	0.49123666
70	0xbe16dbb8	-0.14732254
71	0x3e5d89d8	0.21634614
72	0x3fca2298	1.5791807
73	0xbdbdeea5	-0.092740335
74	0x3b736291	0.0037137608
75	0x3fd82c65	1.6888548
76	0x3ebd3f06	0.36962146
77	0xbf36e56b	-0.71443814
78	0x3f76db44	0.9642832
79	0xbdab9fad	-0.08380065
80	0xbe9da45b	-0.30789456
81	0x3f96187f	1.1726226
82	0xbe65febc	-0.22460455
83	0x3fbb5e3b	1.4638132
84	0x3f5dfa26	0.8670982
85	0xbe151ae3	-0.14561038
86	0x3e36b9b8	0.17844284
87	0x3f25fae3	0.6483595
88	0xbcb2ac3d	-0.021810645
89	0xbf374d52	-0.71602356
90	0xbf3eba8f	-0.74503416
91	0xbfe1dac1	-1.7644883
92	0x3f2acde9	0.66720444
93	0x3fd3f369	1.6558658
94	0xbecdb959	-0.40180472
95	0xbde290b7	-0.110627584
96	0x3f1f3378	0.6218791
97	0x3d08eda1	0.033429746
98	0xbd9030d3	-0.070405625
99	0x3f45710a	0.7712561
100	0x3db7ef07	0.08981138
101	0x3d9bf543	0.07615139
102	0x3eb38da3	0.35068998
103	0xbd13a69b	-0.03604756
104	0x3f841652	1.0319312
105	0x3fa75f0a	1.3075879
106	0xbf6f7589	-0.9353872
107	0x3ebac5ac	0.36478937
108	0xbce49abe	-0.027905818
109	0x3f5d8422	0.86529744
110	0x3d30c759	0.043158863
111	0x3e66e729	0.22549118
112	0xbf08491a	-0.53236544
113	0xbfb2a4aa	-1.3956501
114	0xbf9315d9	-1.1491042
115	0x3eee396b	0.4652818
116	0xbf966e35	-1.1752383
117	0xbf173278	-0.59061384
118	0x3eca380a	0.3949588
119	0x3e89c1b6	0.26905602
120	0x3ef93984	0.48676693
121	0xbf9b7402	-1.2144778
122	0x3f2feccd	0.68720704
123	0x3f341ea5	0.7035926
124	0x3e8db9ec	0.2768091
125	0x3eb3174d	0.34978715
126	0xbe2315ee	-0.15926334
127	0xbf4fa22f	-0.8110685
128	0xbe6d6e39	-0.23186578
129	0x3f12622b	0.5718104
130	0xbea99a05	-0.3312532
131	0x3f55a92e	0.8346127
132	0x3c47752f	0.012173935
133	0xbe6b4a24	-0.22977501
134	0xbfefccc2	-1.8734362
135	0x3eb078ca	0.34467155
136	0xbf0b3a24	-0.5438559
137	0x3c09c91d	0.008409766
138	0x3f65e202	0.89797986
139	0xbfa5bef4	-1.2948899
140	0x3fbefc63	1.4920772
141	0xbf34e65d	-0.70664006
142	0x3f2eb52d	0.682452
143	0x3f244352	0.6416522
144	0xbeda3080	-0.42615128
145	0x3e5e6170	0.21716857
146	0x3fb14372	1.3848708
147	0xbf6b1b87	-0.9183888
148	0x3f92de05	1.1474005
149	0xbf241696	-0.64096963
150	0x3fb8e82e	1.4445856
151	0x3ffda6a8	1.9816484
152	0x3f6847c3	0.907345
153	0x40072134	2.1114016
154	0x4047871b	3.1176212
155	0x3f3dee0b	0.7419135
156	0xbf4ea8a6	-0.8072609
157	0x3fb1dfa5	1.3896376
158	0x402d977b	2.7123706
159	0x3fc7aeec	1.5600257
160	0xbf80cced	-1.0062538
161	0x3e37b8b6	0.17941555
162	0x4003f68f	2.0619237
163	0x3eeb9e41	0.46019176
164	0xbe3b9e76	-0.18322167
165	0x3ec6c017	0.38818428
166	0x3f975a3a	1.182441
167	0x3fbe195b	1.4851488
168	0x3ff838d1	1.9392339
169	0x3f63c056	0.88965356
170	0x40031c8f	2.048618
171	0xbedfe658	-0.43730426
172	0xbbce817b	-0.0063020564
173	0x3fd9a527	1.7003525
174	0x3d59e99b	0.0532013
175	0x3e98ae06	0.2982027
176	0x3efa4fec	0.488891
177	0x3fc3d132	1.5298216
178	0x3fb3de45	1.4052206
179	0x3f805696	1.0026424
180	0x3f76afca	0.9636198
181	0x3f911843	1.1335529
182	0x3f71b6bc	0.94419456
183	0x3e9f2150	0.31080103
184	0x3e6d9547	0.23201476
185	0x3f4ae0be	0.7924918
186	0x3f2569c8	0.64614534
187	0x3f2d2082	0.6762773
188	0xba9bc779	-0.0011885009
189	0x3f769868	0.96326303
190	0x3f10135b	0.56279534
191	0x40125c53	2.286885
192	0x3f1957cf	0.5989961
193	0x3e9473a4	0.28994477
194	0x3f9817b5	1.1882235
195	0x3e73d59a	0.23811951
196	0x401c4780	2.441864
197	0xbc5ac22b	-0.013351957
198	0x3e3ccbd8	0.18437135
199	0x3f3e6548	0.7437329

weight f4 [74, 50]
0	0xbfab0737	-1.3361577
1	0x3ec1f442	0.37881666
2	0xbf9874a6	-1.1910598
3	0x3f13eb06	0.5778049
4	0xbedcd0c9	-0.4312804
5	0xbfa2338d	-1.2671982
6	0x3ce9b449	0.02852835
7	0xbeed8ab6	-0.4639489
8	0xbf6c6a1f	-0.9234943
9	0xbf019eda	-0.50633013
10	0xbe088175	-0.13330634
11	0x3e9f4102	0.31104285
12	0x3f3c2f91	0.7351008
13	0x3f8a6207	1.0811166
14	0x3f847027	1.0346726
15	0xbf98dc16	-1.1942165
16	0x3f7018ac	0.93787646
17	0x3f8365c3	1.026543
18	0xbf83c6d0	-1.0295048
19	0x3fdb4446	1.713021
20	0x3fb993bd	1.4498211
21	0x3f901392	1.1255972
22	0xbfd298fa	-1.6452935
23	0x3e064dbd	0.13115592
24	0x3f3979db	0.7245156
25	0xbf870f0d	-1.0551468
26	0x3eb7e65f	0.35917947
27	0xbf02f1b1	-0.5115004
28	0x3ec0f5ba	0.37687474
29	0xbf7e6f96	-0.99389017
30	0xbe299009	-0.16558851
31	0xbf746d88	-0.9547963
32	0xbe9ddd49	-0.3083289
33	0x3fabac39	1.3411933
34	0x3fcbb091	1.5913259
35	0xbf6a98a1	-0.91639143
36	0x3fa1f5cc	1.2653136
37	0x3fa32f7a	1.2748864
38	0xbf1f1891	-0.6214686
39	0xbf76860e	-0.962983
40	0xbfa401c5	-1.281304
41	0x3faae6e3	1.3351711
42	0x3f447a89	0.76749474
43	0xbf8c3e20	-1.0956459
44	0x3f9c7c60	1.2225456
45	0xbf8eca0f	-1.1155413
46	0xbf477533	-0.77913207
47	0x3f882586	1.0636451
48	0xbf5f7ae1	-0.87296873
49	0x3f0e0a41	0.55484396
50	0xbf920006	-1.1406257
51	0x3ef920b8	0.48657775
52	0xbf98c965	-1.1936461
53	0x3f302a11	0.6881419
54	0xbe9ed818	-0.3102424
55	0xbfa0ccdd	-1.2562519
56	0xbc8b538e	-0.017007615
57	0xbeebbe6b	-0.46043715
58	0xbf59b7d7	-0.8504614
59	0xbf0d638a	-0.5523001
60	0xbde4c3b3	-0.11170139
61	0x3e9bf245	0.30458274
62	0x3f344f89	0.7043386
63	0x3f9a6eec	1.2065101
64	0x3f8eac2d	1.1146294
65	0xbf87fd37	-1.062415
66	0x3f7bcf64	0.9836333
67	0x3f8c9ca5	1.0985304
68	0xbf78fd28	-0.97261286
69	0x3fd98d2e	1.699621
70	0x3fbdba0a	1.48224
71	0x3f82b45e	1.0211294
72	0xbfcc4c14	-1.5960717
73	0x3daed88a	0.08537395
74	0x3f30e6ff	0.6910247
75	0xbf85784c	-1.0427337
76	0x3eba60af	0.3640189
77	0xbeef795a	-0.4677227
78	0x3eb4ca2b	0.35310492
79	0xbf82b8cc	-1.0212646
80	0xbe2b812c	-0.16748494
81	0xbf645ccb	-0.8920409
82	0xbe911e9c	-0.28343666
83	0x3fa1c552	1.2638342
84	0x3fddd916	1.7331874
85	0xbf5dfb77	-0.8671183
86	0x3fa14b9c	1.2601199
87	0x3fa3babd	1.2791363
88	0xbf0ed1ad	-0.5578869
89	0xbf6b67ab	-0.9195506
90	0xbf96f19f	-1.1792487
91	0x3f983859	1.1892196
92	0x3f62e46a	0.8862978
93	0xbf89159f	-1.0709723
94	0x3f9b3988	1.2126932
95	0xbf8c9a83	-1.0984653
96	0xbf406713	-0.7515728
97	0x3f8e3807	1.1110848
98	0xbf7d0583	-0.98836535
99	0x3ed527b1	0.41631845
100	0x40a6d02e	5.2129126
101	0x3fd78984	1.6838841
102	0x3f2d3793	0.67662925
103	0xc01343dc	-2.3010168
104	0x3f1ca6dd	0.61192113
105	0x3e49227c	0.19642061
106	0x3f2f1964	0.6839812
107	0xc00413ca	-2.0637078
108	0x401e2517	2.4710138
109	0x3fab4edc	1.3383441
110	0xbf1bd79c	-0.6087587
111	0xbfc52320	-1.5401344
112	0xbf1d8a4c	-0.6153915
113	0x3ef0ffa6	0.47070044
114	0xbff14636	-1.8849552
115	0x3f33ca73	0.7023079
116	0x3f99ba60	1.2010002
117	0x40b61c01	5.6909184
118	0xc0d53fc9	-6.6640363
119	0xc00d8f5c	-2.211875
120	0x3d992477	0.07477658
121	0xbd915540	-0.07096338
122	0xbf1a13a4	-0.6018622
123	0xbe10eeb1	-0.14153554
124	0x3fd2e54c	1.6476226
125	0x3f431ebb	0.76218766
126	0xbfbc6df2	-1.4721053
127	0x3fc01c1c	1.5008578
128	0x3fe08b07	1.7542428
129	0xbee5fc5a	-0.4491909
130	0xbf82f6d4	-1.0231576
131	0x406cf008	3.7021503
132	0xbeaed27b	-0.3414496
133	0x4008f9f0	2.140255
134	0x3f78774a	0.9705702
135	0xbf202ea2	-0.62571156
136	0xbfc88353	-1.5665077
137	0x3f4fe7ad	0.81212884
138	0xc00b095c	-2.1724463
139	0xc00a4cde	-2.1609416
140	0xc0774c14	-3.8640184
141	0xbfe89d33	-1.8172973
142	0xbe195eaf	-0.14977525
143	0x3f1e3220	0.61795235
144	0xbf91da1b	-1.1394686
145	0xbf20db5c	-0.62834716
146	0xc02b02f1	-2.6720545
147	0xbf412496	-0.7544645
148	0x3fba14ca	1.4537594
149	0x405bdf95	3.4355214
150	0xc037e2e1	-2.8732226
151	0x3f78804d	0.9707077
152	0x3f5ce5c3	0.8628809
153	0x3ffd35cc	1.9782043
154	0x3fedf025	1.8588911
155	0xbebf8306	-0.3740465
156	0xc029d561	-2.6536486
157	0xc004f8af	-2.0776784
158	0xc028837a	-2.6330247
159	0x3fab808a	1.3398602
160	0xbeac1d3d	-0.33616057
161	0x3fe76cae	1.8080041
162	0x3ff8bf25	1.9433333
163	0x4048ffc5	3.140611
164	0x405d8ccc	3.4617186
165	0xbffe5585	-1.9869848
166	0xbfe68f3f	-1.8012465
167	0xbde06af7	-0.10957902
168	0x3ec34e67	0.38145754
169	0x3f87d4e2	1.0611842
170	0x3ffe564f	1.9870089
171	0x3f6bb46d	0.9207218
172	0xc108e078	-8.554802
173	0x3f5cbd9a	0.8622681
174	0x3fa7f612	1.312197
175	0xc0aeb063	-5.4590316
176	0x3fab293b	1.3371958
177	0x3f02d618	0.5110793
178	0xbf88747c	-1.0660548
179	0x4047de77	3.1229532
180	0x3fe706de	1.8048971
181	0xc023c6f4	-2.5590181
182	0x3faaaa06	1.3333137
183	0xbf8a369e	-1.0797918
184	0xbf98c21c	-1.1934237
185	0xbe3b0895	-0.18264993
186	0x4050b963	3.261315
187	0xbe54b870	-0.20773482
188	0x3f542745	0.8287242
189	0x3f8755d0	1.0573063
190	0xbfeea280	-1.8643341
191	0xbf2b0f35	-0.6682008
192	0x3fd0ddc7	1.6317681
193	0x3fa28a93	1.269854
194	0x400f6a82	2.2408757
195	0xbec57a8a	-0.38570052
196	0x3fc7dcc4	1.5614247
197	0x4112ed6b	9.182963
198	0x3f6447f2	0.8917228
199	0xbfe4dac4	-1.7879262
200	0xbfd6d0d1	-1.6782476
201	0x3fbd1f17	1.4775113
202	0xbe744a42	-0.23856452
203	0x40014c33	2.0202758
204	0x3eec095e	0.46100897
205	0x3eb80f8b	0.35949358
206	0xbfb396f9	-1.4030448
207	0x40256c1a	2.584723
208	0x3f576446	0.8413738
209	0x3f11c150	0.56935596
210	0x3c607dfe	0.013701914
211	0x3fdc5953	1.721476
212	0x3fad967a	1.3561547
213	0xc03fff29	-2.9999487
214	0xbf485286	-0.7825092
215	0x3e2b61ff	0.16736601
216	0x3e9a58d1	0.30145887
217	0xbffa1fbe	-1.9540937
218	0x40225de3	2.5369804
219	0xbf73b6cd	-0.95200807
220	0x3e46f576	0.19429573
221	0xc044bf05	-3.074159
222	0x3f2b3b7a	0.6688763
223	0xbfd7a586	-1.6847389
224	0x3ef08020	0.46972752
225	0x3f893987	1.0720681
226	0xbfadf9e8	-1.359189
227	0xbf2e639e	-0.68120754
228	0x3fbae7e2	1.4602015
229	0xbe2e10d8	-0.16998613
230	0x3fad7361	1.3550836
231	0xbead7c38	-0.33883834
232	0xbf6395d3	-0.8890049
233	0xbf2b34b4	-0.66877294
234	0xbf2cb5ad	-0.67464715
235	0x3fd77299	1.6831847
236	0xc00d5b23	-2.2086875
237	0xbf983fa7	-1.1894425
238	0xbfc737ea	-1.5563939
239	0x3e98d5b0	0.2985053
240	0x3de5a4f3	0.11213102
241	0xbe2f725f	-0.17133473
242	0xbfac142c	-1.3443656
243	0xbe52b3e3	-0.20576434
244	0xbe0da057	-0.13830696
245	0x3f3fcfd1	0.7492648
246	0xbfc82f20	-1.5639381
247	0x3e392e65	0.18084104
248	0x3fea2cc1	1.8294908
249	0xbfb09c67	-1.379773
250	0xc0f639fc	-7.694578
251	0xc0604e04	-3.5047617
252	0xbfe53624	-1.7907147
253	0xbe0c4857	-0.1369947
254	0xc099a451	-4.801308
255	0xc0db0759	-6.844647

bias f4 [74]
0	0xbfdf3016	-1.743655
1	0xbfd8d473	-1.6939834
2	0x3f01ffca	0.5078093
3	0x3fb10887	1.3830727
4	0x4011193f	2.267166
5	0xc046dbb4	-3.1071596
6	0x4040f3cd	3.0148804
7	0x3f10b277	0.56522316
8	0x3f9772a0	1.1831856
9	0xbfd58b1d	-1.6683079
10	0xbfdee14a	-1.7412503
11	0xbfa12aa4	-1.2591138
12	0xbfaeb17b	-1.3647913
13	0x3d52638e	0.051364474
14	0x40190905	2.3911755
15	0x403d0aae	2.9537768
16	0x401574cc	2.3352537
17	0xbf28042d	-0.6563137
18	0xbf3549d7	-0.70815796
19	0xbf3205bd	-0.69540006
20	0xbf77f7a7	-0.9686226
21	0xbfaf71e3	-1.370663
22	0xbf6cfbee	-0.92571914
23	0x3ef55c74	0.479221
24	0xbfa466eb	-1.2843908
25	0x3ec94cff	0.39316556
26	0x3fc1b2d5	1.51327
27	0x400b9fae	2.181621
28	0x3dad3000	0.08456421
29	0x3f941f12	1.1571982
30	0xbfec0bd2	-1.8441107
31	0xbfe97c2d	-1.824102
32	0xbf178823	-0.59192103
33	0xbe9d2571	-0.30692628
34	0xbfd63c01	-1.6737062
35	0xbfb50dab	-1.4144796
36	0x3f511bb9	0.81682926
37	0xbf84a932	-1.0364134
38	0xbf17ccc6	-0.59296834
39	0xbf874c8d	-1.0570236
40	0xbe9c190f	-0.30487868
41	0xbf1d031b	-0.61332864
42	0xbf757bcb	-0.9589202
43	0x3e882d5b	0.26597103
44	0xbf07b0ec	-0.53004336
45	0x3e95e2b1	0.29274514
46	0xbfefef4f	-1.8744906
47	0xbfcf2a68	-1.6184816
48	0xc00047d2	-2.0043836
49	0xc0a492d3	-5.142923
50	0xbfdd2201	-1.7276002
51	0xbf26a90b	-0.6510169
52	0xc0896ddc	-4.2946606
53	0xbff99c75	-1.9500872
54	0xbfd3ff43	-1.6562275
55	0xc0079a39	-2.118788
56	0xbfaafba2	-1.3358042
57	0xc02ae6c3	-2.6703346
58	0x40293d84	2.6443796
59	0xc013341e	-2.300056
60	0xbf80b1e8	-1.0054293
61	0xbf60ab57	-0.87761444
62	0xc0183935	-2.3784916
63	0xbf3d4430	-0.7393217
64	0x3ee10414	0.43948424
65	0xbf01763a	-0.50571024
66	0xc01927e9	-2.393061
67	0xc0119def	-2.2752645
68	0xbf8bd8c6	-1.0925529
69	0xc03f994a	-2.993731
70	0xc011f6c0	-2.2806854
71	0xc02f57e6	-2.73974
72	0xbf046825	-0.5172141
73	0xc020b600	-2.5111084

weight f4 [50, 2]
0	0x3f092ba5	0.5358222
1	0x3f152367	0.58257145
2	0x3e94411a	0.2895592
3	0x3f2ac6f9	0.6670986
4	0xbd77ed90	-0.06052929
5	0xbe884520	-0.26615238
6	0x3e08ca78	0.13358486
7	0x3d1dbd90	0.03851086
8	0xbe4324f0	-0.1905706
9	0xbf2e2467	-0.68024296
10	0x3f2bdec7	0.67136806
11	0x3e550ab0	0.20804858
12	0xbe38514c	-0.17999762
13	0x3e164100	0.14673233
14	0x3f0ee773	0.55821913
15	0x3ef666c6	0.48125285
16	0xbe660900	-0.2246437
17	0x3d497c80	0.049190998
18	0xbf31c192	-0.6943599
19	0xbece04e5	-0.4023811
20	0x3ccb6640	0.02482903
21	0xbecc26e1	-0.39873412
22	0xbe1428e4	-0.14468724
23	0xbe800e4c	-0.25010908
24	0x3d674d50	0.056470215
25	0xbea6b4c1	-0.3255978
26	0xbec46a98	-0.38362575
27	0xbe9ad4e7	-0.30240557
28	0x3e144284	0.14478499
29	0x3de872f8	0.113500535
30	0xbe1a2140	-0.15051746
31	0xbdff12f0	-0.12454784
32	0x3f1b2a91	0.60611826
33	0xbf21b3ca	-0.6316496
34	0xbd83f700	-0.06443596
35	0xbf0d9aa7	-0.55314106
36	0xbe6fc25a	-0.23413983
37	0xbf231a7f	-0.63712305
38	0x3ef33d62	0.4750777
39	0x3f1ad0ad	0.60474664
40	0xbebaa469	-0.3645356
41	0xbf0e5591	-0.55599314
42	0x3ed5ee3e	0.41783327
43	0xbefd1d0b	-0.4943622
44	0xbf1971d5	-0.5993932
45	0xbeedb0c5	-0.46423927
46	0xbf0483ee	-0.5176381
47	0xbf07b262	-0.53006566
48	0xbe39d294	-0.18146735
49	0x3ea8bff6	0.32958955
50	0xbe6cff10	-0.23144174
51	0xbf11658e	-0.56795585
52	0x3ef7f5a2	0.4842959
53	0xbf23aace	-0.639325
54	0x3ee2dc0a	0.443085
55	0x3e233e40	0.15941715
56	0xbef97552	-0.4872232
57	0xbf07a280	-0.5298233
58	0x3f266f6f	0.65013784
59	0x3d324930	0.04352683
60	0x3e4e547c	0.20149416
61	0xbce1db60	-0.027570426
62	0xbd841eb0	-0.06451166
63	0x3f21f1a1	0.6325932
64	0xbee604c5	-0.44925514
65	0x3d7ffb60	0.06249559
66	0xbd8afae0	-0.06786132
67	0xbecbfd78	-0.3984182
68	0x3ebb9c4a	0.36642677
69	0xbf19ece1	-0.60127074
70	0x3e852b1a	0.26009446
71	0xbee2c24b	-0.4428886
72	0xbf0b5139	-0.5442081
73	0xbe44e390	-0.19227433
74	0x3cd988e0	0.026554525
75	0xbea83648	-0.32853913
76	0x3e8db4aa	0.27676898
77	0xbeb0e2e0	-0.34548092
78	0xbee4a471	-0.4465671
79	0xbeb2dc69	-0.34933785
80	0xbdea48b8	-0.11439651
81	0x3dd50e80	0.10403156
82	0x3eb3af66	0.35094756
83	0xbf11ad5e	-0.5690516
84	0xbf2a7f19	-0.66600186
85	0xbf253452	-0.6453296
86	0x3e4abd88	0.19798863
87	0xbe6f6004	-0.23376471
88	0xbe5e992e	-0.21738121
89	0xbf1e088d	-0.617318
90	0x3e6c973c	0.23104566
91	0x3f0f9505	0.5608676
92	0x3eef6aa2	0.46761042
93	0xbde84e98	-0.113431156
94	0xbf09625d	-0.53665715
95	0x3f1b98d7	0.6078009
96	0x3dd71e50	0.105038285
97	0xbe4eb724	-0.2018705
98	0xbf34111e	-0.7033862
99	0x3ed1d79a	0.40984803

bias f4 [50]
0	0x3f2d7dd9	0.67770153
1	0x3f01789b	0.50574654
2	0x3c020200	0.007935047
3	0x3ebde09a	0.3708542
4	0xbec885da	-0.3916462
5	0x3e7a3ed4	0.2443803
6	0x3f2ea179	0.6821514
7	0xbec4e9e8	-0.38459706
8	0x3ed128ce	0.40851444
9	0x3ea1f332	0.31630856
10	0xbf348354	-0.7051289
11	0x3f24f1e9	0.64431626
12	0x3f0e72cf	0.55643934
13	0xbee665da	-0.44999582
14	0x3eb3931a	0.35073167
15	0xbeb5e9d5	-0.35529962
16	0xbf23b9f8	-0.6395564
17	0xbd8d6c40	-0.06905413
18	0x3e9eefca	0.3104232
19	0xbd33e130	-0.043915927
20	0x3e4a71d4	0.19769984
21	0x3b372000	0.0027942657
22	0x3eda803a	0.42675954
23	0xbe8104bc	-0.25198925
24	0x3f03dfb5	0.51513225
25	0x3e04f5d8	0.12984407
26	0xbf1e6dfa	-0.6188656
27	0xbee15c55	-0.44015756
28	0x3db98750	0.09059012
29	0x3df98300	0.121831894
30	0xbf0ae566	-0.54256284
31	0xbedacd8a	-0.4273494
32	0x3caa2ec0	0.020774245
33	0xbf2b6734	-0.6695435
34	0x3dfd3ab8	0.12364715
35	0xbf250aa0	-0.6446934
36	0x3f082d8f	0.53194517
37	0x3eb94862	0.36188036
38	0x3f0c6d73	0.54854506
39	0xbee28c06	-0.44247454
40	0xbeed59da	-0.46357614
41	0x3f22dbbf	0.63616556
42	0xbf1f309d	-0.62183553
43	0x3e004b68	0.12528765
44	0x3e32a65c	0.17446274
45	0x3ef7e00e	0.48413128
46	0x3f30d16d	0.6906956
47	0x3ee7b162	0.4525252
48	0xbec095f5	-0.37614408
49	0x3f1b7fdd	0.6074198

weight_ih_l0 f4 [200, 20]
0	0x3e90bc73	0.28268775
1	0xbe287696	-0.16451487
2	0xbe8fdb57	-0.2809703
3	0x3e09331c	0.13398403
4	0xbea5187a	-0.32245237
5	0xbd08121a	-0.033220388
6	0x3e072e35	0.1320122
7	0xbed4974a	-0.41521674
8	0xbca8d5f9	-0.020609843
9	0xbd253975	-0.040338
10	0xbf169eb4	-0.5883591
11	0x3e771c18	0.2413181
12	0xbe69887b	-0.2280597
13	0xbdfea20e	-0.12433253
14	0x3ce5cbfa	0.028051365
15	0x3d7e6f91	0.062118117
16	0x3c4760e9	0.012169101
17	0x3e8c3902	0.27387244
18	0x3f29abf4	0.66278005
19	0xbe7f9adf	-0.24961422
20	0x3e911a99	0.28340605
21	0xbeab9429	-0.33511475
22	0x3cbb9329	0.02289732
23	0x3ef29f58	0.47387195
24	0xbf1aa662	-0.6041013
25	0xbe3da0f9	-0.18518437
26	0x3efd2ec0	0.4944973
27	0xbf0352a4	-0.51297975
28	0x3e572b36	0.21012577
29	0x3efbdef5	0.4919354
30	0xbe2aeb10	-0.16691232
31	0xbd6d6034	-0.057953075
32	0xbe28776e	-0.16451809
33	0x3e66fafd	0.22556682
34	0xbe9358e1	-0.28778747
35	0xbe298c9d	-0.16557546
36	0x3cbfa4dc	0.02339404
37	0x3ee15ce6	0.44016188
38	0x3e8284e0	0.25492
39	0xbe3a563d	-0.1819696
40	0xbd2344c0	-0.039860487
41	0x3c1a06b2	0.00940101
42	0x3e96b5c8	0.29435563
43	0x3edecb51	0.43514493
44	0xbd1e15e4	-0.038595095
45	0x3cc1d635	0.023661712
46	0x3d42f94e	0.047601037
47	0xbeea7e0a	-0.45799285
48	0x3f4362d3	0.7632267
49	0xbf668842	-0.9005166
50	0x3f08f743	0.5350229
51	0x3e6d175e	0.23153445
52	0x3d69bed1	0.057066742
53	0x3f361940	0.7113228
54	0x3efba053	0.49145755
55	0x3e9d5e77	0.30736133
56	0x3e1f37dd	0.15548654
57	0x3b0669c6	0.0020509823
58	0x3e8673cd	0.26260224
59	0xbdd0385e	-0.10167001
60	0x3e35b46a	0.17744604
61	0x3ead3e79	0.33836725
62	0xbe0d8bec	-0.13822907
63	0xbeddbead	-0.43309537
64	0xbe9bfe49	-0.30467442
65	0x3dec939e	0.11551593
66	0x3ec26940	0.37970924
67	0xbf16bfb3	-0.5888626
68	0xbe27c138	-0.16382301
69	0xbf2e8cc6	-0.68183553
70	0x3f6ee0eb	0.9331195
71	0xbd9b1892	-0.07573046
72	0xbe7fa464	-0.24965054
73	0x3f16264a	0.58652174
74	0xbe8bc1ec	-0.27296388
75	0x3de5efdc	0.1122739
76	0x3e32017e	0.17383382
77	0x3db50e0b	0.08840569
78	0xbf08b3d7	-0.53399414
79	0xbe6bd32d	-0.23029776
80	0x3e3e08c7	0.18558036
81	0xbeea900c	-0.45813024
82	0xbd3002a2	-0.04297126
83	0x3f15f865	0.58582145
84	0xbf2075e6	-0.626799
85	0xbedbe42b	-0.42947516
86	0x3de4d5e7	0.11173611
87	0xbeccdf7b	-0.40014252
88	0xbe3fbbdc	-0.18724006
89	0x3ee0832d	0.4385008
90	0xbed34cc7	-0.41269514
91	0xbe5f3908	-0.217991
92	0x3ce5a386	0.028032076
93	0x3c468885	0.01211751
94	0xbc210988	-0.009828933
95	0xbf37d99c	-0.7181642
96	0x3d282726	0.04105296
97	0x3e811f96	0.2521941
98	0x3edafc2d	0.4277052
99	0x3e19ca08	0.15018475
100	0x3e88adbf	0.26695058
101	0xbe80851b	-0.2510155
102	0x3daf7fec	0.08569321
103	0x3f02abe5	0.5104354
104	0xbf1ef3b5	-0.6209062
105	0xbf065934	-0.52479863
106	0xbeac4071	-0.33642915
107	0xbf203669	-0.62583023
108	0x3e98334e	0.29726642
109	0x3ed32854	0.41241705
110	0xbe31a19a	-0.17346802
111	0x3e037180	0.12836266
112	0xbd86022a	-0.065433815
113	0xbef450bc	-0.47717845
114	0xbcbe5b8e	-0.023237016
115	0xbd7bf73c	-0.061515078
116	0x3ec4f989	0.3847163
117	0x3e8add18	0.27121806
118	0x3e49afb7	0.19695936
119	0x3f322e2d	0.6960171
120	0x3f411dfd	0.75436383
121	0xbdef3d7b	-0.11681648
122	0xbc4ed65e	-0.012624351
123	0x3eff54fb	0.49869522
124	0xbecfc0a7	-0.4057667
125	0xbeb5ff88	-0.35546517
126	0xbf12309e	-0.57105434
127	0xbefb5e6d	-0.4909548
128	0xbeb69a2e	-0.35664505
129	0x3f49d4c8	0.78840303
130	0x3f0cde08	0.5502629
131	0x3e398add	0.18119378
132	0xbee88aeb	-0.45418486
133	0x3e3be88b	0.18350427
134	0xbf249426	-0.64288557
135	0xbf4daf77	-0.80345863
136	0x3e3efcb5	0.18651088
137	0xbeb34fd9	-0.35021856
138	0x3df4cf03	0.11953547
139	0x3e29fbef	0.16600011
140	0xbf2b5bcc	-0.66936946
141	0x3e62df08	0.22155392
142	0xbe8af50b	-0.27140078
143	0xbf6202ea	-0.88285697
144	0xbf6048d0	-0.87611103
145	0xbd10400a	-0.035217322
146	0xbf48290d	-0.7818764
147	0xbefb6514	-0.49100554
148	0xbdeb8a5a	-0.11500998
149	0xbdbdd7b5	-0.092696585
150	0x3f84ef20	1.0385475
151	0xbe8a5b9d	-0.2702302
152	0x3ddfe53f	0.10932397
153	0xbc8b8832	-0.017032716
154	0x3f0b1d8c	0.5434196
155	0x3dade7db	0.084914885
156	0xbdbd3567	-0.09238701
157	0xbe072d32	-0.13200834
158	0xbfb17b5b	-1.386577
159	0xbe57ebf5	-0.21086104
160	0x3de78955	0.11305491
161	0x3e286e46	0.16448316
162	0x3d1540c0	0.036438704
163	0xbd67f5e0	-0.05663097
164	0x3da0f5d9	0.07859392
165	0xbdfa0dbd	-0.122096516
166	0x3e5ebb7e	0.2175121
167	0xbe16fb15	-0.14744218
168	0xbd74630b	-0.059664767
169	0x3d7679dd	0.06017481
170	0xbe02d6c2	-0.12777236
171	0x3ee843a9	0.4536412
172	0xbd1d886e	-0.038460188
173	0xbe6db60c	-0.23213977
174	0x3d178d79	0.037000153
175	0x3d284454	0.041080788
176	0xbd9771bf	-0.07394742
177	0x3cc27aab	0.023740133
178	0x3cabb60f	0.020960836
179	0x3ea51402	0.32241827
180	0x3e36e1c8	0.17859566
181	0xbdd386a8	-0.10328418
182	0x3a82b869	0.0009973171
183	0x3d72d56d	0.05928557
184	0xbeda8098	-0.42676234
185	0xbe080b81	-0.13285638
186	0xbf45be12	-0.7724315
187	0xbf3c39b1	-0.7352553
188	0xbf23d1c6	-0.63991964
189	0x3dcc9a7a	0.099904016
190	0x3f045687	0.5169453
191	0x38e2f8ea	0.000108228836
192	0xbea4d324	-0.32192338
193	0x3f0bb375	0.54570705
194	0xbe27cb4a	-0.16386142
195	0x3d9c2f0a	0.076261595
196	0xbe9195a2	-0.28434473
197	0x3d3f1306	0.046649
198	0x3e90b31d	0.28261653
199	0x3e61f908	0.22067654
200	0x3d0ebcc6	0.034847997
201	0x3de94ae7	0.113912396
202	0xbd7d06d8	-0.061774105
203	0x3d2c9d93	0.042142462
204	0x3dac2824	0.08406094
205	0xbe3534b1	-0.17695881
206	0x3d42fcc3	0.047604334
207	0xbe394630	-0.1809318
208	0xbcd10d1a	-0.025518943
209	0xbe021f3a	-0.12707224
210	0xbe252b08	-0.16129696
211	0x3e7db268	0.24775088
212	0x3e490551	0.19630934
213	0x3d106c63	0.035259616
214	0x3e07b99d	0.132544
215	0x3eaceb54	0.3377329
216	0xbe02e9ec	-0.12784547
217	0x3ea09dc2	0.3137036
218	0x3b868348	0.0041050054
219	0xbe739e88	-0.23790944
220	0xbdb78454	-0.089607865
221	0xbeaf78ce	-0.34271854
222	0xbd4a90a4	-0.049454346
223	0xbea74517	-0.326699
224	0xbec35889	-0.38153484
225	0xbde50562	-0.11182667
226	0xbe937af9	-0.28804758
227	0xbef2cae3	-0.47420415
228	0x3f39212d	0.7231625
229	0x3dd265c9	0.1027332
230	0xbec03ceb	-0.37546477
231	0xbe46c0bc	-0.1940946
232	0xbdc11f0f	-0.09429752
233	0xbdc08f50	-0.09402335
234	0xbf0425de	-0.5162028
235	0xbed28999	-0.41120604
236	0xbe69c361	-0.22828437
237	0xbe8f1f6a	-0.27953655
238	0x3ecce97f	0.40021893
239	0x3e1b9590	0.15193772
240	0x3e53a5cd	0.20668717
241	0x3db4b9d8	0.088245094
242	0xbe167d4a	-0.14696231
243	0xbe023187	-0.12714206
244	0xbe748ea2	-0.23882535
245	0xbeb3ab1b	-0.3509148
246	0x3f0ddc20	0.5541401
247	0xbd36012f	-0.044434723
248	0xbd57f5d6	-0.05272468
249	0x3e2a8ae5	0.16654547
250	0xbce9b80f	-0.028530149
251	0xbd1764e3	-0.036961447
252	0xbd9c2608	-0.076244414
253	0xbe8e2e2b	-0.27769598
254	0xbe31f73f	-0.17379473
255	0xbd0bafdd	-0.034103263
