model/saved_models/fr_transfer/model_en_to_fr_epoch_12.pt (torch_old, 234884 bytes, 23 tensors)

weight f4 [74, 20]
00000000: 0000 0000 0000 0000 0000 0000 0000 0000
00000010: 0000 0000 0000 0000 0000 0000 0000 0000
00000020: 0000 0000 0000 0000 0000 0000 0000 0000
00000030: 0000 0000 0000 0000 0000 0000 0000 0000
00000040: 0000 0000 0000 0000 0000 0000 0000 0000
00000050: 2b05 b8bd c710 8c3d 32a8 b83d 853e 6c3b
00000060: f940 fb3d 3813 b8bd fb54 a23c 47df 9b3c
00000070: 6f6e 1ebd 10bc 03bc 8210 633d 3c0c 693d
00000080: 6b62 dd3d d264 3bbd 095b ff3b 5ffd 8bba
00000090: 9235 9c3c 16fb 203d 683f 76bd 63eb c53d
000000a0: f6fa 7ebf 4ba6 49be 24c7 e93e 00f6 063f
000000b0: 1422 64be 56e2 083b d8ed 643f a067 27bf
000000c0: 0fa6 82bf 72bf 383e 7a49 bc3d 4e6d 9bbf
000000d0: cf82 ba3e 5c67 5b3f 117d c93c 5509 2fbf
000000e0: 90d6 8e3e 8f6c 763d e2e5 673e 0bcd b1be
000000f0: 3bad 9f3e d34a c63f a7c7 a03f 5a61 f1bb
00000100: 6c33 49bf edd7 fb3e 7ca1 493c 5cfd f1bd
00000110: 78ed 32be e0ab ee3e 67db 99be 43e0 afbe
00000120: 38e5 ba3f d24a dfbe f3a6 e8bd 752a 313f
00000130: cff0 49bf 856b 113f d69e 823e 6dc2 d7bd
00000140: f605 0740 bed2 89bf 9648 163f f7fa ec3d
00000150: feb3 8dbf 3fd0 33bf d1a8 453f 3bb4 ff3b
00000160: 33f4 ed3e 3499 123c 5c50 e13e df23 38bf
00000170: 010e aebe f957 c3be da62 b5be a5e7 0bbf
00000180: 23c8 c7bf dbdd 95bf d449 1dbc e4e1 813f
00000190: ca22 2cbf 1b72 5e3f 6a98 39bf fecb e8be
000001a0: cbc6 24bf aa04 84bf bc39 4dbf 5d06 8040
000001b0: d2b6 2bbe e1b7 913f bc71 563f 6186 bfbf
000001c0: 46c4 5abf 7fd5 b3bf b9b6 b43f 8657 47c0
000001d0: b1c5 53be 2367 24bf 6030 e9bf 0884 143f
000001e0: 1dec 703e 4ac2 c7bc 58b3 bcba a439 74bc
000001f0: f2fc ed3d b5b0 903e 9329 923e 7d01 a2be
00000200: 2320 96be 0f5e 033f 7ab9 713e 88a7 a2be
00000210: 1705 ed3d 133e ea3e b97f 0dbe 1705 32bf
00000220: a4ee d8ba b6bc 13bd 1bd2 fd3e fc9c 3f3e
00000230: aaf2 6a3f f5d8 fabe 5415 363e b26e 81be
00000240: 33a9 823e 49b2 ab3f 6320 05bf 9976 6c3e
00000250: 3606 fe3d 0d80 4abf e146 8f3e 206e a8bd
00000260: 3c30 3f3e 38fa 3e3f b54d 2bbe 77ff e4bd
00000270: 91d5 1c3c 11b4 5dbf b916 80bf 5f77 6b3e
00000280: 13f0 71bf d224 b73e 7a3f 10bf 90ea 0740
00000290: b5d0 22c0 f51e bc3e ef6b 6ebe dfeb a3bf
000002a0: e04d 833e dc96 1440 0b36 c2bc d5e2 46bd
000002b0: e6c5 8bbf 3e14 963b 7598 03c0 82b1 81bf
000002c0: b255 cabe c0b7 62bf 5e74 e9bd 5cfa 203e
000002d0: 69f7 7a3f a9ed 20bf 7d84 0dc0 ea8f 2c3f
000002e0: bafc 0b3f ce4c a13f 95e8 953a 09af 5bbf
000002f0: adf9 6bbf d22f ae3f 859e ab3e 72cc 0e3f
00000300: 18cb 4dbe 3cf4 e0bf 813e f53f d49c db3f
00000310: 3d01 e83e 25c6 a6be 9da2 2bbf 36df b73f
00000320: 7ef3 32bf 3d1e b7bf 05e2 aa3f 3767 f33e
00000330: b991 adbf 8c02 25bf 6b4e a03e 2ed2 c13f
00000340: da78 333f 9332 5cbf d8e1 30be b21d 8f3b
00000350: 2702 483f 762c bdbc fc37 b93f 3d48 1f3f
00000360: 7e45 913e 2235 0a3f df2d e33d f0f5 84bf
00000370: 16b9 c6bf 4b1a 66bf e697 60bf 1ca5 953e
00000380: 1823 8dbe b96c fa3e c329 fa3e 68c3 f7be
00000390: be86 f43d 4e82 b83f 5003 803e 22e6 10bf
000003a0: 14c4 acbd 3ab5 033f c022 3a3e a75e 87bf
000003b0: edc7 68bd 90a6 74bf dd27 37bd 5a35 9f3e
000003c0: 249c 833f 41e6 00be af8d 363d a8d1 8e3e
000003d0: b457 033f f856 cc3f 7682 7cbe ff88 51bd
000003e0: 803f 223f 2a46 78bf f0f1 a43e 26e6 5ebd
000003f0: e5e1 bb3e df56 813f dfa6 29be 30b2 1cbf
0.0 0.0 0.0 0.0 0.0 0.0 0.0 0.0
0.0 0.0 0.0 0.0 0.0 0.0 0.0 0.0
0.0 0.0 0.0 0.0 -0.08985361 0.068391375 0.09016456 0.0036048007
0.12268252 -0.08988041 0.019815912 0.019027365 -0.038679536 -0.008040443 0.055435665 0.056896433
0.10809787 -0.045750447 0.0077928347 -0.0010680369 0.019068513 0.039301954 -0.060119063 0.09664037
-0.99601686 -0.19692342 0.45659745 0.52719116 -0.22278625 0.002088686 0.8942542 -0.65392494
-1.0206927 0.1804178 0.09193702 -1.2142732 0.36427924 0.8570459 0.02459577 -0.68373615
0.27898073 0.060162123 0.22646287 -0.34726748 0.31186852 1.5491585 1.2560929 -0.0073663415
-0.7859409 0.49188176 0.012306567 -0.118159026 -0.174734 0.46615505 -0.30050203 -0.34350786
1.4601202 -0.4361177 -0.11359968 0.6920541 -0.7888307 0.56804687 0.25511807 -0.10535131
2.1097388 -1.0767438 0.5870451 0.11571305 -1.1070554 -0.70239633 0.7721072 0.0078034676
0.46475372 0.008947659 0.44006622 -0.71929735 -0.3399506 -0.38153055 -0.3542698 -0.54650337
-1.5607952 -1.170833 -0.0096001215 1.0147061 -0.67240584 0.8689286 -0.7249819 -0.45468134
-0.64365834 -1.0313923 -0.8016622 4.000777 -0.16768959 1.138424 0.83767295 -1.4962884
-0.8545574 -1.4049529 1.4118263 -3.114717 -0.20680882 -0.64219874 -1.8217888 0.58013964
0.2352757 -0.024384636 -0.001439671 -0.014906321 0.11620511 0.28259817 0.28547344 -0.3164176
-0.29321393 0.513154 0.2360591 -0.3176844 0.115732364 0.45750484 -0.13818254 -0.69539016
-0.0016550613 -0.03606864 0.4957436 0.18712229 0.91776526 -0.4899365 0.17781574 -0.25279766
0.25519714 1.3413783 -0.52002543 0.23092116 0.124035284 -0.7910164 0.27983764 -0.0822413
0.18670744 0.74600554 -0.16728862 -0.111815386 0.009572403 -0.86602885 -1.0006934 0.22994755
-0.9450695 0.3577028 -0.5634686 2.1236916 -2.5439885 0.36742368 -0.23283361 -1.2806357
0.2564535 2.3217077 -0.02370741 -0.048556168 -1.0919769 0.00458005 -2.0561802 -1.0132296
-0.39518505 -0.8856163 -0.113991484 0.15720505 0.9803377 -0.6286264 -2.2112114 0.67407095
0.54682505 1.2601564 0.0011437113 -0.8581396 -0.9217785 1.3608344 0.33519378 0.5578071
-0.20097005 -1.7574534 1.91597 1.7157235 0.45313445 -0.32573047 -0.67045003 1.4364994
-0.6990279 -1.4306103 1.3350226 0.47539684 -1.3560096 -0.6445701 0.31309828 1.5142267
0.7010628 -0.8601467 -0.17273653 0.0043675536 0.78128284 -0.02309249 1.447021 0.622196
0.2837333 0.53987324 0.110927336 -1.0387554 -1.5525234 -0.8988387 -0.8773178 0.2922753
-0.27565837 0.48911074 0.48859987 -0.4839127 0.119397625 1.4414766 0.25002527 -0.56601155
-0.084358364 0.51448405 0.18177319 -1.0575761 -0.05683129 -0.95566654 -0.04471575 0.31095392
1.0282025 -0.12587835 0.044568714 0.2789433 0.513057 1.5964041 -0.24659142 -0.05115604
0.63378143 -0.9698206 0.32215834 -0.054418705 0.3669578 1.0104636 -0.16567563 -0.6120939

weight_ih_l0 f4 [200, 20]
00000000: 5bc9 823e 39dd 6a3f f4f9 11bf 2f1f 84bf
00000010: fc69 a1bf 08f2 b8be c069 5b3f 27e3 163f
00000020: e730 3f3e f172 95be 311f 7a3f a86c 88bd
00000030: f622 3fbf b340 c0be d2cd 403e 2ae3 a1be
00000040: 75c1 7d3e b1d4 c5bd 8ee3 6fbe 5c1e bc3e
00000050: cefb 9b3f d940 bc3e f62b ddbe a0e9 9abe
00000060: 95e9 763f 9220 2e3e 28cb 6ebf a60d eb3c
00000070: ef53 313e 6e32 55be d472 fc3e 1957 8e3f
00000080: baad 01be f1e6 d1be 5a41 0ebd c4ab 44be
00000090: 589b 043e e4a0 8fbe 4a1c 193e 7327 acbe
000000a0: 69e7 d1be 264f be3e 20a8 b5be da2f a2be
000000b0: d5cf c0be 4a29 013f d364 8d3f fb38 af3e
000000c0: d3d4 cbbe 95fd 48bf 807e 23bf e4e2 fc3c
000000d0: 9049 463e 4b6f 8dbe dba5 01bf 8782 7d3e
000000e0: 8398 7dbe 5ba1 86be e662 bbbe 5ec8 083e
000000f0: d4cd c2be 78e2 173f 2628 373f 42de cf3e
00000100: 256f 87bf c1be 4bbe 4f29 463f d071 e03f
00000110: 4d25 6ebd 9c9a 69bf a3f8 153f c0c5 4f3e
00000120: b2eb a83f c301 24c0 50b5 0bbe 26c7 cf3e
00000130: da1f 7dbe c329 38bf ec5a a4bf 2cc1 b33f
00000140: 8ac4 8abd f39c d9bf 104a 7cbf 3f1a 0b3f
00000150: 8898 0abd 9310 ccbf ac60 21bf 6d40 c73d
00000160: 461b 91be 14be 3ebf 8b0e c9bf 7aad acbc
00000170: 95c5 f9be 2993 91be 3ed7 4f3e e292 07c0
00000180: 101c f2bf f42c 1a40 eabb 1d3f cfaf 743f
00000190: eb6b f33e 2c8a 223f ad10 81bf b016 723f
000001a0: bdf0 78bf 0e0c e6be 7b3e 15bf 66cb 7cbe
000001b0: c9a7 dbbb 928a ac3d eb90 4ebf 5d30 223f
000001c0: da99 9abf 963d 703f 0115 8dbe b998 373f
000001d0: 3a5b 5d3e 656d f4bd 1f9a b93e 1e3c b7bc
000001e0: 9168 51be 88be ecbd ac47 67bc 1f91 d2bf
000001f0: 5a08 66be eadf b0be b73e cdbe 5830 61be
00000200: cb25 05bf cdba 46bf 3106 953f 2855 073f
00000210: 617f dabc 529e 94bf f14d cebf 6c8e ad3f
00000220: 6705 b8be f072 873e 2c00 0fc0 abe2 4b3d
00000230: 7574 e0bd cccc d63e b6bf c03e be63 82bf
00000240: c74f 05bd b5ea 083f 655f c6bc af38 243f
00000250: be24 be3c b378 a33e 274c 633f b202 923e
00000260: 0c7b 87be 9492 8bbf 1100 ad3e 7b22 1abe
00000270: ab16 4f3f ed78 d43b d87b 7abf 1ed3 263f
00000280: 9945 78bf d9f0 22bf 0b9f 8cbf fab7 a33d
00000290: 2ee9 94bf 3550 673f 70e4 aebe 7c5f 143f
000002a0: 5373 3e3f 2efd 09bf 1c4e 9cbf 3e38 a73f
000002b0: 2a60 fabf 3448 0d3f 5c16 8e3e 6d28 a63f
000002c0: ca1e 51be 3c45 49be b6d9 fcbe 5cda ad3f
000002d0: aad1 063e b477 e93f 5046 713e 1264 afbc
000002e0: 6ee9 143f d57c 8c3e fb31 cd3f ea07 10be
000002f0: 2b37 eabe 6f82 493f 9073 7bbf e5f6 fabe
00000300: 0f58 b5be 65ba 9c3f 7268 283e a21d cf3c
00000310: ea5a 2d3f 96bf 423f 37f5 673f 9fae 2ebf
00000320: 6759 983d 46ba 803f cdf2 1fbf c95e 05bd
00000330: b29b 7e3e 74a7 993f 8e87 373e 8201 51bf
00000340: 1fd9 12bf 61de fa3e 0b07 fb3e 8faa 47be
00000350: 7db3 9b3e b784 6bbf cda4 80be 1585 cfbe
00000360: e591 413f f61a 383e d350 f2be 4f97 163e
00000370: 2e65 68be addf 93be 34fe 83bf ccfa a6bd
00000380: 6a77 a23f 0978 8abe 08ca 193f db3e ad3e
00000390: 4fd8 3c3f 3915 36bf e758 d5bf a7e3 43bf
000003a0: 3c28 1dbf f590 5bbf ba96 503e cfa2 0040
000003b0: f525 19be 0b67 74bf 89b9 513f 7162 4fbf
000003c0: 3498 bd3e 5bf4 263f fe97 323e bdc3 4e3f
000003d0: 0004 24bf da16 a03f 4697 913e b6a3 ae3f
000003e0: 9f4c 5a3f 17e4 803e 3b1b 9dbe 0cdf 183f
000003f0: 0b8b 36be 3bbc 013f 198f 913e 7f5f 933f
0.25544247 0.9174381 -0.57022023 -1.0322016 -1.2610469 -0.36122155 0.85708237 0.58940357
0.18670999 -0.29189256 0.97703844 -0.066613495 -0.7466272 -0.37549362 0.18828514 -0.31618625
0.24780829 -0.09659708 -0.23426649 0.36741912 1.218622 0.36768225 -0.43197602 -0.30256367
0.9645017 0.17004612 -0.9327874 0.028693032 0.17317174 -0.20820019 0.49306357 1.112033
-0.12663928 -0.40996507 -0.034730293 -0.19206148 0.12949884 -0.28052437 0.14952198 -0.33623847
-0.40996864 0.3716976 -0.35479832 -0.31677133 -0.37658563 0.5045363 1.1046394 0.3422316
-0.3981081 -0.78511935 -0.638649 0.030869909 0.19364 -0.27623972 -0.506437 0.24756823
-0.2476521 -0.2629498 -0.3659889 0.13357684 -0.3804766 0.5932994 0.71545637 0.40599257
-1.0580794 -0.19896986 0.7740678 1.7534733 -0.05814104 -0.9125154 0.58582515 0.2029028
1.3196929 -2.5626075 -0.13643384 0.40581626 -0.24719182 -0.71938723 -1.2840247 1.4043326
-0.06775768 -1.7001022 -0.9855051 0.54336923 -0.03383687 -1.5942558 -0.63038135 0.09729085
-0.2834112 -0.74508786 -1.5707563 -0.021078814 -0.48783556 -0.28432587 0.20296952 -2.11834
-1.8914814 2.4089937 0.6161486 0.9558076 0.47543272 0.63492084 -1.0083214 0.9456587
-0.9724234 -0.44931072 -0.5829846 -0.24686965 -0.006703351 0.08424868 -0.8068988 0.63355047
-1.2078202 0.9384397 -0.27555087 0.7171741 0.21616831 -0.11934928 0.36250398 -0.022367533
-0.20450045 -0.115597785 -0.014116209 -1.6450537 -0.22464123 -0.34545833 -0.4008691 -0.21991098
-0.5201079 -0.77628785 1.1642514 0.52864313 -0.026672067 -1.1610816 -1.6117536 1.3559089
-0.35941622 0.26454878 -2.2343855 0.049776714 -0.109597124 0.41953123 0.37646264 -1.0186689
-0.032546785 0.53483135 -0.02421541 0.6414899 0.02321088 0.31928024 0.88788074 0.2851768
-0.26461065 -1.0904107 0.33789113 -0.15052216 0.80893964 0.006484142 -0.9784522 0.6516589
-0.969812 -0.63648754 -1.0986036 0.07994075 -1.1633661 0.9035676 -0.3415866 0.579582
0.7439472 -0.53901947 -1.2211337 1.3064039 -1.9560597 0.551883 0.27751434 1.2981087
-0.20421901 -0.19655317 -0.4938485 1.3582263 0.13165918 1.8239655 0.23561978 -0.021410022
0.58168685 0.2743899 1.6030878 -0.14065519 -0.45745215 0.7871465 -0.9822321 -0.4901649
-0.35418746 1.2244383 0.16446093 0.025282685 0.6771685 0.76073587 0.90608543 -0.682352
0.07438927 1.0056846 -0.6247986 -0.032561097 0.2486408 1.2004228 0.17922804 -0.81642926
-0.5736255 0.48997787 0.4902881 -0.19498657 0.30410376 -0.9199938 -0.25125733 -0.4053122
0.7561324 0.17979035 -0.4732729 0.14706157 -0.22694847 -0.2888159 -1.0311952 -0.081533045
1.2692692 -0.27044705 0.600739 0.33837017 0.7376756 -0.71126133 -1.6667756 -0.76519245
-0.6138952 -0.8576806 0.20369998 2.009937 -0.14955886 -0.9546973 0.8192373 -0.81009585
0.37030184 0.65216607 0.17440793 0.8076742 -0.64068604 1.2506974 0.28435725 1.3643711
0.85273165 0.2517402 -0.30684838 0.5971534 -0.17826478 0.5067784 0.28429487 1.1513518

weight_hh_l0 f4 [200, 50]
00000000: eecb b43f 35fa bc3e c7ce 7ec0 6a1b bdbf
00000010: f5f5 a73f 3d93 8cc0 1e60 853f feeb abbe
00000020: 56ac 9240 fde6 4940 f7b6 9fbf 4697 3abf
00000030: 67e7 44be 389d d3bb 5430 8e3e 4db6 0fc0
00000040: 8fef 3dc0 a0fa 4bc0 2a1d 833f 9987 f63b
00000050: ad38 b840 e3f5 453f 8886 4f40 f3ee 83be
00000060: 22b5 ae3f 88e4 0340 5f75 ebbf 7c57 c0c0
00000070: 95ed 9f40 d320 49c0 25a8 01bf 124e 8b3f
00000080: 26a0 e73f 5da7 9dbf cfb9 c4be 4723 24c0
00000090: 7539 d53f c841 9abe 2a36 96bf 053d 6c3f
000000a0: 00bb 1140 94c5 11bf 3c91 e93f aeae fcbf
000000b0: 16b8 eabf d6a3 b7bf e362 0bc0 786c 8dbf
000000c0: e9e9 78c0 2042 df40 8b44 2d40 257c 00c0
000000d0: b85c 083f 2214 813f 8d88 a93f 2bf2 9abe
000000e0: 774b 263f 6559 a13f 54a0 adbf 712f b4be
000000f0: d45b b1bf af48 f7be a5bf b5bf cf6a 36c0
00000100: 1892 0740 fbdc 0bbf 6f99 e7bf 0eb2 3dbf
00000110: a89c ce3e 142a bdbd 060d dd3e 672c 1f3f
00000120: af65 4fbf 0c1a 77bf 6c0c 583f fa40 b0ba
00000130: b75e 523e 7b6c 5d3e 57d8 673f 941c 5340
00000140: 7939 813f 0e25 04be 0896 99be c3db 553f
00000150: 49b7 0d3f a9cd b7bd f96d 14c0 4e68 44bf
00000160: c1fc cc3e fbdb 4e3f 892a da3f e5d9 4b3f
00000170: d4a5 a0c0 2b01 35c0 2073 1cc0 c0c3 8c3f
00000180: 06b5 47be de96 4fbf 3f80 0040 732b e63e
00000190: 782e 483f 76ba a4be 4a71 103d 6563 2ebc
000001a0: 091c 29bc 4fce c73f 13a9 1bc0 5b21 933d
000001b0: e6ff 213f e2b0 0240 7fe2 40bf 0345 7e3f
000001c0: 84c4 fd3e 844e 47be 17d2 b5be 2f34 7a3f
000001d0: 265e 61bf 3683 88bf 1249 b53f 334b 5c3f
000001e0: f617 cf3e 0489 03be 7e3b 933f e547 d7bd
000001f0: 62a7 c73f 53ce 513f 5062 60bf 507f 573e
00000200: 11bd debe 2cb6 893f 2cc1 403f e913 f2be
00000210: 7c82 8a3f a41a c83f 9c1e c33c aa79 44bf
00000220: d8c4 ea3d f9eb 743e 0b2b 573f 2094 83bf
00000230: bece 8c3f f02d 0a40 1515 cfbf 8e2c 3abf
00000240: eda0 533d 8576 a03f e677 ccbe ad0b 6f40
00000250: 1230 8a3f 56f9 4cbf b1a6 6e3f 9d7e df3f
00000260: eea2 e53e 0360 483d fd1f 1ec0 584f 7a3f
00000270: 38be 293f 51aa 8ebf bbc3 f13f 1c4a 4e3f
00000280: dba4 babf 2b27 ec3f bd3f 0640 1903 4f3e
00000290: 652a a4be becf 473e 370f a7bf 447a 033f
000002a0: 9ca9 893f eb68 50be a99d babf 4066 15c0
000002b0: 22ea 7abf 069d 24bf 49f9 0fc0 e179 dd3f
000002c0: 0a81 00bf c989 8cbf 7eab 8d3f cc7b d93d
000002d0: 711f c43f f91b 9fbf 2dee da3f 3a0c b3bf
000002e0: a9ad 07c0 c218 18bf 66b1 0cbe 9b30 f63f
000002f0: bcf2 41be 0066 c73e 096a adc0 a767 7a3f
00000300: 222b ebbf 6a60 8440 d93c 763e 75a1 043f
00000310: 7a0f 0c40 928e 8ebe 6fe6 863e 4ba7 adbf
00000320: ede4 0b40 f1c0 84bd 5164 b43e 86b9 723f
00000330: 3280 3340 8003 3440 8557 a53f b404 df3f
00000340: a837 ec3f c3b3 1840 076f 0140 8948 e3be
00000350: f2ad d43f 9b5a 08c0 54be 573f a65a 2ac0
00000360: bde7 5fc0 668a 70c0 cb5a 9e3f a7fe dc40
00000370: f469 8d40 eb73 3840 a880 88c0 d755 a93f
00000380: 1c9a 39bf ffe3 d040 963a b640 a6d6 bebf
00000390: dc9f 53c0 c7ba 0740 585e 2e40 ba90 423e
000003a0: 4cb6 963e 7d7f 953f 82dd 82bf 5669 68bd
000003b0: 64a5 47c0 e059 37c0 aed3 0540 0478 1b40
000003c0: 5734 983f 356e 02bf d2b0 e8be b18c 3040
000003d0: ebbe ffbf 7add 88c0 5dcb dd3f b4ae 8840
000003e0: b573 3540 c0cc d3be bc24 3340 cbd9 9a3f
000003f0: 3f28 b33f 23b9 733f 73d1 cd3e 295a 7e40
1.4124734 0.36909643 -3.9813707 -1.4773991 1.3121935 -4.3929734 1.0419958 -0.33578485
4.583537 3.1547234 -1.2477711 -0.72887075 -0.19228898 -0.006457951 0.27771246 -2.2455018
-2.9677465 -3.187172 1.0243275 0.0075234887 5.7569184 0.7732832 3.2425861 -0.2576824
1.3649027 2.0608234 -1.8395194 -6.0106792 4.9977517 -3.1426284 -0.50647193 1.08832
1.8095748 -1.23167 -0.3842301 -2.5646532 1.665816 -0.30128312 -1.173528 0.9228061
2.2770386 -0.56942105 1.8247447 -1.9740808 -1.8337429 -1.4346874 -2.1779106 -1.1048727
-3.8892767 6.976822 2.7073085 -2.0075772 0.5326648 1.0084269 1.3244797 -0.30262884
0.649589 1.2605406 -1.3564553 -0.35192445 -1.3856149 -0.4829764 -1.419911 -2.850269
2.1182919 -0.54634064 -1.8093699 -0.74099815 0.40353894 -0.092365414 0.43174 0.6217713
-0.8101453 -0.9652412 0.84393954 -0.0013447099 0.20543943 0.21623413 0.90564483 3.2986193
1.0095664 -0.1290476 -0.29997277 0.83538455 0.55357796 -0.089747734 -2.3192122 -0.76721656
0.40036586 0.80804414 1.7044231 0.79629356 -5.0202427 -2.8281963 -2.4445267 1.0997238
-0.19502649 -0.8108958 2.0078275 0.44955024 0.78195906 -0.32173508 0.03526429 -0.010643815
-0.0103216255 1.5609835 -2.4321945 0.071840964 0.63281095 2.042046 -0.75345606 0.99324054
0.49563992 -0.19463545 -0.35511848 0.97735876 -0.88034284 -1.0665042 1.4162924 0.86052245
0.40447968 -0.12845236 1.150253 -0.1051176 1.5597956 0.8195545 -0.8765001 0.2104466
-0.4350362 1.075872 0.75294757 -0.47280815 1.0821071 1.563313 0.023818307 -0.76748145
0.11463326 0.23918141 0.84050053 -1.0279579 1.1000593 2.1590538 -1.6178309 -0.72724235
0.051667143 1.2536169 -0.39935225 3.7350876 1.079592 -0.80067956 0.932231 1.7460514
0.44850868 0.04891969 -2.4707024 0.9777732 0.66305876 -1.1145726 1.8887857 0.8058183
-1.458156 1.8449453 2.0976403 0.20216025 -0.32063594 0.19512841 -1.3051518 0.5135844
1.0754886 -0.20352523 -1.4579364 -2.3343658 -0.9801351 -0.643021 -2.2495902 1.730282
-0.501969 -1.0979549 1.106796 0.106193155 1.5322095 -1.2430412 1.7103935 -1.3988106
-2.1199744 -0.5941278 -0.13739547 1.9233583 -0.18940252 0.38945007 -5.4191937 0.9781441
-1.8372538 4.1367693 0.24046649 0.51808864 2.1884446 -0.27843148 0.26347682 -1.3566679
2.1858475 -0.06482113 0.35232785 0.94814336 2.8046994 2.8127136 1.2917334 1.742331
1.8454485 2.3859718 2.0224016 -0.44391277 1.6615584 -2.13053 0.8427479 -2.6617827
-3.4985192 -3.7584472 1.2371458 6.9060855 4.4191837 2.882075 -4.265705 1.3229321
-0.7250078 6.5278316 5.6946516 -1.4909256 -3.306632 2.120775 2.7245083 0.19000521
0.29435956 1.1679531 -1.0223849 -0.05674108 -3.1194696 -2.8648605 2.091045 2.4292002
1.1890973 -0.5094941 -0.45447403 2.7585871 -1.9980139 -4.2770357 1.7327687 4.271326
2.8351872 -0.4136715 2.799117 1.2097715 1.3996657 0.9520437 0.4019886 3.974253

bias_ih_l0 f4 [200]
00000000: d3e8 7f3f 790f 1b3f 1bb4 7f3e f75c e83e
00000010: 37ba fa3f db18 8e3f dabf 2cbf 69ec b63f
00000020: 1128 cdbc 7f81 cabe cf1d 183e c30b d13e
00000030: d7a9 c13f 840c c93f c336 debf aac8 153f
00000040: c782 193d 5864 3d3f a71f ed3f a68f 3abe
00000050: 576e b43c 01c6 163f 25c7 9b3d 1860 c53f
00000060: cbe9 a6bf 60a1 973f ddd8 413f c993 423f
00000070: 16f5 c03f f535 013f e168 073f 0885 1d40
00000080: 0991 c73f aaec 3fbf c32d 8e3f 63b3 0d40
00000090: f327 b53f 58b1 283f 5066 5d3f e43d 8d3f
000000a0: 4836 a03f f448 cc3d bf74 a63e af3f b33f
000000b0: 7dc2 6640 8e09 10bf 3956 03bf bc3c f23f
000000c0: e391 913f 665e f63f 473e 143e 4923 7cbd
000000d0: d76c 9c3e af3e 21be 3630 953e 407e b8bf
000000e0: 28d9 7640 ae37 42bf 6914 92be 8c1d 013f
000000f0: 5cb9 d3bd a5c9 533f 94dc 6dbe 54d7 b33e
00000100: 63c3 b73d 5c7c 8e3f 8a02 b3be ab00 333f
00000110: 9563 f13e 1ef8 9a3e de6c 2b3d 710a 953e
00000120: 6505 c83f 3423 4fbe 2286 163e b83e ed3f
00000130: 0942 e03e 0b64 3dbf 7fc7 693f 2327 61be
00000140: 1224 8abe 5e85 9e3f 796d 93bd bf82 b13f
00000150: 4420 8e3f 16f5 59be 70db 4f3e 8823 213f
00000160: 4d4d 083e 457d 42bf 2004 12bf 65cf e7bf
00000170: 626d 333f aabb b63f 8208 bfbe 8da2 cbbd
00000180: 99d0 ea3e 7bd0 07be 309a 5ebd 55b6 5b3f
00000190: 7e29 073e fd25 d03d ac98 923e 5425 ad3d
000001a0: 6bb7 6b3f 7f83 ab3f 621b 69bf 2dc7 9b3e
000001b0: 1b16 cebd ed66 583f c46a 3f3e 8687 1d3e
000001c0: 216c e7be 6bad a6bf b371 96bf 0d17 f53e
000001d0: 2e1b 88bf 976c 1ebf 9352 ff3e 46af e43e
000001e0: c1ce fb3e 816d 98bf 1e60 573f 347e 203f
000001f0: 01ab 563e 432e f03e 2398 2dbe 9fc8 33bf
00000200: a9e1 94be 3aba bf3e cee7 c0be 020e 573f
00000210: 83a5 923d d830 adbe 3b6a dbbf b749 843e
00000220: 7387 36bf 20c9 873c 0115 593f 1d95 8ebf
00000230: cb47 c43f 907a 4ebf 97c9 f63e 92de 453f
00000240: 67a7 05bf c13f 6a3e a9dd ab3f 76dd 91bf
00000250: dda6 993f 633c 00bf 0771 9d3f 1de1 f83f
00000260: b852 833f 930b 0940 da54 3e40 34a6 433f
00000270: a8b1 4ebf b846 c03f be32 2540 0402 c13f
00000280: 4845 75bf 8083 da3d b2b7 f53f e5cf 2a3f
00000290: 0404 bebd 9c63 003f b0a5 a53f a979 c13f
000002a0: 3c26 e63f 225c 4a3f da58 0340 4ba7 70be
000002b0: cac5 653e e03b e93f 30c2 213e e905 7b3e
000002c0: 6b6e b43e a4e0 c93f 7b2a c93f 0c35 7b3f
000002d0: ca5a 853f 1cd2 a53f 6c95 6c3f 24ef cc3e
000002e0: 53d7 a43e 6920 3f3f 8f8d 0b3f 9be0 273f
000002f0: b199 a83d 90d5 8d3f f90c ff3e 246d 1140
00000300: 7970 363f d308 e13e 7c56 6c3f 6e04 113e
00000310: 0fa9 2340 40cd 1d3d 9c30 573e fa13 773f
0.99964637 0.60570484 0.24971049 0.45383427 1.9588078 1.1101335 -0.6748024 1.4290897
-0.02504352 -0.39551923 0.14855121 0.40829286 1.5129956 1.5706944 -1.7360462 0.58509314
0.037478235 0.7398124 1.8525285 -0.1821886 0.02202527 0.5889588 0.07606343 1.541995
-1.3040098 1.1846123 0.7572153 0.7600675 1.5074794 0.50472957 0.5289441 2.4612446
1.5591136 -0.74970496 1.1107715 2.214074 1.4152817 0.65895605 0.8648424 1.1034513
1.2516565 0.09974852 0.32510945 1.400381 3.6056206 -0.5626458 -0.5130344 1.8924785
1.1372646 1.9247558 0.14476882 -0.061557088 0.30551788 -0.15746568 0.29138345 -1.4413528
3.8570042 -0.7586621 -0.28531197 0.5043571 -0.10338089 0.8272956 -0.23228675 0.3512522
0.08972814 1.1131701 -0.34962875 0.69922894 0.47146288 0.30267423 0.04185187 0.2910953
1.5626646 -0.20228273 0.14699605 1.8534765 0.4380038 -0.7398078 0.9132003 -0.21987586
-0.26980644 1.238445 -0.071986146 1.3868026 1.1103597 -0.21284899 0.20298553 0.6294484
0.13310738 -0.75972396 -0.57037544 -1.8110167 0.7008878 1.427602 -0.37311178 -0.099431135
0.45862272 -0.13263123 -0.054346263 0.8582509 0.13199422 0.10163496 0.28632104 0.084543854
0.9207675 1.3399504 -0.9105741 0.30425397 -0.1006281 0.8453205 0.18693072 0.1538373
-0.45199683 -1.3021673 -1.1753448 0.4786915 -1.0633295 -0.61884445 0.49867687 0.44664973
0.49181178 -1.1908418 0.8413104 0.6269257 0.2096367 0.46910295 -0.16952567 -0.70228
-0.29078415 0.37446767 -0.37676853 0.8400575 0.07160475 -0.33826327 -1.7141794 0.2583749
-0.7130043 0.016575396 0.84797674 -1.1139256 1.533441 -0.80655766 0.48200676 0.7729274
-0.5220856 0.22875883 1.342702 -1.139571 1.2004048 -0.5009214 1.2300118 1.9443699
1.0259619 2.1413314 2.973929 0.7642548 -0.8073983 1.5021582 2.581222 1.507874
-0.9580884 0.10669613 1.9196684 0.6672347 -0.0927811 0.5015199 1.2941189 1.5115253
1.7980418 0.79046834 2.052298 -0.23501317 0.22438732 1.8221397 0.15796733 0.24513973
0.35240492 1.577168 1.5716089 0.9812782 1.0418332 1.2954745 0.924155 0.400262
0.3219553 0.7465883 0.54512876 0.65577096 0.08232439 1.1080799 0.49814585 2.2722864
0.7126537 0.43952045 0.92319465 0.14161846 2.5571935 0.03852582 0.21014637 0.96514857

bias_hh_l0 f4 [200]
00000000: 130c 823f 1d39 003f c480 ee3e 08e6 d03e
00000010: 9f08 0440 6714 8c3f 1ede 33bf 63ad af3f
00000020: a31a d1bc c20d 6cbe 6d9c 3b3e df05 943e
00000030: ffd9 c13f 1191 bd3f bc07 c7bf 2c54 373f
00000040: 7485 333e 925b 573f 8317 f53f 3b62 03be
00000050: 2134 42be 0357 1d3f 3eac 983e 3566 c73f
00000060: 8c8b aabf 1768 973f 8a75 643f 62c4 2d3f
00000070: a5cf aa3f d26e 173f 4831 133f 4a70 1740
00000080: 9383 cc3f ab44 3bbf 8f80 863f 7673 0640
00000090: f42f aa3f cf62 0a3f d841 643f ea3d 583f
000000a0: b4e6 9e3f 5833 64bd ea33 f43e c36c a53f
000000b0: 2eb7 6040 1be6 cfbe f4a6 99be 52ee f33f
000000c0: bb34 923f e09d ec3f 616f 4e3e 745e 39be
000000d0: 5039 b03e a786 e8bd b679 d63d bbe5 b9bf
000000e0: dc2b 7e40 68c5 32bf 2d14 57be 62c3 1d3f
000000f0: 8484 a4be ba5f 403f f82a 9bbe 56f4 703e
00000100: db27 b4bc 1eac 963f 14d6 debe c7ae 153f
00000110: a25c b43e 6ce3 fb3e 3d42 08be f0d2 5c3e
00000120: 419d c93f 60d3 8dbd ae39 203b 3615 d83f
00000130: 69e4 c03e 335b 35bf f296 773f b5b7 cebd
00000140: a9d2 a0be 004c 963f 8029 60be 04ef bd3f
00000150: bcdf 5f3f f8fd 13be ed96 3c3e 7eb1 223f
00000160: f8c3 f0bc e144 40bf 87f9 3dbf a253 e4bf
00000170: 1866 303f 6be8 d43f 8e80 cbbe 7146 d0bd
00000180: 3de0 1e3f cf74 d83c aed1 aebd c824 453f
00000190: d8d9 bf3d a9dd a13d b165 b33e df68 02bd
000001a0: c11c 833f 6a9f a83f 3e1c 74bf 4566 b43e
000001b0: 3ee5 dabc c4ca 5d3f 7fd7 343d 8aa2 643e
000001c0: b915 0abf 3b3e b2bf f80a 94bf f920 ef3e
000001d0: d29b 96bf da20 17bf d5d8 c53e 2be3 853e
000001e0: f639 f73e 1b95 9bbf 7058 2e3f ebb3 363f
000001f0: 041d 883e 0823 b33e a7e8 22be 1a65 4fbf
00000200: ad05 7bbe 66a3 0e3f 1b38 abbe 73bb 553f
00000210: 8f76 4d3c f5a3 6bbe 2068 f0bf f22f b03e
00000220: a0c2 0bbf db8c f63b 411e 6d3f 7e6c a6bf
00000230: 5fbd bf3f 84af 38bf a05b 2f3f 66d6 233f
00000240: da85 d8be e270 5f3e 916b b13f b7ba 6ebf
00000250: eca3 923f c0c4 24bf aa27 b83f 4675 fd3f
00000260: 70fe 693f 37f9 0740 cdca 4740 ee8e 3f3f
00000270: 8cf5 55bf 724a b33f 600f 2e40 d359 c53f
00000280: 8423 81bf 60a9 263e d808 0340 1f11 f03e
00000290: cc0f 21be 92fd c23e cb4b 9a3f 5dce bd3f
000002a0: f823 f63f 90d4 653f 1eb7 0440 bf34 dbbe
000002b0: 5f03 02bc f47c d93f cb5b 8e3d eb2f a33e
000002c0: 3dcb f93e ed0f c33f 3aba b33f 696b 823f
000002d0: 3894 703f 4a3e 963f 0c0e 6e3f c23f 9c3e
000002e0: ca2b 733e 0c4e 4c3f 2fde 1f3f fee8 293f
000002f0: 8292 a8bb d8e3 763f 1cd1 0c3f 9f6e 1240
00000300: 4ba2 183f a069 973e aec5 963f d78c 843e
00000310: 2524 1c40 3c79 66bc 1db0 523e 261d 403f
1.0159935 0.5008715 0.46582615 0.408005 2.0630262 1.0943726 -0.702608 1.3724788
-0.025525397 -0.23052123 0.1832139 0.2891073 1.5144652 1.4809896 -1.5549235 0.7161281
0.17531377 0.841241 1.91478 -0.1283044 -0.18965198 0.61460894 0.2981891 1.5578066
-1.3323836 1.1828641 0.8924185 0.6787778 1.3344618 0.59153473 0.5749707 2.3662286
1.5977653 -0.73151654 1.0507983 2.1007972 1.3295884 0.5405702 0.8916297 0.84469473
1.2414155 -0.055713028 0.47695857 1.2923816 3.5111804 -0.40605244 -0.30010188 1.9057105
1.1422342 1.848568 0.20159675 -0.18102437 0.34418726 -0.11353808 0.10472433 -1.4523233
3.971427 -0.6983247 -0.2100379 0.61626256 -0.3213235 0.7514607 -0.3030622 0.23530707
-0.02199166 1.1771276 -0.43522704 0.58469814 0.35226923 0.49196947 -0.13306518 0.21564841
1.5751115 -0.06925082 0.0024448442 1.6881473 0.37674263 -0.70842284 0.967147 -0.10093633
-0.3141072 1.1741943 -0.21890831 1.4838567 0.87450767 -0.1445235 0.18416949 0.6355208
-0.02939032 -0.751051 -0.74208874 -1.7838023 0.6890578 1.6633428 -0.39746517 -0.10169686
0.6206091 0.026422886 -0.08536087 0.7700925 0.09367722 0.079036064 0.35038522 -0.031838294
1.024315 1.3173649 -0.95355594 0.35234275 -0.02672064 0.8663752 0.044150826 0.22327629
-0.53939396 -1.3925241 -1.1565847 0.46704844 -1.1766303 -0.590345 0.38641992 0.26149878
0.48286408 -1.2154878 0.68103695 0.71368283 0.26584637 0.34987664 -0.15909062 -0.81013644
-0.24513884 0.55718076 -0.33441243 0.8348915 0.012540474 -0.23011763 -1.8781776 0.3441158
-0.5459385 0.0075241155 0.9262429 -1.3001859 1.4979666 -0.72142816 0.68499184 0.6399902
-0.4228962 0.21820405 1.3860952 -0.93253654 1.1456275 -0.64362717 1.4387105 1.9801414
0.91403866 2.1245859 3.121753 0.7482747 -0.835778 1.4007094 2.7196884 1.5418037
-1.0088964 0.16275549 2.0474148 0.46888062 -0.15728682 0.38084084 1.205438 1.4828602
1.9229727 0.8977747 2.0736766 -0.4281368 -0.007935374 1.6991258 0.06951102 0.31872496
0.4878787 1.5239235 1.4041207 1.0189029 0.93976164 1.1737759 0.92990184 0.30517393
0.23747173 0.7980659 0.624484 0.6637114 -0.005144418 0.9644141 0.55006576 2.2880018
0.5962264 0.29572773 1.1779077 0.25888702 2.439706 -0.01406699 0.20574994 0.75044477

weight f4 [74, 50]
00000000: 3707 abbf 102b c23e a674 98bf 62ea 133f
00000010: 4cec dcbe 9333 a2bf 2ab3 e83c 1e89 edbe
00000020: 486a 6cbf da9b 01bf cb9f 09be 0241 9f3e
00000030: b232 3c3f 688d 8a3f 4df3 843f fde7 98bf
00000040: 7918 703f dc65 833f d0c6 83bf 419c db3f
00000050: 9706 ba3f fa13 903f 27c8 d2bf 3eda 093e
00000060: 6b83 393f 0d0f 87bf dc09 b83e 5b97 03bf
00000070: 4c69 c23e c449 7ebf 1357 29be f0a8 74bf
00000080: e4b9 9bbe e30c ac3f b51b cc3f 6da2 6abf
00000090: ccf5 a13f 61df a33f 3325 1fbf 0e86 76bf
000000a0: 7801 a4bf 221a ab3f 3480 443f 6044 8cbf
000000b0: 677c 9c3f bfbc 8ebf cf46 47bf a487 883f
000000c0: e17a 5fbf 9b0a 0e3f 0600 92bf 7654 f93e
000000d0: 65c9 98bf 6029 303f 3ee7 9ebe e9cc a0bf
000000e0: 275d 8cbc f0bc ebbe f6b7 59bf f95e 0dbf
000000f0: 7fee e6bd 45f2 9b3e f652 343f 3791 9a3f
00000100: 542d 8f3f ce0a 88bf 0bcf 7b3f ae9c 8c3f
00000110: 28fd 78bf fede d93f bd26 be3f e1b4 823f
00000120: 3e6c ccbf dafa b43d 1cf1 303f 4c78 85bf
00000130: 0c87 ba3e c99a f0be ee1e b63e 29ae 82bf
00000140: a941 2bbe 3693 64bf b321 8fbe 2714 a23f
00000150: 9237 de3f bd06 5ebf 9c4b a13f c365 a43f
00000160: 86e0 0ebf ab67 6bbf 3bf1 96bf c15f 983f
00000170: 1fea 623f 0d1b 89bf 8839 9b3f 9591 8cbf
00000180: d74c 40bf b996 8e3f 8305 7dbf f029 d53e
00000190: 901e ac40 f28d d73f eb6e 333f 8ce9 16c0
000001a0: 7ac0 2a3f e0df 833e 6b66 b53e fd7a 03c0
000001b0: e170 2a40 e36e bd3f 1903 24bf 1ad6 c4bf
000001c0: 7d11 15bf 9868 243f 6902 fabf 2b8d 323f
000001d0: 168e a23f de81 c040 f364 ddc0 8874 12c0
000001e0: 15fe 9b3c b48a d4bd f2e5 4cbf 3090 9bbd
000001f0: 021d e53f b675 413f fefd a9bf 28bd bc3f
00000200: 138e d23f aea1 e3be cb99 a8bf 6a3b 7b40
00000210: f482 93be 52fa 1340 ef1a 693f ac51 38bf
00000220: 92c4 e1bf ef29 643f 2e1f 0ac0 b2b9 00c0
00000230: 38d2 82c0 2cba ebbf 6d98 34be 68b9 213f
00000240: 44df 86bf 2537 1dbf 4079 35c0 380d 4cbf
00000250: e39f 9c3f f88b 6540 4021 3cc0 fb40 803f
00000260: 7dfc 673f a080 0140 fbd1 f63f 1b92 a8be
00000270: 74f6 2dc0 0299 08c0 d8d0 2bc0 bebb af3f
00000280: 14ab acbe 6031 ec3f 7e70 0040 f4fa 4c40
00000290: 8df0 5e40 5b7d 02c0 a19d ecbf 9660 1bbe
000002a0: 94b9 d53e 15b6 803f 9acb 0040 5306 693f
000002b0: be82 0dc1 9bbe 5f3f 3393 aa3f f720 b0c0
000002c0: 04f1 ac3f 8fde 213f 0ceb 8ebf f3ac 4c40
000002d0: 4917 ed3f bb36 28c0 d0b3 af3f 83c5 74bf
000002e0: 6b82 9bbf ccc7 17be 6ec3 5440 9f36 0abe
000002f0: 7796 623f f259 873f c09d eebf eaea 3bbf
00000300: 7a4b d13f 8997 a63f 06cb 1240 a573 c7be
00000310: 9e6f ce3f bcd2 1741 0dd8 723f 7ae0 efbf
00000320: 01a3 d8bf 9bb7 b33f a478 69be b058 0440
00000330: c46b df3e 8e7e b03e 4a95 afbf 9d7c 2640
00000340: 43cd 5c3f f4ca 103f 654c 993d 1ebe e23f
00000350: 949e bd3f e1ad 46c0 6257 3bbf 4237 163e
00000360: 8a9d af3e c610 04c0 e344 2640 6c02 6dbf
00000370: fcb6 6e3e bc42 44c0 76e6 2d3f e286 ddbf
00000380: d893 063f 3886 8d3f 6cd0 b9bf 2c97 17bf
00000390: ebe9 b23f 5316 5dbe f393 b33f eda9 d0be
000003a0: dffd 59bf 5933 37bf 7e1c 2ebf 3776 d33f
000003b0: dae3 11c0 ae47 99bf c27d c9bf 408c b43e
000003c0: d46a 373e 68ab 47be dea3 b2bf cefb 78be
000003d0: fb44 5ebe 9313 503f 014a d1bf 7809 133e
000003e0: f2a9 f13f 5597 afbf e375 03c1 3dff 6ac0
000003f0: 47f0 edbf dd04 edbd 1c87 9fc0 9111 ebc0
-1.3361577 0.3792348 -1.1910598 0.57779515 -0.4314903 -1.2671989 0.028405745 -0.46393675
-0.9234967 -0.50628436 -0.13439862 0.31104285 0.73514855 1.0824404 1.038675 -1.1945797
0.9378734 1.026546 -1.0295048 1.715706 1.4533261 1.1256096 -1.6467332 0.13462159
0.7246615 -1.0551468 0.35945022 -0.51402825 0.3797096 -0.9933131 -0.16537122 -0.9557028
-0.3041526 1.3441433 1.5945956 -0.9165409 1.2653136 1.2802545 -0.62166137 -0.962983
-1.2812948 1.336735 0.7675812 -1.0958366 1.2225465 -1.1151351 -0.7784242 1.0666394
-0.87296873 0.5548493 -1.1406257 0.4869725 -1.1936461 0.68813133 -0.310358 -1.2562534
-0.017134262 -0.46042585 -0.8504633 -0.5522304 -0.11275958 0.30458274 0.7043909 1.2075566
1.1185708 -1.0628297 0.983628 1.0985315 -0.97261286 1.7021177 1.4855572 1.021145
-1.5970533 0.08836909 0.69117904 -1.0427337 0.36431158 -0.46993092 0.35570472 -1.02094
-0.16724266 -0.89287126 -0.27955398 1.26624 1.7360709 -0.8672903 1.2601199 1.2843555
-0.55811346 -0.9195506 -1.1792368 1.1904222 0.8863849 -1.071138 1.2126932 -1.0981928
-0.7511725 1.1139747 -0.98836535 0.41633558 5.378731 1.6840193 0.7009112 -2.3580046
0.66699946 0.2575674 0.354297 -2.0543816 2.6631396 1.4799465 -0.64067227 -1.5377839
-0.5822981 0.642221 -1.9531986 0.69746655 1.2699611 6.015853 -6.918573 -2.2883625
0.019042054 -0.10378018 -0.8003837 -0.07595861 1.7899477 0.7557024 -1.3280637 1.4745226
1.6449608 -0.4445929 -1.3171934 3.9255013 -0.28810847 2.3121533 0.9105672 -0.7199962
-1.7638113 0.89126486 -2.158153 -2.011334 -4.0881615 -1.841619 -0.17636271 0.6317353
-1.0536885 -0.6141227 -2.8355255 -0.7970767 1.2236294 3.586668 -2.9395294 1.001983
0.9061964 2.0234756 1.9282831 -0.3292397 -2.7181673 -2.1343389 -2.6846218 1.3729169
-0.33724272 1.8452568 2.006866 3.202817 3.483432 -2.038901 -1.8485605 -0.15173563
0.41743147 1.0055567 2.0124269 0.91025275 -8.8444195 0.87400216 1.3326172 -5.504024
1.3511052 0.6323022 -1.1165481 3.198056 1.8522731 -2.6283405 1.372675 -0.9561388
-1.2149175 -0.1482231 3.324428 -0.13497399 0.8851084 1.0574324 -1.8641891 -0.73405325
1.6351159 1.3014995 2.2936416 -0.38955417 1.6127813 9.488949 0.9486092 -1.874038
-1.6924745 1.4040407 -0.22799927 2.067913 0.43636906 0.34471554 -1.3717434 2.6013558
0.86250705 0.5655968 0.07485274 1.7714269 1.4814019 -3.1043627 -0.7318021 0.14669517
0.3429988 -2.0635238 2.5979545 -0.9258182 0.2331199 -3.0665731 0.6792978 -1.7306788
0.5256934 1.1056585 -1.451673 -0.59215045 1.3977636 -0.21590547 1.4029526 -0.40754643
-0.85153 -0.71562725 -0.68012226 1.6520451 -2.279532 -1.1975 -1.5741503 0.35263252
0.17911845 -0.1949898 -1.3956258 -0.24314806 -0.21706001 0.8127987 -1.6350709 0.14359081
1.8879988 -1.3718058 -8.216281 -3.6718285 -1.8588952 -0.11573193 -4.985243 -7.3458943

bias f4 [74]
00000000: 3670 dfbf 4213 d9bf 6e64 0b3f 5829 b63f
00000010: 5f1d 1440 da39 4fc0 1618 4740 8846 fb3e
00000020: 342b 973f fe67 d9bf 2228 e4bf 61d3 afbf
00000030: b791 bdbf 94d8 4e3d 2449 1e40 92c4 4140
00000040: 5327 1540 527e 3dbf 6300 44bf 1004 36bf
00000050: 4fbf 73bf aa7a cabf 4570 80bf a604 d63e
00000060: 3d6c b0bf 1004 8b3e 69d7 c03f 175c 0e40
00000070: 025e e63d 7f8e 983f c7fe 00c0 fac0 f7bf
00000080: 1df2 16bf 81c0 b0be baf8 e3bf e375 bfbf
00000090: ee89 433f 63be 84bf e7e7 17bf 444d 87bf
000000a0: 3130 9cbe 1b03 1dbf a581 75bf d2b6 873e
000000b0: 1ef0 07bf 2cb7 943e 94f7 efbf a065 cfbf
000000c0: d054 00c0 8b93 a4c0 0122 ddbf 83e7 26bf
000000d0: 0573 89c0 1ea0 f9bf a700 d4bf 399a 07c0
000000e0: 54fe aabf 4ef4 2ac0 823d 2940 d856 13c0
000000f0: c6b2 80bf d2c9 60bf 3539 18c0 1553 3dbf
00000100: d2c7 e03e 447c 01bf ae4a 19c0 a7c6 11c0
00000110: 5ee3 8bbf 2ec3 3fc0 1207 12c0 337a 2fc0
00000120: ec6e 04bf bcdd 20c0
-1.7456119 -1.6959002 0.5445012 1.4231367 2.3142927 -3.237906 3.110845 0.4907725
1.181006 -1.6984861 -1.7824748 -1.3736383 -1.4810094 0.050499514 2.4732141 3.0276227
2.3305252 -0.74020875 -0.7656309 -0.7109995 -0.9521379 -1.5818684 -1.0034262 0.4180042
-1.3783032 0.27151537 1.5065738 2.2243707 0.11248399 1.1918486 -2.0155504 -1.9355767
-0.58963186 -0.3452187 -1.781028 -1.4957851 0.7638234 -1.0370601 -0.5933823 -1.0570455
-0.30505517 -0.61332864 -0.95900947 0.26506668 -0.53100765 0.29046 -1.874743 -1.6202888
-2.0051765 -5.1430106 -1.7276002 -0.6519701 -4.2952905 -1.9501989 -1.6562699 -2.118788
-1.3358865 -2.6711612 2.6443791 -2.3021755 -1.0054557 -0.87807953 -2.3784916 -0.739549
0.4390245 -0.5058024 -2.395183 -2.2777498 -1.0928762 -2.9962878 -2.2816815 -2.7418334
-0.51731753 -2.5135336

weight f4 [50, 2]
00000000: a52b 093f 6723 153f 1a41 943e f9c6 2a3f
00000010: 90ed 77bd 2045 88be 78ca 083e 90bd 1d3d
00000020: f024 43be 6724 2ebf c7de 2b3f b00a 553e
00000030: 4c51 38be 0041 163e 73e7 0e3f c666 f63e
00000040: 0009 66be 807c 493d 92c1 31bf e504 cebe
00000050: 4066 cb3c e126 ccbe e428 14be 4c0e 80be
00000060: 504d 673d c1b4 a6be 986a c4be e7d4 9abe
00000070: 8442 143e f872 e83d 4021 1abe f012 ffbd
00000080: 912a 1b3f cab3 21bf 00f7 83bd a79a 0dbf
00000090: 5ac2 6fbe 7f1a 23bf 623d f33e add0 1a3f
000000a0: 69a4 babe 9155 0ebf 3eee d53e 0b1d fdbe
000000b0: d571 19bf c5b0 edbe ee83 04bf 62b2 07bf
000000c0: 94d2 39be f6bf a83e 10ff 6cbe 8e65 11bf
000000d0: a2f5 f73e ceaa 23bf 0adc e23e 403e 233e
000000e0: 5275 f9be 80a2 07bf 6f6f 263f 3049 323d
000000f0: 7c54 4e3e 60db e1bc b01e 84bd a1f1 213f
00000100: c504 e6be 60fb 7f3d e0fa 8abd 78fd cbbe
00000110: 4a9c bb3e e1ec 19bf 1a2b 853e 4bc2 e2be
00000120: 3951 0bbf 90e3 44be e088 d93c 4836 a8be
00000130: aab4 8d3e e0e2 b0be 71a4 e4be 69dc b2be
00000140: b848 eabd 800e d53d 66af b33e 5ead 11bf
00000150: 197f 2abf 5234 25bf 88bd 4a3e 0460 6fbe
00000160: 2e99 5ebe 8d08 1ebf 3c97 6c3e 0595 0f3f
00000170: a26a ef3e 984e e8bd 5d62 09bf d798 1b3f
00000180: 501e d73d 24b7 4ebe 1e11 34bf 9ad7 d13e
0.5358222 0.58257145 0.2895592 0.6670986 -0.06052929 -0.26615238 0.13358486 0.03851086
-0.1905706 -0.68024296 0.67136806 0.20804858 -0.17999762 0.14673233 0.55821913 0.48125285
-0.2246437 0.049190998 -0.6943599 -0.4023811 0.02482903 -0.39873412 -0.14468724 -0.25010908
0.056470215 -0.3255978 -0.38362575 -0.30240557 0.14478499 0.113500535 -0.15051746 -0.12454784
0.60611826 -0.6316496 -0.06443596 -0.55314106 -0.23413983 -0.63712305 0.4750777 0.60474664
-0.3645356 -0.55599314 0.41783327 -0.4943622 -0.5993932 -0.46423927 -0.5176381 -0.53006566
-0.18146735 0.32958955 -0.23144174 -0.56795585 0.4842959 -0.639325 0.443085 0.15941715
-0.4872232 -0.5298233 0.65013784 0.04352683 0.20149416 -0.027570426 -0.06451166 0.6325932
-0.44925514 0.06249559 -0.06786132 -0.3984182 0.36642677 -0.60127074 0.26009446 -0.4428886
-0.5442081 -0.19227433 0.026554525 -0.32853913 0.27676898 -0.34548092 -0.4465671 -0.34933785
-0.11439651 0.10403156 0.35094756 -0.5690516 -0.66600186 -0.6453296 0.19798863 -0.23376471
-0.21738121 -0.617318 0.23104566 0.5608676 0.46761042 -0.113431156 -0.53665715 0.6078009
0.105038285 -0.2018705 -0.7033862 0.40984803

bias f4 [50]
00000000: d97d 2d3f 9b78 013f 0002 023c 9ae0 bd3e
00000010: da85 c8be d43e 7a3e 79a1 2e3f e8e9 c4be
00000020: ce28 d13e 32f3 a13e 5483 34bf e9f1 243f
00000030: cf72 0e3f da65 e6be 1a93 b33e d5e9 b5be
00000040: f8b9 23bf 406c 8dbd caef 9e3e 30e1 33bd
00000050: d471 4a3e 0020 373b 3a80 da3e bc04 81be
00000060: b5df 033f d8f5 043e fa6d 1ebf 555c e1be
00000070: 5087 b93d 0083 f93d 66e5 0abf 8acd dabe
00000080: c02e aa3c 3467 2bbf b83a fd3d a00a 25bf
00000090: 8f2d 083f 6248 b93e 736d 0c3f 068c e2be
000000a0: da59 edbe bfdb 223f 9d30 1fbf 684b 003e
000000b0: 5ca6 323e 0ee0 f73e 6dd1 303f 62b1 e73e
000000c0: f595 c0be dd7f 1b3f
0.67770153 0.50574654 0.007935047 0.3708542 -0.3916462 0.2443803 0.6821514 -0.38459706
0.40851444 0.31630856 -0.7051289 0.64431626 0.55643934 -0.44999582 0.35073167 -0.35529962
-0.6395564 -0.06905413 0.3104232 -0.043915927 0.19769984 0.0027942657 0.42675954 -0.25198925
0.51513225 0.12984407 -0.6188656 -0.44015756 0.09059012 0.121831894 -0.54256284 -0.4273494
0.020774245 -0.6695435 0.12364715 -0.6446934 0.53194517 0.36188036 0.54854506 -0.44247454
-0.46357614 0.63616556 -0.62183553 0.12528765 0.17446274 0.48413128 0.6906956 0.4525252
-0.37614408 0.6074198

weight_ih_l0 f4 [200, 20]
00000000: 18e8 903e 9f08 28be e816 90be 7841 093e
00000010: 0126 a5be cab7 06bd 330f 043e 931e d5be
00000020: 62fa 9abc 2a08 28bd aa63 17bf 9bfc 773e
00000030: 8ee6 68be 33c1 00be 484a ec3c 61a1 7a3d
00000040: 1e9f 503c ff04 8c3e 9825 2a3f 5c05 80be
00000050: ef3b 8f3e a972 a5be 2d83 963c 6439 f43e
00000060: 9c4b 1bbf f57a 3abe 9f2d 013f fa09 04bf
00000070: 0505 513e 3561 f33e 3b39 30be 8a92 81bd
00000080: c715 3abe 6982 693e dadf 94be e22a 27be
00000090: 2bfd af3c cab1 dd3e 56de 803e b6c4 39be
000000a0: 4697 18bd 2d56 233c 0f7d 9c3e aca5 e03e
000000b0: 0b6e 14bd 51e5 ab3c b41e 2f3d d1c8 e0be
000000c0: 48b2 423f 1a72 6ebf 3247 093f 6d16 643e
000000d0: 70d0 673d b30f 373f 1ee5 fa3e 1f64 a03e
000000e0: 8e39 1f3e 9b23 fd3b ae9c 7d3e 96a0 d5bd
000000f0: af10 373e 5e5d b13e e651 05be 36de dabe
00000100: 2eeb 92be b40d 0f3e 7a97 bc3e 81a6 16bf
00000110: e517 5abe 5bf0 39bf 5105 793f 8872 c7bd
00000120: 0e9e 8dbe 8859 1c3f d1f5 96be c58c 063e
00000130: 4725 263e 2cc4 963d 10bc 08bf e4c1 7abe
00000140: 364c 423e b04d ecbe 1887 26bd 3147 163f
00000150: 2a79 21bf 3c01 dfbe 6589 df3d d934 ccbe
00000160: e4ef 3dbe 51bf df3e 13da d0be 9536 60be
00000170: ed3f 043d 8ed4 813c ba04 03bc aaa7 38bf
00000180: efbe 1b3d be61 803e b926 da3e ff08 1f3e
00000190: e23f 873e 098f 7ebe b2d4 ae3d e1ed 033f
000001a0: 4b40 1fbf 6f74 06bf 180a abbe 9cb4 20bf
000001b0: 88ea 963e cc0f d23e e010 31be 0b73 ff3d
000001c0: d431 85bd b278 f3be 7a6f c3bc 7db6 7cbd
000001d0: a616 c43e 4f01 8b3e e5f4 483e f9b0 323f
000001e0: cfa8 433f ea48 fcbd d8b7 3bbc 0d17 003f
000001f0: ae48 cdbe d8d8 b3be f3b2 17bf 4187 fdbe
00000200: 2f88 b6be b15d 473f f64b 0d3f 00f0 343e
00000210: 5ccb ecbe df36 3c3e 4ee7 26bf f9de 4cbf
00000220: f79c 3c3e 35fa b6be 31ef f43d c601 2d3e
00000230: b7a1 2cbf b521 633e 34c6 88be 6f8d 62bf
00000240: 2f08 61bf 1c68 39bd baba 48bf 0652 fabe
00000250: e241 f3bd 2501 acbd 20cd 853f 7107 8abe
00000260: c103 e53d 441f b0bc 531e 0c3f 34a1 b63d
00000270: b411 bdbd cd5b 09be a803 b2bf 887f 55be
00000280: df7b ea3d bd29 283e 8fc9 163d b853 68bd
00000290: 2aab a23d fb94 f4bd 16c7 5b3e 09a1 16be
000002a0: 970f 77bd 9d54 7a3d 923f 02be 6902 e83e
000002b0: 7040 17bd ffd5 6fbe 0c3e 113d 1052 283d
000002c0: fec4 97bd ef4d a43c 0584 b23c 0ef9 a53e
000002d0: 59cc 383e eb74 c6bd 5135 79b8 b98a 623d
000002e0: 9fcf d7be 7170 07be 18cf 45bf 300e 3dbf
000002f0: ca5c 23bf 697e d73d e19e 043f 4cde 8bbb
00000300: 7c1a a7be 690f 0d3f de30 38be 18e2 993d
00000310: cb71 93be 8247 493d dbd6 923e db68 5e3e
00000320: ebf7 053d f335 eb3d 73c1 7dbd 7421 353d
00000330: 2de0 a83d 58b7 34be 7d8d 453d 62bc 36be
00000340: 60c8 00bd 3034 04be cda0 25be 9dbd 7c3e
00000350: 91b1 493e ca3a 143d cb2c 083e 62ad ac3e
00000360: cd10 01be 0d64 9e3e 9c56 4c3b ae0d 73be
00000370: f077 bfbd 01e0 acbe 0abf 30bd d22c a2be
00000380: ede4 c5be 5177 02be d32d 9ebe 769f f1be
00000390: 3e68 373f beac cd3d 2e94 bfbe 4057 45be
000003a0: 4b29 b4bd 2c68 bfbd 87c9 02bf bd35 d5be
000003b0: d8db 68be 2780 8dbe 08fb d33e edf3 1a3e
000003c0: 9e94 4e3e feaa b33d 4965 00be 3108 fcbd
000003d0: d5c4 78be c2f3 bbbe a101 153f dc44 2ebd
000003e0: 3d84 8fbd 97a9 3b3e a4a8 14bd 317a 44bd
000003f0: ca5f cabd 84a6 8bbe 4d68 33be 1a2f f8bc
0.28302073 -0.16409539 -0.28142476 0.1340388 -0.32255557 -0.03289012 0.12896423 -0.4162489
-0.01891822 -0.04102341 -0.5913645 0.24217455 -0.227442 -0.125737 0.028844014 0.06118906
0.012733249 0.27347562 0.66463614 -0.2500409 0.27975413 -0.3231404 0.018373096 0.47700036
-0.60662246 -0.18210967 0.5046024 -0.51577723 0.20412071 0.475351 -0.17209332 -0.06326778
-0.1817237 0.22803654 -0.29077035 -0.16324952 0.021483025 0.43299705 0.2516963 -0.18141446
-0.03725364 0.009969276 0.30564162 0.43876398 -0.036237758 0.02098337 0.04275389 -0.4390321
0.76053286 -0.93142855 0.5362426 0.2227418 0.056595266 0.7150833 0.49002928 0.31326386
0.15549299 0.007725192 0.247668 -0.1043102 0.17877458 0.34641546 -0.13019523 -0.42747658
-0.28695053 0.13970071 0.36834317 -0.58847815 -0.21298178 -0.7263238 0.9727374 -0.09738642
-0.2765965 0.61074114 -0.29484418 0.13139637 0.16225158 0.073616356 -0.5341196 -0.24488026
0.18974385 -0.4615302 -0.04065618 0.5870238 -0.63075507 -0.4355563 0.10914878 -0.3988407
-0.18548542 0.4370065 -0.40791377 -0.21895821 0.032287527 0.015848424 -0.007996732 -0.72130835
0.038023885 0.2507457 0.42607668 0.15530775 0.26415926 -0.24859251 0.08536662 0.5153485
-0.6220748 -0.52521414 -0.33406138 -0.6277559 0.29475808 0.41027677 -0.17291594 0.124731146
-0.065036446 -0.4755302 -0.023856867 -0.061697472 0.3829853 0.27149436 0.1962467 0.6980129
0.76429456 -0.12318595 -0.011457406 0.5003517 -0.40094513 -0.35126376 -0.5925743 -0.49517253
-0.35650775 0.77877337 0.5519403 0.17669678 -0.462489 0.18380307 -0.6519669 -0.8002773
0.18419252 -0.35737768 0.11959685 0.16895208 -0.6743426 0.22180827 -0.26713717 -0.8849706
-0.8790311 -0.045265302 -0.7840992 -0.48890704 -0.118778005 -0.08398656 1.0453224 -0.26958802
0.111823566 -0.021499284 0.5473377 0.08917466 -0.09231892 -0.13413925 -1.3907366 -0.2084943
0.11449408 0.16422172 0.036813315 -0.056720465 0.07942803 -0.11942478 0.21462664 -0.14709868
-0.060317602 0.06111585 -0.12719563 0.4531434 -0.036926687 -0.23421477 0.035459563 0.041093886
-0.0741062 0.020056693 0.021791467 0.32416576 0.18046702 -0.09690269 -5.941588e-05 0.055308077
-0.4215059 -0.13226487 -0.77269125 -0.73849773 -0.6381346 0.10522158 0.5180493 -0.004268443
-0.32637393 0.5510164 -0.17987391 0.07513827 -0.28797755 0.04914046 0.28679547 0.21719687
0.032707136 0.11484899 -0.061952066 0.044221357 0.08245883 -0.17648065 0.048230637 -0.178453
-0.031441092 -0.12910533 -0.16174622 0.24681707 0.19696642 0.036188878 0.13298337 0.3372603
-0.12604065 0.30935708 0.0031179553 -0.23735687 -0.09349048 -0.3376465 -0.04315094 -0.3167482
-0.3865122 -0.12740828 -0.30894336 -0.47191972 0.71643436 0.100427136 -0.3741774 -0.19271564
-0.087969385 -0.09346041 -0.51088756 -0.41642562 -0.22740114 -0.27636835 0.4140246 0.15132113
0.2017388 0.087728485 -0.12538637 -0.1230625 -0.24293835 -0.3670941 0.5820561 -0.04254614
-0.07007644 0.18326412 -0.03629364 -0.047968093 -0.098815516 -0.2727548 -0.17520256 -0.030295897
