model/saved_models/fr_transfer/model_en_to_fr_epoch_13.pt (torch_old, 234884 bytes, 23 tensors)

weight f4 [74, 20]
0	0x00000000	0.0
1	0x00000000	0.0
2	0x00000000	0.0
3	0x00000000	0.0
4	0x00000000	0.0
5	0x00000000	0.0
6	0x00000000	0.0
7	0x00000000	0.0
8	0x00000000	0.0
9	0x00000000	0.0
10	0x00000000	0.0
11	0x00000000	0.0
12	0x00000000	0.0
13	0x00000000	0.0
14	0x00000000	0.0
15	0x00000000	0.0
16	0x00000000	0.0
17	0x00000000	0.0
18	0x00000000	0.0
19	0x00000000	0.0
20	0xbde12554	-0.10993448
21	0x3d8a0139	0.067385145
22	0x3db18635	0.08668176
23	0xbb9ed3d1	-0.004847028
24	0x3de7e58e	0.11323081
25	0xbdb4e8cb	-0.08833464
26	0x3cceb857	0.025234384
27	0xbba52a0c	-0.005040413
28	0xbd088539	-0.033330176
29	0xb9c0d84c	-0.00036782247
30	0x3d5c44db	0.053776603
31	0x3d5f4fb6	0.054519378
32	0x3db780d8	0.08960122
33	0xbd00f84a	-0.031486787
34	0xbb20f6be	-0.0024561132
35	0x3bdf5d41	0.0068165367
36	0x3cb40c83	0.021978622
37	0x3d0cc2e4	0.03436555
38	0xbd400582	-0.046880253
39	0x3d9ea98d	0.07747183
40	0xbf805c05	-1.0028082
41	0xbe978af4	-0.295982
42	0x3edbdb0a	0.4294055
43	0x3f0182f0	0.5059042
44	0xbe4728cf	-0.19449161
45	0x3ce87607	0.028376592
46	0x3f7013e9	0.9378038
47	0xbf1d76b3	-0.61509246
48	0xbf82308d	-1.0171067
49	0x3e59c600	0.21266937
50	0x3df9e86c	0.12202534
51	0xbf9f3a4f	-1.2439669
52	0x3ea16a19	0.3152626
53	0x3f49af68	0.78783274
54	0xbdeb6188	-0.11493212
55	0xbf46c660	-0.77646446
56	0x3e93c9f9	0.2886503
57	0x3db0d560	0.08634448
58	0x3e49a6c8	0.19692528
59	0xbea51778	-0.32244468
60	0x3e99deec	0.30052888
61	0x3fc19fde	1.5126913
62	0x3f9b49e8	1.2131929
63	0xbba91d74	-0.005160982
64	0xbf44ac83	-0.7682573
65	0x3ef294ad	0.47379056
66	0x3c122513	0.008919972
67	0xbdaf953f	-0.08573388
68	0xbe2d182c	-0.16903752
69	0x3ee2ba31	0.44282678
70	0xbe9a4d11	-0.30136922
71	0xbe9d54ad	-0.30728665
72	0x3fb8c60b	1.4435438
73	0xbed8db9b	-0.42355046
74	0xbddd2e0e	-0.107998
75	0x3f3065f7	0.68905586
76	0xbf3d726a	-0.74002707
77	0x3f1273ab	0.57207745
78	0x3e66d0dc	0.22540611
79	0xbddf1651	-0.108929284
80	0x4004b080	2.0732727
81	0xbf8818e9	-1.0632602
82	0x3f1366a6	0.57578504
83	0x3dee3d8a	0.116328314
84	0xbf8bca92	-1.0921195
85	0xbf2d4051	-0.67676264
86	0x3f41f50e	0.7576455
87	0x3c124d18	0.008929513
88	0x3ee34642	0.4438954
89	0x3cbd91e2	0.023140851
90	0x3ece7c85	0.40329376
91	0xbf3591a1	-0.7092534
92	0xbeaa2f63	-0.33239278
93	0xbebb62a5	-0.36598697
94	0xbeb7eacb	-0.3592132
95	0xbf0b0b61	-0.5431424
96	0xbfc4a1bc	-1.5361857
97	0xbf94159e	-1.1569097
98	0xbb389028	-0.0028162096
99	0x3f80279d	1.0012089
100	0xbf088f3f	-0.53343576
101	0x3f5faa1d	0.8736895
102	0xbf4397ed	-0.76403695
103	0xbf0e10d9	-0.5549446
104	0xbf05856c	-0.5215671
105	0xbf924542	-1.1427386
106	0xbf52dda3	-0.8236944
107	0x40805548	4.0104103
108	0xbe78aeca	-0.24285427
109	0x3f86b6ab	1.0524496
110	0x3f3d541a	0.73956454
111	0xbfc68f4d	-1.5512482
112	0xbf5e34fc	-0.867996
113	0xbfb69a8f	-1.4265918
114	0x3fa3994a	1.2781155
115	0xc04c4253	-3.191548
116	0xbd24265f	-0.040075656
117	0xbf33c1a2	-0.70217335
118	0xbfef22a2	-1.8682444
119	0x3eead715	0.4586722
120	0x3e6998b1	0.22812153
121	0xbd1170ef	-0.035508092
122	0x3c0c3b81	0.008559109
123	0xbbcd1e19	-0.0062596914
124	0x3de5d698	0.11222571
125	0x3e8c6d04	0.27426922
126	0x3e9d5bb8	0.30734038
127	0xbe911975	-0.28339735
128	0xbe9e893e	-0.30964082
129	0x3f015ac9	0.5052915
130	0x3e5d2984	0.21597868
131	0xbea2b921	-0.31781867
132	0x3df38d93	0.118922375
133	0x3edeccd2	0.4351564
134	0xbe0841f9	-0.13306417
135	0xbf33b71f	-0.70201296
136	0xbbe5a0ff	-0.0070077176
137	0xbd15c1d8	-0.036561817
138	0x3f06e456	0.52692163
139	0x3e4c8434	0.19972306
140	0x3f71e037	0.9448275
141	0xbf067af8	-0.52531385
142	0x3de8ded2	0.113706246
143	0xbee3286f	-0.44366786
144	0x3e5fb573	0.21846561
145	0x3fab901f	1.3403357
146	0xbeee9c99	-0.4660385
147	0x3dea032c	0.11426386
148	0x3dd4581e	0.103683695
149	0xbf24200e	-0.6411141
150	0x3eb2b861	0.34906295
151	0xbe913ef1	-0.28368333
152	0x3d9ca850	0.076492906
153	0x3f54b722	0.8309194
154	0x3c5b1d24	0.013373647
155	0xbe08b7e4	-0.13351399
156	0xbdbe0ef9	-0.092801996
157	0xbf5cfb5a	-0.8632103
158	0xbf84d36e	-1.0377023
159	0x3e39d932	0.1814926
160	0xbf66e7a8	-0.9019723
161	0x3ebd8e86	0.370228
162	0xbf04d978	-0.5189433
163	0x4007f936	2.1245856
164	0xc0234178	-2.550871
165	0x3ec41e87	0.3830454
166	0xbe97c686	-0.2964365
167	0xbfa13203	-1.2593387
168	0x3e807626	0.2509014
169	0x4012f17b	2.2959888
170	0xbc46fdf5	-0.012145509
171	0xbd5f7d71	-0.05456299
172	0xbf8423ec	-1.0323462
173	0x3b5aaeab	0.003336827
174	0xc00035bc	-2.0032797
175	0xbf7e6b84	-0.99382806
176	0xbec23765	-0.37932888
177	0xbf636a3d	-0.8883398
178	0xbe1ebae7	-0.15500985
179	0x3dfd71a6	0.12375192
180	0x3f79ce16	0.9758009
181	0xbf1aa43e	-0.60406864
182	0xc011a900	-2.27594
183	0x3f33c5ff	0.70223993
184	0x3f048018	0.51757956
185	0x3f9c747e	1.222305
186	0x3cd4307e	0.02590203
187	0xbf639f5c	-0.8891504
188	0xbf6555c6	-0.89584005
189	0x3fb25201	1.3931276
190	0x3ea098e2	0.3136664
191	0x3eece584	0.46268857
192	0xbe494525	-0.19655283
193	0xbfe9311b	-1.8218111
194	0x3ffae0ee	1.9599893
195	0x3fe02399	1.7510864
196	0x3ed62d4e	0.4183144
197	0xbeac4f99	-0.33654478
198	0xbf28f107	-0.6599278
199	0x3fba894c	1.457315
200	0xbf2e8e42	-0.6818582
201	0xbfb79ee0	-1.434536
202	0x3fa69b22	1.3016093
203	0x3efbbe01	0.491684
204	0xbfaddfc6	-1.3583915
205	0xbf1daf18	-0.61595297
206	0x3e9d91a3	0.30775174
207	0x3fc35f40	1.5263443
208	0x3f3d2985	0.7389148
209	0xbf5ddb95	-0.8666318
210	0xbe052179	-0.1300105
211	0x3c0a15bd	0.008428034
212	0x3f428818	0.7598891
213	0x3c47051b	0.012147213
214	0x3fbaa30b	1.4581007
215	0x3f133e05	0.5751651
216	0x3ea3ab4e	0.31966633
217	0x3f1173b3	0.5681717
218	0x3dbbdc53	0.09172883
219	0xbf7e0731	-0.99229723
220	0xbfb74f6c	-1.4321113
221	0xbf69149c	-0.9104707
222	0xbf61f07d	-0.8825758
223	0x3dbb2443	0.09137776
224	0xbe91e1be	-0.2849254
225	0x3eff8d91	0.49912694
226	0x3f05b8ce	0.52235115
227	0xbf05158d	-0.5198601
228	0x3e4f6cd2	0.20256355
229	0x3fb6c2bc	1.4278178
230	0x3e8da796	0.2766692
231	0xbedb053d	-0.42777434
232	0xbcc727d2	-0.02431098
233	0x3f0c112f	0.5471372
234	0x3c0b1214	0.008488197
235	0xbf8c74de	-1.0973165
236	0x3d85ff56	0.06542842
237	0xbf6ee03a	-0.9331089
238	0xbdda96f3	-0.106733225
239	0x3e47d845	0.19516094
240	0x3f927d5d	1.1444508
241	0xbea2d9b6	-0.31806725
242	0xbd724200	-0.059144974
243	0x3e7613b3	0.24030952
244	0x3efa351e	0.4886865
245	0x3fc64dd5	1.5492502
246	0xbe5558cf	-0.20834659
247	0xbe951e8f	-0.29124877
248	0x3f1a4e35	0.60275584
249	0xbf819680	-1.0124054
250	0x3e3cc4fc	0.18434519
251	0x3c8c8ca6	0.01715691
252	0x3eb897d4	0.36053336
253	0x3f833338	1.0250006
254	0xbeac5400	-0.33657837
255	0xbf124c88	-0.5714803

weight_ih_l0 f4 [200, 20]
0	0x3e866dff	0.26255795
1	0x3f632f22	0.88743794
2	0xbf0ed310	-0.55790806
3	0xbf83a085	-1.0283362
4	0xbfa4e410	-1.2882099
5	0xbec37232	-0.38173062
6	0x3f5da3c1	0.86577994
7	0x3f1e0eb4	0.61741185
8	0x3e46e395	0.19422753
9	0xbe8abf5d	-0.27099124
10	0x3f788fd3	0.9709446
11	0xbd86ba34	-0.06578484
12	0xbf3fb4f0	-0.74885464
13	0xbecc155e	-0.39860052
14	0x3e4cb7cd	0.1999199
15	0xbea29b4a	-0.317591
16	0x3e83e865	0.2576324
17	0xbde6a676	-0.11262219
18	0xbe7364f3	-0.23768978
19	0x3ec82958	0.39094043
20	0x3f9ea11b	1.2392915
21	0x3ecf58df	0.4049749
22	0xbee06210	-0.43824816
23	0xbe945062	-0.28967577
24	0x3f85427b	1.0410913
25	0x3e8aaf76	0.2708699
26	0xbf910acd	-1.1331421
27	0x3d92971d	0.07157729
28	0x3e18bbd1	0.14915396
29	0xbe9b29e4	-0.30305398
30	0x3ef69ea0	0.48167896
31	0x3f970d60	1.1800957
32	0xbe0fe8e4	-0.14053684
33	0xbeba25bd	-0.36356917
34	0x3d774189	0.060365234
35	0xbdb7ed1a	-0.089807704
36	0x3e099739	0.13436593
37	0xbeb3e10e	-0.3513264
38	0x3dbd31f1	0.09238041
39	0xbebe3638	-0.3715074
40	0xbece3914	-0.40277922
41	0x3eb38e99	0.3506973
42	0xbeada3f5	-0.33914152
43	0xbeb34368	-0.35012364
44	0xbeb0b301	-0.3451157
45	0x3f03a93a	0.51430094
46	0x3f91cf32	1.1391356
47	0x3ebcbb07	0.3686144
48	0xbec6c033	-0.3881851
49	0xbf4b7a95	-0.7948392
50	0xbf23a206	-0.63919103
51	0x3d0b6325	0.0340301
52	0x3e691386	0.22761354
53	0xbe8e9012	-0.27844292
54	0xbef6280a	-0.48077422
55	0x3e80132b	0.25014624
56	0xbe6d081e	-0.23147628
57	0xbe8407ac	-0.25787103
58	0xbeba3414	-0.36367857
59	0x3e065b2c	0.13120717
60	0xbebdad59	-0.37046316
61	0x3f216e52	0.6305896
62	0x3f3b4dff	0.7316589
63	0x3ec83fd9	0.39111212
64	0xbf893f89	-1.0722514
65	0xbe4aef3f	-0.19817828
66	0x3f4db07c	0.8034742
67	0x3feaebfc	1.8353267
68	0xbb8bde28	-0.0042684264
69	0xbf665437	-0.8997225
70	0x3f1c6e02	0.6110536
71	0x3e46555f	0.19368504
72	0x3fabf6ae	1.3434656
73	0xc0213488	-2.5188313
74	0xbe123705	-0.14278801
75	0x3ecd2a2e	0.40071243
76	0xbe92c7bd	-0.28668013
77	0xbf2d83c0	-0.6777916
78	0xbfa97a66	-1.3240478
79	0x3fba4404	1.4552007
80	0xbe2588e3	-0.161655
81	0xbfd6a024	-1.6767621
82	0xbf82d3b2	-1.0220854
83	0x3ee4c0d9	0.4467838
84	0xbdf59bb0	-0.11992586
85	0xbfcf0f65	-1.6176573
86	0xbf121714	-0.57066464
87	0x3da74ef1	0.08169354
88	0xbeb8a24c	-0.36061323
89	0xbf4e9aca	-0.8070494
90	0xbfc45ca3	-1.534077
91	0xbc158a75	-0.009127249
92	0xbef9e6a6	-0.48808783
93	0xbe47c0b6	-0.19507107
94	0x3e74fc82	0.23924449
95	0xc0089ca2	-2.13456
96	0xbfeb249f	-1.8370551
97	0x4012e87d	2.29544
98	0x3f1e1834	0.6175568
99	0x3f777225	0.96658546
100	0x3f0157ee	0.50524795
101	0x3f2426b5	0.6412156
102	0xbf7deb8e	-0.9918755
103	0x3f74c337	0.95610374
104	0xbf8bdbbf	-1.0926436
105	0xbf1365c3	-0.5757715
106	0xbf033043	-0.51245517
107	0xbe9efa8c	-0.31050527
108	0xbc4de023	-0.012565645
109	0x3cdf0a1d	0.027226502
110	0xbf4b9840	-0.7952919
111	0x3f1a6a69	0.6031862
112	0xbfa61f6e	-1.2978342
113	0x3f5eb4aa	0.8699442
114	0xbebbba8e	-0.36665767
115	0x3f39f98c	0.72646403
116	0x3e089d1d	0.13341184
117	0xbe131c5d	-0.14366288
118	0x3e96ae23	0.2942973
119	0x3c8cc628	0.017184332
120	0xbe292a4f	-0.16520046
121	0xbdc0a0f8	-0.09405702
122	0x3d177852	0.03697998
123	0xbfcd1e71	-1.6024915
124	0xbe8d3355	-0.27578226
125	0xbe9568ef	-0.2918162
126	0xbe00146c	-0.1250779
127	0xbe547a46	-0.20749769
128	0xbf319aac	-0.69376636
129	0xbf52675b	-0.8218896
130	0x3fa09f93	1.2548698
131	0x3f117cea	0.5683123
132	0xbd1c32e4	-0.03813447
133	0xbf87e01b	-1.0615267
134	0xbfc82e86	-1.5639198
135	0x3fb4f191	1.413622
136	0xbeeaf853	-0.4589258
137	0x3e7ab9cb	0.24484937
138	0xc00a2d55	-2.1590168
139	0x3db399b4	0.08769551
140	0xbdea2cd7	-0.11434334
141	0x3ede09e9	0.43366936
142	0x3e980aab	0.2969564
143	0xbf815520	-1.0104103
144	0xbd053c89	-0.032528434
145	0x3f0c572d	0.5482052
146	0xbcd4d991	-0.02598265
147	0x3f2061b4	0.62649083
148	0x3ce08dcd	0.027411366
149	0x3e9ef9fa	0.31050092
150	0x3f67d59c	0.9056032
151	0x3e950274	0.29103434
152	0xbe8b69b5	-0.27229086
153	0xbf8b6a56	-1.0891826
154	0x3ea1fd7e	0.31638712
155	0xbe0a2a2e	-0.13492653
156	0x3f464e4a	0.7746321
157	0xbb83648e	-0.00400979
158	0xbf79b67f	-0.9754409
159	0x3f2bc4d0	0.6709719
160	0xbf7fa19a	-0.9985596
161	0xbf327210	-0.69705296
162	0xbf84e340	-1.0381851
163	0x3dc52904	0.09626964
164	0xbf96e02a	-1.178716
165	0x3f681963	0.9066374
166	0xbe9f99fd	-0.3117217
167	0x3f0a47ae	0.54015625
168	0x3f42904d	0.76001436
169	0xbf0f2dc4	-0.5592921
170	0xbfa169db	-1.261043
171	0x3fa5b64c	1.2946258
172	0xbfea1f0e	-1.8290727
173	0x3f16cb7b	0.58904237
174	0x3e935ca1	0.28781608
175	0x3f9fa716	1.2472866
176	0xbe464424	-0.19361931
177	0xbe6808f0	-0.2265966
178	0xbefacb89	-0.4898341
179	0x3fa74b52	1.3069861
180	0x3df9571f	0.1217482
181	0x3febc9ee	1.8420999
182	0x3e674ae6	0.22587165
183	0xbc4479ad	-0.0119919
184	0x3f14e5de	0.5816325
185	0x3e8fcd7a	0.28086454
186	0x3fcceec6	1.6010368
187	0xbe274ba1	-0.16337444
188	0xbeee36f0	-0.4652629
189	0x3f56ba77	0.8387827
190	0xbf803bc3	-1.0018238
191	0xbef274ba	-0.4735468
192	0xbea815d8	-0.32829165
193	0x3f9bb88d	1.2165695
194	0x3e2befb3	0.16790657
195	0x3cd16ad6	0.025563639
196	0x3f300821	0.68762404
197	0x3f436db0	0.76339245
198	0x3f6be2c7	0.9214291
199	0xbf2fcd89	-0.68672997
200	0x3ca0f000	0.01964569
201	0x3f83e57a	1.0304406
202	0xbf2f1c5f	-0.68402666
203	0xbdaa0380	-0.08301449
204	0x3e8cca05	0.2749788
205	0x3f9c9111	1.2231771
206	0x3e2a5108	0.16632473
207	0xbf5375d3	-0.8260166
208	0xbeeae2db	-0.45876202
209	0x3ed7b9c2	0.4213391
210	0x3ed54b65	0.41659084
211	0xbe03d399	-0.12873687
212	0x3e907250	0.28212214
213	0xbf6c0d93	-0.9220821
214	0xbe281d54	-0.16417438
215	0xbeeee5f5	-0.46659818
216	0x3f4561df	0.77102464
217	0x3e40f2a5	0.18842562
218	0xbef3ddfe	-0.47630304
219	0x3dc30b53	0.09523644
220	0xbe5bea2d	-0.2147605
221	0xbe859e00	-0.26097107
222	0xbf838216	-1.0274074
223	0xbe0cbf47	-0.13744842
224	0x3fa45fad	1.2841698
225	0xbe81f62e	-0.25383133
226	0x3f1c6574	0.61092305
227	0x3e9a962a	0.3019269
228	0x3f11b49c	0.56916213
229	0xbf4149c6	-0.75503194
230	0xbfd67621	-1.67548
231	0xbf36eb20	-0.7145252
232	0xbf23b5e3	-0.6394941
233	0xbf70bc3d	-0.9403723
234	0x3dedd585	0.11612991
235	0x400154d3	2.0208023
236	0xbddcfb8f	-0.107901685
237	0xbf70a6b5	-0.94004375
238	0x3f4e75a7	0.80648273
239	0xbf51aaef	-0.8190145
240	0x3ead2369	0.33816078
241	0x3f2c0656	0.6719717
242	0x3e5644f2	0.20924738
243	0x3f4e94aa	0.80695593
244	0xbf2cfd9e	-0.6757449
245	0x3f9f4c4f	1.2445163
246	0x3e940214	0.28907835
247	0x3fb21593	1.3912834
248	0x3f6207d1	0.88293177
249	0x3e5d053c	0.21584028
250	0xbea74449	-0.32669285
251	0x3f149dd8	0.5805335
252	0xbdf3ae53	-0.11898484
253	0x3ef05f64	0.46947777
254	0x3ea5da8e	0.32393306
255	0x3f982686	1.1886756

weight_hh_l0 f4 [200, 50]
0	0x3fb697d8	1.4265089
1	0x3ece0d2c	0.40244424
2	0xc07d1229	-3.9542334
3	0xbfbd5d1d	-1.4794041
4	0x3fa8f6ec	1.3200355
5	0xc08c924d	-4.392859
6	0x3f8264df	1.0187033
7	0xbead1ee5	-0.33812633
8	0x4092f07c	4.591856
9	0x404b0e29	3.1727393
10	0xbfa04b53	-1.2522987
11	0xbf3e2725	-0.7427848
12	0xbe585733	-0.21127014
13	0xbda180a7	-0.078858666
14	0x3e6784a3	0.2260919
15	0xc011380b	-2.2690456
16	0xc03e718b	-2.97568
17	0xc04d3f77	-3.2069986
18	0x3f80763a	1.003608
19	0xbcb320d8	-0.021866247
20	0x40b80d97	5.751659
21	0x3f440bee	0.76580703
22	0x404e8568	3.2268925
23	0xbe996d55	-0.29966226
24	0x3fb0f321	1.3824197
25	0x40049477	2.0715616
26	0xbff0ec4d	-1.8822113
27	0xc0c0d6b5	-6.0262094
28	0x409fa9f8	4.989498
29	0xc04a16b5	-3.157636
30	0xbf0716c0	-0.5276909
31	0x3f884355	1.0645548
32	0x3fe771d5	1.8081614
33	0xbf99a153	-1.2002357
34	0xbec9cf63	-0.39416036
35	0xc0245d05	-2.5681775
36	0x3fd4aceb	1.661527
37	0xbe7d9d54	-0.24767047
38	0xbf95554a	-1.1666653
39	0x3f733ec4	0.9501765
40	0x400f271c	2.236762
41	0xbf10eaff	-0.56608576
42	0x3fe9649c	1.8233829
43	0xbffc38d5	-1.9704844
44	0xbfe57450	-1.7926121
45	0xbfb662a6	-1.4248855
46	0xc00f65b2	-2.240582
47	0xbf8a3106	-1.0796211
48	0xc078b1b1	-3.8858454
49	0x40dfc9dd	6.9933915
50	0x4027458e	2.6136203
51	0xc0047c96	-2.0701041
52	0x3f0e6872	0.5562812
53	0x3f731f31	0.9496947
54	0x3fa827c2	1.3137133
55	0xbea4ab02	-0.3216172
56	0x3f22708b	0.63452977
57	0x3f9b3620	1.2125893
58	0xbface64e	-1.3507783
59	0xbe8e5119	-0.27796248
60	0xbfb1f665	-1.3903319
61	0xbef26135	-0.47339788
62	0xbfb41573	-1.4069046
63	0xc0336b3c	-2.80342
64	0x40051f16	2.0800223
65	0xbf0ee244	-0.55814004
66	0xbfe89861	-1.8171502
67	0xbf3cd1f6	-0.73757875
68	0x3efd58e3	0.49481878
69	0xbe2e423d	-0.17017455
70	0x3ebadace	0.3649506
71	0x3f17d6e8	0.59312296
72	0xbf4be695	-0.79648715
73	0xbf6a921d	-0.916292
74	0x3f5b452f	0.8565244
75	0x398286d3	0.00024895984
76	0x3e639e5d	0.2222838
77	0x3ea06ffb	0.31335434
78	0x3f5572a8	0.83378077
79	0x405081b5	3.2579167
80	0x3f87be78	1.0605001
81	0xbdff6019	-0.12469501
82	0xbe71d4a8	-0.23616278
83	0x3f47bcd0	0.7802248
84	0x3f0290ce	0.51002204
85	0xbdf08505	-0.117441215
86	0xc011b8fe	-2.276916
87	0xbf38e287	-0.72220653
88	0x3ecde822	0.40216166
89	0x3f5cc460	0.86237144
90	0x3fde7599	1.7379638
91	0x3f49fb0a	0.7889868
92	0xc09f8122	-4.9845133
93	0xc0375ee9	-2.8651679
94	0xc01a1117	-2.407293
95	0x3f8cfb74	1.1014237
96	0xbe8acb4f	-0.27108237
97	0xbf5cb5e6	-0.86215055
98	0x4000d34a	2.012896
99	0x3ef25794	0.47332442
100	0x3f4658dc	0.7747934
101	0xbecfda9e	-0.4059648
102	0x3d06f1f4	0.03294559
103	0xbc8f12ba	-0.017464984
104	0xbcdd07d8	-0.02698128
105	0x3fc90529	1.57047
106	0xc01bc782	-2.434052
107	0x3d8c8c8f	0.06862747
108	0x3f234fee	0.6379384
109	0x4002fdbd	2.046737
110	0xbf41d3ff	-0.75714105
111	0x3f7dc9a8	0.9913583
112	0x3f00112b	0.50026196
113	0xbe4b15a3	-0.19832473
114	0xbea6d3ae	-0.32583374
115	0x3f7d8ed5	0.9904607
116	0xbf5f2c38	-0.8717685
117	0xbf882462	-1.0636103
118	0x3fb5cef1	1.4203779
119	0x3f5b8738	0.857532
120	0x3eb5b2f0	0.3548808
121	0xbe0be627	-0.13662015
122	0x3f93b23d	1.1538769
123	0xbdf17aeb	-0.11791023
124	0x3fc7c3ad	1.560659
125	0x3f5083c3	0.8145105
126	0xbf5f8737	-0.87315696
127	0x3e5d2956	0.215978
128	0xbedab7f4	-0.4271847
129	0x3f89f086	1.0776527
130	0x3f404e6d	0.7511967
131	0xbef5cb60	-0.48006725
132	0x3f8d3180	1.1030731
133	0x3fc858fa	1.5652153
134	0x3d0b467f	0.034002777
135	0xbf453403	-0.7703249
136	0x3df4ce5a	0.11953421
137	0x3e63fe21	0.22264911
138	0x3f5b3828	0.8563256
139	0xbf834f80	-1.0258636
140	0x3f8cb4c2	1.0992663
141	0x400a6d45	2.1629193
142	0xbfcfc732	-1.6232665
143	0xbf3d0dff	-0.7384948
144	0x3d594291	0.053042
145	0x3fa04416	1.2520778
146	0xbed16524	-0.40897477
147	0x406a3fc6	3.6601424
148	0x3f8a47d6	1.0803173
149	0xbf4c40cb	-0.79786366
150	0x3f714234	0.9424164
151	0x3fe089a5	1.7542006
152	0x3ee7fa35	0.4530808
153	0x3d19f0f2	0.0375833
154	0xc01d9c5e	-2.462669
155	0x3f6c808f	0.92383665
156	0x3f2d5f01	0.6772309
157	0xbf911a82	-1.1336215
158	0x3ff02f4d	1.8764435
159	0x3f496fe0	0.7868633
160	0xbfb85d81	-1.4403535
161	0x3fec2de5	1.8451506
162	0x40066947	2.1001756
163	0x3e8bdba9	0.27316025
164	0xbe63cefb	-0.22246926
165	0x3e603dec	0.21898621
166	0xbfa9b3e0	-1.3258018
167	0x3f037de5	0.51363975
168	0x3f87e93e	1.0618055
169	0xbe12336c	-0.14277428
170	0xbfbaff89	-1.4609233
171	0xc016aac1	-2.354172
172	0xbf7d7d49	-0.99019295
173	0xbf22126a	-0.6330935
174	0xc010d7ea	-2.2631783
175	0x3fdbd2ba	1.7173684
176	0xbf0738d4	-0.5282109
177	0xbf8c7c28	-1.097539
178	0x3f8cd5c1	1.1002733
179	0x3e092eb4	0.13396722
180	0x3fbe765f	1.4879874
181	0xbf9e5cbe	-1.2372053
182	0x3fe0d7a6	1.7565811
183	0xbfafa869	-1.372327
184	0xc00861dd	-2.130973
185	0xbf15ac93	-0.5846645
186	0xbe22b3c9	-0.15888895
187	0x3febebc8	1.843133
188	0xbe384bab	-0.17997615
189	0x3ec5752b	0.38565955
190	0xc0ade59c	-5.4342785
191	0x3f824515	1.0177332
192	0xbfe68838	-1.8010321
193	0x408512ba	4.158536
194	0x3e7f0be6	0.24906883
195	0x3f0a9ad3	0.54142493
196	0x400c0555	2.1878254
197	0xbe8c5723	-0.2741023
198	0x3e8aaff4	0.27087367
199	0xbfaaa407	-1.3331307
200	0x40074432	2.1135373
201	0x3cea298b	0.028584262
202	0x3e4613ff	0.19343565
203	0x3f876380	1.057724
204	0x403347f9	2.8012679
205	0x40352504	2.8303843
206	0x3fa1f05a	1.2651474
207	0x3fdbbe47	1.7167443
208	0x3fed0bb9	1.8519202
209	0x4021b5c5	2.5267193
210	0x400adf70	2.1698875
211	0xbee8d7d7	-0.45477173
212	0x3fc5c66d	1.545118
213	0xc0089a54	-2.1344194
214	0x3f81c2e9	1.0137607
215	0xc02637dc	-2.5971594
216	0xc05f73a1	-3.4914324
217	0xc070b8a2	-3.761269
218	0x3f9e07bc	1.234611
219	0x40dbcfad	6.869101
220	0x408ec416	4.4614363
221	0x403537cd	2.8315308
222	0xc08ad1e4	-4.3381214
223	0x3fa8d524	1.3190045
224	0xbf22399c	-0.63369155
225	0x40d02760	6.5048065
226	0x40b99cc2	5.8003855
227	0xbfc96a8d	-1.5735642
228	0xc04fabe4	-3.2448664
229	0x400d94b9	2.2122023
230	0x4035b7a5	2.8393338
231	0x3e5438f5	0.20724852
232	0x3ebad604	0.36491406
233	0x3fa5a66c	1.2941413
234	0xbf794b4d	-0.97380525
235	0xbe412b36	-0.1886414
236	0xc0494c50	-3.1452827
237	0xc0400475	-3.000272
238	0x400640ca	2.0977044
239	0x4017f44f	2.3742864
240	0x3f8a1004	1.0786138
241	0xbf0bcf90	-0.5461359
242	0xbeead6bf	-0.45866963
243	0x402ede0f	2.7323034
244	0xc003a4da	-2.0569367
245	0xc08c9da3	-4.394243
246	0x3fd9c0ef	1.7012004
247	0x4084db23	4.15175
248	0x40357185	2.8350537
249	0xbebcf97b	-0.36909088
250	0x4034998b	2.8218715
251	0x3f9c9557	1.2233075
252	0x3fb2b3d1	1.3961126
253	0x3f62f503	0.8865511
254	0x3ea7360e	0.32658428
255	0x407c5554	3.942708

bias_ih_l0 f4 [200]
0	0x3f7f9016	0.9982923
1	0x3f14e5fe	0.5816344
2	0x3e7e0c19	0.24809302
3	0x3eea11ac	0.45716608
4	0x3fffceb8	1.998496
5	0x3f8c83db	1.0977739
6	0xbf3213df	-0.6956157
7	0x3fb4639e	1.4092901
8	0xbcab60a8	-0.020920113
9	0xbec90520	-0.39261723
10	0x3e0c734c	0.13715857
11	0x3eceb62e	0.40373367
12	0x3fc343e5	1.5255095
13	0x3fc7a0df	1.5595969
14	0xbfdd859c	-1.7306399
15	0x3f13b421	0.5769673
16	0x3c7df1c2	0.015499534
17	0x3f3b32d5	0.7312444
18	0x3fee159d	1.8600346
19	0xbe3d01a2	-0.18457654
20	0x3c8c01a9	0.017090635
21	0x3f1780ab	0.59180707
22	0x3d9dd0d5	0.07705847
23	0x3fc40ea7	1.5316972
24	0xbfa57f41	-1.292946
25	0x3f979e1a	1.1845124
26	0x3f42f787	0.76158947
27	0x3f444643	0.7666971
28	0x3fc10567	1.5079774
29	0x3f01478b	0.5049979
30	0x3f06c900	0.5265045
31	0x401de5d1	2.4671519
32	0x3fc6dbee	1.5535867
33	0xbf3e1deb	-0.742644
34	0x3f8e4c67	1.1117066
35	0x400d4139	2.2071059
36	0x3fb4e69c	1.4132876
37	0x3f23aab2	0.63932335
38	0x3f569003	0.83813494
39	0x3f8dad95	1.1068598
40	0x3f9d2131	1.2275754
41	0x3dd82a91	0.10554994
42	0x3ea6b923	0.32563123
43	0x3fb3e3eb	1.405393
44	0x406667e8	3.600092
45	0xbf0d569c	-0.5521028
46	0xbee8b5d4	-0.45451224
47	0x3ff3b0d2	1.9038336
48	0x3f930c42	1.1488116
49	0x3ff3d8f8	1.9050589
50	0x3e0b20bf	0.1358671
51	0xbd7f0606	-0.062261604
52	0x3e999b4c	0.30001295
53	0xbe2b2e69	-0.16716923
54	0x3eb8087e	0.3594398
55	0xbfbc631b	-1.4717745
56	0x4078193d	3.8765404
57	0xbf48a10c	-0.7837074
58	0xbe86e770	-0.26348448
59	0x3efd3413	0.49453792
60	0xbe3ea6e4	-0.18618351
61	0x3f51f57e	0.82015216
62	0xbe788db9	-0.24272813
63	0x3eb187d1	0.34673932
64	0x3dc0fc78	0.094231546
65	0x3f8eb71c	1.114963
66	0xbeae214d	-0.3400978
67	0x3f3348c4	0.70032907
68	0x3eefbc01	0.46823123
69	0x3e987127	0.29773828
70	0x3d2b60f5	0.041840512
71	0x3e986abb	0.2976893
72	0x3fc7a508	1.5597239
73	0xbe40cff8	-0.18829334
74	0x3e1bb026	0.15203914
75	0x3fed79bc	1.8552775
76	0x3ed6a2cd	0.41921082
77	0xbf3cd1a1	-0.7375737
78	0x3f69d330	0.9133787
79	0xbe5b0276	-0.21387658
80	0xbe8cef38	-0.2752626
81	0x3f9e0315	1.234469
82	0xbd973d9d	-0.07384799
83	0x3fb09bf9	1.3797599
84	0x3f8fa268	1.1221437
85	0xbe491783	-0.19637875
86	0x3e517b21	0.20457126
87	0x3f229986	0.6351551
88	0x3e07f34a	0.13276401
89	0xbf4a51cd	-0.7903107
90	0xbf122ebd	-0.57102567
91	0xbfe883d8	-1.8165236
92	0x3f3aa1ee	0.72903335
93	0x3fb8ecb2	1.4447234
94	0xbeb85e7c	-0.36009586
95	0xbdc2634b	-0.09491595
96	0x3ef6b073	0.48181495
97	0xbe145162	-0.1448417
98	0xbd921933	-0.071337126
99	0x3f5a1937	0.85194725
100	0x3e21f48b	0.15815942
101	0x3dd6d183	0.1048918
102	0x3e91c7fd	0.2847289
103	0x3dac4943	0.08412411
104	0x3f66eab6	0.9020189
105	0x3faa0491	1.3282644
106	0xbf6add4a	-0.9174391
107	0x3e96702e	0.2938246
108	0xbdcd1a1a	-0.10014744
109	0x3f58e4a6	0.8472389
110	0x3e329a0b	0.17441575
111	0x3e1eebce	0.1551964
112	0xbee9ef71	-0.45690492
113	0xbfa87fbd	-1.3163983
114	0xbf985c86	-1.1903236
115	0x3ef9e2e5	0.4880592
116	0xbf890f1d	-1.0707737
117	0xbf1e4bbe	-0.61834323
118	0x3efb0f15	0.49034944
119	0x3ee2eb72	0.44320256
120	0x3efa427e	0.48878855
121	0xbf99e78d	-1.2023789
122	0x3f55dfdb	0.835447
123	0x3f1d5d16	0.6147016
124	0x3e5a414b	0.2131397
125	0x3ef031d1	0.46913007
126	0xbe2a6a67	-0.16642152
127	0xbf2ca2a7	-0.6743569
128	0xbe9a58a6	-0.30145758
129	0x3ec6ad11	0.38803914
130	0xbec4f379	-0.38467005
131	0x3f572a53	0.84048957
132	0x3d93c038	0.07214397
133	0xbeaea6b8	-0.3411157
134	0xbfdbf3d8	-1.718379
135	0x3e8466f1	0.25859788
136	0xbf36c77d	-0.71398145
137	0x3c73becd	0.014877033
138	0x3f5f9e3e	0.87350833
139	0xbf912362	-1.1338923
140	0x3fc2f5d3	1.523127
141	0xbf53d5de	-0.8274821
142	0x3ef51740	0.478693
143	0x3f473e9f	0.7782993
144	0xbf05373b	-0.520374
145	0x3e8526c3	0.26006135
146	0x3fa9dfe8	1.3271456
147	0xbf92fd12	-1.1483481
148	0x3f99ebe9	1.2025119
149	0xbefc8f37	-0.49328014
150	0x3f9d8cf3	1.2308639
151	0x3ff96abe	1.94857
152	0x3f862c39	1.0482246
153	0x400b0049	2.1718924
154	0x403df1a1	2.9678729
155	0x3f419378	0.75615644
156	0xbf5a6844	-0.85315347
157	0x3fbe9bae	1.489126
158	0x40258384	2.586152
159	0x3fbf51c8	1.4946833
160	0xbf7b62b0	-0.9819746
161	0x3dcb086a	0.09913714
162	0x3ff48569	1.9103214
163	0x3f2b9e5c	0.6703851
164	0xbda7dfc4	-0.08196977
165	0x3ef767b9	0.48321322
166	0x3fa7e783	1.3117527
167	0x3fbfb828	1.4978075
168	0x3fe5c95b	1.7952074
169	0x3f4cd964	0.8001921
170	0x40059641	2.0872958
171	0xbe68fcb2	-0.22752646
172	0x3e656830	0.22403026
173	0x3fe9b8c7	1.8259515
174	0x3e30ff49	0.17284884
175	0x3e804319	0.2505119
176	0x3eb73d28	0.35788846
177	0x3fc98232	1.5742857
178	0x3fc8a884	1.5676427
179	0x3f795887	0.97400707
180	0x3f839b07	1.0281686
181	0x3fae5ff8	1.3623037
182	0x3f6ad052	0.9172412
183	0x3eca78f6	0.3954541
184	0x3ea25b8e	0.31710476
185	0x3f3b1cb6	0.73090684
186	0x3f03fdb5	0.51559
187	0x3f28ee36	0.6598848
188	0x3d9745d3	0.07386365
189	0x3f8e4416	1.1114528
190	0x3f00f994	0.50380826
191	0x40113b13	2.2692306
192	0x3f35fd3c	0.7108953
193	0x3ee3da10	0.44502306
194	0x3f6afa0c	0.9178779
195	0x3e28e633	0.16494064
196	0x40247fcf	2.5703008
197	0x3d4b682a	0.049659885
198	0x3e75cb53	0.24003343
199	0x3f7724d7	0.9654059

bias_hh_l0 f4 [200]
0	0x3f81dfad	1.0146385
1	0x3ef41f2c	0.47680032
2	0x3eedac99	0.46420744
3	0x3ed29abd	0.4113368
4	0x400692be	2.1027064
5	0x3f8a7f67	1.082013
6	0xbf393223	-0.7234213
7	0x3fad2498	1.3526793
8	0xbcaf533d	-0.021401996
9	0xbe691530	-0.22761989
10	0x3e2ff1ec	0.1718213
11	0x3e91b04a	0.2845481
12	0x3fc3740d	1.5269791
13	0x3fbc256c	1.469892
14	0xbfc65695	-1.5495173
15	0x3f353fa3	0.70800227
16	0x3e1d03dc	0.15333503
17	0x3f552a0f	0.832673
18	0x3ff60d79	1.9222862
19	0xbe05d435	-0.13069232
20	0xbe4741d6	-0.19458708
21	0x3f1e11ad	0.6174572
22	0x3e992e9c	0.29918373
23	0x3fc614c4	1.5475087
24	0xbfa92102	-1.3213198
25	0x3f9764d1	1.1827642
26	0x3f659434	0.89679265
27	0x3f2f76dc	0.6854074
28	0x3faadff6	1.3349597
29	0x3f178072	0.59180367
30	0x3f129167	0.57253116
31	0x4017d113	2.3721359
32	0x3fcbce78	1.5922384
33	0xbf3975ec	-0.7244556
34	0x3f869f33	1.0517334
35	0x4006014c	2.0938292
36	0x3fa9ee9d	1.3275944
37	0x3f055c29	0.5209375
38	0x3f5d6b8b	0.8649222
39	0x3f591d30	0.8481016
40	0x3f9bd19d	1.2173344
41	0xbd4c6fb8	-0.04991123
42	0x3ef4784e	0.47748035
43	0x3fa610ff	1.2973937
44	0x40605c99	3.5056517
45	0xbeca805e	-0.3955106
46	0xbe7760d5	-0.24158032
47	0x3ff56268	1.9170656
48	0x3f93af1a	1.1537812
49	0x3fea1872	1.828871
50	0x3e4551d9	0.19269504
51	0xbe3a1711	-0.18172862
52	0x3ead67c5	0.33868232
53	0xbdfc65e6	-0.12324123
54	0x3e30ed5d	0.17278047
55	0xbfbdca96	-1.4827449
56	0x407f6be8	3.990961
57	0xbf392ec6	-0.72336996
58	0xbe40b986	-0.18820772
59	0x3f1b3fc7	0.6064419
60	0xbecee97c	-0.4041251
61	0x3f3e8b93	0.74431723
62	0xbea08374	-0.3135029
63	0x3e6c5599	0.23079528
64	0xbc8f4377	-0.017488224
65	0x3f96e6de	1.1789205
66	0xbed9f4d7	-0.4256961
67	0x3f15f6e0	0.58579826
68	0x3eb2b50e	0.3490376
69	0x3ef95c6b	0.48703322
70	0xbe084529	-0.13307633
71	0x3e63931c	0.22224087
72	0x3fc93ce4	1.5721707
73	0xbd625944	-0.05526091
74	0x3bf558de	0.0074874004
75	0x3fd8503a	1.6899483
76	0x3eb7452d	0.35794964
77	0xbf34c8c9	-0.70618874
78	0x3f77a2a3	0.9673254
79	0xbdc26e9e	-0.09493755
80	0xbea39dcf	-0.31956336
81	0x3f95c9b7	1.1702183
82	0xbe62118e	-0.22077009
83	0x3fbd083e	1.476814
84	0x3f62e48b	0.8862998
85	0xbe032069	-0.12805332
86	0x3e3e369e	0.18575522
87	0x3f24277c	0.6412275
88	0xbcf393df	-0.029733596
89	0xbf481969	-0.7816377
90	0xbf3e2424	-0.74273896
91	0xbfe50815	-1.7893091
92	0x3f379aa4	0.7172034
93	0x3fd71973	1.6804641
94	0xbec4d688	-0.38444924
95	0xbdc7072f	-0.09718167
96	0x3f24d020	0.64380074
97	0x3c68da26	0.014212167
98	0xbdd19dc6	-0.10235171
99	0x3f4387aa	0.7637888
100	0x3df57081	0.11984349
101	0x3da8892f	0.08229291
102	0x3eb29502	0.3487931
103	0xbd042138	-0.032258242
104	0x3f80b66d	1.0055672
105	0x3fa7207c	1.3056788
106	0xbf75de26	-0.96042097
107	0x3eaf0f46	0.3419134
108	0xbcd6f589	-0.026240127
109	0x3f5e487d	0.8682936
110	0x3d01959e	0.031636827
111	0x3e6606d2	0.22463539
112	0xbf0b56f3	-0.5442955
113	0xbfb4108d	-1.4067551
114	0xbf95f5cb	-1.1715635
115	0x3ef3eccc	0.476416
116	0xbf978fc1	-1.1840745
117	0xbf170001	-0.5898438
118	0x3ec1954d	0.3780922
119	0x3e841f57	0.2580516
120	0x3ef5adb0	0.47984076
121	0xbf9d0f27	-1.2270249
122	0x3f2cd82d	0.6751736
123	0x3f3392cd	0.70145875
124	0x3e89e80c	0.2693485
125	0x3eb32696	0.34990376
126	0xbe1fbaeb	-0.15598647
127	0xbf483f22	-0.78221333
128	0xbe82f9d0	-0.25581217
129	0x3f121d21	0.570757
130	0xbeaf43c6	-0.34231395
131	0x3f55d7c4	0.8353236
132	0x3c564c15	0.013079663
133	0xbe6e8f5f	-0.23296879
134	0xbff0f1bd	-1.8823773
135	0x3eb04d2c	0.34433877
136	0xbf0c02aa	-0.54691565
137	0x3bbee65a	0.0058258
138	0x3f73a77e	0.9517745
139	0xbfa8fac3	-1.3201526
140	0x3fbe6b67	1.4876527
141	0xbf3e0ad2	-0.7423526
142	0x3f2e829e	0.68168056
143	0x3f253673	0.6453621
144	0xbed7a583	-0.42118463
145	0x3e7f7eb7	0.24950682
146	0x3faf6dd0	1.3705387
147	0xbf70f9bd	-0.9413107
148	0x3f92e8f8	1.1477346
149	0xbf22d017	-0.6359877
150	0x3fb84396	1.4395626
151	0x3ffdfee0	1.9843407
152	0x3f6fb22d	0.9363125
153	0x4009eded	2.1551468
154	0x40476794	3.115697
155	0x3f3d7c32	0.7401763
156	0xbf61ac28	-0.88153315
157	0x3fb19f68	1.3876772
158	0x402e6026	2.7246184
159	0x3fc3a997	1.528613
160	0xbf843249	-1.0327846
161	0x3e1eebdb	0.15519659
162	0x40026fe9	2.0380805
163	0x3ef1adc5	0.47202888
164	0xbe15fdaf	-0.14647554
165	0x3eb99de8	0.36253285
166	0x3f9c8d9e	1.2230718
167	0x3fbc0cdc	1.4691424
168	0x3ff5c717	1.9201382
169	0x3f6851d2	0.9074985
170	0x4006f485	2.1086743
171	0xbed75f98	-0.4206512
172	0xbc07dbc4	-0.008292142
173	0x3fd9f9db	1.7029375
174	0x3dacd625	0.08439282
175	0x3ea5effc	0.32409656
176	0x3efc99f2	0.493362
177	0x3fc2b17b	1.5210413
178	0x3fb33843	1.4001545
179	0x3f817d04	1.0116277
180	0x3f6d149e	0.92609584
181	0x3f9ecc26	1.2406051
182	0x3f6c48f2	0.92298806
183	0x3e99c994	0.30036604
184	0x3e6e3515	0.23262437
185	0x3f484a59	0.78238446
186	0x3f184e55	0.59494525
187	0x3f2af699	0.6678253
188	0xbc5eea52	-0.013605671
189	0x3f77c081	0.9677811
190	0x3f0e4422	0.5557271
191	0x40123c8e	2.284946
192	0x3f182f0e	0.594468
193	0x3e9a3add	0.30123034
194	0x3f961753	1.1725868
195	0x3e907db6	0.2822091
196	0x401cfae5	2.4528134
197	0xbb403656	-0.0029329262
198	0x3e714ac4	0.23563677
199	0x3f402e03	0.7507021

weight f4 [74, 50]
0	0xbfab07af	-1.336172
1	0x3ec24ba6	0.3794834
2	0xbf987506	-1.1910713
3	0x3f13e891	0.57776743
4	0xbedcfb64	-0.43160546
5	0xbfa23425	-1.2672163
6	0x3ce7c143	0.028290397
7	0xbeed87ba	-0.46392614
8	0xbf6c69a0	-0.9234867
9	0xbf018a85	-0.5060199
10	0xbe0a8e4e	-0.13530847
11	0x3e9f4102	0.31104285
12	0x3f3c43cc	0.7354095
13	0x3f8aade3	1.0834316
14	0x3f856ee1	1.0424463
15	0xbf98ed7d	-1.1947476
16	0x3f70194c	0.937886
17	0x3f8365e6	1.0265472
18	0xbf83c685	-1.0294958
19	0x3fdbe72f	1.7179927
20	0x3fba6f04	1.4565129
21	0x3f9016bc	1.1256938
22	0xbfd2ed7b	-1.6478723
23	0x3e0d00b9	0.13769807
24	0x3f399542	0.72493374
25	0xbf870f52	-1.055155
26	0x3eb84347	0.3598883
27	0xbf04248f	-0.51618284
28	0x3ec3ba2a	0.3822797
29	0xbf7e23d1	-0.992734
30	0xbe28e917	-0.16495167
31	0xbf74e583	-0.9566271
32	0xbe99d619	-0.30046156
33	0x3fac63fa	1.346801
34	0x3fcc8336	1.5977542
35	0xbf6ab7db	-0.9168679
36	0x3fa1f669	1.2653323
37	0x3fa47b6a	1.2850163
38	0xbf1f2b24	-0.621752
39	0xbf76860e	-0.962983
40	0xbfa4015b	-1.2812914
41	0x3fab497c	1.3381801
42	0x3f448972	0.76772225
43	0xbf8c4af9	-1.096038
44	0x3f9c7c6b	1.2225469
45	0xbf8eaca0	-1.1146431
46	0xbf471bc0	-0.7777672
47	0x3f88daa2	1.0691721
48	0xbf5f7aef	-0.87296957
49	0x3f0e0979	0.55483204
50	0xbf9200c6	-1.1406486
51	0x3ef9708a	0.48718673
52	0xbf98ca0c	-1.193666
53	0x3f3026d8	0.6880927
54	0xbe9eec3e	-0.31039613
55	0xbfa0cd95	-1.2562739
56	0xbc8d54bb	-0.017252317
57	0xbeebbb69	-0.4604142
58	0xbf59b70c	-0.8504493
59	0xbf0d484f	-0.5518846
60	0xbde8b6ae	-0.113629684
61	0x3e9bf245	0.30458274
62	0x3f346483	0.7046587
63	0x3f9aa8c9	1.2082759
64	0x3f8fa67a	1.122268
65	0xbf8811a5	-1.0630385
66	0x3f7bd06e	0.98364913
67	0x3f8c9caf	1.0985316
68	0xbf78fc03	-0.9725954
69	0x3fda25d7	1.7042798
70	0x3fbe87e4	1.488522
71	0x3f82b80e	1.0212419
72	0xbfcc8111	-1.5976888
73	0x3dba60ed	0.091005184
74	0x3f31048a	0.6914755
75	0xbf8578ad	-1.0427452
76	0x3ebac473	0.36478004
77	0xbef18d0a	-0.47177917
78	0x3eb75364	0.3580581
79	0xbf82a416	-1.0206325
80	0xbe2acc52	-0.16679505
81	0xbf64cb26	-0.8937248
82	0xbe8d6378	-0.2761495
83	0x3fa25d37	1.2684697
84	0x3fde9385	1.7388769
85	0xbf5e1fd5	-0.8676732
86	0x3fa14c99	1.2601501
87	0x3fa4fca4	1.28896
88	0xbf0ee824	-0.5582297
89	0xbf6b67ab	-0.9195506
90	0xbf96f109	-1.1792308
91	0x3f988352	1.1915076
92	0x3f62f3f9	0.8865352
93	0xbf892117	-1.0713223
94	0x3f9b398a	1.2126935
95	0xbf8c8612	-1.0978415
96	0xbf4032ee	-0.7507771
97	0x3f8ee5f3	1.1163925
98	0xbf7d059d	-0.9883669
99	0x3ed52492	0.41629463
100	0x40af6628	5.4812202
101	0x3fd66e1a	1.675235
102	0x3f56d0b9	0.83912235
103	0xc010065f	-2.2503889
104	0x3f1be12e	0.6089047
105	0x3e67683e	0.22598359
106	0x3e263416	0.16230807
107	0xbff784f2	-1.9337447
108	0x403089a3	2.7584007
109	0x3fc542a0	1.5410957
110	0xbf14a206	-0.5805973
111	0xbfbd9f38	-1.4814215
112	0xbf1af13f	-0.6052436
113	0x3f39e66a	0.7261721
114	0xbffcff7f	-1.9765471
115	0x3f2f3d75	0.6845315
116	0x3f9eac39	1.2396308
117	0x40c54c67	6.1655765
118	0xc0e78d34	-7.2359867
119	0xc016144c	-2.3449888
120	0xbc20a5c4	-0.009805147
121	0xbd9845a3	-0.07435157
122	0xbf669db2	-0.90084374
123	0xbdd73be9	-0.10509474
124	0x3fd9d187	1.7017068
125	0x3f3fb6ae	0.7488812
126	0xbf9a43f1	-1.2051984
127	0x3fcf911e	1.6216161
128	0x3fcd0520	1.6017189
129	0xbf0875cb	-0.5330474
130	0xbfc48110	-1.5351887
131	0x40812e7b	4.036924
132	0xbe83a101	-0.25708774
133	0x401c9159	2.4463713
134	0x3f6305a4	0.8868048
135	0xbf54b06e	-0.8308171
136	0xbff69f18	-1.9267302
137	0x3f747bc8	0.95501375
138	0xc0163f81	-2.347626
139	0xbffd5762	-1.9792292
140	0xc0883874	-4.2568913
141	0xbfeb5b64	-1.8387265
142	0xbe4cf96d	-0.20017023
143	0x3ed2db9d	0.41183177
144	0xbf777f78	-0.96678877
145	0xbed70e84	-0.42003262
146	0xc03662c8	-2.8497791
147	0xbf5d5808	-0.8646245
148	0x3f8e8677	1.1134785
149	0x40668eed	3.6024735
150	0xc03f28a0	-2.9868546
151	0x3f82af80	1.0209808
152	0x3f708431	0.9395171
153	0x400454af	2.0676687
154	0x3fffff9b	1.999988
155	0xbe90f20c	-0.28309667
156	0xc0320891	-2.7817729
157	0xc00c0951	-2.1880686
158	0xc02f2b76	-2.7370276
159	0x3fb4b944	1.4119039
160	0xbeb20ed8	-0.3477695
161	0x3ff001c6	1.8750541
162	0x40049f45	2.072221
163	0x40517fd4	3.273427
164	0x405f6dad	3.491069
165	0xc008074a	-2.125445
166	0xbff1c020	-1.8886757
167	0xbe4454b4	-0.19172937
168	0x3eeaff37	0.45897838
169	0x3f726170	0.9467993
170	0x4002f56c	2.0462294
171	0x3f6b70fc	0.91969275
172	0xc111ef62	-9.120943
173	0x3f6033a1	0.8757878
174	0x3fac95f8	1.3483267
175	0xc0b236b6	-5.5691786
176	0x3fb0cfef	1.3813456
177	0x3f44315d	0.7663782
178	0xbf941773	-1.1569656
179	0x40516089	3.271517
180	0x3ff45462	1.9088252
181	0xc02ce58d	-2.7015107
182	0x3fb44dcb	1.408624
183	0xbf51d3c0	-0.8196373
184	0xbf9d457c	-1.228683
185	0xbde56faf	-0.112029426
186	0x4058e9e5	3.3892758
187	0xbcc2a1b2	-0.023758743
188	0x3f6f33fb	0.9343869
189	0x3f867f6b	1.0507635
190	0xbfed8ce4	-1.8558621
191	0xbf429922	-0.7601491
192	0x3fd3dc4f	1.6551608
193	0x3fa9ff37	1.328101
194	0x40166ea7	2.3505037
195	0xbeca5ac2	-0.39522368
196	0x3fd43b89	1.6580669
197	0x411beb11	9.744889
198	0x3f8095e0	1.0045738
199	0xbffb31f4	-1.962462
200	0xbfe2db31	-1.7723142
201	0x3fa9e10d	1.3271805
202	0xbe76c74d	-0.24099465
203	0x4003a8ac	2.05717
204	0x3eceddd2	0.4040361
205	0x3eaa6dae	0.33286804
206	0xbfadea21	-1.3587075
207	0x40293cec	2.6443434
208	0x3f66234a	0.89897597
209	0x3f11ce1d	0.5695513
210	0x3e2470a0	0.16058588
211	0x3fea5211	1.8306295
212	0x3fbacbe1	1.4593469
213	0xc04b857a	-3.1800218
214	0xbf327e1f	-0.69723696
215	0x3e3782c7	0.17920981
216	0x3ecb7411	0.3973699
217	0xc0076ada	-2.1158967
218	0x402a41df	2.6602705
219	0xbf623db8	-0.88375425
220	0x3e910d83	0.2833062
221	0xc044db22	-3.0758748
222	0x3f32b1ad	0.6980236
223	0xbfdecdcc	-1.7406554
224	0x3f0dc4a7	0.5537819
225	0x3f90a657	1.1300763
226	0xbfbbaaf2	-1.4661543
227	0xbf0e025f	-0.5547237
228	0x3fabb7c0	1.3415451
229	0xbe9a89ab	-0.30183157
230	0x3fb8a3e4	1.4425015
231	0xbeb18cd5	-0.3467776
232	0xbf5cca80	-0.8624649
233	0xbf362c2d	-0.71161157
234	0xbf1ce00c	-0.6127937
235	0x3fdef744	1.741921
236	0xc015b7eb	-2.3393505
237	0xbf9ebeee	-1.2402017
238	0xbfbd4aa0	-1.4788399
239	0x3ecd4a86	0.4009592
240	0x3e51de0f	0.20494865
241	0xbe43ff6f	-0.19140409
242	0xbfba8e29	-1.4574634
243	0xbe9fe16a	-0.31226665
244	0xbea1359b	-0.3148621
245	0x3f4ae450	0.7925463
246	0xbfd8f49e	-1.6949651
247	0x3d962f7f	0.07333278
248	0x3ff8d8d5	1.9441172
249	0xbfb38ea2	-1.4027903
250	0xc107d490	-8.489395
251	0xc075fc57	-3.8435266
252	0xbfec03f5	-1.8438708
253	0xbdb41419	-0.08792896
254	0xc0a3a0f9	-5.1134
255	0xc0f0a62f	-7.520286

bias f4 [74]
0	0xbfdfafe0	-1.7475548
1	0xbfd95215	-1.6978174
2	0x3f0d05cf	0.5508699
3	0x3fbb24c4	1.4620595
4	0x401702ca	2.3595452
5	0xc0587922	-3.3823934
6	0x4051c205	3.277467
7	0x3efdccae	0.4957022
8	0x3f941379	1.1568443
9	0xbfe1cc4c	-1.7640471
10	0xbfea0dca	-1.8285458
11	0xbfc135b8	-1.5094519
12	0xbfbfd7cc	-1.4987731
13	0x3cd043c9	0.025422947
14	0x4020ddf9	2.5135481
15	0x4045bf1f	3.08979
16	0x40171559	2.360678
17	0xbf525c71	-0.82172304
18	0xbf3f99b0	-0.74843884
19	0xbf382b39	-0.7194095
20	0xbf738c5e	-0.9513606
21	0xbfde18cb	-1.7351316
22	0xbf8e0a3b	-1.1096872
23	0x3e93a22d	0.28834668
24	0xbfb46e6c	-1.4096198
25	0x3e5bd4e9	0.21467938
26	0x3fbf8536	1.4962528
27	0x400de5b2	2.2171445
28	0x3df1444e	0.11780606
29	0x3fa5e53b	1.296058
30	0xc00b25af	-2.174175
31	0xc0075dca	-2.1150994
32	0xbf0c82a8	-0.54886866
33	0xbeacffa4	-0.33788788
34	0xbfed72e1	-1.8550683
35	0xbfc56d87	-1.542405
36	0x3f44497b	0.7667462
37	0xbf84cd04	-1.0375066
38	0xbf17f296	-0.5935453
39	0xbf875038	-1.0571356
40	0xbe9c4525	-0.30521503
41	0xbf1d031b	-0.61332864
42	0xbf758ae1	-0.9591504
43	0x3e8747b6	0.264219
44	0xbf083306	-0.53202856
45	0x3e93ae38	0.28843856
46	0xbfeffd36	-1.8749149
47	0xbfcf98c3	-1.6218494
48	0xc0005d45	-2.0056927
49	0xc0a493c9	-5.14304
50	0xbfdd2201	-1.7276002
51	0xbf2725ee	-0.6529225
52	0xc089759f	-4.295608
53	0xbff9a1c7	-1.9502496
54	0xbfd40fb4	-1.6567292
55	0xc0079a39	-2.118788
56	0xbfab0220	-1.3360023
57	0xc02afbab	-2.6716106
58	0x40293d66	2.6443725
59	0xc0136e23	-2.3035972
60	0xbf80b2c9	-1.0054561
61	0xbf60dfb0	-0.8784132
62	0xc0183935	-2.3784916
63	0xbf3d5dd7	-0.73971313
64	0x3ee08c83	0.43857202
65	0xbf01813d	-0.50587827
66	0xc0196542	-2.3968053
67	0xc011e83b	-2.2797992
68	0xbf8beb90	-1.0931263
69	0xc03fe0e9	-2.9981024
70	0xc01211fc	-2.2823477
71	0xc02f946a	-2.7434335
72	0xbf047e2a	-0.5175501
73	0xc020f789	-2.5151083

weight f4 [50, 2]
0	0x3f092ba5	0.5358222
1	0x3f152367	0.58257145
2	0x3e94411a	0.2895592
3	0x3f2ac6f9	0.6670986
4	0xbd77ed90	-0.06052929
5	0xbe884520	-0.26615238
6	0x3e08ca78	0.13358486
7	0x3d1dbd90	0.03851086
8	0xbe4324f0	-0.1905706
9	0xbf2e2467	-0.68024296
10	0x3f2bdec7	0.67136806
11	0x3e550ab0	0.20804858
12	0xbe38514c	-0.17999762
13	0x3e164100	0.14673233
14	0x3f0ee773	0.55821913
15	0x3ef666c6	0.48125285
16	0xbe660900	-0.2246437
17	0x3d497c80	0.049190998
18	0xbf31c192	-0.6943599
19	0xbece04e5	-0.4023811
20	0x3ccb6640	0.02482903
21	0xbecc26e1	-0.39873412
22	0xbe1428e4	-0.14468724
23	0xbe800e4c	-0.25010908
24	0x3d674d50	0.056470215
25	0xbea6b4c1	-0.3255978
26	0xbec46a98	-0.38362575
27	0xbe9ad4e7	-0.30240557
28	0x3e144284	0.14478499
29	0x3de872f8	0.113500535
30	0xbe1a2140	-0.15051746
31	0xbdff12f0	-0.12454784
32	0x3f1b2a91	0.60611826
33	0xbf21b3ca	-0.6316496
34	0xbd83f700	-0.06443596
35	0xbf0d9aa7	-0.55314106
36	0xbe6fc25a	-0.23413983
37	0xbf231a7f	-0.63712305
38	0x3ef33d62	0.4750777
39	0x3f1ad0ad	0.60474664
40	0xbebaa469	-0.3645356
41	0xbf0e5591	-0.55599314
42	0x3ed5ee3e	0.41783327
43	0xbefd1d0b	-0.4943622
44	0xbf1971d5	-0.5993932
45	0xbeedb0c5	-0.46423927
46	0xbf0483ee	-0.5176381
47	0xbf07b262	-0.53006566
48	0xbe39d294	-0.18146735
49	0x3ea8bff6	0.32958955
50	0xbe6cff10	-0.23144174
51	0xbf11658e	-0.56795585
52	0x3ef7f5a2	0.4842959
53	0xbf23aace	-0.639325
54	0x3ee2dc0a	0.443085
55	0x3e233e40	0.15941715
56	0xbef97552	-0.4872232
57	0xbf07a280	-0.5298233
58	0x3f266f6f	0.65013784
59	0x3d324930	0.04352683
60	0x3e4e547c	0.20149416
61	0xbce1db60	-0.027570426
62	0xbd841eb0	-0.06451166
63	0x3f21f1a1	0.6325932
64	0xbee604c5	-0.44925514
65	0x3d7ffb60	0.06249559
66	0xbd8afae0	-0.06786132
67	0xbecbfd78	-0.3984182
68	0x3ebb9c4a	0.36642677
69	0xbf19ece1	-0.60127074
70	0x3e852b1a	0.26009446
71	0xbee2c24b	-0.4428886
72	0xbf0b5139	-0.5442081
73	0xbe44e390	-0.19227433
74	0x3cd988e0	0.026554525
75	0xbea83648	-0.32853913
76	0x3e8db4aa	0.27676898
77	0xbeb0e2e0	-0.34548092
78	0xbee4a471	-0.4465671
79	0xbeb2dc69	-0.34933785
80	0xbdea48b8	-0.11439651
81	0x3dd50e80	0.10403156
82	0x3eb3af66	0.35094756
83	0xbf11ad5e	-0.5690516
84	0xbf2a7f19	-0.66600186
85	0xbf253452	-0.6453296
86	0x3e4abd88	0.19798863
87	0xbe6f6004	-0.23376471
88	0xbe5e992e	-0.21738121
89	0xbf1e088d	-0.617318
90	0x3e6c973c	0.23104566
91	0x3f0f9505	0.5608676
92	0x3eef6aa2	0.46761042
93	0xbde84e98	-0.113431156
94	0xbf09625d	-0.53665715
95	0x3f1b98d7	0.6078009
96	0x3dd71e50	0.105038285
97	0xbe4eb724	-0.2018705
98	0xbf34111e	-0.7033862
99	0x3ed1d79a	0.40984803

bias f4 [50]
0	0x3f2d7dd9	0.67770153
1	0x3f01789b	0.50574654
2	0x3c020200	0.007935047
3	0x3ebde09a	0.3708542
4	0xbec885da	-0.3916462
5	0x3e7a3ed4	0.2443803
6	0x3f2ea179	0.6821514
7	0xbec4e9e8	-0.38459706
8	0x3ed128ce	0.40851444
9	0x3ea1f332	0.31630856
10	0xbf348354	-0.7051289
11	0x3f24f1e9	0.64431626
12	0x3f0e72cf	0.55643934
13	0xbee665da	-0.44999582
14	0x3eb3931a	0.35073167
15	0xbeb5e9d5	-0.35529962
16	0xbf23b9f8	-0.6395564
17	0xbd8d6c40	-0.06905413
18	0x3e9eefca	0.3104232
19	0xbd33e130	-0.043915927
20	0x3e4a71d4	0.19769984
21	0x3b372000	0.0027942657
22	0x3eda803a	0.42675954
23	0xbe8104bc	-0.25198925
24	0x3f03dfb5	0.51513225
25	0x3e04f5d8	0.12984407
26	0xbf1e6dfa	-0.6188656
27	0xbee15c55	-0.44015756
28	0x3db98750	0.09059012
29	0x3df98300	0.121831894
30	0xbf0ae566	-0.54256284
31	0xbedacd8a	-0.4273494
32	0x3caa2ec0	0.020774245
33	0xbf2b6734	-0.6695435
34	0x3dfd3ab8	0.12364715
35	0xbf250aa0	-0.6446934
36	0x3f082d8f	0.53194517
37	0x3eb94862	0.36188036
38	0x3f0c6d73	0.54854506
39	0xbee28c06	-0.44247454
40	0xbeed59da	-0.46357614
41	0x3f22dbbf	0.63616556
42	0xbf1f309d	-0.62183553
43	0x3e004b68	0.12528765
44	0x3e32a65c	0.17446274
45	0x3ef7e00e	0.48413128
46	0x3f30d16d	0.6906956
47	0x3ee7b162	0.4525252
48	0xbec095f5	-0.37614408
49	0x3f1b7fdd	0.6074198

weight_ih_l0 f4 [200, 20]
0	0x3e915df2	0.28391987
1	0xbe261e19	-0.16222419
2	0xbe904292	-0.2817579
3	0x3e09dc3e	0.13462922
4	0xbea53485	-0.32266632
5	0xbcfd0a39	-0.030888664
6	0x3e06ffb6	0.13183483
7	0xbed542d3	-0.41652545
8	0xbca4b9f0	-0.020108193
9	0xbd299bec	-0.041408464
10	0xbf17826a	-0.5918337
11	0x3e771489	0.24128927
12	0xbe68f90e	-0.22751257
13	0xbe0137fa	-0.1261901
14	0x3ce9c1e7	0.028534843
15	0x3d7c976c	0.061667845
16	0x3c3e66d0	0.011621192
17	0x3e8bae90	0.27281618
18	0x3f2a6d5b	0.66573113
19	0xbe7f41bb	-0.24927418
20	0x3e8cc8a9	0.27496842
21	0xbea26196	-0.31715077
22	0x3c72ff77	0.014831415
23	0x3ef3564a	0.4752677
24	0xbf1d10bf	-0.6135368
25	0xbe394021	-0.1809087
26	0x3ef9ac92	0.48764473
27	0xbf054241	-0.5205422
28	0x3e642968	0.2228142
29	0x3ef3dc9f	0.47629258
30	0xbe2f798f	-0.17136215
31	0xbd78d3c5	-0.060748834
32	0xbe3f2995	-0.18668206
33	0x3e69eee4	0.22845036
34	0xbe947969	-0.2899888
35	0xbe2bb598	-0.16768491
36	0x3cbe81de	0.023255285
37	0x3ed37618	0.41301036
38	0x3e7be802	0.24600223
39	0xbe3bd11d	-0.18341489
40	0xbd0e3dda	-0.034726955
41	0x3c3bc697	0.011460922
42	0x3ea36748	0.31914735
43	0x3ee38d19	0.44443586
44	0xbd20cb9b	-0.039256673
45	0x3c80fd88	0.015745893
46	0x3ce5a437	0.028032405
47	0xbecccdd4	-0.40000784
48	0x3f4063f6	0.7515253
49	0xbf777da5	-0.96676093
50	0x3f0a43f5	0.54009944
51	0x3e569618	0.20955694
52	0x3d5e67c0	0.054298162
53	0x3f383763	0.71959513
54	0x3efc81fe	0.49317926
55	0x3ea501ba	0.3222788
56	0x3e2234c8	0.15840447
57	0x3c7233bb	0.014782841
58	0x3e5ad558	0.21370447
59	0xbdcdcaf2	-0.10048474
60	0x3e44600e	0.19177267
61	0x3eabe705	0.3357469
62	0xbdc792e7	-0.09744816
63	0xbedc793c	-0.43061244
64	0xbe97d709	-0.29656246
65	0x3e206faf	0.15667604
66	0x3eb32bba	0.34994298
67	0xbf1eb779	-0.6199871
68	0xbe5e337c	-0.21699327
69	0xbf4bf723	-0.79673976
70	0x3f7b3862	0.9813291
71	0xbdaadc11	-0.083427556
72	0xbe7806e2	-0.24221376
73	0x3f1e6061	0.6186581
74	0xbea1ba10	-0.31587267
75	0x3e213cdf	0.15745877
76	0x3e3e292b	0.18570392
77	0x3d3cb780	0.046073437
78	0xbf0ea698	-0.5572295
79	0xbe8385c9	-0.25688007
80	0x3e48734c	0.19575232
81	0xbeecae67	-0.46226808
82	0xbd1a04c0	-0.037602186
83	0x3f1630ff	0.5866851
84	0xbf2224fc	-0.63337684
85	0xbee1f6db	-0.44133648
86	0x3de2354d	0.110453226
87	0xbecb9122	-0.39759165
88	0xbe3f5045	-0.18682964
89	0x3edd2e6d	0.43199483
90	0xbed01431	-0.40640405
91	0xbe606f11	-0.21917368
92	0x3d0d20b1	0.034455005
93	0x3b79e942	0.0038133417
94	0xbc5993d5	-0.013279875
95	0xbf38dde0	-0.72213554
96	0x3d0e324e	0.034715943
97	0x3e80a264	0.25123894
98	0x3ee0d714	0.43914092
99	0x3e20ebc1	0.15714933
100	0x3e8626da	0.26201516
101	0xbe8100ad	-0.25195828
102	0x3daddb4d	0.08489094
103	0x3f0538ab	0.52039593
104	0xbf1f9275	-0.6233285
105	0xbf06017c	-0.52346015
106	0xbea2dd2b	-0.31809363
107	0xbf21b9a8	-0.63173914
108	0x3e947d13	0.29001674
109	0x3ed0f96c	0.40815294
110	0xbe3310e3	-0.1748691
111	0x3df01d43	0.11724331
112	0xbd81486b	-0.06312641
113	0xbef418f8	-0.476753
114	0xbcdb7a70	-0.026791781
115	0xbd842265	-0.06451873
116	0x3ec69e9a	0.38792878
117	0x3e896ad0	0.26839304
118	0x3e469549	0.19392885
119	0x3f31c23f	0.6943702
120	0x3f42cf07	0.7609715
121	0xbe0440f1	-0.12915398
122	0xbc7fe44b	-0.015618394
123	0x3efeb46b	0.49747023
124	0xbecd3ffb	-0.40087876
125	0xbeb4ea93	-0.35335216
126	0xbf1a7a6f	-0.6034307
127	0xbf014474	-0.50495076
128	0xbeb638d1	-0.35590222
129	0x3f473207	0.7781071
130	0x3f0dd7b7	0.5540728
131	0x3e378551	0.1792195
132	0xbeef982d	-0.46795788
133	0x3e3766aa	0.17910257
134	0xbf28d416	-0.6594862
135	0xbf4c7e9d	-0.79880697
136	0x3e3bb966	0.18332443
137	0xbeb5dc98	-0.35519862
138	0x3e010cb4	0.12602502
139	0x3e2e6d04	0.17033774
140	0xbf3022b0	-0.6880293
141	0x3e66f649	0.22554888
142	0xbe86d463	-0.26333913
143	0xbf640b0a	-0.89079344
144	0xbf629a7c	-0.88516974
145	0xbd47e275	-0.04879995
146	0xbf49318c	-0.7859123
147	0xbef688a4	-0.48151124
148	0xbde3e168	-0.11126977
149	0xbda05a55	-0.078297295
150	0x3f859678	1.0436544
151	0xbe876901	-0.264473
152	0x3debdde7	0.11516934
153	0xbc4825e6	-0.012216067
154	0x3f1014a8	0.5628152
155	0x3dca3255	0.09872881
156	0xbdb660d2	-0.08905186
157	0xbe00d761	-0.1258216
158	0xbfb53208	-1.4155893
159	0xbe52ae87	-0.2057439
160	0x3deb9a53	0.115040444
161	0x3e2716ca	0.16317287
162	0x3d1859d1	0.03719503
163	0xbd679472	-0.056538053
164	0x3da3b23b	0.07992979
165	0xbdee1127	-0.11624365
166	0x3e6722ed	0.22571917
167	0xbe16569c	-0.14681476
168	0xbd8044a8	-0.06263095
169	0x3d808e25	0.06277112
170	0xbe015001	-0.12628175
171	0x3ee651c0	0.44984245
172	0xbd0b7892	-0.03405053
173	0xbe70ab0d	-0.2350275
174	0x3d0967c4	0.033546224
175	0x3d2586f2	0.040411897
176	0xbd978db2	-0.07400073
177	0x3c851ff7	0.016250594
178	0x3cbf87d4	0.023380198
179	0x3ea566ef	0.32305095
180	0x3e3582e3	0.1772571
181	0xbdafcad1	-0.08583606
182	0xbb5c35f3	-0.0033601492
183	0x3d59c76e	0.053168707
184	0xbedab2dc	-0.42714584
185	0xbe18dba5	-0.14927538
186	0xbf45de02	-0.7729188
187	0xbf3ab0eb	-0.72926205
188	0xbf2234b3	-0.6336166
189	0x3debd595	0.11515347
190	0x3f028d12	0.50996506
191	0xbca36010	-0.019943267
192	0xbea94a7e	-0.33064646
193	0x3f0da24c	0.5532577
194	0xbe3a1152	-0.1817067
195	0x3d880d65	0.0664318
196	0xbe93bc78	-0.28854728
197	0x3d5e210a	0.054230727
198	0x3e8fe5df	0.28105065
199	0x3e6a5ff5	0.22888167
200	0x3d0f3821	0.034965638
201	0x3deec0c3	0.1165786
202	0xbd6fc316	-0.058535658
203	0x3d3c4a85	0.045969505
204	0x3da96994	0.082720906
205	0xbe3524ac	-0.1768977
206	0x3d2d6d58	0.042340606
207	0xbe3a537d	-0.18195911
208	0xbd1a271e	-0.03763496
209	0xbe04ddf2	-0.1297529
210	0xbe25ef4e	-0.16204569
211	0x3e7d5d6e	0.24742672
212	0x3e498491	0.19679476
213	0x3d0b7c45	0.03405406
214	0x3e05485e	0.13015887
215	0x3ead4e46	0.3384878
216	0xbe003568	-0.12520373
217	0x3e9e5549	0.30924442
218	0x3bef778f	0.0073079537
219	0xbe72c5c9	-0.23708262
220	0xbdb67a1e	-0.08910011
221	0xbeab3de7	-0.33445665
222	0xbd4d77c8	-0.05016306
223	0xbead8485	-0.33890167
224	0xbecb966a	-0.39763194
225	0xbe1cb26e	-0.1530244
226	0xbeae479e	-0.34039015
227	0xbf0197bd	-0.5062216
228	0x3f2c8505	0.6739047
229	0x3d97160c	0.07377252
230	0xbed2c5c1	-0.411665
231	0xbe3ef49e	-0.18648002
232	0xbdc73f6a	-0.09728892
233	0xbdca659a	-0.0988266
234	0xbf04b134	-0.5183289
235	0xbedb81ce	-0.4287247
236	0xbe614f56	-0.2200292
237	0xbe8c7d93	-0.27439556
238	0x3edc7824	0.4306041
239	0x3e153a42	0.14573005
240	0x3e5e57f0	0.21713233
241	0x3d928350	0.07153952
242	0xbde27879	-0.110581346
243	0xbdf656ef	-0.120283
244	0xbe6b7657	-0.22994362
245	0xbeb61428	-0.35562253
246	0x3f1eb506	0.6199497
247	0xbd083b45	-0.03325965
248	0xbdd7704c	-0.10519466
249	0x3e392927	0.18082105
250	0xbd5a7dee	-0.053342752
251	0xbd8f57d2	-0.06999172
252	0xbe020031	-0.12695386
253	0xbe85e941	-0.2615452
254	0xbe389b37	-0.1802796
255	0xbcd4f31a	-0.025994826
