model/saved_models/fr_decoder/model_large_attn.pt (torch_old, 108660 bytes, 24 tensors)

weight f4 [75, 20]
0	0x00000000	0.0
1	0x00000000	0.0
2	0x00000000	0.0
3	0x00000000	0.0
4	0x00000000	0.0
5	0x00000000	0.0
6	0x00000000	0.0
7	0x00000000	0.0
8	0x00000000	0.0
9	0x00000000	0.0
10	0x00000000	0.0
11	0x00000000	0.0
12	0x00000000	0.0
13	0x00000000	0.0
14	0x00000000	0.0
15	0x00000000	0.0
16	0x00000000	0.0
17	0x00000000	0.0
18	0x00000000	0.0
19	0x00000000	0.0
20	0xbb6ba0f4	-0.003595409
21	0xbb097ddd	-0.0020979561
22	0x3b244440	0.0025065094
23	0xbb7976a6	-0.0038065105
24	0x3af1bc02	0.0018442872
25	0x3a2243cc	0.0006189912
26	0x3c56fc03	0.013121608
27	0x3c2bdf58	0.010490261
28	0x3b9fd85e	0.004878088
29	0xbb837d0e	-0.0040127104
30	0xbc55188b	-0.01300634
31	0x3d00cd47	0.031445768
32	0x3af1322d	0.0018401794
33	0xbc09ea43	-0.008417669
34	0x3b2861ab	0.002569298
35	0xbb3b2d73	-0.0028561025
36	0xbce8a3ef	-0.028398482
37	0x3c232bef	0.009959205
38	0xb9cc8586	-0.00039009395
39	0xbc3048e3	-0.010759565
40	0x3bca0eeb	0.006166329
41	0xba81a415	-0.0009890819
42	0x3db3bc29	0.08776123
43	0x3a90246d	0.0010997184
44	0x3d4ff9a6	0.050775193
45	0x3aa5a76f	0.00126384
46	0xbcaefe63	-0.021361535
47	0x3bc1180b	0.0058927587
48	0x3d07f6ae	0.033194236
49	0x3bd3a1bd	0.0064584897
50	0x3d3f560d	0.046712924
51	0xbd0f410e	-0.03497415
52	0x3d8a3f43	0.067503475
53	0xbcd2fa0c	-0.025753997
54	0xba819003	-0.0009884838
55	0x3c3d0c48	0.011538573
56	0xbd47a1c5	-0.04873826
57	0xbc94ae5f	-0.018149553
58	0x3a637232	0.0008676379
59	0x3a8242f0	0.0009938162
60	0xbd8b6201	-0.06805802
61	0x3c175831	0.009237335
62	0xbe64a991	-0.2233031
63	0xb9928eb8	-0.00027953624
64	0xbe03cf1f	-0.12871979
65	0xbbee3554	-0.007269541
66	0x3de43be1	0.111442335
67	0xbde16add	-0.11006711
68	0xbd36778f	-0.044547614
69	0xbc5e835e	-0.013581125
70	0xbe1a8c8f	-0.15092681
71	0x3e14d564	0.14534527
72	0xbe7c34e2	-0.24629548
73	0x3cf53cca	0.029936213
74	0xbbb71013	-0.005586633
75	0xbd693809	-0.056938205
76	0x3d87b84e	0.0662695
77	0x3d92e849	0.07173211
78	0xbb144bc2	-0.0022628163
79	0xbc315bac	-0.010825079
80	0xbd812b57	-0.063070945
81	0x3c9496d9	0.018138336
82	0xbdbf9d0f	-0.093561284
83	0x3c9dabc3	0.019246941
84	0xbcb8bdc9	-0.022551434
85	0xbbe01248	-0.006838117
86	0x3da85880	0.08220005
87	0xbe1e6683	-0.15468793
88	0xb95ed1a5	-0.00021249668
89	0x3c973e41	0.018462302
90	0xbcf50c3d	-0.029913062
91	0x3db20698	0.08692664
92	0xbe0a3c69	-0.13499607
93	0x3c5b346f	0.0133792
94	0xbcbd3a08	-0.02309896
95	0xbd0686da	-0.03284345
96	0x3d992da7	0.074794106
97	0x3caec7a1	0.021335425
98	0x3adca9de	0.0016835292
99	0x3cb82355	0.022477785
100	0x3a3064a3	0.0006728863
101	0x3cb34f4d	0.0218884
102	0x3dbd98ba	0.09257646
103	0x3d276da5	0.04087605
104	0x3e46dccd	0.19420166
105	0xbc7e2e12	-0.015513914
106	0xbc0f327d	-0.008740065
107	0xbdf99610	-0.12186825
108	0x3c81a69f	0.015826521
109	0x3d6c01e0	0.057618976
110	0x3e782cce	0.24235842
111	0xbdf0d455	-0.11759249
112	0x3e57cd36	0.21074376
113	0x3c6cfd00	0.014464617
114	0xbcf88c66	-0.030340385
115	0x3d00009e	0.03125059
116	0x3e6438a0	0.22287226
117	0xbd9b23c2	-0.0757518
118	0x3b8aa136	0.0042306436
119	0x3dd18a1f	0.10231423
120	0x3d8d13ad	0.068885185
121	0xbc288087	-0.01028455
122	0x3dda6758	0.106642425
123	0xbaf9f413	-0.0019069932
124	0x3d133079	0.0359349
125	0x3c6de673	0.014520275
126	0xbdb20ebc	-0.086942166
127	0x3dfd4a7d	0.12367723
128	0xbbd5dd27	-0.0065266076
129	0x3b127583	0.0022347874
130	0x3d744a85	0.05964138
131	0xbd7b5782	-0.06136275
132	0x3e054515	0.13014634
133	0x3c62d08d	0.013843668
134	0x3addc398	0.0016919253
135	0x3d394f71	0.045241777
136	0xbcb43266	-0.021996688
137	0xbd39a0af	-0.045319255
138	0x3b21aae3	0.0024668507
139	0xbbdc35d5	-0.0067202845
140	0x3d5c9771	0.053855363
141	0xbc3e685b	-0.01162156
142	0x3df70070	0.1206063
143	0xbc1169f4	-0.008875359
144	0xbcb5b0c1	-0.02217901
145	0x3ce4c920	0.027927935
146	0xbdaf2753	-0.085524224
147	0x3dfc3872	0.123154536
148	0x3c9904fe	0.018679138
149	0xbba46fe7	-0.0050182226
150	0xbca3da1e	-0.020001467
151	0xb9b6890f	-0.00034815862
152	0x3cfbae6a	0.030722816
153	0xbafdacf0	-0.0019353908
154	0x3a939838	0.0011260575
155	0x3d09f3c7	0.03367975
156	0xbe22279f	-0.15835427
157	0xbced5d38	-0.028975114
158	0x3b7e0f20	0.003876634
159	0xbd511d7b	-0.051053505
160	0x3d11caee	0.03559392
161	0xbaf2d772	-0.0018527342
162	0x3e1a54d0	0.15071416
163	0x3c102013	0.00879671
164	0x3e0bd18b	0.13654153
165	0xbc26b044	-0.010173861
166	0xbd8058aa	-0.06266911
167	0x3cbce52e	0.0230585
168	0x3d0a9de0	0.033841968
169	0x3c9615f3	0.018321013
170	0x3e28f964	0.16501385
171	0xbe1a47c3	-0.15066437
172	0x3e55be32	0.20873335
173	0xbcdd7181	-0.027031662
174	0x3b449959	0.002999863
175	0x3d1c8b04	0.038218513
176	0x3d199e6a	0.03750459
177	0xbd7321f9	-0.05935857
178	0xb954dae2	-0.00020299436
179	0x3d51c56b	0.051213663
180	0xbce174d1	-0.027521523
181	0x3a9f1e2d	0.001213973
182	0xbe16b28e	-0.1471655
183	0xbbd58a33	-0.006516719
184	0xbe102917	-0.14078175
185	0x3c0bcc64	0.008532617
186	0x3d4c5ef0	0.049895227
187	0xbc90c323	-0.017671173
188	0xbd1c1f07	-0.038115527
189	0xbc8f9180	-0.017525434
190	0xbe22ccbb	-0.15898411
191	0x3e047176	0.12933907
192	0xbe55785f	-0.20846699
193	0x3d02b86f	0.03191417
194	0xbb40ea9f	-0.002943672
195	0xbd07526e	-0.033037595
196	0xbcbd3d93	-0.02310065
197	0x3d4e4b10	0.050364554
198	0x3894fcda	7.104287e-05
199	0xbd203587	-0.039113548
200	0xbc858e51	-0.016303213
201	0x3b11e72d	0.0022263036
202	0xbdcf0a5b	-0.10109397
203	0xbaabd734	-0.00131104
204	0xbda69b09	-0.08135039
205	0x3b74a2f5	0.0037328575
206	0x3d107c0a	0.035274543
207	0xbc7d7cf6	-0.015471688
208	0xbcf820cd	-0.030289078
209	0xbc039785	-0.008031731
210	0xbdb914b9	-0.09037156
211	0x3dacfa74	0.08446208
212	0xbdf82236	-0.121159
213	0x3cda42d5	0.026643196
214	0xbb7401b4	-0.003723246
215	0xbc9efe80	-0.019408464
216	0x3c09a1a0	0.008400351
217	0x3cf2aa1b	0.029622128
218	0x39c7548f	0.0003801924
219	0xbc8e649d	-0.01738196
220	0x3a156275	0.000569857
221	0x3bca09fb	0.0061657405
222	0xbe103f00	-0.14086533
223	0x3baee332	0.0053371424
224	0xbdee10b2	-0.11624278
225	0x3c91d371	0.017801018
226	0x3cf6ce0a	0.030127544
227	0x3c2f6429	0.010705032
228	0xbd88e6dd	-0.06684659
229	0xb899dc29	-7.3366165e-05
230	0xbde7b0df	-0.11313032
231	0x3e1f05c8	0.15529549
232	0xbe14c6c4	-0.14528948
233	0x3d98fc9a	0.07470055
234	0xbc869b19	-0.016431378
235	0xbc36a6be	-0.011148153
236	0x3d341a65	0.043970484
237	0x3cd0acb1	0.02547297
238	0x3b6d5c96	0.0036218516
239	0xbd064118	-0.032776922
240	0xbe2caee7	-0.16863595
241	0x3c316ebb	0.010829623
242	0x3ea37678	0.31926322
243	0xbb173e92	-0.0023078066
244	0x3d3352d8	0.043780178
245	0xbbfe4a53	-0.007760325
246	0x3cde7976	0.027157526
247	0xbea5eb79	-0.32406214
248	0x3e928cc1	0.28623012
249	0x3c093ee8	0.008376814
250	0xbcd905ac	-0.026491962
251	0xbdc271bd	-0.0949435
252	0xbe78bbe8	-0.2429043
253	0xbe77630f	-0.24158882
254	0xbc1f77c0	-0.0097331405
255	0xbd8d0bb5	-0.068869986

weight_ih_l0 f4 [80, 20]
0	0xba15b1cb	-0.0005710392
1	0x3a3d4d33	0.00072212814
2	0x3b164d63	0.002293431
3	0x3aa7a4cb	0.0012790201
4	0x3b9b783f	0.004744559
5	0xb98c897b	-0.00026805312
6	0x3a043868	0.00050438056
7	0xbb9784af	-0.0046239714
8	0x3a32de1a	0.0006823257
9	0x3adbc40f	0.0016766804
10	0x3bbb5833	0.0057173013
11	0xbac39ac8	-0.0014923448
12	0x3b70c010	0.0036735572
13	0x39f44927	0.0004659381
14	0xba976337	-0.0011549954
15	0x3a105ee6	0.0005507305
16	0x3bb0f702	0.0054005394
17	0xbaf02d9e	-0.0018324142
18	0x392d11b7	0.00016505165
19	0x3b2c8c42	0.0026328717
20	0xba05b970	-0.00051011797
21	0x3a2c7d7c	0.0006579978
22	0x3afe9c1e	0.0019425189
23	0x3a9ae3b8	0.0011817133
24	0x3b89d1e5	0.0042059296
25	0xb98923f0	-0.00026157452
26	0x39daea39	0.0004175471
27	0xbb8a901f	-0.0042286064
28	0x3a282539	0.0006414238
29	0x3acbe910	0.0015557129
30	0x3ba92557	0.005161922
31	0xbabe41e8	-0.0014515491
32	0x3b3b7ff9	0.0028610213
33	0x3a080104	0.00051881396
34	0xba8b38c8	-0.001062178
35	0x3a0bad10	0.00053282175
36	0x3ba4b99f	0.0050270106
37	0xbae2f17c	-0.00173144
38	0x392046a5	0.00015285106
39	0x3b210ff2	0.0024576155
40	0xba0431f3	-0.00050428434
41	0x3a3e7afc	0.0007266251
42	0x3b11add3	0.0022228851
43	0x3aad2864	0.001321089
44	0x3b9c2eb2	0.0047663087
45	0xb99adc09	-0.00029537108
46	0x39aeae26	0.00033317617
47	0xbb9a7e85	-0.0047147893
48	0x3a30f3d8	0.0006750203
49	0x3ae3ba29	0.0017374206
50	0x3bbf4933	0.0058375834
51	0xbb000a7a	-0.0019537495
52	0x3b61343e	0.0034363414
53	0x3a05d905	0.0005105886
54	0xba97d046	-0.0011582456
55	0x3a1f9c7f	0.00060886884
56	0x3bbd411c	0.005775584
57	0xbb02c5d6	-0.0019954345
58	0x392e12e9	0.00016600978
59	0x3b36e838	0.002790941
60	0xba147ae9	-0.0005664067
61	0x3a36dd0b	0.0006975687
62	0x3b178064	0.0023117298
63	0x3aa3984f	0.0012481305
64	0x3ba35107	0.0049840244
65	0xb9b04627	-0.00033621604
66	0x3a259b2f	0.00063173746
67	0xbb93c91d	-0.0045100586
68	0x3a41dab9	0.0007394958
69	0x3ade35c3	0.0016953278
70	0x3bbf99c1	0.0058471863
71	0xbaad433c	-0.001321889
72	0x3b6cdc1f	0.0036141945
73	0x399c1210	0.00029768096
74	0xba8d2aa0	-0.001077015
75	0x3a168774	0.000574223
76	0x3babc468	0.0052419193
77	0xbaee8f90	-0.0018200744
78	0x3921ba49	0.00015423553
79	0x3b287d52	0.0025709462
80	0xba074952	-0.0005160767
81	0x3a421983	0.0007404314
82	0x3b1e4946	0.002415256
83	0x3ab08bca	0.0013469395
84	0x3b96b9eb	0.0045998
85	0xb9b65869	-0.00034779616
86	0x398651cf	0.00025619424
87	0xbb9fe70c	-0.004879838
88	0x3a3fc952	0.0007316071
89	0x3ae98962	0.0017817433
90	0x3bc6e565	0.0060698264
91	0xbb154b70	-0.002278056
92	0x3b5d5cb3	0.0033777177
93	0x3a05d4ed	0.0005105276
94	0xba966408	-0.0011473903
95	0x3a28fa92	0.00064460293
96	0x3bbce53e	0.0057646325
97	0xbb07f7fb	-0.0020747173
98	0x39310fd1	0.00016885927
99	0x3b393e2f	0.0028265824
100	0x39d60267	0.0004081905
101	0xb93cbce9	-0.00017999452
102	0x3b8e9a80	0.004351914
103	0xb91fe2e4	-0.00015247945
104	0x3bfe2e52	0.0077569867
105	0xb9d5df48	-0.00040792883
106	0x3aab3aeb	0.0013063824
107	0x3afe6e48	0.0019411528
108	0x3a1ee100	0.00060607493
109	0x399845b3	0.0002904363
110	0x3bc14842	0.0058985064
111	0x3a8f107e	0.0010914949
112	0x3c483aac	0.01222102
113	0xbac25a41	-0.0014827923
114	0x39a07697	0.00030605934
115	0x3a448992	0.0007497306
116	0x39ad2c46	0.00033030118
117	0xb9712a18	-0.00022999232
118	0xb89eb6fb	-7.56811e-05
119	0x39dc09b5	0.00041968902
120	0xba160904	-0.00057233893
121	0x3a43fb34	0.0007476092
122	0x3b23a88d	0.002497229
123	0x3aa906b9	0.001289568
124	0x3bb525ad	0.005528173
125	0xb9c5056b	-0.00037578805
126	0x3a4f1cd1	0.00079007173
127	0xbb98d860	-0.004664466
128	0x3a3ec00d	0.00072765426
129	0x3aef04f3	0.0018235728
130	0x3bce4fbd	0.0062961266
131	0xba8a9601	-0.0010573269
132	0x3b985e97	0.004649948
133	0x39ae4d43	0.0003324543
134	0xba91eddb	-0.0011133509
135	0x3a231a33	0.00062218605
136	0x3bb5faa8	0.005553562
137	0xbaf57c20	-0.0018729009
138	0x3936ee7e	0.00017445718
139	0x3b301440	0.0026867539
140	0x3aae1c20	0.0013283528
141	0xb9f3ecca	-0.00046524993
142	0x3b8c73db	0.004286272
143	0xb9ad41bc	-0.00033046107
144	0x3b98b819	0.004660618
145	0xb9ba174b	-0.0003549404
146	0xba99efc7	-0.0011744433
147	0x3b4c87e3	0.0031208924
148	0x3a6517a2	0.00087391783
149	0xb94137cf	-0.00018426705
150	0x3b8d1c75	0.004306371
151	0xbb643874	-0.0034823688
152	0x3c0b6f29	0.008510389
153	0xbac326d3	-0.001488889
154	0x3a31de27	0.00067851174
155	0x3a8d0879	0.0010759971
156	0xb9ccf870	-0.00039095012
157	0xba669257	-0.000879561
158	0xb8ef8eb6	-0.0001142299
159	0x3a1e3c37	0.00060361944
160	0xba0c8ec5	-0.00053618505
161	0x3a359bf2	0.000692784
162	0x3b092890	0.0020928718
163	0x3aa40a13	0.0012515209
164	0x3b8a5b29	0.004222293
165	0xb99849a8	-0.00029046577
166	0x39dbc2f9	0.000419162
167	0xbb943c82	-0.0045238147
168	0x3a2d8ecd	0.0006620705
169	0x3ad93c8d	0.0016573832
170	0x3bb4e40c	0.0055203494
171	0xbad8253e	-0.0016490591
172	0x3b4c1fab	0.0031146805
173	0x3a12faa7	0.0005606808
174	0xba916196	-0.0011091705
175	0x3a11976f	0.00055538764
176	0x3baf06aa	0.0053413706
177	0xbaf14ad1	-0.0018409138
178	0x3926daea	0.00015912545
179	0x3b293041	0.0025816115
180	0xba0eba44	-0.0005444626
181	0x3a443c32	0.00074857764
182	0x3b24bf5b	0.002513847
183	0x3ab15145	0.0013528249
184	0x3baa4a12	0.005196818
185	0xb9a6993e	-0.00031776162
186	0x39ca9868	0.00038641994
187	0xbb9fc53e	-0.004875808
188	0x3a3a56d7	0.0007108277
189	0x3aed4d84	0.0018104766
190	0x3bcd5e4f	0.006267346
191	0xbb00b178	-0.001963703
192	0x3b80b662	0.0039279917
193	0x39e72c77	0.00044092882
194	0xba9b1ae1	-0.0011833572
195	0x3a26af3a	0.0006358508
196	0x3bc067d2	0.0058717513
197	0xbb056609	-0.0020355007
198	0x393236c5	0.00016995806
199	0x3b3a7d10	0.002845589
200	0xba06a3e4	-0.0005136116
201	0x3a3675cc	0.0006960302
202	0x3b13434a	0.0022470527
203	0x3aa683dd	0.0012704093
204	0x3b91bd45	0.0044476115
205	0xb9ab85cb	-0.00032715345
206	0x3999702e	0.00029266014
207	0xbb953dbe	-0.0045544794
208	0x3a340be3	0.00068682263
209	0x3add61e1	0.0016890132
210	0x3bbbbd41	0.005729348
211	0xbb0c3f2c	-0.0021399958
212	0x3b5369f4	0.0032259198
213	0x39f35389	0.0004641081
214	0xba8f9910	-0.001095565
215	0x3a22caf8	0.0006210054
216	0x3bb3fa17	0.0054924595
217	0xbaff24df	-0.0019465944
218	0x392750cd	0.00015956462
219	0x3b30a5c3	0.002695427
220	0xba02c8f0	-0.00049890485
221	0x3a3370e2	0.0006845129
222	0x3b0727db	0.002062312
223	0x3aa3160b	0.0012442482
224	0x3b8bd109	0.0042668623
225	0xb99fbb7b	-0.00030466527
226	0x39be4b03	0.00036295512
227	0xbb92641a	-0.0044674994
228	0x3a24b6b3	0.0006283328
229	0x3ad66e34	0.0016359747
230	0x3bb62ec7	0.0055597755
231	0xbae8e086	-0.0017767109
232	0x3b4eee05	0.0031574976
233	0x3a0fa1a2	0.0005479102
234	0xba8ecb1f	-0.0010894275
235	0x3a16c368	0.00057511637
236	0x3bb1b118	0.0054227225
237	0xbaf38415	-0.0018578792
238	0x3923c614	0.00015618681
239	0x3b2b5e29	0.0026148653
240	0x3bd4fb22	0.006499664
241	0x3ac44ba8	0.0014976161
242	0x3d11c3c9	0.035587106
243	0x3ba5bd7b	0.005057988
244	0x3d08ec65	0.03342857
245	0x39f9cc27	0.00047645086
246	0xbc36e9a2	-0.011164101
247	0xbb0cfb56	-0.0021512113
248	0x3bf763a1	0.0075497185
249	0x3c05926a	0.008152584
250	0x3d20b46e	0.03923457
251	0xbc817e4f	-0.015807299
252	0x3d38364c	0.044973657
253	0xba67c945	-0.0008841942
254	0xbb6ec94d	-0.0036435903
255	0x3c225960	0.009909004

weight_hh_l0 f4 [80, 20]
0	0x3d5c5497	0.05379161
1	0xbd5c87d5	-0.053840477
2	0x3d5bff25	0.05371012
3	0xbd5cc466	-0.053898238
4	0xbd5c4281	-0.05377436
5	0x3c54cdf5	0.012988557
6	0xbd5bbf1e	-0.05364906
7	0x3bd23f93	0.00641627
8	0x3d5c8a9d	0.05384313
9	0x3d5be2f2	0.05368323
10	0xbd5cec8e	-0.053936534
11	0x3d5cd1be	0.053910963
12	0x3cec2b72	0.02882931
13	0x3c50eb0a	0.01275135
14	0xbceafa45	-0.028683791
15	0x3bac20de	0.0052529415
16	0xbcf19720	-0.029491007
17	0xba0d73ee	-0.0005395998
18	0x3bbb84fa	0.005722639
19	0x3d5cb104	0.053879753
20	0x3d5a6ab0	0.0533244
21	0xbd5b018e	-0.05346828
22	0x3d5a0113	0.05322368
23	0xbd5ad4a8	-0.05342546
24	0xbd5aa006	-0.053375266
25	0x3c4cf2dd	0.012509075
26	0xbd596264	-0.05307235
27	0x3bce7d78	0.006301578
28	0x3d5b035a	0.053469993
29	0x3d5a4398	0.05328712
30	0xbd5b4776	-0.053534947
31	0x3d5b284d	0.05350523
32	0x3ceabf56	0.02865569
33	0x3c564dbf	0.01308006
34	0xbce8e214	-0.028428115
35	0x3bab0059	0.0052185473
36	0xbcf1daa1	-0.029523196
37	0xba2b9fce	-0.0006546945
38	0x3bb611f0	0.0055563375
39	0x3d5ae966	0.053445242
40	0x3d5cc05a	0.05389438
41	0xbd5d252f	-0.05399054
42	0x3d5cbc5e	0.05389058
43	0xbd5d3c7f	-0.05401277
44	0xbd5ce222	-0.053926595
45	0x3c5635ba	0.013074333
46	0xbd5c6d57	-0.053815212
47	0x3bd2e653	0.006436148
48	0x3d5d27c6	0.05399301
49	0x3d5c7b57	0.053828564
50	0xbd5d8b3f	-0.054087874
51	0x3d5d5f91	0.054046217
52	0x3ce9fa05	0.028561601
53	0x3c4d6f14	0.01253869
54	0xbcec1e94	-0.028823175
55	0x3ba924c6	0.0051618544
56	0xbcef767b	-0.0292313
57	0xba3b1547	-0.00071366545
58	0x3bbbd702	0.005732418
59	0x3d5d2ade	0.05399596
60	0x3d5a67df	0.053321715
61	0xbd5aba83	-0.053400528
62	0x3d5a11bd	0.053239573
63	0xbd5adfb5	-0.053436
64	0xbd5a6743	-0.053321134
65	0x3c548d1b	0.012973095
66	0xbd5a1c75	-0.053249795
67	0x3bcf63b9	0.0063290265
68	0x3d5ac020	0.05340588
69	0x3d5a27f9	0.053260777
70	0xbd5b1c91	-0.05349404
71	0x3d5aee20	0.05344975
72	0x3ceaf810	0.028682739
73	0x3c58f35c	0.013241615
74	0xbce432af	-0.0278562
75	0x3bae95f6	0.0053279353
76	0xbcf09c81	-0.029371502
77	0xb970feec	-0.0002298315
78	0x3bb886ce	0.0056313043
79	0x3d5ab389	0.053393874
80	0x3d5c8aec	0.053843424
81	0xbd5c78d0	-0.053826153
82	0x3d5c65ec	0.053808138
83	0xbd5d108e	-0.053970866
84	0xbd5c31b3	-0.053758334
85	0x3c541eea	0.012946824
86	0xbd5ce22b	-0.053926628
87	0x3bcf5243	0.006326945
88	0x3d5c7793	0.053824972
89	0x3d5c1325	0.053729195
90	0xbd5ce3f0	-0.053928316
91	0x3d5cc900	0.053902626
92	0x3ce9fe57	0.028563662
93	0x3c5025fb	0.012704368
94	0xbcea652d	-0.028612697
95	0x3bad445b	0.0052876896
96	0xbcef3d6e	-0.029204097
97	0xba87fdeb	-0.0010375356
98	0x3bb9b501	0.0056673293
99	0x3d5ccd2a	0.053906597
100	0x3d9a9a6e	0.075489864
101	0xbd9af982	-0.07567121
102	0x3d9a651c	0.07538816
103	0xbd9ad845	-0.075607814
104	0xbd9aabee	-0.07552324
105	0x3a9f71d7	0.0012164664
106	0xbd9a3cfa	-0.075311616
107	0xbbb99519	-0.005663526
108	0x3d9ad250	0.07559645
109	0x3d9a723a	0.07541318
110	0xbd9b07cd	-0.07569847
111	0x3d9aee54	0.07564989
112	0x3d121534	0.035664752
113	0x3d0318be	0.032006018
114	0xbd19a821	-0.037513856
115	0x3c3098d7	0.010778627
116	0xbd53e316	-0.051730238
117	0xbccffd8c	-0.025389455
118	0xbbb28ae0	-0.005448684
119	0x3d9ac58b	0.075572096
120	0x3d5a1955	0.053246815
121	0xbd5aaa7f	-0.053385254
122	0x3d59c924	0.05317034
123	0xbd5aa67c	-0.053381428
124	0xbd5a4506	-0.053288482
125	0x3c538d45	0.012912099
126	0xbd5983aa	-0.05310408
127	0x3bcba351	0.006214537
128	0x3d5a9c97	0.053371992
129	0x3d59ece8	0.053204447
130	0xbd5b097d	-0.053475846
131	0x3d5ac848	0.05341366
132	0x3ce7dd0c	0.028303646
133	0x3c563dff	0.013076304
134	0xbcdef216	-0.027215045
135	0x3bad2d7f	0.0052849646
136	0xbced7a3d	-0.028988952
137	0xb9ec819c	-0.00045109994
138	0x3bb072f7	0.0053847986
139	0x3d5a78eb	0.053337973
140	0x3d6dae91	0.058027808
141	0xbd6dddb7	-0.058072772
142	0x3d6d8431	0.057987396
143	0xbd6dd11f	-0.05806076
144	0xbd6df9f8	-0.058099717
145	0x3c175cc9	0.00923843
146	0xbd6d0af2	-0.057871766
147	0x3b1caa37	0.0023905167
148	0x3d6dfc43	0.058101904
149	0x3d6dbbd9	0.058040474
150	0xbd6e26d4	-0.058142498
151	0x3d6e056c	0.05811064
152	0x3c9404a3	0.018068617
153	0x3cfe1bf7	0.031019194
154	0xbc1ceccc	-0.009577941
155	0x3b884057	0.0041580605
156	0xbd09e292	-0.03366334
157	0xbb37dca9	-0.0028055108
158	0x3b59f74c	0.0033258973
159	0x3d6de146	0.058076166
160	0x3d5b84a2	0.053593285
161	0xbd5bacd4	-0.05363162
162	0x3d5b3d2f	0.053525146
163	0xbd5bf4b4	-0.053700164
164	0xbd5b59f1	-0.05355257
165	0x3c5107e8	0.012758233
166	0xbd5ae0d0	-0.053437054
167	0x3bd3c29a	0.0064624073
168	0x3d5ba952	0.053628273
169	0x3d5b2802	0.05350495
170	0xbd5c01c9	-0.05371264
171	0x3d5bef69	0.053695116
172	0x3cee8132	0.02911434
173	0x3c508f16	0.012729427
174	0xbce72ac2	-0.02821863
175	0x3ba77163	0.0051099523
176	0xbcf0c827	-0.029392315
177	0xba27bf5f	-0.0006399061
178	0x3bbb339b	0.005712939
179	0x3d5be364	0.053683653
180	0x3d5cb766	0.05388584
181	0xbd5c8ab6	-0.053843223
182	0x3d5c148f	0.053730544
183	0xbd5cfffa	-0.053955056
184	0xbd5c424f	-0.053774174
185	0x3c56cef7	0.013110868
186	0xbd5cc0aa	-0.053894676
187	0x3bd01f1b	0.0063513643
188	0x3d5c8884	0.05384113
189	0x3d5c2c2e	0.05375307
190	0xbd5cf5df	-0.05394542
191	0x3d5cd536	0.05391427
192	0x3ce920b2	0.028457973
193	0x3c53d4c9	0.01292915
194	0xbceb1ea0	-0.028701127
195	0x3bb007bd	0.005372016
196	0xbcef8c24	-0.029241629
197	0xba35b4e4	-0.0006931557
198	0x3bba5ce2	0.005687342
199	0x3d5cd6c2	0.053915747
200	0x3d5b5dc8	0.053556234
201	0xbd5b95bf	-0.053609606
202	0x3d5b529b	0.053545576
203	0xbd5bddf7	-0.05367848
204	0xbd5b5050	-0.05354339
205	0x3c57f9eb	0.013182144
206	0xbd5b42d9	-0.053530548
207	0x3bd649d4	0.0065395627
208	0x3d5b9e49	0.05361775
209	0x3d5b0897	0.05347499
210	0xbd5bff3c	-0.053710207
211	0x3d5bd461	0.053669337
212	0x3ceb0be9	0.028692203
213	0x3c57e1cc	0.013176393
214	0xbce67d65	-0.028135965
215	0x3bad305b	0.0052853054
216	0xbcf1021e	-0.029419955
217	0xb99b3a88	-0.00029607513
218	0x3bbf9c38	0.00584748
219	0x3d5ba8a8	0.05362764
220	0x3d5bdd72	0.053677984
221	0xbd5bf626	-0.053701542
222	0x3d5bcf69	0.0536646
223	0xbd5c5210	-0.0537892
224	0xbd5babb0	-0.05363053
225	0x3c523e53	0.012832242
226	0xbd5b9d03	-0.053616535
227	0x3bd421f6	0.006473775
228	0x3d5bf507	0.053700473
229	0x3d5b6bf4	0.05356975
230	0xbd5c5076	-0.05378767
231	0x3d5c42e8	0.053774744
232	0x3cec7fba	0.028869499
233	0x3c566397	0.0130852675
234	0xbce9a455	-0.028520742
235	0x3ba99096	0.0051747067
236	0xbcf28e03	-0.029608732
237	0xb9f38f1c	-0.00046455197
238	0x3bbc5c39	0.0057482985
239	0x3d5c27bd	0.053748835
240	0x3e1e5b55	0.15464528
241	0xbe1ee488	-0.15516865
242	0x3e1e4808	0.15457165
243	0xbe1e848d	-0.15480252
244	0xbe1e7175	-0.15472968
245	0x3ca5ff28	0.02026327
246	0xbe1dabda	-0.15397587
247	0xbb3df3f6	-0.0028984523
248	0x3e1eb8aa	0.15500131
249	0x3e1e25c2	0.15444091
250	0xbe1ef4d0	-0.15523076
251	0x3e1eec31	0.15519787
252	0x3b628d00	0.0034568906
253	0x3c16876a	0.009187559
254	0xbdcff490	-0.101540685
255	0x3c1fe23a	0.009758526

bias_ih_l0 f4 [80]
0	0x3e048cfa	0.12944403
1	0x3e055abc	0.13022894
2	0x3e0446ec	0.1291768
3	0x3e04812a	0.12939897
4	0x3e03e53d	0.12880416
5	0x3de27b8e	0.110587224
6	0x3e02513b	0.127263
7	0x3da95c21	0.08269525
8	0x3e054dfc	0.1301803
9	0x3e03c795	0.12869103
10	0x3e0505ec	0.1299054
11	0x3e054b1e	0.13016936
12	0x3e9980f9	0.2998121
13	0x3e0fee71	0.14055802
14	0x3e90f139	0.28309038
15	0x3db90857	0.09034794
16	0x3e0fe81a	0.14053383
17	0x3dde524b	0.1085554
18	0x3da02b40	0.07820749
19	0x3e04db55	0.12974294
20	0x3e00479c	0.12527317
21	0x3e004540	0.12526417
22	0x3e003464	0.12519985
23	0x3e0019be	0.1250982
24	0x3e006644	0.12539011
25	0x3ddd47de	0.10804723
26	0x3dfea2a3	0.12433364
27	0x3d84eda9	0.064906426
28	0x3e006a3f	0.1254053
29	0x3e0035fd	0.12520595
30	0x3e0097a7	0.12557851
31	0x3e008e90	0.12554383
32	0x3e0e81fd	0.13916774
33	0x3e1e6291	0.15467288
34	0x3df4aeb8	0.119473875
35	0x3d8e80fc	0.069581956
36	0x3e1991cf	0.14997028
37	0x3dd24a1a	0.1026804
38	0x3d7b7c8f	0.061398085
39	0x3e008214	0.12549621
40	0x3e85461f	0.2603006
41	0xbe8672ce	-0.26259464
42	0x3e84c012	0.25927788
43	0xbe85cd7f	-0.26133344
44	0xbe85002f	-0.25976703
45	0x3d524aee	0.05134099
46	0xbe82cc9f	-0.25546739
47	0x3d85cd3f	0.06533288
48	0x3e86548e	0.26236385
49	0x3e84be3b	0.25926384
50	0xbe8627cb	-0.26202235
51	0x3e864e94	0.26231825
52	0x3dded277	0.10879987
53	0xbd0b6207	-0.034029033
54	0xbe0ede78	-0.13952053
55	0x3d752b2c	0.059855625
56	0xbe1085a1	-0.14113475
57	0x3dad7d46	0.0847116
58	0x3cfe5599	0.031046676
59	0x3e85c7f4	0.26129115
60	0x3e590fea	0.21197477
61	0x3e59df57	0.21276604
62	0x3e58f3c3	0.21186738
63	0x3e594f5e	0.21221682
64	0x3e58ff5d	0.21191163
65	0x3e085ad2	0.13315895
66	0x3e56f4c7	0.20991813
67	0x3dc4688b	0.095902525
68	0x3e59f070	0.21283126
69	0x3e58b725	0.21163614
70	0x3e5a199e	0.21298835
71	0x3e5a384a	0.21310535
72	0x3e9987f7	0.29986545
73	0x3e348090	0.17627168
74	0x3e8e749b	0.27823338
75	0x3dc7bd9c	0.09752962
76	0x3e30e225	0.17273767
77	0x3e047d32	0.12938383
78	0x3db88195	0.09009091
79	0x3e59e456	0.2127851

bias_hh_l0 f4 [80]
0	0x3e048cfa	0.12944403
1	0x3e055ac1	0.13022901
2	0x3e0446eb	0.12917678
3	0x3e04811b	0.12939875
4	0x3e03e545	0.12880428
5	0x3de27b86	0.110587165
6	0x3e02513e	0.12726304
7	0x3da95c1f	0.08269524
8	0x3e054dfc	0.1301803
9	0x3e03c77f	0.1286907
10	0x3e0505e1	0.12990524
11	0x3e054b2b	0.13016956
12	0x3e9980f9	0.2998121
13	0x3e0fee71	0.14055802
14	0x3e90f115	0.2830893
15	0x3db90857	0.09034794
16	0x3e0fe81a	0.14053383
17	0x3dde5247	0.10855537
18	0x3da02b47	0.078207545
19	0x3e04db59	0.129743
20	0x3e00479e	0.1252732
21	0x3e004538	0.12526405
22	0x3e00345b	0.12519972
23	0x3e0019d0	0.12509847
24	0x3e00663e	0.12539002
25	0x3ddd47d1	0.108047135
26	0x3dfea2a5	0.12433366
27	0x3d84edcb	0.06490668
28	0x3e006a3c	0.12540525
29	0x3e0035f4	0.12520581
30	0x3e0097a6	0.1255785
31	0x3e008e90	0.12554383
32	0x3e0e8360	0.13917303
33	0x3e1e6291	0.15467288
34	0x3df4e620	0.11957955
35	0x3d8e80fc	0.069581956
36	0x3e1991cf	0.14997028
37	0x3dd24a17	0.10268038
38	0x3d7b7c8a	0.061398067
39	0x3e008211	0.12549616
40	0x3e854602	0.26029974
41	0xbe8672d0	-0.2625947
42	0x3e84c006	0.25927752
43	0xbe85cd6f	-0.26133296
44	0xbe850018	-0.25976634
45	0x3d1dfa59	0.03856883
46	0xbe848510	-0.2588277
47	0x3d40c549	0.047063146
48	0x3e865485	0.26236358
49	0x3e84be33	0.2592636
50	0xbe8627c2	-0.26202208
51	0x3e864eb4	0.2623192
52	0x3e2c9941	0.16855337
53	0xbcc797ec	-0.024364434
54	0xbe232ec3	-0.15935807
55	0x3d158bfd	0.036510456
56	0xbe106d34	-0.14104158
57	0x3c37b642	0.011212887
58	0x3d09f31c	0.033679113
59	0x3e85c7f9	0.2612913
60	0x3e590fea	0.21197477
61	0x3e59df57	0.21276604
62	0x3e58f3c3	0.21186738
63	0x3e594f57	0.21221672
64	0x3e58ff49	0.21191134
65	0x3e085acc	0.13315886
66	0x3e56f4ce	0.20991823
67	0x3dc468bd	0.0959029
68	0x3e59f058	0.2128309
69	0x3e58b71f	0.21163605
70	0x3e5a19b0	0.21298862
71	0x3e5a384b	0.21310537
72	0x3e9987f7	0.29986545
73	0x3e348090	0.17627168
74	0x3e8e749b	0.27823338
75	0x3dc7bd9c	0.09752962
76	0x3e30e225	0.17273767
77	0x3e047d31	0.12938382
78	0x3db8819a	0.090090945
79	0x3e59e45e	0.21278521

weight_ih_l0_reverse f4 [80, 20]
0	0x3a7eeb25	0.00097243703
1	0xb8987ac4	-7.270792e-05
2	0x3b7ccf74	0.00385758
3	0x39169715	0.00014361397
4	0x3ac9987b	0.0015380526
5	0x3a12b6ac	0.0005596678
6	0xbad2118b	-0.0016026957
7	0x3aeaf443	0.0017925579
8	0x3a2347ac	0.00062286365
9	0x39d697cf	0.00040930367
10	0x3ad26609	0.0016052137
11	0xb84c5d01	-4.8724007e-05
12	0x3b3a2d9c	0.0028408533
13	0x38d2a19e	0.00010043684
14	0xb9a77e5b	-0.00031946864
15	0x3a80a338	0.0009814268
16	0xbb0d32ee	-0.002154525
17	0xba9500e6	-0.0011368066
18	0x390c6f91	0.00013393002
19	0xba02fbfa	-0.0004996654
20	0xb95edbe1	-0.00021253481
21	0x38ec1cef	0.00011258746
22	0x3b3e74b5	0.0029061262
23	0x399c9e46	0.00029872562
24	0x3b20a546	0.0024512573
25	0x37af64d5	2.090858e-05
26	0xb9690841	-0.00022223686
27	0xbaa4217a	-0.0012522184
28	0x3ab7556d	0.0013987251
29	0x3a12a25f	0.0005593653
30	0x3b18f967	0.0023342015
31	0xba6d74ff	-0.00090582663
32	0x3b0f13e1	0.0021831917
33	0xba7107dc	-0.00091945915
34	0xb9a6a775	-0.00031786753
35	0x39d678a4	0.00040907145
36	0xba53bac1	-0.000807684
37	0xba5f1235	-0.0008509488
38	0x38aab87c	8.1405946e-05
39	0x39f34c47	0.00046405403
40	0x3a732c0c	0.0009276278
41	0xb93b12b8	-0.00017840683
42	0x3ba0cfcd	0.0049075843
43	0xb69e52b1	-4.7183935e-06
44	0x3b01dba4	0.0019814754
45	0x39d4f660	0.00040619355
46	0xbaea73f9	-0.0017887346
47	0x3aed9b1e	0.0018127894
48	0x3aaa51dd	0.0012994368
49	0x3982375a	0.00024836772
50	0x3af726e6	0.0018856197
51	0xba8ac1de	-0.0010586341
52	0x3b5f03b3	0.0034029305
53	0xba641c7e	-0.00087017554
54	0xb8e4b084	-0.00010904766
55	0x3a7c503f	0.0009624995
56	0xbb66e489	-0.0035231432
57	0xba954fc1	-0.0011391566
58	0x38cae783	9.675233e-05
59	0xba0b17ce	-0.00053059764
60	0x3a86d8f4	0.0010288046
61	0xb94cc9a3	-0.00019530072
62	0x3ba42d88	0.0050103106
63	0xb7ce32b1	-2.4580719e-05
64	0x3af5fc49	0.0018767203
65	0x39d15e7d	0.00039933986
66	0xbaf56d41	-0.0018724577
67	0x3b0d6470	0.0021574758
68	0x3a9e723d	0.0012088489
69	0x3961a720	0.00021519931
70	0x3addafc1	0.0016913341
71	0xba8c99db	-0.0010727005
72	0x3b5c8757	0.0033650005
73	0xba334415	-0.0006838453
74	0xb8b4b487	-8.616695e-05
75	0x3a79b428	0.00095254416
76	0xbb608781	-0.0034260454
77	0xba984d44	-0.0011619707
78	0x38beb326	9.093275e-05
79	0xba03ddd7	-0.000503031
80	0x3a2d8974	0.00066199084
81	0xb9cd8ce0	-0.00039205607
82	0x3bf41fbe	0.007450073
83	0xb9b1afa6	-0.0003389094
84	0x3b2f1d39	0.00267203
85	0x396af611	0.00022407646
86	0xbb13f650	-0.0022577234
87	0x3aeabb88	0.0017908672
88	0x3b443eba	0.0029944615
89	0xb8e7de62	-0.000110563604
90	0x3b07e861	0.0020737874
91	0xbb4bc939	-0.003109528
92	0x3b822cb3	0.0039726137
93	0xbb2a1336	-0.0025951392
94	0x39a18fe5	0.00030815523
95	0x3a4dac3b	0.0007845794
96	0xbbe12f85	-0.00687212
97	0xba8adf45	-0.0010595104
98	0x371b9630	9.273688e-06
99	0xba351c58	-0.00069088256
100	0x3a9363c4	0.0011244942
101	0xb8fb397e	-0.000119793214
102	0x3b88e787	0.004177991
103	0x38a0d269	7.6685865e-05
104	0x3adf536b	0.001703841
105	0x3a0886a0	0.0005208049
106	0xbaed792f	-0.001811778
107	0x3af27d16	0.0018500413
108	0x3a3f0398	0.0007286607
109	0x39a752f9	0.00031914542
110	0x3acd78c9	0.0015676256
111	0xba539d25	-0.00080724276
112	0x3b45ac19	0.0030162393
113	0xb7ac08cf	-2.05081e-05
114	0xb956ab61	-0.00020472474
115	0x3a873fa3	0.0010318648
116	0xbb179d80	-0.0023134649
117	0xba9c4c4d	-0.0011924595
118	0x38f9f906	0.000119196295
119	0xb9e81471	-0.00044265718
120	0xb9dc8b8f	-0.0004206565
121	0x3988ed74	0.00026116858
122	0x3bf763b0	0.0075497255
123	0x3a20405a	0.0006113105
124	0xbaa234f5	-0.0012375402
125	0x3a640e2a	0.00086996204
126	0xbb4a8f90	-0.0030908324
127	0xbb6177a0	-0.0034403577
128	0x3b85fd6b	0.0040890477
129	0x3a815f28	0.0009870278
130	0x39383ea8	0.00017570949
131	0xbb6820ce	-0.0035419944
132	0xbbacade8	-0.0052697547
133	0xbaef6404	-0.001826406
134	0xba8ff9cd	-0.0010984481
135	0x39d4f390	0.0004061726
136	0xbbe763be	-0.0070614507
137	0xbb177c7f	-0.0023114977
138	0x39a56b71	0.00031551303
139	0xb9b38a74	-0.00034244696
140	0x3aa9a2be	0.0012942178
141	0xb8e26625	-0.00010795546
142	0x3b74930b	0.003731909
143	0x38d273bf	0.0001003514
144	0x3ad76c2b	0.0016435435
145	0x3a013d35	0.000493008
146	0xbaef0ad3	-0.0018237479
147	0x3b1bdcd7	0.0023782754
148	0x3a07f299	0.0005185991
149	0x39bd782c	0.00036138424
150	0x3ad1b3f0	0.001599906
151	0xba02ee39	-0.00049946044
152	0x3b4dd55a	0.0031407685
153	0x387bd724	6.004343e-05
154	0xb9681387	-0.00022132519
155	0x3a8cdb2f	0.0010746474
156	0xbaf4c262	-0.0018673653
157	0xba9d4423	-0.0011998456
158	0x39061ac6	0.0001278921
159	0xb9d29fcc	-0.0004017338
160	0x3a98e90f	0.0011666137
161	0xb93b8a66	-0.00017885267
162	0x3b9b61d7	0.004741888
163	0x377dfcef	1.5138866e-05
164	0x3ae7881d	0.0017664466
165	0x39fb315a	0.0004791122
166	0xbb00e4a9	-0.0019667542
167	0x3b0b9245	0.00212969
168	0x3a6d7047	0.0009057563
169	0x398b141a	0.00026527123
170	0x3ad65a3f	0.00163538
171	0xba78b119	-0.0009486839
172	0x3b6819cb	0.0035415764
173	0xb9d34e3d	-0.00040303348
174	0xb91112e2	-0.00013835312
175	0x3a8b688b	0.0010636015
176	0xbb3c7d40	-0.0028761178
177	0xba9d96d9	-0.0012023106
178	0x38dccb71	0.000105283114
179	0xb9f8585f	-0.00047368088
180	0x3bf10cf2	0.0073562795
181	0x3a7f6f59	0.000974407
182	0xbbd54344	-0.006508263
183	0x3b2d218a	0.0026417696
184	0x3c5c3f20	0.013442785
185	0x3a6d9b37	0.00090639613
186	0x3aef30c0	0.0018248782
187	0x3c2c814e	0.0105288755
188	0xbc4a9437	-0.012364439
189	0x3b7d4302	0.0038644676
190	0x3c7a3ff4	0.015274037
191	0x3c6b753b	0.014371212
192	0x3cf21a6d	0.029553616
193	0x3c48dffa	0.012260431
194	0xbb1df3fb	-0.0024101723
195	0x3bae710e	0.0053235358
196	0x3cea39b1	0.028591963
197	0xbb5faf51	-0.0034131596
198	0x3a12d723	0.0005601516
199	0x3b5e1e98	0.0033892747
200	0xba371742	-0.00069843617
201	0x3a310a3b	0.00067535386
202	0xbb0b7173	-0.0021277338
203	0x3a733aae	0.00092784583
204	0x39857196	0.00025452365
205	0xb89e22e7	-7.540528e-05
206	0x3af6aad9	0.0018819227
207	0xbb5da528	-0.0033820365
208	0xbacd14fd	-0.0015646514
209	0x3a41be37	0.000739071
210	0x3a1a5ca0	0.0005888436
211	0x3b58b2a5	0.0033065465
212	0xba5fd8f7	-0.0008539105
213	0x3b09680e	0.0020966562
214	0xba8afc13	-0.0010603688
215	0xba1505a9	-0.00056847424
216	0x3bb61b30	0.00555744
217	0x36336307	2.673072e-06
218	0x38ecf214	0.000112984475
219	0x3ab40033	0.001373297
220	0xb9968eba	-0.0002871657
221	0x38eb6d37	0.00011226016
222	0x3b325412	0.0027210754
223	0x3998679f	0.00029068903
224	0x3b14b4f7	0.0022690871
225	0xb849bdf9	-4.809906e-05
226	0xb949944d	-0.000192241
227	0xbabdce6d	-0.0014481075
228	0x3aa3f674	0.0012509362
229	0x3a094648	0.0005236608
230	0x3b0f8f05	0.0021905315
231	0xba82a59a	-0.0009967566
232	0x3aefe639	0.0018302865
233	0xba5143a1	-0.0007982795
234	0xb99def68	-0.00030123745
235	0x399f5c24	0.00030395493
236	0xba13ea59	-0.00056425255
237	0xba42b78b	-0.0007427863
238	0x38861d0e	6.39503e-05
239	0x3a076f0f	0.00051663903
240	0x3a91cb17	0.0011123148
241	0xb925678d	-0.00015774202
242	0x3b95605b	0.0045586056
243	0x383a9281	4.4482298e-05
244	0x3af0abec	0.0018361784
245	0x39f19b85	0.00046082973
246	0xbaf197f4	-0.0018432126
247	0x3b059dac	0.002038817
248	0x3a916fb9	0.0011095918
249	0x3998c82e	0.00029140845
250	0x3adc1530	0.0016790982
251	0xba541c86	-0.00080914085
252	0x3b59589d	0.003316439
253	0xba0a5b34	-0.00052778726
254	0xb92bbbf2	-0.00016377846
255	0x3a844809	0.0010092269

weight_hh_l0_reverse f4 [80, 20]
0	0x3d42e0b1	0.047577564
1	0xbbb6da14	-0.005580196
2	0x3d415680	0.047201633
3	0xbd41f03b	-0.047348242
4	0x3d38c6ec	0.04511158
5	0x3d429ac6	0.047510885
6	0x3b3bac72	0.002863672
7	0xbd428e71	-0.047499124
8	0x3d4199ca	0.047265805
9	0x3abb6fe5	0.0014300315
10	0x3cffea23	0.031239575
11	0xbbcdd67a	-0.006281671
12	0xbd41e9ca	-0.0473421
13	0xbd4292c2	-0.04750324
14	0x3d402f2b	0.046919983
15	0xbd41f6d7	-0.047354545
16	0x3d4196f4	0.0472631
17	0x3c3168d4	0.010828216
18	0x3d41d874	0.047325566
19	0x3d173828	0.03691879
20	0x3d5cc87b	0.05390213
21	0xbbc097d2	-0.0058774734
22	0x3d5a6f69	0.053328905
23	0xbd5c4bd9	-0.05378327
24	0x3d572157	0.05252203
25	0x3d5c679b	0.053809743
26	0x3b40132a	0.0029308298
27	0xbd5cdd2c	-0.053921863
28	0x3d5ce770	0.053931653
29	0xbc2f919d	-0.010715869
30	0x3d312a65	0.04325332
31	0xbbca5e8f	-0.006175823
32	0xbd5ce7a6	-0.053931855
33	0xbd5bf84f	-0.053703602
34	0x3d5c6ded	0.05381577
35	0xbd5cd45e	-0.053913467
36	0x3d5caf5e	0.05387818
37	0x3beaf1c5	0.0071699345
38	0x3d5ce214	0.053926542
39	0x3d4346fe	0.047675125
40	0x3d3e3ca5	0.046444554
41	0xbbbc0763	-0.0057381853
42	0x3d3f6e50	0.04673606
43	0xbd3ee5f0	-0.046606004
44	0x3d37587a	0.044762112
45	0x3d3e48a8	0.04645601
46	0x3b492050	0.0030689426
47	0xbd3deb96	-0.04636725
48	0x3d3db9a7	0.04631963
49	0xb9b93539	-0.00035325604
50	0x3cffc746	0.03122295
51	0xbbd1eaab	-0.0064061484
52	0xbd3dd8eb	-0.046349447
53	0xbd3f991f	-0.046776887
54	0x3d3d3ab3	0.046198558
55	0xbd3df5c7	-0.04637697
56	0x3d3da8bd	0.0463035
57	0x3c2ddb68	0.010611393
58	0x3d3df9b2	0.046380706
59	0x3d16abff	0.036785122
60	0x3d3d3d56	0.046201073
61	0xbbba466e	-0.0056846654
62	0x3d3e4ff1	0.046462957
63	0xbd3d9b87	-0.0462909
64	0x3d369871	0.044578973
65	0x3d3d24bc	0.04617761
66	0x3b485c44	0.0030572573
67	0xbd3cf262	-0.04612959
68	0x3d3d03fe	0.046146385
69	0xb9d28eb1	-0.00040160635
70	0x3cff693e	0.031178113
71	0xbbcfaa12	-0.0063374126
72	0xbd3cedcf	-0.04612523
73	0xbd3e54a4	-0.04646744
74	0x3d3c61df	0.045991775
75	0xbd3d243b	-0.04617713
76	0x3d3ce5ba	0.04611752
77	0x3c2c9a4c	0.010534834
78	0x3d3d3679	0.046194527
79	0x3d162aff	0.036662098
80	0x3d3ba088	0.04580739
81	0xbbb11ea8	-0.005405266
82	0x3d399f44	0.045317903
83	0xbd3a7e1b	-0.04553042
84	0x3d338bba	0.043834426
85	0x3d3abf13	0.04559238
86	0x3b3fc81b	0.002926356
87	0xbd3b4a3e	-0.0457251
88	0x3d3b6d86	0.045758747
89	0xbb3da516	-0.002893751
90	0x3d04459c	0.032292947
91	0xbbc4a2f6	-0.006000872
92	0xbd3b55dd	-0.045736182
93	0xbd3a828b	-0.04553465
94	0x3d3a5738	0.045493335
95	0xbd3befbe	-0.045882933
96	0x3d3b4a52	0.045725174
97	0x3c1dda97	0.009634635
98	0x3d3c06c7	0.0459049
99	0x3d15d6bf	0.03658175
100	0x3d3ef555	0.046620686
101	0xbbbaaf95	-0.0056972005
102	0x3d3f70ad	0.046738315
103	0xbd3f0e70	-0.046644628
104	0x3d376422	0.04477323
105	0x3d3f0b20	0.04664147
106	0x3b4d25fc	0.0031303158
107	0xbd3ea3f6	-0.046543084
108	0x3d3f4db6	0.04670497
109	0x39a30eca	0.000311008
110	0x3d002fad	0.031295467
111	0xbbd0a428	-0.006367225
112	0xbd3ea4af	-0.046543773
113	0xbd3fd5cb	-0.04683475
114	0x3d3e72ae	0.046496086
115	0xbd3ec6db	-0.046576362
116	0x3d3ef96c	0.046624586
117	0x3c30b5e4	0.010785554
118	0x3d3edfed	0.04660027
119	0x3d16dda0	0.03683245
120	0x3dc117f9	0.094284005
121	0x3c38ecd7	0.011286936
122	0x3dbf9662	0.09354855
123	0xbdc04b53	-0.09389367
124	0x3db9a53b	0.09064718
125	0x3dc06fcf	0.09396326
126	0x3b0ff109	0.0021963737
127	0xbdc0d19a	-0.09414978
128	0x3dc0cc32	0.09413947
129	0x3d02accb	0.03190307
130	0x3cf1029b	0.029420188
131	0x3c187afa	0.009306664
132	0xbdc0cd71	-0.09414185
133	0xbdc03e94	-0.09386936
134	0x3dbfe773	0.09370317
135	0xbdc1282f	-0.094314925
136	0x3dc0ba2c	0.094105095
137	0xbc479077	-0.012180439
138	0x3dc120ef	0.0943011
139	0x3d9da692	0.076977864
140	0x3d403a76	0.046930753
141	0xbbbb50c6	-0.005716416
142	0x3d3f4b55	0.0467027
143	0xbd3f949f	-0.046772595
144	0x3d371d54	0.044705704
145	0x3d3fb134	0.046799853
146	0x3b377d11	0.002799813
147	0xbd400b34	-0.046885684
148	0x3d403186	0.04692223
149	0x3a99f714	0.0011746609
150	0x3cfc7524	0.030817576
151	0xbbd23226	-0.0064146696
152	0xbd3fd877	-0.046837296
153	0xbd3fdf6c	-0.04684393
154	0x3d3e9e43	0.04653765
155	0xbd4063f1	-0.04697031
156	0x3d3fe131	0.04684562
157	0x3c32aa2a	0.010904828
158	0x3d407ff9	0.046997044
159	0x3d165fc9	0.03671244
160	0x3d3de8ff	0.04636478
161	0xbbbc9d82	-0.005756081
162	0x3d4007cb	0.046882432
163	0xbd3e6f13	-0.046492647
164	0x3d3867e3	0.04502095
165	0x3d3e1403	0.046405803
166	0x3b3f78f8	0.002921639
167	0xbd3da128	-0.04629627
168	0x3d3e06de	0.046393268
169	0xb8d1a312	-9.996271e-05
170	0x3cfead72	0.031088565
171	0xbbd17f09	-0.0063933176
172	0xbd3da122	-0.046296246
173	0xbd3f96db	-0.046774726
174	0x3d3d7fd7	0.046264496
175	0xbd3dd6e6	-0.04634752
176	0x3d3ddbe3	0.04635228
177	0x3c317cab	0.010832946
178	0x3d3de986	0.046365283
179	0x3d1738d0	0.036919415
180	0x3dbc9e6c	0.09209904
181	0xbcf677c4	-0.030086406
182	0x3dbb8588	0.091563284
183	0xbdbcacad	-0.09212623
184	0x3daf81cf	0.08569681
185	0x3dbcb5bf	0.09214353
186	0x3ca89bfe	0.020582195
187	0xbdbd0a95	-0.09230534
188	0x3dbd4ba5	0.09242944
189	0xbc986450	-0.01860252
190	0x3dcc0176	0.09961216
191	0xbd0292be	-0.031878226
192	0xbdbd2793	-0.09236064
193	0xbdbc7509	-0.0920201
194	0x3dba9e44	0.09112218
195	0xbdbc716d	-0.09201322
196	0x3dbd0590	0.092295766
197	0x3d5a4e1a	0.05329714
198	0x3dbca197	0.09210508
199	0x3d8aa78d	0.06770239
200	0x3dc470ee	0.09591852
201	0x3bb8759d	0.005629255
202	0x3dc2fccd	0.09520874
203	0xbdc39b68	-0.09551126
204	0x3dc0a547	0.09406524
205	0x3dc3a56b	0.09553035
206	0x3cb40c36	0.021978479
207	0xbdc409ce	-0.095721826
208	0x3dc3c229	0.095585175
209	0x3d3a7992	0.045526095
210	0x3ce850b2	0.028358791
211	0x3b70bdd2	0.0036734235
212	0xbdc40401	-0.09571076
213	0xbdc37d06	-0.09545331
214	0x3dc40318	0.095709026
215	0xbdc4b2f0	-0.09604442
216	0x3dc3dddc	0.09563801
217	0xbc1dd812	-0.009634035
218	0x3dc4aeed	0.09603677
219	0x3dab91e9	0.083774395
220	0x3d5485c8	0.051885396
221	0xbba8e44b	-0.005154168
222	0x3d4c6968	0.04990521
223	0xbd515267	-0.051103976
224	0x3d4a8cca	0.049450673
225	0x3d52ecea	0.05149547
226	0x3aeff5eb	0.0018307542
227	0xbd54ed28	-0.051983982
228	0x3d55bc87	0.052181747
229	0xbc418872	-0.011812316
230	0x3d2cbb4b	0.042170804
231	0xbbc04ea2	-0.0058687488
232	0xbd54d202	-0.05195809
233	0xbd4f6f0d	-0.050643016
234	0x3d534af2	0.051585145
235	0xbd55e13f	-0.052216765
236	0x3d558a69	0.05213395
237	0x3bd81611	0.0065944274
238	0x3d55fcfb	0.052243214
239	0x3d39bb22	0.04534448
240	0x3d3e12d9	0.046404693
241	0xbbb9d5d1	-0.005671241
242	0x3d3fa5fa	0.046789147
243	0xbd3e9729	-0.046530876
244	0x3d370964	0.04468669
245	0x3d3e5408	0.046466857
246	0x3b355835	0.0027670984
247	0xbd3dc617	-0.04633149
248	0x3d3d678d	0.04624133
249	0xb7a7ade8	-1.9988933e-05
250	0x3cff20af	0.031143514
251	0xbbcf29e0	-0.0063221306
252	0xbd3d9257	-0.04628214
253	0xbd40de9e	-0.047087304
254	0x3d3ca52a	0.04605595
255	0xbd3d9065	-0.046280283

bias_ih_l0_reverse f4 [80]
0	0x3de0eed0	0.1098305
1	0x3d9f0e96	0.07766454
2	0x3dda814c	0.10669193
3	0x3ddb1d0a	0.10698898
4	0x3dcb9551	0.09940589
5	0x3ddd80ad	0.108155586
6	0x3e567de6	0.20946464
7	0x3ddf3224	0.108982354
8	0x3dde0506	0.10840802
9	0x3e8bad63	0.2728072
10	0x3e0b4071	0.13598801
11	0x3d97442f	0.07386052
12	0x3ddd11bc	0.10794398
13	0x3ddd7868	0.10813981
14	0x3dd5eb17	0.104452305
15	0x3de19b89	0.11015994
16	0x3ddd8f8f	0.10818397
17	0x3dc7ffd3	0.097655915
18	0x3de25a24	0.11052349
19	0x3da46509	0.080270834
20	0x3de3f182	0.11130048
21	0x3d8f32da	0.06992121
22	0x3ddfe135	0.10931627
23	0x3de0c597	0.10975187
24	0x3dd92db5	0.10604421
25	0x3de1c981	0.11024762
26	0x3e37697f	0.17911337
27	0x3de38009	0.11108405
28	0x3de226e0	0.11042571
29	0x3e56a5f3	0.20961742
30	0x3e158386	0.14600953
31	0x3d8b8afd	0.06813619
32	0x3de1fbeb	0.11034378
33	0x3de1a7b4	0.11018315
34	0x3de146bb	0.10999819
35	0x3de40d2b	0.11135324
36	0x3de1f7d0	0.110335946
37	0x3d9e223c	0.077213734
38	0x3de4423d	0.111454464
39	0x3dc70dbe	0.09719418
40	0x3e727dae	0.23680755
41	0xbcecf349	-0.028924601
42	0x3e692c41	0.22770788
43	0xbe6fabf4	-0.23405439
44	0x3e466761	0.19375373
45	0x3e710793	0.23538046
46	0x3cb89e20	0.022536337
47	0xbe72886f	-0.23684858
48	0x3e71a958	0.23599756
49	0x3d0e0411	0.034671847
50	0x3d1d4cf9	0.038403485
51	0xbd08be5c	-0.033384666
52	0xbe713f9f	-0.23559426
53	0xbe7038ba	-0.2345914
54	0x3e69a138	0.22815406
55	0xbe738976	-0.23782906
56	0x3e7153eb	0.23567168
57	0x3dd6546e	0.104653224
58	0x3e74678a	0.23867622
59	0x3dc02cd9	0.09383554
60	0x3e3fda77	0.18735681
61	0x3dc3daa1	0.095631845
62	0x3e3c4295	0.18384774
63	0x3e3ceeb7	0.18450437
64	0x3e33c9e5	0.17557485
65	0x3e3dc217	0.1853107
66	0x3e5eb045	0.21746929
67	0x3e3ef9af	0.18649934
68	0x3e3e6ec9	0.18596949
69	0x3e8b706e	0.27234215
70	0x3e34148a	0.1758596
71	0x3dbc7b05	0.092031516
72	0x3e3e2237	0.1856774
73	0x3e3dc5d7	0.18532501
74	0x3e3c3564	0.18379742
75	0x3e3fb484	0.18721205
76	0x3e3e0015	0.18554719
77	0x3deab2c5	0.11459879
78	0x3e40066a	0.18752447
79	0x3e0e6aa5	0.13907869

bias_hh_l0_reverse f4 [80]
0	0x3de0f5eb	0.10984405
1	0x3d9f0e96	0.07766454
2	0x3dda8143	0.10669186
3	0x3ddb1cff	0.1069889
4	0x3dcb9557	0.09940594
5	0x3ddd80a9	0.108155556
6	0x3e567de6	0.20946464
7	0x3ddf3224	0.108982354
8	0x3dde0505	0.10840801
9	0x3e8bad63	0.2728072
10	0x3e0b4071	0.13598801
11	0x3d97442c	0.0738605
12	0x3ddd11bc	0.10794398
13	0x3ddd7855	0.10813967
14	0x3dd5eb00	0.10445213
15	0x3de19b8c	0.11015996
16	0x3ddd8f86	0.108183905
17	0x3dc7ffd3	0.097655915
18	0x3de24f73	0.1105031
19	0x3da46517	0.08027094
20	0x3de3f2a8	0.111302674
21	0x3d8f32d9	0.0699212
22	0x3ddfe12e	0.109316215
23	0x3de0c59a	0.109751895
24	0x3dd92db2	0.10604419
25	0x3de1c980	0.11024761
26	0x3e376980	0.17911339
27	0x3de38068	0.11108476
28	0x3de226db	0.11042567
29	0x3e56a5f1	0.20961739
30	0x3e158387	0.14600955
31	0x3d8b8b08	0.068136275
32	0x3de1fbe6	0.11034374
33	0x3de1a7b1	0.11018313
34	0x3de14619	0.10999698
35	0x3de40cd9	0.11135263
36	0x3de1f7cf	0.11033594
37	0x3d9e223c	0.077213734
38	0x3de44496	0.11145894
39	0x3dc70dbe	0.09719418
40	0x3e727da4	0.2368074
41	0xbd2fe5e5	-0.042943854
42	0x3e6b8f37	0.23003851
43	0xbe6fae28	-0.23406279
44	0x3e3d4010	0.18481469
45	0x3e710797	0.23538052
46	0xbc10eba7	-0.008845246
47	0xbe728867	-0.23684846
48	0x3e71a934	0.23599702
49	0x3d179993	0.037011694
50	0x3d512d0b	0.051068347
51	0xbd461388	-0.04835847
52	0xbe713fa2	-0.2355943
53	0xbe703703	-0.23458485
54	0x3e672685	0.22573288
55	0xbe738924	-0.23782784
56	0x3e7153e6	0.23567161
57	0x3df81442	0.12113239
58	0x3e7467e0	0.2386775
59	0x3dd37788	0.10325533
60	0x3e3fda62	0.1873565
61	0x3dc3daa1	0.095631845
62	0x3e3c42bf	0.18384837
63	0x3e3ceeb9	0.1845044
64	0x3e33c9e6	0.17557487
65	0x3e3dc217	0.1853107
66	0x3e5eb045	0.21746929
67	0x3e3ef9af	0.18649934
68	0x3e3e6ec7	0.18596946
69	0x3e8b706e	0.27234215
70	0x3e341482	0.17585948
71	0x3dbc7b04	0.09203151
72	0x3e3e222f	0.18567728
73	0x3e3dc5ca	0.18532482
74	0x3e3c352a	0.18379655
75	0x3e3fb447	0.18721114
76	0x3e3e0012	0.18554714
77	0x3deab2c5	0.11459879
78	0x3e4009ea	0.18753782
79	0x3e0e6aa7	0.13907872

weight_ih_l1 f4 [80, 40]
0	0x3d3bd31b	0.045855623
1	0xbd33e7eb	-0.043922346
2	0x3d363237	0.044481482
3	0xbd33fea3	-0.043944012
4	0xbd3ec339	-0.046572898
5	0x3b339a44	0.0027405182
6	0xbd2c9ed4	-0.042143658
7	0xbb1115e4	-0.0022138292
8	0x3d34be3e	0.04412674
9	0x3d378d0b	0.044812243
10	0xbd37d9a0	-0.044885278
11	0x3d382e0d	0.044965792
12	0x3c851c9f	0.016249
13	0x3c0b9aa6	0.008520758
14	0xbcfc4308	-0.030793682
15	0x3b02a563	0.0019935004
16	0xbcab1d88	-0.020888105
17	0xbc5cce76	-0.0134769585
18	0xbaa306bc	-0.001243792
19	0x3d3f3664	0.04668273
20	0x3d4e4d05	0.05036642
21	0xbc51a4b3	-0.012795615
22	0x3d528a6f	0.05140155
23	0xbd513aef	-0.051081594
24	0x3d44a8d7	0.04801258
25	0x3d4c62e4	0.049898997
26	0x3c41bfda	0.011825526
27	0xbd449bd2	-0.048000164
28	0x3d4efa2f	0.050531562
29	0xbc8982d3	-0.016786015
30	0x3d3972ca	0.045275487
31	0xbc4ca897	-0.012491367
32	0xbd4913ff	-0.049091335
33	0xbd5476de	-0.051871173
34	0x3d52d615	0.051473696
35	0xbd4c9f6e	-0.04995673
36	0x3d4eba83	0.05047084
37	0x3c912783	0.017719036
38	0x3d4e0183	0.05029441
39	0x3d3599bc	0.044336066
40	0x3d39aa08	0.04532817
41	0xbd3a8996	-0.04554137
42	0x3d3d43d7	0.046207275
43	0xbd3c21d8	-0.045930713
44	0xbd3bba81	-0.04583216
45	0x3c4fdcb7	0.0126869
46	0xbd41506e	-0.047195844
47	0x3bad2bfe	0.0052847853
48	0x3d3dff58	0.046386093
49	0x3d39e9f3	0.045389127
50	0xbd4156f9	-0.047202084
51	0x3d398c03	0.04529954
52	0x3ccc28ae	0.024921741
53	0x3cbbbb48	0.022916451
54	0xbcad2777	-0.021136982
55	0x3b7415a2	0.003724434
56	0xbcf73dd4	-0.03018085
57	0xbb428091	-0.0029678682
58	0x3ba2523d	0.004953651
59	0x3d3e7c1c	0.04650508
60	0x3d4e4954	0.0503629
61	0xbc26c3ec	-0.010178547
62	0x3d5075b3	0.050893497
63	0xbd472094	-0.048615053
64	0x3d44558c	0.047933146
65	0x3d4b049c	0.049564943
66	0x3bb8a911	0.0056353887
67	0xbd48bd33	-0.04900856
68	0x3d4b2d8b	0.04960398
69	0xbc060172	-0.0081790555
70	0x3d2dc9d7	0.042428818
71	0xbc33526a	-0.010944942
72	0xbd491884	-0.049095646
73	0xbd5144b3	-0.051090907
74	0x3d482d2e	0.04887121
75	0xbd4691da	-0.04847894
76	0x3d4e18b2	0.05031652
77	0x3c7b9384	0.015354995
78	0x3d42d98c	0.04757075
79	0x3d33d381	0.043902878
80	0x3d67d511	0.05659968
81	0xbd65aed0	-0.056074917
82	0x3d5d63b7	0.054050174
83	0xbd6a0123	-0.05712999
84	0xbd6b0548	-0.057378083
85	0x3c879938	0.016552553
86	0xbd654948	-0.05597809
87	0x3bfcf049	0.007719074
88	0x3d6cc737	0.057807174
89	0x3d6172cb	0.055041116
90	0xbd6e0bad	-0.058116604
91	0x3d65773a	0.056021906
92	0x3d23eaf9	0.04001901
93	0x3cb1a35c	0.021684341
94	0xbcd6fd00	-0.026243687
95	0x3b96a008	0.004596714
96	0xbd1267ad	-0.035743404
97	0xba91b490	-0.0011116434
98	0x3c061e4c	0.008185934
99	0x3d70051f	0.058598634
100	0x3d94579a	0.07243271
101	0xbb17c0cc	-0.0023155687
102	0x3d997c96	0.07494466
103	0xbd914543	-0.07093289
104	0x3d906d02	0.070520416
105	0x3d909545	0.07059721
106	0xb934b1ea	-0.00017232416
107	0xbd9205ce	-0.071300134
108	0x3d8da559	0.06916303
109	0xbba38c31	-0.0049910774
110	0x3d866921	0.065630205
111	0xbb7ca215	-0.0038548757
112	0xbd93edd6	-0.07223098
113	0xbd926507	-0.07148176
114	0x3d8f602d	0.07000766
115	0xbd92746d	-0.07151113
116	0x3d8d9b6c	0.0691441
117	0x3c0f87a5	0.0087603675
118	0x3d916bb8	0.07100624
119	0x3d81fb83	0.063468
120	0x3d285bef	0.0411033
121	0xbd2bf5f1	-0.041982595
122	0x3d23bad6	0.039973103
123	0xbd2ec640	-0.042669535
124	0xbd2ee768	-0.042701155
125	0x3bea7860	0.007155463
126	0xbd288b7c	-0.041148648
127	0x3a2b4280	0.00065330416
128	0x3d2b247f	0.041782852
129	0x3d2b7ed7	0.04186901
130	0xbd2b387c	-0.041801915
131	0x3d2ffcc4	0.042965665
132	0x3cc48551	0.023989351
133	0x3a0a26d0	0.0005270066
134	0xbcef354f	-0.029200224
135	0x3b3fd468	0.002927089
136	0xbc3c5c05	-0.011496549
137	0xbc407419	-0.01174643
138	0x3af0bdd5	0.0018367121
139	0x3d2f5eaa	0.042814888
140	0x3d6751b2	0.056474395
141	0xbc26d142	-0.010181727
142	0x3d6b873c	0.057502016
143	0xbd64f62f	-0.05589884
144	0x3d6a29a2	0.05716861
145	0x3d7081f8	0.058717698
146	0x3c6c9985	0.014440899
147	0xbd5adeb2	-0.053435035
148	0x3d6e5256	0.05818399
149	0xba8bc668	-0.0010663988
150	0x3d23fdde	0.04003703
151	0xbc39f717	-0.011350415
152	0xbd5fa5df	-0.054601546
153	0xbd69b7fe	-0.057060234
154	0x3d6a01e7	0.05713072
155	0xbd69870b	-0.057013553
156	0x3d6cc163	0.057801615
157	0x3c4b2cdf	0.012400835
158	0x3d634856	0.055488907
159	0x3d5a4ee9	0.05329791
160	0x3d230d15	0.039807398
161	0xbd202dd7	-0.039106216
162	0x3d219a90	0.039454043
163	0xbd21f509	-0.039540324
164	0xbd28ec40	-0.04124093
165	0x3c126325	0.008934771
166	0xbd2172c8	-0.039416105
167	0x3b175ab3	0.0023094832
168	0x3d1b5563	0.037923228
169	0x3d21ac88	0.03947118
170	0xbd1cc1ef	-0.038270887
171	0x3d231a95	0.039820272
172	0x3cabba37	0.020962818
173	0x3c2c3569	0.010510781
174	0xbce6993c	-0.02814924
175	0x3b4151c3	0.0029498197
176	0xbca2fe09	-0.019896524
177	0xbbde199a	-0.0067779543
178	0x3ae63c40	0.0017565563
179	0x3d1e220f	0.0386067
180	0x3d48ed4c	0.04905443
181	0xbbec2089	-0.007206027
182	0x3d4199ff	0.047266003
183	0xbd3e53b4	-0.046466544
184	0x3d421598	0.047383875
185	0x3d494010	0.04913336
186	0x3c506f49	0.012721845
187	0xbd49f612	-0.049306937
188	0x3d50ab32	0.050944515
189	0x3b762d3c	0.0037563583
190	0x3d0d52c6	0.034502767
191	0xbc08f8b1	-0.008360074
192	0xbd4826fd	-0.048865307
193	0xbd4bfaf7	-0.049799886
194	0x3d4a4f47	0.04939201
195	0xbd4759ef	-0.04866975
196	0x3d48ed55	0.049054462
197	0x3beea060	0.007282302
198	0x3d4aae01	0.04948235
199	0x3d38c110	0.045105994
200	0x3d3fb860	0.046806693
201	0xbd3e8bb8	-0.046519965
202	0x3d461e93	0.048369
203	0xbd448866	-0.047981642
204	0xbd47c739	-0.048773978
205	0x3c89de83	0.016829735
206	0xbd46937e	-0.048480503
207	0x3c082fe9	0.008312204
208	0x3d45582d	0.048179794
209	0x3d42285d	0.047401775
210	0xbd40bea1	-0.047056798
211	0x3d43602d	0.047699142
212	0x3d013a5e	0.031549804
213	0x3d0de34e	0.034640603
214	0xbc95e540	-0.018297791
215	0x3b7d83e5	0.0038683352
216	0xbd27cd21	-0.04096711
217	0x3a9bc21d	0.0011883412
218	0x3be40792	0.0069589103
219	0x3d4c9704	0.049948707
220	0x3d1b14d7	0.03786167
221	0xbbcba6be	-0.0062149456
222	0x3d249e90	0.04019028
223	0xbd1f53f4	-0.038898423
224	0x3d13f588	0.03612283
225	0x3d1a3cb8	0.037655562
226	0x3b41eb76	0.0029589809
227	0xbd1f738a	-0.038928546
228	0x3d1f22bb	0.03885148
229	0xbc0e2887	-0.008676655
230	0x3cea5186	0.028603327
231	0xbb933fef	-0.0044937055
232	0xbd1b069a	-0.037848093
233	0xbd1f761c	-0.038930997
234	0x3d1d69bc	0.038430914
235	0xbd1accd1	-0.037792984
236	0x3d1ef587	0.038808372
237	0x3c311bb5	0.0108098285
238	0x3d1a13ea	0.037616648
239	0x3d00d886	0.031456493
240	0x3d313fee	0.04327386
241	0xbd2ff093	-0.04295404
242	0x3d304380	0.043033123
243	0xbd2ddc1f	-0.042446252
244	0xbd36b535	-0.044606406
245	0x3c2ea378	0.010659091
246	0xbd3bb92e	-0.045830898
247	0x3b7c76d0	0.0038522966
248	0x3d2e3b8c	0.042537257
249	0x3d28c7a9	0.041206036
250	0xbd2f4c6f	-0.042797502
251	0x3d298160	0.041383147
252	0x3cb81b1e	0.022473868
253	0x3ce4ceea	0.027930696
254	0xbcccb65b	-0.024989298
255	0x3b5713c0	0.0032818168
