model/saved_models/fr_decoder/model_epoch_3.pt (torch_old, 93678 bytes, 11 tensors)

weight f4 [75, 20]
000000 00 00 00 00 00 00 00 00 00 00 00 00 00 00 00 00
       0.0 0.0 0.0 0.0
000010 00 00 00 00 00 00 00 00 00 00 00 00 00 00 00 00
       0.0 0.0 0.0 0.0
000020 00 00 00 00 00 00 00 00 00 00 00 00 00 00 00 00
       0.0 0.0 0.0 0.0
000030 00 00 00 00 00 00 00 00 00 00 00 00 00 00 00 00
       0.0 0.0 0.0 0.0
000040 00 00 00 00 00 00 00 00 00 00 00 00 00 00 00 00
       0.0 0.0 0.0 0.0
000050 2d e9 e8 bd a0 a4 ca 3d 2f 11 03 3e 80 47 af bd
       -0.113726 0.09894681 0.12799524 -0.085585594
000060 f5 93 29 3c c6 45 00 3e fb ae 70 3d aa 6c 56 3d
       0.010350217 0.12526616 0.058760624 0.052349724
000070 5c 93 f5 bc a1 4a da 3d 65 01 b6 bc e6 32 fb 3c
       -0.029977493 0.106587656 -0.022217462 0.030663919
000080 5e d7 04 bc 99 19 ba 3d 72 b2 b6 3d 4f c1 d9 bd
       -0.008107988 0.090869136 0.089207545 -0.10632574
000090 04 b1 a3 3d ec 39 80 3d ed 07 a0 bb cc 65 34 3b
       0.079927474 0.06261048 -0.0048837573 0.0027526496
0000a0 69 c2 a4 3d 05 29 2a bd 07 e6 ab bd 07 1d 7d bc
       0.08044893 -0.041543026 -0.083934836 -0.015448815
0000b0 4b 07 27 bd a1 5b 79 3d a2 90 e7 bc 9b c2 c5 bc
       -0.04077844 0.0608784 -0.028267208 -0.024140647
0000c0 af 8a bd 3c 33 b4 34 bd 78 08 91 3c 51 a3 f0 3a
       0.023137419 -0.044117164 0.017704234 0.0018359219
0000d0 68 f9 e1 3c 85 8a 06 be ae ab 81 bd a0 7c 9c 3c
       0.027584746 -0.13138779 -0.063315734 0.019102395
0000e0 97 0c 04 bd 3d cd d2 bc f6 68 b4 bb 08 a1 3a bd
       -0.03223857 -0.02573263 -0.0055056764 -0.045563728
0000f0 5f 68 a3 be b0 54 ed 3d e6 ca 4b 3e 23 d0 59 be
       -0.31915566 0.115884185 0.19901618 -0.21270804
000100 5d b0 88 3b 20 03 0f 3e 51 d9 b5 bc a1 88 0a be
       0.0041714148 0.13966036 -0.022198351 -0.13528682
000110 9b 4f 42 3d 8c 65 17 3e 4c 24 16 bd 0e 3d 18 3e
       0.0474392 0.14784831 -0.03665571 0.1486704
000120 f5 d4 5a bd d7 dd b3 3e b7 6b 03 3d e6 1b 4d be
       -0.053425748 0.35130188 0.032085147 -0.20030174
000130 d0 fa 12 3e 9b 06 42 3e 28 39 f3 3c 95 7d 2c 3e
       0.1435349 0.18947832 0.02969034 0.1684478
000140 9a 15 05 be 95 10 5f 3d 69 18 d2 3d 92 d1 c4 bd
       -0.12996522 0.054459173 0.10258562 -0.09610285
000150 e5 a3 80 bc 17 e5 ce 3d a3 7d a7 3b 31 f0 17 bd
       -0.015703151 0.10102289 0.0051114126 -0.0370943
000160 3f de 33 3c ee 3d 8e 3d 34 32 71 bc ad 99 76 3d
       0.010978281 0.06945406 -0.014721442 0.06020515
000170 a5 dc 81 bc 72 1b df 3d 9c 70 5b 3c 9d 82 03 be
       -0.015852282 0.10893907 0.013393547 -0.12842794
000180 c4 26 88 3d 21 0e a1 3d ea 21 80 3b aa 9c 8e 3d
       0.06648019 0.07864023 0.003910293 0.06963475
000190 f4 c2 cd bd 7b 07 71 3e e2 c6 aa 3e 91 7e bb 3c
       -0.1004695 0.2353801 0.3335486 0.0228875
0001a0 c1 a3 10 3e b7 be ca 3c ca e5 9a 3e 07 c3 e0 3e
       0.14124967 0.024749143 0.3025344 0.43898794
0001b0 3d a6 6d be 62 4d 80 3e aa 75 8e bd c7 6e 3b bd
       -0.23207946 0.25059038 -0.069560364 -0.045759942
0001c0 0b 2d 36 bc 01 ad 40 3e 87 9f c3 3e e7 dc 1b be
       -0.0111191375 0.18815996 0.38207647 -0.15220986
0001d0 37 d3 0b 3e 5a d0 c0 bc 09 d1 28 bd e6 1e 0c be
       0.13654791 -0.02353685 -0.041214976 -0.13683662
0001e0 de 5f 52 bd 17 cf b9 3d 89 64 e0 3d cb 7c 88 3c
       -0.051360957 0.090727024 0.109566756 0.016661068
0001f0 66 d9 72 3d 10 ca 54 3b ba e0 b6 3d ea d9 04 3e
       0.05928936 0.0032469071 0.08929582 0.12973753
000200 a2 79 8b bd 03 ce af 3d 4b 70 ce bc fe cc 97 bc
       -0.06810309 0.085842155 -0.02520003 -0.018530365
000210 bf 31 43 bc c3 a1 a2 3d 58 42 08 3e 87 bb 50 bc
       -0.011913716 0.0794101 0.13306558 -0.0127400225
000220 19 cc 45 3d 23 46 c9 3b 96 3d ca bb 62 a9 04 bd
       0.048290346 0.006142394 -0.0061718924 -0.0323881
000230 50 29 9c 3d 46 1e e8 bb 15 97 18 bd e1 63 26 3d
       0.07625067 -0.007083687 -0.037253458 0.040622596
000240 84 07 c5 bb 27 d2 0c bb 46 ac 95 3c ca b4 51 3d
       -0.006012859 -0.0021487565 0.018270623 0.051197805
000250 3b 9b 88 bc 35 97 93 bc 3f 1c 04 3c 7a a9 27 bd
       -0.016675582 -0.018016437 0.008063375 -0.04093311
000260 9a 7b 9b 3c 54 2b e4 bd 98 34 1c 3c 58 21 2d 3d
       0.018979836 -0.11141077 0.009534024 0.042268127
000270 18 79 bb bc 25 7c 20 bd e5 3a 2a bc 58 4e 6c bd
       -0.02288489 -0.039180893 -0.010390018 -0.057691902
000280 97 e4 08 3c 3d bc 16 3e 73 cf 45 3e cf a4 ad 3d
       0.008355281 0.14720245 0.19317417 0.084787
000290 59 27 e9 3d 07 91 6c bd e6 c3 6c 3e 22 cf bc 3e
       0.11384458 -0.057755496 0.23121604 0.3687678
0002a0 03 6d 3b be 8c bc 16 3e cf 9a 20 bd fd df 9c bd
       -0.18303303 0.14720362 -0.039210137 -0.0765991
0002b0 1a 09 8f 3b aa c9 92 3d bb 58 90 3e c1 a8 38 bd
       0.0043650987 0.071673706 0.28192696 -0.04508281
0002c0 c6 c2 80 3d 80 09 8b bd 2d f0 1c bd d2 04 14 be
       0.0628715 -0.06788921 -0.038314987 -0.14454964
0002d0 3c 08 0f bd 4b 48 ac bd 17 3d d0 bd 4d 52 a1 bd
       -0.034919962 -0.08412226 -0.10167902 -0.07877026
0002e0 46 35 9a bd 84 dc 52 3d 55 4d 16 be af 7d 7f be
       -0.07529692 0.05147983 -0.14677937 -0.24950288
0002f0 34 8f f6 3d 1c 95 9f bd e3 52 cb 3c 33 79 8e 3d
       0.120390326 -0.07792112 0.024819797 0.06956711
000300 1d bc 50 bb ff bc 35 bb 18 72 36 be af 4b 8e bb
       -0.0031850406 -0.0027731059 -0.17816961 -0.0043425183
000310 9e 77 cd bc 7e 2e 73 3d 9a 15 ca 3c 2f a9 e5 3d
       -0.025081452 0.05937051 0.024668504 0.1121391
000320 8f a9 f8 b7 1a 89 6d bd 43 a2 92 bd 0d f4 04 bd
       -2.964286e-05 -0.05799208 -0.07159855 -0.032459307
000330 55 b6 35 bd 90 3a a9 3c 1a 6b ad bd 91 df 0d be
       -0.04436334 0.020657808 -0.084676936 -0.13854815
000340 7a 2b 8a 3d d4 49 62 bd a4 38 8a 3c fa 03 05 3d
       0.06746574 -0.05524619 0.016872711 0.032474495
000350 c1 4a be 3a 8b a4 c4 bc 0f 30 db bd 20 b8 0f 3c
       0.0014518128 -0.024004241 -0.10702526 0.008771926
000360 3d c8 c4 bc 3d 52 b4 3c 49 67 43 3c 62 47 69 3d
       -0.024021262 0.02201187 0.011926481 0.05695284
000370 dc 06 c0 3d 54 78 60 be 14 0a 8e be 92 a7 20 ba
       0.09376308 -0.21920902 -0.27742064 -0.00061284855
000380 9a 3b f2 bd 6c 2e 4e bd 51 22 81 be 82 cc c0 be
       -0.11827774 -0.05033724 -0.25221494 -0.37656027
000390 03 cc 41 3e 30 99 64 be dd 3e 69 3d 00 3e 3f 3d
       0.1892548 -0.22324061 0.056944717 0.046689987
0003a0 1f 7d e4 3b bc 60 1c be 0d 9b a8 be c2 44 ef 3d
       0.0069729234 -0.15271276 -0.32930794 0.116830364
0003b0 ca 7c ff bd 90 15 78 3b ea 48 12 3d c6 5f 07 3e
       -0.124749735 0.003785465 0.035714068 0.13220128
0003c0 5e f5 c3 be dc 00 dd 3d 73 01 26 3e 2c 83 e3 be
       -0.38273138 0.107911795 0.1621149 -0.44436014
0003d0 87 02 14 be bc 68 06 3f b8 96 f0 bd ee a5 b4 be
       -0.14454089 0.5250356 -0.11747497 -0.35282844
0003e0 5f 33 1e 3e 81 52 20 3e c4 c6 5b bc 46 75 83 3e
       0.15449284 0.15656473 -0.013414089 0.2567541
0003f0 cb b1 6e bc 43 10 7b 3e 85 f2 e9 bd 57 e8 bd be
       -0.014568756 0.24517922 -0.1142321 -0.37091324

weight_ih_l0 f4 [200, 20]
000000 60 c7 43 3c f5 dc 31 bc 35 3b 63 bc be 09 29 3c
       0.01194939 -0.010855903 -0.0138690965 0.010317264
000010 19 46 65 ba 6d bf 66 bc 03 12 d9 bb ef 14 b4 bb
       -0.0008746102 -0.014083725 -0.0066244616 -0.0054956595
000020 4a 96 5a 3b 95 fa 43 bc 05 76 1c 3b a6 99 7e bb
       0.003335374 -0.011961599 0.0023874056 -0.0038848906
000030 40 0c 05 3a 1f 83 38 bc 63 30 21 bc 79 ff 4f 3c
       0.0005075373 -0.01126173 -0.009838196 0.012695187
000040 1d cd 14 bc 98 ae e3 bb 08 87 3f 3a 20 e5 fb b7
       -0.009082106 -0.0069483034 0.0007306193 -3.0028226e-05
000050 7f 78 8d 3b 66 95 12 bc 63 fc 19 bc 38 c2 c8 3b
       0.004317343 -0.008946752 -0.009398553 0.0061266683
000060 13 0c d3 b9 dc c3 4d bc 26 f2 f1 bb c0 fe 22 bc
       -0.00040254052 -0.012558904 -0.0073836027 -0.009948432
000070 a9 4b a2 3b c4 ca 16 bc 25 81 a9 3a 69 88 f3 b9
       0.004952867 -0.0092036165 0.0012932165 -0.00046450205
000080 dc 7e 95 ba ab 5e 1e bb 71 f2 1d bc ab 32 19 3c
       -0.0011405605 -0.0024165313 -0.009640322 0.009350459
000090 e6 d2 c3 bb 47 a9 42 bb 93 f1 e2 3a 33 36 a1 3b
       -0.005976069 -0.0029702948 0.0017314426 0.004919791
0000a0 dc 70 f8 3b 73 cd 14 bc 93 f4 2f bc 7b 12 0e 3c
       0.0075818133 -0.009082186 -0.010739463 0.008671398
0000b0 38 66 c2 b8 3a a3 5f bc 63 4f cf bb e1 3c d2 bb
       -9.2696806e-05 -0.013649756 -0.0063266023 -0.0064159487
0000c0 e6 2d 62 3b 75 31 20 bc 14 af df 3a 08 d8 1d bb
       0.003451222 -0.0097774165 0.0017065727 -0.0024085063
0000d0 75 32 dc b9 19 7a bf bb aa 38 09 bc 84 05 2a 3c
       -0.00041999263 -0.0058434126 -0.008375326 0.010377292
0000e0 76 d1 e8 bb 7b 1c 98 bb bc ad 90 3a 73 2e 1c 3b
       -0.007105048 -0.004642067 0.0011038105 0.0023831397
0000f0 85 d8 d3 b8 55 83 cf 3c d1 93 0d 3d e3 07 56 3c
       -0.00010101594 0.025331179 0.034564797 0.013063404
000100 7a 44 9a 3c 14 1b 8b bb 0a ef 20 3d d1 c4 76 3d
       0.01883148 -0.0042451713 0.039290465 0.060246293
000110 ed 37 00 bd 95 ac ce 3c c1 ae ed bb b3 6b 4f bc
       -0.031303335 0.025228778 -0.0072534983 -0.012659955
000120 28 46 52 39 f3 40 22 3c 5d 05 3f 3d 68 6d 29 bc
       0.00020053296 0.00990318 0.046635974 -0.010341026
000130 24 da 37 3c 7f 46 2d bc 5b 14 db bb c5 39 be bc
       0.011221442 -0.01057589 -0.006685776 -0.023220906
000140 9c 20 24 bc 54 d5 f9 3b c2 1f 36 3c 1d 52 d4 bb
       -0.01001754 0.0076243076 0.01111597 -0.006479515
000150 93 30 de 3a 42 e5 fa 3b c2 31 8f 3b e1 03 70 3b
       0.0016951732 0.007656724 0.0043699453 0.0036623406
000160 55 2b 15 bb eb a2 0f 3c 98 0c ff ba 30 20 58 3b
       -0.0022761424 0.00876687 -0.0019458709 0.003297817
000170 75 f8 88 ba 9c c7 33 3c a1 de f0 3b 75 e4 0f bc
       -0.0010450023 0.010972884 0.007350758 -0.008782496
000180 b6 57 d2 3b c1 cd a0 3b 9e 78 ea b8 ae 40 c8 3a
       0.0064191474 0.0049073403 -0.00011180456 0.0015278065
000190 0c 9f d9 bb c4 1c 9d 3c d6 3a db 3c bd 8c 09 3c
       -0.0066412743 0.019178756 0.026761454 0.008395371
0001a0 eb 9b 80 3c 5e 33 12 bc 9f f1 d2 3c 92 c9 22 3d
       0.015699347 -0.00892338 0.02574998 0.039743014
0001b0 0b a3 a6 bc 4a ec a0 3c b5 f4 c6 bb be 1b d0 bb
       -0.020341417 0.019643921 -0.006071652 -0.0063509634
0001c0 b8 f6 10 bb 8c 60 94 3c e1 c4 0b 3d 5f 69 ba bb
       -0.0022119712 0.018112443 0.034123305 -0.0056888307
0001d0 08 c1 1d 3c 9c a8 88 bb 6b 09 39 bb 9d 70 3d bc
       0.009628542 -0.0041704904 -0.0028234373 -0.011562494
0001e0 4e 50 15 ba 07 94 60 bb 28 ce 4a bb dc 70 9a b9
       -0.0005695865 -0.0034267919 -0.0030945633 -0.00029457256
0001f0 9f 08 9d ba a0 91 cd ba 18 68 95 bb e8 bd cd bb
       -0.0011980719 -0.0015683658 -0.004559528 -0.006278742
000200 35 3e 65 3b 31 9b 2d bb d0 b2 0e 3a 61 f8 d8 3a
       0.0034979705 -0.0026490206 0.0005443515 0.0016553515
000210 cf 50 f5 b9 0e a1 94 39 4e bc a8 bb fb ea 79 3a
       -0.0004679025 0.00028348755 -0.005149401 0.0009533611
000220 09 2d a9 ba 60 4c b9 39 00 58 6b 3a d4 50 63 3b
       -0.0012907098 0.00035342854 0.00089776516 0.0034685628
000230 ab 8f f7 3b 05 73 1c bc 6a 16 3b bc a9 3a da 3b
       0.0075549684 -0.009548907 -0.011418918 0.006659825
000240 1a 47 d6 ba ac 85 2f bc 77 11 f0 bb 18 f4 11 bc
       -0.0016348094 -0.010713022 -0.0073263007 -0.008908294
000250 12 ac 95 3b 11 e6 22 bc 49 72 05 3b 02 f4 ce ba
       0.0045676315 -0.009942547 0.0020362309 -0.0015789273
000260 c6 fa 38 b7 ee 06 ed bb c5 c6 26 bc 2a 6f 14 3c
       -1.1025642e-05 -0.007233492 -0.010179226 0.009059707
000270 c9 c8 dc bb 7d c1 7f bb 60 58 89 3a 61 d4 3d 3b
       -0.0067378026 -0.003902524 0.0010478608 0.00289657
000280 07 55 ff 3b dd e8 10 bc d2 a3 29 bc 5c a9 09 3c
       0.0077921185 -0.008844581 -0.010353999 0.008402195
000290 3e 5c 57 b9 9f fd 50 bc 99 02 c4 bb 76 1c be bb
       -0.0002053836 -0.0127557805 -0.005981755 -0.0058017327
0002a0 8c a6 50 3b e6 f1 16 bc 07 22 e2 3a 65 4b 22 bb
       0.003183755 -0.0092129465 0.0017252573 -0.0024764177
0002b0 81 88 29 b9 9f 79 d8 bb 99 4a 03 bc a1 0a 26 3c
       -0.00016167948 -0.0066062952 -0.008013391 0.01013437
0002c0 d0 77 e3 bb 0d c1 9e bb 8a 53 77 3a 53 14 d8 3a
       -0.006941773 -0.004844791 0.00094347505 0.0016485549
0002d0 56 6b fc bb 42 e7 8f 3b 14 d8 c5 3b 82 7a 08 bc
       -0.007703225 0.0043915818 0.0060377214 -0.008329989
0002e0 4e b0 ca ba ba 13 36 3c 17 ae 82 3a bb 9e c4 ba
       -0.001546392 0.011113102 0.0009970096 -0.0015000919
0002f0 e7 70 16 3a db 31 b2 3b 53 a8 61 ba 66 e8 85 3b
       0.00057388697 0.005438072 -0.0008608151 0.004086542
000300 6b d6 38 b8 68 f0 96 3b 98 c5 c4 3a 92 44 07 bc
       -4.406871e-05 0.0046062954 0.0015012501 -0.0082560945
000310 be 4b a0 3b 0f 9c a2 3b 87 5a 21 35 90 e0 da 3a
       0.0048918417 0.0049624513 6.010891e-07 0.0016699005
000320 49 56 6a 3c 39 7d 7b bc 6c cb 94 bc 88 bd 5b 3c
       0.014302799 -0.01534968 -0.018163405 0.013411887
000330 37 54 aa ba 30 70 a3 bc 0e e7 27 bc 56 83 2c bc
       -0.0012995069 -0.019950956 -0.010247959 -0.01052936
000340 18 88 b3 3b 00 c6 84 bc 82 a5 48 3b 29 9e 99 bb
       0.00547887 -0.016207695 0.0030616228 -0.0046880436
000350 fd f9 0a 37 97 6d 5a bc 51 9a 6f bc 46 7c 88 3c
       8.283646e-06 -0.013331792 -0.014624194 0.01666082
000360 bd 33 42 bc 86 fc 09 bc 3c b5 a6 3a be 51 29 3b
       -0.011853156 -0.008422023 0.0012718807 0.0025836076
000370 0a 0b 00 bc 88 e7 c1 3b 45 40 10 3c 1d ac 80 bb
       -0.007815132 0.0059174933 0.008804386 -0.0039267675
000380 81 ee fd 3a 7e 1a 80 3b 8b c1 88 3b 0e a1 6f 3b
       0.0019373448 0.003909408 0.0041734627 0.0036564502
000390 8a be 1b bb 09 78 d8 3b b1 26 dc ba 05 f5 0f 3b
       -0.0023764693 0.006606106 -0.0016796199 0.0021966111
0003a0 a0 bf 96 ba 81 62 1c 3c 25 04 d0 3b f3 04 cb bb
       -0.00115012 0.00954497 0.0063481503 -0.0061956584
0003b0 36 6d 9f 3b f7 f0 65 3b b8 66 97 b8 d1 d7 ad 3a
       0.004865314 0.0035086253 -7.219374e-05 0.0013263171
0003c0 3c 75 9d 3b f4 44 01 bc 31 2b 11 bc f3 a4 ea 3b
       0.004805235 -0.007889975 -0.008860395 0.0071607768
0003d0 40 4f a3 39 95 ea 57 bc 96 cb d0 bb 49 5d 01 bc
       0.0003114883 -0.013178487 -0.0063719256 -0.007895776
0003e0 32 56 69 3b 26 5e 0a bc 1b af af 3a bf 6d b5 ba
       0.0035604355 -0.008445298 0.0013403626 -0.0013841911
0003f0 e2 22 97 ba 95 66 09 bb c2 c0 ff bb 38 91 18 3c
       -0.0011530782 -0.0020965685 -0.007804961 0.009311967

weight_hh_l0 f4 [200, 50]
000000 3b 3e 69 3c 01 cd da bc 1e 36 53 3d 55 31 5d 3d
       0.014236028 -0.026709082 0.051565282 0.054002125
000010 1d 66 a0 3d fd 72 a3 3d e0 76 dd 3c e3 32 23 3d
       0.078319766 0.07980917 0.027034223 0.03984345
000020 35 1b 43 bd 48 56 87 bd 6b 01 15 3d cb 48 9b 3d
       -0.04763337 -0.06608254 0.036378305 0.075822435
000030 d8 c5 40 3d 47 a0 75 3d 2c ad 6b bd 3a 30 9f bd
       0.04706368 0.059967306 -0.057538196 -0.0777287
000040 cd 24 93 3c 1e 35 b0 bd 32 82 9b 3d 33 ec 96 3d
       0.017961884 -0.08603881 0.07593192 0.0736927
000050 6a e6 a0 bd fe fa 92 3d f5 98 55 bd aa 11 9e bd
       -0.07856448 0.07176779 -0.052147824 -0.07718213
000060 8a 16 82 bd dd 4e 9c 3d 00 d0 9c 3d ad ad 9f bd
       -0.06351955 0.076322295 0.0765686 -0.07796798
000070 9d 25 a5 bd 7a 68 9e 3d 94 f7 06 3c fb 39 ef 3b
       -0.08063815 0.07734771 0.008237738 0.007300613
000080 da bd a6 bd 02 30 a0 3d 40 a3 c1 bb 6e 57 26 3d
       -0.0814168 0.07821657 -0.0059093535 0.040610723
000090 c6 5e 0d 3d d0 24 96 3d 84 86 ab 3d 9e 07 90 3d
       0.03451421 0.0733124 0.08375266 0.07032703
0000a0 a1 bf 9b 3d ba 90 31 3d ae cf 80 3d d5 26 b0 3d
       0.0760491 0.043350913 0.06289612 0.086011566
0000b0 8f f4 99 3d 6a 0a 06 bb 2a d9 33 3d 6f e5 a6 bd
       0.07517349 -0.0020452985 0.043908276 -0.0814923
0000c0 43 20 a0 bd 76 aa 9c 3d b0 75 18 3c bb ac 98 bc
       -0.078186534 0.076497 0.009305403 -0.018637052
0000d0 aa 3e 82 3d ce ac 72 3d 97 c0 99 3d f6 5b 99 3d
       0.063596085 0.05924683 0.07507437 0.07488243
0000e0 b4 e4 8d 3c 01 f3 7c 3d 80 bd 7a bd b0 40 a3 bd
       0.017320968 0.061755184 -0.061215878 -0.079713225
0000f0 8b 09 bf 3c 7f 2b 96 3d 4e 6a 4f 3d 92 2a 70 3d
       0.02331998 0.07332515 0.05063849 0.05863435
000100 5a 30 8d bd a2 6e 98 bd fa 1e 50 3d 81 07 9b bd
       -0.06893988 -0.074429765 0.05081079 -0.07569791
000110 26 40 b0 3d d2 d9 c3 3d 82 7b ae bd 87 aa 83 3d
       0.08605985 0.0956303 -0.08519651 0.0642901
000120 21 e4 89 bd 7e e1 96 bd b2 81 75 bd 3f e9 96 3d
       -0.06732965 -0.07367228 -0.05993814 0.07368707
000130 7f 45 97 3d 76 e3 99 bd b6 9b 99 bd da 7d 98 3d
       0.07386302 -0.07514088 -0.07500403 0.07445879
000140 94 dd a6 3a 19 e3 53 3c 81 5e 98 bd b9 c8 98 3d
       0.001273083 0.012932562 -0.074399 0.0746016
000150 93 c1 6f bc e8 5f c9 3c d5 53 af 3c 88 05 9e 3d
       -0.014633554 0.024581864 0.021402279 0.07715899
000160 07 e0 9a 3d 28 b6 b3 3d df 59 95 3d 7d 5e 57 3d
       0.07562261 0.08774978 0.07292532 0.052580345
000170 fc 2d 97 3d 52 bf 9a 3d 52 c4 94 3d dd e0 d1 3b
       0.07381818 0.07556023 0.07264008 0.0064049796
000180 bd 0b 3e 3d 44 30 b0 bd df 31 98 bd ec eb 8d 3d
       0.046397913 -0.08602956 -0.07431387 0.06929764
000190 78 1e 15 3d 62 c1 37 bd e3 5a 53 3d d0 98 3c 3d
       0.03640601 -0.04486216 0.05160035 0.04604417
0001a0 62 33 93 3d 92 21 82 3d 76 82 ce 3c 21 65 23 3d
       0.07187535 0.06354059 0.025208693 0.039891366
0001b0 b3 76 4a bd db 0c 83 bd 73 2d 4e 3d 6a fa 8c 3d
       -0.049429607 -0.06398936 0.050336313 0.068837
0001c0 be 07 31 3d 76 8c 5e 3d 50 a4 4c bd 69 76 8f bd
       0.043220274 0.054333173 -0.049961388 -0.07005007
0001d0 b8 1d 3f 3d c5 47 99 bd 47 57 50 3d d8 c3 8e 3d
       0.0466592 -0.07484392 0.050864484 0.06970948
0001e0 1e 5b 84 bd 05 a2 8a 3d 35 e8 4a bd b9 81 8d bd
       -0.06462692 0.06769184 -0.049537856 -0.06909508
0001f0 29 d5 6b bd 6c ca 8d 3d 83 16 8f 3d d8 e7 8e bd
       -0.057576332 0.069233745 0.06986716 -0.069778144
000200 59 a9 96 bd 10 aa 8f 3d f4 b6 f1 3c 59 a7 22 3c
       -0.07356519 0.07014859 0.029506184 0.009927594
000210 eb 52 91 bd a0 d5 8f 3d 67 48 37 b9 fb bd 3f 3d
       -0.070958935 0.070231676 -0.00017479212 0.04681204
000220 18 1d 49 3d 59 5f 88 3d 14 5c 96 3d 51 63 74 3d
       0.04910001 0.06658811 0.07341781 0.059665028
000230 05 f3 8c 3d 26 a9 3d 3d 74 77 8f 3d 8a 8d 99 3d
       0.0688229 0.04630389 0.07005206 0.074976996
000240 d9 cb 8b 3d 38 df ca 3b 13 05 08 3d d7 af 90 bd
       0.0682599 0.0061911605 0.033207964 -0.07064789
000250 f9 f0 92 bd 8b 7f 87 3d a6 49 16 3d 33 66 21 bd
       -0.07174868 0.06616124 0.03669133 -0.039404105
000260 35 a2 1c 3d f7 3a 7d 3b 10 5a ba 3d f7 75 af 3d
       0.03824063 0.0038639882 0.09099209 0.08567422
000270 91 c1 4e 3d ce 0d 5d 3b 52 7d d7 bc c4 29 06 bd
       0.050477568 0.0033730152 -0.026304875 -0.032754675
000280 9b e8 b9 3d 77 d9 b9 3d 7a db 80 3d 0e ab ac 3d
       0.09077569 0.09074681 0.06291862 0.084310636
000290 29 a8 20 bd 99 12 c1 bd d4 4a 2d bd 60 14 da bd
       -0.03922287 -0.09427375 -0.04230769 -0.106484175
0002a0 75 06 82 3d 41 48 88 3c ff 0a 63 bd b8 ef 7d 3d
       0.06348888 0.016636016 -0.05543041 0.06199619
0002b0 86 38 95 3c b9 5c c1 bd 18 88 64 bd 91 23 ba 3d
       0.018215429 -0.094415136 -0.05579385 0.09088815
0002c0 87 23 b7 3d 98 09 be bd cd 38 c0 bd 4c d0 be 3d
       0.08942323 -0.092791736 -0.09385834 0.09317073
0002d0 87 75 36 3d a3 0b 10 3c 8e 02 d7 bd 22 93 c3 3d
       0.044545677 0.008791837 -0.10498534 0.09549548
0002e0 24 93 9a 3c 9d f9 ed 3d 95 aa b2 3d 71 b3 8f 3d
       0.01886899 0.116198756 0.08723942 0.070166476
0002f0 46 92 de 3d 0b 51 83 3d 9b c5 b9 3d c3 be 5a 3d
       0.10867743 0.06411942 0.090708934 0.05340458
000300 2e 58 5d 3d 97 3a da 3d 89 22 b7 3d 4f 73 13 bc
       0.054039173 0.106557064 0.08942134 -0.00899966
000310 f4 01 b7 bc 7f 44 94 bd 29 9c aa bd ba 5e bb 3d
       -0.022339799 -0.07239627 -0.083305664 0.09148927
000320 ad 24 ef 3c a4 d6 a0 bc cd e4 06 3d c5 c5 32 3d
       0.029192293 -0.019633599 0.032933045 0.04364564
000330 b5 7d 15 3d 05 e3 90 bc 53 02 d8 3b a4 ab c8 3c
       0.036496837 -0.017686376 0.006592074 0.024495907
000340 50 ff ed bc 4a c7 d6 bc f6 b2 0e 3d 3a 8b 10 3d
       -0.029052407 -0.026218075 0.03483864 0.035289027
000350 f7 7c 26 3d bc 14 29 3d eb 06 95 bc ff 9a 14 bd
       0.04064652 0.04127954 -0.018191775 -0.03628063
000360 1c 99 22 3d 42 21 24 bd b6 d8 03 3d 21 90 d7 3c
       0.039696798 -0.04007078 0.032189094 0.026313843
000370 73 89 a2 bc 91 41 cf 3c ba 9f 91 3a 88 e5 10 bd
       -0.019840932 0.02529982 0.0011110224 -0.035375148
000380 20 b3 91 bc 1b 7b 11 3d a4 8a 11 3d c3 f9 14 bd
       -0.017785609 0.035517793 0.03553261 -0.036371004
000390 35 71 1b bd c5 7a 14 3d 1b 21 bb 3c 28 e2 b0 3b
       -0.03794976 0.036249895 0.022842934 0.0053980537
0003a0 7d 99 17 bd ee 68 15 3d 5d 5a 85 bb f2 ec 22 3d
       -0.037011612 0.036477022 -0.00406961 0.03977675
0003b0 59 94 fd 3c d6 7e 08 3d b0 98 23 3d df 70 b5 3c
       0.030954527 0.033324085 0.039940536 0.022148548
0003c0 04 e0 0b 3d 70 3c 0b 3d 9a 72 35 3d 8b 48 24 3d
       0.034149185 0.033993185 0.044298746 0.040108245
0003d0 14 8c 0c 3d aa e1 e5 3b 22 4c 8c 3b 22 bf 15 bd
       0.034313276 0.0070154266 0.0042815367 -0.03655923
0003e0 6a c0 10 bd 1a 44 a5 3c 08 fa 1b 3d 54 6b 0e bd
       -0.03533975 0.020174075 0.038080245 -0.034770325
0003f0 21 f5 8e 3d 6c 41 3d 3d 61 43 b1 3d 21 8a 51 3c
       0.069803484 0.04620497 0.0865543 0.01278928

bias_ih_l0 f4 [200]
000000 59 14 04 3e 0f 9f ed 3d 4a 85 f1 3d 99 11 72 3e
       0.12898387 0.11602604 0.11793001 0.23639525
000010 7a 18 93 3d f4 4a 2f 3e 5f ad 93 3d 8b e9 de 3d
       0.07182403 0.17118436 0.07210802 0.108843885
000020 89 6f ed 3d 17 43 75 3d f9 b8 00 3e 86 2b 59 3d
       0.11593539 0.059878435 0.12570561 0.053020023
000030 bc 85 10 3e a2 f1 bb 3d b5 8c a3 3d e4 ef 67 3d
       0.14113516 0.09176947 0.07985822 0.056625262
000040 31 7d 1d 3e 6e 01 2c 3e 6c d5 c5 3d 68 3a b0 3d
       0.15379788 0.1679742 0.096598476 0.0860489
000050 33 e3 b1 3d d3 7c 21 3e ce ac b5 3d fc b2 5c 3d
       0.08685913 0.15770273 0.088708505 0.05388163
000060 0b 32 ca 3d ff 0e 5e 3d ef 65 6d 3d 2e f6 80 3d
       0.09872826 0.05421352 0.05795854 0.06296955
000070 2d b7 c5 3d be 03 6b 3d bf 4f df 3d a9 bb f2 3d
       0.09654079 0.057376616 0.10903882 0.118521996
000080 20 a0 ba 3d 30 7b 69 3d ec 01 61 3d 26 d5 03 3e
       0.09112573 0.057002246 0.054933473 0.12874278
000090 92 ee fc 3d cc 03 81 3d 5e be b5 3d 83 28 b7 3d
       0.12350191 0.06299552 0.088742 0.08943274
0000a0 22 48 67 3d 76 c4 ed 3d f7 81 fb 3d 6f 94 29 3e
       0.056465276 0.116097376 0.12280648 0.16560529
0000b0 08 d9 56 3d 73 de 10 3d b6 33 4b 3e 82 2f f3 3d
       0.05245307 0.035368394 0.19843945 0.11874296
0000c0 6d d3 a6 3d 71 8c ac 3d 27 57 94 3d c5 07 ac 3d
       0.08145795 0.084252246 0.072431855 0.083999194
0000d0 10 d3 af 3c 47 25 b1 3d f0 96 80 3d 33 0c af 3d
       0.021462947 0.08649688 0.06278789 0.08547249
0000e0 fc 7f 9a 3d a6 f4 ac 3c 3d 4b a1 3c 37 0c 0e 3d
       0.07543942 0.021112751 0.019689197 0.034679618
0000f0 b9 34 77 3d 97 7c 5e 3d a9 94 43 3d de da 07 3e
       0.060353015 0.054318037 0.047749195 0.13267085
000100 14 21 3e 3d 4d 67 81 3d 4a 23 81 3d 8f 25 ad 3d
       0.046418265 0.06318531 0.06305559 0.08454429
000110 bd 3a 09 3e ae c8 ce 3c 95 b8 d7 3d 78 ba 73 3d
       0.13401313 0.025242176 0.10533253 0.059504002
000120 7e ca 63 3d f8 86 65 3d 97 83 e9 3d f1 47 64 3d
       0.055613033 0.05603692 0.11402052 0.05573267
000130 2b 4f 5b 3d 8e 04 a3 3d d0 65 86 3d 3f 00 7e 3d
       0.053542297 0.07959853 0.06562388 0.062011953
000140 48 d3 5e 3d 85 a5 2d 3e aa ea f2 3d aa 9e 87 3d
       0.054400712 0.16957672 0.11861165 0.0662206
000150 c9 5e 9b 3d 55 86 82 3d 39 f4 77 3d 8d 81 b4 3d
       0.07586438 0.06373278 0.060535643 0.08813772
000160 ec 44 f0 3d a9 c4 03 3e 5d 3b 45 3d ea 9c 21 3d
       0.11731896 0.12867989 0.048152316 0.039456286
000170 97 20 80 3d 39 47 aa 3d 24 f6 40 3d 15 36 28 3c
       0.06256216 0.08314366 0.047109738 0.0102668
000180 5d 43 d7 3d 7d aa 1f 3e 19 9b 4c 3d fd 48 96 3d
       0.105108954 0.1559238 0.0499526 0.0733814
000190 a5 24 04 3d e6 6f 41 bd 80 dc 82 3d 67 39 b0 3d
       0.03226151 -0.047225855 0.06389713 0.08604699
0001a0 4a 84 0f 3e 42 38 a9 3d 4c b9 3b 3d 22 3f 6d 3c
       0.14015308 0.082626835 0.04583101 0.014480384
0001b0 62 5f b9 bc 6a 78 90 bd f4 ba ff 3d 74 28 06 3e
       -0.02262849 -0.07054217 0.1248683 0.13101369
0001c0 d7 d7 f5 3d db b6 ac 3d f5 f9 66 bd 8c 66 13 be
       0.12004059 0.084333144 -0.05639072 -0.14394587
0001d0 70 0c 5a bd 8c c8 47 be c4 92 d9 3d 59 1e 8b 3d
       -0.053234518 -0.19510096 0.106236964 0.06792898
0001e0 0c 45 d8 bd 66 9c fd 3d 1e 81 f7 3d 38 6c 16 be
       -0.10560045 0.12383346 0.12085174 -0.1468972
0001f0 d7 ee dc bd ad a2 0e 3e e5 e4 07 3e 58 75 fd bd
       -0.107877426 0.13929243 0.1327091 -0.12375897
000200 c3 6d 0a be 2a 0b 0e 3e d9 5c 8d bd 95 91 82 3d
       -0.13518433 0.13871446 -0.06902475 0.06375424
000210 ab 34 27 be 66 96 11 3e a2 18 b3 3c c8 b5 45 3e
       -0.16328685 0.14217529 0.021862332 0.19307625
000220 06 3b e3 3d de 41 5c 3d 6b 62 2d 3e 75 22 ae 3d
       0.11095242 0.053773753 0.16932075 0.08502666
000230 2e 39 0f 3e 1a 82 e5 3d b2 8b 45 3d a4 2b 4a 3e
       0.13986656 0.112064555 0.048228927 0.1974321
000240 5c d7 09 3e 90 cb 56 bd a3 31 b7 bd 14 20 04 be
       0.1346106 -0.052440226 -0.08945014 -0.12902862
000250 33 aa f0 bd 49 23 87 3d d4 a5 de 3d b9 d6 eb 3d
       -0.11751213 0.06598527 0.10871473 0.115155645
000260 5f 16 00 3e 11 e6 6a 3e f5 31 c8 3d 91 65 15 3e
       0.12508534 0.22939326 0.097751535 0.14589526
000270 63 53 82 3d 4e ec d8 3d af e9 f3 3d 7a b5 8f 3d
       0.06363561 0.105919465 0.11909806 0.07017036
000280 48 0a 08 3e fd cb bc 3d c1 84 1d 3e 8e ca c2 3d
       0.13285172 0.09218595 0.15382673 0.095112905
000290 a2 55 ac 3d 0e 26 c5 3d c6 7d 0e 3e 3d 21 f6 3d
       0.08414771 0.09626399 0.13915166 0.120180584
0002a0 44 e9 b7 3d 95 1e aa 3d 61 c4 b0 3d c4 5a c5 3d
       0.08980039 0.08306614 0.08631206 0.09636453
0002b0 52 14 ad 3d 78 de c1 3d e6 4d c9 3d 05 61 bf 3d
       0.084511414 0.09466261 0.09829311 0.09344677
0002c0 dd c7 bf 3d bf dc c3 3d 07 1c d2 3d fc 7a c3 3d
       0.09364293 0.09563588 0.10259252 0.09544942
0002d0 b2 db d6 3d 6d 55 69 3d f2 5e cd 3d 03 88 c7 3d
       0.10491122 0.056966234 0.10027875 0.09742739
0002e0 cb 53 56 3d 08 5a 13 3e 6c 06 05 3e e9 8c ae 3d
       0.052326005 0.14389813 0.12990731 0.0852297
0002f0 d6 04 e4 3d 3b 81 ba 3d d9 76 bd 3d a0 92 00 3e
       0.11133735 0.0910668 0.09251184 0.12555933
000300 a0 6d d3 3d 54 af f6 3d 9c b5 b9 3d 02 bb ed 3c
       0.10323644 0.1204516 0.09067842 0.029019836
000310 0a dd 4e 3e 33 97 db 3d 33 51 c4 3d 9c 7d af 3d
       0.20201507 0.10722198 0.095858 0.0856888

bias_hh_l0 f4 [200]
000000 65 14 04 3e 93 9a ed 3d 52 85 f1 3d af 11 72 3e
       0.12898405 0.11601748 0.11793007 0.23639558
000010 7a 18 93 3d 8a 4a 2f 3e 60 ad 93 3d 89 e9 de 3d
       0.07182403 0.17118278 0.07210803 0.10884387
000020 99 6f ed 3d 20 44 75 3d ef b8 00 3e 86 2b 59 3d
       0.11593551 0.059879422 0.12570547 0.053020023
000030 bd 85 10 3e 5c f1 bb 3d eb 8c a3 3d e9 ef 67 3d
       0.14113517 0.09176895 0.07985862 0.05662528
000040 fb 7d 1d 3e 62 01 2c 3e 63 d4 c5 3d 75 3a b0 3d
       0.15380089 0.16797403 0.0965965 0.086049
000050 fd e3 b1 3d cc 7c 21 3e 0d ad b5 3d 05 b3 5c 3d
       0.086860634 0.15770262 0.088708974 0.053881664
000060 0e 32 ca 3d e1 0e 5e 3d ef 65 6d 3d 21 f6 80 3d
       0.098728284 0.05421341 0.05795854 0.06296945
000070 be b5 c5 3d be 03 6b 3d 70 41 df 3d c4 bc f2 3d
       0.09653805 0.057376616 0.10901153 0.118524104
000080 43 a0 ba 3d 29 7b 69 3d a3 02 61 3d 2c d5 03 3e
       0.09112599 0.05700222 0.054934155 0.12874287
000090 ca ee fc 3d cb 03 81 3d 5e be b5 3d a5 28 b7 3d
       0.12350233 0.062995516 0.088742 0.08943299
0000a0 48 48 67 3d 71 c4 ed 3d 7a 82 fb 3d 3b 95 29 3e
       0.056465417 0.11609734 0.12280746 0.16560833
0000b0 de d8 56 3d 26 de 10 3d b6 33 4b 3e ef 30 f3 3d
       0.052452914 0.035368107 0.19843945 0.11874568
0000c0 ef d2 a6 3d 71 8c ac 3d 44 57 94 3d bf 07 ac 3d
       0.08145701 0.084252246 0.07243207 0.08399915
0000d0 aa d2 af 3c 59 1a b1 3d c3 96 80 3d d4 0a af 3d
       0.021462757 0.086476035 0.062787555 0.08546987
0000e0 8c 80 9a 3d 67 f5 ac 3c 61 4b a1 3c 0a 0c 0e 3d
       0.075440496 0.02111311 0.019689264 0.03467945
0000f0 b1 35 77 3d a1 7c 5e 3d a9 94 43 3d de da 07 3e
       0.06035394 0.054318074 0.047749195 0.13267085
000100 ad 22 3e 3d 4d 67 81 3d 3e 23 81 3d 8f 25 ad 3d
       0.04641979 0.06318531 0.0630555 0.08454429
000110 c4 3a 09 3e c7 c8 ce 3c 7e b8 d7 3d e3 ba 73 3d
       0.13401324 0.025242222 0.10533236 0.0595044
000120 6d ca 63 3d ff 86 65 3d a4 83 e9 3d eb 47 64 3d
       0.05561297 0.056036945 0.114020616 0.05573265
000130 45 4f 5b 3d 7f 04 a3 3d de 65 86 3d 3f 00 7e 3d
       0.053542394 0.07959842 0.065623984 0.062011953
000140 48 d3 5e 3d eb a5 2d 3e aa ea f2 3d a6 9e 87 3d
       0.054400712 0.16957824 0.11861165 0.06622057
000150 cd 5e 9b 3d 90 86 82 3d 39 f4 77 3d 8e 81 b4 3d
       0.07586441 0.06373322 0.060535643 0.08813773
000160 ec 44 f0 3d a9 c4 03 3e 61 3b 45 3d e2 9c 21 3d
       0.11731896 0.12867989 0.04815233 0.039456256
000170 99 20 80 3d 48 46 aa 3d 15 f6 40 3d f9 36 28 3c
       0.062562175 0.08314186 0.047109682 0.010267013
000180 5d 43 d7 3d 7b aa 1f 3e 23 9b 4c 3d fe 48 96 3d
       0.105108954 0.15592377 0.049952637 0.07338141
000190 3c ac 07 3d 3a 2c 2d bd 35 64 ac 3d 16 28 11 3e
       0.03312324 -0.042278506 0.084175505 0.14175448
0001a0 70 84 0f 3e 1e 7a c3 3d 91 72 51 3d 56 3b 82 3c
       0.14015365 0.095447764 0.05113465 0.015897434
0001b0 10 27 1d bd fa 22 90 bd 96 e5 ec 3d 9c 7f 0b 3e
       -0.03836733 -0.07037921 0.115672275 0.13622898
0001c0 40 a9 0a 3e c3 d9 83 3d fb bd ad bd 4a 8f 13 be
       0.13541126 0.06438019 -0.084835015 -0.14410129
0001d0 01 e0 a1 bd a6 93 45 be 68 b1 d9 3d 54 f0 8a 3d
       -0.079040535 -0.19294605 0.10629541 0.0678412
0001e0 cd 32 c6 bd b4 f3 fe 3d 87 d9 ed 3d 2a 64 16 be
       -0.09677658 0.124488264 0.11613756 -0.14686647
0001f0 c1 d5 10 be 8d 01 0f 3e 06 f8 06 3e 03 f7 f9 bd
       -0.1414404 0.13965435 0.13180551 -0.12205317
000200 fb 5c 0a be 89 25 0e 3e ff d2 8d bd 46 3d 6b 3d
       -0.13512032 0.13881506 -0.0692501 0.05743148
000210 5c ef 25 be 0a f8 10 3e ad 4a 94 bc 1a 57 44 3e
       -0.1620459 0.1415712 -0.018102014 0.19173852
000220 ec 11 cb 3d a5 d3 70 3d 79 66 2d 3e 06 19 ac 3d
       0.09915528 0.05879559 0.16933621 0.0840321
000230 09 2a 0f 3e c8 a9 00 3e 73 8c 3a 3d d8 4e 4a 3e
       0.13980879 0.12564766 0.0455441 0.19756639
000240 3f 44 0a 3e 52 28 39 bd ed 02 91 bd cf f5 06 be
       0.13502596 -0.045204468 -0.07080636 -0.13179706
000250 e3 ba 00 be ac 26 87 3d f4 a5 de 3d 36 d7 eb 3d
       -0.12571292 0.06599173 0.10871497 0.115156576
000260 62 16 00 3e 47 e6 6a 3e f5 31 c8 3d 92 65 15 3e
       0.12508538 0.22939406 0.097751535 0.14589527
000270 50 55 82 3d 23 ec d8 3d d8 e9 f3 3d 78 b5 8f 3d
       0.06363928 0.105919145 0.119098365 0.07017034
000280 7a 0a 08 3e fe cb bc 3d cd 84 1d 3e 25 cb c2 3d
       0.13285246 0.09218596 0.1538269 0.09511403
000290 a2 55 ac 3d 13 26 c5 3d e3 7d 0e 3e 30 21 f6 3d
       0.08414771 0.09626403 0.1391521 0.12018049
0002a0 37 e9 b7 3d 75 1e aa 3d 52 c9 b0 3d c4 5a c5 3d
       0.08980029 0.083065905 0.08632149 0.09636453
0002b0 54 14 ad 3d 79 de c1 3d e3 4d c9 3d fd 60 bf 3d
       0.08451143 0.094662614 0.09829309 0.09344671
0002c0 e3 c7 bf 3d 8f dc c3 3d fd 1b d2 3d fc 7a c3 3d
       0.09364297 0.095635526 0.102592446 0.09544942
0002d0 ab db d6 3d 25 55 69 3d e4 5e cd 3d fc 87 c7 3d
       0.10491117 0.056965966 0.100278646 0.09742734
0002e0 d7 53 56 3d 22 5a 13 3e 78 06 05 3e 4c 8c ae 3d
       0.05232605 0.14389852 0.12990749 0.08522853
0002f0 d6 04 e4 3d 3b 81 ba 3d ad 76 bd 3d 93 92 00 3e
       0.11133735 0.0910668 0.09251151 0.12555914
000300 ef 6d d3 3d 4d af f6 3d b1 b5 b9 3d 26 af ed 3c
       0.103237025 0.12045155 0.09067858 0.029014181
000310 11 de 4e 3e 11 97 db 3d 2b 51 c4 3d 9c 7d af 3d
       0.20201899 0.10722173 0.09585794 0.0856888

weight f4 [10, 50]
000000 80 0a ed bc 66 7f f3 3d 80 c2 89 ba a0 4b 36 bc
       -0.02893567 0.11889534 -0.0010510236 -0.011126429
000010 e6 ce f5 3d 0e 9e be 3d 60 16 fb 3c 2b 4d b2 bd
       0.12002353 0.0930749 0.030650318 -0.08706125
000020 26 8a 8e 3d ba 89 b9 bd b0 7b 8d 3d 00 31 6d 3a
       0.069599435 -0.090594724 0.06908357 0.0009048134
000030 fe 63 de 3d a0 63 9c bb 60 76 34 3d 60 e6 a6 3c
       0.10858916 -0.0047726184 0.044058204 0.020373523
000040 9c 32 d9 bd e8 b4 b1 3c 20 88 c7 3d 25 97 95 bd
       -0.10605356 0.021692708 0.09742761 -0.07304219
000050 9d 84 01 be b8 20 7e 3d 9c 96 08 bd 85 d7 01 3e
       -0.12648244 0.06204292 -0.033346757 0.1267987
000060 e3 9e 84 bd df 6a 0a be cf 97 03 3e 54 a3 bc bc
       -0.06475618 -0.1351733 0.12850879 -0.0230271
000070 80 8b 6d bb 58 d3 01 3d c8 62 ef 3c 3d 13 f2 bd
       -0.0036246479 0.031695694 0.029221907 -0.11820076
000080 14 18 d0 bc 28 68 96 3d 22 a0 cd 3d 5e 98 be bd
       -0.025402106 0.07344085 0.100403085 -0.093064055
000090 3d 6c 0a 3e 3e 38 fb 3d 80 87 5b bc a0 a1 f3 3b
       0.13517852 0.12266587 -0.013399005 0.0074350387
0000a0 ec 54 6c bd 88 68 b8 3c 3e 8d e5 bd 20 9b 6c 3d
       -0.057698175 0.022510782 -0.112085804 0.057765126
0000b0 b0 6f 4b 3c 33 6e d2 bd 8c c5 0f bd e4 73 93 bd
       0.012416765 -0.10274925 -0.035100505 -0.07199839
0000c0 00 c6 f4 3c 70 dc 1b 3c e5 b3 d1 bd d0 8f 0a 3c
       0.02987957 0.009513006 -0.1023939 0.008457139
0000d0 92 15 dc bd 80 0a d8 bb 84 3d 06 3d 8c db 1a 3d
       -0.10746302 -0.0065930486 0.03277351 0.037807032
0000e0 16 84 c6 3d 00 00 99 39 10 42 46 3c 80 7c 86 3c
       0.09693162 0.00029182434 0.012100711 0.016416788
0000f0 58 8f ab 3d 4a 78 59 bd 40 64 39 3c ac 6a d3 3d
       0.0837695 -0.053093232 0.011315405 0.103230804
000100 40 df 13 bc b5 92 a2 bd 24 27 35 3d a0 db 1f bc
       -0.009025395 -0.079381384 0.04422678 -0.0097569525
000110 40 33 32 3d a6 7f e3 bd 44 a0 25 bd cf 69 0e be
       0.043505907 -0.111083314 -0.040436044 -0.1390755
000120 4c ef c3 3d 94 88 b6 3d 90 b6 c9 bd 7c 9a 65 3d
       0.09567127 0.08912769 -0.09849274 0.05605553
000130 44 d5 ad bc c9 d5 e3 bd 13 50 0d 3e e8 57 81 3d
       -0.021219857 -0.11124761 0.13800077 0.06315595
000140 8c 41 16 bd e2 e5 6e bd 40 2c 3a bc 14 17 29 3d
       -0.036683604 -0.058324702 -0.011363089 0.041281775
000150 18 12 d9 bd 26 2b 83 bd 42 22 53 bd dc 9e 56 3d
       -0.10599154 -0.06404714 -0.051546343 0.052397594
000160 70 d3 da 3d 24 56 3b 3d 20 2d 96 3c 82 4d 01 bd
       0.1068486 0.045736447 0.018332064 -0.031568058
000170 f0 dd 43 bd e0 c3 f1 bd 40 95 02 be 86 07 ae 3d
       -0.047819078 -0.11804938 -0.12752247 0.08497529
000180 c0 49 c2 bc a3 ec ff bd 7d b3 0d 3e c0 7f 25 bb
       -0.023716807 -0.12496307 0.13838 -0.0025253147
000190 84 8b 2a bd ee f9 81 3d 06 2d d9 bd d2 2f bf bd
       -0.04163696 0.063464984 -0.10604291 -0.09335293
0001a0 96 7d e8 3d 0e 37 52 bd 40 d2 b8 bb 6e 7c 86 bd
       0.113520786 -0.051322035 -0.005640298 -0.06566702
0001b0 d1 78 0b be 60 74 be 3d 80 e0 0d be f0 05 28 bc
       -0.13620307 0.092995405 -0.13855171 -0.010255322
0001c0 27 93 e9 bd 30 fb f5 3c 10 77 eb bd 5e 08 de bd
       -0.1140502 0.030027002 -0.11497319 -0.1084144
0001d0 ec dd b2 bd 10 15 0a bd 42 d1 bd 3d 10 53 06 bd
       -0.087337345 -0.033711493 0.092684284 -0.03279406
0001e0 e6 f8 f4 3d 9a 6d c4 bd 78 99 a4 3d 40 24 47 bb
       0.11961536 -0.09591217 0.08037084 -0.0030386597
0001f0 20 6d 02 bd b6 45 e3 bd 00 50 6e b9 80 18 e6 3c
       -0.03184235 -0.11097281 -0.00022727251 0.028087854
000200 10 2a 61 3d 80 5f 3d bc 55 be a6 bd 32 41 9c 3d
       0.054971755 -0.0115584135 -0.08141772 0.076296225
000210 06 24 a8 3d 88 f2 d8 bc 04 26 99 3d 92 65 5c bd
       0.08209996 -0.026482835 0.07477954 -0.053807802
000220 80 c2 d4 ba b8 5d 14 3d 80 b2 76 bb ed 72 05 3e
       -0.0016232282 0.03622219 -0.0037643015 0.13032122
000230 f6 45 05 be ac ee 5f bd 88 34 45 bd 66 aa ca 3d
       -0.13014969 -0.054670975 -0.0481458 0.09895782
000240 a0 d1 4c 3c 70 b2 0e 3c 50 b1 d9 bc c0 13 61 3d
       0.01250115 0.008709535 -0.026573807 0.054950476
000250 fa 54 81 3d 88 37 d6 bc 58 81 0c 3d 04 0a da bc
       0.06315036 -0.026149526 0.03430304 -0.026616104
000260 78 56 eb 3c d4 c0 16 3d 62 dc 70 bd 04 49 4e 3d
       0.028727755 0.03680499 -0.058803923 0.050362602
000270 bb 0d 07 be 58 dc 7d 3d 58 2b 08 bd d0 09 5c bc
       -0.13188832 0.061977714 -0.03324446 -0.013430074
000280 56 19 e8 3d 91 d5 02 3e b0 f0 34 3d 3c fb f9 bd
       0.113329574 0.12776782 0.04417485 -0.12206122
000290 2a d7 22 bd a0 95 af 3b 58 ca 00 bd dc a6 8d 3d
       -0.039755978 0.005358413 -0.03144297 0.069165915
0002a0 30 19 05 3c c0 79 ad 3b 30 3e 12 3c a2 ca e9 3d
       0.008123681 0.0052940547 0.0089259595 0.11415602
0002b0 cf 5c 07 3e 25 de e7 bd e5 0b c6 bd b0 1c 2c 3d
       0.13218997 -0.113216676 -0.096702375 0.042019546
0002c0 d0 a1 ee bd 74 00 55 bd b5 15 0f 3e 16 d7 05 be
       -0.11651957 -0.052002385 0.13973124 -0.1307033
0002d0 c8 0e 71 bd 31 6b 89 bd d8 5d 4c bd ca e5 bb bd
       -0.058851987 -0.06709898 -0.049894184 -0.09174688
0002e0 f0 70 31 3d c0 b9 2b 3d ae 6d 87 3d 6a 2f f1 3d
       0.043320596 0.041925192 0.066127166 0.11776622
0002f0 02 73 f3 3d cc 55 07 be c4 f1 07 3d 86 47 a6 bd
       0.118871704 -0.13216323 0.03318955 -0.08119111
000300 a0 08 05 be 2d 2d 98 bd d4 b7 e7 bc 96 ec 45 bd
       -0.12991571 -0.074304916 -0.028285898 -0.04832133
000310 39 ba 07 3e 7c 7c dc bd 46 67 d1 3d c6 21 c2 3d
       0.13254632 -0.10765931 0.10224776 0.09479098
000320 97 da 00 3e 7e 67 a6 bd 88 9a e1 3c 90 80 f2 3c
       0.12583385 -0.08125208 0.027539507 0.029602319
000330 b7 88 02 3e 8c 7c 20 bd cc 13 52 3d c1 6b 0f 3e
       0.12747465 -0.039181277 0.05128841 0.14005949
000340 e4 31 ba bc 3d be ad bd 95 16 0c 3e a0 b1 92 bc
       -0.022728868 -0.08483551 0.1368049 -0.017906964
000350 b2 14 d4 3d c0 3e 7c 3d 48 14 50 bd 4c e1 2a 3d
       0.1035551 0.06158328 -0.05080059 0.041718766
000360 d2 2f 87 3d 99 f9 04 be 5d a1 a1 bd 5f 9b 10 3e
       0.06600918 -0.12985839 -0.07892106 0.1412177
000370 82 a0 9f 3d 06 43 a5 3d 6c 15 3b 3d 98 70 3b 3d
       0.07794286 0.08069424 0.045674726 0.045761675
000380 c8 e9 ee 3c 10 10 2e 3d 08 b0 cd 3c 0c 67 0e be
       0.02916421 0.042495787 0.025108352 -0.13906497
000390 08 77 8b 3c c6 35 ea 3d 06 b3 f8 3d 8e 4d 8b 3d
       0.017024532 0.11436038 0.12143521 0.06801902
0003a0 38 37 ad 3c 86 9a dc 3d 98 92 74 3d 6c b6 d9 bd
       0.021144494 0.107716605 0.059710115 -0.10630497
0003b0 26 64 f6 3d 48 72 0a bd 96 11 60 bd 30 c1 44 bc
       0.120308205 -0.033800393 -0.05470427 -0.01200895
0003c0 74 97 d8 3d 60 67 13 3c 88 93 cc bd 84 87 17 3d
       0.105757624 0.0089968145 -0.09989077 0.036994472
0003d0 78 a7 bc 3c ee eb ee 3d 7a 96 b2 bd b0 4c b2 3c
       0.023029074 0.11666094 -0.087201074 0.021765083
0003e0 88 ef 91 3c a0 a6 99 bc ae 99 6f bd b4 11 a2 bd
       0.017814413 -0.01875621 -0.05849617 -0.07913533
0003f0 32 0e ab 3d 40 7b cb 3b 46 82 5f bd 7e fd a5 3d
       0.08352317 0.006209761 -0.054567598 0.081049904

bias f4 [10]
000000 69 52 02 be e8 33 cb 3d 50 7c 28 bd 00 0c e5 3a
       -0.1272675 0.0992201 -0.04113418 0.001747489
000010 52 81 ed 3d ca ef d5 bd 70 6a 04 3c 0e 31 7b bd
       0.115969315 -0.10446127 0.008082017 -0.06132608
000020 fb 45 10 3e 60 e2 61 3d
       0.14089195 0.05514753

weight f4 [5, 10]
000000 31 65 81 3e 98 df 36 3d 57 84 1f be 5a 41 6c 3e
       0.25272515 0.04464683 -0.15577827 0.23071805
000010 92 28 9c be c4 11 fd 3d 28 30 a0 be 72 5d 4a 3e
       -0.30499703 0.12356904 -0.3128674 0.19762209
000020 00 0e fa 3d e5 f7 84 3e 28 b6 20 3d da 64 57 be
       0.122097015 0.2597038 0.039236218 -0.21034566
000030 61 02 1d be 48 c4 fc 3d 6d c7 8b 3e f5 73 98 3e
       -0.15332939 0.12342125 0.27300587 0.29775968
000040 04 ac db 3d c8 dd 66 bd ea 25 a5 bd 10 3c 44 3d
       0.10726169 -0.05636385 -0.08063872 0.047908843
000050 d4 e9 c8 3d d8 93 60 bd 20 41 1b 3c 60 9f c4 3c
       0.09810224 -0.054828495 0.009475976 0.024001777
000060 23 c5 5e be 52 04 34 3e 40 89 12 be 9c b0 d6 3d
       -0.21754889 0.17579773 -0.14310169 0.10482904
000070 0c 3a 80 3d 96 9c 47 3e c0 fb 66 bd 5c b9 82 3d
       0.062610716 0.19493327 -0.05639243 0.06383011
000080 bf 59 08 be a7 6b 22 be a4 ae ee 3d 1e 4c 5d be
       -0.13315485 -0.15861379 0.11654404 -0.21611068
000090 60 df 1b 3c ed 67 9b 3e 30 0e 0f bd 7e 18 5d be
       0.009513706 0.30352727 -0.03492564 -0.21591374
0000a0 80 58 10 3e 28 29 f5 3d 29 36 0d be 00 dc 36 3c
       0.1409626 0.119707406 -0.13790192 0.0111608505
0000b0 34 4a a5 bd 22 47 67 3e 4c 91 d3 bd c0 7c 19 bc
       -0.08070794 0.22585729 -0.103304476 -0.009368122
0000c0 4a 89 ff bd 51 77 6b be
       -0.12477358 -0.22994734

bias f4 [5]
000000 00 ec 37 3c 30 2f 26 3d 20 9e 37 bd f0 71 01 bd
       0.0112257 0.040572345 -0.044828534 -0.0316028
000010 e5 f6 88 3e
       0.26750866

weight f4 [2, 5]
000000 90 6a dd bc 22 b1 a7 3e 5a 05 9e 3e c8 2a 5b 3e
       -0.027028352 0.3275233 0.30863458 0.21403039
000010 c1 9f b4 be 1e af b0 3e b0 db 48 3e d8 89 f3 3d
       -0.35278133 0.34508604 0.19615054 0.11891526
000020 46 25 97 3e 12 10 dc be
       0.29520625 -0.4298101

bias f4 [2]
000000 5b ee 4a be 1c a7 04 3e
       -0.19817488 0.12954372
