model/saved_models/fr_decoder/model_large.pt (torch_old, 104173 bytes, 23 tensors)

weight f4 [75, 20]
0.0 0.0 0.0 0.0 0.0 0.0 0.0 0.0
0.0 0.0 0.0 0.0 0.0 0.0 0.0 0.0
0.0 0.0 0.0 0.0 0.046254557 -0.0020154624 0.08544552 0.004927137
0.033232607 -0.020305863 0.03178835 -0.00010020351 -0.0016556431 0.006187638 0.018914355 0.038182113
0.03273405 0.006940001 -0.05604323 -0.010520663 -0.015987666 -0.03702526 0.0014571153 0.044182293
-0.019136123 -0.00016851116 -0.0593855 -0.006592214 0.0071871937 0.0046120584 0.06001817 -0.04620497
0.0047184164 -0.0015097748 -0.0035631442 0.023445528 0.0024643666 -0.015137786 -0.010285005 -0.023408417
-0.007726298 0.0171246 2.4752808e-05 -0.010948186 0.08479878 -0.0013912811 -0.2419463 0.03710509
0.0038569085 -0.0321235 0.1334498 -0.13515924 -0.008064322 0.0041514765 0.0041737384 0.04868316
0.009740177 0.04903309 -0.06331381 -0.028055627 0.016582692 -0.050401438 0.000650859 0.05482689
-0.014151066 6.779491e-05 -0.24151671 -0.0020379801 0.006539718 -0.0012260694 0.16041295 -0.25319254
0.0038857933 -0.00056961447 -0.0032055653 0.038147137 0.009884146 -0.015072538 -0.024896108 -0.05411588
-0.0053474787 0.014106995 0.00017151708 -0.00032447567 0.23882219 -0.011223263 0.016567843 0.065395564
0.10561479 -0.077058926 0.0815467 -0.26966944 -0.10155884 0.004182587 0.17543979 -0.1047498
0.2520724 0.06606946 -0.12875757 -0.054591123 0.1034094 -0.16588354 0.0018433188 0.22268027
0.20626 -0.0045043444 0.3049447 0.040283255 0.059543364 -0.080306694 -0.06239296 0.15663585
-0.0007877062 0.022663016 0.038382243 0.07914183 0.026479246 0.075624146 -0.15201493 0.035426117
-0.04489397 -0.16604088 0.0047511104 0.15098347 0.12206371 0.00052599795 0.34590983 0.021259729
0.0010900641 -0.05865133 -0.11607022 0.34303093 0.045687817 0.02239976 -0.044222843 0.12744918
-0.097335696 0.06389633 -0.10641509 0.061947536 -0.08648282 -0.11265724 0.004401592 0.059584785
0.098347396 -0.0074149007 0.32657623 0.021244217 0.08081946 -0.01643521 -0.09610176 0.15472737
-0.08346176 -0.005396042 0.12846708 -0.11771642 0.20767817 0.012908459 -0.026226213 0.0050242804
0.09007255 -0.053885274 -0.00074676005 0.11149773 -0.106776975 0.0055871583 -0.22471799 -0.025643384
-0.05535343 0.031605434 0.052168183 -0.08495263 0.05069586 -0.0017446649 -0.08611075 0.06015278
-0.1293567 -0.028907117 0.04958046 -0.0011139252 -0.049748007 0.07342529 -0.0007255951 -0.10074059
-0.09672622 0.004421885 -0.16321895 -0.025523445 -0.03924663 0.029760066 0.046101633 -0.061722923
0.040565122 -0.0019600098 -0.06798513 0.051618483 -0.09643276 -0.03139852 0.041075733 -0.0035409487
-0.04194437 0.0680632 -0.0006679358 -0.08564908 0.024789905 0.0044523026 -0.040549804 0.012149919
-0.0715459 -0.023972642 -0.08603252 0.08802685 0.058034133 0.011435175 -0.084855326 0.054747887
-0.18337555 0.044358555 -0.0036521903 0.050877925 -0.06476818 -0.044955324 0.0019554081 -0.027838206
-0.10384101 0.0032889692 0.3516235 -0.07172357 -0.045406915 -0.015288255 -0.14757116 -0.31457663
0.093211666 0.020719884 -0.049609125 -0.045932222 -0.17006491 -0.078113385 0.026494524 -0.00998986
00000000: 0000 0000 0000 0000 0000 0000 0000 0000
00000010: 0000 0000 0000 0000 0000 0000 0000 0000
00000020: 0000 0000 0000 0000 0000 0000 0000 0000
00000030: 0000 0000 0000 0000 0000 0000 0000 0000
00000040: 0000 0000 0000 0000 0000 0000 0000 0000
00000050: 6b75 3d3d d915 04bb 10fe ae3d d273 a13b
00000060: ea1e 083d 7b58 a6bc 8034 023d 5a24 d2b8
00000070: 2a02 d9ba abc1 ca3b 47f2 9a3c d964 1c3d
00000080: 2414 063d f368 e33b 968d 65bd dc5e 2cbc
00000090: 91f8 82bc cda7 17bd adfc be3a 7ef8 343d
000000a0: 5cc3 9cbc 5fb2 30b9 363e 73bd 8003 d8bb
000000b0: 8d82 eb3b c020 973b 9dd5 753d 6c41 3dbd
000000c0: f29c 9a3b a3e3 c5ba a483 69bb d610 c03c
000000d0: 3681 213b 7a04 78bc 7082 28bc 02c3 bfbc
000000e0: e32c fdbb e448 8c3c 40a4 cf37 0560 33bc
000000f0: fcaa ad3d a65b b6ba c5c0 77be 82fb 173d
00000100: 30c4 7c3b ee93 03bd 10a7 083e 2f67 0abe
00000110: 3820 04bc 1c09 883b dbc3 883b fe67 473d
00000120: 4395 1f3c ecd6 483d acaa 81bd ead4 e5bc
00000130: 6dd8 873c bd71 4ebd 689e 2a3a 2992 603d
00000140: dfd9 67bc 1d2d 8e38 2850 77be a28f 05bb
00000150: 214b d63b 10b4 a0ba 4b43 243e 74a2 81be
00000160: cba8 7e3b 2e52 15ba 7614 52bb 2c40 1c3d
00000170: 1df1 213c cef2 76bc ecf2 cbbc 9da8 5dbd
00000180: e739 afbb 0721 673c 44d9 3339 631e aab9
00000190: ce8d 743e c7e1 37bc 49b9 873c 1cee 853d
000001a0: 914c d83d 12d1 9dbd f501 a73d 1d12 8abe
000001b0: 15fe cfbd 150e 893b 7da6 333e 1087 d6bd
000001c0: a20f 813e 6d4f 873d 06d9 03be f19a 5fbd
000001d0: 4fc8 d33d 60dd 29be 849b f13a 4c06 643e
000001e0: d235 533e 2e99 93bb b621 9c3e 0e00 253d
000001f0: bee3 733d d677 a4bd c38f 7fbd 2665 203e
00000200: 117e 4eba caa7 b93c b336 1d3d 1d15 a23d
00000210: 01eb d83c d5e0 9a3d cda9 1bbe fa1a 113d
00000220: bde2 37bd 9f06 2abe 34af 9b3b 699b 1a3e
00000230: 8afc f93d 20e3 093a 181b b13e e228 ae3c
00000240: 7be0 8e3a 613c 70bd 39b6 edbd c0a1 af3e
00000250: 2623 3b3d b47f b73c 0323 35bd 0a82 023e
00000260: f057 c7bd 14dc 823d 28f0 d9bd b3bc 7d3d
00000270: e81d b1bd d7b8 e6bd 3b3b 903b 2d0f 743d
00000280: 5c6a c93d b2f8 f2bb 0035 a73e 5a08 ae3c
00000290: ac84 a53d 22a3 86bc 00d1 c4bd da70 1e3e
000002a0: 00ee aabd 48d1 b0bb e08c 033e 4e15 f1bd
000002b0: 96a9 543e 007e 533c 5bd8 d6bc b8a2 a43b
000002c0: f577 b83d ceb6 5cbd 38c2 43ba ec58 e43d
000002d0: e3ad dabd 7b14 b73b 791c 66be 1312 d2bc
000002e0: 47ba 62bd b374 013d 4eae 553d a5fb adbd
000002f0: 76a6 4f3d 3dad e4ba d55a b0bd c362 763d
00000300: 1576 04be 9ece ecbc e114 4b3d 2101 92ba
00000310: 91c4 4bbd 0060 963d dd35 3eba 1551 cebd
00000320: 6518 c6bd 76e5 903b de22 27be 8b16 d1bc
00000330: 13c1 20bd 62cb f33c 11d5 3c3d 2dd1 7cbd
00000340: 9d27 263d 8273 00bb ca3b 8bbd e76d 533d
00000350: 8a7e c5bd bc9b 00bd 073f 283d 430f 68bb
00000360: dccd 2bbd b864 8b3d 6a18 2fba c968 afbd
00000370: 3314 cb3c 9fe4 913b 8d17 26bd 7410 473c
00000380: a886 92bd 4662 c4bc d131 b0bd 6c47 b43d
00000390: 33b5 6d3d 9a5a 3b3c a1c8 adbd 523f 603d
000003a0: cdc6 3bbe 51b1 353d 9659 6fbb 5f65 503d
000003b0: 2ea5 84bd 1323 38bd 4e26 003b f30c e4bc
000003c0: 98aa d4bd bf8b 573b ff07 b43e cfe3 92bd
000003d0: 9afc 39bd 977b 7abc e51c 17be 3010 a1be
000003e0: c2e5 be3d bfbc a93c f032 4bbd 6d23 3cbd
000003f0: 7f25 2ebe e9f9 9fbd 0b0b d93c 82ac 23bc

weight_ih_l0 f4 [80, 20]
0.0065233763 -0.0002558551 0.005737093 0.0015356364 0.003142551 -0.0020997282 0.0011270209 -0.00022186218
-0.0020029405 0.00027324195 0.0036796012 -0.00042783958 0.005958033 0.0017771986 -0.0043734475 -0.00068428816
0.0015474404 -0.0044431263 7.230268e-05 0.0057701003 0.0062194453 -0.00023959817 0.0052564535 0.0014817376
0.0029542055 -0.0020112265 0.0012608332 -0.000500326 -0.0018422586 0.000310696 0.0035039186 -0.00026021863
0.005365622 0.001946056 -0.004271517 -0.00057751033 0.0013978365 -0.0041294554 7.141787e-05 0.005475701
0.006613476 -0.0002662565 0.006286484 0.0015634203 0.003241757 -0.0021017871 0.00049756136 6.40849e-05
-0.0022339388 0.0002468725 0.0039833784 -0.0010502881 0.006087487 0.0017505392 -0.0043342756 -0.00063938956
0.0017946662 -0.004508201 6.749545e-05 0.005959296 -0.004940531 -0.0003859732 -0.020068508 -0.0029129107
0.011985592 0.0006118136 0.049869664 -0.02765101 0.0012289168 0.00041490464 0.0006200921 0.026421895
0.012181861 -0.007288884 -0.013779216 -0.0135021135 -0.006192572 0.007052725 0.00012570697 0.002535212
0.0073353867 -0.00028518282 0.0062808846 0.0018552351 0.0029685192 -0.002416611 -0.0007443849 -0.00048844586
-0.0025880763 0.00022681795 0.0043937447 -0.0022542367 0.006263929 0.0021537056 -0.0041764937 -0.0004319264
0.0023803122 -0.0051111197 6.464732e-05 0.0066070165 0.036672257 -0.002150804 0.091339774 0.0040219314
0.029235598 -0.011613925 -0.0044395337 0.015434488 -0.015912505 0.0018318653 0.032385133 -0.008139199
0.05295714 0.0036880036 -0.028014898 -0.0034106101 0.008829445 -0.025283959 0.0005516552 0.039940793
0.025575463 -0.0011019382 0.045994867 0.0051060114 0.013381463 -0.008141097 -0.0073762 0.013790447
-0.008481665 0.0011291405 0.015988076 -0.004966372 0.024306726 0.005805011 -0.015725527 0.0005633159
0.0053167953 -0.017954178 0.00033016372 0.02329606 0.0062763006 -0.00024706958 0.006119521 0.0015164242
0.0028299557 -0.0020929456 0.00090809877 -5.5309618e-05 -0.0019926878 0.00027936778 0.0036555028 -0.0003558092
0.0054342346 0.0018269067 -0.004340941 -0.0005392891 0.0014429734 -0.0043143416 7.193548e-05 0.0055490015
0.006461244 -0.00026069058 0.006002654 0.0015256767 0.003309659 -0.0021035832 0.0011084197 -0.00016119727
-0.0021619475 0.00027213324 0.003946595 -0.00036556818 0.0061045527 0.0017404119 -0.0044752094 -0.0007374049
0.0014600052 -0.0043159286 7.294767e-05 0.0059555704 0.008636053 -0.00027558237 0.007055444 0.0024891405
0.0016773065 -0.002859102 -0.005638012 0.00055967626 -0.0028082558 0.00023246072 0.0045078415 -0.005353731
0.0052281367 0.0033431584 -0.0031051575 0.00078369066 0.0031460074 -0.006538688 6.61281e-05 0.0069840034
0.006696853 -0.0002635999 0.0060820077 0.0015381594 0.0031890098 -0.0021080086 0.0011003582 -0.0005585879
-0.0021323683 0.0002753358 0.003868664 -0.00050791097 0.006017597 0.0017034439 -0.004441242 -0.0007392876
0.0015979797 -0.0043650204 7.213742e-05 0.00589082 0.006876889 -0.00027617815 0.006264102 0.0017351938
0.0029644482 -0.0022735256 -0.00047917763 9.410175e-05 -0.0024368446 0.00021471945 0.004302695 -0.0017508387
0.0061872527 0.0019879588 -0.0041406555 -0.0004404338 0.0022106494 -0.004791932 6.002903e-05 0.006305346
0.0072951526 -0.00026531078 0.0071098483 0.0018858131 0.0023579986 -0.0023801753 -0.0024288788 0.00085142406
-0.00236107 0.00024049619 0.0040762904 -0.0028913342 0.0053915433 0.002436212 -0.0035949445 0.00014259918
00000000: 0cc2 d53b 4a24 86b9 39fe bb3b 6847 c93a
00000010: 42f3 4d3b 989b 09bb 8cb8 933a ada3 68b9
00000020: c443 03bb ea41 8f39 7725 713b a84f e0b9
00000030: 9a3b c33b e4f0 e83a 234f 8fbb cd61 33ba
00000040: 7cd3 ca3a a597 91bb 35a1 9738 1c13 bd3b
00000050: 7dcc cb3b a53c 7bb9 543e ac3b dd36 c23a
00000060: 589b 413b c8ce 03bb 8b42 a53a 4f28 03ba
00000070: f177 f1ba e9e4 a239 00a2 653b f46d 88b9
00000080: 1ad2 af3b ce12 ff3a 15f8 8bbb 1064 17ba
00000090: 9c37 b73a 6250 87bb 2dc6 9538 826d b33b
000000a0: dcb5 d83b 5898 8bb9 dafe cd3b aeeb cc3a
000000b0: a873 543b 23be 09bb c76e 023a 5265 8638
000000c0: 4667 12bb ab6e 8139 0087 823b d2a9 89ba
000000d0: 8b79 c73b 5972 e53a 8a06 8ebb b59c 27ba
000000e0: 013b eb3a 88b9 93bb 588c 8d38 3346 c33b
000000f0: 2ee4 a1bb 725c cab9 b666 a4bc 88e6 3ebb
00000100: 375f 443c 1e62 203a 2244 4c3d 5f84 e2bc
00000110: 9b13 a13a 8f87 d939 ad8d 223a bb72 d83c
00000120: 6e96 473c 97d7 eebb 39c2 61bc f837 5dbc
00000130: 0feb cabb 8c1a e73b 35d0 0339 cd25 263b
00000140: af5d f03b 9784 95b9 e1cf cd3b 5c2b f33a
00000150: 7d8b 423b 0160 1ebb d322 43ba 0c0b 00ba
00000160: b79c 29bb fbd5 6d39 67f9 8f3b d1bb 13bb
00000170: a541 cd3b 2f25 0d3b f8da 88bb 2e74 e2b9
00000180: 03ff 1b3b 2e7b a7bb 4493 8738 ac7f d83b
00000190: a635 163d 81f4 0cbb 5910 bb3d 68ca 833b
000001a0: 7e7f ef3c 5548 3ebc 8279 91bb efe0 7c3c
000001b0: f15a 82bc 331b f03a 46a6 043d 465a 05bc
000001c0: 96e9 583d 6fb2 713b 807f e5bc 8b84 5fbb
000001d0: 60a9 103c 4e20 cfbc f49c 103a f598 233d
000001e0: a283 d13c e96e 90ba 1d65 3c3d 5450 a73b
000001f0: ec3d 5b3c 3c62 05bc 0db4 f1bb 54f1 613c
00000200: aef6 0abc abff 933a 6df9 823c f3bc a2bb
00000210: e61e c73c f637 be3b d2d2 80bc 7dab 133a
00000220: 8338 ae3b a414 93bc d319 ad39 61d7 be3c
00000230: 6da9 cd3b 1e89 81b9 4386 c83b c1c2 c63a
00000240: c776 393b cd29 09bb 7a0d 6e3a 40fc 67b8
00000250: c197 02bb 1c78 9239 2991 6f3b e78b bab9
00000260: aa11 b23b d174 ef3a 743e 8ebb 145f 0dba
00000270: 2722 bd3a 525f 8dbb 11dc 9638 66d4 b53b
00000280: d8b8 d33b 4cad 88b9 e9b1 c43b 37f9 c73a
00000290: dde6 583b 45dc 09bb 6548 913a 1007 29b9
000002a0: 76af 0dbb 1bad 8e39 7052 813b bba9 bfb9
000002b0: b308 c83b 881e e43a c7a4 92bb 684e 41ba
000002c0: a55d bf3a a26c 8dbb 7bfb 9838 f226 c33b
000002d0: 3b7e 0d3c 0a7c 90b9 5b31 e73b d920 233b
000002e0: 11d9 db3a c65f 3bbb 13bf b8bb 3db7 123a
000002f0: b70a 38bb b3c0 7339 84b6 933b 5a6e afbb
00000300: ca50 ab3b e418 5b3b e67f 4bbb 9770 4d3a
00000310: 3f2d 4e3b 7e42 d6bb 41ae 8a38 11da e43b
00000320: 4671 db3b c833 8ab9 944b c73b 119c c93a
00000330: b5fe 503b 8426 0abb e539 903a 336e 12ba
00000340: 34bf 0bbb f25a 9039 6989 7d3b 5425 05ba
00000350: 432f c53b 1846 df3a d787 91bb c0cc 41ba
00000360: 4d73 d13a 7208 8fbb 7c48 9738 c807 c13b
00000370: 8757 e13b 01cc 90b9 1943 cd3b 716f e33a
00000380: 3047 423b 6eff 14bb 223a fbb9 7e58 c538
00000390: 78b3 1fbb 5026 6139 9ffd 8c3b 667c e5ba
000003a0: 70be ca3b 6a48 023b 56ae 87bb 06ea e6b9
000003b0: 8be0 103b a405 9dbb aec7 7b38 139d ce3b
000003c0: 2d0c ef3b 6919 8bb9 bbf9 e83b 632d f73a
000003d0: a788 1a3b b7fc 1bbb d32d 1fbb 1a32 5f3a
000003e0: 2ebc 1abb b42d 7c39 6792 853b 8a7c 3dbb
000003f0: 8bab b03b dba8 1f3b 2999 6bbb ad86 1539

weight_hh_l0 f4 [80, 20]
0.031020608 -0.03041381 0.031194879 -0.028485961 -0.032264408 0.0034291819 -0.0011559045 -0.030400354
0.031240683 0.032063127 -0.031570084 0.03180942 -0.029834619 0.0429401 0.027612448 -0.0010755317
-0.031005412 0.036509242 -0.0006440344 0.027705893 0.029950207 -0.029365286 0.030115187 -0.027967524
-0.03113199 0.002368202 -0.0006673312 -0.029357534 0.030152347 0.030944942 -0.03046663 0.03069801
-0.028804053 0.04459565 0.026717667 -0.00070013903 -0.029928776 0.03680907 -0.0006612074 0.027893115
0.031022497 -0.030422127 0.031190444 -0.028483951 -0.031888902 0.0030518447 -0.0013578631 -0.030408924
0.031254083 0.032097902 -0.031191722 0.031810116 -0.02991139 0.04334214 0.027792891 -0.0012009451
-0.031003708 0.03692246 -0.00067419955 0.029261356 0.08618209 -0.0852728 0.087569885 -0.0056522805
-0.08921912 0.06488283 -0.031888574 -0.08487238 0.08715512 0.08734846 -0.08881137 0.08844159
-0.07962385 0.027475007 0.07189049 -0.022353468 -0.08653525 0.057844598 -0.0012630114 -0.05856691
0.031111611 -0.030583281 0.031395327 -0.02736905 -0.03236321 0.0023467161 -0.0009828554 -0.0307584
0.031461857 0.032143753 -0.03169394 0.03189441 -0.02996315 0.042824794 0.027718652 -0.0009905226
-0.031202683 0.036025234 -0.00065045047 0.02755502 0.050181393 -0.049424574 0.05158059 -0.027296513
-0.05457111 -0.01260461 0.014827945 -0.04899532 0.0514564 0.05207611 -0.05270132 0.053067233
-0.04431798 -0.013802068 0.03607627 0.012625972 -0.05136239 -0.06706894 6.5262626e-05 -0.08962447
0.043057818 -0.042327367 0.043753058 -0.033649445 -0.04555322 -0.0007253371 0.0017924007 -0.042158253
0.043789994 0.044606064 -0.044454895 0.044741724 -0.039885752 0.017308937 0.034920357 0.0012808173
-0.043487836 -0.007400901 -0.0004227764 0.0103009865 0.030414553 -0.029840745 0.030596144 -0.028407384
-0.031597324 0.002634748 -0.00076244964 -0.029813442 0.03062932 0.031410657 -0.030941382 0.03116347
-0.029282043 0.044906482 0.02722862 -0.0007681877 -0.030406814 0.037297882 -0.0006965439 0.028841943
0.031010056 -0.030416694 0.031205386 -0.028635094 -0.031954736 0.0033039511 -0.0012013253 -0.030391347
0.031234482 0.032045517 -0.031210331 0.031799916 -0.029809162 0.04386199 0.027583877 -0.001067729
-0.031011786 0.03699848 -0.0006557369 0.028556988 0.031221995 -0.030809438 0.031615388 -0.02775957
-0.0326956 0.0017886831 -0.0012758597 -0.030784514 0.03171325 0.032384463 -0.03200615 0.032088086
-0.02995859 0.042291027 0.02756833 -0.0013477049 -0.031490922 0.036870465 -0.0006614639 0.030212099
0.03111716 -0.030505406 0.031298403 -0.028005268 -0.03208316 0.0033117516 -0.0014669558 -0.030489383
0.031343494 0.032182094 -0.031360228 0.031922348 -0.02988696 0.043740865 0.027565321 -0.0012503454
-0.031105729 0.03673857 -0.00065441866 0.027991667 0.03127926 -0.03066981 0.031520054 -0.028121285
-0.032275476 0.002172717 -0.0008735709 -0.03069945 0.031537402 0.032282345 -0.03158622 0.031933162
-0.030115334 0.042514082 0.027826257 -0.00089257484 -0.031332318 0.03657175 -0.00066496746 0.02872934
0.029115956 -0.02866761 0.029430429 -0.02717478 -0.030348571 0.0033809745 -0.001851025 -0.028653754
0.02951699 0.030171752 -0.029718932 0.02988034 -0.028020097 0.04358209 0.025884345 -0.0015931118
00000000: ee1e fe3c 6226 f9bc 678c ff3c 645b e9bc
00000010: af27 04bd 20bc 603b b881 97ba 2a0a f9bc
00000020: 76ec ff3c a054 033d a24f 01bd 984a 023d
00000030: bb67 f4bc f5e1 2f3d 8033 e23c dbf8 8cba
00000040: 10ff fdbc b78a 153d 6bd4 28ba 78f7 e23c
00000050: 235a f53c 788f f0bc 20b4 f63c 261c e5bc
00000060: 8408 ffbc d633 1b3b d7ef 2eba 367f f0bc
00000070: 0e02 f73c 3f80 fd3c 2795 f9bc 657a fb3c
00000080: 7af6 ebbc eea9 363d 02df da3c 8989 37ba
00000090: 312d f5bc 1bc5 163d e154 2dba 1a80 e43c
000000a0: e422 fe3c d337 f9bc 1a83 ff3c 2d57 e9bc
000000b0: f09d 02bd 7501 483b 53fa b1ba 231c f9bc
000000c0: 4804 003d 1779 033d c885 ffbc 534b 023d
000000d0: bb08 f5bc 8787 313d ebad e33c 0869 9dba
000000e0: 7dfb fdbc 013c 173d c4bc 30ba 83b5 ef3c
000000f0: 3c80 b03d 81a3 aebd d757 b33d c436 b9bb
00000100: 84b8 b6bd 4ae1 843d 989d 02bd 92d1 adbd
00000110: 627e b23d c0e3 b23d bce2 b5bd dd20 b53d
00000120: d411 a3bd 4413 e13c 523b 933d 9f1e b7bc
00000130: 6539 b1bd 75ee 6c3d a18b a5ba dbe3 6fbd
00000140: c7dd fe3c ca89 fabc 6398 003d 0f35 e0bc
00000150: 498f 04bd 5dcb 193b 28d3 80ba 0af9 fbbc
00000160: 26de 003d 2ba9 033d 81d1 01bd b6a3 023d
00000170: 4875 f5bc 0d69 2f3d 3a12 e33c 6cd4 81ba
00000180: c59c ffbc 328f 133d fe82 2aba 11bb e13c
00000190: 018b 4d3d 6c71 4abd 2b46 533d f09c dfbc
000001a0: f585 5fbd 9183 4ebc e9f0 723c 51af 48bd
000001b0: f2c3 523d c24d 553d 57dd 57bd 075d 593d
000001c0: c586 35bd 1222 62bc b6c4 133d 2add 4e3c
000001d0: 5f61 52bd 715b 89bd 9bdd 8838 098d b7bd
000001e0: 655d 303d 765f 2dbd 6836 333d 00d4 09bd
000001f0: 0396 3abd 8c24 3eba fdee ea3a 22ae 2cbd
00000200: 235d 333d d9b4 363d 5616 36bd 1943 373d
00000210: 3e5f 23bd 79cb 8d3c a608 0f3d 19e1 a73a
00000220: 4d20 32bd 4283 f2bb 16a8 ddb9 78c5 283c
00000230: f127 f93c 9474 f4bc c4a4 fa3c 9ab6 e8bc
00000240: 326c 01bd bcab 2c3b 21df 47ba 523b f4bc
00000250: 57ea fa3c 76a8 003d c878 fdbc 894a ff3c
00000260: e5e0 efbc dcef 373d 8e0e df3c 3460 49ba
00000270: b617 f9bc aac5 183d 4598 36ba f045 ec3c
00000280: cd08 fe3c 6e2c f9bc 70a2 ff3c 2594 eabc
00000290: f8e2 02bd 1a87 583b ca75 9dba 46f7 f8bc
000002a0: 75df ff3c 2942 033d cfac ffbc a140 023d
000002b0: 5832 f4bc a1a8 333d 95f7 e13c 0af3 8bba
000002c0: 6e0c febc b88b 173d c2e5 2bba 58f0 e93c
000002d0: 45c5 ff3c 1364 fcbc 237f 013d 0a68 e3bc
000002e0: d2eb 05bd 3f72 ea3a bf3a a7ba ce2f fcbc
000002f0: c1e5 013d 92a5 043d e118 03bd cc6e 033d
00000300: b86b f5bc 5b39 2d3d fad6 e13c 79a5 b0ba
00000310: a0fc 00bd 7c05 173d 1766 2dba 5d7f f73c
00000320: 6ae9 fe3c 79e6 f9bc c132 003d 4e6b e5bc
00000330: a269 03bd f909 593b de46 c0ba dfc4 f9bc
00000340: 0962 003d 5fd1 033d 9573 00bd 02c1 023d
00000350: 7fd5 f4bc 9f29 333d abd0 e13c a1e2 a3ba
00000360: 71d1 febc 2f7b 163d 4b8d 2bba c84e e53c
00000370: ae1e 003d 413f fbbc 2c1b 013d 9c5e e6bc
00000380: 4a33 04bd 2464 0e3b 5a00 65ba 6a7d fbbc
00000390: 5d2d 013d 7e3a 043d 8d60 01bd 59cc 023d
000003a0: 6fb4 f6bc 3f23 2e3d e4f3 e33c affb 69ba
000003b0: 5156 00bd 42cc 153d 3651 2eba cb59 eb3c
000003c0: 9684 ee3c 56d8 eabc 1518 f13c a59d debc
000003d0: 919d f8bc 5793 5d3b 189e f2ba 47bb eabc
000003e0: 9dcd f13c c02a f73c 1e75 f3bc 9dc7 f43c
000003f0: 678a e5bc 2283 323d 680b d43c f6cf d0ba

bias_ih_l0 f4 [80]
0.090416454 0.08735479 0.090734735 0.24956156 0.09473651 0.28806037 0.16030331 0.08725599
0.0914326 0.09223078 0.09312454 0.09281895 0.08156896 0.2853348 0.07292356 0.10465491
0.09045309 0.20887667 8.3584244e-05 0.33728054 0.08465732 0.08089633 0.085065894 0.12855731
0.0901012 0.23451127 0.12737358 0.080990784 0.085328914 0.08992132 0.08694927 0.08793841
0.07847036 0.1871798 0.06924162 0.0819437 0.08441713 0.16743119 6.633062e-05 0.22171728
0.21962906 -0.21777678 0.22257079 -0.15429884 -0.22791143 0.0150885135 0.051642455 -0.2164387
0.22279494 0.21823072 -0.22674973 0.22518636 -0.1954262 0.08469877 0.16734396 0.0349172
-0.22142231 0.121574365 -0.003083987 -0.047963016 0.1277194 0.12295226 0.1289106 0.23737822
0.13586025 0.29495227 0.16032283 0.12291408 0.12989931 0.1329 0.13231823 0.13246976
0.11576387 0.30700898 0.102224566 0.104561895 0.12784989 0.247488 8.433676e-05 0.3494561
00000000: 432c b93d 11e7 b23d 22d3 b93d 118d 7f3e
00000010: 3705 c23d a67c 933e 8d26 243e 45b3 b23d
00000020: 0441 bb3d 7ee3 bc3d 14b8 be3d dd17 be3d
00000030: a00d a73d 6717 923e f358 953d 5055 d63d
00000040: 783f b93d c4e3 553e f349 af38 09b0 ac3e
00000050: d160 ad3d faac a53d 0737 ae3d 87a4 033e
00000060: fa86 b83d b923 703e 386e 023e 7fde a53d
00000070: edc0 ae3d ab28 b83d 7512 b23d 0e19 b43d
00000080: 11b5 a03d 10ac 3f3e 8dce 8d3d 19d2 a73d
00000090: e3e2 ac3d 1573 2b3e fb1a 8b38 db09 633e
000000a0: 71e6 603e e000 5fbe 99e9 633e 8400 1ebe
000000b0: 9d61 69be d035 773c 0a87 533d 1ba2 5dbe
000000c0: 5b24 643e e077 5f3e 1531 68be 4197 663e
000000d0: ce1d 48be 8c76 ad3d 375c 2b3e 5705 0f3d
000000e0: 88bc 62be fbfb f83d b71c 4abb de74 44bd
000000f0: e0c8 023e 65ce fb3d 2401 043e 4713 733e
00000100: f31e 0b3e fc03 973e ab2b 243e 61ba fb3d
00000110: 5304 053e f016 083e 6e7e 073e 27a6 073e
00000120: 9c15 ed3d 4830 9d3e 1d5b d13d 8c24 d63d
00000130: 15eb 023e 7f6d 7d3e f4dd b038 e9eb b23e

bias_hh_l0 f4 [80]
0.090416454 0.08735479 0.09073473 0.24956156 0.09473648 0.2880593 0.16030326 0.08725599
0.0914326 0.09223088 0.093124606 0.09281897 0.081568934 0.2853348 0.07292393 0.104654916
0.09045299 0.20887697 8.361321e-05 0.33728054 0.084657334 0.08089633 0.08506588 0.12855731
0.09010119 0.23451184 0.12737355 0.080990784 0.08532898 0.08992145 0.08694926 0.087938406
0.078470476 0.1871798 0.06924174 0.08194368 0.08441745 0.16743101 6.633706e-05 0.22171728
0.21962911 -0.21777709 0.22257091 -0.10664548 -0.227918 -0.06258924 -0.029686335 -0.2164385
0.22279492 0.21682456 -0.22675008 0.22518149 -0.18917711 0.08764562 0.1667876 -0.013896907
-0.22142278 0.11802555 -0.001946536 -0.0326 0.1277194 0.12295226 0.12891056 0.23737822
0.13586013 0.29495263 0.16032283 0.12291408 0.12989908 0.13290009 0.1323183 0.13246973
0.11576376 0.30700898 0.10222462 0.10456189 0.12784989 0.24748796 8.4344276e-05 0.3494561
00000000: 432c b93d 11e7 b23d 21d3 b93d 118d 7f3e
00000010: 3305 c23d 827c 933e 8a26 243e 45b3 b23d
00000020: 0441 bb3d 8be3 bc3d 1db8 be3d df17 be3d
00000030: 9d0d a73d 6717 923e 2459 953d 5155 d63d
00000040: 6b3f b93d d8e3 553e 8059 af38 09b0 ac3e
00000050: d360 ad3d faac a53d 0537 ae3d 87a4 033e
00000060: f986 b83d df23 703e 366e 023e 7fde a53d
00000070: f6c0 ae3d bd28 b83d 7412 b23d 0d19 b43d
00000080: 21b5 a03d 10ac 3f3e 9dce 8d3d 17d2 a73d
00000090: 0ee3 ac3d 0973 2b3e 701e 8b38 db09 633e
000000a0: 74e6 603e f500 5fbe a1e9 633e f268 dabd
000000b0: 5663 69be ca2e 80bd c230 f3bc 0ea2 5dbe
000000c0: 5a24 643e 4207 5e3e 2c31 68be fa95 663e
000000d0: a5b7 41be 8c7f b33d 5eca 2a3e daaf 63bc
000000e0: a7bc 62be 61b7 f13d e922 ffba 9487 05bd
000000f0: e0c8 023e 65ce fb3d 2101 043e 4713 733e
00000100: eb1e 0b3e 0804 973e ab2b 243e 61ba fb3d
00000110: 4404 053e f616 083e 737e 073e 25a6 073e
00000120: 8d15 ed3d 4830 9d3e 245b d13d 8b24 d63d
00000130: 15eb 023e 7c6d 7d3e fde1 b038 e9eb b23e

weight_ih_l0_reverse f4 [80, 20]
3.9141715e-18 -1.5959322e-19 -1.7057852e-18 1.0469699e-18 1.9326051e-18 -1.3367844e-18 4.1378064e-18 -3.7796786e-18
-1.0803434e-18 1.6355807e-19 2.1390512e-18 1.1986759e-18 3.573133e-18 1.1711842e-18 -3.3919337e-18 -1.246723e-18
8.931742e-19 -2.3713587e-18 4.1701865e-20 3.7276088e-18 3.1678233e-08 -1.3202993e-09 -1.1211397e-08 8.921949e-09
1.6756992e-08 -1.2059924e-08 3.3804373e-08 -3.6434795e-08 -8.475092e-09 2.125214e-09 1.6497204e-08 9.240529e-09
2.7590948e-08 9.945701e-09 -2.8751861e-08 -9.9035145e-09 4.7613264e-09 -2.3481025e-08 3.8728126e-10 3.0983312e-08
4.7256786e-20 -1.9191396e-21 -6.6304887e-21 1.2448851e-20 2.5865922e-20 -1.601903e-20 4.7900068e-20 -4.2132406e-20
-1.5613475e-20 2.5424573e-21 2.782024e-20 1.1974189e-20 3.996313e-20 1.12678365e-20 -4.4274564e-20 -1.6837683e-20
1.1365053e-20 -3.0607098e-20 5.830455e-22 4.4877647e-20 5.965684e-07 -2.624252e-08 -3.3442782e-07 1.5155858e-07
3.479311e-07 -2.0601647e-07 7.4694753e-07 -7.4888885e-07 -1.9869769e-07 1.874619e-08 3.6591456e-07 1.616574e-07
6.322893e-07 1.2297001e-07 -5.3597023e-07 -2.4819542e-07 1.4824315e-07 -3.3113386e-07 6.2934205e-09 5.7928156e-07
0.00028938768 -1.4205435e-05 -0.00029746265 8.028397e-05 0.00018302078 -0.000100637706 0.00047914346 -0.0004565109
-0.00010656652 7.1369027e-06 0.00018485938 0.00011087481 0.000331425 7.121082e-05 -0.00028366773 -0.0001575202
8.4118845e-05 -0.00015714455 2.6173207e-06 0.0002887445 0.03549058 -0.0010127809 -0.020762818 0.011462253
0.008970783 -0.011868898 0.019226514 -0.015004401 -0.0077735884 0.0014321513 0.011916225 0.0066124136
0.017068679 0.014862328 -0.022704441 -0.004080065 0.0075447983 -0.022788646 0.00031222944 0.027128708
0.09733543 -0.0031805106 0.054784656 0.022222992 0.037703894 -0.037717383 0.030671084 -0.059997875
-0.017828764 0.007472815 0.041543476 0.010702603 0.055893872 0.030537078 -0.07260563 -0.012605821
0.0031613847 -0.07355836 0.0018386362 0.08193058 0.07059491 -0.0015962255 0.16011535 0.015083713
0.014329435 -0.025706084 -0.07110723 0.10327031 -0.0055589634 0.006164811 0.01944864 -0.0026055474
0.010034496 0.02881099 -0.037468914 0.024539564 -0.0044184052 -0.058640666 0.0012859944 0.051211968
0.0016548823 -4.371173e-05 0.002188089 0.00031906035 0.0005991834 -0.00061471213 2.509393e-05 0.0006351835
-0.00013698409 0.00014697215 0.00055010244 0.00043340787 0.00071924884 0.0004847066 -0.0012411997 1.9029212e-05
-0.0001365866 -0.0012167506 3.4163604e-05 0.001248049 0.00012960956 -5.0433628e-06 0.00024270226 2.1198923e-05
7.640555e-05 -4.9388807e-05 1.2608561e-05 6.0643317e-05 -2.4813944e-05 1.13921615e-05 6.711778e-05 3.69301e-05
9.700356e-05 3.0860127e-05 -0.00011810735 -6.7993133e-06 -4.4813137e-06 -9.637693e-05 2.7301796e-06 0.00012442764
0.0011261215 -9.34465e-05 -0.008986202 0.0005385254 0.0012144858 -0.0002987171 0.006865813 -0.007976797
-0.0008801552 -6.307786e-05 0.0010539632 0.0012732194 0.0028980689 0.00017495958 -0.001908367 -0.0023071792
0.00097356166 -0.00040486568 -1.1331613e-05 0.0015760323 0.00054496166 -1.7918079e-05 0.0009552771 9.996441e-05
0.00021837575 -0.00022042514 -4.6200377e-05 0.00014091031 -4.1498144e-05 5.7434707e-05 0.00019184926 0.00017030352
0.00022306062 0.00016272166 -0.0004435548 -4.796523e-06 -0.00010077788 -0.00045805224 1.2348631e-05 0.00045767135
9.971066e-05 -3.937083e-06 -2.500567e-05 2.5658923e-05 5.0479768e-05 -3.403102e-05 9.222815e-05 -8.1719154e-05
-2.8901015e-05 4.04166e-06 5.1833093e-05 2.3134544e-05 8.3734325e-05 2.8193806e-05 -8.296269e-05 -2.7179794e-05
00000000: 4e68 9022 176a 3ca0 beba fba1 6881 9a21
00000010: e199 0e22 4946 c5a1 7aa8 9822 0e72 8ba2
00000020: 386e 9fa1 6518 4120 89d5 1d22 b2e4 b021
00000030: 49d3 8322 17d6 ac21 d147 7aa2 ddfb b7a1
00000040: 2bcf 8321 b3f9 2ea2 76ee 441f 4586 8922
00000050: 960e 0833 e775 b5b0 3f9c 40b2 2647 1932
00000060: 04f1 8f32 1b30 4fb2 4d30 1133 7b7c 1cb3
00000070: d999 11b2 290b 1231 bcb5 8d32 47c0 1e32
00000080: 2301 ed32 a8dd 2a32 03fa f6b2 1e24 2ab2
00000090: 1299 a331 52b3 c9b2 fee8 d42f 8312 0533
000000a0: f329 5f1f 8f01 119d 277e fa9d f326 6b1e
000000b0: f64b f41e a34b 979e a133 621f f4f6 469f
000000c0: 1177 939e 471a 401d 9b60 031f a02f 621e
000000d0: 76b8 3c1f ead7 541e aa14 519f 0507 9f9e
000000e0: 06ae 561e b689 109f f636 301c bfed 531f
000000f0: de23 2035 e96b e1b2 698b b3b4 1bbc 2234
00000100: 49cb ba34 6035 5db4 d881 4835 4007 49b5
00000110: 9b59 55b4 4f07 a132 ea72 c434 0c94 2d34
00000120: 97ba 2935 bd09 0434 98df 0fb5 b83f 85b4
00000130: c42c 1f34 b1c6 b1b4 833d d831 ed7f 1b35
00000140: f5b8 9739 e153 6eb7 c3f4 9bb9 215e a838
00000150: 44e9 3f39 750d d3b8 8c35 fb39 db57 efb9
00000160: 777c dfb8 8779 ef36 d0d6 4139 7685 e838
00000170: 1cc3 ad39 0557 9538 3db9 94b9 022c 25b9
00000180: f668 b038 2bc7 24b9 3aa5 2f36 a162 9739
00000190: 925e 113d 4abf 84ba c916 aabc 2ccc 3b3c
000001a0: 31fa 123c c475 42bc ec80 9d3c 05d5 75bc
000001b0: 96b9 febb 06b7 bb3a 453c 433c f2ac d83b
000001c0: 9dd3 8b3c 1f81 733c aafe b9bc 11b2 85bb
000001d0: 5b3a f73b 41af babc bab2 a339 063d de3c
000001e0: cc57 c73d 1d70 50bb e065 603d fe0c b63c
000001f0: 666f 1a3d 8b7d 1abd ed41 fb3c 55c0 75bd
00000200: a10d 92bc 84de f43b 7e29 2a3d f859 2f3c
00000210: f9f0 643d e528 fa3c 43b2 94bd a588 4ebc
00000220: 3c2f 4f3b c4a5 96bd 65fe f03a 38cb a73d
00000230: 1094 903d 7138 d1ba 47f5 233e ae21 773c
00000240: 02c6 6a3c 9195 d2bc aba0 91bd 627f d33d
00000250: f727 b6bb 2f02 ca3b c152 9f3c d5c1 2abb
00000260: ba67 243c 0605 ec3c 0179 19bd 3207 c93c
00000270: 45c8 90bb 3231 70bd d08e a83a a4c3 513d
00000280: a3e8 d83a 1d57 37b8 0b66 0f3b 8e47 a739
00000290: 8412 1d3a a224 21ba ce80 d237 7182 263a
000002a0: 63a3 0fb9 891c 1a39 c034 103a 053b e339
000002b0: f98b 3c3a 3820 fe39 c0af a2ba eca0 9f37
000002c0: b038 0fb9 607b 9fba e44a 0f38 9395 a33a
000002d0: cde7 0739 283a a9b6 e47d 7e39 57d4 b137
000002e0: eb3b a038 d426 4fb8 5b89 5337 445b 7e38
000002f0: 8a27 d0b7 f620 3f37 95c1 8c38 65e5 1a38
00000300: 646e cb38 cf6f 0138 67b0 f7b8 a825 e4b6
00000310: 315e 96b6 f81d cab8 2138 3736 ca78 0239
00000320: 5e9a 933a b5f8 c3b8 dd3a 13bc d42b 0d3a
00000330: 622f 9f3a 219d 9cb9 9dfa e03b 1db1 02bc
00000340: 37ba 66ba ab48 84b8 2325 8a3a 27e2 a63a
00000350: 87ed 3d3b 5b75 3739 2c22 faba 0b34 17bb
00000360: 9e36 7f3a 2744 d4b9 e81c 3eb7 de92 ce3a
00000370: c2db 0e3a c84e 96b7 906b 7a3a fca3 d138
00000380: cbfb 6439 ec21 67b9 47c7 41b8 53c1 1339
00000390: 4b0e 2eb8 0ce6 7038 252b 4939 8193 3239
000003a0: 61e5 6939 43a0 2a39 eb8c e8b9 d2f1 a0b6
000003b0: b658 d3b8 bb26 f0b9 f72c 4f37 9cf3 ef39
000003c0: c11b d138 491b 84b6 44c3 d1b7 1e3e d737
000003d0: 3dba 5338 88bc 0eb8 9c6a c138 a360 abb8
000003e0: 7570 f2b7 989d 8736 5c67 5938 0e11 c237
000003f0: 869a af38 bd81 ec37 41fc adb8 2a00 e4b7

weight_hh_l0_reverse f4 [80, 20]
8.217723e-26 9.801349e-21 7.768805e-27 3.0232214e-20 9.048109e-19 9.8902305e-18 -2.2381027e-17 8.494374e-18
4.2033543e-18 1.0518381e-18 -3.7567665e-18 3.4800808e-18 -5.333032e-19 2.825324e-21 6.921005e-23 -6.420999e-18
-4.6720265e-18 -3.3898578e-19 3.3360458e-19 -5.1870695e-21 7.298744e-16 5.7562247e-11 7.1049143e-17 2.0657027e-10
5.3524567e-09 7.306236e-08 -1.5484814e-07 3.9874983e-08 4.7323063e-08 8.71329e-09 -2.405498e-08 3.0213723e-08
-3.8116075e-09 2.258919e-11 1.186178e-11 -6.408074e-08 -2.9663413e-08 -2.192762e-09 3.4104768e-09 -4.7122396e-11
8.649193e-28 8.967081e-23 9.607249e-29 3.9978522e-22 1.0568162e-20 1.1715881e-19 -2.5775462e-19 9.184233e-20
5.2245435e-20 1.2628318e-20 -4.1590864e-20 3.564531e-20 -5.487619e-21 3.1942114e-23 1.3301025e-23 -7.2808185e-20
-4.8057413e-20 -3.1248327e-21 3.771594e-21 -4.9677506e-23 7.682765e-15 8.2848145e-10 6.005665e-16 9.1337377e-10
5.6672487e-08 2.21556e-06 -4.2706797e-06 -2.1752457e-07 1.0964387e-06 2.61996e-07 -1.6578143e-07 7.6053396e-07
-5.0238903e-08 2.3286728e-10 7.932931e-10 -1.3981353e-06 -1.992457e-07 -2.0581425e-08 7.871055e-08 -3.0353473e-10
7.136419e-12 5.534213e-07 6.23134e-13 1.3646468e-06 5.334718e-05 0.0012653568 -0.0024389816 0.00015128609
0.0006337539 0.00014754565 -0.00022895348 0.00044349197 -3.963792e-05 2.1770082e-07 3.3908594e-07 -0.00082039344
-0.0002442801 -1.9743644e-05 4.639935e-05 -3.353058e-07 5.8482397e-10 4.8968737e-05 5.7531636e-11 0.00018648805
0.0053476063 0.03907754 -0.10215535 0.039343107 0.02115917 0.004199138 -0.023749275 0.014244414
-0.003076666 1.786012e-05 -1.1461501e-05 -0.027268412 -0.025026958 -0.002046102 0.0013572874 -3.4496843e-05
-3.2376428e-11 -3.6969511e-06 -4.548968e-12 -9.205343e-05 -0.0013268929 0.051423583 -0.0873317 -0.024856703
0.024493357 0.007020319 0.0064505385 0.01890338 2.8436538e-05 -1.7014579e-06 3.4240762e-05 -0.032266404
0.005660802 0.00052591506 0.0019774074 8.151426e-06 6.1367494e-10 5.950785e-05 6.713192e-11 0.00024700313
0.0060867015 -0.07958837 -0.045907587 0.067980446 0.011986506 0.0024596315 -0.025878588 0.011992228
-0.0034404292 2.0134268e-05 -2.8925286e-05 -0.024019578 -0.026693106 -0.0024561186 0.00096717244 -4.0687493e-05
-6.40227e-12 -7.3741563e-07 -9.609703e-13 -5.3137865e-06 -9.682701e-05 0.006465158 -0.00894557 -0.002128206
0.0014460575 0.00038798866 0.00056535366 0.0009044145 2.757486e-05 -2.1314749e-07 2.271284e-06 -0.001503884
0.0006113488 3.5349825e-05 0.00010069858 4.772884e-07 -4.168966e-12 -4.2855376e-07 -4.7919074e-13 -2.479241e-06
-5.561046e-05 0.00063765125 -0.00075771165 -0.0009225287 0.00015273319 5.4553155e-05 0.00026681495 0.00010842633
2.4734873e-05 -1.4969207e-07 5.2241825e-07 -0.0001621289 0.00027737152 2.138526e-05 1.3142628e-05 3.2836724e-07
6.8485204e-11 6.973663e-06 6.149972e-12 1.35394075e-05 0.0006020466 0.012588237 -0.022516487 -0.00091496925
0.006932874 0.0017216085 -0.0020049112 0.004833891 -0.00043512133 2.0536793e-06 4.1315343e-06 -0.009208019
-0.0022622931 -0.00021535032 0.0005094323 -3.120457e-06 -5.516236e-13 -4.2072386e-07 -3.4706976e-13 -3.5557373e-06
-7.128393e-05 0.002171355 -0.0032367941 -0.0011730597 0.000439227 0.00013487291 0.00023630956 0.00028434308
3.1796324e-05 -5.5405593e-08 9.39612e-07 -0.00043482066 0.00033453337 2.6528187e-05 3.2272113e-05 3.1643702e-07
1.9998669e-12 1.7327046e-07 1.8694494e-13 5.9681395e-07 1.9087922e-05 0.00033828357 -0.0006827724 0.00015591193
0.00015795507 3.5856632e-05 -7.737968e-05 0.00010960385 -1.2915487e-05 6.497893e-08 5.186959e-08 -0.0002081318
00000000: 0276 cb15 6a24 391e 85e0 1914 81c4 0e1f
00000010: ca86 8521 4b71 3623 b56d cea3 8cb1 1c23
00000020: 8f13 9b22 5239 9b21 a899 8aa2 6f64 8022
00000030: 4067 1da1 b779 551d f256 a71a 9fe4 eca2
00000040: 0b5e aca2 151a c8a0 e6ec c420 42f6 c39d
00000050: 3a5f 5226 5429 7d2e 03d4 a324 5d20 632f
00000060: b5e8 b731 75e6 9c33 5544 26b4 0243 2b33
00000070: 4240 4b33 74b1 1532 76a1 ceb2 57c4 0133
00000080: 41f7 82b1 55b2 c62d b5ac 502d c29c 89b3
00000090: 89ce feb2 7aaf 16b1 be5d 6a31 1a3f 4fae
000000a0: 4c0d 8912 8bcf d81a 9c92 f310 c4a7 f11b
000000b0: 7fa0 471e 1451 0a20 c726 98a0 48db d81f
000000c0: dbb8 761f cc8a 6e1e 4568 449f 8954 281f
000000d0: ff50 cf9d 6c76 1a1a bea3 8019 d9e9 ab9f
000000e0: d9f1 629f 0e1b 6c9d 9e7c 8e1d c639 709a
000000f0: 8066 0a28 33bb 6330 fc19 2d26 f710 7b30
00000100: 0f68 7333 08af 1436 dc4c 8fb6 b390 69b4
00000110: 5929 9335 75a8 8c34 a701 32b4 7f27 4c35
00000120: 42c6 57b3 2805 802f 0a0f 5a30 90a7 bbb5
00000130: 3ef0 55b4 08cb b0b2 9507 a933 b7de a6af
00000140: 2617 fb2c d28e 1435 8965 2f2b e828 b735
00000150: 19c1 5f38 54da a53a 52d7 1fbb 8da2 1e39
00000160: 8122 263a 7cb6 1a39 3b13 70b9 7c84 e839
00000170: e440 26b8 25c1 6934 9e0b b634 ac0f 57ba
00000180: b812 80b9 279f a5b7 ec9c 4238 1404 b4b4
00000190: 54c1 2030 c863 4d38 dd06 7d2e 018c 4339
000001a0: f93a af3b c50f 203d d336 d1bd 3d26 213d
000001b0: ff55 ad3c ec98 893b d78d c2bc 6761 693c
000001c0: e4a1 49bb 51d2 9537 c64a 40b7 0162 dfbc
000001d0: 5605 cdbc e517 06bb 02e7 b13a b4b0 10b8
000001e0: 9e64 0eae 2319 78b6 760d a0ac cf0c c1b8
000001f0: 23eb adba 89a1 523d f6da b2bd 49a0 cbbc
00000200: 4ba6 c83c b40a e63b 0a5f d33b 43db 9a3c
00000210: 008b ee37 a65d e4b5 bd9d 0f38 c729 04bd
00000220: 407e b93b 90dd 093a 6497 013b 1cc2 0837
00000230: 89af 2830 1198 7938 e99f 932e 3380 8139
00000240: f472 c73b 3aff a2bd 9809 3cbd 5539 8b3d
00000250: 0d63 443c c531 213b 55ff d3bc 0d7b 443c
00000260: d378 61bb 03e6 a837 94a4 f2b7 b5c4 c4bc
00000270: 80ab dabc d5f6 20bb d889 7d3a dda7 2ab8
00000280: 8642 e1ac d1f2 45b5 9b3e 87ab 144d b2b6
00000290: 9b0f cbb8 add9 d33b 7190 12bc 5f79 0bbb
000002a0: a389 bd3a f56a cb39 3e34 143a 3b16 6d3a
000002b0: 9050 e737 89dd 64b4 5d6c 1836 f91d c5ba
000002c0: ec42 203a 9644 1438 232e d338 021f 0035
000002d0: b5ae 92ac fb13 e6b4 55e1 06ab 0961 26b6
000002e0: 473f 69b8 0d28 273a 2ba1 46ba dad5 71ba
000002f0: 0127 2039 01d0 6438 4ce3 8b39 f162 e338
00000300: bc7d cf37 0bbb 20b4 4f3c 0c35 2501 2ab9
00000310: 2d6c 9139 7f64 b337 287f 5c37 734a b034
00000320: be99 962e 4fff e936 0662 d82c 5027 6337
00000330: aad2 1d3a e53e 4e3c 7f74 b8bc 8cda 6fba
00000340: 2a2d e33b 98a7 e13a d464 03bb 9e65 9e3b
00000350: ff20 e4b9 f1d1 0936 9ca1 8a36 3bdd 16bc
00000360: fb42 14bb a9cf 61b9 6c8b 053a 0b69 51b6
00000370: ab44 1bab d9df e1b4 0662 c3aa 1a9f 6eb6
00000380: 457e 95b8 4b4d 0e3b 6520 54bb 5ac1 99ba
00000390: 0d48 e639 ac6c 0d39 ddc9 7739 e213 9539
000003a0: 0b5d 0538 18f7 6db3 a539 7c35 a4f8 e3b9
000003b0: 4f64 af39 d988 de37 eb5b 0738 c6e2 a934
000003c0: 66ba 0c2c 390c 3a34 367b 522a be34 2035
000003d0: 001f a037 a75b b139 15fc 32ba 4a7c 2339
000003e0: bea0 2539 c464 1638 e646 a2b8 1edb e538
000003f0: 98af 58b7 8b8a 8b33 38c7 5e33 f43d 5ab9

bias_ih_l0_reverse f4 [80]
7.9476036e-17 7.7745887e-07 9.27684e-19 1.651461e-05 0.0095338235 0.2855075 0.43938515 0.42057306
0.014582258 0.0016877064 0.10761296 0.003506763 0.0024907794 8.224904e-08 4.5329543e-07 0.010744367
0.11551203 0.001555644 7.2780276e-05 4.1331722e-07 6.018974e-17 6.160026e-07 7.5755775e-19 1.3036903e-05
0.007822648 0.3138878 0.44812286 0.29081 0.012528782 0.0013015637 0.1052319 0.0031292944
0.001941323 6.4509955e-08 3.4231704e-07 0.009596204 0.1117355 0.0012552204 5.880115e-05 3.2852282e-07
3.133447e-10 3.1464817e-05 -6.734506e-11 0.0037252642 0.0046657654 0.02574052 0.035010587 -0.05223956
0.058151193 0.014097403 -0.008431365 0.05186276 -0.0024661908 8.644882e-06 4.365726e-05 -0.077992305
-0.013355203 -0.0042293915 0.004373605 -0.00043761785 7.9601615e-17 7.790155e-07 9.796462e-19 1.6569491e-05
0.009576309 0.3497966 0.5854088 0.45421445 0.0150720775 0.0017045797 0.11073772 0.0036008223
0.0024949147 8.293479e-08 4.6398048e-07 0.011259231 0.11912173 0.0015586953 7.32179e-05 4.13018e-07
00000000: 5f42 b724 91b2 5035 e9e6 8821 db88 8a37
00000010: c133 1c3c 0a2e 923e 17f7 e03e 5a55 d73e
00000020: 6cea 6e3c 0836 dd3a 2f64 dc3d b8d1 653b
00000030: 583c 233b e3a0 b033 735c f334 2409 303c
00000040: 9291 ec3d c0e6 cb3a 9da1 9838 e3e5 dd34
00000050: c0c9 8a24 605b 2535 7297 5f21 12b9 5a37
00000060: 902a 003c e7b5 a03e 5c70 e53e 0ce5 943e
00000070: 8545 4d3c 3b99 aa3a d383 d73d d914 4d3b
00000080: fe73 fe3a b988 8a33 b2c7 b734 6639 1d3c
00000090: 95d5 e43d 3586 a43a 41a1 7638 d55f b034
000000a0: 5943 ac2f 17f9 0338 e617 94ae 9023 743b
000000b0: 47e3 983b c8dd d23c 4367 0f3d 26f9 55bd
000000c0: f22f 6e3d cbf8 663c b523 0abc 0c6e 543d
000000d0: d19f 21bb 7c09 1137 a01c 3738 6eba 9fbd
000000e0: c8cf 5abc b596 8abb 7550 8f3b 1370 e5b9
000000f0: 808c b724 8a1d 5135 fd91 9021 b6fe 8a37
00000100: f3e5 1c3c 8a18 b33e 5add 153f cc8e e83e
00000110: e0f0 763c 346c df3a 75ca e23d c6fb 6b3b
00000120: b981 233b e219 b233 fe18 f934 a378 383c
00000130: 18f6 f33d 234d cc3a 908c 9938 c3bc dd34

bias_hh_l0_reverse f4 [80]
7.914616e-17 7.774563e-07 9.287257e-19 1.6514527e-05 0.0095339455 0.28550753 0.43938515 0.42057315
0.014582255 0.0016877073 0.10761295 0.0035067617 0.002490779 8.2268585e-08 4.5325916e-07 0.010744365
0.11551203 0.0015556249 7.2784846e-05 4.1335957e-07 6.0098496e-17 6.1606283e-07 7.5523653e-19 1.3039421e-05
0.00782271 0.31388786 0.44812286 0.29083496 0.012528761 0.0013015599 0.10523221 0.0031292941
0.001941335 6.452115e-08 3.423568e-07 0.009596204 0.11173546 0.001255219 5.8794107e-05 3.284995e-07
3.1331235e-10 2.58668e-05 9.895716e-11 -0.003624308 0.0012806428 -0.01004101 -0.020627135 0.043892812
0.04470745 0.014332916 -0.0015938119 0.03598155 -0.00387021 8.707058e-06 4.3645698e-05 -0.07795422
-0.005050766 0.0020805346 0.004373612 0.0004126901 7.961282e-17 7.790104e-07 9.744983e-19 1.6569455e-05
0.009576307 0.3497966 0.5854088 0.45421487 0.015072075 0.0017045852 0.11073778 0.0036008193
0.002494901 8.296892e-08 4.6399677e-07 0.011259238 0.11912175 0.0015587342 7.321584e-05 4.1301863e-07
00000000: a67f b624 64b2 5035 440e 8921 ad88 8a37
00000010: 4434 1c3c 0b2e 923e 17f7 e03e 5d55 d73e
00000020: 69ea 6e3c 0f36 dd3a 2e64 dc3d b3d1 653b
00000030: 563c 233b a2ab b033 7757 f334 2209 303c
00000040: 9291 ec3d 1ce6 cb3a 11a4 9838 b5eb dd34
00000050: e493 8a24 845f 2535 0fe8 5e21 e3c3 5a37
00000060: d32a 003c e9b5 a03e 5c70 e53e 52e8 943e
00000070: 6f45 4d3c 1a99 aa3a fc83 d73d d814 4d3b
00000080: 6574 fe3a e18e 8a33 29cd b734 6639 1d3c
00000090: 90d5 e43d 2986 a43a b199 7638 a15c b034
000000a0: cb3e ac2f 88fc d837 ee9b d92e cc85 6dbb
000000b0: 3edb a73a 0c83 24bc 3dfa a8bc f3c8 333d
000000c0: 291f 373d 9bd4 6a3c 74e7 d0ba 6461 133d
000000d0: 59a3 7dbb 8814 1237 3610 3738 76a6 9fbd
000000e0: e580 a5bb 9459 083b 8450 8f3b 545e d839
000000f0: 1d93 b724 301d 5135 81cf 8f21 a2fe 8a37
00000100: f1e5 1c3c 8a18 b33e 5add 153f da8e e83e
00000110: ddf0 763c 636c df3a 7dca e23d b9fb 6b3b
00000120: 7e81 233b a52c b233 3b1b f934 ab78 383c
00000130: 1bf6 f33d 714e cc3a 748b 9938 d9bc dd34

weight_ih_l1 f4 [80, 40]
0.0009660433 -0.0015952097 0.002514609 -0.0036329457 -0.000860707 0.0002156714 -0.0013008297 0.00020500744
0.002697811 -0.00023607243 -0.0027130703 0.0013128943 -0.0013584767 0.0056175883 0.00070979324 -0.0013757262
-0.0011072796 0.0042087194 -4.5045388e-05 0.005227752 2.5949176e-12 1.7008348e-07 -5.090948e-14 -7.5327506e-08
-8.671431e-06 -0.0010178756 0.0014752124 -0.00095760147 -4.1711028e-05 4.5509667e-05 3.4631048e-05 0.000104532664
-1.1288787e-05 1.3499376e-08 8.886942e-08 -0.0002609804 2.7244027e-05 -4.441695e-06 1.9016055e-05 5.9586355e-08
0.00047612036 -0.000525552 0.000650487 -0.0010694768 -0.0004333986 0.00016068165 -0.00022744834 -0.00056143344
0.000689261 0.00037799432 -0.0006605016 0.00058787025 -0.0005192344 0.001007751 0.00046069568 -0.0001995078
-0.0005068745 0.0012014817 -1.5329617e-05 0.0012829241 4.6070884e-13 3.061548e-08 1.4237165e-14 -7.596286e-09
1.498152e-06 1.1508739e-05 1.7017215e-05 -0.00012532677 3.435736e-05 1.3516086e-05 3.7277812e-06 4.0333114e-05
-2.5756647e-06 8.667902e-09 4.0380435e-08 -6.884995e-05 -3.183357e-06 -1.1098439e-06 3.9606325e-06 -3.9946446e-09
0.08361772 -0.08007118 0.0797894 -0.1123481 -0.08587422 -0.005624777 -0.0004023691 -0.08014826
0.08074823 0.08321991 -0.07926669 0.091444835 -0.07916916 0.13710397 0.07381149 -0.0002576584
-0.08239521 0.10230666 -0.0022166448 0.18037373 -2.363001e-10 -1.611663e-05 -3.002069e-11 -7.250578e-05
-0.0024327869 -0.08860372 0.107595876 -0.025550183 -0.00080686575 0.001466934 0.011378186 0.0044199685
0.0007987549 -7.1595396e-06 1.2288752e-05 -0.008986217 0.010674096 0.000820359 0.00039442777 1.672215e-05
0.123007454 -0.11842758 0.12629078 -0.13901067 -0.12683882 -0.0020323566 0.0008961859 -0.12315502
0.12261124 0.12956277 -0.12428925 0.12613234 -0.12224765 0.13774408 0.11257212 -0.00080153794
-0.12640649 0.16150507 -0.003367051 0.16551557 6.821909e-11 1.0508968e-05 7.803204e-12 1.5885542e-05
0.0008596498 0.0016122933 0.005991642 -0.007243483 0.012577771 0.0032514515 -0.0013926004 0.010067589
-0.00080231973 1.5214841e-06 8.586893e-06 -0.018561043 -0.0027764356 -0.000292103 0.0010169874 -4.2074776e-06
0.03039584 -0.03142812 0.03455198 -0.04006077 -0.0334734 -0.0025837198 0.0012127267 -0.03389334
0.03355856 0.033516925 -0.032893214 0.033486124 -0.032292534 0.04031634 0.028517218 0.0003977578
-0.03401268 0.04599659 -0.0009147287 0.048604116 7.125307e-12 1.449016e-06 1.9886264e-13 2.9665478e-06
0.00015377805 0.004178661 -0.0018401697 -0.00094559893 0.0028855468 0.00072044716 -0.0006028738 0.0023128332
-0.00015662989 1.2208582e-07 2.2782122e-06 -0.003763876 -0.00082478137 -3.3843102e-05 0.00023296334 -4.967935e-07
0.02720424 -0.026506454 0.030053085 -0.036144823 -0.027766975 0.00067244854 -0.0003843852 -0.030624634
0.029723262 0.02904373 -0.027045734 0.02913037 -0.027699575 0.036251 0.025459392 -0.00047997272
-0.02936401 0.042952448 -0.00079239917 0.044217855 8.222194e-12 1.507194e-06 8.800081e-13 4.029021e-06
0.00018556826 0.00497872 -0.002917233 5.245064e-05 0.0026152807 0.0006064068 -0.0006115607 0.0020151243
-0.00015478871 3.3070125e-07 2.0020568e-06 -0.0032289189 -0.000766416 -3.2557255e-05 0.00019465917 -5.4867417e-07
-0.00056995 -0.0005898104 0.0007409583 -0.0011676063 -0.00018145338 -0.00024336742 -0.00061986357 0.00085729285
0.0011039671 -0.0010863491 -0.0015957663 0.00024602585 -9.2001545e-05 0.0030315265 -0.00019484812 -0.00067023165
00000000: 123e 7d3a 5b16 d1ba 23cc 243b b716 6ebb
00000010: 12a1 61ba da25 6239 9a80 aaba 44f7 5639
00000020: c2cd 303b 368a 77b9 c4cd 31bb 6c15 ac3a
00000030: ea0e b2ba bf13 b83b 6b11 3a3a b651 b4ba
00000040: 2322 91ba 4ce9 893b 1eef 3cb8 904d ab3b
00000050: e199 362c 31a0 3634 a246 65a9 bcc3 a1b3
00000060: 837b 11b7 3d6a 85ba ea5b c13a 8c07 7bba
00000070: e0f2 2eb8 a2e1 3e38 ce40 1138 8c38 db38
00000080: f964 3db7 e2ea 6732 7bd8 be33 32d4 88b9
00000090: 1a8a e437 df09 95b6 ab84 9f37 e4eb 7f33
000000a0: cb9f f939 33c5 09ba 7285 2a3a b02d 8cba
000000b0: c739 e3b9 a77c 2839 337f 6eb9 292d 13ba
000000c0: 86af 343a 8a2d c639 8325 2dba 4e1b 1a3a
000000d0: 3b1d 08ba 8316 843a 8789 f139 f832 51b9
000000e0: c6df 04ba 097b 9d3a 1a98 80b7 ca27 a83a
000000f0: 92ad 012b 147e 0333 ab3c 8028 d280 02b2
00000100: 1c14 c935 a815 4137 31c0 8e37 266a 03b9
00000110: ef1a 1038 26c3 6237 cb2a 7a36 5a2b 2938
00000120: 95d9 2cb6 d6e9 1432 c26e 2d33 8963 90b8
00000130: a8a1 55b6 f2f5 94b5 93e5 8436 4441 89b1
00000140: c43f ab3d 5cfc a3bd a068 a33d c316 e6bd
00000150: d3de afbd 0d50 b8bb 11f5 d2b9 c524 a4bd
00000160: 545f a53d 336f aa3d 9356 a2bd 6e47 bb3d
00000170: 7123 a2bd fc64 0c3e 7a2a 973d 5316 87b9
00000180: d2be a8bd 2786 d13d 2145 11bb e4b3 383e
00000190: 48e8 81af 3332 87b7 4b08 04ae 3f0e 98b8
000001a0: 646f 1fbb de75 b5bd 3a5b dc3d 9e4e d1bc
000001b0: d883 53ba 2346 c03a 926b 3a3c 62d5 903b
000001c0: 8963 513a fa3b f0b6 ca2b 4e37 ed3a 13bc
000001d0: 67e2 2e3c 5c0d 573a 33cb ce39 8b46 8c37
000001e0: 55eb fb3d 298a f2bd 5f52 013e d058 0ebe
000001f0: 09e2 01be 4931 05bb 05ee 6a3a b338 fcbd
00000200: 9a1b fb3d 1aac 043e 5d8b febd d628 013e
00000210: fa5c fabd c90c 0d3e 368c e63d 4d1e 52ba
00000220: b470 01be 9661 253e bea9 5cbb ea7c 293e
00000230: ef03 962e ad4f 3037 8246 092d f141 8537
00000240: 1f5a 613a 9653 d33a 8955 c43b bd5a edbb
00000250: ff12 4e3c 4e16 553b ea87 b6ba 87f2 243c
00000260: c452 52ba cc35 cc35 6d10 1037 540d 98bc
00000270: dcf4 35bb 6725 99b9 6f4c 853a f52d 8db6
00000280: b200 f93c c6ba 00bd 6186 0d3d c316 24bd
00000290: 671b 09bd a053 29bb 5bf4 9e3a bed3 0abd
000002a0: b374 093d 0b49 093d 09bb 06bd bf28 093d
000002b0: 2d45 04bd bf22 253d f19c e93c 268a d039
000002c0: e150 0bbd ec66 3c3d 67ca 6fba 1c15 473d
000002d0: 0fb3 fa2c d07b c235 41e6 5f2a e714 4736
000002e0: 7b3f 2139 26ed 883b d931 f1ba 12e2 77ba
000002f0: 711b 3d3b 64dc 3c3a 2d0a 1eba e792 173b
00000300: 043d 24b9 b216 0334 63e3 1836 5cab 76bb
00000310: 2436 58ba c1f2 0db8 9f47 7439 645b 05b5
00000320: 6ddb de3c 1024 d9bc e331 f63c 980c 14bd
00000330: 9177 e3bc 4247 303a 4f87 c9b9 83e0 fabc
00000340: 337e f33c 1eed ed3c 048f ddbc d0a2 ee3c
00000350: 38ea e2bc ee7b 143d 3790 d03c d9a4 fbb9
00000360: cb8c f0bc e8ee 2f3d 02b9 4fba c81d 353d
00000370: 78a5 102d cb4a ca35 44b3 772b 0731 8736
00000380: 1a95 4239 8824 a33b 0c2f 3fbb 72fe 5b38
00000390: 2165 2b3b 45f7 1e3a 2551 20ba 2d10 043b
000003a0: c74e 22b9 3c8b b134 135b 0636 459c 53bb
000003b0: 4fe9 48ba 168e 08b8 6c1d 4c39 9a48 13b5
000003c0: b268 15ba 829d 1aba df3c 423a 5e0a 99ba
000003d0: 8544 3eb9 7230 7fb9 577e 22ba f3bb 603a
000003e0: fdb2 903a d463 8eba 0829 d1ba 08fd 8039
000003f0: f4f0 c0b8 93ac 463b 2550 4cb9 7cb2 2fba
